models/AC-RM-2 Q_LR=0.001 P_LR=5e-06 BATCH_SIZE=128 GAMMA=0.99 MEMORY_SIZE=150000_policy_3760.pt (torch, 319744 bytes, 22 tensors)

base.0.weight f4 [32, 2, 5, 5]
000000 94 f4 fd 3d 4e 36 f9 bd 89 ab a8 bc f9 37 e4 3d
       0.12400165 -0.12168561 -0.020589607 0.111434884
000010 7d c9 b4 3d 03 9d c7 3d 86 c1 f9 3c f4 06 bf 3d
       0.08827493 0.097467445 0.030487787 0.09327498
000020 72 66 c2 bc eb 3a ed bd 8a c6 83 3d 69 6a 0e 3d
       -0.02373049 -0.11583503 0.06434353 0.03476945
000030 58 ac 77 bd 46 ae a1 bd d6 f4 39 bd 85 0a 83 bd
       -0.060467094 -0.07894568 -0.04539951 -0.06398491
000040 0b 85 97 bd b6 44 d3 3d 22 a9 06 3d cd 6d eb bc
       -0.07398423 0.1031584 0.03287614 -0.02873888
000050 21 49 d0 3d ef a6 c2 bd e0 e3 ab bc f8 0d b2 3d
       0.10170198 -0.09504496 -0.020982683 0.086940706
000060 03 03 27 3d 42 34 a8 3d 81 c2 53 3c 3c 11 17 bd
       0.040774357 0.082130924 0.012924791 -0.03688167
000070 f9 b5 00 bd d6 dc d6 3d f7 b3 84 3b 69 2e 35 3c
       -0.031423543 0.1049134 0.004049774 0.011058428
000080 04 37 64 3d 84 13 d0 bd bd 65 f0 3d f4 7a 1e bb
       0.05571653 -0.10159972 0.11738155 -0.0024182172
000090 d1 ae 5e 3d 18 95 9d 3d 2b a2 24 bd 2b 05 36 bd
       0.054365937 0.07694453 -0.040193718 -0.044438522
0000a0 ce 3d e3 3d c4 ff 04 3e 36 fe 07 bd c3 25 f3 3d
       0.11095773 0.12988192 -0.03320142 0.11872437
0000b0 83 e7 7f bd 07 5e af 3c 38 22 e5 bd 30 5b 8a 3d
       -0.062476646 0.02140714 -0.11188167 0.06755674
0000c0 82 cc 6f 3d fc 26 6d bd 68 a8 b1 3d 42 2f 0d bd
       0.058544643 -0.057898507 0.08674699 -0.034468897
0000d0 22 29 d6 3b 62 33 01 3e 6a 75 6c bc 39 dd 2b bc
       0.006535665 0.12617257 -0.014432291 -0.010489755
0000e0 fa 5d 6a 3c ff dc db bd 9c 92 fd 3c 69 fb a9 bc
       0.014304632 -0.10735511 0.030953698 -0.020749765
0000f0 12 df 99 3d 65 3c 90 3c 27 92 77 bd 42 6f 95 3d
       0.075132504 0.017606923 -0.060442116 0.07296611
000100 08 ca 30 3d 59 7b a5 3d 53 69 fa bd 72 fa 0a be
       0.043161422 0.08080167 -0.1222712 -0.135721
000110 ec 8f f6 3d 1a 31 69 bd c2 c6 fb 3d 04 eb 53 3d
       0.1203917 -0.056931593 0.122937694 0.0517378
000120 e0 31 e7 3d 58 72 9a 3c 9f c4 e7 3d de b0 bd 3b
       0.1128881 0.018853351 0.11316799 0.0057889065
000130 13 42 96 bd 4b c5 be bd 07 fe db bd e1 19 26 bc
       -0.073368214 -0.093149744 -0.10741811 -0.010138006
000140 bd 69 e3 3d 8f 63 07 3e 54 c9 b1 3d 13 43 a6 3d
       0.11104152 0.13221572 0.086809784 0.08118262
000150 9f d3 7d bc 05 57 56 3d fa 51 da 3d 74 ea 12 bd
       -0.015492349 0.052329082 0.10660167 -0.035868123
000160 c7 b2 b1 3d 41 65 6a 3d f4 90 c6 bd 77 a0 69 bd
       0.08676677 0.05722547 -0.09695616 -0.057037797
000170 aa fc 27 3c 9c 0f 12 be 42 ad a0 3d d9 5b cb bd
       0.010253111 -0.14263767 0.07845546 -0.09929628
000180 a2 95 87 3d 9e 7d 74 bd 15 40 82 bd 28 e3 52 3c
       0.06620337 -0.05969011 -0.06359879 0.012871541
000190 88 5c a5 bc d4 4f c9 bd 51 05 0b bd 15 bd e5 bc
       -0.020185724 -0.09829679 -0.033940617 -0.028044263
0001a0 4b 73 88 3b 7e 7e f9 3d 6a c4 f9 bd 94 af 00 3d
       0.0041641346 0.121823296 -0.12195666 0.031417444
0001b0 de 1a e6 3c c6 a2 e8 3b 01 ee d5 3d 5b e9 c9 bd
       0.028088983 0.007099482 0.10445786 -0.09858962
0001c0 0e f2 02 be fd c9 81 3d d2 31 90 bd bf ac fb 3a
       -0.12787649 0.06337354 -0.070407525 0.0019201263
0001d0 57 e7 db bd d3 ae d5 bd d9 3f ac 3c 14 3e 28 bd
       -0.10737484 -0.10433736 0.021026539 -0.041074827
0001e0 74 46 c3 3d bf 99 fa bd 13 0a 2f bd 20 71 e9 bb
       0.09534922 -0.12236356 -0.042734217 -0.0071240813
0001f0 5f 6e af bd d8 b7 52 3d bd 3b 60 3d 48 39 bc 3c
       -0.085659735 0.05144486 0.05474447 0.022976533
000200 6b 66 21 bd 72 1b 0c be 28 eb 4e 3d d3 2d fe bd
       -0.039404314 -0.13682345 0.05051723 -0.12411084
000210 b1 df 9b 3d 2d 84 41 3d 98 5c 86 3d 46 d0 fa bd
       0.07611025 0.047245193 0.065606296 -0.12246756
000220 0f ec 0c be 3a 28 5d bc 9f f7 fa 3c f5 9a dd bd
       -0.13761924 -0.01349836 0.030635653 -0.10820571
000230 70 e3 8b bc 31 62 4b 3c 9b a2 c8 3d 64 9e bc 3d
       -0.017076224 0.012413547 0.097966395 0.09209898
000240 d4 fc 44 bd 96 98 a0 bc 02 d8 0f be 4a d9 47 3b
       -0.04809268 -0.019604009 -0.14047244 0.0030494505
000250 03 7f 18 3e fc 99 0a 3e 1d 51 85 bd 35 88 de bd
       0.14892201 0.13535303 -0.06509612 -0.10865823
000260 74 9f 5a bd 18 4d 43 bd b6 89 de bd 4e e7 ff bd
       -0.053374723 -0.047680944 -0.1086611 -0.1249529
000270 6c 49 ca bc 79 5d 9c bc 71 fd 81 bc 79 12 fe 3d
       -0.024693213 -0.01908754 -0.01586792 0.12405867
000280 74 04 27 3c 43 7a b0 bd 84 b6 19 bd a1 56 c5 3d
       0.010193933 -0.086170696 -0.037527576 0.09635664
000290 a1 bb ee 3d 02 b2 2d 3a 9b da 86 3d 15 b4 bd 3d
       0.11656881 0.00066259515 0.065846644 0.092628635
0002a0 43 89 a3 bd 15 8f ff bd 55 ee f9 3d e3 f6 8c bc
       -0.07985165 -0.124784626 0.12203661 -0.017207569
0002b0 2b 2f 70 3d 50 fd fe 3d a8 1b e2 3d 5d 94 f3 bd
       0.058638733 0.12450659 0.11040431 -0.118935324
0002c0 0c f6 76 3d e5 fa b8 bd ad 18 f2 3d d6 24 bb 3c
       0.060293242 -0.09032229 0.11821113 0.022844713
0002d0 ce 66 94 bd 7a 1c f6 3c e0 34 9e 3d ec 5f 07 be
       -0.07246171 0.030042876 0.07724929 -0.13220185
0002e0 0e da 11 be b9 98 d2 ba 91 ea ff 3d ac 86 db bd
       -0.14243338 -0.0016067243 0.12495912 -0.10719046
0002f0 c0 d8 cf 3c 81 55 5e 3d fe 5d a3 3d f1 8d ba 3d
       0.02537191 0.05428076 0.07976912 0.091091044
000300 ad 6a c1 3b f0 0f f5 3d 41 12 06 bd 41 d9 03 3e
       0.0059026093 0.119659305 -0.032732252 0.12875845
000310 e0 bc 04 be 0a f3 29 3d 2b 45 bf bc aa b3 4e bd
       -0.12962675 0.041491546 -0.023348412 -0.05046431
000320 7c b9 04 3e 13 91 dc bd 7d 0f 8b 3d 92 c4 89 bb
       0.12961382 -0.10769858 0.067900635 -0.004204341
000330 4b 61 e7 bc 72 37 c9 3c 4c 75 fe bd fe 6e 8e bd
       -0.028244635 0.024562571 -0.12424716 -0.06954764
000340 e8 c0 6b 3d 6c 44 72 3d 44 8e aa bc d0 b4 96 bd
       0.057557017 0.059147283 -0.02081979 -0.07358706
000350 2e 39 7c bd 77 e4 e6 bc 86 95 03 be 90 1d aa 3d
       -0.06157797 -0.028185112 -0.12850007 0.0830642
000360 91 5d 47 3c 0d 3f b2 bc 25 20 e3 bd d8 38 2c 3d
       0.012168304 -0.02175858 -0.110901155 0.042046398
000370 5b 15 0a 3e 49 4b 87 bd dd 68 26 3d 35 60 7f 3d
       0.13484709 -0.066061564 0.04062735 0.06234761
000380 12 83 e5 bc a6 af e7 bd 3a 01 c5 3d 3b a6 af bd
       -0.0280166 -0.11312799 0.096193746 -0.08576628
000390 53 5f 90 3d 1b de d8 bd 7c 8e 0c 3d 42 60 0a be
       0.07049432 -0.10589238 0.03431557 -0.13513282
0003a0 31 ce 8b bd 45 ac 41 bd 04 c1 a3 bd 9e 84 87 3c
       -0.06826437 -0.04728343 -0.07995799 0.016542729
0003b0 f8 57 87 bd e2 10 b7 3d ae 07 3f bd c8 b2 c4 3d
       -0.066085756 0.08938767 -0.046638183 0.09604412
0003c0 da c2 07 be 34 48 42 bd 6e 06 e9 bd 49 12 8e 3d
       -0.13257924 -0.04743214 -0.113781795 0.06937081
0003d0 e7 d8 f7 3d aa dc 00 3e 6c 77 a3 3d 7e ee be 3d
       0.12101918 0.12584177 0.07981762 0.093228325
0003e0 a8 66 a6 3d 70 05 ec 3c 68 26 c5 3d 5d 25 81 3d
       0.08125049 0.028811187 0.09626466 0.063059546
0003f0 83 df 99 3c 05 bc 6a 3d c5 da b7 3b 3a 84 07 3e
       0.018783337 0.057308216 0.005610796 0.13234034

base.0.bias f4 [32]
000000 d7 90 2a b9 50 25 27 38 5a 35 b9 39 65 92 bf 38
       -0.0001626642 3.9850653e-05 0.000353257 9.134858e-05
000010 64 6c 44 b8 c0 4f ad b9 33 dd a4 39 9e c7 8f 39
       -4.6830988e-05 -0.0003305655 0.00031445324 0.00027423812
000020 e8 1f 35 39 b9 96 8e b9 2b 55 af b9 53 47 93 b8
       0.00017273391 -0.00027196648 -0.00033442056 -7.0227914e-05
000030 4c 8e f4 39 29 db 00 39 4d 06 c3 b9 8a 6e 26 39
       0.00046645326 0.00012288675 -0.00037197993 0.00015872173
000040 3c 4f 39 39 34 c9 69 b9 65 cd ab 3a 18 fa 0d 3a
       0.00017672492 -0.00022295566 0.0013107477 0.000541599
000050 4a 36 c9 39 12 40 07 b8 b4 7d 26 39 0a 64 88 36
       0.00038378156 -3.224618e-05 0.00015877822 4.064762e-06
000060 49 d0 bc 39 f6 82 6f 38 4a f4 b1 39 a7 c2 74 b9
       0.0003601334 5.7104007e-05 0.0003394208 -0.00023342167
000070 47 b8 e3 39 84 04 21 3a b1 f7 92 39 6a eb 16 b9
       0.0004343411 0.00061423355 0.00028031835 -0.00014392813

base.1.weight f4 [32]
000000 f5 99 7f 3f 7f 09 80 3f a3 51 7f 3f 5f ea 80 3f
       0.99844295 1.0002898 0.9973394 1.0071524
000010 03 cf 7d 3f 9c 0e 82 3f e3 6c 80 3f 6e 1e 7f 3f
       0.99144 1.0160708 1.003323 0.99655807
000020 62 f5 7c 3f 1d 48 80 3f 79 b0 80 3f 55 eb 7e 3f
       0.98811924 1.0022007 1.0053855 0.9957784
000030 59 6e 7d 3f 1a f7 80 3f ba da 7e 3f d4 f5 7c 3f
       0.989965 1.007541 0.995525 0.98812604
000040 af d1 7e 3f d7 f6 7f 3f ba 2b 81 3f 68 e4 81 3f
       0.995387 0.9998602 1.0091469 1.0147829
000050 95 2a 7f 3f 24 60 7d 3f b5 4a 7e 3f 77 8f 7e 3f
       0.9967435 0.98974824 0.99332744 0.9943766
000060 75 3f 80 3f b4 44 80 3f 4b 40 7c 3f 2e 22 80 3f
       1.0019366 1.0020967 0.98535603 1.0010431
000070 15 53 7e 3f 16 81 83 3f 67 a2 7f 3f 10 89 7c 3f
       0.99345523 1.0273769 0.9985718 0.9864664

base.1.bias f4 [32]
000000 b1 c9 92 3a df f6 52 3a 14 cf 86 bb a3 9a 12 3c
       0.0011199025 0.0008047651 -0.004114041 0.008948001
000010 7a ba 80 3b a7 b1 be 3b 60 64 7e 3b 56 86 cd 3a
       0.0039284797 0.0058195177 0.0038817152 0.0015680294
000020 67 b0 af bb c4 0a 3c 3a 63 fd d7 b9 d8 c0 de ba
       -0.005361605 0.0007173235 -0.00041196783 -0.0016994728
000030 74 dc d4 ba 83 fd 47 3b e0 68 81 3b 02 c8 aa bb
       -0.0016240017 0.0030516095 0.0039492697 -0.005211831
000040 56 82 69 ba 80 78 ad 3b 6e 62 51 3b fc e6 79 3c
       -0.0008907666 0.0052939057 0.0031949538 0.015252825
000050 00 47 f0 b9 5c 19 86 bb 51 42 cc ba 07 ff 80 bb
       -0.00045829266 -0.0040923785 -0.0015583729 -0.0039366516
000060 f3 89 60 3b bb 49 64 3a f6 74 f2 bb a5 74 93 ba
       0.0034261912 0.00087084965 -0.0073991967 -0.0011249973
000070 21 a0 af b8 58 b2 0d 3c 7f 44 0c bb 29 77 e7 bb
       -8.3744766e-05 0.0086484775 -0.0021403132 -0.0070637655

base.1.running_mean f4 [32]
000000 23 8a 3e 3f 38 4b 0d 3f 18 9e 22 bf 8b a9 a7 3d
       0.7442953 0.551929 -0.6352248 0.08186635
000010 14 b7 48 be 14 ea 9e 3c 26 21 64 3e 2b 31 56 be
       -0.19601089 0.019398727 0.2227827 -0.20917194
000020 58 4a 8a be ce 95 62 3e 04 76 1b 3e 4c 96 08 3e
       -0.27009845 0.22127458 0.15181738 0.13338584
000030 3a 02 7c 3e 68 67 2c 3d b4 cc d8 3e 3c 19 3f 3f
       0.24610224 0.042090803 0.42343676 0.7464788
000040 c0 e7 9d 3c 69 73 50 3f a1 ba 14 3e f9 28 7c 3d
       0.019275546 0.814261 0.14524318 0.061562512
000050 ef f1 01 be 20 fb 9c 3e dd db c8 be 99 aa 90 bd
       -0.12689947 0.30660343 -0.39230242 -0.07063789
000060 5f 94 10 bd 8e 02 e8 be 4d be 78 be ad f2 81 be
       -0.035297748 -0.4531445 -0.24291344 -0.2538046
000070 89 25 10 bf df 2c 92 3d 7f 0b 47 3f 0d 6c 06 bf
       -0.56307274 0.07137465 0.77751917 -0.5250862

base.1.running_var f4 [32]
000000 ed 54 c6 3b 9d 49 65 3b cb bb bb 3b 6c b8 34 3b
       0.0060526044 0.0034986504 0.005729174 0.0027575744
000010 7a 32 0b 3b d2 41 98 39 8b be cb 3a 7f 2a 80 3b
       0.0021239803 0.0002904074 0.0015544457 0.003911316
000020 7e 00 37 3b fb 68 28 3a 0a b0 5c 3a 5f 1a 7b 3a
       0.0027923877 0.0006424335 0.0008418566 0.000957882
000030 88 24 c5 3a 7c aa d2 3a b3 5b 20 3b 79 9f 07 3c
       0.0015040794 0.0016072537 0.002446872 0.008277767
000040 fa 0b 0f 3a 67 d5 d7 3b 67 14 37 3a f3 e2 d9 39
       0.0005456802 0.006586719 0.0006983936 0.00041558556
000050 08 35 2b 3a 71 c3 27 3b 19 55 84 3b 27 ab 73 3a
       0.00065310346 0.002559867 0.0040384647 0.0009295218
000060 98 1b 04 3b d0 97 5a 3b 90 ab 9e 3a 97 ed 2e 3b
       0.0020158049 0.0033354647 0.0012105573 0.0026691908
000070 9b 4b c5 3b 3a 31 5c 3a 42 1c 0f 3c b5 d4 30 3b
       0.0060209758 0.00083996693 0.0087347645 0.0026982252

base.3.weight f4 [32, 32, 5, 5]
000000 08 40 71 3c 57 99 69 3b c6 8e 91 39 c9 ab 60 bc
       0.014724739 0.0035644376 0.0002776293 -0.013712832
000010 ef 43 08 3d 8d 84 f5 3c d9 3c e9 bc df 7d 52 3c
       0.03326791 0.029970432 -0.028471397 0.012847393
000020 de 38 71 3b 68 36 1a 3d 9c 72 a9 bc 41 dc b9 bc
       0.0036807577 0.037649542 -0.020684533 -0.022688033
000030 fc 2b d4 bb dc 16 99 bc 8c 0d b1 bc 00 ba 2e bc
       -0.00647497 -0.018687658 -0.021612905 -0.010664463
000040 a2 3d 31 ba 23 fa ba 3b 7a ae ee bc ad 6a 45 bc
       -0.0006761198 0.005706088 -0.029135931 -0.012049359
000050 34 b3 20 bc de 79 b8 3c 33 93 0b 3d 41 83 4f 3c
       -0.00980835 0.022519048 0.034075927 0.012665571
000060 44 dd 16 3d d7 9c a0 3c 6b 73 18 3a 5c e2 af 3c
       0.03683211 0.019606037 0.00058155385 0.021470241
000070 f9 31 e8 3c 16 db 9f 3b 26 a6 0f 3d f9 82 06 3c
       0.028344141 0.004878412 0.03507056 0.008209937
000080 1e 7d 00 bc 84 54 13 bd f1 a9 e1 bc 23 ce d7 3c
       -0.00784233 -0.035969272 -0.027546855 0.02634341
000090 c2 f3 31 bc 45 0c 78 bc ea ec bb 3b 30 d5 d2 3c
       -0.010861339 -0.015139644 0.0057350295 0.025736421
0000a0 c6 12 58 bc 4e bf 4f 3b d1 39 97 bc f6 8b 3e 3c
       -0.01318807 0.003169972 -0.018460186 0.011630049
0000b0 f0 61 c0 3c 6b 47 9b bc a3 76 1c 3c 5d 40 9f bc
       0.0234842 -0.018954953 0.00954977 -0.01943987
0000c0 08 3e 19 3d 30 91 e0 3c 5b 57 a2 bc 1e 3d 12 bd
       0.037412673 0.02741298 -0.019817045 -0.035702817
0000d0 37 ef a3 3c 66 74 ac 3c bd a6 d5 3b db c7 9d bb
       0.020011527 0.021051597 0.006520121 -0.0048150844
0000e0 57 8b df 3c f0 54 fb 3c 7b ad bf 3c a3 11 d6 3c
       0.027288122 0.03068015 0.023398152 0.026131457
0000f0 40 23 0d bd 55 15 41 bc 60 b9 90 bc 5c 32 b6 3c
       -0.034457445 -0.011784871 -0.017666519 0.02224081
000100 99 d1 1f 3c 57 34 8d bc 86 0b b0 bc 7e 69 80 bc
       0.009754562 -0.017236872 -0.02148987 -0.015675303
000110 2a 22 ad bc 91 96 4a bc 05 b4 88 3c 63 a9 10 bb
       -0.021134455 -0.012364999 0.016687403 -0.0022073619
000120 bf 25 be 3b ce 6a e7 bb c3 e4 fc 3c 78 91 e7 3c
       0.0058028395 -0.0070622927 0.0308708 0.028267607
000130 67 7d 35 ba d8 1f 8f bc 70 8a bc bb c6 de 26 3c
       -0.00069232885 -0.017471239 -0.0057538077 0.010184949
000140 37 56 bc 3c 26 2b f3 3c c1 2f df bc a7 c5 0d bc
       0.02299033 0.02968366 -0.02724445 -0.008653081
000150 7c 08 e1 3c 47 01 45 3c 63 a5 ec 3c 07 8f 9d 3c
       0.027469866 0.01202423 0.028887456 0.01923324
000160 aa 5b 64 3c 6a 57 0c bc d4 50 00 3d 0f 52 28 bb
       0.01393787 -0.008565763 0.031327084 -0.0025683676
000170 ef ab db 3c 8c cb 48 bc cd 1f b3 bc f7 b9 37 bc
       0.026815383 -0.012255561 -0.02186575 -0.011213771
000180 f3 6c 98 3c af 86 06 3d 81 b7 4c 3b ba 63 02 3c
       0.018606639 0.032843288 0.0031237307 0.007958347
000190 4c 0f c5 bc 59 2b 42 bb c8 55 11 bc 1a 3d a0 bc
       -0.024055146 -0.0029627888 -0.0088705495 -0.019560385
0001a0 37 ac dd 3c 1b 89 16 bc 16 d8 00 3c 07 43 fc bc
       0.027059657 -0.009187962 0.007864019 -0.03079368
0001b0 15 29 85 bc 09 3d 77 3c 46 94 14 bc 27 83 0c 3d
       -0.016254941 0.0150902355 -0.009068554 0.034304764
0001c0 11 cf c5 bc 35 ee d1 bc d1 87 87 bc d9 a6 ac bb
       -0.024146589 -0.025626281 -0.016544254 -0.005268913
0001d0 b7 14 a1 3b 70 03 a9 3c aa b3 87 3c 01 85 18 bc
       0.0049157995 0.020631522 0.016565163 -0.009309054
0001e0 cc 22 25 3c d7 84 a6 3c 0a 7a 9c bc 53 11 0d bd
       0.010079097 0.020327015 -0.019101162 -0.03444035
0001f0 aa f2 ca 3c 39 cc 5c ba 58 5e 15 3b ac 6e 05 3d
       0.024773914 -0.00084227655 0.002279183 0.032576248
000200 a6 e6 df 3c d4 99 b0 3c 6e 62 2a 3d 8c 62 8f bc
       0.027331661 0.021557726 0.041597776 -0.017503045
000210 5f 48 53 bb bb a6 93 bc 18 73 ec bb aa 82 29 3c
       -0.0032239181 -0.01802384 -0.0072158687 0.010346094
000220 e6 df 05 3d fe c5 b9 bb d1 af 35 3c e0 09 32 bc
       0.03268423 -0.0056693545 0.011089281 -0.010866612
000230 0e 13 ad bc a8 f7 f9 3c ad 8a 13 3d 25 b9 61 bc
       -0.02112725 0.0305136 0.036020923 -0.013777052
000240 8a 94 e8 3c b3 fa 07 3d 48 9b 3c 3c 7d 49 e7 3b
       0.028391141 0.03319807 0.011511631 0.007058321
000250 61 19 0e 3d 74 cc d9 3c 2a de a9 3c 3e 24 06 3d
       0.034692172 0.026586749 0.020735819 0.032749407
000260 cf 2a f6 bc 9c e3 4e 3b 8c d5 7e bc c9 fb 6d bc
       -0.03004971 0.0031568771 -0.015553843 -0.014525362
000270 c2 e9 a5 3c 17 d7 9c 3c 58 84 04 3c 8d d4 6f bc
       0.020253066 0.019145532 0.008088194 -0.014638078
000280 17 53 37 bc 9c 06 26 bd bc bd 6d 3a 64 7d 1c 3d
       -0.011189244 -0.040533647 0.0009069105 0.03820552
000290 4c 34 82 bc c9 95 cd bc 15 01 25 bc 18 b4 cf bc
       -0.015894078 -0.025095837 -0.010071059 -0.02535443
0002a0 e7 df 1e 3c b6 88 91 3c df 7b 65 bc 1f 02 41 bc
       0.009696937 0.017765384 -0.014006584 -0.011780291
0002b0 db b6 04 bd 69 e8 11 3a a7 3a d4 3c 4e dc b0 bc
       -0.032400947 0.0005565943 0.025906874 -0.021589424
0002c0 18 dc 5c bb f9 10 02 bd 88 d1 50 3c 1b 3b ba bb
       -0.0033700522 -0.031754468 0.012745269 -0.0056833155
0002d0 ea 5c 5e 3c c0 f1 57 3a f2 64 29 bc 0c 9e 46 bc
       0.013571957 0.00082376227 -0.010339009 -0.012122642
0002e0 59 0d 87 3c f3 aa fb 3b 70 3c bc bc d7 8c 0f bc
       0.016485857 0.007680291 -0.022978038 -0.008761606
0002f0 fb cc 02 bd 8d e0 b9 bc 9a 4e 17 3d d1 98 aa 3a
       -0.031933766 -0.022690082 0.036940195 0.0013015514
000300 df ce 98 3c be c4 c0 3c 76 2c 95 3c 4a ef e4 bc
       0.018653331 0.023531314 0.018209677 -0.027946133
000310 d3 7b 94 bb bd b7 fd 3c f8 a4 79 bc e7 be 65 3c
       -0.0045313626 0.030971402 -0.0152370855 0.014022565
000320 a2 ba 8c bc 55 15 5e bc aa 76 d3 bc fe 0f 8b bc
       -0.017178837 -0.013554891 -0.02581342 -0.0169754
000330 07 2e 11 3c cf c0 f0 3b 21 c4 b1 bc c7 6b ea 3c
       0.008861071 0.0073472033 -0.021699967 0.028615845
000340 f7 8e 06 bd ae 2f bf 3c b5 d9 f8 3c e6 78 25 3d
       -0.032851186 0.023338165 0.030377248 0.0403985
000350 4b 4d 98 3c a7 2e b4 3b 5d 8b dc 3c 0b fa 18 bc
       0.018591544 0.0054987255 0.026921922 -0.009336959
000360 2e 94 cd 3c 3e b7 75 3c c4 52 c8 3c 45 51 ab 3b
       0.025095072 0.014997302 0.024453528 0.005228194
000370 e1 b8 67 bb 0d c2 79 3c d3 f2 ac 3c 6e 28 02 3d
       -0.0035358 0.015244019 0.021111881 0.031776838
000380 28 a5 cc bc 09 58 51 3c e7 89 b2 3c bb 24 b8 bc
       -0.024981096 0.012777337 0.021794273 -0.022478452
000390 eb 6b da bb 3d 31 b1 bc 43 86 7e 3a b0 5a 1f bd
       -0.006665697 -0.021629924 0.00097093376 -0.038904846
0003a0 e7 5a ce bc 49 27 f6 bc 02 08 cc bc 5d fe 00 bd
       -0.02518983 -0.03004803 -0.024906162 -0.03149258
0003b0 5c 2f 3f 3b 5c 46 ab bc b3 8f 85 3c af fd 5b bc
       0.0029172515 -0.020907573 0.016303873 -0.013427182
0003c0 7d 45 dd bc d1 35 cd bc 62 84 b3 bc 16 1f 56 3c
       -0.027010674 -0.025050076 -0.021913711 0.013068935
0003d0 92 8b 64 3c ca 3d 6d 3a 13 0f fe 3a 4e 6f 1d 3d
       0.013949292 0.000905004 0.0019383155 0.038436227
0003e0 e7 e6 e0 bb 20 e6 a8 bc 9f bf bf 3c db f2 61 3c
       -0.006863463 -0.020617545 0.023406802 0.013790811
0003f0 7e b4 98 37 92 42 72 bc cc 7b 82 bc 1a 9c 2a bb
       1.820386e-05 -0.014786379 -0.015928172 -0.0026032985

base.3.bias f4 [32]
000000 f2 43 63 b8 cc 16 39 b5 ea 05 e8 38 64 48 01 37
       -5.4184296e-05 -6.8951044e-07 0.00011063724 7.705854e-06
000010 3f 46 05 b8 9c ed 31 b8 7d c2 3d 35 06 6e fc 38
       -3.1775093e-05 -4.242138e-05 7.0691004e-07 0.0001203679
000020 92 95 86 b7 94 d4 73 37 47 16 04 b9 c6 95 d1 38
       -1.6043694e-05 1.4533423e-05 -0.000125968 9.993794e-05
000030 ce f9 1c b7 47 b3 8e b8 a0 e3 68 b8 f9 b7 68 38
       -9.356487e-06 -6.804481e-05 -5.5525103e-05 5.548445e-05
000040 ac 7a ea b8 d4 3c 84 b8 bf b6 db b7 f6 0f 30 b8
       -0.00011180839 -6.3055806e-05 -2.6191932e-05 -4.1976535e-05
000050 95 6d 33 b6 78 ef 98 b8 01 00 96 b7 0a 3c 99 b8
       -2.6736864e-06 -7.292529e-05 -1.7881395e-05 -7.306792e-05
000060 09 96 a1 38 17 8c 50 b8 21 ef 8b 38 06 4e b1 b8
       7.7050245e-05 -4.9721533e-05 6.672578e-05 -8.454551e-05
000070 4f 42 d9 b6 b8 3a d4 b8 c4 eb a9 b8 bb d6 ee 37
       -6.4748233e-06 -0.00010119885 -8.102463e-05 2.8471803e-05

base.4.weight f4 [32]
000000 f7 0d 80 3f 6b d7 7a 3f 18 86 80 3f 09 03 7f 3f
       1.0004262 0.9798495 1.0040922 0.99614006
000010 83 1e 81 3f 49 67 81 3f fb 44 7e 3f b9 84 80 3f
       1.0087436 1.0109645 0.99324006 1.0040504
000020 e5 e3 7d 3f d1 b7 7e 3f 7b 5b 82 3f 26 2d 80 3f
       0.99175864 0.9949923 1.0184168 1.0013778
000030 64 7e 7d 3f 92 fc 7e 3f 6a 5e 80 3f 9c 5d 7d 3f
       0.9902098 0.9960414 1.0028813 0.9897096
000040 66 a0 82 3f 51 f0 7e 3f de 82 7f 3f 76 4a 7e 3f
       1.02052 0.99585444 0.9980906 0.9933237
000050 22 a7 7e 3f e2 6a 7e 3f ee f4 7d 3f fc b5 7e 3f
       0.99473774 0.9938184 0.9920186 0.99496436
000060 c4 b3 7f 3f d9 2b 80 3f 3f e5 7f 3f 7c 08 80 3f
       0.99883676 1.0013381 0.99959177 1.0002589
000070 c4 96 80 3f 01 3e 7c 3f ec 83 7e 3f 56 96 7f 3f
       1.004601 0.9853211 0.99420047 0.9983877

base.4.bias f4 [32]
000000 a7 4f da bb 70 42 88 bc d8 ef 8b 3b b0 8c e3 3a
       -0.0066623273 -0.016633242 0.004270535 0.0017360654
000010 c0 8d de 3b 65 67 74 3b a2 79 94 bb 2e ed ff 3a
       0.0067918003 0.0037293073 -0.0045311013 0.0019525641
000020 44 7f 52 3b 60 ff 91 bb bb 6a 2b 3b cd 3e cc ba
       0.0032119313 -0.004455492 0.0026156146 -0.0015582681
000030 cd e4 37 bc 5e ff 27 bc e4 9b 2f 3b bc e3 af bb
       -0.011223984 -0.010253755 0.00267958 -0.005367724
000040 72 38 bb 3b 12 74 08 bc 89 54 93 bb f4 52 a6 b7
       0.005713516 -0.008328455 -0.0044961614 -1.982737e-05
000050 fb 73 5f bb d2 ab 72 3b a9 15 8a ba aa 4f a6 ba
       -0.003409623 0.0037028682 -0.001053502 -0.0012688537
000060 d2 e2 a0 bb 5d 51 06 bb 0b aa a7 bb 3f 1a 7f 3a
       -0.0049098516 -0.0020495274 -0.0051167062 0.0009731389
000070 28 69 8c bb 4f 69 3d bb 56 6d a1 3a 36 ae fb 3b
       -0.0042849965 -0.002890188 0.001231591 0.0076806797

base.4.running_mean f4 [32]
000000 20 bc e8 3d 12 f7 b6 3c a9 67 f6 3b b5 19 10 3c
       0.11364007 0.02233461 0.0075196815 0.0087951915
000010 97 eb 14 bd 9e a1 df b9 ae 3b a0 3c 53 18 c8 bd
       -0.03635749 -0.0004265429 0.019559707 -0.097702645
000020 16 21 49 be 2f f1 33 bd 51 ea 1a be ac b1 04 bd
       -0.19641528 -0.043931182 -0.15128447 -0.032396004
000030 c9 1e 98 3d 2f 25 06 3e c0 e4 01 3d 01 93 4c 3d
       0.07427747 0.13100122 0.031712294 0.04994488
000040 80 81 75 3c ac ca 08 be cb 21 85 3d 37 a1 95 bb
       0.0149844885 -0.13358563 0.06500586 -0.0045663374
000050 5a f8 a9 bd dd 39 50 3c 43 b0 b8 bd 0b 1e 0b be
       -0.082993224 0.012709108 -0.09017994 -0.13585679
000060 6a 92 c9 bd e1 f4 94 bd ee 09 b0 bd 8f 7c 59 3e
       -0.098423794 -0.072732694 -0.08595644 0.21238922
000070 2e a7 03 be 55 e9 c6 bc 71 95 7a bd 22 18 72 bd
       -0.12856743 -0.024281183 -0.061177675 -0.059105046

base.4.running_var f4 [32]
000000 00 86 a5 3c 1f b3 cd 3d b1 03 40 3d 30 b0 3d 3d
       0.020205498 0.1004393 0.04687852 0.046310604
000010 a7 e7 46 3d 90 e9 75 3c 38 01 f6 3d 3b 0c dc 3c
       0.048560765 0.015009299 0.12011951 0.0268613
000020 a0 e1 07 3e 09 3e 04 3e 62 1c 8a 3c 41 fa 19 3d
       0.13269663 0.1291429 0.016859237 0.037592176
000030 f7 ce 34 3e 8f 75 4a 3d db 9b ea 3c 56 0c 28 3e
       0.17657076 0.04942852 0.02863877 0.16410956
000040 4b 91 10 3d 77 39 16 3e 52 99 92 3d e2 ef da 3c
       0.035294812 0.14670359 0.0715815 0.026725713
000050 65 fa d6 3d c0 82 16 3d 73 c8 bf 3d 0a 94 eb 3d
       0.10496978 0.036745787 0.093644045 0.115028456
000060 79 51 a8 3d 93 51 99 3d 01 c7 69 3d 6f 97 11 3d
       0.08218665 0.07486262 0.05707455 0.03554481
000070 27 2f 05 3d 43 64 fc 3d 48 6f bd 3d b4 04 78 3d
       0.03251567 0.12323811 0.09249741 0.06055136

base.6.weight f4 [32, 32, 5, 5]
000000 62 50 3e bc 48 51 b3 3c 47 09 fd bc 2c d8 52 3c
       -0.011615844 0.021889344 -0.030888213 0.012868922
000010 fd 96 82 3c 57 e5 0a bd cd 8d 7c 3c 7a d4 82 bc
       0.015941137 -0.03391012 0.015414667 -0.015970457
000020 2f 90 32 3a bb dd 0c bc d6 72 f1 3c cd 91 3c 3c
       0.0006811646 -0.008597787 0.029473703 0.011509371
000030 88 57 6d bc 7b b4 cf bc 31 4d dc bc d9 4e bc bc
       -0.014486201 -0.025354614 -0.026892276 -0.022986816
000040 ec df 0f bd 2e bf b3 bc 4d 44 97 bc cd 67 e7 3b
       -0.035125658 -0.021941748 -0.018465186 0.0070619346
000050 ae 2f 40 bc 67 93 85 bc 46 6c 85 bb 7a 24 e7 3c
       -0.011730118 -0.016305638 -0.004071745 0.028215636
000060 14 1a 55 3c 2b 44 c2 3c fc 0e a8 bc 09 45 86 3c
       0.013006706 0.023714146 -0.020514958 0.01639034
000070 e5 9e 17 bd bf e8 8d bc 1b a3 00 3d 7f 75 33 3c
       -0.037016768 -0.017322896 0.03140555 0.010953306
000080 0d 94 9e 3c 8d 6e 61 3c 4a 2b 05 3d 09 8f f6 3c
       0.019357705 0.0137592675 0.032511987 0.030097501
000090 f4 8f 8e 3b 7f 01 8e 3c fe 29 14 bc 86 28 a9 3c
       0.0043506566 0.017334698 -0.009043215 0.020649206
0000a0 a3 c0 36 bc 74 68 1b 3c ab a5 a1 bc 4e 19 ac 3b
       -0.011154327 0.009485353 -0.019732317 0.00525204
0000b0 bc b0 c0 3c 92 0d a2 3c ba e2 c4 bc 8b 8c fc 3b
       0.023521774 0.019781861 -0.024033893 0.0077071837
0000c0 70 df 6a bc 73 93 20 bc 4d 63 b7 bc 01 51 97 bc
       -0.014335498 -0.00980078 -0.022386217 -0.018471243
0000d0 38 ba 40 bc bd 33 07 3d f3 70 88 3c 10 41 75 bc
       -0.011763148 0.033008326 0.01665542 -0.014969125
0000e0 c4 20 a1 3c 0d 1b 14 bd ab 94 1e bc f2 43 20 bc
       0.019668944 -0.03615861 -0.009679 -0.009781824
0000f0 55 7d 6e 3b 84 a6 ea 3a 75 9a 10 bd 7c 2f b8 bc
       0.0036390622 0.0017902409 -0.03530355 -0.02248358
000100 5c 7a a5 3c 29 49 35 bc e8 29 a2 bc b8 62 4d bc
       0.020199947 -0.011064806 -0.019795373 -0.012535743
000110 f6 4e c9 b8 ca 26 6b 3b 2c 1f bf 3c b7 b8 1a 3d
       -9.5991345e-05 0.0035881274 0.023330294 0.037773814
000120 67 1d e7 3c ea f2 49 3b e7 6e 99 3c 30 54 9c bc
       0.028212262 0.0030814954 0.01872964 -0.019083112
000130 35 0d a0 bc 51 dc e1 bc 87 25 7b 3b d8 f1 b2 bc
       -0.019537548 -0.027570875 0.0038321929 -0.021843836
000140 eb 76 d6 3c bd c3 bc bb aa 9a 3c bc 0e 97 a0 3b
       0.026179751 -0.0057606385 -0.011511484 0.0049008196
000150 06 3e 37 39 37 67 ba 3c 90 fe 0f 3d d9 ac ed b9
       0.00017475346 0.022754295 0.03515488 -0.00045332944
000160 a9 e8 be 3c da cc a3 bc f7 4d 2d bc 07 7b 07 bd
       0.0233043 -0.019995142 -0.01057767 -0.033076312
000170 98 77 f8 bc 36 89 7b bb db e6 04 bc b0 b3 12 3d
       -0.030330464 -0.0038381345 -0.008111681 0.035815895
000180 98 17 ce 3c 1d e5 c2 3c 40 83 a9 3c 7f 52 ba 3c
       0.025157735 0.02379089 0.020692468 0.022744415
000190 da 35 c3 bb 4a b4 9a 3c 38 a6 1e bc 60 60 24 3a
       -0.0059573473 0.018884797 -0.009683184 0.00062704645
0001a0 35 ab fa 3b a5 f6 8b bc c6 58 e6 3b 50 a6 c9 bc
       0.007649804 -0.017085383 0.0070296256 -0.024615437
0001b0 23 d0 8f 3c 9f 14 2a bb 57 57 3f 3d 09 9d a0 3c
       0.017555302 -0.0025952233 0.046714153 0.01960613
0001c0 94 f2 54 3c 18 5f 91 bb a7 8e 5c bc d6 6d 2c 3d
       0.012997288 -0.004436385 -0.013461745 0.042096935
0001d0 8c 03 e1 3c 04 bb 18 bc 62 b9 ec 3c ad 60 d5 3c
       0.027467512 -0.009321932 0.028896991 0.026047075
0001e0 bf b3 f1 3c e8 43 f6 3c 63 12 8c bb 95 45 2b bb
       0.029504655 0.030061677 -0.004274653 -0.0026134003
0001f0 44 b9 bd bc e4 8e 1d bd f8 f1 21 3a d2 e7 d7 3c
       -0.02315963 -0.03846635 0.0006177719 0.026355658
000200 c3 f4 18 3d aa 22 0d 3a 92 58 17 3c ee 6a 55 bc
       0.037342798 0.00053838885 0.009237425 -0.013025982
000210 bf e6 0a 3d b9 40 93 3c 5d 8e 6a bb dc 63 1a 3c
       0.033911463 0.017975198 -0.0035790422 0.009423222
000220 c2 f6 e9 3c 0f b6 f7 3c 77 fc 1d 3d 28 3e 5b bc
       0.028560046 0.03023818 0.038570847 -0.013381518
000230 26 ca 9a ba 29 64 4b bc d4 43 c4 bc 66 46 67 3c
       -0.0011809513 -0.012414017 -0.023958124 0.014115905
000240 d1 46 23 3c 7d 54 2c 3c e6 31 b2 bc 4f 41 8b 3b
       0.009965614 0.01051819 -0.021752309 0.0042497288
000250 06 8c c9 bc 68 bf 2b 3d 6d 4e b6 3c 68 9c 41 bc
       -0.024602901 0.041930586 0.022254193 -0.011817075
000260 03 4a 92 bc b5 aa 1d 3b d4 d5 95 bb cc a0 2a bc
       -0.017857557 0.0024058048 -0.0045726094 -0.0104143135
000270 1a 43 8c bc 51 2d 56 bc ce 5e 26 bc ed 61 46 3c
       -0.01712184 -0.013072328 -0.010154439 0.012108308
000280 1a f7 09 bd 54 3d 16 3c 76 82 82 3c a0 4b 17 bc
       -0.03368292 0.009169895 0.01593135 -0.009234339
000290 f4 ce 24 bb ce 24 9e bc fe 11 15 3d 0e ac dd bc
       -0.0025147768 -0.01930466 0.03639411 -0.027059581
0002a0 6b 23 cc 3c 6d c4 a3 bc 74 b8 8b bb 2b bf 86 3c
       0.024919232 -0.019991124 -0.004263932 0.016448578
0002b0 58 7d 3e bc 01 82 ce 3c 3b 7a 0a 3c f6 63 16 3c
       -0.011626564 0.025208475 0.008451994 0.009179106
0002c0 0c b8 f5 bc 23 8b 1d bc a1 a6 f4 bb 17 2d 1e bb
       -0.029994987 -0.009615692 -0.007466153 -0.0024135762
0002d0 20 20 25 bd 57 2d 80 3a c3 76 a1 3b 6a 31 c7 bc
       -0.04031384 0.0009779137 0.0049274876 -0.024315555
0002e0 90 a5 25 bd b9 00 9b bb 71 2a 3a 3a eb f2 c3 bc
       -0.040441096 -0.0047303108 0.0007101661 -0.023919543
0002f0 d0 21 8e bc fd ae 9d bc 72 8a c8 3c 59 ff 1e bd
       -0.017350107 -0.01924848 0.024480078 -0.038817737
000300 41 18 30 3b d2 c6 22 bc 0e 96 1b 3b f7 55 7f bb
       0.0026869925 -0.009935098 0.0023740563 -0.003896115
000310 4d 79 03 3d 62 f2 b4 bc 78 5d fa bc 59 ab 94 3c
       0.032098103 -0.022088233 -0.030562147 0.018148111
000320 0f 57 e2 3c d4 21 92 3b 4d 20 91 bb cb 2e e5 bc
       0.027629403 0.004459599 -0.0044288994 -0.027976414
000330 0f 30 a1 3c bc 21 9f 3b af 6d f1 bc dd 1c f6 bc
       0.019676236 0.0048563164 -0.029471247 -0.03004306
000340 45 15 ab 3c 1e cb e5 bc 5e a5 d9 3b 71 3c 67 bc
       0.020884166 -0.028050955 0.0066420278 -0.014113531
000350 24 13 63 3c 23 d1 96 3c e7 e8 9a bc c4 fb b0 bc
       0.013859544 0.018410271 -0.018909885 -0.021604426
000360 93 5c 0c 3d fe 9d d0 3c 84 57 58 bc ad 68 40 3c
       0.034267973 0.025465962 -0.013204459 0.011743707
000370 4f a9 d9 bc d2 4b 90 3c f4 45 c4 3c 39 54 50 bb
       -0.02656999 0.017614279 0.023959137 -0.0031788482
000380 0b 39 ad 3c c3 4a af bc b6 51 be bc 8a cc 60 bc
       0.021145364 -0.021397954 -0.023232322 -0.013720641
000390 51 23 48 3c 2c 8a b8 bc 28 49 82 bb 38 fa f1 bb
       0.012215451 -0.022526823 -0.003976006 -0.0073845647
0003a0 26 e2 13 bd 1d c0 ac 3c 6b 68 09 3d 5e 82 9c 3c
       -0.036104344 0.0210877 0.033546846 0.019105133
0003b0 1d 66 0d bc 07 b5 1f 3c 53 34 1a bd 09 4f 2a 3c
       -0.008630303 0.00974775 -0.037647557 0.01039482
0003c0 f1 81 29 3d c7 17 6e bc f0 4d 82 bc c9 48 bf bc
       0.041383687 -0.014532036 -0.015906304 -0.023350136
0003d0 81 32 13 bc 1c 81 b7 3b 18 79 97 3c 9b 85 91 bc
       -0.008984209 0.005600108 0.01849036 -0.017763903
0003e0 17 ef bd 3c 20 98 ab 3b d7 26 6b 3c d0 b7 76 bc
       0.023185296 0.0052366406 0.014352522 -0.015058473
0003f0 4e e2 80 3b cd f8 ed 3c 84 3a 67 3c cc 86 fc 3b
       0.0039332276 0.029049302 0.014113072 0.0077064987

base.6.bias f4 [32]
000000 ee 95 9e 37 39 18 5e 37 b4 65 fb b7 b1 b4 76 38
       1.8904884e-05 1.3237871e-05 -2.996889e-05 5.8819252e-05
000010 08 31 bc 38 84 67 0d 38 70 6a b2 37 77 40 c5 36
       8.973671e-05 3.3713426e-05 2.1268817e-05 5.878562e-06
000020 80 aa 36 38 94 18 7f b6 1c 8b 2e 38 57 7c 8d b7
       4.3550972e-05 -3.8012267e-06 4.161439e-05 -1.686641e-05
000030 d8 77 93 37 b5 ea 5c b8 04 a1 a1 37 35 c6 21 37
       1.7579572e-05 -5.2670675e-05 1.9267674e-05 9.6424965e-06
000040 9a 75 1f b8 31 3e 95 37 30 eb ee 36 52 44 55 38
       -3.801808e-05 1.7791144e-05 7.120332e-06 5.0846786e-05
000050 aa e4 53 b7 5c 8b a2 b7 b6 5a 23 b8 bd d6 fb b7
       -1.262982e-05 -1.93768e-05 -3.894671e-05 -3.0021527e-05
000060 a0 0d 32 b8 61 eb 35 b8 3e 0c c0 37 00 cd 4f 37
       -4.2451196e-05 -4.3372977e-05 2.2893884e-05 1.2385892e-05
000070 9f 6d 69 b8 0e 97 55 37 57 4f a4 36 c3 3f 1e 37
       -5.565362e-05 1.27309595e-05 4.8968172e-06 9.43238e-06

base.7.weight f4 [32]
000000 56 5c 85 3f 03 5b 84 3f 25 13 88 3f a8 4e 86 3f
       1.0418804 1.0340275 1.0630842 1.0492754
000010 be 95 83 3f e6 ab 83 3f 23 e1 84 3f 3f a4 83 3f
       1.0280073 1.0286834 1.0381206 1.0284499
000020 cf 55 87 3f 2c 62 87 3f 33 d0 84 3f 63 71 83 3f
       1.0573062 1.0576835 1.0376037 1.0268978
000030 a5 3b 83 3f 03 dc 84 3f f1 41 85 3f d1 62 86 3f
       1.0252577 1.0379642 1.0410749 1.0498906
000040 0d 16 85 3f 23 8d 87 3f 86 13 85 3f ad 97 84 3f
       1.0397354 1.0589947 1.0396583 1.0358788
000050 60 ac 83 3f 81 fa 85 3f 16 7e 83 3f fe f8 87 3f
       1.028698 1.0467073 1.0272853 1.0622861
000060 6b fd 86 3f 03 34 86 3f 17 3a 86 3f f9 a0 83 3f
       1.0546087 1.0484623 1.0486478 1.02835
000070 2b d9 87 3f b5 af 85 3f df d7 83 3f a8 e5 85 3f
       1.061315 1.0444247 1.0300254 1.046071

base.7.bias f4 [32]
000000 ad e5 4e 3c c6 87 20 3c 19 73 ca 3c 6f bd be 3c
       0.012628001 0.009797996 0.024713086 0.023283688
000010 d8 bd 2e 3c 95 a6 bb 3c 5d 46 ae 3c af 9c 92 3c
       0.010665379 0.022906581 0.021273786 0.017896978
000020 98 c3 f9 3c 94 04 d2 3c 90 7f 63 3c 74 b6 9d 3c
       0.030488774 0.025636949 0.013885394 0.01925204
000030 ba c0 39 3c 3c 67 12 3c ee 6d 01 3d f6 db d9 3c
       0.0113374535 0.008935746 0.031598978 0.026594143
000040 45 71 44 3c 96 15 a3 3c d9 02 ac 3c 34 16 86 3c
       0.011989896 0.019907754 0.020997452 0.01636801
000050 a0 af 7d 3c ba 9f 6f 3c 95 a5 a2 3c 06 ca d5 3c
       0.015483767 0.014625484 0.019854346 0.026097309
000060 d8 ee 16 3d 62 27 82 3c bd 92 03 3d de bd cf 3b
       0.036848873 0.01588792 0.032122362 0.0063397726
000070 60 2d 7f 3c c4 03 da 3c 89 dd 13 3c f2 bc b2 3c
       0.015574783 0.026613124 0.009024986 0.021818612

base.7.running_mean f4 [32]
000000 38 52 74 3d 0f ba a7 3e 31 dc 61 3e 99 b5 a9 bd
       0.059648722 0.3275914 0.22056653 -0.0828659
000010 95 29 c7 bd 8c 91 e8 3d c9 1a ab 3d 8e 5e 07 3e
       -0.09724728 0.11355886 0.08354718 0.13219664
000020 f4 e5 a0 3e 71 df 43 3d 86 d7 be bd e3 71 53 3d
       0.3142544 0.047820512 -0.093184516 0.051622283
000030 e6 a3 52 3e db 19 2b be 46 f5 49 3e a1 68 a3 3d
       0.20570335 -0.16709082 0.1972247 0.07978941
000040 e0 cf 03 3e 6c c0 21 3e 4d 21 80 3e 40 88 7a 3c
       0.12872267 0.1579606 0.25025406 0.015291274
000050 a3 6d 0c be 9d b7 b8 3d 52 ad a8 3e 61 08 78 3e
       -0.13713698 0.090193965 0.32944733 0.24221946
000060 35 71 56 3e dc b7 0b be fb 68 69 3e d1 5b 96 bc
       0.20941623 -0.13644356 0.22793953 -0.018354328
000070 67 56 ef bd fe 1a 10 3e 68 7a ca 3d 64 e2 82 bd
       -0.11686402 0.14072797 0.098866284 -0.06390837

base.7.running_var f4 [32]
000000 41 38 cb 3d 21 3c 54 3d 67 da 1a 3d 29 72 5a 3d
       0.09922839 0.051815156 0.03780594 0.053331528
000010 cd 95 58 3d 47 bc b5 3d 4c 4c 4d 3d 7f 80 b2 3d
       0.052877236 0.08873802 0.05012159 0.08715915
000020 dd fc 9c 3d 6e d8 40 3d 99 49 08 3e 2e c0 95 3d
       0.07665417 0.047081403 0.13309325 0.07312046
000030 46 df a0 3d 82 ed dd 3d f3 ce a0 3d 0d c2 cb 3d
       0.07855086 0.10836317 0.078519724 0.099491216
000040 49 e9 2e 3d 41 66 43 3d 7b a7 da 3d 17 24 16 3d
       0.042702947 0.04770494 0.106764756 0.03665551
000050 d4 0b 9f 3d 76 b7 1b 3d 83 ad a3 3d 17 d6 85 3d
       0.07765928 0.03801676 0.07992079 0.06534975
000060 a1 71 da 3c 78 e9 41 3d f5 46 53 3d 60 86 d5 3c
       0.02666551 0.047341794 0.05158134 0.026065052
000070 aa 0d 9d 3d a9 02 e0 3d 2d fd be 3d 01 a8 8d 3d
       0.07668622 0.109380074 0.09325633 0.0691681

head.0.weight f4 [24, 1024]
000000 53 ca e4 3c 2b 9d e5 3c ad d9 0f 3d 0a de dd 3c
       0.027928507 0.028029045 0.0351197 0.027083416
000010 65 3b d9 3c 20 e0 ba 3b 02 0f 11 3d 23 d0 ed bc
       0.02651758 0.0057029873 0.035414703 -0.029029911
000020 46 82 2f bc 3d 34 0b 3d 70 4a 81 3c ff 4a 55 3c
       -0.010712212 0.033985365 0.015782565 0.013018369
000030 07 c7 8c 3c 96 ef e4 3c 84 c2 e4 3c cb f4 43 3d
       0.017184747 0.027946275 0.027924784 0.047840875
000040 d3 73 00 80 ff 57 00 00 76 b5 42 ba 95 d6 b9 ba
       -4.155e-41 3.1567e-41 -0.00074275525 -0.001417833
000050 fe 0d 43 bb 4b 02 e0 3c b7 cc 96 3c 4f c3 2b bd
       -0.0029762979 0.027344843 0.018408163 -0.041934308
000060 b6 1f c7 3c 7f 09 06 3d ce db 08 3b ef 31 63 b8
       0.024307113 0.0327239 0.0020882967 -5.416752e-05
000070 7f f2 1a 38 d6 59 00 80 d6 59 00 80 d6 59 00 80
       3.6942303e-05 -3.2227e-41 -3.2227e-41 -3.2227e-41
000080 10 b4 00 80 10 b4 00 80 33 5c 00 80 7f bd 03 ba
       -6.4594e-41 -6.4594e-41 -3.3075e-41 -0.00050254905
000090 96 5e ac ba 53 9d e4 bb 36 5c bf ba 53 28 d6 3c
       -0.0013150747 -0.0069767623 -0.0014599625 0.026142275
0000a0 b9 02 21 bb 09 06 57 3c 35 22 c0 3b 16 be 22 3a
       -0.0024568273 0.0131239975 0.005863453 0.00062081346
0000b0 10 b4 00 80 10 b4 00 80 10 b4 00 80 10 b4 00 80
       -6.4594e-41 -6.4594e-41 -6.4594e-41 -6.4594e-41
0000c0 ef 2a 43 3d c0 5c 81 3c dd a1 9d 3b 02 f8 12 3c
       0.047648367 0.015791297 0.0048105554 0.0089702625
0000d0 ad 37 31 3d 8f 8d 4a bc 85 f6 aa bc 08 da 01 3d
       0.043265987 -0.012362852 -0.020869503 0.03170207
0000e0 e7 85 61 3c 40 2a 59 3c 28 c0 e0 3b 57 b0 3c 3c
       0.013764835 0.013254702 0.0068588443 0.011516652
0000f0 24 4f d3 3c 73 d2 8b 3c 79 09 e6 3c 2b 41 57 3d
       0.025794573 0.017068123 0.028080689 0.052552383
000100 e2 36 e9 3c 4c 9b 1d 3d 67 68 1b 3d 0a 34 11 3d
       0.028468553 0.03847818 0.037941363 0.03545002
000110 6c 25 98 3c 04 27 ce 3c 2c a2 57 3b 88 1b 6d 3c
       0.018572532 0.025165088 0.0032903058 0.014471896
000120 3c 87 07 bd 65 f5 a1 bc 89 21 0a 3d 51 0a a6 3c
       -0.033087954 -0.019770334 0.033723388 0.020268591
000130 54 5d 16 3d fc 04 29 3d 4b cb 30 3d e3 82 85 3c
       0.0367101 0.04126452 0.043162625 0.016297763
000140 6d d5 9e 3c de 50 98 3c 3b 65 92 3c 49 3e 5c 3c
       0.019388879 0.018593248 0.017870536 0.013442584
000150 4f f9 c2 ba 94 b0 62 bc 1f d8 e2 3b 63 5f e9 3c
       -0.0014875325 -0.013836045 0.0069227363 0.028487867
000160 6f d9 f2 3b 6f 53 50 bc af 18 cf 3b 1b 0c 92 3c
       0.007411174 -0.012715205 0.006320081 0.017828038
000170 31 8c 9c 3c 85 6e 9c 3c 4f 95 9c 3c 4f 95 9c 3c
       0.019109817 0.019095669 0.019114165 0.019114165
000180 71 61 ea b9 71 61 ea b9 98 dc 02 ba c4 9b a4 ba
       -0.00044704558 -0.00044704558 -0.00049919775 -0.0012558629
000190 61 4a 90 3b 46 b7 cf bc 6b bf 8b 3c 05 4b 5a 3d
       0.004403398 -0.025355946 0.017059049 0.0532942
0001a0 8c aa 04 3d 3f ec bd 3c a4 f7 8f bc 84 4b 2e bc
       0.03238921 0.02318394 -0.017574139 -0.0106381215
0001b0 f0 35 ea b9 71 61 ea b9 71 61 ea b9 71 61 ea b9
       -0.00044672145 -0.00044704558 -0.00044704558 -0.00044704558
0001c0 39 cf f4 ba b2 35 ac 3b 6a b9 40 bc 36 50 73 bc
       -0.001867748 0.0052554244 -0.011762956 -0.014850667
0001d0 44 cf 24 3c 1d a6 ea 3c 7d 64 26 3d 19 10 bf bb
       0.010059182 0.028643662 0.040623177 -0.0058307764
0001e0 16 26 7d bb ca 38 01 3c 9d 0b fe bc 4f a1 0f bd
       -0.0038627437 0.007887075 -0.031011397 -0.035065945
0001f0 c8 ed 07 bc e9 31 38 bc ec a7 e9 bc b3 e8 1d bd
       -0.008296438 -0.011242368 -0.028522454 -0.038551997
000200 f2 79 ee 3a 6d be ea 3a b8 57 fa 3a 66 af 5d 3a
       0.0018194302 0.0017909535 0.0019099629 0.00084566174
000210 42 2c 8e b9 e9 2c df 3a 45 42 9e 3c ca f8 b3 3b
       -0.00027117325 0.0017026934 0.01931871 0.0054923045
000220 73 2d 09 3b 1f 35 cb bc 05 cc 03 bb c9 b6 dc 3b
       0.002093163 -0.024805604 -0.0020110619 0.006735657
000230 f9 3f ea 3a f2 79 ee 3a f2 79 ee 3a f2 79 ee 3a
       0.0017871849 0.0018194302 0.0018194302 0.0018194302
000240 30 30 a4 3a ff 68 8a bb 21 d9 7e 3b 82 2c 2a 3c
       0.0012526568 -0.0042239423 0.0038886743 0.010386588
000250 32 8e 2f bc c5 ba 02 bd 3f 7a ce 3b 5a 2d d8 bc
       -0.010715054 -0.0319164 0.006301194 -0.026388813
000260 9a 46 0b 3c 0e 3f 14 3d 6d 07 71 bc 26 4d 99 bb
       0.008500719 0.036192946 -0.014711243 -0.0046783863
000270 45 99 73 bb f8 60 a2 3c fe 13 9c 3b da 3e 8c b8
       -0.0037170213 0.019821629 0.0047631254 -6.687427e-05
000280 7d 15 2d bb 1c 40 aa bc e8 30 41 bc c1 14 25 bd
       -0.0026410513 -0.020782523 -0.011791445 -0.040302996
000290 ea 9b 24 bd fb c4 be 3b 35 a8 f9 3b 01 64 1f 3d
       -0.040187754 0.0058218217 0.007618929 0.03891373
0002a0 cd ab 60 bc a0 4d 81 bc ea 3c 04 3c 7d 43 e5 bc
       -0.0137128355 -0.015784085 0.008071164 -0.027986282
0002b0 1e 93 ff 3b 92 46 c8 bc 47 46 09 bd b5 1f c2 bc
       0.00779952 -0.024447713 -0.033514287 -0.02369676
0002c0 39 84 55 ba 88 e1 8a ba a3 b3 44 bb fd b1 b0 bb
       -0.0008145008 -0.0010595778 -0.0030014298 -0.0053923116
0002d0 d4 b5 ea 3b 43 98 8f 3b 93 41 23 bc 75 9a 16 3b
       0.007162789 0.0043821647 -0.009964365 0.0022980247
0002e0 d9 c6 61 3b 56 d6 9c 3c 29 dc eb 3c e9 55 18 bc
       0.0034450798 0.019145172 0.028791504 -0.009297826
0002f0 71 05 a2 ba 1e 05 6c ba 04 24 6b ba 98 a7 6b ba
       -0.0012361241 -0.0009003448 -0.00089699053 -0.0008989512
000300 90 56 35 3c 8b 38 31 3c 3d fe 19 3c 84 45 e0 3b
       0.011068001 0.010816704 0.009398994 0.0068442244
000310 ba 20 c3 3b 16 cf 33 3c 60 89 f4 3c 51 50 19 3c
       0.005954829 0.010974666 0.029850662 0.009357528
000320 e0 e3 8d bc aa 36 11 3d 90 0d bc 3b 3c b8 28 3c
       -0.017320573 0.035452522 0.0057389215 0.010297831
000330 95 d2 31 3c 35 e0 33 3c 35 e0 33 3c 35 e0 33 3c
       0.010853429 0.010978748 0.010978748 0.010978748
000340 a0 6e e0 3c 62 29 54 3c ac d7 b3 3c 62 7e d5 bb
       0.0273965 0.01294932 0.021953426 -0.00651531
000350 90 1f 14 3d 28 cd a4 bc b3 f4 21 bd cd d7 85 3c
       0.036162913 -0.020117357 -0.039540004 0.016338253
000360 be 6b 3e 3c ba 87 47 bc 19 e3 11 3c c3 fb 15 3d
       0.011622367 -0.012178356 0.008904242 0.03661705
000370 8f 1b bd 3c 4c 58 07 3d 9b 6f bf 3c 0b ae 5e bc
       0.02308443 0.03304319 0.023368647 -0.0135913
000380 09 e8 4e ba f1 dc 63 ba 6b f1 15 bb ee f4 2f bb
       -0.00078928523 -0.00086922856 -0.0022879492 -0.002684887
000390 75 eb f3 39 0e d0 5b 3b 9a 65 4b 3c e5 34 a4 3b
       0.00046524 0.0033540758 0.01241436 0.0050111883
0003a0 63 e5 1b bc 2d ed f7 3c 22 07 8e 3b 9f 4a 81 38
       -0.009515139 0.030264461 0.0043343464 6.1650986e-05
0003b0 e9 5f 64 ba ae 48 47 ba ae 48 47 ba ae 48 47 ba
       -0.00087118015 -0.00076020777 -0.00076020777 -0.00076020777
0003c0 ce 78 b0 bc c5 28 f7 bc fe 75 05 bd 5e f3 da bc
       -0.02154198 -0.030170808 -0.03258323 -0.026727375
0003d0 87 bd 8b 3b 92 d4 81 3c 33 77 84 ba c4 84 97 3c
       0.004264537 0.015848432 -0.0010106325 0.018495925
0003e0 2d e2 aa 3c 90 24 77 bc f2 d6 51 bb 66 25 f2 3b
       0.020859802 -0.015084401 -0.0032018987 0.007389712
0003f0 2f 9d 34 bc 55 85 c5 bc 76 b4 b8 b9 a7 99 a5 bb
       -0.011023804 -0.02411143 -0.0003522967 -0.005053717

head.0.bias f4 [24]
000000 2c 63 83 bc 96 2c f9 3c 73 5c 0c 3d 7f ba 50 3c
       -0.0160385 0.030416768 0.034267854 0.012739777
000010 cc 8f 72 bc 25 fd 9f bc 79 bd bb 3c 24 5e 28 3a
       -0.014804792 -0.019529888 0.022917496 0.00064227195
000020 2d b1 6d bb c3 a2 f7 3a e0 86 99 bb f3 16 9e 3a
       -0.0036268935 0.0018893111 -0.004685268 0.0012061283
000030 36 bc 07 3c fd 20 6f 3b 54 49 20 bc ad f7 09 3d
       0.008284619 0.0036488168 -0.009783108 0.033683468
000040 65 ae 08 3d 0b 50 d4 3b d5 da ab bc d7 27 e4 3b
       0.03336944 0.0064792684 -0.02097837 0.006962757
000050 5e dd 12 bc 66 a2 09 3c 63 be 03 bc 63 73 06 3d
       -0.008963911 0.008400535 -0.008040997 0.032824885

head.2.weight f4 [2, 24]
000000 36 dd df 3d d9 bd 07 3e d3 87 24 3d 30 45 63 bd
       0.109308645 0.13256015 0.040168595 -0.055485904
000010 00 37 3f 3e 29 cd 99 3d ce 7f b5 3d 25 96 26 bd
       0.18673325 0.07509834 0.088622674 -0.040670533
000020 40 30 5d be 38 8f 7e be 87 c8 4c 3c 1b ed 7d be
       -0.21600437 -0.24859321 0.012498981 -0.2479748
000030 be be 16 be 45 03 3a 3d 19 9c 19 bc 37 50 32 3e
       -0.147212 0.045413274 -0.0093755955 0.17413412
000040 02 64 51 3e f2 3b 0d 3e 6d ef 4f be 8b 04 61 3e
       0.20448306 0.13792399 -0.20306177 0.2197439
000050 2c cf 5c be f0 70 66 3c 7a 91 af 3c 2b 04 14 3e
       -0.21563405 0.014065012 0.021431673 0.14454715
000060 d4 b2 2b be 98 f9 b4 bd dc 95 52 3e b7 2b e8 3d
       -0.16767436 -0.08836669 0.2056498 0.11336463
000070 2a 89 19 be fb 79 73 be 4a c0 87 bc 87 56 59 3e
       -0.1499373 -0.23777 -0.016571183 0.21224414
000080 9e 0c 82 3c e3 0c f1 3d be 58 80 be cf 1e 61 3d
       0.015875157 0.11770036 -0.25067705 0.054961022
000090 3c 1d 7c be 13 0d 5d 3e da 87 3c 3e bd 40 bc bd
       -0.24620527 0.21587019 0.18411198 -0.09192035
0000a0 09 66 22 be 46 b2 8e bd c6 63 5e 3e c0 54 1d be
       -0.15859236 -0.06967597 0.21717748 -0.15364361
0000b0 be 1b c7 3d 05 ee 27 3e be c0 fb 3d 4a 6b 2a be
       0.09722088 0.16399391 0.12292622 -0.1664249

head.2.bias f4 [2]
000000 74 7a ad 3c bd c5 7e 3c
       0.021176554 0.015550074
