models/AC-RM-2 Q_LR=0.001 P_LR=5e-06 BATCH_SIZE=128 GAMMA=0.99 MEMORY_SIZE=150000 BETA=0.05_policy_4053.pt (torch, 319747 bytes, 22 tensors)

base.0.weight f4 [32, 2, 5, 5]
00000000: 77d3 b33d 17a2 f6bb cf9e f73d 054b b93d
00000010: d3e0 c1bd d0de 37bc 69da a83d 9a03 12be
00000020: 8aed 01be 11e2 6cbd eb60 db3d 68bb 853d
00000030: 94ed 07be 6a2c 73bd 5eac 57bd 6bf5 a93c
00000040: bfcd dd3b eb79 cf3d 5fd6 bdbd 9383 7ebd
00000050: 26b7 e63b cc23 87bc 73ad 4bbd 4f19 c1bd
00000060: 99f1 9bb7 145f a5bc e4f2 f93d dae4 033e
00000070: abd9 8a3d f89a c33d 867f fdbc b6ea 9b3d
00000080: 523b dbbd 0715 87bd 0de8 f8bd 654f 993d
00000090: 2747 95bd c60f f53b a8bd eebd 95a8 813d
000000a0: 0e19 2c3d 438d 853d 323c fb3d 31d2 7c3d
000000b0: 21c6 b83b 42f1 733d 4433 8bbc eae5 c53c
000000c0: 1784 81bc 19ee ebbd 66a2 7dbd 2336 56bd
000000d0: a503 e7bd 74e3 013e 7a43 7fbd fe81 9ebd
000000e0: e806 903c cd0c 333c 243e 54bc 5f3a b03d
000000f0: 9089 a23c 12bc a23d 5cf2 00be a0f5 2dbd
00000100: 742a febd 9ab6 673c 4eaf b0bd 5e58 c63c
00000110: f440 873d 4dc4 e83d cc5b e3bb f75a a7bd
00000120: 3ede 14be 639b 933d 9635 01be 93cb 02bd
00000130: 824d b8bc 1887 12bc 67d1 aabd 4490 19be
00000140: 8196 933d 3c46 103e b8a8 943d 4f3a d43d
00000150: ab47 ac3d 16b2 843d 6723 9dbc 042f 813b
00000160: e8f9 aa3c eb1c 823d 3a9c 2a3c 6ea8 9d3b
00000170: 3b98 ccbc 5cc1 41bd edea 50bd 1980 f9bd
00000180: 6465 d23d 99c6 f93d 4efa 6b3d 5ba4 b23d
00000190: 0132 5bbd 1b7c f23c 5351 81bd e804 40bb
000001a0: 3c28 4e3d 728e fb3c ef30 6e3d 2ce3 c3bc
000001b0: a6af 63bc abfa eebc cd5d 973d 665f 2e3a
000001c0: 8a8c 293d 1094 fabd 9e9a ec3d c25e 023e
000001d0: d505 8f3d 8a1f d33d a440 d63d 2a42 e43d
000001e0: d552 a7bd 7ab0 4f3d 9e23 083d 6dbc 8a3d
000001f0: fab0 ef3d d2e3 12bd 6dcf 6e3d bf65 bb3d
00000200: 9a8c 07bd b886 37bc aefd 52bd 6207 32bd
00000210: 3581 99bd e47d c9bd f86c f4bd 9be5 00bb
00000220: 10b0 8c3d 51a4 683d 2908 16bd 7559 863c
00000230: fa77 30bd e0cc 00bd 7329 24bd 2644 25bd
00000240: 0d50 573d 6f3a 723d cd36 6ebd 78f9 e23d
00000250: 6273 873d 67cd e43d c263 cb3c 59c2 c93d
00000260: 8638 d03c 0bc4 ba3d 2871 86bd c02c fb3d
00000270: 0397 a53c 5cb7 fd3d c35b 0dbd 380e c5bd
00000280: c063 e6bd c916 0dbd 1a3a 25bd 9380 a73d
00000290: 58c5 da3d 41c7 fa3c 2b5f a7bd ec61 ce3d
000002a0: 0753 ecbd 3fa3 f0bd 22b6 b2bd ec26 cc3d
000002b0: 276f 51bd 52fc a13d 9172 af3d ef3d 01bd
000002c0: 1b3f fd3d baa3 30bd 1652 95bc 5cb1 053d
000002d0: 6182 9ebd 9e52 ec3d bd3f ebbc 366f 323d
000002e0: 90ed ca3c 80fb b8bd 6dd2 853d b470 06bd
000002f0: 5028 04be d39b 9bbd c313 dc3d 59aa f8bc
00000300: 82a4 35bd 4974 d5bd 6d4c cbbd 40aa 06be
00000310: db6c 043e 7de6 a7bd 6b8c 11bd 086e b2bd
00000320: 5875 11bd e441 023e 4494 e2bd 6a96 c63d
00000330: 92f3 f23d f127 993c bf34 1dbd eb5e 09be
00000340: 4396 293d 3f45 853d e20d 95bd a64e 96bc
00000350: 8c56 a13d f457 5cbc f3b6 92bd 9309 b5bd
00000360: de73 323d 65e6 613d b1bd 06be ea42 cbbc
00000370: 91b4 9f3d beae 82bd 1777 3a3d b11e c43d
00000380: aee2 d2bd 1d28 e1bd a5dc 10be 6fd2 173d
00000390: fb65 e9bc 797e 11bd 0cbe f33d a68f e9bd
000003a0: 4a5a 093e 6425 f3bd 450e 11be 8683 92bd
000003b0: 8e9a 983d bf19 b43d 417a 51bd 606d f23d
000003c0: ebc2 11be b737 07bc 5de8 563d edb3 a23d
000003d0: 03cd b4bd c772 bfbb 1601 a5bd f47b e33d
000003e0: 78a0 86bd c5a7 afbd e2f3 02be c798 0b3e
000003f0: d60d be3c 3140 9dbd cff5 693d ca09 16bc
0.08780568 -0.007526647 0.12090837 0.09047512 -0.0946671 -0.011222556 0.082447834 -0.14259186
-0.1268827 -0.05783278 0.10711845 0.065298855 -0.13274223 -0.05936853 -0.052654617 0.020746907
0.0067689116 0.10130676 -0.09269404 -0.062137198 0.007040876 -0.016496561 -0.04972596 -0.09428655
-1.8589943e-05 -0.020186938 0.12204531 0.12880269 0.06779798 0.09551042 -0.030944597 0.07613127
-0.10704674 -0.065958075 -0.12153635 0.074858464 -0.07288962 0.007478687 -0.11657268 0.063309826
0.04201608 0.06521084 0.12267341 0.06172389 0.005638853 0.059556253 -0.016992219 0.024157483
-0.015810056 -0.11520023 -0.061922453 -0.052297723 -0.11279992 0.12684423 -0.06232021 -0.07739638
0.017581418 0.010928345 -0.012954269 0.086048834 0.019840986 0.07946028 -0.12592453 -0.042470574
-0.12410441 0.014142657 -0.08627187 0.024212059 0.06604186 0.113655664 -0.0069384333 -0.08171647
-0.14537904 0.07207372 -0.12618098 -0.031932425 -0.022497896 -0.008943342 -0.083407216 -0.14996439
0.07206441 0.14089292 0.07258743 0.10362684 0.08412107 0.0647928 -0.01918192 0.0039423723
0.020871118 0.06353172 0.010413224 0.004811338 -0.024974933 -0.047303542 -0.051005293 -0.12182636
0.10273245 0.121960826 0.057611756 0.087227546 -0.053514484 0.029600194 -0.063143395 -0.00292998
0.05033134 0.030707572 0.058152135 -0.023912035 -0.013896858 -0.029172262 0.07390938 0.0006651789
0.041393794 -0.12235272 0.115529284 0.1273146 0.06983534 0.1030875 0.10461548 0.11145432
-0.08170096 0.05070541 0.033237092 0.067742206 0.117036775 -0.035861798 0.058303285 0.09150266
-0.033093072 -0.011201553 -0.05151146 -0.043464072 -0.074953474 -0.09838465 -0.11934847 -0.0019668106
0.06869519 0.05679733 -0.036628876 0.016400078 -0.04308317 -0.031445384 -0.04007859 -0.040348195
0.052566577 0.059137758 -0.05815773 0.11082739 0.066138044 0.1117199 0.024827842 0.09851522
0.025417577 0.091194235 -0.065645516 0.12264395 0.02021361 0.12388489 -0.03451134 -0.09621853
-0.112494946 -0.034445558 -0.040338613 0.081788205 0.106821716 0.03061259 -0.08172449 0.10077271
-0.11539274 -0.11749887 -0.08726145 0.09968361 -0.051131394 0.079094544 0.08566774 -0.031553205
0.12365552 -0.04312489 -0.018227618 0.032639846 -0.077397116 0.115391955 -0.028716916 0.04356309
0.024771482 -0.09032345 0.06534276 -0.032822326 -0.12906003 -0.075980805 0.10745957 -0.030354666
-0.04434634 -0.1042257 -0.099266864 -0.13150883 0.1293215 -0.08198259 -0.035534304 -0.08712393
-0.0355123 0.12720448 -0.11063436 0.09696658 0.118628636 0.018695803 -0.03838038 -0.13415115
0.041403066 0.06507348 -0.072780386 -0.01834805 0.07877836 -0.013448704 -0.07163801 -0.08839717
0.04356753 0.055151362 -0.13158299 -0.02481218 0.07798112 -0.06380986 0.04552373 0.095761664
-0.10297142 -0.10993979 -0.14146669 0.03706592 -0.02849101 -0.035521004 0.11901483 -0.11404352
0.13413349 -0.11872366 -0.141656 -0.07153992 0.07451354 0.08793973 -0.05114198 0.11837268
-0.14234512 -0.00825303 0.052467693 0.07944474 -0.088281654 -0.00584254 -0.08056848 0.111076266
-0.06573576 -0.085769214 -0.12788346 0.13632499 0.023199957 -0.07678259 0.057119187 -0.009157607

base.0.bias f4 [32]
00000000: e08a 0e39 443d e3b8 1204 95b8 a88b 21b8
00000010: 6c62 3f39 ee7b 16b8 d8ea 5bb9 6785 9439
00000020: 20d3 5939 3aae e3b9 9ebf 74b8 fd59 5336
00000030: 91de d0b5 49b8 5837 bd38 2eba d697 15b9
00000040: d8e2 32b7 d426 90b9 4adf 8439 8a3e a039
00000050: 3f5b 0cb9 7c7c 9f38 16a1 50b9 38ea b6b8
00000060: 05ca fbb8 7f2d b9b8 93be aab8 a105 9338
00000070: aa63 bcb6 087d c838 a68c c6b9 043d f5b8
0.0001359391 -0.00010835615 -7.105632e-05 -3.8515456e-05 0.00018251844 -3.5878205e-05 -0.00020972954 0.00028328152
0.00020773383 -0.00043426623 -5.835259e-05 3.149383e-06 -1.5561983e-06 1.29175105e-05 -0.0006646028 -0.0001426631
-1.0662443e-05 -0.0002749475 0.00025343365 0.00030564173 -0.00013385432 7.604898e-05 -0.00019896435 -8.722063e-05
-0.00012006242 -8.829962e-05 -8.141729e-05 7.010555e-05 -5.614439e-06 9.560032e-05 -0.00037870294 -0.000116938754

base.1.weight f4 [32]
00000000: 90f1 7c3f 753e 813f 217b 7e3f 4fe0 7f3f
00000010: 36a5 7c3f 9b7a 7d3f 0695 803f bfc3 803f
00000020: 7055 7d3f 7396 813f 81f8 7e3f 33ff 7f3f
00000030: 660d 7a3f 50b3 7c3f d907 823f ba97 7d3f
00000040: 26e5 803f 20eb 833f 7d73 7e3f 5500 803f
00000050: c002 7f3f d868 7d3f 2f9a 803f 4381 7b3f
00000060: 5a40 7e3f c3ab 7c3f e10e 7f3f a325 7b3f
00000070: f3cc 803f da28 7e3f b991 823f 8263 813f
0.98806095 1.0097185 0.9940663 0.9995164 0.9868959 0.99015206 1.0045478 1.0059737
0.9895849 1.0124038 0.99597937 0.9999878 0.97676694 0.9871111 1.0158645 0.9905964
1.006993 1.030613 0.9939497 1.0000101 0.9961357 0.98988104 1.0047053 0.9824411
0.9931694 0.9869959 0.9963208 0.98104304 1.0062546 0.99281085 1.0200721 1.0108492

base.1.bias f4 [32]
00000000: d38a 17bc 1a69 ad3b e071 c13b 978a 803b
00000010: b655 b0b8 e822 59b9 5d17 363b b767 f0bb
00000020: bb7e bcbb 5400 893c ec20 d93b 0700 9c3b
00000030: 5256 84bc 1b98 9abb 381f bb3b 4354 973b
00000040: d1fd ce3b 2520 253a 4195 42bc 63d4 ce3b
00000050: d514 90bb 6835 f33a 1081 17bb 227a 3dbc
00000060: 04aa 9abb bc98 23bc 7089 773b e576 8fbc
00000070: fc33 2e3c c6c2 a4bb 1e1b 7a3b 5f5d 7d3b
-0.009249407 0.00529207 0.0059034675 0.003922771 -8.408299e-05 -0.00020707736 0.0027784922 -0.0073365825
-0.005752412 0.01672379 0.006626239 0.0047607454 -0.016154442 -0.0047178394 0.0057105087 0.004618199
0.0063168784 0.00062990404 -0.011876405 0.0063119396 -0.0043970146 0.0018555345 -0.0023117699 -0.011564763
-0.0047199745 -0.009985145 0.0037771128 -0.017512748 0.010632511 -0.0050281016 0.0038163136 0.003866039

base.1.running_mean f4 [32]
00000000: c085 cf3c ebc1 25bd 07d7 3e3f 224f 71be
00000010: 9aa9 00bf 1177 2cbf 7a80 39be 7ff7 4c3e
00000020: 50a9 933f 8e3b f63d d76c a03e 85a5 edbd
00000030: 3b76 70bf b3ec afbd 7610 c5bc aff6 8e3e
00000040: ec40 073e 5bf9 4f3e 9452 a0be ae73 b83e
00000050: 26a8 0b3e 282f 5b3f af5f 5cbd 3d7e 84be
00000060: 269a debe 45fb cbbd c21e 403e 5914 f6be
00000070: d99e 9b3d 4877 2e3f 6002 90bd 8133 333d
0.025332332 -0.040468138 0.74546856 -0.23565343 -0.5025879 -0.6736918 -0.18115416 0.20016287
1.1536045 0.12023078 0.31333038 -0.11603836 -0.93930405 -0.08590069 -0.0240557 0.2792258
0.1320836 0.20309965 -0.31313002 0.36025757 0.13638362 0.8561883 -0.05380219 -0.25877562
-0.4347698 -0.09960035 0.18761733 -0.480624 0.07598657 0.6815076 -0.07031703 0.04375029

base.1.running_var f4 [32]
00000000: 0c2f 553b 9b8d 333a 4685 1b3c c63d 573b
00000010: 5a38 4a3b e979 a73b 4862 f53a 6df8 a63a
00000020: a8d1 613c 2324 473a 2a02 1f3b 8237 e83a
00000030: ade7 1d3c 6450 293a 8f58 7439 ad73 253b
00000040: 7a87 273a 238f 223a a00e f83a 3c28 b63a
00000050: 2276 123a fe2c 223c 9000 2e3a 3225 f43a
00000060: 199e 4d3b 0b32 233a 1d8b bc3a cf3e 983b
00000070: c356 5a3a a7b0 993b e390 653a 342d a33a
0.0032529263 0.0006849409 0.009492224 0.0032843216 0.0030856342 0.0051109684 0.0018721307 0.0012738832
0.013782896 0.00075966323 0.0024262764 0.0017716738 0.009637755 0.00064588175 0.00023302644 0.002524595
0.0006390732 0.00062011386 0.0018925257 0.0013897489 0.0005587061 0.009898422 0.0006637657 0.0018626808
0.003137475 0.00062254135 0.0014384721 0.0046461592 0.00083289685 0.004690248 0.00087572465 0.0012449385

base.3.weight f4 [32, 32, 5, 5]
00000000: 369b 94bb 41ef 8c3c 49ec 40bd 7ed0 19bb
00000010: efe6 ac3c b16f eb3b 3674 b2bc d90c fcba
00000020: bc23 5ebc 9163 b03c 8e9b 993c b54a 513c
00000030: 98cd 0ebd c799 903c 748e 9dbc 8f64 69bb
00000040: d58c f13c bb68 4d3c 89c2 6bbc 0838 d3bc
00000050: ab30 98bb 26db cc3c 9d7b babb e2c9 043c
00000060: 8384 ed3c aef1 6fbc b802 f0bc 5b77 e23c
00000070: 5537 1dbd e5ba 4c3c 585e 2a3c 452f 0abd
00000080: bb0e 853c ebf3 eb3c 8901 a83c def3 ebbc
00000090: 91a9 cd3c 7cb9 7d3b 8f28 85ba f4fa 6ebc
000000a0: 243c 02bd 85e7 9dbc 3093 b13b 79b1 af3c
000000b0: 4971 d8bc 374c a6bc 95dc c63c 4cce ccbc
000000c0: 72de b33c 8ac3 debc 7163 e43c 8818 84bc
000000d0: a5ac dbbb bd26 64bc fbf5 e2bc e2da e9bc
000000e0: c63d 2b3b 47ea cc3c 5412 23bc 9310 e43b
000000f0: b2ad 9dbc 9c01 e93b c2fb 083d 53fa 033d
00000100: 0647 943c fcc9 c2bb 42c3 7cbb f88e 0fbc
00000110: baff b4bc 9ac4 14bd 4c4a 993b 7eb6 0a3c
00000120: 5543 3abb c8fa a4bb 03d3 743c d9ab 91bc
00000130: 4759 92bc 4260 be3c fe38 0abc 4357 d53c
00000140: 26f2 e53a 1c7a 10bd ca8a 04bd 2456 3fbc
00000150: 0ad2 ffbc d23a 87bb 21ec a7bc 4594 723c
00000160: 6bc4 05bd 3337 b5bc 169f 6dbb 47d6 f2bc
00000170: 02c2 f2bc 8b5f 023d 9d1b 733c ddfe f5bc
00000180: 537d 5839 7275 90bc dc7c 1e3c 75a8 b33c
00000190: 2ac5 003d 83dd bbbb 4c4f d93b 5081 e83c
000001a0: ff01 73bc bf88 d13b 367e e13c 5d76 773c
000001b0: d0a6 0f3d 9f26 21bc 77a9 183b 161e 36ba
000001c0: 7ee3 91bb dd54 03bb 9bd0 c03c fc3b 07bd
000001d0: 1a2e dcbc 3372 083c 6ab8 9d3c d575 c3bc
000001e0: 5c50 ee3c 9165 f83c 8a89 ba3b d2d4 843b
000001f0: 23cc 313c 04c9 16bc 82fe 8bbb 246c d9bc
00000200: 8923 fabb 5883 8abc 3c9c c13a 71ed 473b
00000210: ef75 f83c 04bb b3bc 57fa 5b3c 3ca4 8f3c
00000220: 42ae 403b c62e 503c 5586 c9bc 9434 f4bc
00000230: e0b1 883c c200 203c 1202 3bbc 01da 4d3c
00000240: 6f3a 833b 66c0 693c 3cff 5d3b b1fc fbbc
00000250: 06aa 31bb 21c8 86bc fe29 bb3c d99f b0bc
00000260: 470a fabc e510 0f3b 0d32 813b 3c7e 1dbd
00000270: 7b2a 0b3d d058 ba3c cf8d 533b ba6a ecbc
00000280: 9ddc 9b3c ab38 8fbc 7f9c f6bc bf4f a53b
00000290: ff45 0f3b 9e2d 23bb 2c0d c7b9 a1a5 14bc
000002a0: e704 95ba 6385 09bd 6aee 76bc bbcd 2cbb
000002b0: ca86 2e3c 6b69 aa3c 2737 14bc fcda eb3c
000002c0: 6c82 8c3c c63d 00bc 9431 083d a154 3f3c
000002d0: a873 c8bc dc67 aabb f757 a8bb 98cd c23c
000002e0: bef1 e23a 9d4f b43c f4e9 713c ce1a 37bc
000002f0: 85a6 383c 7dca 6a3c a90a f4bb db5f 453c
00000300: a42a 24bc ce35 d73b 781a 903c 4db2 5a3c
00000310: 3a03 c13b 4ac9 b33c 46a3 07bd fcac 47bc
00000320: e352 1e3d 0925 c43c 612a b73c 96fa cb3c
00000330: a5f7 2b3b 553a 1cbc 0c68 613b f9ab f73c
00000340: 58b0 7fbb 11ca 943c 7665 d9bc aed8 f1bc
00000350: 742f cfbc 522c 66bc ce8d 2cbc b51a 9a3c
00000360: 2b24 32bc 125e 9b3c a85e c03b dc71 963c
00000370: ef75 6b3c b05f f33c 70f2 0a3c 160f 503c
00000380: dc61 fdbc a93d 3fbc cf6f 113c 2cb0 8bbc
00000390: 1663 b4bc 5d4c 313c c7d2 0b3d d17f db3c
000003a0: c6bd a2bc bdb0 763c 35e2 863c 0923 94bc
000003b0: d617 51bc 1187 e33b a975 153d f4d4 ea3b
000003c0: ae75 ef3b 1c69 ef3c 9b1b 5cb9 6cae af3a
000003d0: a55b 113d 3bc1 153d 1ead 95bb 9ed3 103d
000003e0: feb7 383d f0b8 17bc c789 febc f558 8cbc
000003f0: d944 073d 442e a23c 77bc 86bc 88dc 31bc
-0.004535104 0.017203929 -0.04710034 -0.0023470218 0.021106211 0.0071849455 -0.02178393 -0.0019229903
-0.013558324 0.021531852 0.018750932 0.012774159 -0.03486404 0.017651452 -0.019232966 -0.0035612916
0.0294861 0.012537177 -0.0143896425 -0.025783554 -0.0046444735 0.025006842 -0.0056910054 0.008104773
0.02899385 -0.014645023 -0.029298171 0.027644804 -0.038382847 0.012495731 0.01039847 -0.033736486
0.016242376 0.028802833 0.020508545 -0.028802808 0.02510527 0.0038715294 -0.0010159182 -0.014586199
-0.031795636 -0.019275436 0.0054191574 0.02144693 -0.026421206 -0.020300014 0.024275104 -0.025000714
0.021956656 -0.02719285 0.027879449 -0.016124979 -0.0067039304 -0.013925252 -0.027705183 -0.028546754
0.002612935 0.025014056 -0.0099531 0.0069599836 -0.019247863 0.0071107876 0.03344322 0.03222115
0.018100273 -0.0059444886 -0.003856853 -0.008762114 -0.022094596 -0.036320306 0.0046780463 0.008466361
-0.002842148 -0.0050347783 0.014942887 -0.017782139 -0.017864836 0.023239259 -0.00843644 0.026042586
0.0017543479 -0.035272703 -0.032358922 -0.011678252 -0.031228084 -0.004126885 -0.020498337 0.014805858
-0.032658022 -0.022121048 -0.0036258153 -0.029643191 -0.029633526 0.031829398 0.0148381265 -0.030028755
0.00020646052 -0.017634127 0.0096733235 0.021930913 0.03143803 -0.0057331934 0.0066317674 0.028381974
-0.014832019 0.006394475 0.027526002 0.015103904 0.035071194 -0.009835868 0.0023294368 -0.0006947232
-0.004452168 -0.0020039596 0.02353697 -0.03301619 -0.026877452 0.008328008 0.019252975 -0.023859898
0.029091053 0.030321868 0.0056926655 0.0040536905 0.010851893 -0.009203199 -0.004272283 -0.026540823
-0.0076336307 -0.016908333 0.0014771293 0.0030506516 0.030329673 -0.021939762 0.013426385 0.017534368
0.002940074 0.012706464 -0.024600187 -0.029810227 0.01668638 0.009765806 -0.011414068 0.012564183
0.0040047686 0.014267063 0.0033874055 -0.030760141 -0.0027109399 -0.01645285 0.022847172 -0.021560596
-0.030522479 0.0021830138 0.003942734 -0.038450465 0.03397606 0.022747427 0.003228057 -0.028859485
0.019026095 -0.017483076 -0.03010392 0.005044907 0.002186179 -0.0024899016 -0.00037966052 -0.009072692
-0.0011369259 -0.033574473 -0.015071491 -0.0026367742 0.010652253 0.02080222 -0.0090463525 0.028790943
0.017152034 -0.007827228 0.033250406 0.011677892 -0.024469212 -0.0052003693 -0.0051374394 0.023779675
0.0017314476 0.022010619 0.014765251 -0.011175824 0.01127017 0.0143305035 -0.00744756 0.0120467795
-0.010019932 0.0065676933 0.017590746 0.013348174 0.005890277 0.021946568 -0.033114694 -0.012187239
0.038653266 0.023943441 0.022359075 0.024899762 0.0026240137 -0.009535392 0.0034394292 0.03023337
-0.0039015021 0.018162759 -0.026537638 -0.029522266 -0.025291182 -0.014048653 -0.010531856 0.018811563
-0.010872881 0.018965755 0.005870659 0.01836484 0.014371379 0.029708713 0.008480653 0.012698909
-0.030930452 -0.011672416 0.008876755 -0.017051779 -0.022019904 0.010821429 0.03413656 0.026794346
-0.019865882 0.015056786 0.016465286 -0.018083112 -0.012762031 0.0069435914 0.036489163 0.0071664993
0.0073077297 0.029224925 -0.00020991119 0.0013403422 0.03548779 0.036561232 -0.0045677563 0.035358064
0.045097344 -0.009260401 -0.031071557 -0.017132262 0.033024643 0.019797452 -0.016447289 -0.010855801

base.3.bias f4 [32]
00000000: 77b3 85b7 b136 a237 0569 a737 3f3a 80b7
00000010: 3f2c 6db7 6ee4 c8b8 eb36 fe37 229c 29b8
00000020: 0d02 2c38 7213 0fb8 a6ac 1638 54d1 1cb7
00000030: aae8 f4b7 aec9 15b8 49aa cab7 9d4e d437
00000040: f25e d8b7 0d0f ddb7 5ec0 2038 4ef6 1538
00000050: 2c3a c8b8 a938 16b8 dbd0 4638 afd1 80b8
00000060: fe8a 64b7 f0e4 2537 f258 66b7 a8c4 77b8
00000070: 59a7 d0b6 be3c 3838 1d48 dd37 a987 25b7
-1.5938405e-05 1.9337373e-05 1.9956855e-05 -1.5285912e-05 -1.4136603e-05 -9.5792915e-05 3.0304733e-05 -4.043815e-05
4.1009906e-05 -3.4111967e-05 3.592358e-05 -9.347063e-06 -2.919541e-05 -3.5712197e-05 -2.4159572e-05 2.5308977e-05
-2.5793419e-05 -2.6352262e-05 3.832613e-05 3.5753757e-05 -9.5475785e-05 -3.5815556e-05 4.740139e-05 -6.142572e-05
-1.3622221e-05 9.88807e-06 -1.37297775e-05 -5.907254e-05 -6.218365e-06 4.392559e-05 2.6378833e-05 -9.866352e-06

base.4.weight f4 [32]
00000000: be59 7d3f d6dc 803f f859 7e3f 0414 803f
00000010: ff68 7f3f bef5 803f 15ae 803f f102 7f3f
00000020: f695 7d3f 277d 803f e1e8 803f 7379 803f
00000030: 9ea9 803f a33e 7e3f ee94 7e3f 4e0c 7f3f
00000040: bbb6 7d3f 2861 7f3f 1389 803f f0a5 7d3f
00000050: 8826 7d3f 4f66 803f d452 803f cc99 803f
00000060: d3ad 7b3f 2869 803f ab00 803f dcc6 803f
00000070: e639 803f 0cc8 7f3f 4c39 7d3f 9f84 7e3f
0.9896506 1.0067394 0.9935603 1.0006108 0.99769586 1.0074995 1.0053126 0.99613863
0.9905695 1.0038193 1.0071069 1.0037063 1.0051763 0.99314326 0.99446 0.9962815
0.9910695 0.99757624 1.0041832 0.99081326 0.9888692 1.0031222 1.0025277 1.0046935
0.9831211 1.0032091 1.0000204 1.0060687 1.0017669 0.9991462 0.98915553 0.99421114

base.4.bias f4 [32]
00000000: 9c0c dbbb fb90 32bb 68c1 99bb 754b 70bb
00000010: 3b21 f9bb 60e1 133c 38c6 5fb7 b28b 97b9
00000020: 85a8 8a3b 2c44 4abc f0d1 1d3b 1968 03bc
00000030: 8fa0 d93b 49ca 97bb 21e7 5fbb b51c 0bbc
00000040: 3752 0dbc a927 e4b8 2dad 753b dbc8 8eba
00000050: 993f 51bb cfdd 53bb 8f59 b6bb 1d40 7cba
00000060: ba0c ebbb d8c7 b2bb 61a6 073c effe 92bb
00000070: 5463 5438 a9d4 a7b9 80c9 d3b9 7f33 e038
-0.0066848528 -0.002724706 -0.0046922453 -0.003666607 -0.0076028383 0.009025902 -1.3337987e-05 -0.00028905045
0.004231515 -0.012345355 0.0024081431 -0.008020424 0.0066414545 -0.0046322686 -0.0034164863 -0.008490731
-0.008625559 -0.000108792745 0.0037487254 -0.00108936 -0.0031928776 -0.0032328253 -0.0055648754 -0.0009622591
-0.007173148 -0.005455952 0.008279414 -0.004485957 5.0637245e-05 -0.00032011166 -0.00040395185 0.00010690744

base.4.running_mean f4 [32]
00000000: 1d0d 903b e8b2 373e b587 d13d 3ddd 64bd
00000010: 4a15 62bc b5c8 613b b7b4 f4bb 7d8e dd3c
00000020: 7037 a73d 371e 093d fba8 f73d 7f8b 82bd
00000030: 8e3c 83bd ac01 ce3b c878 05be c39e 523e
00000040: ef38 553e 3a6f 113e bbda 2f3d 449b c8bd
00000050: 3723 f1bd 02b3 0abc fb2e 433d 1131 0f3e
00000060: f49e 073e c581 3b3c 72d4 c1bd 81c3 a9bd
00000070: d0c5 8dbd 450d fd3d 8494 dbbd f5fe 0f3e
0.0043960945 0.17939341 0.10230962 -0.05587505 -0.013799021 0.0034451906 -0.007467832 0.027045483
0.08164871 0.03347608 0.12092777 -0.06374263 -0.06408034 0.0062868204 -0.13034356 0.20568375
0.208225 0.14202586 0.042933207 -0.097952396 -0.11774295 -0.00846553 0.047652226 0.13983561
0.1324423 0.011444514 -0.09464349 -0.082892425 -0.06922495 0.123560466 -0.107216865 0.14062102

base.4.running_var f4 [32]
00000000: cfef 023e 5220 b53d 3d8b d03d 7b97 963d
00000010: f618 a43d 9714 b13d e4ef ea3c 3993 8f3d
00000020: 6ceb e53d f06c a23d b873 3c3d e882 483d
00000030: e264 323d dac2 cf3d 176d df3d b82b ac3d
00000040: 4c21 823d 63a7 223d 6adc a03c 2187 8e3d
00000050: 50d9 063e dc42 373d 8d38 2c3d e1ca aa3d
00000060: a3af 103d 1867 2f3d f838 903d ce6b 113d
00000070: ed2c 2f3d 4712 b03d 3ee4 0d3e 2cae 083e
0.12786792 0.08844055 0.101828076 0.07353111 0.080125734 0.08646505 0.028678842 0.07010502
0.11226544 0.079309344 0.046008795 0.048952967 0.04355324 0.10144587 0.10909479 0.08406776
0.06354007 0.039710414 0.019636352 0.069593675 0.13168836 0.044741496 0.04204612 0.08339477
0.03532375 0.042822927 0.07042116 0.0355032 0.042767454 0.08597236 0.13856599 0.13347691

base.6.weight f4 [32, 32, 5, 5]
00000000: 88a9 e53c 4e17 b83c 4cfc 75bb 4ee8 bcbb
00000010: 42ff cfbc 87b7 16bc 3901 fa3c 0477 083d
00000020: 0768 c13c f1d0 a43c 6a48 60bc 4492 013c
00000030: 6071 b7bc 0c90 4f3a e2b3 5fbc 4528 acbc
00000040: e911 093d 0e80 d63a df8f c33c e4ea c6bb
00000050: 478a a93c 88d2 923b 461e 86bc 75cb 05bd
00000060: e7de 1bbd 0028 b1bc 53cd 14ba a5f6 5c3c
00000070: 78b1 8d3c 0d4b 8ebc 4434 483c 63f0 a03b
00000080: 6ade 5bbc b0b9 0cbc 0b09 883c 2555 af3c
00000090: a7d6 963b 8536 24bd 60f0 59bc 8ada 94bb
000000a0: f097 70bc d8ca e13c 0683 0bbd 53de ccbc
000000b0: ac90 d43c 821b 623c 332a d03c 3da5 91bc
000000c0: 72d9 823c d47d 4a3c 597a 27bc a732 e63c
000000d0: 7cd1 4f3c 382f f0ba edea eb3c 041d 98bc
000000e0: ecac 16bd 752d a53c a535 b9bc 519d 413c
000000f0: 99ca a4bc 3719 41bc 0733 b1bb a1ce 60bc
00000100: a1c2 ca3c 7f5f 403c 1ac8 0f3a fd7b 1b3c
00000110: d384 7fbc 36df 8fbb 0d3b 15bb 26c5 4cbc
00000120: 1582 21bc 3a02 a2bc 922b 523c 5c7b 98bc
00000130: d3c5 03bd d6b1 30bc 54b9 eb3b 31d5 0bbd
00000140: dddd ccbc dd46 853c c319 9fbc 4e39 0c3d
00000150: 826d 943b bf5a 913c 6ce8 b4bc dae6 0c3c
00000160: 1322 18bc 80ed 823c d3e2 edba 3ff8 313c
00000170: de1e 23bd 60b7 403a 2c7a 0f3c 87ef 463c
00000180: 61eb dcba e994 36bc f7eb 64bc 063b 5b3b
00000190: 630e 23bc 1d26 ed3c 2941 40bd bf06 013d
000001a0: 1cfc c9bc da19 6dbb aeba 733b 0260 363c
000001b0: af24 f53c aaba 82bb 28af 9bbc 4471 b0bc
000001c0: 2446 a139 2241 88bc 3473 8ebc 32a9 8ebc
000001d0: 8658 763b 09fc 9d3b bd54 883c e59b 4f39
000001e0: 473a 793b a7cd 303c d006 bf3b 750f a8ba
000001f0: 88a4 2d3c 14a3 6bbc f849 113c b046 153d
00000200: fa24 95bc 28c8 1b3c 34ef 28bc a0c3 903c
00000210: 776d 563d 1825 77bb 3951 e5bc 7f87 043b
00000220: fcb7 403c 2cdb 283d e1c3 143d 0005 a4bb
00000230: 5f98 203c 242e 443b 8221 a3b9 3577 953c
00000240: 130a df3c e275 af38 8223 c63c c1e5 01bd
00000250: 33c1 f8ba a5f7 6b3b e910 d63c fd7d a5bb
00000260: 55ce a33c 9ddf 543c 31f1 babc 5efd 753c
00000270: 53b5 ca3a ff9c 35bd 4df3 a0bc e88a 1dbd
00000280: e814 4d3c 33a4 6d3a ad63 163b a91b a5bb
00000290: d69b ebbb cfe5 2dbc 66d5 5d3c f3a8 203c
000002a0: 49b2 163c e9ba e33c 91ad cb3c abe8 b73c
000002b0: c51b 13bd 047d acba 2de6 853c 2ca2 f0bc
000002c0: c6de 243c 067f 273c 2126 b5bc feeb 303d
000002d0: 69bf a7bc da2c 94bc 15f1 3a3c 45d6 65bc
000002e0: 7372 4fbc a43a c9bb ba04 743c 35b2 ac3c
000002f0: 231c 6ebc 33f2 0a3d e4e8 10bd 8cd5 adbc
00000300: 4b53 a33c cb7d 133d b7a3 e4bc 8b12 663c
00000310: c797 d13b d835 23bc 6769 973c 43da 8b3c
00000320: 2655 a6bc d3e0 adbc 4212 a13b 960c 90bb
00000330: 4e3a a5bc f8e3 9abc e737 a5bb c78b eb3c
00000340: 7ad7 933c 29db 1c3d 2518 613c 1455 023d
00000350: 183b 67bc 92f3 2cbc 920f 86bb 48f8 59bc
00000360: d2b4 5fbc 30f2 a2bc 4773 77bb 65ff 193d
00000370: a118 59bc e261 60bc e015 9a3c 5343 bf3c
00000380: 0940 133d eedd 0bbc 7f77 043d 6535 dfbc
00000390: a830 c9bc 5e04 46bb e0a1 a6bc de57 b33b
000003a0: bb6b 92bc 435b 153d 29a8 ac3c 23f6 1fbc
000003b0: 9b08 103d 5ce5 903c 05d8 963c 60f3 f33c
000003c0: f045 983c b639 9abc ab69 28bc 5d36 e73c
000003d0: f571 0d3d 3e13 b13c c279 1e3b 82d9 c1bc
000003e0: 39ef f53c 15d6 253c f167 a23c 0386 723a
000003f0: 798d 95bc 0fae a5bb 9a08 0bbd 3bbe d139
0.02803494 0.02247205 -0.0037534414 -0.0057649976 -0.025390271 -0.00919903 0.030518161 0.033316627
0.023609174 0.020119162 -0.01368914 0.007908408 -0.022392929 0.0007917888 -0.013653727 -0.021015296
0.033464346 0.0016365068 0.023872314 -0.0060704816 0.020695819 0.0044806637 -0.016371857 -0.032664735
-0.038054373 -0.021625519 -0.00056763476 0.013486539 0.017296538 -0.017369771 0.012219492 0.004911469
-0.013419727 -0.008589193 0.016605875 0.021402905 0.0046032253 -0.040091056 -0.013301939 -0.0045426534
-0.014684662 0.027562544 -0.0340605 -0.025008356 0.025947891 0.013800504 0.025410747 -0.017778987
0.015972827 0.012359101 -0.010222041 0.028100325 0.012684222 -0.0018324619 0.028798545 -0.018568523
-0.036786005 0.020163277 -0.022608588 0.011817292 -0.020116137 -0.011785797 -0.0054076943 -0.013721139
0.02475101 0.011741518 0.00054848345 0.00949001 -0.015595633 -0.0043906225 -0.0022770793 -0.012498176
-0.009857674 -0.019776452 0.012827771 -0.01861351 -0.03217108 -0.010784587 0.0071937237 -0.034138862
-0.025008136 0.016269142 -0.019421464 0.034234338 0.004529656 0.017743466 -0.022083484 0.008599961
-0.009285468 0.01598239 -0.0018149264 0.010862409 -0.03982436 0.0007351544 0.008757155 0.012142069
-0.0016854816 -0.011143901 -0.013972274 0.0033451929 -0.0099521605 0.028948838 -0.04693714 0.031500574
-0.024656348 -0.0036178739 0.0037190127 0.0111312885 0.029924719 -0.0039895372 -0.01900442 -0.021538384
0.00030760572 -0.01663262 -0.017388918 -0.017414663 0.0037589385 0.0048213047 0.016641969 0.00019799134
0.003802912 0.010791219 0.0058296695 -0.0012821989 0.010598309 -0.014382143 0.008867733 0.036444366
-0.018206108 0.00950817 -0.010310937 0.017671406 0.052350488 -0.0037711319 -0.027992832 0.0020222364
0.011762615 0.041224644 0.036319617 -0.005005479 0.009801953 0.0029934729 -0.00031114748 0.018245319
0.027226483 8.366608e-05 0.024186853 -0.03171325 -0.0018978476 0.0036005762 0.02613111 -0.0050504194
0.019995848 0.012992767 -0.022820087 0.015014021 0.0015465416 -0.044339176 -0.019647265 -0.03846255
0.0125171915 0.00090653 0.0022947595 -0.0050386977 -0.007190208 -0.010613873 0.013539648 0.009805906
0.00919778 0.027799087 0.024863036 0.022449812 -0.035915155 -0.0013159816 0.016345108 -0.029374205
0.010062879 0.010223156 -0.022112908 0.04319381 -0.020477014 -0.018087793 0.0114100175 -0.014028137
-0.012661564 -0.0061410237 0.014893705 0.02108107 -0.0145330755 0.033922385 -0.03537835 -0.021219991
0.019937178 0.036008637 -0.027910097 0.014042507 0.006396267 -0.009961568 0.018482877 0.017071849
-0.020304274 -0.021225369 0.0049155066 -0.0043960316 -0.020169403 -0.018907532 -0.0050420645 0.028753174
0.018047083 0.038294945 0.013738667 0.031819418 -0.01411321 -0.010556119 -0.0040912116 -0.013303824
-0.013653951 -0.019890875 -0.003775792 0.03759708 -0.013250501 -0.013695212 0.018809259 0.023347532
0.03594974 -0.008536799 0.032340523 -0.02724714 -0.024559334 -0.0030215005 -0.02034086 0.005473121
-0.017873636 0.036463987 0.021076279 -0.009763273 0.035164457 0.017687492 0.018413553 0.029779136
0.018588036 -0.018826347 -0.010279099 0.028224165 0.034532506 0.02161562 0.002418146 -0.023663286
0.030021297 0.010121842 0.019824954 0.00092515367 -0.018255936 -0.00505615 -0.03394375 0.0004000532

base.6.bias f4 [32]
00000000: 5009 26b7 8565 79b6 7a70 b9b7 7cbd 4737
00000010: 3d0d 04b7 26b4 bab7 84b0 6236 5cde 22b6
00000020: 2850 a4b7 6298 0337 3fdb d437 3cb3 f9b5
00000030: 4b96 a436 8e2c 3fb8 5ff6 a537 ad66 c7b7
00000040: 746d 9237 31ec 9436 e5df d4b5 a23c d336
00000050: a1bd d7b3 7a37 8db5 c4ec e636 1621 d2b7
00000060: 9147 60b8 fbf5 1737 ad45 65b4 9e6c b4b8
00000070: 508a 11b7 65cd a3b8 3e46 2336 5e17 2b37
-9.896539e-06 -3.7162984e-06 -2.2106095e-05 1.1905442e-05 -7.870895e-06 -2.2256816e-05 3.377937e-06 -2.4269311e-06
-1.958765e-05 7.843688e-06 2.5374464e-05 -1.860411e-06 4.9050773e-06 -4.5579443e-05 1.9784258e-05 -2.377046e-05
1.7455524e-05 4.43824e-06 -1.5860393e-06 6.2953486e-06 -1.0046211e-07 -1.0521464e-06 6.8820973e-06 -2.5049358e-05
-5.3472413e-05 9.057573e-06 -2.1352635e-07 -8.6033004e-05 -8.674877e-06 -7.8107034e-05 2.432978e-06 1.0197835e-05

base.7.weight f4 [32]
00000000: 7a2a 863f 061b 843f 7d26 863f efe5 863f
00000010: 6181 863f 71c9 833f 6f68 843f cb5c 853f
00000020: e879 863f bc0d 853f 6dc0 853f 52ad 833f
00000030: a57b 863f f843 883f cf4e 863f 5f18 883f
00000040: 6c6e 833f eefb 833f 8b77 873f 9a92 853f
00000050: 0607 853f f429 863f 2cfc 863f 8696 853f
00000060: d74a 883f 79b8 843f 6b94 893f 9c8d 863f
00000070: 68eb 843f c791 853f ec9b 873f 926b 853f
1.0481713 1.0320747 1.0480496 1.053892 1.0508233 1.029585 1.0344371 1.0418943
1.0505953 1.0394816 1.0449349 1.0287268 1.0506483 1.0645742 1.04928 1.0632437
1.0268073 1.0311258 1.0583357 1.0435364 1.0392768 1.0481553 1.0545707 1.0436561
1.0647839 1.0368797 1.0748419 1.0511966 1.038434 1.0435113 1.0594459 1.0423453

base.7.bias f4 [32]
00000000: 19a3 b43c 3e2f d83c 544e 813c 76f3 e33c
00000010: b1fe 7f3c 15ff 7c3c 24d8 603c c863 b63c
00000020: 4cf4 b73c 5a79 af3c d239 e83c 473f b43c
00000030: e603 cc3c 62ed ca3c bf90 893c 5151 2f3d
00000040: 9769 633c 6303 c83c 94d7 393d 0918 983c
00000050: 8f95 893c c4da f53c 474c c53c 68ca 623c
00000060: dc6e f33c 5554 993c f582 c03c 2539 4d3c
00000070: 1b46 bd3b 4e4a 333c a4db 143d 13ac c33c
0.022050427 0.026389714 0.01578442 0.027826052 0.015624688 0.015441676 0.013723407 0.022264376
0.022455357 0.02142017 0.028347883 0.02200283 0.024904203 0.024771396 0.016792653 0.04280216
0.013880155 0.024415677 0.045371607 0.018566148 0.016794948 0.030011542 0.024084223 0.013842203
0.029715948 0.01871697 0.023499945 0.012525831 0.0057761795 0.010943009 0.036342278 0.023885762

base.7.running_mean f4 [32]
00000000: 0462 e73d 654c 863e 1031 96bc eb56 713e
00000010: b60d c63e 3aee b5bd d509 463e 64dc 6ebd
00000020: 9fb9 f03d 2c22 f83d 29e6 343e f766 f4bd
00000030: a7dd 8a3e dee3 693e 4775 563e ce39 b53e
00000040: 42f3 95be da7d 843d 3891 643e aa59 afbc
00000050: 5a36 0e3c 9636 b23e 46a7 133e 146f ca3d
00000060: b880 6f3e d339 683e 9164 0a3e 7d85 6c3e
00000070: 8ad4 9fbd 5986 b83d 660c 923e 11b5 2ebe
0.11297992 0.2623016 -0.018333942 0.23568313 0.38682336 -0.08883329 0.19339688 -0.05831565
0.117541544 0.12115893 0.17665924 -0.119337015 0.27122232 0.2284083 0.20943175 0.35395664
-0.29287153 0.06469317 0.22321022 -0.02140506 0.008679951 0.3480727 0.14419279 0.09884468
0.23388946 0.22678308 0.13514926 0.23097797 -0.078042105 0.0901 0.28525084 -0.17061259

base.7.running_var f4 [32]
00000000: d5e8 b03d b193 f33d 34cf cb3d 7e95 b13d
00000010: bce7 2b3e 3ea7 ab3d 6897 0b3e 1370 a33d
00000020: c889 d53d 5b54 583e a6ee 963d ac1f 3d3e
00000030: 2d58 333e dde7 1f3e b431 f93d a452 ca3d
00000040: fea5 4d3e 1c30 e83d 0fd9 773e 6fd6 c43d
00000050: 98ba 273e 64f7 f13d 12aa b23d b420 0f3e
00000060: 3dc0 d73d a2b0 383e 8d09 113e 297e d93d
00000070: c7f8 b73d b834 6e3d 00a5 8a3e 0497 d83d
0.08638159 0.11893404 0.0995163 0.086710915 0.16787618 0.08381508 0.13631976 0.07980361
0.1042667 0.21125929 0.07369737 0.18469113 0.17514105 0.15615793 0.12167683 0.09879044
0.20082852 0.11337301 0.24203895 0.096112125 0.16379774 0.11814764 0.087238446 0.13977319
0.105347134 0.1803613 0.141638 0.10619766 0.089829974 0.058155745 0.2707901 0.10575679

head.0.weight f4 [24, 1024]
00000000: 35f1 9c3c 5d70 8e3c 57f9 7c3c abef 623c
00000010: 30e8 023b 5dba 40ba 6460 cc3b 27f2 93bc
00000020: ad33 073b 071a d7bc c140 043a 3b43 633b
00000030: ebce 8e3c 2503 8f3c 8f18 ad3c 172a a43c
00000040: e284 1f3d 4a4c df3c b5fb 00bc 61ee c13b
00000050: dc0b 9c3b b7ca 043d d8c8 5f3b 6efa d93c
00000060: 0b5f f7bc 1ba4 20bc 9327 04bd 0f5a ba3b
00000070: 263a e73b 2e91 0b3d 932c ca3c 9b84 24bb
00000080: 7c46 8a39 4222 29ba d0ec 8bba 9ce0 b4bb
00000090: b548 70bc d81a 983b 546f a83b 49aa 033d
000000a0: 5f20 123d 3a4b b6bb 7a1f 0b3d 924d 043c
000000b0: 3188 f03b 1712 843b 00b1 b03a 0b7e 3c3a
000000c0: 7897 eb3c 5261 803c f2ec 7cbc b737 cd3c
000000d0: 7736 b83c 5e7f 96bc f9f3 d3bb f895 77ba
000000e0: 8c4c 8b3c 62fb 1abd 0768 c8bc 0328 e03c
000000f0: 0777 093d 5fe6 c23c 1a22 70bc d446 a9bc
00000100: 719e afb9 976e 2fbd a515 22bc 5303 16bd
00000110: 19fb ecbc b3f5 22bd 69b3 563c 005f b63c
00000120: 7e57 e73b 5cde bebc 16ae 9cbc 063b 75bc
00000130: 1c05 28bd 90eb ecbc 2be9 fbbb c180 30bd
00000140: 607f 0080 0bab 0080 b9a7 0080 2d34 afba
00000150: 91ef a7bb eb85 e8bb 66f2 da3c 6347 943b
00000160: 161c 343b a5ec 78bc 5606 adbc 7c13 9539
00000170: f8f6 b33a 2c1d c539 3a0e 32b9 fd0a ab98
00000180: 0c20 8d3a c439 803a d468 e03a 45af b4ba
00000190: b95c e6bb 2984 2239 162d 893b 4df6 263d
000001a0: f0f8 3f3d e96b c13c 1227 c13a 0753 27bc
000001b0: 397d b2bb ccfb 053a 5bda ca3a 7852 b03a
000001c0: 2b26 84bb 3722 afbb 6184 76bb db6b 04bb
000001d0: 3964 88bc 12e9 683b de48 ddbc d503 71bc
000001e0: 81ba 5d3b 2625 e2bc 8008 37bc c03c a1bb
000001f0: 0af8 623b 0215 81ba f8e9 0fbb e295 a3ba
00000200: dd46 0000 2712 0080 bd93 0080 2b9f b4b9
00000210: cefd 95bc 5b1a 913c 1a95 313c 5c23 6f3b
00000220: f9db ea3b 9fcb 103d 6695 14bc 43f5 af3c
00000230: 852e 8b3a 0d6c 8839 e488 0000 7b90 0000
00000240: bfd7 14bd 2f79 d039 acdc 18bd dadb 2ebd
00000250: 7634 78bc ace1 97bc 9daa b0bc 8aa6 e83c
00000260: f74d df3a 628b 103c 1ecd 5c3b 66d3 0dbc
00000270: 4864 26bc 1827 04bc 4cfc 51bd ceaa 22bd
00000280: 824e f33c 2d30 203c bd5f 623d e845 613d
00000290: 11a4 2a3d 9f22 213d 0d76 aa3c c4cf 573c
000002a0: 4f58 a93b e691 5f3c 6ea3 f93c 3f52 02bb
000002b0: b6a4 363d cc68 013d 503d ef39 01da 643d
000002c0: 3d6e c4b9 eb5f c4b9 f46d bfba 9e78 bcbb
000002d0: ca6f 39bb ca0f cf3c ec90 063c e391 28bc
000002e0: f5ec 3ebc 9097 cbbc 0909 d5bc 0f64 103c
000002f0: 2daa 9db8 c8df 2839 d2a6 e937 29f3 c2b9
00000300: 92a3 863a ce3b 7e3a c698 a33a 770e 17bb
00000310: fdf2 7bbb b07a fd3a f50b 903c 4fbf df3c
00000320: 8a87 4bbd ec07 de3c ab94 873c 21d0 e73a
00000330: f78f 13bb 44ab 133b e98a e33a 3745 c53a
00000340: 4e4e bebb 8ab1 3f3c ecda 59bc 556f b43a
00000350: 2b71 9f3c 34f7 233d f36d 3c3b 7554 e73b
00000360: 5b44 a7bb ee16 7d3b 2375 9b3c 08e7 763c
00000370: d507 dabc 405a cfbc 15fa c5bc f15f af3b
00000380: 9291 a2b8 9db7 0dbd 4aab c3bc b4d6 8a3c
00000390: 862b fabb 16fc 163d 4abd e33c 0748 1c3d
000003a0: 54f0 fc3c d57c 85bb b2ee b6bb 02bb e9bb
000003b0: eb95 02bc b772 6f3c 2a60 9cbc 61c0 1bbd
000003c0: d372 4f3b b1b0 4a3b 51ee 70bb e8ae abbb
000003d0: 06db bb3b 386e 6d3a f390 483c ebcd cfbc
000003e0: fce0 d5bc bed3 b43b ea1a 83bc a36d e1bc
000003f0: 15f0 153c 29a4 8e3a e202 a13a 7e8b 6c3b
0.019157985 0.017387563 0.015440307 0.013851087 0.001997482 -0.0007351989 0.0062370766 -0.018059803
0.0020630166 -0.026257528 0.00050450495 0.0034677524 0.01743265 0.017457554 0.021129875 0.020039601
0.038945086 0.027258057 -0.007872512 0.0059183096 0.004762156 0.032419886 0.0034146812 0.026608672
-0.030196687 -0.009804751 -0.032264303 0.0056870054 0.0070564924 0.034074 0.024679458 -0.0025103453
0.00026373926 -0.0006451943 -0.0010675434 -0.0055199396 -0.014665772 0.004641872 0.0051402245 0.03214482
0.035675403 -0.005563167 0.033965565 0.008075135 0.007340454 0.004030477 0.0013480484 0.0007190413
0.02875875 0.015671406 -0.015437352 0.025050981 0.022486908 -0.01837128 -0.006468293 -0.00094446493
0.017004274 -0.037837394 -0.024463667 0.02736283 0.03356078 0.02379149 -0.014656568 -0.020663656
-0.0003349665 -0.042830076 -0.009892856 -0.036624264 -0.028928326 -0.0397851 0.013104298 0.022262096
0.0070599904 -0.023299389 -0.01912598 -0.014967686 -0.041020498 -0.028920919 -0.007687708 -0.04309154
-4.5694e-41 -6.1359e-41 -6.0168e-41 -0.001336699 -0.005124994 -0.0070960424 0.026726913 0.0045251115
0.002748256 -0.015193139 -0.021121185 0.00028434012 0.0013730219 0.00037596503 -0.00016980703 -4.421356e-24
0.0010766997 0.000978284 0.0017121085 -0.0013785145 -0.0070300964 0.00015498757 0.004186283 0.040762234
0.046868265 0.023611026 0.0014736375 -0.010212666 -0.0054470566 0.0005111068 0.0015476452 0.0013452312
-0.0040328703 -0.005344655 -0.0037615525 -0.0020205888 -0.016649352 0.0035539311 -0.027012285 -0.014710386
0.0033833089 -0.027605604 -0.01117146 -0.004920572 0.0034632706 -0.000984818 -0.0021959525 -0.0012480582
2.5421e-41 -6.512e-42 -5.2999e-41 -0.00034450865 -0.0183095 0.017712763 0.010838771 0.0036489582
0.007167336 0.03535044 -0.0090688225 0.021479255 0.0010618722 0.00026020446 4.9107e-41 5.183e-41
-0.036338564 0.0003976314 -0.037319824 -0.042690136 -0.015149226 -0.018540226 -0.02156573 0.028399725
0.0017036785 0.008822294 0.0033691595 -0.008656358 -0.010155745 -0.008065961 -0.051266 -0.039713673
0.029700521 0.009777111 0.055267084 0.05499831 0.041660372 0.039339658 0.020808244 0.013172094
0.005167998 0.013645625 0.030473437 -0.0019885448 0.044590674 0.031594083 0.00045631314 0.055871967
-0.00037466167 -0.00037455498 -0.0014604912 -0.0057516834 -0.0028295391 0.025276083 0.008213263 -0.010288688
-0.011653175 -0.024852544 -0.026005285 0.008812918 -7.518041e-05 0.00016105094 2.7853446e-05 -0.00037183732
0.0010272136 0.00096982426 0.0012481443 -0.0023049393 -0.0038444393 0.0019338932 0.017583827 0.027312903
-0.049689807 0.027103387 0.016550383 0.0017685929 -0.002251623 0.0022532502 0.0017360124 0.0015050535
-0.0058076745 0.011700043 -0.013296824 0.001376609 0.019463142 0.040030673 0.0028752058 0.0070596286
-0.005104584 0.0038618403 0.018976754 0.015069731 -0.026615063 -0.02531159 -0.0241671 0.0053520133
-7.7518765e-05 -0.034598935 -0.023885388 0.016948082 -0.007634583 0.0368615 0.027800221 0.038154628
0.030876316 -0.004073719 -0.005582654 -0.007132889 -0.007970314 0.0146147525 -0.019088823 -0.038025264
0.0031654134 0.003092807 -0.0036763141 -0.0052393563 0.0057328967 0.00090572564 0.01224159 -0.025366744
-0.026108257 0.0055184057 -0.016004045 -0.0275181 0.009151478 0.0010882664 0.0012284184 0.0036093886

head.0.bias f4 [24]
00000000: dc88 d53c 3a67 483c a7b6 c03b 945c 93bc
00000010: 141d 9dbc ef96 41bc 5e0c cfbb 9d9a b2bb
00000020: 46a1 063d 812d 863b f83b c03c 3722 cf3c
00000030: 92c7 1b3b 7a1a c83c 4a2d 1dbc 8bc0 11b9
00000040: d017 7bbb b351 003d 3ef9 aa3c 097e 713c
00000050: 0207 4b3a 0c93 93bc c0a1 213c 6dfa 25bc
0.026066236 0.012231642 0.005881149 -0.01798848 -0.019178905 -0.0118157705 -0.006318613 -0.0054505602
0.032868646 0.00409478 0.023466095 0.02528487 0.0023770076 0.024426688 -0.009593317 -0.00013900005
-0.0038313754 0.031327914 0.020870801 0.014739522 0.00077448797 -0.018014453 0.009865224 -0.010130507

head.2.weight f4 [2, 24]
00000000: f35e 22be 7937 883e b9e1 88bc a579 d83d
00000010: 5142 64bd ceb3 e5bd 9e16 323c 3d19 a23c
00000020: 1106 56be a0b8 543e c214 04be f0a6 80be
00000030: 0254 36bd ca78 5b3e 5d28 f5bd af43 573e
00000040: 0d57 df3d 390e 4d3e 006d 283e f5a3 723e
00000050: 8c70 853d ef21 203e cacf aabd 9b1a 273e
00000060: 9f2b 153e 68a8 10be 6c94 f43d c1e5 f3bd
00000070: 5031 313e 03b8 83be 55fb 3dbe 1ebc 10be
00000080: 47fd 4e3e d72e 6cbe 248b 253e 4237 5c3e
00000090: 0254 363d e7c1 cb3b 9266 183e 6773 a23d
000000a0: 79e9 8dbd 66e1 09ba 9599 6dbe 4dea 993c
000000b0: 468c 2f3e 0a44 36bd f3b0 603e 3b6b 5cbd
-0.15856533 0.26604822 -0.016709195 0.10570077 -0.055727307 -0.11215936 0.01086965 0.019787425
-0.20900752 0.20773554 -0.12898543 -0.25127363 -0.04451371 0.21432796 -0.11970589 0.21021913
0.109052755 0.20024957 0.1644783 0.23695357 0.06515607 0.15637945 -0.08340414 0.16318743
0.14567421 -0.14126742 0.11942372 -0.119090565 0.17303967 -0.25726327 -0.18552907 -0.14134261
0.20213805 -0.23064743 0.16166359 0.21505454 0.04451371 0.0062181833 0.14882877 0.079321675
-0.06929297 -0.0005259722 -0.23203118 0.018788481 0.17143354 -0.04449848 0.21942501 -0.0538132

head.2.bias f4 [2]
00000000: f08f 0c3e fa27 09bd
0.13726783 -0.03348539
