models/AC-RM-2 Q_LR=0.001 P_LR=5e-06 BATCH_SIZE=128 GAMMA=0.99 MEMORY_SIZE=150000_policy_3754.pt (torch, 319744 bytes, 22 tensors)

base.0.weight f4 [32, 2, 5, 5]
00000000: fdcd fd3d 93f9 f8bd 2d58 a7bc 4964 e53d
00000010: 5001 b63d e596 c73d fc67 fb3c 2d3f bf3d
00000020: d901 bfbc 941a ecbd 16af 833d 19df 0e3d
00000030: 89a4 77bd 590a a1bd 8ed3 37bd 92a5 82bd
00000040: ecea 96bd f3b6 d33d ad67 073d 9c7d e7bc
00000050: 226b d03d f458 c2bd 7cdb abbc 62f7 b13d
00000060: e590 283d d286 a83d 8186 553c a889 16bd
00000070: 1d72 fcbc 36da d73d ec98 8c3b 8a26 383c
00000080: 03ee 643d d9fe cebd 9851 f13d a23f 14bb
00000090: 5418 5f3d 4aca 9d3d 2ff0 22bd 432b 34bd
000000a0: 77de e33d a841 053e b12c 07bd 39cf f33d
000000b0: ff25 7ebd 904c b03c 0ff5 e4bd 2059 8a3d
000000c0: f276 703d efb2 6bbd 6626 b13d 9aed 0dbd
000000d0: 1380 d13b 222d 013e 6a76 6bbc ef45 2ebc
000000e0: 6c9b 673c 7820 dcbd 0e7c fd3c 35dd a8bc
000000f0: 64e8 993d c430 8f3c 90f2 77bd a77b 953d
00000100: 6ea3 313d 5d72 a43d 2739 fbbd f640 0bbe
00000110: d64b f63d 0898 68bd c4ac fa3d 137f 513d
00000120: cf3a e63d f969 973c af7b e73d 268f af3b
00000130: c8dc 96bd 5d09 bfbd 80ab dbbd 7d32 23bc
00000140: fbc2 e23d 621b 073e 7a8e b13d 3a9b a63d
00000150: cf24 7abc c7e4 553d 65e3 d93d ca3b 13bd
00000160: 850b b23d 5f55 6b3d b0eb c7bd eb9a 6bbd
00000170: 5df7 233c 1b0c 12be 16f9 a03d 85a0 ccbd
00000180: 232d 863d 1749 76bd bc96 82bd 75b8 503c
00000190: 6db9 a2bc 1580 c8bd 03b9 0abd 114c e9bc
000001a0: 926e 6b3b 56f6 f93d bb82 f8bd 793f 023d
000001b0: 6f60 e43c f3ac d93b 4d42 d63d a6d0 c8bd
000001c0: 0f81 02be 2fa4 813d 111a 91bd c21f 0d3b
000001d0: 5562 dbbd 5930 d5bd 67ac ab3c fb95 2abd
000001e0: f7e2 c33d f911 fabd 4214 2ebd 1e18 eabb
000001f0: 0293 b0bd ba18 543d 3753 623d 53bd bc3c
00000200: d184 23bd caa9 0cbe 97a7 4f3d 60a8 fcbd
00000210: 49b2 9c3d f8ae 403d a06f 853d b99d fabd
00000220: 5b2b 0cbe ae9a 54bc cd2b fa3c d48a debd
00000230: de16 8abc 41ad 513c 4b3b c93d c387 bc3d
00000240: 3130 47bd 5073 9ebc 8d7b 0fbe 18c1 593b
00000250: 2490 183e f915 0a3e 1f5c 85bd 80f3 debd
00000260: e519 5abd 7736 45bd 7f76 dfbd a500 00be
00000270: 39f6 cbbc 4e7c 9bbc f04c 84bc ae28 fd3d
00000280: 1c70 263c 2ed1 b0bd ac12 19bd f9f1 c43d
00000290: 62c9 ed3d 9d40 263a 828b 863d e000 be3d
000002a0: 7ff5 a3bd ca4c 00be 19ed f93d 0b2d 8ebc
000002b0: e1d8 703d 36b7 fe3d 8216 e13d bcad f3bd
000002c0: f620 763d 13bb b8bd c547 f13d 933e b93c
000002d0: 547b 94bd 87a9 f43c 606d 9e3d caa4 07be
000002e0: 0712 12be b51c d8ba 1ca7 ff3d f63c dbbd
000002f0: 5f3a cf3c 2187 5d3d 1649 a33d 4e54 ba3d
00000300: 1d28 c63b 9508 f53d 52f7 06bd 77d2 033e
00000310: 73d5 04be 7c9e 2a3d fbe4 bebc 7dc3 4fbd
00000320: 46cb 043e 016b dcbd 1e81 8b3d d99f 82bb
00000330: d1ae e7bc 4b37 ca3c b0dc fdbd 0e88 8dbd
00000340: d26a 6d3d 6eb2 723d 5544 a7bc 1e9d 95bd
00000350: 2cb5 79bd 4225 e2bc 8c31 03be 1046 ab3d
00000360: f7b5 513c a5c4 acbc 06c7 e1bd 7462 2e3d
00000370: 6882 0a3e 8d66 86bd 3c8d 283d 26e2 803d
00000380: 28bb e2bc 62a1 e7bd 0e29 c53d e341 afbd
00000390: bed2 903d d5f1 d8bd 66f4 0c3d 2b15 0abe
000003a0: 8eda 8abd be10 40bd cb89 a3bd d3cd 8a3c
000003b0: 913c 86bd 075d b83d 7294 3cbd 6986 c53d
000003c0: 2a30 07be 7ea5 3fbd db9e e7bd 947b 8f3d
000003d0: 0ef3 f83d e43a 013e 7b65 a43d 061a c03d
000003e0: d89d a73d 66d9 ee3c 9d70 c43d 90e9 803d
000003f0: 975e 973c d117 6a3d 9c76 c53b 1843 073e
0.12392805 -0.121569775 -0.020427788 0.112007685 0.08886969 0.09745578 0.030689232 0.09338222
-0.02331631 -0.11528507 0.06429879 0.03488073 -0.060459647 -0.07863302 -0.04487949 -0.06379236
-0.073690265 0.10337629 0.033057857 -0.028258137 0.10176684 -0.09489623 -0.020978682 0.08689763
0.041153807 0.0822884 0.0130325565 -0.036752373 -0.030816132 0.10539667 0.0042906906 0.011239657
0.05589105 -0.10107202 0.11783141 -0.0022620936 0.05446656 0.07704599 -0.03977984 -0.04398657
0.11126416 0.13013327 -0.033001605 0.11904759 -0.062047955 0.021520883 -0.11179554 0.067552805
0.058707185 -0.05754369 0.08649902 -0.034650423 0.0063934415 0.12614873 -0.014371494 -0.010636791
0.014136177 -0.107483804 0.030942943 -0.020613292 0.07515028 0.017479308 -0.06053406 0.072989754
0.04336875 0.080296256 -0.1226676 -0.13599 0.12026183 -0.056785613 0.12239984 0.051146578
0.112416856 0.018483149 0.11302888 0.005357641 -0.073663294 -0.09327958 -0.107260704 -0.009960768
0.11072346 0.1319404 0.086697534 0.08135076 -0.015267565 0.052220132 0.10639075 -0.03594569
0.086936034 0.057454463 -0.09761751 -0.05752079 0.0100077065 -0.1426243 0.07860009 -0.09991554
0.06551578 -0.060128298 -0.063764066 0.0127392905 -0.019863809 -0.09790055 -0.033867847 -0.028478654
0.003592406 0.12205188 -0.1213431 0.031798813 0.027878014 0.0066429316 0.104618646 -0.098054215
-0.12744544 0.06330144 -0.0708505 0.0021533822 -0.10712115 -0.10409612 0.020956231 -0.04164694
0.095647745 -0.12210459 -0.042499788 -0.0071439883 -0.086217895 0.051781394 0.05525514 0.023039496
-0.039921585 -0.13736644 0.050696936 -0.123368025 0.07651193 0.047041863 0.065154314 -0.122371145
-0.13688414 -0.012976332 0.030538464 -0.10866323 -0.016856607 0.012797655 0.09825762 0.09205582
-0.048629943 -0.019342095 -0.14011975 0.0033226665 0.14898735 0.13484944 -0.06511711 -0.10886288
-0.05324735 -0.048147645 -0.10911273 -0.12500246 -0.024897682 -0.018980172 -0.016149968 0.12361275
0.010158565 -0.08633648 -0.037371323 0.09616465 0.11610676 0.00063420256 0.06569578 0.09277511
-0.08005809 -0.12529293 0.12203426 -0.017355463 0.05880058 0.124372885 0.10990621 -0.118983716
0.060090028 -0.090200566 0.11781267 0.022612846 -0.072500855 0.029865993 0.077357054 -0.13246456
-0.1426469 -0.0016488048 0.124830455 -0.10704987 0.025296388 0.054083947 0.079729244 0.09098111
0.0060472623 0.119645275 -0.032950707 0.12873255 -0.1297205 0.04165505 -0.023302546 -0.05072354
0.12968168 -0.10762597 0.068117365 -0.0039863405 -0.028281601 0.024684569 -0.123956084 -0.06910716
0.0579632 0.059252195 -0.020418325 -0.07305358 -0.060963795 -0.027605657 -0.1281187 0.08362973
0.012799731 -0.021089861 -0.11024289 0.04257436 0.13526309 -0.06562529 0.041150317 0.062931344
-0.027677134 -0.11310078 0.09626971 -0.08557489 0.07071446 -0.10593001 0.034412764 -0.13484637
-0.06779967 -0.046890967 -0.07985266 0.016943848 -0.06554521 0.090021186 -0.046040006 0.09644777
-0.13201967 -0.046788685 -0.11309596 0.070059925 0.12155734 0.12620121 0.08027168 0.093799636
0.08184403 0.029156398 0.09591792 0.062945485 0.018477721 0.05715162 0.006026102 0.13209188

base.0.bias f4 [32]
00000000: 0e39 8d38 3628 5138 ec9e af39 fbf1 5238
00000010: 72cb aa38 f604 9f37 64c6 8c39 b65f 92b9
00000020: d1f9 2f39 af26 d1b9 6902 b3b8 4d93 4834
00000030: 1cbc edb8 ad9f 5739 84ea 06ba 016b b2b8
00000040: c02a be39 5484 8ab9 cc3d 8d3a 159a 9839
00000050: 4178 d539 588a 8437 649f 9838 5bc4 4939
00000060: 3ca4 ec38 372e 25b8 4c4f 9639 b991 8ab8
00000070: 1d6c a038 f46b 2c3a 3377 00b9 a7db bab8
6.734031e-05 4.9866932e-05 0.00033497007 5.0293263e-05 8.144126e-05 1.8956587e-05 0.00026850693 -0.000279186
0.00016782364 -0.00039892408 -8.535834e-05 1.8680039e-07 -0.00011336079 0.00020563482 -0.000514664 -8.5076324e-05
0.00036271475 -0.00026420003 0.0010775863 0.000291065 0.00040716122 1.5800048e-05 7.2776136e-05 0.00019242002
0.00011283948 -3.9382106e-05 0.0002866931 -6.607496e-05 7.649532e-05 0.00065773656 -0.00012251436 -8.9100846e-05

base.1.weight f4 [32]
00000000: 759d 7f3f 0b0b 803f e53b 7f3f 79dd 803f
00000010: 20b5 7d3f 8f1e 823f aa66 803f c025 7f3f
00000020: 5911 7d3f 9528 803f 4cb6 803f bce3 7e3f
00000030: 9565 7d3f a9ea 803f 62e4 7e3f 0a07 7d3f
00000040: 7ba6 7e3f cceb 7f3f 2322 813f 59f4 813f
00000050: b948 7f3f 837e 7d3f 664a 7e3f ac7d 7e3f
00000060: b745 803f 3f47 803f 726e 7c3f 571b 803f
00000070: 8d6f 7e3f d878 833f b796 7f3f 2075 7c3f
0.99849635 1.000337 0.99700767 1.0067588 0.991045 1.0165576 1.003133 0.99666977
0.98854595 1.0012385 1.0055633 0.99566245 0.98983127 1.0071613 0.99567235 0.98838866
0.9947278 0.9996917 1.0088543 1.0152694 0.9972034 0.99021167 0.99332273 0.9941051
1.0021275 1.0021743 0.98606026 1.0008343 0.99388963 1.0271254 0.9983935 0.9861622

base.1.bias f4 [32]
00000000: c153 9f3a ff18 853a 5be3 82bb 34d0 0f3c
00000010: 829e 603b 23cf c43b 9487 813b bb09 e23a
00000020: c124 a2bb 4759 503a d404 5fb9 4ffb 07bb
00000030: 5c09 97ba 818d 623b 41bd 6f3b cd5c a4bb
00000040: 70ef 55ba 6ae5 a83b c20c 403b a06e 663c
00000050: 7a1d 66b9 128f 7abb 24a5 86ba 8bc5 88bb
00000060: 000a 553b d226 803a 8a1f e8bb 659f b9ba
00000070: f395 ab39 6210 0b3c 5992 00bb b9ca edbb
0.0012155698 0.0010154544 -0.003994388 0.008777667 0.0034274166 0.006006138 0.0039529298 0.0017245332
-0.004948229 0.00079478737 -0.00021268736 -0.0020749157 -0.0011523175 0.0034569206 0.003658131 -0.0050159455
-0.0008160984 0.0051543014 0.002930448 0.014064461 -0.0002194549 -0.003823225 -0.0010272604 -0.0041739396
0.0032507181 0.0009777194 -0.007083838 -0.0014161883 0.00032727382 0.008487793 -0.001961848 -0.0072568324

base.1.running_mean f4 [32]
00000000: e3c5 413f 8e1d 0b3f 9baa 21bf 77cc 993d
00000010: fe4e 34be f0a8 a63c 831f 6c3e 1d37 63be
00000020: ba2a 8abe 802e 783e 436a 153e 19d2 163e
00000030: 07ec 793e e699 6a3d 04f9 d33e 7327 3e3f
00000040: a494 f03c b6cc 4f3f 2f82 153e 0f95 6f3d
00000050: 9e0b efbd 8ad0 973e 5875 c7be 72d4 88bd
00000060: 7805 47bd e206 e2be 177c 6fbe 7dea 83be
00000070: 1e58 10bf 2a22 993d ed62 493f 643f 04bf
0.75692576 0.5434197 -0.6315095 0.07509702 -0.17608258 0.020344228 0.23058896 -0.22188993
-0.26985723 0.24236488 0.14591317 0.14728583 0.24406444 0.057275675 0.4140092 0.74278945
0.029367752 0.8117174 0.14600442 0.058491763 -0.11672138 0.2965129 -0.38956714 -0.06681146
-0.0485892 -0.44145876 -0.2338718 -0.25764838 -0.56384456 0.074772194 0.78666574 -0.51659226

base.1.running_var f4 [32]
00000000: f32d cb3b bccf 5c3b 25fe be3b dbd1 373b
00000010: ac2f 0a3b f5f7 a539 3df2 c23a 62e5 823b
00000020: bea2 3a3b 7893 303a 318b 6a3a afec 803a
00000030: ac30 c23a 433c d33a 875d 1f3b c1cf 063c
00000040: b909 163a 4e72 d93b 6632 463a 5001 de39
00000050: dc39 2f3a 7ca3 213b 3789 833b 57da 7f3a
00000060: fc90 fd3a 4166 623b 638d 993a 703f 253b
00000070: a6ce cc3b 324f 7f3a 39ac 123c a5b4 293b
0.006200546 0.0033693155 0.005828636 0.0028048668 0.0021085544 0.00031655995 0.0014873218 0.0039946297
0.002847835 0.0006735842 0.0008947133 0.0009836162 0.0014815531 0.0016115982 0.0024317221 0.008228243
0.00057234947 0.0066359406 0.00075606105 0.00042344118 0.0006684342 0.0024664095 0.00401416 0.0009760013
0.0019345577 0.0034545811 0.001171511 0.0025214814 0.0062502204 0.0009739279 0.008952194 0.0025895026

base.3.weight f4 [32, 32, 5, 5]
00000000: 7254 703c 4b46 4a3b d563 d1b8 71a4 66bc
00000010: 5641 073d b5a5 f63c 34e6 eabc 21f8 4a3c
00000020: ca4d 5c3b f3e1 183d ea66 a9bc d262 bdbc
00000030: cf8b e0bb 12d7 9abc 9e33 b4bc dcfa 2abc
00000040: dfa1 89ba 0bb2 ba3b 0d4b f3bc 6faa 4abc
00000050: c1f2 18bc d4c9 b63c 36ba 0a3d 38f0 4a3c
00000060: cd11 163d 51ec a03c c402 d639 288b b43c
00000070: 7c50 e53c ef7f a73b 04b8 0e3d bea0 fe3b
00000080: 2323 fbbb 9aa6 14bd f901 e2bc 6814 d63c
00000090: b4c3 31bc 3859 72bc f9f2 ac3b d7d1 d53c
000000a0: 6c0c 58bc 3fe4 473b 949c 95bc d78f 393c
000000b0: ad91 c03c 6632 a0bc 56bf 193c e26a a1bc
000000c0: c70a 193d e3f9 e13c 14a9 9fbc aac7 12bd
000000d0: 4dc4 a63c 5144 af3c 2529 de3b 843a 93bb
000000e0: 37f3 de3c 9506 fe3c 70ec c13c 30fa d73c
000000f0: 5bd7 0bbd 4a49 3dbc 1754 8ebc bdd5 b83c
00000100: ddb1 203c a5ec 8bbc d44d adbc 615a 7dbc
00000110: 4087 abbc 9f26 4dbc a3af 893c c66a 08bb
00000120: f0a8 c43b 18dd dfbb 7792 fb3c 878e e63c
00000130: dcdc 97ba dbc3 8fbc a035 c1bb 5ece 233c
00000140: 695e bb3c 98ac ef3c cb7b dfbc 1362 0ebc
00000150: 4dc6 de3c 58e9 403c ab46 ea3c edac 9b3c
00000160: 9ebd 663c fe52 15bc 2ea2 ff3c ba8a 39bb
00000170: a1f6 db3c 0f2f 45bc c510 b6bc 4ed9 32bc
00000180: d094 993c 99dc 063d cc5a 5a3b 7e50 f33b
00000190: 1422 c3bc 5062 55bb c950 09bc 513e a0bc
000001a0: 45e2 e03c e32d 11bc b52f f93b d5f7 f8bc
000001b0: dc01 86bc 8fa0 7c3c 6713 0fbc a486 0c3d
000001c0: bfd9 c2bc da7e d3bc a29f 85bc c726 9fbb
000001d0: 924e a53b cb86 ab3c cdbb 863c 2b79 15bc
000001e0: 5606 263c f251 a83c d107 9dbc a229 0dbd
000001f0: b564 c73c 9549 3aba 435e 123b 6a40 073d
00000200: 4013 e03c 6ece b23c e59e 2a3d 62d6 8ebc
00000210: 48fd 3fbb 736f 93bc 8130 e6bb 1499 303c
00000220: 2937 063d 3262 b1bb 9afc 323c d4d4 2cbc
00000230: 5e4f a9bc 0f3c fa3c 31fc 133d 500f 64bc
00000240: ec60 e73c 3405 083d e061 433c a25e f13b
00000250: a8a8 0f3d b784 db3c 3db9 ab3c 23f6 073d
00000260: 788f f7bc 3e6c 6c3b 69aa 7ebc d3e0 69bc
00000270: 307e a93c 8699 9b3c 8595 0b3c 357d 70bc
00000280: b3b3 2fbc 0240 25bd d9c0 943a 2230 1d3d
00000290: 3500 83bc 7c16 cdbc c7a7 22bc d26a d1bc
000002a0: ce24 233c aa4d 903c 2b35 67bc 8e6b 42bc
000002b0: faaa 03bd 50e8 703a ea9c d53c 9b1e b2bc
000002c0: 31c9 3cbb 1bbf 01bd 4823 583c 6ae8 b9bb
000002d0: 9c60 5d3c c920 a83a a32b 29bc fd83 3fbc
000002e0: ef34 873c b2da 003c b102 b9bc 8ea0 10bc
000002f0: 3596 01bd 1199 b9bc 9ae0 183d 7a4c d43a
00000300: e697 983c 98b9 c13c 7d69 943c a28f e0bc
00000310: 0b5c 88bb 99eb fd3c 7050 7bbc d91d 613c
00000320: c6d0 8ebc d9be 56bc 1a5b d0bc 4be2 87bc
00000330: 4507 143c a648 f53b 79bb aebc f455 ec3c
00000340: 3999 05bd cbe8 bf3c ed3d f83c 054c 273d
00000350: 3d52 993c ce56 bd3b abd5 dc3c 7724 13bc
00000360: 01a7 ce3c 1882 753c 3645 c73c f552 a73b
00000370: 6e53 60bb eee5 793c 6747 ae3c 50ab 013d
00000380: c06f cabc 73a2 573c e74a b23c cd57 b3bc
00000390: d0ad e2bb edd7 acbc 8caf b03a ece7 1ebd
000003a0: 7045 c9bc 6a48 f7bc f4af c6bc 2fd9 febc
000003b0: fbfd 603b 9112 aabc 45b4 833c 631e 5bbc
000003c0: 2748 dabc 686c cabc ae85 afbc 0612 523c
000003d0: b803 6d3c 2fd6 353a 94b3 243b 471b 203d
000003e0: 8054 dabb 6239 a7bc d256 c13c 2ff8 633c
000003f0: cc0c 0eba dbd0 6ebc 5ad6 83bc e38a 1cbb
0.014668571 0.0030864652 -9.984492e-05 -0.014077292 0.033021294 0.030108312 -0.028674223 0.01238826
0.0033615702 0.037324857 -0.020678956 -0.02311841 -0.006852604 -0.018901382 -0.02199727 -0.010435786
-0.0010500512 0.005697494 -0.029698873 -0.012369736 -0.009335221 0.022313036 0.03386899 0.012386374
0.03663807 0.019643934 0.0004081932 0.022039011 0.02799248 0.0051116864 0.03484346 0.007770627
-0.0076641007 -0.036291696 -0.027588831 0.026132777 -0.010849882 -0.014791779 0.005277988 0.026101036
-0.013186555 0.0030501036 -0.018263139 0.011325798 0.023506964 -0.019555282 0.009383997 -0.019704286
0.037363794 0.027584976 -0.019489802 -0.035834946 0.020357275 0.02139488 0.006779807 -0.0044930596
0.027215583 0.031008998 0.023672312 0.026364416 -0.034140926 -0.011553118 -0.017374082 0.022562856
0.009808031 -0.017080614 -0.021155275 -0.015463443 -0.020938516 -0.012521415 0.016807383 -0.0020815595
0.006001584 -0.0068317764 0.030709488 0.028144134 -0.0011586207 -0.017549446 -0.005896285 0.009997932
0.022872167 0.029257104 -0.027280709 -0.008690375 0.027194167 0.0117743835 0.02859815 0.019003356
0.014083294 -0.009114025 0.031205263 -0.0028311447 0.026851 -0.012035145 -0.022224793 -0.010916067
0.018747717 0.032925222 0.003331828 0.007425367 -0.02381996 -0.003255982 -0.008381077 -0.019560965
0.027451644 -0.008861038 0.007604564 -0.030391613 -0.016358308 0.0154191395 -0.008732653 0.03430809
-0.02378547 -0.025817323 -0.01631147 -0.0048569175 0.0050447667 0.020938298 0.016446972 -0.009123127
0.010133347 0.020546887 -0.019168766 -0.034463532 0.024340013 -0.00071063015 0.0022334016 0.033020414
0.02735293 0.021826949 0.04165544 -0.01743621 -0.0029295254 -0.017997479 -0.007024825 0.010778684
0.03276745 -0.005413317 0.010924483 -0.010548789 -0.020667728 0.030546216 0.03612918 -0.013919666
0.028244458 0.033208087 0.011925191 0.0073660174 0.035072953 0.026796682 0.020962352 0.03319372
-0.030219778 0.003607526 -0.015543559 -0.014274794 0.020690054 0.018994104 0.008519535 -0.014678289
-0.010723996 -0.040344246 0.0011348977 0.03837598 -0.01599131 -0.025035135 -0.009927697 -0.025563631
0.009957505 0.017615158 -0.014111797 -0.011866463 -0.032145478 0.00091898907 0.026075799 -0.02174311
-0.0028806443 -0.031676393 0.013192005 -0.005673458 0.013511803 0.0012827154 -0.010325345 -0.011689183
0.016504733 0.007864641 -0.022584291 -0.008827342 -0.03163739 -0.022655996 0.03732357 0.0016197108
0.018627118 0.023648068 0.018116707 -0.02741224 -0.004161363 0.03099613 -0.015339002 0.013740026
-0.017433535 -0.013107025 -0.025434066 -0.016587397 0.009034936 0.007485467 -0.021329628 0.02884958
-0.032616828 0.023426434 0.030302966 0.040843982 0.018715972 0.00577817 0.026957354 -0.008980862
0.025226118 0.01498463 0.024324995 0.005106325 -0.0034229415 0.015252573 0.021274282 0.031657517
-0.02471149 0.0131612895 0.021764232 -0.021892453 -0.0069176927 -0.021099055 0.0013480051 -0.038795397
-0.024569243 -0.030185897 -0.024253823 -0.03110942 0.0034331072 -0.020760806 0.01607717 -0.013373944
-0.026645733 -0.024709895 -0.021426048 0.01282168 0.014466219 0.0006936518 0.002513145 0.039088514
-0.006662905 -0.020413104 0.02360097 0.013914152 -0.0005418777 -0.014576162 -0.016093422 -0.0023886494

base.3.bias f4 [32]
00000000: 5e88 95b7 d95b 9837 34f7 6bb8 e0f9 7938
00000010: b0a0 2db7 2d34 8538 4bff 7d38 87d0 22b8
00000020: c667 cbb7 300f 56b7 b6bb 65b8 84af 89b8
00000030: 44d4 29b8 6f6f 3b38 a9be 0f39 27c4 02b9
00000040: 620b 9038 09d0 a4b7 7451 e237 2b5b 00b8
00000050: b4ae 3837 e124 3539 7e08 e438 6ec4 5838
00000060: 6754 59b8 5d89 4738 a900 9fb8 3a3e ac38
00000070: 8df1 48b8 5c39 5138 beaa 2639 5d17 0d37
-1.7825685e-05 1.8162582e-05 -5.6258592e-05 5.959894e-05 -1.03490165e-05 6.351653e-05 6.055766e-05 -3.8818016e-05
-2.4247809e-05 -1.275893e-05 -5.4772674e-05 -6.5653614e-05 -4.0490428e-05 4.4688055e-05 0.00013708569 -0.00012470839
6.868575e-05 -1.9647197e-05 2.6979229e-05 -3.0602485e-05 1.1007931e-05 0.00017275244 0.00010873469 5.1681352e-05
-5.1815437e-05 4.7573227e-05 -7.581834e-05 8.21319e-05 -4.7908678e-05 4.9882903e-05 0.000158946 8.409695e-06

base.4.weight f4 [32]
00000000: 9f18 803f 37ca 7a3f fc8c 803f 95f3 7e3f
00000010: 0635 813f 2467 813f 2066 7e3f 4f73 803f
00000020: 2ad7 7d3f 9db8 7e3f dc51 823f 6512 803f
00000030: 7662 7d3f 6bea 7e3f 8969 803f 2949 7d3f
00000040: dd91 823f f207 7f3f 7e8a 7f3f 775a 7e3f
00000050: 4eb6 7e3f 0c7e 7e3f 7f08 7e3f 01b6 7e3f
00000060: 80ae 7f3f ca3d 803f eed8 7f3f de03 803f
00000070: f792 803f 036a 7c3f d193 7e3f 3a91 7f3f
1.0007514 0.97964805 1.0043025 0.99590427 1.0094306 1.0109601 0.9937458 1.0035189
0.9915644 0.9950045 1.0181231 1.0005614 0.98978364 0.99576443 1.0032207 0.9893976
1.0200764 0.996215 0.998207 0.9935679 0.99496925 0.9941108 0.99231714 0.99496466
0.9987564 1.0018857 0.99940383 1.000118 1.004485 0.9859926 0.994443 0.99830973

base.4.bias f4 [32]
00000000: 4ab4 d1bb 3443 8abc 9fde 6e3b 1b78 0a3b
00000010: 5602 e33b 29c1 8a3b d3d0 81bb f64c de3a
00000020: 4bdf 413b 759c a4bb 55e3 403b b460 06bb
00000030: c668 3ebc e2be 27bc 8aff 4b3b f118 bcbb
00000040: 2a52 c43b f386 09bc 9828 95bb 04a5 2739
00000050: a43a 3dbb 16f6 863b 5054 65ba 8a47 51ba
00000060: 8bac 9ebb 3205 d4ba 1893 adbb f7c4 363a
00000070: ac1f 90bb ca0b 14bb 506d d43a 4b38 e23b
-0.006399666 -0.016877748 0.003644861 0.0021128717 0.0069277687 0.0042344523 -0.0039616614 0.0016960192
0.0029582556 -0.005023534 0.0029432375 -0.0020504417 -0.01162166 -0.010238381 0.0031127655 -0.005740278
0.00599124 -0.008393991 -0.0045519583 0.00015987834 -0.0028874064 0.004118691 -0.000874822 -0.00079833774
-0.004842346 -0.0016175865 -0.005297076 0.0006972099 -0.004398307 -0.0022590035 0.0016206894 0.0069036833

base.4.running_mean f4 [32]
00000000: 423f dd3d ed7e 4b3b 97ac 823c ff2f 893c
00000010: 8a81 acbc 2aeb 85bc 8e09 1c3d 86bc c1bd
00000020: 66fe 35be a185 0bbd e503 22be c1a0 c3bc
00000030: c117 823d debb bf3d 2fdf 363d aef5 233d
00000040: 5e3b f83c cd0f 07be 39ed c13d 98a5 c0bc
00000050: 01d8 95bd 5170 f33c d13c 8fbd db7d 1fbe
00000060: 3a6c f9bd 5ad6 54bd b677 babd d4f7 633e
00000070: de8f 1cbe 4c07 52bc 3ecf 3bbd 878d 72bd
0.10803081 0.0031050995 0.015951438 0.01674652 -0.021057863 -0.016347487 0.03809505 -0.09459786
-0.17772827 -0.034062985 -0.15821798 -0.023880364 0.06352187 0.09362005 0.04464644 0.04002922
0.030301746 -0.13189621 0.09469075 -0.023516461 -0.0731659 0.029716643 -0.06994022 -0.15575354
-0.12178846 -0.051962234 -0.09104864 0.22262508 -0.15289256 -0.0128191225 -0.04585194 -0.059217002

base.4.running_var f4 [32]
00000000: 846b cb3c 6ff4 f13d a942 403d 012e 593d
00000010: 9d61 363d 70fd ca3c a967 e33d b480 f63c
00000020: d311 b63d e9fe 033e 4e12 ae3c 35de d63c
00000030: 01a7 1f3e 79a0 793d 2629 0f3d 28c0 b23d
00000040: 7420 b33c 256b f03d 756f 1c3d 9bcb 563d
00000050: e137 c23d 482a f63c dbcb de3d 8b4f 2c3e
00000060: 7672 b43d f9b8 593d f28c ae3d 392c 473d
00000070: 396f 1f3d 334e 1a3e 7ca4 b43d 8622 8d3d
0.02483154 0.118142 0.046938572 0.05302239 0.044526685 0.024779052 0.11103756 0.030090667
0.088901184 0.1289021 0.021248963 0.026229003 0.1559105 0.060944054 0.03495135 0.08728057
0.02186606 0.11739186 0.03819223 0.052440267 0.09483314 0.030049458 0.10878726 0.16827218
0.08810894 0.05315492 0.08522977 0.04862616 0.03892443 0.15068893 0.088204354 0.068913504

base.6.weight f4 [32, 32, 5, 5]
00000000: 2a86 39bc ea63 b63c c09c f9bc 6849 503c
00000010: 800d 7f3c 647d 0abd 988d 803c 43c6 81bc
00000020: 518a 1c3a 1b8d 15bc 3645 f33c c7e0 3e3c
00000030: 1147 6bbc 12d2 d0bc 4513 e0bc 3dab b9bc
00000040: a8e7 10bd 34c5 b2bc 2191 9abc a6e7 df3b
00000050: 356f 41bc 80f1 86bc a1ec 8bbb f081 e23c
00000060: 48ec 4d3c 6356 c43c 8d9e a4bc c403 853c
00000070: 1fc9 16bd 0bad 93bc 3a6e 013d 7d0e 393c
00000080: 01b2 9c3c 2da9 643c 4d1d 023d 0899 f73c
00000090: f402 9b3b 1a95 8c3c 41f9 10bc de5b a33c
000000a0: ee08 36bc b4bc 1e3c 004a a3bc 46c5 a93b
000000b0: 4168 bb3c aab4 9f3c 0e46 c7bc 6fa7 f03b
000000c0: f5f2 71bc 4a51 29bc 5378 b5bc 011f 93bc
000000d0: f577 3fbc ba2c 053d ab69 863c ecaa 6cbc
000000e0: ab7d a53c e3f6 13bd 596c 25bc d759 24bc
000000f0: 7ba3 8a3b 4488 103b 368f 10bd 3b93 bbbc
00000100: 083b a33c c07a 30bc a8b7 9ebc 4a37 4fbc
00000110: 838f 24b9 a27b 443b ede1 c13c 3acf 1b3d
00000120: 33fb e63c cf39 473b b947 963c 8d68 9abc
00000130: 38e1 a5bc d02c e4bc 1f2b 823b 3a64 b1bc
00000140: 7041 d43c a4d2 bcbb 5c87 44bc 025b ad3b
00000150: 49f0 8239 a119 b73c af3e 103d 3f56 95ba
00000160: 7824 c23c 832b a4bc 9fe3 31bc 6127 08bd
00000170: 57be fcbc 575e 6bbb 3bfd 02bc 6ba9 123d
00000180: 1a98 d13c 98d3 be3c e5de ab3c 0cf4 b73c
00000190: ec19 bbbb 6913 9b3c c2bb 1dbc ceb6 9536
000001a0: bac3 fd3b 955f 8abc f165 d93b 9371 c9bc
000001b0: 7eb5 893c 29ed 3dbb 1731 403d d5f2 9d3c
000001c0: cf63 543c 161b 9ebb dc57 61bc 1e76 2d3d
000001d0: b0f6 dd3c a7b1 1abc 92f2 ea3c 9cbc d53c
000001e0: d166 f23c 8d32 f53c 69a5 90bb 7454 28bb
000001f0: 000e bfbc 8f81 1dbd a975 1d3a 14d8 da3c
00000200: 1f42 1a3d cb01 123a eefc 173c a464 55bc
00000210: c72d 0c3d 5c48 953c 8798 6dbb 83a8 203c
00000220: e03b ea3c 7597 f93c a305 1f3d de35 5dbc
00000230: 42f9 89ba d05c 44bc 258b c4bc 8330 6a3c
00000240: 7548 213c b39b 323c cb5f b1bc cbf1 923b
00000250: 19fe cabc 225f 2b3d 75b1 b63c 38ab 39bc
00000260: bcd5 96bc 407b 3e3b f44b a3bb 0b6a 27bc
00000270: 6397 87bc 4bdc 5fbc ff50 20bc 7350 3c3c
00000280: 3b6f 09bd a3f8 1f3c 17a3 7b3c dbc6 10bc
00000290: c029 51bb e24b 9bbc 9415 183d 659a ddbc
000002a0: 9fd6 cc3c c6e3 a4bc bb58 71bb cd9c 8d3c
000002b0: c0e8 3abc 8cd9 cf3c 5d48 013c 87e4 213c
000002c0: f20b f0bc cffc 16bc 6977 f5bb 4a31 10bb
000002d0: 8bed 22bd f33b 9a3a 7f7b a93b 9704 c8bc
000002e0: bda1 25bd 1e9c 92bb 63b3 703a 36fb c2bc
000002f0: 6563 8ebc b475 9fbc daed c93c a69d 1ebd
00000300: e795 443b 4dae 26bc 07e2 013b 1ef5 82bb
00000310: 6b82 043d 2b7f b5bc 8481 f9bc 2ae2 8f3c
00000320: 297f e13c 955b 9f3b 67cf a7bb 6cb7 e1bc
00000330: 4932 9f3c 2a7d 873b 889a efbc 6c1d f9bc
00000340: 3c07 b13c b61d e8bc c54e c83b 251a 64bc
00000350: 1867 623c dee3 9c3c 3bc5 9bbc b400 b4bc
00000360: fa7a 0b3d d9f6 d33c 1843 56bc d64f 3d3c
00000370: d954 d6bc d44f 923c 9335 c83c 9889 3abb
00000380: 95f3 b03c 140d a9bc 7c71 bbbc f48a 65bc
00000390: 658c 453c 83ed bdbc 34a1 62bb 8ead e3bb
000003a0: 0b31 16bd b404 af3c 2703 063d 8ea7 9e3c
000003b0: 73ff 04bc a1a3 163c 38d5 18bd dd49 1d3c
000003c0: 62dd 293d 537a 6bbc 2fe4 82bc 37fb c1bc
000003d0: 99e9 20bc e452 b63b 7fa0 9a3c 1690 95bc
000003e0: 976a bb3c 9059 8c3b 619a 703c bc1c 7dbc
000003f0: 8f05 7f3b 9f52 e93c f9b2 623c 7160 033c
-0.011323491 0.02226444 -0.030470252 0.012712814 0.0155671835 -0.033810988 0.015692517 -0.015841609
0.00059715385 -0.00912788 0.029696088 0.011650271 -0.014360205 -0.025490794 -0.027352938 -0.02266466
-0.035377175 -0.02182255 -0.018868031 0.0068330346 -0.011806299 -0.016472578 -0.0042701517 0.02764985
0.012568541 0.023966974 -0.020095134 0.016237147 -0.036812898 -0.01802685 0.03159926 0.011294958
0.019127848 0.01395635 0.031766225 0.030224338 0.0047305766 0.01716094 -0.008848489 0.019941267
-0.011110527 0.009688545 -0.019932747 0.0051809875 0.02287686 0.019495327 -0.024325397 0.0073441784
-0.014767398 -0.010334322 -0.022152102 -0.01795912 -0.011686315 0.032513358 0.016407808 -0.014445048
0.020201525 -0.03612412 -0.010096633 -0.010031185 0.004230914 0.0022053877 -0.035292827 -0.022897353
0.01992561 -0.010771453 -0.019374683 -0.012647459 -0.00015693721 0.0029980917 0.0236673 0.038039424
0.028195953 0.0030399447 0.018344747 -0.018848682 -0.020248994 -0.0278534 0.0039724256 -0.021654237
0.02591011 -0.005762415 -0.011995163 0.00529039 0.0002497456 0.022351088 0.03521603 -0.0011393501
0.02369903 -0.02004028 -0.010857492 -0.03324068 -0.03085248 -0.0035914385 -0.007994945 0.0358061
0.025585223 0.023294255 0.020980308 0.022455238 -0.0057098772 0.018930154 -0.0096272845 4.4618273e-06
0.0077442797 -0.01689128 0.006634467 -0.02459029 0.016810175 -0.002898047 0.046921816 0.01928083
0.012963249 -0.0048250062 -0.013753857 0.042348973 0.027095169 -0.00944177 0.02868012 0.026090913
0.029590042 0.029931331 -0.0044142497 -0.0025685104 -0.023322105 -0.038453635 0.00060066074 0.026714362
0.037660714 0.0005569725 0.009276612 -0.013024483 0.034223344 0.01822298 -0.0036254243 0.009805801
0.028593004 0.030467728 0.038823735 -0.0135016125 -0.0010526555 -0.011985019 -0.02399213 0.014293793
0.009843935 0.010901379 -0.021652123 0.0044843904 -0.024779366 0.041838773 0.022301415 -0.011332326
-0.018412463 0.0029065162 -0.0049834196 -0.010218154 -0.016551679 -0.013663362 -0.009784936 0.01149379
-0.033553343 0.009763869 0.015358708 -0.008836473 -0.0031915754 -0.018957082 0.037129954 -0.02705116
0.025004683 -0.020128142 -0.003682657 0.017286683 -0.011408031 0.02537229 0.007890788 0.009881145
-0.029302571 -0.009215548 -0.0074910414 -0.0022002035 -0.03977732 0.0011767134 0.0051721926 -0.024416251
-0.04043745 -0.004474177 0.0009182004 -0.023801427 -0.01738138 -0.019465305 0.02464955 -0.038724564
0.0029996575 -0.0101733925 0.001981856 -0.0039965054 0.03235094 -0.022155365 -0.030457266 0.017563898
0.027526455 0.0048632124 -0.00512116 -0.027553283 0.019433158 0.0041347938 -0.02924849 -0.030409537
0.021609895 -0.02833448 0.0061129057 -0.013922249 0.013818525 0.019151624 -0.019014945 -0.021972992
0.034052826 0.025874542 -0.01307752 0.011554679 -0.026163505 0.01786033 0.024439609 -0.002846336
0.021600524 -0.020636119 -0.022881262 -0.01401018 0.012057398 -0.023184543 -0.0034580948 -0.0069481796
-0.036667865 0.021364547 0.03271785 0.019367006 -0.008117544 0.009194286 -0.037312716 0.00960013
0.041470893 -0.014372426 -0.015977947 -0.023679359 -0.009821319 0.0055640806 0.018875359 -0.018257182
0.022877974 0.0042831376 0.014685244 -0.015448745 0.0038913225 0.02848178 0.013836616 0.008018599

base.6.bias f4 [32]
00000000: 834f c3b8 c0eb cfb8 b1fb 2f38 527b 1738
00000010: bd58 5638 6de2 e5b7 d709 ed37 ecd3 07b8
00000020: 401b 9438 9ca1 29b8 050b b337 1ce4 8f37
00000030: 73be 4c38 8ae7 ad38 f444 8bb7 3420 8235
00000040: 5831 b837 a12f 9737 d631 a2b7 b420 1137
00000050: 6270 2c38 8ad1 69b8 0a30 1d37 b26f 3d38
00000060: 34d1 29b8 333e 22b8 dd7f 30b8 bcbd bd37
00000070: d22f 06b8 0e30 1fb7 51fe b738 5bc7 b337
-9.313135e-05 -9.914441e-05 4.1957657e-05 3.6116056e-05 5.110422e-05 -2.7404365e-05 2.8257184e-05 -3.2383876e-05
7.062266e-05 -4.044325e-05 2.1343594e-05 1.715315e-05 4.881476e-05 8.29241e-05 -1.66022e-05 9.695127e-07
2.1957487e-05 1.8022782e-05 -1.9335112e-05 8.650288e-06 4.111266e-05 -5.5746677e-05 9.369114e-06 4.5165136e-05
-4.0487575e-05 -3.8681737e-05 -4.2080752e-05 2.2618908e-05 -3.1992626e-05 -9.488327e-06 8.77349e-05 2.1431295e-05

base.7.weight f4 [32]
00000000: ab5c 853f db6c 843f 971c 883f c635 863f
00000010: 2b80 833f 8cb6 833f f2e8 843f 609e 833f
00000020: be57 873f 5e5e 873f 8ede 843f 867c 833f
00000030: 0556 833f 82c1 843f df48 853f bb47 863f
00000040: 0f24 853f 0599 873f cf00 853f 1f9f 843f
00000050: 88ab 833f beeb 853f d88a 833f 00e5 873f
00000060: a5e7 863f e313 863f 6e42 863f 2589 833f
00000070: 30ec 873f d19f 853f 55e4 833f c9e2 853f
1.0418905 1.034572 1.0633725 1.048516 1.0273489 1.0290084 1.0383589 1.0282707
1.0573652 1.0575674 1.0380418 1.0272377 1.0260626 1.0371554 1.0412863 1.049064
1.0401629 1.0593573 1.0390872 1.036106 1.0286722 1.0462568 1.0276747 1.061676
1.0539442 1.0474819 1.0489023 1.0276228 1.0618954 1.0439397 1.0304056 1.0459834

base.7.bias f4 [32]
00000000: c1d3 553c d680 2a3c 9336 ce3c 7329 ba3c
00000010: 25d1 223c b084 b53c b2a1 b23c fab9 903c
00000020: f419 fe3c 55a3 d33c 8dcc 6a3c 4167 9d3c
00000030: 2747 3f3c 4bc4 073c 8a5b 033d 264b db3c
00000040: 13d2 4d3c 556b a73c 35ba ae3c be33 8a3c
00000050: de26 733c a9c7 663c 081a a03c 0af1 d83c
00000060: 9ef2 143d d797 793c 9f27 033d 7d01 bd3b
00000070: 96dd 843c eef1 d83c f57f 1c3c 7b5f ac3c
0.013050974 0.010406693 0.025172507 0.022724843 0.009937559 0.022157997 0.021805618 0.017666806
0.031018235 0.025834719 0.014330995 0.019214274 0.011674679 0.008286546 0.03206972 0.026769232
0.012562293 0.020436922 0.021329025 0.016870376 0.01484081 0.014085689 0.019543663 0.026482124
0.03636419 0.015233955 0.032020207 0.0057679997 0.016218942 0.026482549 0.009551992 0.021041622

base.7.running_mean f4 [32]
00000000: 71ee 1f3e cf78 bd3e e737 433e 9449 e1bd
00000010: 2c0e 1abe 5b99 eb3d 7d68 1d3d c53e d63d
00000020: 48d7 933e 22b6 f93b ea2d d7bd 73ed 483d
00000030: 1d32 953e cf2f 28be 8ffd 363e 6a64 14bc
00000040: f1ea ef3d 352f 263e 9870 323e 0aa9 3a3d
00000050: a51d fbbd f71c 9e3a f773 863e 2a30 873e
00000060: c661 8d3e 5d15 afbd 746b 553e 541e 10be
00000070: 21d7 e7bd 3a0d c63d 0836 d73d 9380 923c
0.15618302 0.37006232 0.19064294 -0.11000362 -0.15044469 0.115038596 0.038429726 0.10461191
0.28875184 0.007620589 -0.10506804 0.049054574 0.29139796 -0.16424488 0.17870162 -0.009057144
0.117147334 0.16228946 0.17425764 0.045571364 -0.122615136 0.0012063076 0.2626035 0.26403934
0.27613658 -0.085489966 0.20841771 -0.1407407 -0.113203295 0.096704915 0.105083525 0.017883575

base.7.running_var f4 [32]
00000000: c591 2d3e 3792 b63d 8789 243d 128a 3f3d
00000010: 8257 033d 661e b83d ba82 713d 39d3 593d
00000020: ed96 d63d 3a21 653d 05a0 6f3d 0ced 293e
00000030: f963 523e f3a8 3f3d af73 be3d 89c9 863d
00000040: 9e40 733d 2c8c 093d fd73 d13d e9bd 843d
00000050: 383d 923d c4d8 8c3d cf14 563d 5f92 923d
00000060: 483f 513d 1d0f 553d e281 973d e9f3 ae3d
00000070: 3674 8c3d 6bcf d23d ac52 dd3d f955 013e
0.16950138 0.08914607 0.04017022 0.046762533 0.032065876 0.08990173 0.05896256 0.053179953
0.104780056 0.05593989 0.058502216 0.16594332 0.20545949 0.046791982 0.09299409 0.065814085
0.059387796 0.033580944 0.10227201 0.06481535 0.07140583 0.06877282 0.05226594 0.07156824
0.05108574 0.052016366 0.0739782 0.08542616 0.06858103 0.10293468 0.10806784 0.12630452

head.0.weight f4 [24, 1024]
00000000: bee8 e63c 9cbb e73c b5e9 103d 3a55 e13c
00000010: 454a db3c 3976 c13b cb08 123d 406d ebbc
00000020: f9f6 22bc 4e78 0d3d 1956 7d3c cde3 5d3c
00000030: 62e2 8e3c 030e e73c eee0 e63c 9106 453d
00000040: 2d09 0000 b5ba 0080 5066 17ba 60d2 81ba
00000050: 9ea9 2abb 5c3b e33c e02c 983c dd66 2bbd
00000060: 70a5 cb3c e8ef 053d 8b4b 073b 6c0e 423a
00000070: b5fb 39b9 561b 0080 561b 0080 561b 0080
00000080: a07c 0000 a07c 0000 0f0e 0080 7ec7 03ba
00000090: bfc3 75ba d455 e0bb abc5 d2ba 27cc d53c
000000a0: 3690 1ebb 605d 613c 2acd c03b d4a0 9939
000000b0: a07c 0000 a07c 0000 a07c 0000 a07c 0000
000000c0: 55e0 433d 44c2 823c d122 a33b f42d 183c
000000d0: cf26 333d 74e9 41bc ec20 aabc 0445 013d
000000e0: 39fd 6a3c f9ca 603c 3267 f83b 12e2 433c
000000f0: f6b4 d43c 2d38 8d3c f970 e73c eef6 573d
00000100: f6dd ec3c 6b70 1f3d 4f3b 1d3d fcd3 123d
00000110: 78f2 993c d574 d23c 86fa 763b 399b 743c
00000120: ec00 06bd ad6e 9abc 4772 0a3d 57f2 a63c
00000130: 2b32 183d 77da 2a3d 0aa1 323d 4d26 893c
00000140: 28c1 a03c 023c 9a3c 6124 963c 7b94 643c
00000150: 75c3 b3ba d5ef 5ebc 1ce8 d43b bf61 ea3c
00000160: 2102 f33b fa01 43bc eecb cb3b 2612 963c
00000170: 54c5 9e3c 235a 9e3c ef80 9e3c ef80 9e3c
00000180: 4e5c 13ba 4e5c 13ba df35 16ba 7f2e b4ba
00000190: 7e0b 963b e156 d1bc 102c 8c3c caf2 593d
000001a0: 0ca9 023d 3001 c33c 91f2 8ebc 61e3 31bc
000001b0: 7646 13ba 4e5c 13ba 4e5c 13ba 4e5c 13ba
000001c0: 7667 a5ba 0c10 c03b c176 38bc 2437 6cbc
000001d0: fcca 2b3c 4b8d f03c 6cc6 263d ba97 b4bb
000001e0: b27e 60bb 0f65 103c 88a0 fbbc 0b4e 0ebd
000001f0: 352d fcbb 5747 2ebc b2b4 e4bc cf6f 1bbd
00000200: 0c07 e03a 3649 dc3a 6bec eb3a 7a2e 593a
00000210: cf8d a2b8 6b24 dd3a e6ba 9e3c 31db aa3b
00000220: 18af 273b 1ab3 cabc 070f 77ba 501c d33b
00000230: 71ca db3a 0c07 e03a 0c07 e03a 0c07 e03a
00000240: 0843 003b 43e4 66bb 2bed 953b ae85 343c
00000250: d701 29bc d372 01bd 94bc d63b 024a d8bc
00000260: 0c42 0e3c f4c0 133d af8f 60bc 7644 84bb
00000270: 0879 45bb 5f2b a83c 5e2d b33b 7418 273a
00000280: 908a 00bb 9eba a4bc f617 36bc bb34 23bd
00000290: 1c0e 24bd 7843 bf3b 2efd ed3b 9072 203d
000002a0: b098 63bc 238d 72bc 4b84 0c3c aa09 e2bc
000002b0: 0efa 0a3c 8bc3 c2bc c687 06bd 149c bcbc
000002c0: 6bda 48ba 5244 8aba 4441 31bb ae37 abbb
000002d0: 6a75 f23b f9a1 983b 9088 23bc 2622 1b3b
000002e0: f879 593b 65e4 a43c c346 ee3c d603 19bc
000002f0: c1a9 9cba d9c0 5fba c4db 5eba b261 5fba
00000300: cdeb 3f3c a6cd 3b3c e98e 243c cb15 f63b
00000310: 0ff8 d83b 5a7b 393c 6e01 f63c 5d11 1a3c
00000320: 73a2 85bc 1289 103d 7397 c43b b1e8 303c
00000330: b667 3c3c 6975 3e3c 6975 3e3c 6975 3e3c
00000340: 6b0c e73c 2f5a 613c 7abd ba3c 8bf6 bcbb
00000350: 36bc 173d 302d a4bc 7966 21bd c885 873c
00000360: e618 403c bdb0 4abc 4e7a 133c b5ea 163d
00000370: d2aa c33c 31a8 0a3d a20b c63c a593 51bc
00000380: ed82 a6ba 8710 b5ba ad90 19bb d6e1 2bbb
00000390: a629 823a 9a57 5b3b 7189 4f3c cd7e 973b
000003a0: 58ed 0cbc 69f3 f33c 899e 923b bdac b6b8
000003b0: 7c6b b5ba 9337 a1ba 9337 a1ba 9337 a1ba
000003c0: 902e aebc 2ee2 f4bc 03bc 04bd 63e1 d8bc
000003d0: 5d78 993b bbba 823c 46c8 3fba 5196 993c
000003e0: d948 ae3c 1d52 68bc cdc7 27bb a126 fa3b
000003f0: 6404 30bc 993b c3bc d04f 94b8 6a63 9cbb
0.028187152 0.028287701 0.03537913 0.02750646 0.026768813 0.005903986 0.035652917 -0.028738618
-0.009946578 0.03453856 0.015462422 0.0135430815 0.017441932 0.028204923 0.028183427 0.048101965
3.292e-42 -6.6978e-41 -0.00057754386 -0.0009904616 -0.002604104 0.027738266 0.018576086 -0.041846145
0.02485916 0.032699496 0.0020644392 0.0007402662 -0.00017736743 -9.806e-42 -9.806e-42 -9.806e-42
4.4707e-41 4.4707e-41 -5.043e-42 -0.000502698 -0.0009375177 -0.006846169 -0.0016080638 0.026098324
-0.0024194843 0.0137551725 0.0058838325 0.0002930226 4.4707e-41 4.4707e-41 4.4707e-41 4.4707e-41
0.04782136 0.015961774 0.0049785157 0.0092883 0.043738183 -0.011835445 -0.020767651 0.03155996
0.0143426 0.013720267 0.007580661 0.011955755 0.025965195 0.0172387 0.028252112 0.052725725
0.028914433 0.03892557 0.03838664 0.035846695 0.018792376 0.025690475 0.0037685945 0.014929586
-0.032715723 -0.018851602 0.03380039 0.020379229 0.03715722 0.04171225 0.04361061 0.016741896
0.019623354 0.018827442 0.018327894 0.013951416 -0.0013714867 -0.013606985 0.006497396 0.028611062
0.0074160253 -0.011902327 0.0062193787 0.0183192 0.019381203 0.01933009 0.01934859 0.01934859
-0.00056213595 -0.00056213595 -0.00057300733 -0.0013746767 0.0045790067 -0.025554122 0.017110854 0.053210057
0.031899497 0.023804277 -0.017449649 -0.010857434 -0.00056181045 -0.00056213595 -0.00056213595 -0.00056213595
-0.0012619335 0.005861288 -0.011258782 -0.014417443 0.010485407 0.029364249 0.040716574 -0.0055112513
-0.0034255204 0.008813157 -0.030716196 -0.034742396 -0.007695819 -0.010637126 -0.027918193 -0.037948426
0.0017091944 0.0016806487 0.0017999535 0.00082848186 -7.751176e-05 0.0016871815 0.01937623 0.005214118
0.0025586542 -0.024743605 -0.00094245415 0.006442584 0.0016768706 0.0017091944 0.0017091944 0.0017091944
0.0019571204 -0.003523127 0.0045753918 0.0110182 -0.01031538 -0.031603646 0.006553242 -0.026402477
0.008682739 0.036072686 -0.013706132 -0.0040364815 -0.0030131955 0.020528493 0.0054680547 0.0006374188
-0.001961384 -0.020108517 -0.011114111 -0.03984521 -0.04005252 0.0058369003 0.0072628474 0.039171755
-0.013891384 -0.014804157 0.008576463 -0.027592499 0.008482469 -0.023774883 -0.032844327 -0.023023643
-0.00076619413 -0.0010548925 -0.0027046958 -0.0052251434 0.0073992508 0.0046579805 -0.0099812895 0.0023671477
0.0033184271 0.020128438 0.029086476 -0.009339293 -0.0011952446 -0.00085355114 -0.00085013756 -0.00085213326
0.011713934 0.011462605 0.010043838 0.007509922 0.0066213678 0.011320913 0.030029979 0.009403554
-0.016312813 0.03528697 0.0059994995 0.010797665 0.011499336 0.011624672 0.011624672 0.011624672
0.028204164 0.013754412 0.022795428 -0.005766695 0.037044726 -0.020041078 -0.039404366 0.016543284
0.011724686 -0.012371239 0.009001328 0.036844928 0.023885164 0.033851806 0.024175469 -0.012791549
-0.0012703814 -0.001381413 -0.002343218 -0.0026227138 0.0009930625 0.0033468963 0.012667046 0.00462327
-0.008601509 0.029779153 0.0044744653 -8.710611e-05 -0.0013841237 -0.0012299888 -0.0012299888 -0.0012299888
-0.021262437 -0.029893007 -0.032405864 -0.02647466 0.004683538 0.01595818 -0.0007315915 0.018748434
0.02127497 -0.014179734 -0.0025601268 0.0076339995 -0.010743234 -0.02383213 -7.072056e-05 -0.0047725933

head.0.bias f4 [24]
00000000: 1345 7dbc 202d fe3c b3fd 093d 2f51 463c
00000010: ac4b 69bc 3d6b 9bbc 78f2 c03c b185 0e38
00000020: bc67 8abb 6be1 a33a 98ff 86bb 6081 1c3a
00000030: 2e5b 123c 1279 453b c5b7 2abc 7a14 0c3d
00000040: a456 0b3d f7df e63b 0225 b1bc ab2d f73b
00000050: 24d9 1cbc a8fe fe3b 342f 0ebc d1c4 083d
-0.015458363 0.031027377 0.033689212 0.012104317 -0.014239233 -0.018972034 0.023553118 3.3979948e-05
-0.004223792 0.0012503093 -0.0041198246 0.0005970206 0.008932872 0.0030131978 -0.010419791 0.034199215
0.034018174 0.0070457417 -0.021624092 0.007543286 -0.009573255 0.0077818222 -0.008678246 0.033390824

head.2.weight f4 [2, 24]
00000000: c539 e03d 1eed 073e 33ae 263d 19da 60bd
00000010: 8445 3f3e aca3 9a3d ae0f b63d 7da8 24bd
00000020: 6da6 5cbe bfba 7dbe dcab 523c 2831 7dbe
00000030: b03b 16be bc1e 3c3d efe7 0ebc c7b5 323e
00000040: dcb7 513e 9957 0d3e 2946 4fbe eb61 613e
00000050: b33a 5cbe bef8 733c 0c46 b43c ef1d 143e
00000060: 46e1 2bbe eb57 b5bd a00c 523e 5ff6 e63d
00000070: 9c97 19be 6ae5 73be 26fe 89bc 5adb 583e
00000080: b676 7b3c ab63 ef3d 0988 80be e62d 5e3d
00000090: 07a1 7cbe a686 5c3e cddc 3b3e 890b bdbd
000000a0: d2b9 22be 35e9 8ebd 87ba 5d3e 01b2 1dbe
000000b0: 8cf2 c53d d415 273e 1394 fa3d 1b85 2abe
0.10948519 0.13274047 0.040693473 -0.054895494 0.18678862 0.07550749 0.088897094 -0.040199745
-0.21547861 -0.24778269 0.012858357 -0.24725783 -0.14671206 0.045927748 -0.008722289 0.17452155
0.20480293 0.13802947 -0.20241608 0.22010009 -0.21506767 0.014890848 0.022006057 0.14464544
-0.16785154 -0.0885466 0.20512629 0.1127746 -0.1499924 -0.23817983 -0.01684482 0.21177426
0.015348127 0.11688932 -0.25103787 0.05424299 -0.24670802 0.2153574 0.18345948 -0.09230716
-0.15891197 -0.069780745 0.21653186 -0.15399934 0.09665403 0.1631692 0.12235274 -0.16652338

head.2.bias f4 [2]
00000000: cd3b b23c 0c44 753c
0.02175703 0.014969837
