models/AC-RM-2 Q_LR=0.001 P_LR=5e-06 BATCH_SIZE=128 GAMMA=0.99 MEMORY_SIZE=150000 BETA=0.05_policy_4027.pt (torch, 319747 bytes, 22 tensors)

base.0.weight f4 [32, 2, 5, 5]
0	0x3db55468	0.0885399
1	0xbbdad681	-0.006678403
2	0x3df7da8a	0.1210223
3	0x3dba8fe9	0.0910948
4	0xbdc15dfa	-0.09441753
5	0xbc265556	-0.010152182
6	0x3daa72b3	0.083226584
7	0xbe11dbcd	-0.14244004
8	0xbe010839	-0.12600793
9	0xbd6b224d	-0.05740576
10	0x3dddb20e	0.10824977
11	0x3d87348d	0.0660182
12	0xbe07baca	-0.13254848
13	0xbd6fc0af	-0.058533367
14	0xbd5513f5	-0.052020986
15	0x3ca95327	0.020669533
16	0x3bcebdfc	0.006309269
17	0x3dce6270	0.10077369
18	0xbdbe1d5d	-0.09282944
19	0xbd7e7e74	-0.062132314
20	0x3bd28384	0.0064243693
21	0xbc8e2e2c	-0.017356
22	0xbd4ec8b3	-0.05048437
23	0xbdc224ad	-0.094796516
24	0xb9d9f0c1	-0.0004156884
25	0xbc9f3d20	-0.019438326
26	0x3dfb39e7	0.12266903
27	0x3e042fca	0.12908855
28	0x3d8b2717	0.06794565
29	0x3dc3a3f0	0.09552753
30	0xbcf499d8	-0.029858515
31	0x3d9c96eb	0.07645973
32	0xbddb218e	-0.106997594
33	0xbd8692a1	-0.06570936
34	0xbdf91adc	-0.12163326
35	0x3d9bb611	0.07603086
36	0xbd94ba8d	-0.07262144
37	0x3bf6bc0e	0.007529742
38	0xbdee15ff	-0.11625289
39	0x3d81e2b2	0.06342067
40	0x3d2b61bd	0.041841257
41	0x3d83ed91	0.064417966
42	0x3dfa11c8	0.12210423
43	0x3d7b23f9	0.061313603
44	0x3bae2d9a	0.0053154947
45	0x3d70e8d3	0.05881579
46	0xbc949ad0	-0.018140227
47	0x3cbf2c4f	0.023336558
48	0xbc8792a2	-0.016549412
49	0xbded2981	-0.11580182
50	0xbd7b5d4a	-0.061368264
51	0xbd5627d5	-0.05228408
52	0xbde8c144	-0.113649875
53	0x3e00cbc2	0.12577727
54	0xbd7c9c4e	-0.0616725
55	0xbd9d41dd	-0.07678578
56	0x3c919273	0.017770028
57	0x3c2a7ef7	0.010406247
58	0xbc5849c2	-0.013201179
59	0x3db19fc7	0.08673053
60	0x3ca78757	0.020450277
61	0x3da30314	0.079595715
62	0xbe01c53c	-0.12672895
63	0xbd2f129e	-0.042742364
64	0xbdfc39a2	-0.1231568
65	0x3c78c3b5	0.015183379
66	0xbdb01055	-0.08596865
67	0x3cc24ae6	0.023717355
68	0x3d873fc1	0.06603957
69	0x3dea94f8	0.11454195
70	0xbbcbd999	-0.006221008
71	0xbda72436	-0.081612036
72	0xbe154ec5	-0.1458083
73	0x3d94033f	0.07227182
74	0xbe00568b	-0.12533014
75	0xbd01abdb	-0.031658035
76	0xbcbb2dad	-0.022848928
77	0xbc203612	-0.009778516
78	0xbdad2250	-0.0845381
79	0xbe18fb52	-0.14939621
80	0x3d94602b	0.07244905
81	0x3e101f92	0.14074543
82	0x3d93a8c3	0.07209923
83	0x3dd37f6e	0.1032704
84	0x3dad8ab9	0.08473725
85	0x3d855e8e	0.065121755
86	0xbc9eff93	-0.019408977
87	0x3b543c42	0.003238455
88	0x3ca892a3	0.020577734
89	0x3d841452	0.06449188
90	0x3c352844	0.011056963
91	0x3b99f629	0.004698534
92	0xbcd05735	-0.025432209
93	0xbd41e8e9	-0.04734126
94	0xbd4d7b81	-0.05016661
95	0xbdf8b0b0	-0.121430755
96	0x3dd1ece1	0.10250259
97	0x3df8fa16	0.12157075
98	0x3d6c5fed	0.05770867
99	0x3db45d44	0.088068515
100	0xbd5b59f6	-0.05355259
101	0x3cf28880	0.029606104
102	0xbd81ecc4	-0.063439876
103	0xbb4e801a	-0.003150946
104	0x3d4cf72a	0.0500404
105	0x3cfb655d	0.030687982
106	0x3d6cc3b1	0.057803813
107	0xbcc68fa0	-0.024238408
108	0xbc68961a	-0.014195943
109	0xbcf34622	-0.029696528
110	0x3d97778d	0.073958494
111	0x395ea72d	0.00021233848
112	0x3d29b260	0.041429877
113	0xbdfab4ed	-0.1224154
114	0x3dec004d	0.11523495
115	0x3e027cbd	0.12742896
116	0x3d8f47e9	0.06996138
117	0x3dd31e9d	0.103085734
118	0x3dd654e0	0.10465407
119	0x3de3e8a1	0.11128355
120	0xbda6dac9	-0.08147199
121	0x3d53e8a1	0.051735524
122	0x3d085fa3	0.03329433
123	0x3d8afa43	0.06786015
124	0x3defc203	0.11706927
125	0xbd128e64	-0.035780326
126	0x3d6fae3e	0.05851578
127	0x3dbb0f95	0.091338314
128	0xbd089d2b	-0.033353012
129	0xbc350bef	-0.0110502085
130	0xbd52fdf4	-0.05151172
131	0xbd329e0c	-0.043607756
132	0xbd9a3731	-0.07530058
133	0xbdca3ab7	-0.0987448
134	0xbdf527cd	-0.11970482
135	0xbaf4747e	-0.001865044
136	0x3d8cb83a	0.06871076
137	0x3d68d5a1	0.056844357
138	0xbd1613b0	-0.03663987
139	0x3c8599a5	0.016308615
140	0xbd2f8969	-0.042855654
141	0xbcfcfc11	-0.030881913
142	0xbd2479c5	-0.04015519
143	0xbd258921	-0.04041398
144	0x3d580383	0.052737724
145	0x3d735603	0.0594082
146	0xbd6bb772	-0.057547994
147	0x3de33658	0.110943496
148	0x3d87a937	0.06624072
149	0x3de5daa5	0.11223344
150	0x3cd01e6e	0.025405135
151	0x3dcb45b2	0.09925403
152	0x3cd9e081	0.02659631
153	0x3dbb9748	0.09159714
154	0xbd85e3d8	-0.06537598
155	0x3dfbf06a	0.12301715
156	0x3ca4ce85	0.020118007
157	0x3dfe6458	0.12421483
158	0xbd0dd185	-0.03462364
159	0xbdc53cca	-0.09630735
160	0xbde65d6c	-0.112482876
161	0xbd0eb1c6	-0.034837507
162	0xbd2635a1	-0.04057849
163	0x3da695fc	0.08134076
164	0x3ddaa1d5	0.10675398
165	0x3cfd1b2d	0.030896747
166	0xbda7bde3	-0.08190515
167	0x3dce2f27	0.10067587
168	0xbded738b	-0.11594304
169	0xbdf17a2d	-0.11790881
170	0xbdb2179d	-0.0869591
171	0x3dcc9527	0.09989386
172	0xbd502844	-0.05081965
173	0x3da27a19	0.079334445
174	0x3daf6e9a	0.085660174
175	0xbcff153e	-0.031138059
176	0x3dfeec54	0.1244742
177	0xbd2af6f7	-0.04173943
178	0xbc8e9eca	-0.0174097
179	0x3d07720e	0.033067755
180	0xbd9e668b	-0.07734402
181	0x3deb8d05	0.11501507
182	0xbce65b7b	-0.028119793
183	0x3d34a385	0.044101257
184	0x3ccb4d8d	0.024817253
185	0xbdb9cc08	-0.09072119
186	0x3d843daf	0.06457078
187	0xbd05fbdc	-0.032710895
188	0xbe03f665	-0.12886961
189	0xbd9bf197	-0.07614439
190	0x3ddc02c1	0.10742713
191	0xbcfc4542	-0.030794743
192	0xbd353600	-0.04424095
193	0xbdd4d019	-0.10391254
194	0xbdcc1846	-0.09965567
195	0xbe067404	-0.13130194
196	0x3e04997d	0.12949176
197	0xbda7214c	-0.08160648
198	0xbd0ee064	-0.034881964
199	0xbdb2547f	-0.087075226
200	0xbd0dfeff	-0.03466701
201	0x3e030b5e	0.12797305
202	0xbde21aa8	-0.110402405
203	0x3dc3d97b	0.095629655
204	0x3df10676	0.117688105
205	0x3ca28c27	0.01984222
206	0xbd18fb17	-0.037348833
207	0xbe08d0b2	-0.13360861
208	0x3d27cdb3	0.040967654
209	0x3d84c93d	0.06483696
210	0xbd929d0c	-0.071588606
211	0xbc8c50df	-0.017128406
212	0x3da2e95b	0.07954665
213	0xbc60e810	-0.013727203
214	0xbd928aab	-0.07155355
215	0xbdb30b99	-0.087424465
216	0x3d38255f	0.044957515
217	0x3d67081b	0.056404214
218	0xbe064ad1	-0.13114478
219	0xbcc4c71d	-0.024020726
220	0x3da0e341	0.07855845
221	0xbd80303d	-0.06259201
222	0x3d3f687f	0.046730515
223	0x3dc55094	0.0963451
224	0xbdd1cc10	-0.10244
225	0xbddfd040	-0.109283924
226	0xbe1055ea	-0.14095274
227	0x3d197dc4	0.037473455
228	0xbcf1c595	-0.02951316
229	0xbd158860	-0.03650701
230	0x3df60d7a	0.12014289
231	0xbde8151a	-0.1133215
232	0x3e0a0a80	0.13480568
233	0xbdf3b269	-0.118992634
234	0xbe117221	-0.14203693
235	0xbd8ff806	-0.070297286
236	0x3d9a8133	0.07544174
237	0x3db5c895	0.088761486
238	0xbd51a1f2	-0.051179834
239	0x3df25cac	0.11834082
240	0xbe1087de	-0.14114329
241	0xbbe450f6	-0.006967659
242	0x3d5bfb37	0.053706374
243	0x3da3fcd5	0.08007208
244	0xbdb3c1e4	-0.08777216
245	0xbba3998f	-0.004992671
246	0xbda2daa3	-0.07951858
247	0x3de60d24	0.11232975
248	0xbd85386a	-0.06504901
249	0xbdaf2ff4	-0.08554068
250	0xbe023ffe	-0.12719724
251	0x3e0bd38b	0.13654916
252	0x3cbe5a17	0.023236318
253	0xbd9d14c5	-0.07669977
254	0x3d688467	0.056766894
255	0xbc10f1f2	-0.008846747

base.0.bias f4 [32]
0	0xb8613b74	-5.369955e-05
1	0x39a1a19d	0.00030828724
2	0xb8940536	-7.0581606e-05
3	0x37fd448e	3.0191874e-05
4	0x398a2b4b	0.00026353667
5	0xb886f131	-6.434543e-05
6	0xb8c20f12	-9.253448e-05
7	0x39d58090	0.00040722312
8	0xb8c3b6ae	-9.332351e-05
9	0xb9f3c7ae	-0.00046497345
10	0xb992c1cc	-0.0002799168
11	0xb8725852	-5.777955e-05
12	0x38e4ac7f	0.00010904017
13	0xb7b30e31	-2.1345071e-05
14	0xb9d8fbbd	-0.0004138629
15	0xb9a29657	-0.0003101106
16	0xb8c05b02	-9.172225e-05
17	0xb70dd6a5	-8.454231e-06
18	0x39561a7a	0.00020418494
19	0xb8c2ca3c	-9.28831e-05
20	0x39a9673f	0.00032311116
21	0x38f6596c	0.0001174685
22	0xb9129a83	-0.00013981205
23	0x397b437f	0.0002396237
24	0xb8a79cdf	-7.9924e-05
25	0x39ba3c15	0.0003552145
26	0x39127570	0.00013967394
27	0x38f5777e	0.000117047675
28	0xb96fe8fd	-0.00022879611
29	0xb9927537	-0.00027934622
30	0xb971ff12	-0.00023078572
31	0x39729940	0.00023136009

base.1.weight f4 [32]
0	0x3f7cba2d	0.9872158
1	0x3f812a39	1.009101
2	0x3f7e6f94	0.99389005
3	0x3f7ff8ee	0.9998921
4	0x3f7cbde5	0.98727256
5	0x3f7d47d5	0.9893773
6	0x3f807578	1.0035849
7	0x3f80ac34	1.0052552
8	0x3f7d5eed	0.9897297
9	0x3f817db0	1.0116482
10	0x3f7eea53	0.995763
11	0x3f800f1f	1.0004615
12	0x3f7a73c8	0.9783292
13	0x3f7cf8a1	0.9881688
14	0x3f81f02b	1.0151418
15	0x3f7dae5d	0.9909418
16	0x3f80ebb8	1.0071936
17	0x3f83de48	1.030221
18	0x3f7e8d77	0.9943461
19	0x3f802478	1.0011129
20	0x3f7ef667	0.9959473
21	0x3f7d4621	0.98935133
22	0x3f80a82b	1.0051321
23	0x3f7b9c1f	0.98285097
24	0x3f7e7c7f	0.99408716
25	0x3f7cac4a	0.9870039
26	0x3f7f2cbd	0.9967764
27	0x3f7b0d60	0.98067284
28	0x3f80e82f	1.0070857
29	0x3f7e2b1b	0.99284524
30	0x3f82868c	1.019731
31	0x3f8161d0	1.0107975

base.1.bias f4 [32]
0	0xbc13c287	-0.009018547
1	0x3bc2298e	0.005925364
2	0x3bb27ecf	0.0054472457
3	0x3b77385c	0.0037722802
4	0x38ba8ff0	8.8959816e-05
5	0xba868572	-0.0010263158
6	0x3b2241cd	0.0024758459
7	0xbbb12889	-0.0054064435
8	0xbbbaffb0	-0.00570675
9	0x3c84054c	0.016115807
10	0x3bc9a326	0.006153482
11	0x3ba63098	0.005071711
12	0xbc7779eb	-0.015104751
13	0xbb6443ad	-0.0034830377
14	0x3bb432c0	0.005499214
15	0x3b91a6b4	0.0044449214
16	0x3bd29a2e	0.006427071
17	0xb91a4499	-0.00014712139
18	0xbc3af160	-0.011410087
19	0x3bddff9e	0.0067748567
20	0xbb9d1690	-0.0047939494
21	0x3ae70eb2	0.0017628281
22	0xbb0cf82e	-0.0021510231
23	0xbc306bd7	-0.0107678985
24	0xbb9b4b7c	-0.004739223
25	0xbc18b9eb	-0.00932167
26	0x3b582fae	0.0032987404
27	0xbc95d99d	-0.018292243
28	0x3c2e3a9a	0.010634089
29	0xbb970b34	-0.00460949
30	0x3b88250f	0.0041548084
31	0x3b59bc93	0.0033223971

base.1.running_mean f4 [32]
0	0x3ceee72c	0.029162966
1	0xbd153b9c	-0.0364338
2	0x3f3ed5f8	0.7454524
3	0xbe6a1f2a	-0.2286345
4	0xbef3bec7	-0.4760649
5	0xbf2d8ab7	-0.6778979
6	0xbe34c1c2	-0.17652038
7	0x3e74a1a2	0.23889783
8	0x3f9522f3	1.1651291
9	0x3e0b3c3e	0.135972
10	0x3e9dc00c	0.30810583
11	0xbdddd050	-0.10830748
12	0xbf70d441	-0.94073874
13	0xbd847064	-0.06466749
14	0xbc9aa1fd	-0.01887607
15	0x3e88fff2	0.2675777
16	0x3e02ad06	0.12761316
17	0x3e3e2fd9	0.1857294
18	0xbe9a2a14	-0.30110228
19	0x3ea475a0	0.3212099
20	0x3e13f2d5	0.14448102
21	0x3f5adf94	0.85497403
22	0xbdd1b1af	-0.102389686
23	0xbe840a21	-0.25788978
24	0xbee75443	-0.45181474
25	0xbdb1b8ae	-0.08677803
26	0x3e42b694	0.1901496
27	0xbefb7238	-0.4911058
28	0x3da18d08	0.07888228
29	0x3f301902	0.6878816
30	0xbd895fd2	-0.067077294
31	0x3d59ad07	0.053143527

base.1.running_var f4 [32]
0	0x3b762ebd	0.003756448
1	0x3a036665	0.00050125114
2	0x3c1c3a98	0.009535454
3	0x3b428b8f	0.0029685234
4	0x3b3eab65	0.0029093858
5	0x3ba81431	0.00512936
6	0x3af4c6e5	0.0018674998
7	0x3a82009f	0.0009918398
8	0x3c634439	0.013871246
9	0x3a0819b4	0.00051918183
10	0x3b2ca27b	0.0026341963
11	0x3ae5ad60	0.0017522983
12	0x3c273e30	0.010207698
13	0x3a28104b	0.0006411119
14	0x390dd32f	0.0001352548
15	0x3b248c4a	0.0025108033
16	0x3a0f01df	0.0005455296
17	0x3a3a367b	0.0007103455
18	0x3b03ef4b	0.0020131643
19	0x3aa1ed5e	0.0012354066
20	0x3a10908c	0.0005514703
21	0x3c21dc65	0.009879206
22	0x3a1b527d	0.00059250725
23	0x3af98a75	0.0019038456
24	0x3b3e7e92	0.002906714
25	0x3a34516d	0.00068785885
26	0x3abbe064	0.0014333841
27	0x3b92df5f	0.0044821943
28	0x3a552846	0.00081313064
29	0x3ba313c0	0.0049767196
30	0x3a8d45e6	0.0010778278
31	0x3aaf1c3a	0.0013359853

base.3.weight f4 [32, 32, 5, 5]
0	0xbb8a19ca	-0.0042145
1	0x3c842670	0.01613161
2	0xbd3d629f	-0.04623663
3	0xbaffade0	-0.0019506775
4	0x3cb4f5b5	0.022089818
5	0x3bda042b	0.006653329
6	0xbcb9b511	-0.022669347
7	0xba6799da	-0.00088348764
8	0xbc5bab22	-0.0134075
9	0x3cb48796	0.022037309
10	0x3c997516	0.018732589
11	0x3c45ca74	0.012072194
12	0xbd0a5c51	-0.033779446
13	0x3c8e2456	0.01735131
14	0xbc96947c	-0.01838135
15	0xbb6082c4	-0.003425763
16	0x3cf07f89	0.029357689
17	0x3c59f54e	0.013303114
18	0xbc74cf18	-0.014941953
19	0xbccd446b	-0.025057038
20	0xbb998c1f	-0.004685893
21	0x3cca9905	0.024731169
22	0xbb9ea145	-0.004841002
23	0x3bef696b	0.007306268
24	0x3cf733f6	0.030176144
25	0xbc6f4daf	-0.014605924
26	0xbcf5691d	-0.029957348
27	0x3cdc2b79	0.026876198
28	0xbd1f7b3b	-0.03893588
29	0x3c547b7a	0.012968892
30	0x3c27d623	0.010243925
31	0xbd0605ce	-0.03272038
32	0x3c85266c	0.016253673
33	0x3ce9016e	0.028443065
34	0x3cab4249	0.02090563
35	0xbce4faa0	-0.027951539
36	0x3cc9d5ea	0.024638135
37	0x3b5a5e76	0.0033320463
38	0xba7ebc61	-0.00097174017
39	0xbc630420	-0.013855964
40	0xbd04cefb	-0.032423954
41	0xbca315c8	-0.019907847
42	0x3b9ac4d7	0.004723172
43	0x3cb080c8	0.021545783
44	0xbcd4d2d1	-0.025979431
45	0xbc9d0346	-0.0191666
46	0x3cc5b28f	0.024132995
47	0xbccebd40	-0.025236726
48	0x3cb7a566	0.022417735
49	0xbcd81276	-0.02637599
50	0x3ce72806	0.028217327
51	0xbc8054da	-0.01566546
52	0xbbef1597	-0.007296275
53	0xbc6a4674	-0.014299024
54	0xbced2c5e	-0.02895182
55	0xbce6d858	-0.028179333
56	0x3b46e41c	0.0030348366
57	0x3cc9ec33	0.024648761
58	0xbc290e7f	-0.010318398
59	0x3bb940c3	0.005653472
60	0xbc9b5667	-0.018962098
61	0x3bedbc42	0.007255108
62	0x3d064006	0.0327759
63	0x3d031ebb	0.03201173
64	0x3c8924e4	0.016741224
65	0xbbbba130	-0.005726002
66	0xbb72c113	-0.003704135
67	0xbc1111a8	-0.008854307
68	0xbcb43c7d	-0.0220015
69	0xbd16696a	-0.036721624
70	0x3b9ca756	0.00478069
71	0x3c0c3f02	0.008559944
72	0xbb3bd0a9	-0.0028658307
73	0xbba139b1	-0.0049202074
74	0x3c6e4355	0.01454242
75	0xbc93be27	-0.018035008
76	0xbc986db2	-0.018606994
77	0x3cc57018	0.024101302
78	0xbc094c7d	-0.008380053
79	0x3cd84bed	0.026403392
80	0x3ac6fee8	0.0015182169
81	0xbd132f4c	-0.035933778
82	0xbd01017a	-0.03149555
83	0xbc42595c	-0.011862125
84	0xbcfaaaf0	-0.030599087
85	0xbb8019d6	-0.00390933
86	0xbca8eb13	-0.020619905
87	0x3c8005a4	0.01562769
88	0xbd085a97	-0.03328952
89	0xbcb06870	-0.021534175
90	0xbb5b7017	-0.0033483559
91	0xbcf1ac0f	-0.02950099
92	0xbcec4f91	-0.028846534
93	0x3cfee29d	0.031113917
94	0x3c7cbfac	0.0154265575
95	0xbcf2a156	-0.029617947
96	0xb7bb3411	-2.2316382e-05
97	0xbc8fbeff	-0.017547129
98	0x3c1410b5	0.009037186
99	0x3cb90706	0.022586357
100	0x3d013881	0.031548027
101	0xbbc1a4dd	-0.005909546
102	0x3be5d9d1	0.007014491
103	0x3ce79016	0.028266948
104	0xbc63cf33	-0.013904381
105	0x3bd0deba	0.0063742073
106	0x3cdd5d65	0.027022073
107	0x3c7f4bdf	0.015582054
108	0x3d0f313d	0.034959067
109	0xbc0d0640	-0.008607447
110	0x3b2f4f0d	0.0026749999
111	0xba7aea21	-0.0009571631
112	0xbb84dc03	-0.0040545478
113	0xbb1b923b	-0.0023738283
114	0x3cc843ec	0.02444645
115	0xbd056410	-0.03256613
116	0xbcdc7764	-0.026912399
117	0x3c0ebfe9	0.008712747
118	0x3c9a3f71	0.01882908
119	0xbcbd3b26	-0.023099493
120	0x3cf26fc4	0.02959431
121	0x3cfbc8dc	0.030735426
122	0x3bc64cee	0.006051651
123	0x3b698a2e	0.003563534
124	0x3c3ec396	0.011643311
125	0xbc16a614	-0.00919487
126	0xbba965ee	-0.0051696217
127	0xbcd4e724	-0.025989123
128	0xbbfd7a91	-0.0077355583
129	0xbc83d3e2	-0.016092245
130	0x3af04ef1	0.0018334073
131	0x3b174c3f	0.0023086218
132	0x3cfb9591	0.030710967
133	0xbcbb3921	-0.02285439
134	0x3c680f1b	0.014163758
135	0x3c90a759	0.017657923
136	0x3b3dca8c	0.0028959839
137	0x3c5ae04a	0.013359139
138	0xbccc1fcb	-0.024917504
139	0xbcf046bf	-0.02933061
140	0x3c8a552d	0.016886318
141	0x3c1f7703	0.009732964
142	0xbc349439	-0.011021667
143	0x3c4a9043	0.012363496
144	0x3b90f828	0.004424114
145	0x3c71e593	0.014764207
146	0x3b673d6b	0.003528441
147	0xbcfa8881	-0.030582668
148	0xbb3f488b	-0.0029187526
149	0xbc8686d6	-0.016421717
150	0x3cc3b46d	0.023889745
151	0xbcb32217	-0.021866841
152	0xbcf5e79b	-0.030017665
153	0x3ad4783a	0.0016210147
154	0x3bad61a4	0.0052911807
155	0xbd183982	-0.03716422
156	0x3d091fd3	0.033477616
157	0x3cb65bc3	0.022260552
158	0x3b3451f1	0.0027514661
159	0xbcdcad86	-0.026938211
160	0x3c9b0183	0.01892162
161	0xbc95781b	-0.018245747
162	0xbcf61732	-0.030040357
163	0x3ba7e085	0.0051232004
164	0x3b7cfe01	0.0038603547
165	0xbb25883b	-0.0025258202
166	0xba70f99a	-0.0009192467
167	0xbc16c1d8	-0.009201489
168	0xba4a0f05	-0.00077079266
169	0xbd038607	-0.03211024
170	0xbc7901b8	-0.015198164
171	0xbb3ad900	-0.002851069
172	0x3c2c0e43	0.010501447
173	0x3ca85d45	0.020552287
174	0xbc140e47	-0.009036607
175	0x3ce7030c	0.028199695
176	0x3c89aeb3	0.016806936
177	0xbbff66a3	-0.0077942177
178	0x3d09fa93	0.03368623
179	0x3c49a9ef	0.012308582
180	0xbcc831d7	-0.024437828
181	0xbbb6f6a8	-0.005583603
182	0xbb9e243c	-0.004826097
183	0x3cc58239	0.024109947
184	0x3b2e1098	0.0026560184
185	0x3cb1dfd6	0.021713179
186	0x3c6f023a	0.014587933
187	0xbc257ee9	-0.0101010585
188	0x3c39dff5	0.011344899
189	0x3c743f23	0.014907631
190	0xbbf7a7db	-0.0075578517
191	0x3c4a8392	0.01236047
192	0xbc08db85	-0.008353119
193	0x3bdc6ad9	0.0067266044
194	0x3c918caa	0.01776727
195	0x3c62c79e	0.013841538
196	0x3bc7715c	0.0060865115
197	0x3cb51055	0.022102514
198	0xbd0c1804	-0.03420259
199	0xbc405780	-0.011739612
200	0x3d170947	0.036874082
201	0x3cc31c89	0.023817318
202	0x3cb66cab	0.022268614
203	0x3ccde275	0.025132397
204	0x3adc8fbc	0.0016827504
205	0xbc28d5f1	-0.010304914
206	0x3b833701	0.0040043597
207	0x3cf3e6ca	0.029773135
208	0xbba0abab	-0.004903277
209	0x3c84ba70	0.016202182
210	0xbcd88329	-0.02642973
211	0xbcf296a2	-0.029612843
212	0xbcd6674a	-0.026172299
213	0xbc72e7aa	-0.014825741
214	0xbc3a34f3	-0.011365163
215	0x3c9940d8	0.018707678
216	0xbc363062	-0.011119934
217	0x3c96f087	0.01842524
218	0x3ba9f905	0.005187156
219	0x3c8d7ba7	0.017270876
220	0x3c76f350	0.015072659
221	0x3cf44fee	0.02982327
222	0x3c0780d9	0.008270466
223	0x3c4ea5cc	0.012612771
224	0xbd008694	-0.031378344
225	0xbc342fd8	-0.010997735
226	0x3c05d393	0.008168119
227	0xbc8bda61	-0.017071905
228	0xbcb025e6	-0.021502446
229	0x3c3cf2e7	0.011532522
230	0x3d0b66e2	0.034033664
231	0x3cd7c381	0.02633834
232	0xbc9de8d8	-0.019276068
233	0x3c7498bf	0.014928996
234	0x3c88e73a	0.01671182
235	0xbc8de0fa	-0.017319191
236	0xbc611024	-0.013736758
237	0x3c0049da	0.007830108
238	0x3d145b85	0.036220092
239	0x3c0c7d7c	0.00857484
240	0x3c027395	0.007962127
241	0x3cee2696	0.029071134
242	0x3a3ebffa	0.00072765315
243	0x3a7f6524	0.0009742549
244	0x3d167b5f	0.03673875
245	0x3d162925	0.036660332
246	0xbba581a8	-0.0050508566
247	0x3d0fd8c2	0.035118826
248	0x3d3566f7	0.044287648
249	0xbc0e8b42	-0.008700194
250	0xbcf50231	-0.029908272
251	0xbc8c00aa	-0.01709016
252	0x3d0443d1	0.032291237
253	0x3ca0635a	0.019578625
254	0xbc81b328	-0.015832499
255	0xbc2fec36	-0.010737469

base.3.bias f4 [32]
0	0x3613b588	2.2010372e-06
1	0x37748d5d	1.4576447e-05
2	0x388266ec	6.218054e-05
3	0xb70ca58a	-8.383193e-06
4	0xb7b36eb1	-2.1390008e-05
5	0x370e487f	8.480739e-06
6	0x382e1c48	4.151117e-05
7	0xb7b98fe6	-2.2120726e-05
8	0x37a45878	1.959152e-05
9	0x378a73ab	1.6504744e-05
10	0xb89bd321	-7.430302e-05
11	0xb6e375d8	-6.778846e-06
12	0x376eaa11	1.4225502e-05
13	0xb8706b40	-5.7320343e-05
14	0xb67ed7b1	-3.7974498e-06
15	0x389e1dc0	7.5395685e-05
16	0x3895bf38	7.140491e-05
17	0x378b15d2	1.6580252e-05
18	0xb7a9d624	-2.0246087e-05
19	0x387a1407	5.9623297e-05
20	0x380fe7ed	3.4309855e-05
21	0x36170e07	2.2508918e-06
22	0xb615764d	-2.227159e-06
23	0xb818b7f4	-3.6410944e-05
24	0x3821dc68	3.859066e-05
25	0x3760a829	1.3390593e-05
26	0xb811284b	-3.460822e-05
27	0xb88f6c3d	-6.838932e-05
28	0x38c940d9	9.596506e-05
29	0x388842f5	6.497457e-05
30	0x37bff61e	2.2883582e-05
31	0x38fc933d	0.00012043722

base.4.weight f4 [32]
0	0x3f7d6896	0.9898771
1	0x3f80bcef	1.0057658
2	0x3f7e6fa3	0.99389094
3	0x3f802989	1.0012676
4	0x3f7f6226	0.9975914
5	0x3f80f247	1.0073937
6	0x3f80a29b	1.0049623
7	0x3f7f2566	0.9966644
8	0x3f7db5c5	0.99105483
9	0x3f806c92	1.0033133
10	0x3f80eb47	1.0071801
11	0x3f80749f	1.003559
12	0x3f809ddc	1.0048175
13	0x3f7e4482	0.99323285
14	0x3f7ecad9	0.9952827
15	0x3f7f0059	0.99609905
16	0x3f7db92b	0.9911067
17	0x3f7f33e7	0.9968857
18	0x3f80799c	1.0037112
19	0x3f7d93c8	0.9905362
20	0x3f7d697f	0.989891
21	0x3f8073fb	1.0035394
22	0x3f804e91	1.0023977
23	0x3f80901c	1.0043979
24	0x3f7be28d	0.98392564
25	0x3f809003	1.0043949
26	0x3f7ffa54	0.99991345
27	0x3f80af9e	1.0053594
28	0x3f803493	1.0016044
29	0x3f7fbfde	0.9990214
30	0x3f7d3508	0.98909044
31	0x3f7ec5d9	0.9952064

base.4.bias f4 [32]
0	0xbbc2e595	-0.0059477785
1	0xbb5293e3	-0.0032131604
2	0xbb86f1d1	-0.004118182
3	0xbb707553	-0.0036691024
4	0xbbe031aa	-0.006841858
5	0x3c092ca8	0.008372463
6	0x3a20d06d	0.00061345735
7	0x3a4369a3	0.0007454401
8	0x3b821cb6	0.0039707078
9	0xbc43787d	-0.011930582
10	0x3b0e30b6	0.0021696514
11	0xbbf2d4e6	-0.0074106334
12	0x3bcb4f14	0.006204495
13	0xbbabce91	-0.0052431305
14	0xbb454de5	-0.0030106243
15	0xbc01ee1f	-0.007930308
16	0xbc0c9927	-0.008581436
17	0xb7f75d0b	-2.9488021e-05
18	0x3b7c003f	0.0038452295
19	0xba90cf09	-0.0011048029
20	0xbb800e02	-0.00390792
21	0xbb44f410	-0.00300527
22	0xbba2879f	-0.004960015
23	0xbab23c1a	-0.0013598234
24	0xbbe7e3f7	-0.007076736
25	0xbb9e9fc5	-0.0048408234
26	0x3c134f67	0.008991099
27	0xbb988f49	-0.004655753
28	0xb882f004	-6.2435895e-05
29	0xba1b3197	-0.000592017
30	0x36dd73a6	6.5997765e-06
31	0xba512371	-0.00079779985

base.4.running_mean f4 [32]
0	0xbbf6ca3b	-0.007531432
1	0x3e27dcd1	0.16392829
2	0x3ddd89da	0.10817309
3	0xbd3e6851	-0.046486203
4	0x3c21db21	0.009878905
5	0xbbe7e851	-0.007077255
6	0xbb8196e1	-0.0039547537
7	0x3c9ae119	0.018906163
8	0x3db69e08	0.08916861
9	0xbcbe30c1	-0.023216607
10	0x3e172bb2	0.14762762
11	0xbcf727ec	-0.030170403
12	0xbd7d229a	-0.061800577
13	0x3d10959e	0.035298936
14	0xbdd781de	-0.10522817
15	0x3e371c60	0.17881918
16	0x3e3b072c	0.18264455
17	0x3e1699dd	0.14707132
18	0x3ce08cb9	0.027410852
19	0xbe01798f	-0.12644027
20	0xbdef4d1f	-0.116846316
21	0xbc503f19	-0.012710356
22	0x3d301c0d	0.0429955
23	0x3ded105d	0.11575387
24	0x3e03d83c	0.12875456
25	0x3d14e2b1	0.036349002
26	0xbdaa7fa8	-0.0832513
27	0xbdaa3628	-0.08311111
28	0xbd9807b6	-0.07423346
29	0x3deed07d	0.1166086
30	0xbe02657c	-0.12734026
31	0x3e0840e9	0.13306011

base.4.running_var f4 [32]
0	0x3dd382f2	0.1032771
1	0x3d361d40	0.04446149
2	0x3d7e0498	0.0620161
3	0x3d81e5e3	0.063426755
4	0x3d1e1448	0.03859356
5	0x3db61ff3	0.088928126
6	0x3cdb1ef7	0.026748164
7	0x3d96dd66	0.07366447
8	0x3dafde57	0.0858733
9	0x3d5d96c4	0.05409886
10	0x3cdea0b4	0.027176239
11	0x3d5eb0f7	0.054367986
12	0x3d30d302	0.043169983
13	0x3d195143	0.037431013
14	0x3d90a9e5	0.07063655
15	0x3dcc6642	0.09980442
16	0x3da2a191	0.079409726
17	0x3d38be9a	0.045103647
18	0x3d03c0d6	0.032166325
19	0x3d823126	0.063570306
20	0x3dbec26d	0.093144275
21	0x3d63f65f	0.05565488
22	0x3d5787c7	0.05261972
23	0x3d9b00ad	0.07568488
24	0x3d3a988a	0.04555563
25	0x3da0409c	0.07824823
26	0x3d96a42e	0.073555335
27	0x3d3c4b8f	0.045970496
28	0x3d7e0c62	0.062023528
29	0x3da93dca	0.082637385
30	0x3e086cad	0.13322707
31	0x3dbdf0d1	0.09274448

base.6.weight f4 [32, 32, 5, 5]
0	0x3ce39e28	0.027785376
1	0x3cae019e	0.021241006
2	0xbb4645b7	-0.0030253956
3	0xbbe2062d	-0.006897709
4	0xbccc8e65	-0.024970243
5	0xbc1c7bb7	-0.00955098
6	0x3cf6369b	0.030055335
7	0x3d0cacfa	0.03434465
8	0x3cb95e2d	0.022627914
9	0x3cad7cc5	0.021177659
10	0xbc647eb7	-0.013946227
11	0x3c0151cd	0.007893038
12	0xbcaf34cc	-0.02138748
13	0x399d5585	0.0003000909
14	0xbc49fe70	-0.012328729
15	0xbcaa9cc2	-0.020826701
16	0x3d0c7440	0.034290552
17	0x3b25e60d	0.0025314123
18	0x3cbf01a5	0.023316214
19	0xbba71379	-0.005098757
20	0x3ca122ea	0.019669969
21	0x3bb31b72	0.005465918
22	0xbc97db5d	-0.018537218
23	0xbd022918	-0.03177747
24	0xbd1c980f	-0.038230952
25	0xbcb87940	-0.022518754
26	0xba045f07	-0.00050495606
27	0x3c6fec86	0.014643794
28	0x3c9107f0	0.01770398
29	0xbc97317a	-0.01845621
30	0x3c399919	0.011328005
31	0x3bad926c	0.005296996
32	0xbc4a3edf	-0.012344091
33	0xbc07b103	-0.008281949
34	0x3c807baa	0.015683968
35	0x3ca5b1c7	0.020226372
36	0x3ba6b2fb	0.005087254
37	0xbd208215	-0.039186556
38	0xbc56c514	-0.0131085105
39	0xbbb0d47a	-0.005396423
40	0xbc797d67	-0.015227652
41	0x3cedec30	0.029043287
42	0xbd0a3184	-0.033738628
43	0xbccd4b6a	-0.025060374
44	0x3ccdbe5f	0.02511519
45	0x3c6ecf3f	0.0145757785
46	0x3cd7d60d	0.026347185
47	0xbc9312fb	-0.017953387
48	0x3c770aa1	0.015078218
49	0x3c4c1d93	0.012458223
50	0xbc2868b8	-0.010278873
51	0x3ceaa056	0.028640907
52	0x3c5dcdcd	0.013537836
53	0xbaef999e	-0.0018280034
54	0x3ce6cd86	0.028174173
55	0xbc9ae1c8	-0.018906489
56	0xbd13a76c	-0.036048338
57	0x3cad07c4	0.021121867
58	0xbcb7a78f	-0.022418765
59	0x3c38b532	0.011273669
60	0xbca803de	-0.020509657
61	0xbc34cbac	-0.011034887
62	0xbb925596	-0.004465769
63	0xbc5a1fd0	-0.013313249
64	0x3cc629ad	0.024189794
65	0x3c3dab77	0.011576525
66	0x3b040d39	0.0020149483
67	0x3c14a676	0.0090728905
68	0xbc7a0f05	-0.01526237
69	0xbb9168d8	-0.004437547
70	0xbac9ed3e	-0.0015405787
71	0xbc561551	-0.013066606
72	0xbc11b9f6	-0.008894434
73	0xbca522d6	-0.020158213
74	0x3c5db550	0.013531998
75	0xbc9bc441	-0.01901448
76	0xbcfe630d	-0.03105309
77	0xbc3a1367	-0.011357165
78	0x3bf0bc0a	0.0073466348
79	0xbd0ee291	-0.03488404
80	0xbccedf1a	-0.025252867
81	0x3c8ff8c7	0.017574681
82	0xbc9f3bb1	-0.019437643
83	0x3d0c97b6	0.03432437
84	0x3b4f94e4	0.003167444
85	0x3c8fcf4e	0.017554905
86	0xbcab9010	-0.020942718
87	0x3c0ef978	0.00872647
88	0xbc1d31af	-0.009594365
89	0x3c6dab03	0.014506104
90	0xba9f8236	-0.0012169543
91	0x3c377b65	0.011198853
92	0xbd1eb95f	-0.038751002
93	0x39da653c	0.00041655626
94	0x3bfee62f	0.007778905
95	0x3c594de0	0.013263196
96	0xbb0229ab	-0.0019861262
97	0xbc24d9da	-0.0100617055
98	0xbc7798af	-0.015112086
99	0x3b4fb5a9	0.0031693971
100	0xbc20c960	-0.009813637
101	0x3cf139ad	0.029446447
102	0xbd3b89b2	-0.045785613
103	0x3d00b200	0.031419754
104	0xbcd0b701	-0.025477888
105	0xbb8fcc22	-0.004388348
106	0x3b8f28ed	0.0043688924
107	0x3c3f1a7e	0.011664031
108	0x3cf771b5	0.030205587
109	0xbba6787d	-0.0050802813
110	0xbca2f783	-0.019893413
111	0xbcacaa93	-0.02107743
112	0x3a8508d2	0.0010149723
113	0xbc86c42d	-0.016450966
114	0xbc97fc74	-0.018552996
115	0xbc8f5f0c	-0.017501377
116	0x3b84ac17	0.004048835
117	0x3ba22bce	0.0049490696
118	0x3c8ce9c9	0.017201321
119	0xb930449d	-0.00016810228
120	0x3b3bd2c8	0.002865957
121	0x3c41345b	0.011792268
122	0x3ba0fbe9	0.0049128425
123	0xb9bd1f7d	-0.0003607235
124	0x3c1a320f	0.009411349
125	0xbc54cbff	-0.01298809
126	0x3bfd8022	0.007736222
127	0x3d18e3b6	0.037326537
128	0xbc97058e	-0.018435266
129	0x3c28b52b	0.0102971
130	0xbc115f9a	-0.008872891
131	0x3c8c3cbb	0.017118802
132	0x3d582268	0.052767187
133	0xbbb23cb1	-0.005439364
134	0xbce199b3	-0.02753911
135	0x3b46b3ed	0.0030319646
136	0x3c39bfed	0.011337263
137	0x3d287db9	0.041135523
138	0x3d0e09ec	0.03467743
139	0xbb854c5a	-0.0040679397
140	0x3c217f66	0.009857034
141	0x3b962b31	0.0045827855
142	0xba75c294	-0.00093750027
143	0x3c9e58d9	0.019329475
144	0x3cdbcfea	0.02683254
145	0x3a0c1b5e	0.0005344654
146	0x3cc628ca	0.024189372
147	0xbd05c9c0	-0.032663107
148	0xba93bd3c	-0.0011271606
149	0x3b5e9bfb	0.0033967483
150	0x3cd11e13	0.025527036
151	0xbbb2030c	-0.005432492
152	0x3cb01248	0.021493092
153	0x3c42b144	0.011883084
154	0xbcb5e9da	-0.022206236
155	0x3c697e72	0.014251338
156	0x3aba5b1b	0.0014217825
157	0xbd2f9236	-0.042864047
158	0xbca556c7	-0.02018298
159	0xbd1bc605	-0.038030643
160	0x3c3bd93d	0.011465368
161	0x3a24f8fa	0.0006293204
162	0x3b6b1346	0.0035869642
163	0xbbb2df5e	-0.0054587563
164	0xbbdadb77	-0.0066789943
165	0xbc34e3e9	-0.011040666
166	0x3c7122c5	0.014717762
167	0x3c004c55	0.007830699
168	0x3c210031	0.009826706
169	0x3ce764a3	0.02824623
170	0x3cc58e6d	0.024115765
171	0x3cc1a4f4	0.023638226
172	0xbd18fa2c	-0.037347957
173	0xba404d7d	-0.00073357654
174	0x3c7f790e	0.0155928265
175	0xbcec8214	-0.02887062
176	0x3c3426b7	0.010995558
177	0x3c22eb37	0.009943775
178	0xbcae2208	-0.021256462
179	0x3d2f984d	0.042869855
180	0xbca7e157	-0.020493193
181	0xbc8d5075	-0.017250279
182	0x3c35cc02	0.0110960025
183	0xbc641a85	-0.013922338
184	0xbc53a27c	-0.012917157
185	0xbbc975ca	-0.0061480748
186	0x3c819fbe	0.015823241
187	0x3ca9fcae	0.02075037
188	0xbc6c0c52	-0.014407234
189	0x3d0b2fe6	0.033981226
190	0xbd101064	-0.03517188
191	0xbcaa62ca	-0.02079906
192	0x3c9862d7	0.018601818
193	0x3d13e481	0.03610659
194	0xbcdea56a	-0.027178485
195	0x3c647c37	0.013945631
196	0x3bf78ae3	0.0075543984
197	0xbc21a1a9	-0.009865203
198	0x3c9ee104	0.019394405
199	0x3c8c986e	0.017162528
200	0xbca1bfbf	-0.019744752
201	0xbcac33b2	-0.021020744
202	0x3b962bca	0.004582857
203	0xbb94fded	-0.004546872
204	0xbca53e4f	-0.020171313
205	0xbc95d80b	-0.018291494
206	0xbb9cac09	-0.0047812504
207	0x3ced300c	0.028953575
208	0x3c96edc6	0.018423926
209	0x3d1e5ba6	0.03866162
210	0x3c66d4c1	0.01408881
211	0x3d060537	0.032719817
212	0xbc5f7488	-0.013638623
213	0xbc220874	-0.009889711
214	0xbb5b0b69	-0.003342355
215	0xbc467a77	-0.012114159
216	0xbc55b8eb	-0.013044576
217	0xbc9b5d2c	-0.018965326
218	0xbb9ff2bb	-0.0048812306
219	0x3d1f5e88	0.03890851
220	0xbc447982	-0.01199186
221	0xbc4ae888	-0.012384541
222	0x3c9898fa	0.018627632
223	0x3cc4e30d	0.024034047
224	0x3d14944e	0.036274247
225	0xbc0eee2d	-0.008723778
226	0x3d048605	0.032354373
227	0xbcdaceea	-0.026709992
228	0xbccc6122	-0.02494866
229	0xbb68edd7	-0.0035542154
230	0xbca82799	-0.020526694
231	0x3bb9cc5b	0.005670113
232	0xbc8d061d	-0.01721483
233	0x3d14de25	0.036344666
234	0x3caac046	0.020843636
235	0xbc292aca	-0.010325143
236	0x3d11d965	0.035607714
237	0x3c97657f	0.018481014
238	0x3c99253c	0.018694513
239	0x3cf16e16	0.029471438
240	0x3c988d00	0.018621922
241	0xbc9d8461	-0.019228162
242	0xbc15baa1	-0.009138734
243	0x3cdce53a	0.026964772
244	0x3d12d413	0.03584678
245	0x3cb68bc6	0.022283446
246	0x3b17655f	0.0023101193
247	0xbcc2fce1	-0.023802223
248	0x3cf304ac	0.029665314
249	0x3c343c07	0.01100064
250	0x3ca23440	0.019800305
251	0x3aa44a4d	0.001253435
252	0xbc91c0e1	-0.017792167
253	0xbbaf9a81	-0.0053589945
254	0xbd0bda54	-0.03414376
255	0x3add75c6	0.0016896061

base.6.bias f4 [32]
0	0x378b349e	1.6594593e-05
1	0xb740e473	-1.1497282e-05
2	0x381f8a88	3.803757e-05
3	0x366ce100	3.5297708e-06
4	0x346656d2	2.1452004e-07
5	0x385f3909	5.322046e-05
6	0xb74f9b3e	-1.2374307e-05
7	0xb7cdfd92	-2.4555982e-05
8	0x37b06797	2.1029073e-05
9	0xb6cab65d	-6.041299e-06
10	0x3811ed3e	3.4791643e-05
11	0x370f011f	8.523725e-06
12	0x35ef7cb4	1.7843181e-06
13	0x36886403	4.0647587e-06
14	0x36680067	3.4570928e-06
15	0xb78741d2	-1.6123904e-05
16	0xb602cb57	-1.948987e-06
17	0xb4e9fba8	-4.3582736e-07
18	0xb684e356	-3.960372e-06
19	0xb70a23ab	-8.233746e-06
20	0x361e7964	2.3614493e-06
21	0xb74b207a	-1.2107304e-05
22	0xb7bcad7e	-2.2492135e-05
23	0xb6ebd9ca	-7.0288997e-06
24	0x384a0d09	4.8172693e-05
25	0x37f2f691	2.8963465e-05
26	0xb7e32d4f	-2.7081607e-05
27	0x35aa3f93	1.268449e-06
28	0x36da934e	6.514055e-06
29	0xb8606442	-5.3499134e-05
30	0x35f5f051	1.8323864e-06
31	0xb7902067	-1.7181226e-05

base.7.weight f4 [32]
0	0x3f860bca	1.0472348
1	0x3f83f56e	1.0309274
2	0x3f863167	1.0483826
3	0x3f86d84b	1.0534757
4	0x3f86584a	1.0495694
5	0x3f83d0fe	1.0298154
6	0x3f843e93	1.0331596
7	0x3f855086	1.0415199
8	0x3f867d3a	1.0506966
9	0x3f84e6d5	1.0382944
10	0x3f85de39	1.0458442
11	0x3f83b31f	1.0289038
12	0x3f86413e	1.048866
13	0x3f883381	1.0640718
14	0x3f86002f	1.0468806
15	0x3f87c4f7	1.0606984
16	0x3f836778	1.0265951
17	0x3f838941	1.0276262
18	0x3f876644	1.0578084
19	0x3f85829d	1.0430485
20	0x3f84f499	1.0387145
21	0x3f8632b0	1.0484219
22	0x3f86bc43	1.0526203
23	0x3f8587fe	1.0432127
24	0x3f884d22	1.0648539
25	0x3f84acee	1.0365274
26	0x3f894807	1.0725106
27	0x3f8677d0	1.0505314
28	0x3f84d3dd	1.0377156
29	0x3f8550ff	1.0415343
30	0x3f879036	1.0590885
31	0x3f856567	1.042157

base.7.bias f4 [32]
0	0x3cab6f9f	0.020927249
1	0x3cccab80	0.024984121
2	0x3c8397e5	0.01606364
3	0x3ce2f7a1	0.02770597
4	0x3c80680d	0.015674615
5	0x3c72e902	0.014826061
6	0x3c6b85ed	0.014375192
7	0x3cb9c1c4	0.022675402
8	0x3cb4bdfc	0.022063248
9	0x3ca79953	0.020458853
10	0x3ceb639b	0.028734019
11	0x3ca931d9	0.020653652
12	0x3cc604b7	0.02417217
13	0x3ccb85fe	0.024844166
14	0x3c7e5111	0.015522257
15	0x3d2d30b7	0.042282786
16	0x3c5d0db0	0.013492033
17	0x3cba8dfb	0.02277278
18	0x3d3a25cd	0.045446206
19	0x3c93c4e7	0.018038226
20	0x3c867726	0.016414236
21	0x3cf7990e	0.03022435
22	0x3cc2fecf	0.023803143
23	0x3c5cd59f	0.013478666
24	0x3cf541be	0.029938575
25	0x3c981053	0.018562471
26	0x3cba4860	0.02273959
27	0x3c46f275	0.012142767
28	0x3baa60da	0.005199534
29	0x3c288bf6	0.010287276
30	0x3d178b32	0.03699798
31	0x3cbf76dc	0.023372106

base.7.running_mean f4 [32]
0	0xbc816131	-0.015793415
1	0x3e871aa2	0.26387507
2	0x3ce10950	0.02747026
3	0x3e4b9508	0.1988107
4	0x3ee0c12c	0.43897378
5	0xbd270622	-0.040777333
6	0x3e22d442	0.15901282
7	0xbdd9236c	-0.10602459
8	0x3e032ec1	0.12810804
9	0xbd511e50	-0.0510543
10	0x3e47a8b6	0.19497952
11	0xbe791d78	-0.24327648
12	0x3e421f47	0.18957244
13	0x3e878d26	0.26474875
14	0x3e7fbd2c	0.24974507
15	0x3ed9cd84	0.42539608
16	0xbe8d0c7f	-0.27548596
17	0xbb4e05f7	-0.003143666
18	0x3e7f05a4	0.24904495
19	0xbe38a74c	-0.18032569
20	0x3c430a3c	0.0119042955
21	0x3eb42d05	0.35190597
22	0x3da7ead3	0.08199086
23	0x3c289bb4	0.010291029
24	0x3e98812e	0.29786056
25	0x3e2d670c	0.1693384
26	0x3e157cc4	0.14598376
27	0x3dcafd58	0.09911603
28	0xbde56b81	-0.11202145
29	0x3e37becf	0.17943881
30	0x3e352236	0.17688832
31	0xbe45a68e	-0.19301817

base.7.running_var f4 [32]
0	0x3ddd3484	0.10801032
1	0x3dd12dc1	0.10213805
2	0x3e19fb1d	0.15037198
3	0x3e0c0ee4	0.13677555
4	0x3ea28323	0.31740674
5	0x3df957db	0.1217496
6	0x3e21b527	0.1579176
7	0x3d640530	0.05566901
8	0x3dbb8fc6	0.09158282
9	0x3ea606c8	0.3242705
10	0x3e1a134d	0.15046425
11	0x3e7d2b77	0.24723612
12	0x3e4a6f25	0.19768961
13	0x3e5fac65	0.21843107
14	0x3e490b3e	0.19633195
15	0x3e9143b4	0.28371966
16	0x3e144e25	0.14482935
17	0x3dcc7c7f	0.09984683
18	0x3de3549a	0.11100121
19	0x3e2bd431	0.16780163
20	0x3e2b6fce	0.16741869
21	0x3e4465e5	0.19179495
22	0x3d38cd80	0.045117855
23	0x3e1a16f6	0.15047821
24	0x3e45849a	0.19288865
25	0x3d4d582b	0.05013291
26	0x3de21b22	0.110403314
27	0x3dd6b308	0.10483366
28	0x3e0e04fc	0.13869089
29	0x3e32a823	0.17446952
30	0x3e37af89	0.17938055
31	0x3de62a9d	0.112385966

head.0.weight f4 [24, 1024]
0	0x3c9a8261	0.018860998
1	0x3c8bff81	0.017089607
2	0x3c781384	0.015141372
3	0x3c56e464	0.013115976
4	0x3b2fdb60	0.0026833639
5	0xba823e32	-0.0009936749
6	0x3bb142af	0.0054095606
7	0xbc9079e8	-0.017636254
8	0x3b1b6fd7	0.0023717785
9	0xbccd9bbe	-0.025098678
10	0x3a846e36	0.0010103646
11	0x3b53e110	0.0032330193
12	0x3c89dd5f	0.01682919
13	0x3c8cbeaf	0.017180769
14	0x3caaa969	0.020832734
15	0x3ca1bc5c	0.019743137
16	0x3d1e7d50	0.038693726
17	0x3cdd2f87	0.027000202
18	0xbc0ab5a5	-0.008466159
19	0x3ba87cf7	0.00514185
20	0x3ba216d7	0.0049465704
21	0x3d056bc6	0.032573484
22	0x3af7ade1	0.0018896424
23	0x3cc91445	0.024545798
24	0xbcfb5006	-0.030677807
25	0xbc18385a	-0.009290779
26	0xbd043f67	-0.032287028
27	0x3b982201	0.0046427255
28	0x3bcca399	0.0062450883
29	0x3d09060d	0.033453036
30	0x3cc85495	0.024454394
31	0xbb367c3e	-0.002784505
32	0x394f5f3c	0.00019776536
33	0xba43c708	-0.00074683176
34	0xba9b6bb1	-0.0011857656
35	0xbbb31e68	-0.005466271
36	0xbc5e1fbf	-0.013557374
37	0x3b951384	0.0045494456
38	0x3bb30ba5	0.0054640346
39	0x3cffc3da	0.031221319
40	0x3d13660d	0.035985995
41	0xbbc06afe	-0.0058721295
42	0x3d067fdb	0.032836776
43	0x3bdb300a	0.0066890763
44	0x3bd29c7d	0.0064273463
45	0x3b44f0eb	0.0030050825
46	0x3ab7f47b	0.0014034653
47	0x3a2fe1da	0.0006709375
48	0x3ceefac7	0.029172314
49	0x3c839a65	0.016064832
50	0xbc70bcb0	-0.014693424
51	0x3ccf57e4	0.025310464
52	0x3cb6b64c	0.022303723
53	0xbc9736d9	-0.01845877
54	0xbbdb2dce	-0.00668881
55	0xba9ac333	-0.0011807441
56	0x3c8c73e5	0.017145107
57	0xbd19c0ba	-0.037537314
58	0xbccb9fc9	-0.024856465
59	0x3ce2772e	0.02764472
60	0x3d035ef5	0.03207298
61	0x3cbf5c5e	0.023359474
62	0xbc6f329b	-0.014599468
63	0xbca68083	-0.020324951
64	0xba0cb825	-0.0005368016
65	0xbd304e17	-0.043043222
66	0xbc256f05	-0.01009727
67	0xbd152adb	-0.036417823
68	0xbcef1a28	-0.029187277
69	0xbd2419a4	-0.040063515
70	0x3c4cbc56	0.012496075
71	0x3cb6b5fd	0.022303576
72	0x3bd7b408	0.0065827407
73	0xbcc70577	-0.024294598
74	0xbca1a752	-0.019733105
75	0xbc821e74	-0.015883662
76	0xbd2884a4	-0.04114212
77	0xbcefa915	-0.02925543
78	0xbc013c4c	-0.007887911
79	0xbd316052	-0.04330475
80	0x8f9d5619	-1.5514559e-29
81	0xb31cf036	-3.654005e-08
82	0xb72af784	-1.0190419e-05
83	0xb99b1ded	-0.000295862
84	0xbb88132f	-0.0041526775
85	0xbbd8fa0d	-0.0066216053
86	0x3cd8ba1d	0.026455933
87	0x3b95e62c	0.0045745578
88	0x3b403bae	0.0029332447
89	0xbc72375b	-0.014783706
90	0xbcae020f	-0.021241216
91	0xb936306b	-0.0001737491
92	0x3b023420	0.0019867495
93	0xb9aab159	-0.0003255706
94	0xb89a6a04	-7.363039e-05
95	0xab2d2cca	-6.1524104e-13
96	0x3a5ac275	0.00083450164
97	0x3a40a9ec	0.0007349539
98	0x3ac19e57	0.001477192
99	0xbaa06f80	-0.0012240261
100	0xbb9e7bdf	-0.004836544
101	0xbabc80e5	-0.0014381675
102	0x3ba039fd	0.0048897252
103	0x3d266fa7	0.040633824
104	0x3d42aa58	0.047525734
105	0x3cbf3636	0.02334128
106	0xba71b266	-0.0009220004
107	0xbc22a3dd	-0.009926763
108	0xbbd060b5	-0.0063591846
109	0x370e9976	8.49959e-06
110	0x3aabdcd6	0.0013112079
111	0x3a90faaa	0.0011061032
112	0xbb71e771	-0.0036911631
113	0xbba3f68c	-0.005003756
114	0xbb5864e9	-0.0033019132
115	0xbb0ad9a6	-0.0021186857
116	0xbc835401	-0.016031267
117	0x3b482756	0.0030541024
118	0xbce31713	-0.027720964
119	0xbc823535	-0.015894512
120	0x3b8bf32c	0.0042709317
121	0xbce0739d	-0.027398879
122	0xbc3d6b25	-0.01156119
123	0xbba928d6	-0.0051623387
124	0x3b30e174	0.002698985
125	0xba973326	-0.0011535629
126	0xbae986da	-0.0017816678
127	0xba6d477e	-0.00090514857
128	0x81dbbc68	-8.0718244e-38
129	0xb4ad930e	-3.2330757e-07
130	0xb691559e	-4.331304e-06
131	0xba0d37d4	-0.0005387042
132	0xbc882392	-0.016618524
133	0x3c89e2fd	0.01683187
134	0x3c2d388c	0.010572564
135	0x3b61c3bd	0.0034448944
136	0x3bd8b68b	0.0066135577
137	0x3d0e98a5	0.034813542
138	0xbc23fe16	-0.010009309
139	0x3cb27ff7	0.021789534
140	0x3ab9d47a	0.0014177703
141	0x396b1c88	0.00022421975
142	0xb7da1420	-2.5996997e-05
143	0x00009fab	5.7278e-41
144	0xbd11232b	-0.03543393
145	0x3ab4d899	0.0013797461
146	0xbd1522e3	-0.036410224
147	0xbd27863a	-0.040899493
148	0xbc599ab1	-0.01328151
149	0xbc965316	-0.018350165
150	0xbcb9582b	-0.02262505
151	0x3ceb2477	0.028703911
152	0x3afad3f0	0.0019136649
153	0x3c1b3524	0.009473119
154	0x3b4363cb	0.002981412
155	0xbc1a1672	-0.009404765
156	0xbc33bafb	-0.010969873
157	0xbc014d64	-0.0078919865
158	0xbd4ebcd2	-0.05047304
159	0xbd1ef1f1	-0.038804952
160	0x3cf58fa1	0.029975714
161	0x3c248ba5	0.0100430595
162	0x3d638cc6	0.055554174
163	0x3d5fce4c	0.0546401
164	0x3d246749	0.040137563
165	0x3d1f65c1	0.0389154
166	0x3ca9eff3	0.0207443
167	0x3c43c23e	0.011948166
168	0x3bada61b	0.0052993423
169	0x3c6213de	0.013798682
170	0x3cff4ef8	0.031165585
171	0xbafb2d2b	-0.0019163241
172	0x3d3662f5	0.044527967
173	0x3d02cb0f	0.031931933
174	0x3a3c33f9	0.00071793754
175	0x3d660756	0.05615934
176	0x3a2e6b0f	0.0006653526
177	0x3a33689b	0.00068438955
178	0xbab22a2b	-0.0013592889
179	0xbb5cc4f5	-0.0033686731
180	0xbb43be39	-0.002986802
181	0x3ccfc3f4	0.025361992
182	0x3bf6a2a3	0.007526712
183	0xbc280650	-0.010255411
184	0xbc44e884	-0.012018327
185	0xbcc72ce0	-0.02431339
186	0xbccf2267	-0.025284959
187	0x3c07934e	0.008274866
188	0xba8b904d	-0.0010647863
189	0x39497054	0.00019210699
190	0x3a53e933	0.00080837606
191	0x3a98f89b	0.001167077
192	0xba16e600	-0.00057563186
193	0xba264da5	-0.00063439674
194	0xb9b7341d	-0.00034943307
195	0xbb335105	-0.0027361524
196	0xbb594aa3	-0.003315606
197	0x39b5eabb	0.00034697898
198	0x3c8d631b	0.017259171
199	0x3cd9145f	0.026498972
200	0xbd4774b1	-0.04869527
201	0x3ce025d6	0.027361792
202	0x3c858831	0.016300293
203	0x3ab95ef6	0.001414268
204	0xbb7f3cdf	-0.0038946194
205	0x388f5a38	6.835576e-05
206	0x39299250	0.00016171602
207	0xb8b51f91	-8.636632e-05
208	0xbbed4130	-0.007240437
209	0x3c297978	0.010343902
210	0xbc7273b0	-0.01479809
211	0x3b0b4fc3	0.0021257258
212	0x3ca36a58	0.01994817
213	0x3d20527a	0.039141156
214	0x3b6962cd	0.0035611868
215	0x3bd6f1c4	0.0065595824
216	0xbb8950b3	-0.0041905283
217	0x3b8bbae0	0.0042642206
218	0x3c9f641d	0.019456917
219	0x3c5e4589	0.013566383
220	0xbce6c81d	-0.028171593
221	0xbcdc59d2	-0.026898298
222	0xbcd27b2c	-0.025693499
223	0x3b820921	0.0039683734
224	0xb89c7930	-7.4612326e-05
225	0xbd0dbf1d	-0.034606088
226	0xbcc3b3e4	-0.02388949
227	0x3c8b2b75	0.016988495
228	0xbbdc34bf	-0.006720155
229	0x3d12eb9a	0.03586922
230	0x3ce93530	0.028467745
231	0x3d1de9f3	0.03855319
232	0x3cf25313	0.029580628
233	0xbb6ceebb	-0.0036153037
234	0xbbae9bd9	-0.005328637
235	0xbbe3f900	-0.0069571733
236	0xbc002d25	-0.007823263
237	0x3c6f174a	0.014592955
238	0xbc9c5e04	-0.019087799
239	0xbd1bc8ed	-0.038033415
240	0x3b18d052	0.0023317528
241	0x3b14046d	0.0022585646
242	0xbb8d0d44	-0.00430456
243	0xbbb8a2f6	-0.005634661
244	0x3bbcd6c4	0.0057629067
245	0x3aa3413a	0.0012455352
246	0x3c2da705	0.010598903
247	0xbcc1f8eb	-0.023678264
248	0xbcd9023e	-0.026490327
249	0x3b9de763	0.004818843
250	0xbc8a1f3c	-0.016860597
251	0xbceb33a8	-0.028711155
252	0x3c02d328	0.007984914
253	0xba48b702	-0.0007656665
254	0x39ac07c7	0.0003281219
255	0x3b3627f2	0.0027794805

head.0.bias f4 [24]
0	0x3cd1e7a6	0.025623154
1	0x3c5209df	0.012819736
2	0x3bb22317	0.005436312
3	0xbc8fee5f	-0.017569719
4	0xbca0d0a9	-0.019630747
5	0xbc3adf8b	-0.011405836
6	0xbbc54ea0	-0.0060213357
7	0xbba7471d	-0.005104913
8	0x3d04ccda	0.032421924
9	0x3b9733bf	0.004614323
10	0x3cbc933f	0.023019431
11	0x3ccb66c8	0.024829283
12	0x3b000613	0.001953487
13	0x3cca2bbf	0.024679063
14	0xbc248276	-0.01004087
15	0x39b4b0cd	0.00034464002
16	0xbb653716	-0.003497546
17	0x3d020749	0.03174523
18	0x3caf04ee	0.021364655
19	0x3c7623aa	0.015023151
20	0x39bbed81	0.00035844374
21	0xbc8ff252	-0.017571602
22	0x3c1a4fd8	0.00941845
23	0xbc1f4d7c	-0.009723064

head.2.weight f4 [2, 24]
0	0xbe20dfc0	-0.15710354
1	0x3e87bb64	0.26510155
2	0xbc78c3f3	-0.015183437
3	0x3dd64892	0.104630604
4	0xbd5e4c22	-0.054271825
5	0xbde8984f	-0.113571756
6	0x3c25fbbb	0.010130818
7	0x3c9d42dc	0.01919692
8	0xbe5453fc	-0.20735162
9	0x3e537e61	0.20653678
10	0xbe027bb9	-0.12742509
11	0xbe7f8950	-0.24954724
12	0xbd2e788a	-0.042595424
13	0x3e59b90b	0.21261995
14	0xbdf239fb	-0.11827465
15	0x3e565cd2	0.20933846
16	0x3ddc3a3c	0.10753295
17	0x3e4bb207	0.19892131
18	0x3e2758cf	0.16342472
19	0x3e711136	0.23541722
20	0x3d896f7b	0.06710716
21	0x3e1efddd	0.15526529
22	0xbda76e53	-0.081753395
23	0x3e25dbcb	0.16197126
24	0x3e13ac55	0.14421208
25	0xbe0faf14	-0.14031631
26	0x3df175e5	0.11790065
27	0xbdf1b4ed	-0.11802087
28	0x3e2fb4c0	0.17158794
29	0xbe8300de	-0.255866
30	0xbe3d3bf5	-0.18479903
31	0xbe1022b4	-0.14075738
32	0x3e4d4b21	0.2004819
33	0xbe6af4d9	-0.22944964
34	0x3e23f255	0.16010411
35	0x3e5a721d	0.21332593
36	0x3d2e788a	0.042595424
37	0x3c0203cd	0.0079354765
38	0x3e16efe6	0.14739951
39	0x3da4469f	0.080212824
40	0xbd8acb9a	-0.06777115
41	0x3a5424ed	0.00080926606
42	0xbe6c8613	-0.2309802
43	0x3ca695cd	0.020335102
44	0x3e2d915f	0.16949986
45	0xbd31b073	-0.043381166
46	0x3e5f0110	0.21777749
47	0xbd576b76	-0.052592717

head.2.bias f4 [2]
0	0x3e0d0768	0.13772357
1	0xbd0b009b	-0.033936124
