models/AC-RM-2 Q_LR=0.001 P_LR=5e-06 BATCH_SIZE=128 GAMMA=0.99 MEMORY_SIZE=150000 BETA=0.05_policy_3367.pt (torch, 319747 bytes, 22 tensors)

base.0.weight f4 [32, 2, 5, 5]
00000000: c77f ad3d 3aee 07bc 6f7d f53d 412a b63d
00000010: 9060 c6bd 824e 4cbc 73d8 aa3d 55fb 10be
00000020: d1e7 01be 419b 6fbd 7cf1 d93d aa8d 863d
00000030: 90c3 07be 579c 75bd 21fe 59bd 5cca 9e3c
00000040: 9b71 c93b 277d cd3d e00f c5bd bc02 87bd
00000050: 5fc3 a03b 464b 93bc 80e1 51bd 143c c9bd
00000060: 0b92 a0bb 495a b7bc 62b7 f73d 0028 013e
00000070: 8373 833d 9e43 bd3d 72c1 01bd 3303 9b3d
00000080: 618a debd aa54 8cbd bbde fdbd b2b4 983d
00000090: a7d1 96bd 5a8a b03b 2b45 f5bd 9694 793d
000000a0: a691 253d 6e9f 803d 5db2 f43d 8cec 673d
000000b0: b9c5 983a f4b8 6a3d 6922 a5bc 01b4 a83c
000000c0: 4823 acbc ea3d f6bd e4f7 76bd 057a 51bd
000000d0: f646 efbd e6de f93d 0a42 76bd 46ef 99bd
000000e0: 8662 a03c 6026 153c 566b 6ebc 22a8 b43d
000000f0: a5b1 b43c 1df9 a63d 86b7 03be 47db 3cbd
00000100: 39d0 fabd 6576 883c 29ae adbd 750e a83c
00000110: 4c87 803d 16bd e83d 633c c4bb 6ac6 a6bd
00000120: ded6 17be 6dbf 8f3d f9c6 00be e762 01bd
00000130: 0c2c ccbc 9ca8 66bc cc03 b8bd 53e1 15be
00000140: 6ed5 953d f665 0f3e 6ea2 8f3d 3d8a cd3d
00000150: 1d0a b33d a765 863d fac1 a4bc 7f04 313a
00000160: d471 813c ecb7 883d d7e5 393c 9f33 453b
00000170: ac23 f3bc aa9c 54bd 9a63 4bbd 3a43 fabd
00000180: ab2e ce3d 573a f23d b476 5c3d 2106 b63d
00000190: 8369 47bd f5d9 043d 7767 87bd 161c b6bb
000001a0: a69f 483d 93e3 103d 2008 6f3d 17b8 d6bc
000001b0: 2898 85bc be20 fbbc 307b a03d 0413 8539
000001c0: 963b 213d b3c5 01be 0df2 eb3d 3d1e 073e
000001d0: 863a 913d 10eb cf3d 80fb d13d f34e e53d
000001e0: b671 9ebd b0f3 583d 94a7 003d dbd4 863d
000001f0: c3ae f43d 0d67 f1bc 3839 873d a412 b83d
00000200: 076e 12bd 7643 4abc 4b43 3bbd 4751 22bd
00000210: de11 9fbd 9ffb cebd dfbe f9bd 561e 723b
00000220: 5692 973d 5393 603d 4a26 21bd 2355 5d3c
00000230: 31df 17bd de55 cbbc b7d1 30bd f938 30bd
00000240: 7dcc 4e3d 26f4 843d b8d9 4fbd 5fdd df3d
00000250: 3067 843d fb1f e33d 357c e13c 0024 d23d
00000260: f758 ff3c 804e c13d 1fcd 81bd 1053 003e
00000270: 69a4 bc3c be4e 023e b205 06bd c8bc c2bd
00000280: 3606 e1bd 6060 04bd 5339 22bd 54c4 a83d
00000290: 0a54 e03d 0f39 fb3c d6f3 aabd 63a5 c93d
000002a0: ec30 f2bd 3167 f1bd 3bcd b2bd 6d72 c93d
000002b0: c917 5abd de02 9c3d 05d4 ad3d 377b 00bd
000002c0: 0ea4 033e 1bcb 0bbd 5d9a 4abc cd8b 103d
000002d0: 8ede 9ebd 9082 ef3d c069 b9bc b077 453d
000002e0: bfa6 de3c 7d7c b8bd 932e 883d 213e f3bc
000002f0: 983b 01be 0518 95bd 7262 d83d 2fde 08bd
00000300: 1747 3abd 446f d4bd 2534 c8bd ddf2 07be
00000310: 201c 023e 1319 abbd 6f09 15bd 4b00 b1bd
00000320: 5d1c 05bd a986 073e 352b e3bd d103 bb3d
00000330: f0ba ee3d a253 c63c 00ed 08bd 583d 09be
00000340: e4d3 193d eee4 813d 3afc 8abd e135 63bc
00000350: 094b a13d bd33 8fbc c141 97bd 4aea b2bd
00000360: dc10 3c3d a3f7 5f3d 28b6 0bbe b430 ddbc
00000370: a1b9 9f3d 5d86 7ebd 5194 383d c884 ba3d
00000380: 260e d9bd 0a4d debd 51d9 0cbe 4897 183d
00000390: cb2d 00bd f750 12bd 4cde fa3d afb9 e2bd
000003a0: 7108 0a3e e1cd f6bd bf4c 11be bc6f 8dbd
000003b0: 1e65 9e3d cb71 b53d f697 59bd 3977 f13d
000003c0: e43d 11be 1454 ecbb 3eeb 563d 6623 9d3d
000003d0: 06ed b6bd 7ec2 b7bb 1ffd a3bd 2d54 e33d
000003e0: 1854 8cbd 86ea b3bd b043 05be 9068 0b3e
000003f0: 3484 ba3c ba6b 9bbd dc3f 683d 58cd 39bc
0.08471637 -0.008296544 0.11986815 0.08894778 -0.096863866 -0.01246989 0.08342066 -0.14158376
-0.12686087 -0.05849767 0.106417626 0.06569989 -0.13258195 -0.05996355 -0.05322087 0.019383602
0.006147576 0.100336365 -0.096221685 -0.065923184 0.0049061025 -0.01798023 -0.051240444 -0.09825912
-0.004900222 -0.022381919 0.12095524 0.12612915 0.064185165 0.092414126 -0.031678624 0.075689696
-0.108662374 -0.06852086 -0.12395998 0.0745634 -0.07364207 0.0053875865 -0.11976083 0.06093272
0.040422104 0.06280409 0.119480826 0.056622073 0.0011655606 0.05730529 -0.02015801 0.020593645
-0.021012917 -0.12023528 -0.060295 -0.051141758 -0.116834566 0.12200718 -0.060121574 -0.07516341
0.01957823 0.009103388 -0.014551958 0.08821131 0.022057364 0.08152983 -0.12862977 -0.046107557
-0.122467466 0.016658017 -0.08480484 0.020514706 0.06275806 0.1136419 -0.005988644 -0.08143313
-0.14828059 0.070189334 -0.12575902 -0.03158846 -0.024923347 -0.014078286 -0.08985099 -0.14636736
0.07316099 0.14003739 0.07013403 0.100361325 0.08742163 0.065623574 -0.020112026 0.0006752684
0.015801348 0.06675705 0.011346302 0.0030090583 -0.029680096 -0.05190722 -0.049655534 -0.12219854
0.10067495 0.11827534 0.05382414 0.08887888 -0.04868461 0.032434423 -0.06611531 -0.0055575473
0.048980378 0.03537328 0.058357358 -0.026210828 -0.016307905 -0.030655261 0.07835996 0.00025381905
0.039363466 -0.12673073 0.11520777 0.13195129 0.070912406 0.101522565 0.10253048 0.11196699
-0.077365324 0.052966774 0.031409815 0.06583568 0.11947396 -0.029468084 0.066027105 0.089879304
-0.03574946 -0.0123451855 -0.045718472 -0.039628293 -0.0776708 -0.10106587 -0.12194609 0.003694435
0.07400958 0.054828 -0.039343156 0.013509068 -0.037078086 -0.024821218 -0.04316875 -0.043023083
0.050487984 0.0649188 -0.050744742 0.10930895 0.06464994 0.11090084 0.027525047 0.10260773
0.031170351 0.09438801 -0.06337952 0.12531686 0.023027616 0.1272535 -0.032720275 -0.095086634
-0.10987513 -0.032318473 -0.03960545 0.082405716 0.10953529 0.030666856 -0.08347289 0.09845998
-0.11825737 -0.1178726 -0.08730551 0.09836278 -0.05324534 0.076177344 0.08487705 -0.031367507
0.1285555 -0.034129243 -0.012365905 0.035289574 -0.07757293 0.11694825 -0.022633433 0.048209846
0.02717912 -0.09008119 0.06649508 -0.029692711 -0.1262039 -0.07279972 0.10565652 -0.033415016
-0.045477953 -0.10372785 -0.09775571 -0.13276239 0.12706041 -0.08354392 -0.03638595 -0.08642634
-0.032497752 0.13234963 -0.110922255 0.09131587 0.11656749 0.024209801 -0.033429146 -0.13402307
0.03755559 0.06342493 -0.0678639 -0.013867826 0.0787564 -0.017480725 -0.073855884 -0.08736093
0.045914516 0.054679524 -0.13643706 -0.027000763 0.07799078 -0.062139858 0.04506332 0.09107357
-0.10598402 -0.10854538 -0.13754775 0.037253648 -0.03129367 -0.035721745 0.12249431 -0.110705726
0.13479783 -0.12050987 -0.14189433 -0.06906077 0.0773413 0.08859595 -0.053123437 0.11790318
-0.14183766 -0.0072121713 0.05247044 0.07672767 -0.089319274 -0.005607902 -0.080072634 0.1110004
-0.06851977 -0.08784966 -0.13014102 0.13614106 0.022768117 -0.075889066 0.056701526 -0.011340462

base.0.bias f4 [32]
00000000: 9f70 4b38 f308 8fb9 6e56 6e39 27d6 6eb8
00000010: ce75 48b8 fe71 32b9 dfa4 b139 24b5 afb9
00000020: 6232 b8b7 aab9 f2b8 5d77 8d36 16f4 1539
00000030: 03f0 4539 457a afb9 34c3 a7b9 0e7e a3b8
00000040: 6e5e e239 1492 2339 63a8 fe38 6178 b139
00000050: cf2c b637 9f54 92b7 fd45 a238 075e 28b8
00000060: 18fd 5239 2ae5 6339 3c47 a2b9 fc92 2239
00000070: 7e2e 1a39 78bf 8b39 b76b 8a38 cdb4 c4b8
4.8503858e-05 -0.00027281753 0.00022729646 -5.6943067e-05 -4.779343e-05 -0.00017017868 0.0003388291 -0.0003351356
-2.195797e-05 -0.00011574042 4.216023e-06 0.00014300676 0.00018876795 -0.000334697 -0.0003199816 -7.795925e-05
0.00043176435 0.0001559931 0.00012143028 0.0003384976 2.1716956e-05 -1.7443961e-05 7.737798e-05 -4.014189e-05
0.00020121445 0.00021733777 -0.00030952122 0.0001550428 0.00014703904 0.000266548 6.600416e-05 -9.379685e-05

base.1.weight f4 [32]
00000000: 24a7 7d3f ba01 813f 13de 7e3f e401 803f
00000010: 349a 7d3f 9885 7d3f f916 803f b5d4 803f
00000020: 84dd 7d3f de71 813f 0ffd 7e3f 65ec 7f3f
00000030: 84e0 7b3f da5c 7d3f 9081 813f d7bf 7d3f
00000040: 54a7 803f 2c3e 833f 17ff 7e3f 07ad 7f3f
00000050: 7ecf 7e3f 13e9 7d3f 9b7c 803f 59d5 7c3f
00000060: 9d93 7f3f ef27 7d3f 5754 7e3f 5699 7c3f
00000070: 9e8c 803f aabc 7d3f 9716 823f 0cf3 803f
0.9908316 1.0078652 0.9955761 1.0000577 0.9906342 0.9903197 1.0007011 1.0064913
0.9916613 1.0112875 0.99604887 0.99970084 0.9838946 0.98969805 1.0117664 0.9912085
1.0051064 1.0253348 0.99607986 0.99873394 0.9953536 0.9918377 1.0038027 0.9876304
0.99834615 0.9888906 0.9934744 0.9867147 1.0042913 0.99116004 1.0163144 1.0074172

base.1.bias f4 [32]
00000000: 601a 86bb e7aa fb3b 91e2 993b c5f9 4e3b
00000010: 1135 e839 9b32 9539 3d9f 0e3b ec0d 9bbb
00000020: 0fe6 5abb 57b7 233c 64c7 a23b d9a8 573b
00000030: 3c3b 15bc bfea fdba 03a0 ca3b f887 44ba
00000040: 399e a93b 266d 4dba f098 1fbc 839b d53b
00000050: f892 92bb d3bf 3b3a 5760 643a 79d7 afbb
00000060: e8b4 02b8 b806 14bc 6c10 823a fa07 50bc
00000070: 230e 253c 14a4 9cbb 37d5 9b3b f887 d53a
-0.0040924996 0.0076802853 0.0046961983 0.003158198 0.00044290026 0.000284572 0.0021762394 -0.004731884
-0.0033401286 0.009992442 0.004967617 0.0032907038 -0.009108361 -0.0019372328 0.0061836257 -0.00074970676
0.0051763323 -0.0007836394 -0.009741053 0.0065187826 -0.0044730864 0.0007162068 0.00087118655 -0.0053662625
-3.1162897e-05 -0.009034805 0.0009923107 -0.012697214 0.010074171 -0.004780302 0.004755642 0.0016291132

base.1.running_mean f4 [32]
00000000: d538 92bd 6125 a7bd 0c0a 473f 628f 32be
00000010: 40f3 ffbe fbcd 31bf f30b 46be b25c 2b3e
00000020: ae10 943f de0c 053e 081a a63e 15e8 c6bd
00000030: 2017 7bbf 9d76 41be 55de 25bc c243 8b3e
00000040: 9266 013e 0acb 643e 200d 97be b090 c83e
00000050: 9ce1 1e3e 5cba 413f dbc0 2ebd 2104 7bbe
00000060: e120 febe ca0c 01be e1a7 983e d2b7 e4be
00000070: e16c 243d ddf2 373f 5eae 83bd 1b9d f03d
-0.07139746 -0.08161426 0.77749705 -0.17437509 -0.49990273 -0.69454926 -0.19340496 0.16734579
1.156759 0.1299319 0.32441735 -0.09712235 -0.9808216 -0.18892904 -0.010123809 0.27200133
0.12636784 0.22343078 -0.295022 0.39172888 0.1551575 0.75674987 -0.04266439 -0.24513294
-0.4963446 -0.12602535 0.2981558 -0.44671494 0.040142898 0.71854955 -0.06429742 0.117487155

base.1.running_var f4 [32]
00000000: fc99 8e3b 7d2b e439 3050 273c 6639 333b
00000010: 109c 4d3b db6d af3b bfea f93a 3f0d 5c3a
00000020: ea04 5d3c 7287 e539 5169 3f3b 550d e73a
00000030: a748 343c 3f11 8d3a dab6 f238 8e7d 1e3b
00000040: 0d26 173a b94a 863a d9e6 0c3b 671b e93a
00000050: 1c1b 133a abcb 063c 9643 023a e8b7 f83a
00000060: 3b05 4e3b 1be0 4e3a 4b4a 083b 90a2 803b
00000070: e255 3e3a 206b b03b 67c5 a53a 5408 e03a
0.0043518525 0.0004351995 0.010211989 0.0027347445 0.0031373538 0.005353672 0.0019067152 0.0008394308
0.013489941 0.00043779198 0.002920706 0.0017627875 0.01100365 0.0010762586 0.00011573518 0.0024183723
0.0005765863 0.0010245658 0.00214999 0.0017784656 0.00056116446 0.008227269 0.00049691775 0.0018975707
0.0031436223 0.00078916707 0.0020796235 0.003925629 0.00072607223 0.005383864 0.0012647331 0.0017092326

base.3.weight f4 [32, 32, 5, 5]
00000000: 045a f7bb 713e 6c3c 5cdc 2dbd 118a 01bb
00000010: 2ec4 bc3c 22c2 933b a184 bcbc 7da3 1d3b
00000020: 73c3 68bc ba0e b43c 3ed9 923c 46f9 583c
00000030: 62bf 04bd 7999 823c 231f 96bc 18f3 c3ba
00000040: cf46 fa3c b911 763c b03a 75bc 5f0f d1bc
00000050: 0225 b5bb 3607 e03c dc72 96bb 55f3 ab3b
00000060: b3c3 f03c 4a7b 31bc 4ef0 f4bc 252f c13c
00000070: 0a16 19bd 3b50 513c 4641 703c 00b5 03bd
00000080: dd88 3c3c cc46 f03c 9d15 943c 222e cfbc
00000090: d6c5 d03c bb7e 4a3b 89aa a13a 57f3 76bc
000000a0: 9977 ecbc f6d4 b2bc f6fe 263b 3a02 ce3c
000000b0: 3daa dbbc 5823 9ebc 0f57 c63c c475 b5bc
000000c0: 7354 cc3c af06 e3bc 0801 e33c d253 7dbc
000000d0: aaad 08bc b52d 78bc 6216 e9bc 8e3c edbc
000000e0: cb95 3f3b fff0 bc3c 4a20 32bc 3367 d13b
000000f0: f241 a1bc 2199 e33b d764 053d a4e0 083d
00000100: 3c1b 983c b28a cebb 805a 90bb 3b63 12bc
00000110: bb32 babc 3061 19bd 5cf0 933b 5291 023c
00000120: 767b 6dbb 2f29 d1bb 3f70 633c 87fd babc
00000130: d5bf 9fbc 9058 d73c d02f 2abc 6c67 ca3c
00000140: e094 5fba 5e6b 14bd 83ac ebbc db21 61bc
00000150: b409 00bd 6665 7ebb 2a79 a1bc 9ad2 8f3c
00000160: ab90 0bbd 2d41 b5bc 4e21 4dbb 12e6 e6bc
00000170: 0de1 e0bc 0805 003d 33e3 653c f288 e8bc
00000180: 2b96 0239 7b7e 85bc 93df 0a3c cdc3 a83c
00000190: 7b01 fd3c 858c 7abb 1847 a23b b686 e63c
000001a0: 50c8 47bc e26e ee3b ca99 e63c c168 6f3c
000001b0: d497 0d3d fccd e7bb 3a0e a63b 41bb 78ba
000001c0: 1aad 7dbb dc8c 16b9 594d b43c 16a9 f5bc
000001d0: 79bd e1bc fc76 183c 9910 ae3c a6f2 dbbc
000001e0: c303 033d 3127 f93c 64bd cf3b 3aa6 a63b
000001f0: b376 213c 9691 30bc 44fd adbb 3962 d2bc
00000200: c39d f8bb fffa 6cbc afe0 f539 4d20 db3a
00000210: 3e8a 013d 4684 c3bc fcde 8a3c 6c80 8c3c
00000220: 4d45 743b f975 843c 5f35 cbbc a447 e6bc
00000230: 42bb 953c e432 523c 083b 05bc f42c 563c
00000240: 36d5 eb3b 6836 723c 1291 ad3b 0d53 f6bc
00000250: f11a 4abb ca0b 94bc 40ba ca3c d359 c8bc
00000260: 135e 15bd e5b4 5f3b 8111 fa3b feb0 18bd
00000270: 8e50 fc3c 0c00 953c 07cf 813b b7e7 c7bc
00000280: 9e8a 9b3c 19f7 a4bc 3b65 0fbd 5121 b83b
00000290: 4cb0 cd3b 7dfc b1bb 7864 aaba 5e75 52bc
000002a0: 74a9 e2ba 4259 fdbc c1ce 72bc 44f9 efba
000002b0: 22ea 263c b3c3 a43c 53b0 0dbc bd7b cc3c
000002c0: 8b89 703c 4df2 02bc 1417 0c3d 7238 4d3c
000002d0: ce09 eebc 9581 fbbb 7f69 a5bb 90d1 c23c
000002e0: 674c 583b a8d6 983c 1048 5e3c 975a 0abc
000002f0: 1631 0a3c 2c3d 7f3c 3429 4ebc 8a74 4d3c
00000300: de13 0ebc 37a3 e73a b5d2 913c 55cd 083c
00000310: 5ae4 dc3b 8a03 c73c cda1 0fbd 7615 61bc
00000320: 1df6 143d 0763 d83c 480e c83c e084 c33c
00000330: 2991 e33a 7625 17bc fe8b 373b 0688 f43c
00000340: 932d 01bc b605 803c a7ad d5bc 1a91 e6bc
00000350: 0f13 f2bc 3f99 8fbc cb62 4abc c048 8d3c
00000360: aef1 46bc e22d 8f3c 3738 5d3b ca6d 8b3c
00000370: 8dbc 6c3c b881 fa3c ce2f 1f3c 94fc 383c
00000380: b7d1 08bd 2ff3 92bc da2f bc3b 5b6f 54bc
00000390: 2b95 c1bc b94e 4c3c 8c27 ef3c 77f9 c03c
000003a0: 6a9d 78bc a3a5 393c 2f97 863c 17a5 b1bc
000003b0: f3a8 8cbc 5468 163c 9e7f 083d fb79 8e3b
000003c0: d29d 9a3b 726e e73c ca74 3c3b 98a9 17bb
000003d0: b24f 0f3d 8bcc 0c3d a1ab e4bb 6245 123d
000003e0: 9895 2d3d 29ef 34bc 5d0b eebc 95d1 90bc
000003f0: 7608 e83c 7939 b23c 06ef 7cbc 9006 24bc
-0.0075485725 0.014419184 -0.04244648 -0.0019766132 0.023042765 0.0045092264 -0.023012461 0.0024053745
-0.014206755 0.021979678 0.017925855 0.013243025 -0.03240908 0.015942322 -0.018325394 -0.0014949767
0.030551342 0.015018874 -0.0149676055 -0.025520025 -0.0055280933 0.027347188 -0.004591329 0.0052475133
0.029390192 -0.010832617 -0.029899742 0.02358205 -0.037374534 0.012775476 0.014664 -0.032155037
0.01150724 0.029330634 0.018076712 -0.025290553 0.02548496 0.003089829 0.0012334149 -0.015072665
-0.028865622 -0.021830063 0.0025481558 0.025147546 -0.026814574 -0.019303963 0.024211435 -0.022150882
0.024942612 -0.027713148 0.027710453 -0.015461879 -0.008342186 -0.015147616 -0.028453056 -0.028959539
0.002923357 0.023064135 -0.010871956 0.006390476 -0.019684765 0.0069457446 0.03256687 0.03341736
0.018567674 -0.006303155 -0.0044053197 -0.008934791 -0.022729268 -0.0374462 0.004514737 0.007969217
-0.0036236919 -0.0063830833 0.013881742 -0.02282597 -0.019500652 0.026287347 -0.010387376 0.024707519
-0.0008528959 -0.036235206 -0.028768783 -0.013740982 -0.031259254 -0.0038817762 -0.019711096 0.017556477
-0.034073513 -0.022125805 -0.0031300369 -0.028185878 -0.027451063 0.0312548 0.014031219 -0.028385613
0.00012453708 -0.016295662 0.008476156 0.020601178 0.030884495 -0.0038230729 0.0049523227 0.028140407
-0.012193754 0.007276402 0.028149504 0.014612378 0.034568623 -0.007074116 0.005067614 -0.0009488352
-0.0038707913 -0.00014357589 0.022009538 -0.029987853 -0.027556168 0.009305712 0.021248149 -0.026849102
0.03198601 0.030414196 0.006339716 0.0050857337 0.00985496 -0.010776898 -0.0053097326 -0.025681602
-0.007587166 -0.014464139 0.00046897444 0.0016718 0.03162598 -0.023866784 0.01695203 0.01715108
0.0037272752 0.016169535 -0.024805723 -0.028110333 0.018277768 0.012829516 -0.00813175 0.013072241
0.0071970476 0.014783479 0.0052968347 -0.030068899 -0.0030838812 -0.018072028 0.024747014 -0.024456894
-0.03646667 0.003413492 0.007631481 -0.037278168 0.03080013 0.018188499 0.003961447 -0.024402482
0.018986996 -0.020137357 -0.03500865 0.005619206 0.0062771197 -0.0054317103 -0.0012999913 -0.012845365
-0.0017292933 -0.03092635 -0.014819802 -0.001830854 0.010187658 0.020112848 -0.008647996 0.024961347
0.01468123 -0.007992339 0.034201697 0.012525665 -0.02905741 -0.0076753595 -0.0050479765 0.023781568
0.0033004524 0.018657044 0.013566986 -0.00844445 0.008434555 0.015578549 -0.012583066 0.012539992
-0.008671729 0.0017672543 0.017800668 0.008349736 0.006741089 0.02429368 -0.035066415 -0.013738027
0.036367524 0.026414407 0.024420872 0.02386707 0.0017361987 -0.00922524 0.0028007026 0.029850017
-0.007884401 0.015627723 -0.02608378 -0.028145362 -0.029550103 -0.017529128 -0.012352656 0.017246604
-0.012142582 0.017477933 0.003375543 0.017020125 0.014449251 0.030579433 0.009715987 0.011290688
-0.033403125 -0.017938225 0.005743009 -0.012966002 -0.0236307 0.012469941 0.029193662 0.023556454
-0.015174249 0.011330995 0.016429512 -0.021685166 -0.017170405 0.009180147 0.03332483 0.0043480373
0.0047185207 0.028250907 0.0028756135 -0.0023141857 0.034988113 0.034374755 -0.0069784676 0.0357107
0.04237899 -0.011043348 -0.029058153 -0.017678062 0.028324347 0.02175592 -0.015437847 -0.01001133

base.3.bias f4 [32]
00000000: 5b33 ebb7 692c 8b37 c97e abb6 5636 3e37
00000010: 8778 b4b8 3150 b838 31e3 a538 901b 4338
00000020: 5487 0cb8 e9b3 3738 4115 80b7 7bb5 3e38
00000030: f875 f538 6410 ad38 e6f5 0db8 44e4 5b37
00000040: 5e28 2937 08d9 2fb8 f026 04b9 4a0a 8338
00000050: 5fa2 db37 ec2b 21b8 db2a b938 4f96 9cb7
00000060: 3b01 73b7 bcf2 0b37 c7c6 d7b7 9295 e3b7
00000070: 15fd 6bb8 c29f 88b8 e3e2 4c37 6894 dcb7
-2.8038097e-05 1.6590771e-05 -5.110957e-06 1.1337534e-05 -8.605519e-05 8.7887405e-05 7.910131e-05 4.6517293e-05
-3.3504635e-05 4.3798154e-05 -1.5268686e-05 4.5468547e-05 0.00011704484 8.252336e-05 -3.384603e-05 1.3106564e-05
1.0082584e-05 -4.1925377e-05 -0.00012603006 6.248483e-05 2.6182444e-05 -3.8426297e-05 8.82947e-05 -1.8666642e-05
-1.4484215e-05 8.341562e-06 -2.572256e-05 -2.7130158e-05 -5.6264067e-05 -6.5147426e-05 1.2212174e-05 -2.629515e-05

base.4.weight f4 [32]
00000000: 9ff0 7d3f 7fc8 803f ccd8 7e3f 90c6 803f
00000010: c4b4 7f3f bbd2 803f cb37 803f 0d65 7f3f
00000020: 36a2 7e3f cbe7 7f3f 8793 803f ae15 803f
00000030: b189 803f 0b72 7e3f 350a 7f3f 58ec 7f3f
00000040: e4da 7e3f 6b1b 7f3f 942d 803f 28c1 7d3f
00000050: 055c 7e3f c25f 803f 3911 803f 7f70 803f
00000060: 7660 7c3f d025 803f af1f 803f c251 803f
00000070: 8c27 803f c8ad 7f3f a186 7d3f 4282 7f3f
0.99195284 1.0061187 0.99549556 1.0060596 0.998852 1.006431 1.0017027 0.99763566
0.99466264 0.99963063 1.0045022 1.0006616 1.004202 0.99392766 0.9962495 0.99970007
0.9955275 0.9965121 1.0013909 0.9912286 0.9935916 1.0029223 1.0005256 1.0034331
0.9858469 1.001154 1.0009669 1.002495 1.0012069 0.99874544 0.9903355 0.9980813

base.4.bias f4 [32]
00000000: cc23 88bb 244a faba 8171 61bb ebbc 09bb
00000010: d892 f6ba 30b0 223c a58e 593b 2263 b53a
00000020: 2eed 8e3b 57af 19bc e946 093b 02b6 bfbb
00000030: 87fc de3b aa45 54bb ce16 19bb da33 f8bb
00000040: e177 eabb 62ef 0b3a d181 f33a 39cf caba
00000050: 3b33 8abb d629 10bb ffc5 a4bb 27b5 15bb
00000060: e623 b6bb bdb6 c5ba dca7 263c 95a5 89bb
00000070: 2441 e6b9 e64f 02bb a9c8 243b 99ce db3a
-0.004154658 -0.0019095582 -0.003439993 -0.0021017145 -0.0018812073 0.009929702 0.0033196595 0.0013838748
0.00436177 -0.009380183 0.0020946807 -0.0058505544 0.006805006 -0.0032390156 -0.002335954 -0.0075745406
-0.007155404 0.00053381 0.0018578117 -0.0015473134 -0.004217533 -0.0021997592 -0.005028486 -0.002284357
-0.0055584786 -0.0015084367 0.010171857 -0.004200647 -0.00043917552 -0.001988405 0.0025144017 0.0016769945

base.4.running_mean f4 [32]
00000000: c1db eb3c a25a 183e 71bb 2e3d b959 073c
00000010: 7e98 14bc 29ce 45bb 3bb5 39bc f010 bc3c
00000020: f901 973d 66af 803b 2a57 2f3e b18d 1bbd
00000030: cb09 aabd 7941 6eba aab8 c8bd 3a89 353e
00000040: 311c 523e 0fae 013e 1672 863c 5211 0cbe
00000050: 37cd a8bd 9db7 38bd ced8 b93d a6d4 bc3d
00000060: 940d ed3d 680a ae3c c7b4 ecbd 09f6 f8bd
00000070: be1a febd 318a cd3d d708 c3bd 7a3c 953d
0.02879131 0.14878324 0.042659227 0.008261138 -0.00906956 -0.0030182695 -0.011334713 0.022957295
0.07373423 0.003927159 0.17123094 -0.037976924 -0.08302649 -0.00090887357 -0.09800847 0.17728129
0.20518567 0.12664054 0.016411822 -0.13678482 -0.082422666 -0.045096982 0.09074555 0.09220247
0.115748554 0.021245196 -0.11557918 -0.121563025 -0.124074444 0.100361235 -0.095231704 0.072869256

base.4.running_var f4 [32]
00000000: 4ba1 8a3d 9a15 3b3d b4cb c03d f675 9d3d
00000010: c6f7 613d 2133 853d 9574 033d e7a4 ff3d
00000020: bda7 b43d 5aad 803c 4efd d63c 4d84 573d
00000030: bc5f 583d e473 de3d ba5e b33d 7807 933d
00000040: 8e24 613d 986f 203d 9604 2d3d 7962 443d
00000050: 95b1 ac3d 1b91 0b3d 2333 6f3d 9459 883d
00000060: 5e77 0e3d 9891 333d 4f3c ed3d 5426 433d
00000070: 85f7 a23d 883e 4c3d 1090 673d 0344 013e
0.067690454 0.045674898 0.09413853 0.07688515 0.055167936 0.06503893 0.032093603 0.124826245
0.08821056 0.01570766 0.026243832 0.052616406 0.052825674 0.10861948 0.08758302 0.07179159
0.054966502 0.039168924 0.0422407 0.047945473 0.084323086 0.03407393 0.058398377 0.06657711
0.034781806 0.04384002 0.115837686 0.047643974 0.07957367 0.049864322 0.056533873 0.126236

base.6.weight f4 [32, 32, 5, 5]
00000000: e605 d23c e4f4 963c c9a8 92bb cf2c edbb
00000010: 5c5a c4bc 6ee7 28bc 2edf e03c 56aa 033d
00000020: 45fe b73c c619 b23c 0512 61bc 9c25 bd3b
00000030: e14c babc 4b14 8bb9 5d44 45bc 95d7 acbc
00000040: 5bdf 073d 0e83 833a 98de b73c dfb7 e8bb
00000050: 2a4d 9e3c 2fe8 993b 0777 9abc 61c8 09bd
00000060: e488 0fbd e66d d4bc b9d0 a7ba 94ad 483c
00000070: 2154 3f3c e6d7 b5bc d923 593c 6a42 383b
00000080: 61c4 32bc f7ea 5ebc 4b71 4a3c 4563 bc3c
00000090: e60b 193b 647b 1abd d444 90bc de58 f3bb
000000a0: c709 8ebc d3d5 cc3c 77fd 09bd c27c d4bc
000000b0: 22c3 cc3c db41 763c ac9f b73c 7246 91bc
000000c0: 0df0 623c 14ef 723c 1445 43bc cd2d df3c
000000d0: 2803 363c 3a54 e3bb 0aeb d73c 9aad a8bc
000000e0: 09f0 17bd 7d4c 9d3c 65de d3bc 15e7 2e3c
000000f0: f58d abbc 89cf 47bc 883e 97bb 5f75 7abc
00000100: be37 c83c 0696 183c d146 92ba 36a9 2e3c
00000110: fde6 8ebc deb4 72bb 3e69 38ba e22b 2fbc
00000120: 0c6f d2bb b074 9abc 0a43 583c 22e5 86bc
00000130: 013e eebc d8bb 46bc 427f 153c 29ad febc
00000140: 4c20 d6bc 0584 a43c a847 adbc 0195 143d
00000150: 79d8 cd3b 2304 873c 48b4 a5bc 47b9 0e3c
00000160: 2a23 06bc 7e3b 903c d1e6 5fbb c440 593c
00000170: 5917 1fbd c0f2 03bb 2cf0 d83b 2bff 2c3c
00000180: b1bd e038 a178 08bc e41a 97bc 159a 0f3a
00000190: 76a4 58bc cb2f 003d 191c 3fbd 3698 df3c
000001a0: 5562 e8bc b87f cbbb 553b aa3b 647a 473c
000001b0: e935 f83c 23e8 94bb 56c1 adbc 16e6 afbc
000001c0: 5952 233b c78d 84bc 70b5 9fbc 2238 acbc
000001d0: 9cb1 543b 8c88 d43b 353b 8b3c 51d1 3b3a
000001e0: eb22 aa3b c190 143c 50fb 203c 1e45 1e3a
000001f0: 616e 113c f1ef 4fbc 76cf 1d3c 64c0 183d
00000200: 3c0c 91bc 5e0d 323c 0aab 02bc 6cf6 7f3c
00000210: 1084 533d 49e7 acbb 0821 fabc 4275 ac3b
00000220: c4cc 103c f952 243d f32b 0c3d 9991 bebb
00000230: 98a0 213c a52d a53b eb03 44ba 2302 863c
00000240: da0b e43c 8ef1 6d3b 817c d93c 8a43 e6bc
00000250: b49c 7139 0b7f ef3b ef57 d73c 8a58 5dbb
00000260: d0be af3c cb84 6c3c 129e 96bc 1d46 763c
00000270: 607b 553b d73b 29bd 6a11 66bc 4e1e fabc
00000280: 8302 383c 1108 203b 70f1 723b abdd 70b9
00000290: dcee 61bb 8a15 6ebc d652 293c e6d5 e43b
000002a0: fbe9 1a3c 7271 ec3c fda1 b33c 3de2 ab3c
000002b0: 0267 15bd 2d26 c9ba ca33 963c 93d3 d3bc
000002c0: 1f17 fb3b 4d72 943b ab97 e4bc c3db 233d
000002d0: cfce 8bbc 7911 93bc 0a90 f13b b0ae 82bc
000002e0: 8681 6fbc 1445 41bb 5129 823c cfd4 963c
000002f0: d3cf 7ebc 8471 0c3d c593 13bd 00cf a7bc
00000300: 1dad 923c 6833 123d 738c bebc f811 833c
00000310: 3076 ee3b aa19 3ebc a705 a73c 547b a03c
00000320: 3aea 7fbc af87 c1bc 51d7 a83b 8d8d 04bc
00000330: f4dd 9fbc fdec 81bc 30bc 08bc 75f7 da3c
00000340: 798a 3f3c 467f 0f3d 66e3 783c f7f1 f23c
00000350: d71c 7dbc 552b 7dbc 344a 9fbb 23b1 58bc
00000360: 8594 74bc 4ce6 9fbc 29fe e5bb 8272 193d
00000370: ea50 52bc 1d1b 60bc 1a03 8f3c 0a59 a83c
00000380: bec7 1a3d 9d6d e4bb ed68 fa3c 15df e4bc
00000390: a558 ebbc e9be 8fbb c460 9cbc d457 163b
000003a0: e261 94bc 60ee e73c b95d 9a3c 1192 00bc
000003b0: 95c2 053d fdaa 983c 2b15 553c e0b3 e23c
000003c0: dd33 9a3c 2103 b9bc 9ede 32bc 4831 ca3c
000003d0: c00f 0a3d beb8 a43c 897a 4abb 8d23 9fbc
000003e0: efbc e03c c8b6 683c a542 783c 9cde ee3b
000003f0: 9875 a4bc c02d 3b3a 9696 fbbc 5a2e b8bb
0.025637578 0.01842732 -0.004475687 -0.0072380076 -0.023968868 -0.010309083 0.02745017 0.032144867
0.022460112 0.021740805 -0.013737206 0.0057723057 -0.022741737 -0.00026527265 -0.012040225 -0.021098891
0.033171993 0.0010033564 0.022445008 -0.0071019973 0.019323904 0.004696868 -0.018855585 -0.03363836
-0.03504266 -0.02593131 -0.0012803293 0.0122484155 0.011677773 -0.022197675 0.013253176 0.0028115758
-0.010911078 -0.013605825 0.012356113 0.022996554 0.002335304 -0.03771533 -0.017610945 -0.0074263653
-0.017338647 0.025004303 -0.03368899 -0.025938395 0.02499539 0.01503035 0.022415005 -0.017733786
0.013851178 0.0148275085 -0.011918325 0.02724352 0.011109151 -0.006937531 0.026357193 -0.020590592
-0.03709415 0.019201512 -0.025862882 0.010675211 -0.020941714 -0.012195476 -0.0046156086 -0.0152867725
0.024440642 0.009313112 -0.0011160021 0.01066046 -0.017444128 -0.0037034075 -0.0007034725 -0.010691615
-0.006421929 -0.018854469 0.013199577 -0.01646668 -0.0290823 -0.012129746 0.009124579 -0.031088429
-0.026138447 0.020082483 -0.021152332 0.036274914 0.006281909 0.016481465 -0.020227566 0.008711166
-0.008187095 0.017606493 -0.0034164677 0.01326007 -0.038840625 -0.0020133704 0.0066204276 0.010558884
0.00010716485 -0.008329541 -0.01844544 0.0005477977 -0.013222804 0.03129558 -0.046657655 0.02729426
-0.0283672 -0.0062102936 0.005195061 0.012175176 0.030299144 -0.0045442744 -0.021210354 -0.021472018
0.002492091 -0.016180886 -0.019495696 -0.02102286 0.0032454496 0.006486004 0.016996006 0.00071646745
0.005192151 0.009067715 0.009825543 0.0006037521 0.008876414 -0.012691484 0.009631982 0.037292853
-0.01770603 0.010867445 -0.007975349 0.015622716 0.051639616 -0.005276595 -0.030533329 0.0052630017
0.008837882 0.04011819 0.0342216 -0.0058156964 0.009864949 0.0050408416 -0.00074773905 0.01635844
0.027837683 0.0036307308 0.026548626 -0.028108377 0.00023041927 0.007308846 0.026287047 -0.0033774697
0.021453291 0.014435957 -0.01838592 0.015031365 0.0032574758 -0.041316833 -0.014042238 -0.030532029
0.011231068 0.002441887 0.0037070177 -0.00022970761 -0.0034474647 -0.0145315025 0.010334691 0.0069835065
0.009455199 0.028862689 0.021927828 0.020981902 -0.03647519 -0.001534646 0.018335242 -0.025857722
0.0076626684 0.0045302273 -0.027904352 0.040004503 -0.017066387 -0.017952668 0.007371907 -0.015952438
-0.014618283 -0.0029490637 0.015888842 0.018412022 -0.015552479 0.034287944 -0.036029596 -0.020484447
0.017904812 0.035693556 -0.02326033 0.01599978 0.0072772726 -0.0116027985 0.020388437 0.019590057
-0.015619809 -0.02362427 0.005152621 -0.008090389 -0.019515015 -0.015860075 -0.008345649 0.026729325
0.011690729 0.035033487 0.015190935 0.029656393 -0.0154487705 -0.015452226 -0.0048611406 -0.013225826
-0.014927988 -0.019518994 -0.0070188236 0.03746272 -0.012836674 -0.013678339 0.017457534 0.02055027
0.037788145 -0.0069710747 0.03056761 -0.027938405 -0.028728792 -0.004386772 -0.01908911 0.0022940533
-0.01811308 0.028311908 0.018843519 -0.007847325 0.03265627 0.018636221 0.013005535 0.027673662
0.018823558 -0.0225845 -0.010917334 0.024681702 0.033706427 0.020107623 -0.003089579 -0.019426132
0.02743384 0.014203735 0.015152608 0.0072897207 -0.020075604 0.0007140301 -0.030711453 -0.00562076

base.6.bias f4 [32]
00000000: f0f3 28b7 21f9 01b7 5439 5bb5 720f d935
00000010: 4ce0 e8b7 a260 a637 3585 d836 bd81 0db7
00000020: 68ed 82b8 f593 d9b5 8d08 11b7 39a6 cab5
00000030: 1fc7 d7b2 c6b2 3cb7 3ea8 45b8 25aa 2435
00000040: 20c3 a737 ecc6 1636 17c6 23b5 01d4 36b7
00000050: 4e08 7cb6 1a45 03b5 e494 d637 97d7 8336
00000060: bcfb c237 411c a636 766f 0e37 8aee 5738
00000070: 5aa3 19b6 be70 0eb8 2241 d835 db0f 9937
-1.0070376e-05 -7.747004e-06 -8.166728e-07 1.6172255e-06 -2.7761002e-05 1.983374e-05 6.452809e-06 -8.434462e-06
-6.2431034e-05 -1.6210821e-06 -8.644664e-06 -1.509855e-06 -2.5119844e-08 -1.1247297e-05 -4.7125148e-05 6.1342354e-07
1.9998814e-05 2.246753e-06 -6.101049e-07 -1.0897406e-05 -3.755576e-06 -4.890186e-07 2.558012e-05 3.929202e-06
2.3243825e-05 4.9504747e-06 8.489811e-06 5.148215e-05 -2.289386e-06 -3.3960438e-05 1.611221e-06 1.8246405e-05

base.7.weight f4 [32]
00000000: 85b5 853f 37c1 823f 7b9f 853f 8c6a 853f
00000010: cbad 853f 85ae 833f 6c4d 843f e9fa 843f
00000020: acde 853f b88a 843f bf49 853f ed77 833f
00000030: b5ed 853f 80ca 863f f729 853f 6558 863f
00000040: ea58 833f 009f 833f ce99 853f 2ebe 843f
00000050: 876f 843f 18bb 843f 7ca2 853f 1b69 853f
00000060: c859 863f 2d78 843f 50f1 873f 98d9 853f
00000070: 397b 843f a1e3 843f 0038 863f 5303 853f
1.044602 1.0215214 1.0439295 1.042314 1.0443662 1.0287634 1.0336127 1.0389072
1.0458579 1.0354834 1.041313 1.0270973 1.0463167 1.0530548 1.0403432 1.0495726
1.026151 1.0282898 1.0437562 1.0370538 1.0346535 1.0369596 1.0440211 1.0422701
1.0496149 1.0349175 1.0620518 1.0457029 1.0350105 1.0381967 1.048584 1.039164

base.7.bias f4 [32]
00000000: 8540 a43c 6da5 9e3c 053f 7f3c 454c b33c
00000010: 1594 8b3c 21f2 633c 64da 613c 6fb5 b83c
00000020: e2c7 b13c a8c2 b03c 3ee8 de3c 8c7b a43c
00000030: 1da9 b03c ad3e b53c 0b53 6d3c 4bb4 0b3d
00000040: 0480 4e3c 75e9 a93c 90bc 1c3d b77c 823c
00000050: 818b 863c 6bbe c93c c0f5 a83c a4b4 493c
00000060: f2e8 e13c c1fe 903c 5c88 a03c ff8e 2d3c
00000070: e139 313b cf2e 293c 1e92 0c3d 17f4 a63c
0.020050297 0.01936599 0.01557899 0.021886954 0.017038384 0.0139127085 0.013784979 0.022547452
0.021701757 0.021577194 0.027210351 0.020078443 0.021565014 0.022124613 0.014485131 0.034107488
0.0126037635 0.020741204 0.038265765 0.01592861 0.016423943 0.024626931 0.020624995 0.0123111345
0.027576897 0.017699601 0.019596271 0.010593175 0.0027042555 0.010326101 0.034319036 0.020380063

base.7.running_mean f4 [32]
00000000: 4c8e bd3c d9a2 423e 90ac 75bc caca 713e
00000010: ffab 723e be06 18bd a3f0 283e 12bc d03c
00000020: 6234 223d 5048 893d aef8 803e f2c2 9fbe
00000030: 58d9 883e a381 5f3e 3194 843e be7d 963e
00000040: a2ed 4cbe 88b3 853d 3e3a 273e f106 0cbe
00000050: 6949 913d 7b88 8f3e a7ae 80bd 23b6 a6bd
00000060: 7874 793e b4da 933d 347e cc3d 3dab fa3d
00000070: 38f5 13bd 9373 d93d 846f df3d 13d1 37be
0.023139141 0.19007434 -0.014994755 0.23612514 0.23698424 -0.037115805 0.16498046 0.025480304
0.039600737 0.06703246 0.25189728 -0.3120342 0.2672832 0.21826796 0.2589431 0.2939281
-0.20012525 0.065283835 0.16330811 -0.13674523 0.0709408 0.28033814 -0.06283312 -0.081402086
0.24360836 0.07219449 0.09985009 0.12239692 -0.03612253 0.10617747 0.10909942 -0.17950849

base.7.running_var f4 [32]
00000000: dbef c83c 51ca 423d a657 bf3d 3126 493d
00000010: 9e64 943d 9f4b f63d 1aa9 ea3d 57dd 993d
00000020: f8c6 8a3d 1c48 9b3d 980f d03d d74d 193e
00000030: 103b 2b3d 0cdb 0f3d 02ac 163e f5ca dc3d
00000040: 45c5 f93d 0f94 4b3d 6601 c53d 993a 2e3e
00000050: 3cb7 843d de07 ce3d 9b7b 753d edaa c83d
00000060: 6032 743d 185e 903d 4fa1 833d bf0a 593d
00000070: 4e83 e43d 6384 2c3e 4123 da3d 94b0 b13d
0.024528435 0.047556225 0.093428895 0.049108688 0.07245754 0.12026142 0.11458035 0.0751292
0.067762315 0.07582113 0.10159224 0.149711 0.041804373 0.03512101 0.14714053 0.107808985
0.12195829 0.049701747 0.09619407 0.1701454 0.06480262 0.10060094 0.059932332 0.097982265
0.059618354 0.07049197 0.064272515 0.052988764 0.11157857 0.16847377 0.106512554 0.08676258

head.0.weight f4 [24, 1024]
00000000: 3d2a 713c 5526 5e3c c66b 483c c10d 1d3c
00000010: 7bbe 4e3b a621 9db8 e9d8 6b3b d554 8ebc
00000020: 6e53 633b 70f9 d6bc ce85 873b a288 593b
00000030: 84bc 5d3c d2ae 723c 3d32 7e3c a29e 793c
00000040: 00c7 103d dbe7 c23c b7a6 47bc 2122 853b
00000050: 14a0 a73b fc1f 083d 0ce5 b5bb aa6f a93c
00000060: 3ff2 e3bc f690 1fbc 0a01 06bd f81f e73b
00000070: 1e5e d93b 6f84 fd3c f28b b43c 315a 02bc
00000080: 6d5e 9839 a579 51bb 925c 8bbb 31e7 cbbb
00000090: dacc 00bc fae0 2b3c 9a63 033c d4d3 c73c
000000a0: 488a 0f3d c31b 04bc 6de1 103d 7261 6b3a
000000b0: afdc f339 a5fb 42ba 484e 7c39 5c7b 7f39
000000c0: 9c7b f93c 5b2e 923c c985 88bc 8e2d ce3c
000000d0: b92f d33c 5482 59bc 60a0 bfbb 4b75 fabb
000000e0: 19e9 b13c 6ecd 15bd 485a a9bc 4e87 c63c
000000f0: 56a1 d23c d2a9 c03c aa31 8fbc f282 b7bc
00000100: 98e4 933b 5532 1abd 32aa c4bb bebc 04bd
00000110: e9e0 c4bc 5477 10bd b809 333c 2313 a13c
00000120: d1d6 ef3a 108d b0bc 3213 92bc 4c94 51bc
00000130: 07fc 1cbd 236f d2bc 3049 46bb c7b8 1dbd
00000140: 13c1 113a 4a48 fbba 46ef 3bbb 5649 d6ba
00000150: b3c3 39bb 4797 cdba d59e f83c 3146 563b
00000160: b983 4b3b 42f6 5bbc 621b afbc 4327 2bbb
00000170: 0860 4fbb 7754 d1ba 2b91 8b81 8cb3 0080
00000180: c363 a93c 5142 0f3c 88eb 6dbc 0e3f 4a38
00000190: a8a9 a43c 6081 913a b70c e33b c9ca 193d
000001a0: 717e 293d 4af1 903c 7a90 94ba 58e0 3dbc
000001b0: a1d1 14bc 9809 a0ba 04d7 87bc ac5c b0bc
000001c0: 9a1d 1cbb 81ae 7fbb 90ec 69bb 6d4b e0b9
000001d0: 71e8 65bc 0b84 0e3c b1f0 ecbc 80cf 7ebc
000001e0: 93fc bb3b ca47 d5bc 6f1c 0dbc ee33 8439
000001f0: c583 373b 21de edba 8fc9 9f36 cc86 44ba
00000200: e0bb 113a a63c b8b9 18dc 983b 3139 f33b
00000210: 1b13 ccbc 8d06 bd3c 37ff 243c 5011 3a3b
00000220: e5bb 0f3b 6be0 f73c 9d17 57bc 5d5b fa3c
00000230: 04c0 643b 4c24 0ebb 5941 3139 5941 3139
00000240: ca4c 00bd 3861 ce3b 36e0 03bd 1d7a 17bd
00000250: 179d 17bc 99be 6ebc f411 b9bc 2ea2 033d
00000260: 2fe2 823b d90d 8c3c ff0e c63b 690a 5fbc
00000270: 556e 32bc acb0 acbb a003 3fbd 1019 0cbd
00000280: 6d7c df3c d9f0 e33b c026 593d f074 553d
00000290: 66fe 0f3d 556c 113d fc11 943c 347e 233c
000002a0: 2aa7 7f3c c561 343c e342 053d c9a1 04bc
000002b0: e41b 343d 665a f33c 999d 31bb bd5c 5b3d
000002c0: 7886 fc39 051d faba 09bf a7bb 7454 49bb
000002d0: e6aa a13b ede9 e93c 35fc 243c 918f 31bc
000002e0: 706a 33bc b61d d3bc 9e52 cebc e36e df3b
000002f0: e01b 6fb9 6069 293a 9863 91ba 6b2f 6539
00000300: b481 d33a a212 c03a 4932 9a3a 3ef1 263a
00000310: 97a9 cdba b2ea 81ba cbb2 cf3c 66b5 ff3c
00000320: 6126 43bd b09e a93c ab8e 8e3c ea08 643a
00000330: 438f ab3b 87d4 8e3b f052 bd3a f055 9c3a
00000340: c395 95bb ac40 4e3c 49ff 52bc 11ba e93b
00000350: 84cf bf3c 3f57 273d 43e5 b43b 3aed 4c3b
00000360: 0589 6abb 31a2 463b dfd5 ac3c 3a20 3e3c
00000370: d166 c8bc b949 d6bc 73a7 c7bc dd02 d33b
00000380: a073 583b 9caf 01bd cb44 a9bc 8bd7 a13c
00000390: eaeb 81bb ad91 103d 5628 043d 4e10 0f3d
000003a0: 2e80 053d dddf a0ba 128a e5ba 8a23 80bb
000003b0: a956 b5bb b315 953c a029 85bc f19a 0fbd
000003c0: f263 8f39 2ec5 f2bb cef4 4abc fd20 c3bb
000003d0: bb0d 443c b24f 603a 3ac3 393c 93c2 9fbc
000003e0: d550 d7bc 47c0 a8ba 161c 76bc 4745 e7bc
000003f0: 1cba 9d3c 1e54 1abc 9347 8835 b911 0080
0.014719543 0.013558944 0.012232726 0.009585799 0.003154664 -7.492611e-05 0.0035987443 -0.017374435
0.003468718 -0.026241988 0.004135824 0.0033193012 0.013533715 0.014812188 0.015514907 0.015235575
0.03534603 0.023792198 -0.012185744 0.0040629064 0.0051155183 0.033233628 -0.005550986 0.020683128
-0.027825473 -0.009739151 -0.032715835 0.0070533715 0.006633534 0.030946938 0.022039387 -0.007956074
0.00029062052 -0.0031963375 -0.0042529786 -0.0062226285 -0.00786134 0.01049065 0.008019352 0.024393
0.035043985 -0.00806326 0.035371233 0.0008979059 0.00046512994 -0.00074380107 0.00024061755 0.0002436465
0.03045445 0.01784437 -0.016665356 0.025168207 0.025779592 -0.013275702 -0.0058479756 -0.007643377
0.021717595 -0.036572866 -0.020672932 0.02423444 0.025711697 0.023518477 -0.017479736 -0.022401307
0.0045133345 -0.037645657 -0.006001734 -0.03240656 -0.024033027 -0.03527005 0.01092761 0.019662445
0.0018298273 -0.021551639 -0.017831419 -0.012791704 -0.03832629 -0.02568776 -0.0030256025 -0.038506296
0.00055600813 -0.0019171324 -0.0028676554 -0.001634876 -0.0028345406 -0.0015685343 0.030349175 0.0032695646
0.0031053855 -0.013425412 -0.021375362 -0.002611593 -0.0031642932 -0.0015970607 -5.126884e-38 -6.4409e-41
0.020677453 0.008743838 -0.014521487 4.8219277e-05 0.02010043 0.0011101179 0.006929006 0.037546907
0.04138035 0.01769318 -0.0011334561 -0.011589132 -0.009083183 -0.001220989 -0.01658202 -0.021528564
-0.0023821355 -0.0039013925 -0.003569398 -0.00042780806 -0.014032469 0.008698474 -0.028923364 -0.015552402
0.0057368963 -0.026035208 -0.008612736 0.00025215693 0.0028002125 -0.0018147865 4.7620338e-06 -0.0007496893
0.00055593066 -0.000351404 0.004664909 0.007422589 -0.024911454 0.023074413 0.010070614 0.0028391667
0.0021932062 0.030258378 -0.013128188 0.030561144 0.003490449 -0.0021689115 0.0001690438 0.0001690438
-0.03132323 0.0062982105 -0.032196246 -0.03698169 -0.009253762 -0.014571809 -0.022591569 0.03213709
0.0039942483 0.017096447 0.006044268 -0.013613322 -0.010890563 -0.0052700844 -0.046634316 -0.03420359
0.02728101 0.0069562015 0.05301547 0.052113473 0.035154723 0.035503704 0.018074982 0.00997882
0.01560382 0.011009638 0.03253449 -0.008095213 0.04397191 0.029706191 -0.0027101992 0.05355524
0.00048165373 -0.0019082135 -0.0051192087 -0.0030720504 0.0049337028 0.028553927 0.0100698965 -0.010837452
-0.01095067 -0.025771003 -0.02518588 0.0068186386 -0.000228032 0.00064625405 -0.0011092303 0.00021856806
0.0016136677 0.001465399 0.0011764254 0.00063683453 -0.00156908 -0.0009911864 0.02535381 0.031214427
-0.047644023 0.02070555 0.017402014 0.0008698838 0.005235584 0.0043588313 0.0014444273 0.0011927467
-0.004564972 0.012588661 -0.012878248 0.0071327765 0.02341438 0.04085469 0.005520494 0.0031269328
-0.0035787236 0.0030309076 0.021098075 0.011604363 -0.02446309 -0.0261582 -0.024371838 0.0064395503
0.0033027902 -0.031661615 -0.020662686 0.0197561 -0.0039648907 0.035295177 0.03226503 0.03492766
0.032592945 -0.0012273748 -0.0017512462 -0.0039104866 -0.0055340123 0.018198824 -0.0162552 -0.035059873
0.0002734955 -0.0074087596 -0.012387468 -0.0059548602 0.011966164 0.00085567974 0.01133805 -0.01950196
-0.02628366 -0.0012874686 -0.015021345 -0.028231276 0.019253783 -0.009419469 1.015362e-06 -6.358e-42

head.0.bias f4 [24]
00000000: 8d1b cd3c acc7 533c e080 9c3b a123 90bc
00000010: 0e37 a6bc f9b0 3bbc 157d c5bb e6f7 a8bb
00000020: 0716 023d 9420 963b 1762 b73c 02b2 c53c
00000030: 577f 8b3a 56f6 cc3c bad2 32bc 3b78 0535
00000040: da64 67bb bb09 043d cc41 b03c 11a1 753c
00000050: b75a 26ba 1c47 8ebc 2a42 113c 3241 1bbc
0.025037551 0.012926023 0.0047761053 -0.017595114 -0.020289924 -0.011455768 -0.006026874 -0.005156505
0.03175929 0.0045815203 0.02238564 0.024132732 0.0010642809 0.025019806 -0.010914499 4.972132e-07
-0.0035307915 0.032235842 0.02151575 0.0149920145 -0.0006345915 -0.017367892 0.008865872 -0.009475993

head.2.weight f4 [2, 24]
00000000: ab00 17be 56cf 813e a8d1 bebb 2bfb bd3d
00000010: 6926 39bd 75b6 febd 7547 b23a 08ff f33b
00000020: b77d 49be d47a 483e 9acc f4bd 6616 74be
00000030: 85fc f9bc e326 4c3e d6f4 dfbd 4b05 4c3e
00000040: 2757 c23d ac73 403e 8b84 1c3e 47b4 633e
00000050: b32c 9e3d 97c1 133e e8d5 94bd 8a2f 1a3e
00000060: 6dcc 093e 1fcb 03be 465b de3d a86a d9bd
00000070: 8f75 263e b11c 7bbe 0b5c 34be 462d 04be
00000080: 1c74 423e 77f3 5fbe f8de 1b3e 8bfc 4e3e
00000090: 85fc f93c fc7d ae3c 5bd0 0d3e 9b42 b93d
000000a0: 58b9 61bd 1c6f 423c 85b8 61be 9339 093d
000000b0: bf66 233e c590 04bd dabd 553e 6284 28bd
-0.14746349 0.25353497 -0.005823333 0.09276422 -0.045202646 -0.12437145 0.0013601618 0.0074461736
-0.19676863 0.19578105 -0.11953087 -0.2383667 -0.030515919 0.19936709 -0.109353706 0.19923894
0.09489279 0.18794125 0.15284936 0.22236739 0.077233694 0.14429317 -0.07267362 0.15057197
0.13456888 -0.12870453 0.10857253 -0.10616046 0.16255783 -0.24522664 -0.17613237 -0.12907895
0.18989605 -0.21870218 0.15221775 0.20213525 0.030515919 0.021300308 0.13849013 0.09045907
-0.0551084 0.011867311 -0.22043045 0.033502173 0.15957163 -0.032364625 0.20873204 -0.041141875

head.2.bias f4 [2]
00000000: ccad 0d3e 5d63 0dbd
0.1383583 -0.03451859
