models/AC-RM Q_LR=0.001 P_LR=5e-06 BATCH_SIZE=128 GAMMA=0.99 MEMORY_SIZE=100000_q.pt (torch, 736954 bytes, 22 tensors)

base.0.weight f4 [64, 2, 5, 5]
00000000: 34b8 35bc 3a0d 283d 7c04 d33c e573 373d
00000010: e92e 883d 33e7 d83d b9b6 90bd 12a6 063e
00000020: 6a9d 05be e6e5 0c3e 1a46 15bc 6fb0 223d
00000030: e78e a6bd 0912 73bd b2e1 c63d 7997 e03d
00000040: 5da2 c83d b8c6 b43d 5e53 6ebc 540f 4d3d
00000050: d5cc e33d 971d b0bd 0562 5e3d 60ef 37bc
00000060: 7b47 b53d 23f6 eebd 416f f1bc fdde b3bd
00000070: fd82 fb3c 8936 4dbd 9cab a0bd ba3d b43c
00000080: eea1 093d f28f fdbd 6ccb d1bd 89b0 c7bc
00000090: 734e 883d cab9 d3bc 70f7 d6bc be33 9a3d
000000a0: 213c fa3d d8fb cf3d 28eb bbbd f47b febd
000000b0: a755 733d fd7a 92bd aa47 dcbc d678 2f3d
000000c0: 9ac0 87bb 97f9 c63d 08cc aa3d 40a0 35bd
000000d0: eb3f aabd d736 753d a0d8 debd 4f75 da3d
000000e0: ce4f 64bd fcb5 89bd 94fb cf3d 954a ba3d
000000f0: 0a19 a4bd addf c4bc 926c 533c 403b ff3d
00000100: a40a 033e 2f98 0abe c179 8c3c 2430 87bd
00000110: 65c4 083d 6ae1 afbc bca2 063e ad9f 17bd
00000120: 2fba 94bd 6a4a 823d e261 c23d 7f76 6cbc
00000130: afcb acbd a7db 0abe d4f7 5f3d 5988 a13d
00000140: e04d b1bd 7f90 fbbd 762a d8bd 23f5 a33d
00000150: 8808 c1bd 882d 9d3d 3eae 81bc c1f3 05be
00000160: 3829 e03c b1ef 823d 2a1f afbd 6701 3e3d
00000170: e1b1 0ebe 0d5f 04be 268e 093d ac25 a03d
00000180: ae81 c83d 7d72 c43d d11a b73c f71f 6abd
00000190: a104 cfbd 52db 973b 8ae5 913d bd3f 803d
000001a0: 73fa c13c 84d5 d1bd 528f 0cbe 4018 11bc
000001b0: 270b da3d e509 e0bc e7f9 cdbd f430 563c
000001c0: 312b 26bc b33e 9c3d 5e33 c63d d255 ff3d
000001d0: 98e6 9c3d f399 0f3e 2556 e23d 8f0b fb3d
000001e0: 0615 a73d 1c69 dd3d d4f3 c53d 0abf f43c
000001f0: 6c0e cf3d 557a c03d c520 533d 56ce c9bd
00000200: 8eda 193c 1b83 e3bd d7f0 42bc 4ade c33c
00000210: da5d 08be 62f8 df3d 2e9c 06be 32f5 023e
00000220: 468a 703d 836f e3bd 9541 c43d 9ad2 0a3e
00000230: 398c 013e 088a d2bd fcb4 613d a1d8 503b
00000240: 8bd7 d1bc fd53 8bbd 32c7 043e 44b5 84bc
00000250: 3b3d ca3a 42c5 2bbd 4881 90bb e013 28bc
00000260: 9ac3 b03d ea87 d93d 5adb c73d 5f93 d53d
00000270: dde9 88bd 4c65 1f3c 61f6 a83d ad10 cfbd
00000280: 114e 0f3e a29d 6e3d 39d1 babd 741d d43c
00000290: d33b cc3d 0cc3 993d 66d1 3a3d fbb1 6abd
000002a0: 3e1f bcbc eef9 943d f8b8 2fbd d1fc e2bd
000002b0: 1742 e23b e535 0d3e ed0a 98bd f5b6 60bd
000002c0: fef3 debd 5c17 b83d 8660 09be cebe b9bd
000002d0: f4f2 b63d f1fe 803d d8ea 25bc 3b85 293d
000002e0: b40a cebc b7f2 abbd b48e c13d 716d f9bc
000002f0: 1461 983d 4d34 8a3c 6958 df3d 933a 8c3d
00000300: 077c 2a3d 3a08 fa3d 537b 093c 096d 3bbd
00000310: ee2d 0a3e 4e39 9f3d 30a1 a9bd 5d73 1abd
00000320: d1b9 123d 1097 bcbc 7ed5 02be 693d 303d
00000330: 0eaa 9e3d b7e4 003c 9d48 013d 23b4 b83d
00000340: 863e 8e3d 71d4 ee3d 173c 68bd 42b5 813d
00000350: 71f3 b63d f30b 9abc bf4d e5bb b924 febd
00000360: 41cd ae3d 871f 173d 6c85 783d efda 1cbd
00000370: a36f cabd 07e8 cebc 3f0d 7c3d 8aa6 0bbe
00000380: 36b1 e4bd 6aa6 74bd 2c9e 153d cb45 9f3d
00000390: a5ce 78bd db1f b73d c5b0 00be 496c 073e
000003a0: 1dfc 92bd a59f a3bd f373 b73c 327b afbd
000003b0: 81c3 af3c b869 053d d612 0ebe 9dc7 a6bd
000003c0: aa31 2fbc 9f4a 143d fb78 e0bc 5394 013e
000003d0: 6e15 353c 03cf 103d 431c d2bd fb88 32bd
000003e0: 28a1 8e3c 02b8 37bc 0689 a83d 746c 6cbc
000003f0: 17ed 0cbe aa4e c63d 8435 a93d 13de a5bd
-0.011091281 0.04102824 0.025758974 0.04478826 0.066495724 0.10590973 -0.070661016 0.13149288
-0.1304833 0.13759574 -0.009110952 0.03971904 -0.08132725 -0.05934337 0.09711017 0.10966391
0.09796593 0.08826965 -0.0145462435 0.050063446 0.11123053 -0.08599394 0.054292697 -0.011226505
0.088515244 -0.116680406 -0.029471995 -0.08782766 0.030702109 -0.050100837 -0.07845232 0.02200209
0.033601694 -0.12380971 -0.10243878 -0.02437617 0.06655588 -0.025845427 -0.026241034 0.075294
0.122185 0.10155457 -0.09175712 -0.12425986 0.059407856 -0.071523644 -0.02688964 0.042839848
-0.004142833 0.09715574 0.08339697 -0.04434228 -0.08312973 0.059866752 -0.10881162 0.10666906
-0.05574017 -0.06724164 0.101554066 0.09096257 -0.08012588 -0.024032438 0.012904303 0.12462473
0.12797028 -0.13534616 0.0171479 -0.06600979 0.03339042 -0.02146979 0.13148016 -0.037017513
-0.07262074 0.063618496 0.09491326 -0.014432549 -0.08437287 -0.13560353 0.054679707 0.078873344
-0.086574316 -0.1228342 -0.10554974 0.080057405 -0.09425455 0.076747 -0.015830155 -0.13081266
0.027363405 0.06393374 -0.08550866 0.046388056 -0.13935043 -0.12926884 0.03358283 0.07819685
0.097903594 0.095921494 0.022351654 -0.05715939 -0.10108305 0.0046342993 0.07123859 0.06262157
0.023678994 -0.10245803 -0.13726547 -0.008855879 0.106466584 -0.027348468 -0.10057431 0.013073195
-0.010142134 0.076291464 0.09677766 0.12467541 0.0766117 0.1402357 0.11051587 0.12258064
0.08158307 0.10811064 0.09665647 0.02987625 0.10110173 0.09398333 0.051544923 -0.098538086
0.009390486 -0.11108991 -0.011898241 0.023909707 -0.13317052 0.10936047 -0.13145515 0.12788847
0.058725618 -0.111052535 0.09582821 0.135569 0.12651147 -0.102802336 0.05510424 0.0031867402
-0.025615474 -0.06803129 0.12966612 -0.016199715 0.0015429625 -0.041936167 -0.004409943 -0.010258645
0.08631058 0.10621627 0.09758635 0.104284994 -0.06685231 0.009728741 0.08250118 -0.101106025
0.13994624 0.0582558 -0.09121937 0.02589295 0.09972348 0.07507905 0.045609854 -0.05729864
-0.022964116 0.07274233 -0.04290101 -0.11083377 0.006904851 0.1379009 -0.07423959 -0.05486198
-0.108863816 0.089888304 -0.13415727 -0.09069596 0.089330584 0.06298626 -0.010126792 0.041386824
-0.025151588 -0.083959036 0.094510466 -0.030447694 0.07440391 0.016870642 0.10905535 0.0684711
0.041622188 0.122086 0.008391219 -0.04575828 0.13494083 0.07774602 -0.08282697 -0.037707675
0.03582174 -0.023021251 -0.12776753 0.043027315 0.07747279 0.00786703 0.03156339 0.09018733
0.06945519 0.11661614 -0.05669793 0.063334 0.089331515 -0.018804526 -0.0069977934 -0.12409348
0.08535243 0.0368953 0.060674116 -0.03829473 -0.09884574 -0.025257124 0.06153607 -0.13637748
-0.11166613 -0.059729017 0.036527798 0.07776984 -0.060743947 0.08941623 -0.12567432 0.13224901
-0.07176993 -0.07989434 0.022394156 -0.085684195 0.021455528 0.032571524 -0.13874373 -0.08143542
-0.010692993 0.036203977 -0.027401438 0.12654237 0.0110524725 0.03535367 -0.10259297 -0.043587666
0.01741083 -0.0112133045 0.0822926 -0.014430154 -0.13762318 0.09682973 0.082621604 -0.08098998

base.0.bias f4 [64]
00000000: e035 08be c0f2 e33d 53e3 993b 390a 6a3d
00000010: 82af 8a3d b134 a9bd a404 95bd 0048 dc3d
00000020: 8902 dabd db49 9a3a 1ca0 003d 17d5 a83c
00000030: b12c f73d b2fd 7e3d 7e01 22bd f96a d3bd
00000040: ae1e aebd 6200 20bd 4327 443c 950c 013e
00000050: aa4d d13d beb8 edbd 6e9a 483d 26b1 82bd
00000060: d6fe d2bd 4d1f 553c 19b9 de3d 5524 023e
00000070: 1ca7 4dbd b8b5 ef3d 2206 b83d 6be0 fbbd
00000080: aaff 593d 2c17 063e 307d 8b3d 7254 82bc
00000090: 5539 5fbd 4b56 c2bd f65b 07be 1b1a e0bd
000000a0: bbe1 5f3d 5ddb 0b3b aca3 41bd 6cf2 4e3b
000000b0: 5459 ff3d 7ba5 08be 6fca c53c f33c b03c
000000c0: cabc b9bd b8a3 bd3d c09c 4b3d 5874 903c
000000d0: d283 ae3c 3a9f 0f3e c41c 07bc 1ff8 04be
000000e0: 744d 053e c2b8 0fbe 3d6f f7bd e41c f23d
000000f0: db04 48bd dfea 5b3d 6cfc 88bd 1f10 9abc
-0.13301802 0.11130285 0.0046962886 0.057138655 0.06771757 -0.08262003 -0.07276276 0.107559204
-0.10645015 0.0011771278 0.031402692 0.020609422 0.12069071 0.06225366 -0.039552204 -0.10323138
-0.085019454 -0.039062865 0.011972251 0.12602456 0.10219891 -0.116075024 0.0489754 -0.06381445
-0.10302512 0.013007951 0.10875148 0.12709172 -0.050208196 0.11704582 0.08985545 -0.12298664
0.053222336 0.13094777 0.06810987 -0.015909407 -0.054498035 -0.09489115 -0.13218674 -0.10942479
0.054658633 0.0021340468 -0.04727523 0.00315776 0.1246821 -0.13344376 0.02414438 0.021513438
-0.09069212 0.092597425 0.049710035 0.017633602 0.021303091 0.14025584 -0.008246604 -0.12985276
0.13017827 -0.14035323 -0.12081764 0.11821917 -0.048832756 0.053690787 -0.06688771 -0.018806515

base.1.weight f4 [64]
00000000: 0000 803f 0000 803f 0000 803f 0000 803f
00000010: 0000 803f 0000 803f 0000 803f 0000 803f
00000020: 0000 803f 0000 803f 0000 803f 0000 803f
00000030: 0000 803f 0000 803f 0000 803f 0000 803f
00000040: 0000 803f 0000 803f 0000 803f 0000 803f
00000050: 0000 803f 0000 803f 0000 803f 0000 803f
00000060: 0000 803f 0000 803f 0000 803f 0000 803f
00000070: 0000 803f 0000 803f 0000 803f 0000 803f
00000080: 0000 803f 0000 803f 0000 803f 0000 803f
00000090: 0000 803f 0000 803f 0000 803f 0000 803f
000000a0: 0000 803f 0000 803f 0000 803f 0000 803f
000000b0: 0000 803f 0000 803f 0000 803f 0000 803f
000000c0: 0000 803f 0000 803f 0000 803f 0000 803f
000000d0: 0000 803f 0000 803f 0000 803f 0000 803f
000000e0: 0000 803f 0000 803f 0000 803f 0000 803f
000000f0: 0000 803f 0000 803f 0000 803f 0000 803f
1.0 1.0 1.0 1.0 1.0 1.0 1.0 1.0
1.0 1.0 1.0 1.0 1.0 1.0 1.0 1.0
1.0 1.0 1.0 1.0 1.0 1.0 1.0 1.0
1.0 1.0 1.0 1.0 1.0 1.0 1.0 1.0
1.0 1.0 1.0 1.0 1.0 1.0 1.0 1.0
1.0 1.0 1.0 1.0 1.0 1.0 1.0 1.0
1.0 1.0 1.0 1.0 1.0 1.0 1.0 1.0
1.0 1.0 1.0 1.0 1.0 1.0 1.0 1.0

base.1.bias f4 [64]
00000000: 0000 0000 0000 0000 0000 0000 0000 0000
00000010: 0000 0000 0000 0000 0000 0000 0000 0000
00000020: 0000 0000 0000 0000 0000 0000 0000 0000
00000030: 0000 0000 0000 0000 0000 0000 0000 0000
00000040: 0000 0000 0000 0000 0000 0000 0000 0000
00000050: 0000 0000 0000 0000 0000 0000 0000 0000
00000060: 0000 0000 0000 0000 0000 0000 0000 0000
00000070: 0000 0000 0000 0000 0000 0000 0000 0000
00000080: 0000 0000 0000 0000 0000 0000 0000 0000
00000090: 0000 0000 0000 0000 0000 0000 0000 0000
000000a0: 0000 0000 0000 0000 0000 0000 0000 0000
000000b0: 0000 0000 0000 0000 0000 0000 0000 0000
000000c0: 0000 0000 0000 0000 0000 0000 0000 0000
000000d0: 0000 0000 0000 0000 0000 0000 0000 0000
000000e0: 0000 0000 0000 0000 0000 0000 0000 0000
000000f0: 0000 0000 0000 0000 0000 0000 0000 0000
0.0 0.0 0.0 0.0 0.0 0.0 0.0 0.0
0.0 0.0 0.0 0.0 0.0 0.0 0.0 0.0
0.0 0.0 0.0 0.0 0.0 0.0 0.0 0.0
0.0 0.0 0.0 0.0 0.0 0.0 0.0 0.0
0.0 0.0 0.0 0.0 0.0 0.0 0.0 0.0
0.0 0.0 0.0 0.0 0.0 0.0 0.0 0.0
0.0 0.0 0.0 0.0 0.0 0.0 0.0 0.0
0.0 0.0 0.0 0.0 0.0 0.0 0.0 0.0

base.1.running_mean f4 [64]
00000000: b3ab 093d 0d71 f9bb 0ab9 e13d 1b9c bd3d
00000010: a393 0fbc ea11 db3d c0bd bcbd 9837 753c
00000020: 40d9 e6bd d0f1 af3d 4db1 2d3d d797 91bd
00000030: d07f cebb 7835 c2bd 3de4 86bd 83e5 d93b
00000040: d953 98bd eb64 e73c 50be 913c a42e 4a3d
00000050: bc7b b33d bd8c 91bd 257e d23d c394 7fbd
00000060: ddaa 6d3d 07bc 12be fa5b 5ebc 7129 303c
00000070: fb2d 4dbd 8004 d3bc 3def 733c 62e9 c73d
00000080: 1b42 b53d 8f66 bebd 2bf7 b03d d5db c83c
00000090: 9f29 c23d b1d0 3c3d 768c 8a3d edc3 96bc
000000a0: 72bc 073c f19d c63d 0f65 cebc e5fc 4fbc
000000b0: 222a 3a3d 3bec 013d 7264 05bd 5d03 c7bd
000000c0: ea03 003d fdfa cfbc 0fac 4c3d 98e2 eebd
000000d0: c4c7 1abc fa69 3bbd 8557 94bc f994 c8bd
000000e0: 8d64 ae3c 67bd 76bd d833 c0bc 3b87 bb3d
000000f0: 5766 a8bc af3f 23be 704a 32bd 00ee c6bd
0.03361101 -0.0076123537 0.110216215 0.092582904 -0.008763227 0.10696776 -0.092158794 0.014966868
-0.11271906 0.08591044 0.042405415 -0.07109039 -0.0063018575 -0.094828546 -0.06586502 0.0066496744
-0.07437868 0.028246364 0.017790943 0.049360886 0.08763835 -0.07106922 0.102779664 -0.06239773
0.058024276 -0.14329539 -0.013571734 0.010752068 -0.05009268 -0.025758982 0.014888582 0.09761311
0.08850499 -0.09296905 0.086408935 0.024518887 0.09480595 0.04609746 0.06765072 -0.018403972
0.008284675 0.09698094 -0.025194673 -0.012694572 0.045450337 0.031719428 -0.032566495 -0.09717438
0.031253733 -0.025388235 0.049968775 -0.11664313 -0.009447042 -0.045755364 -0.018108139 -0.09794039
0.02128818 -0.060239222 -0.023462221 0.091566525 -0.020556612 -0.15942262 -0.04352802 -0.09713364

base.1.running_var f4 [64]
00000000: 2a7f 663f 7b76 663f bbe3 663f 43aa 663f
00000010: c76e 663f a2d4 663f 35a5 663f 1173 663f
00000020: 85a5 663f 63ab 663f c77f 663f 71a6 663f
00000030: c16e 663f 28b7 663f 8686 663f ba6e 663f
00000040: 618c 663f 2b72 663f 5b6d 663f d371 663f
00000050: 6699 663f a77e 663f a5c8 663f 9c88 663f
00000060: 2f8e 663f d726 673f d46d 663f d56c 663f
00000070: dd78 663f 6271 663f d36e 663f 3fb7 663f
00000080: 139a 663f b1c0 663f 16a2 663f 6472 663f
00000090: e7bf 663f 968c 663f 7192 663f b16c 663f
000000a0: 116d 663f c1aa 663f 0b72 663f 8b6e 663f
000000b0: 6580 663f d476 663f e978 663f 7ea5 663f
000000c0: ad92 663f c779 663f be80 663f 89c1 663f
000000d0: 2a73 663f 6a7c 663f c470 663f f6a8 663f
000000e0: 8f71 663f 307a 663f ab73 663f a393 663f
000000f0: 9a72 663f 9142 673f 1077 663f b4b6 663f
0.90037787 0.90024537 0.9019124 0.9010355 0.9001278 0.901682 0.90095836 0.9001933
0.9009631 0.90105265 0.9003872 0.9009772 0.9001275 0.90123224 0.90049016 0.90012705
0.9005795 0.90017956 0.90010613 0.9001743 0.9007782 0.90037006 0.9014991 0.900522
0.90060705 0.9029364 0.90011334 0.90009815 0.9002817 0.9001676 0.90012854 0.9012336
0.9007885 0.90137774 0.90091074 0.90018296 0.9013657 0.9005827 0.900672 0.900096
0.9001017 0.901043 0.90017766 0.90012425 0.90039665 0.9002507 0.90028244 0.9009627
0.9006756 0.9002957 0.90040195 0.9013906 0.90019476 0.9003359 0.90015817 0.90101564
0.90017027 0.90030193 0.90020245 0.90069026 0.9001862 0.9033595 0.90025425 0.9012253

base.3.weight f4 [64, 64, 5, 5]
00000000: 1527 91bc 679c aa3c 87b0 ae3b 5390 9bbb
00000010: 4f02 aebc 1a4f 1dbb 1ab5 eb3a 0080 23bb
00000020: 5d69 923c 3db2 233c e75c 2d3b a7de 593b
00000030: bab4 b8bc fbb5 90bc cd52 b0b9 1a7e 4d3c
00000040: 073b c0bb 25ef 933c 0dfb cb3c 7018 7ebc
00000050: 3d98 a03c 558e 893c 67b8 fbb9 8702 343c
00000060: e713 69bb cdbc fd3b ca75 6dbc df90 c0bc
00000070: e7f3 5ebb 27f1 113c c33a 01bc 824e b1bc
00000080: 6d3b ad3c adcf 6ebc dac6 a83c 1d64 5fbc
00000090: e54e cabc c344 84bc 67da 72ba 6b18 b83c
000000a0: 0d27 6ebb 7a88 a63b 0ab3 b0bc bdc0 8dbc
000000b0: 93ea b73c d3d5 9a3c 82cd b23c 67c4 e0bb
000000c0: 8058 953b 1ae1 1d3b 0a01 703c 9529 c7bc
000000d0: 0088 ccb8 6340 323c a7de d7bb 402a 223b
000000e0: cde0 0fb9 93d2 90bc d3cc 823c 936b a23b
000000f0: adcb 2b3c 1a5d 293b ffa9 9bbc 4a2c 79bc
00000100: ed04 6abc 400c 933c 0df1 f3bb 4d8c 83bc
00000110: 238d 8e3c f306 a13c 5087 46bc 778f 7a3c
00000120: 5528 9bbc 6fc5 b83c 0851 813c 0d56 a33b
00000130: db1a 84bc 3a81 a1bb 0703 e43b 52c7 82bc
00000140: e076 943c 5da8 08bc 5015 9a3c 737c 433b
00000150: 00e5 bfba 6769 a2bc 0a6b 7ebc cd3c bb39
00000160: 5a6c 7a3b 4760 6dbc 33c0 7cbc ef6a c9bc
00000170: da94 773b 6a60 22bc 6ada 72bc d3f4 b43c
00000180: 7507 953c cacc 883c c0f9 3bbb 108f 233c
00000190: f0d6 783c 8253 b1bc 83f0 91bc 356f babc
000001a0: 9ac7 ae3c 98a1 bd3c dbed 8fbc 2758 9b3b
000001b0: a751 3ebc 4ac2 7cbc 53c1 c23c 93d2 b83c
000001c0: 5077 69bc 2758 693b 8519 afbc ca1c 3abc
000001d0: 1524 943c 604e 0fbc df4e bfbc c779 303c
000001e0: 1796 36bc 78ec b5bc 1084 423c efa1 a4bc
000001f0: 3a7b 843c d362 26bc f78a 473c 63c4 30bc
00000200: 62e1 a43c 67b1 64ba 97f3 993c 0348 293c
00000210: c0cb 28bc 27f1 bdbc b098 bc3c 47fa a7bc
00000220: 0094 cdb9 b05e 25bc c07b 623b 3b3e 983c
00000230: 40d7 62bb 5a97 4dbc eace c93c da1b c0bc
00000240: 97be 533c 8d57 2e3c 7069 903c 101d 8d3c
00000250: 17a6 2e3c d7a5 083c f2c4 aebc 3336 27bb
00000260: d5a5 ca3c 00a2 c5bc d0cc 1c3c b3b0 713c
00000270: 8755 a5bc 3792 b1bc 1378 aebc 00f2 aeba
00000280: 1df3 0bbc 1af1 aa3a 007e e6ba 704a 793c
00000290: 1a37 34bb c732 993c caee 7cbc e7d0 cb3a
000002a0: 5acf 593b 201f 0a3c 3da5 263c 2092 c8bb
000002b0: 17bf b93c 9aa2 a73a 9a26 b03c 00b6 be3a
000002c0: 175f 193c 3ac4 993c e709 973c 6f8f b23c
000002d0: 4099 42bb 9a5d eebb 1a63 86bb 40a0 073c
000002e0: 02a5 9a3c fd5e c4bc cfa6 c9bc f3f3 9fbc
000002f0: 7aa6 fc3b e73c e03a c81b cbbc 8a94 0f3c
00000300: a0c2 2cbc a7b0 0dbc f771 34bc 0730 993c
00000310: 4d84 fc3b 2a1e 7fbc b335 54bc 8022 ccbc
00000320: 7de5 2fbc eb0a 9dbc 4f23 8d3c 13e4 c43c
00000330: f039 823c 4da1 88ba cd1d 79ba ea5a 043c
00000340: 7a11 51bc bf4c ac3c 8d82 3c3b ed9a a93c
00000350: d373 c0bb 904c 4cbc cd21 39ba 423a 913c
00000360: cbfb ae3c 408a 8f3b b3e4 3cbc 77f3 b53c
00000370: 6036 14bc 2aaf 1bbc 0d9a d83b c06c 84bb
00000380: 9dab 1ebc 7784 cb3c 83cf 1c3c a7eb ce3b
00000390: cd57 68bc 3d7c 5cbc 203c a83c a7fa 65bc
000003a0: fafd 94bc 9dc6 69bc 37c4 6f3c a098 d53b
000003b0: 5a9c d13b 3a52 973c fd7d 8b3c da62 fabb
000003c0: 1a1a 8dbb 08b1 843c b8a9 9bbc 0de6 37bc
000003d0: b346 90bb 2d64 183c 87cd e43b 788a a6bc
000003e0: 630d 0bbc 1a85 0abc 722a 9d3c 8788 093c
000003f0: 2afd b5bc b20d afbc 2d47 9ebc 1a01 9abc
-0.017718831 0.020826532 0.0053311023 -0.0047474294 -0.021241335 -0.0024003447 0.001798305 -0.002494812
0.017872507 0.009991226 0.002645308 0.0033244283 -0.022547115 -0.0176649 -0.00033631027 0.012542272
-0.0058664116 0.018058369 0.024899984 -0.015508756 0.019603843 0.016791502 -0.0004801184 0.010986931
-0.0035564841 0.007743454 -0.014493415 -0.02350658 -0.003401989 0.008907593 -0.007887545 -0.02164388
0.0211465 -0.014575881 0.020602632 -0.013634709 -0.024695823 -0.01614607 -0.0009264112 0.02247258
-0.0036339194 0.0050821872 -0.021569747 -0.017303819 0.02245072 0.018900787 0.02182651 -0.0068593505
0.004557669 0.002409047 0.014648685 -0.02431182 -9.75281e-05 0.010879609 -0.0065878215 0.0024744421
-0.00013721288 -0.017678535 0.015966808 0.0049566715 0.010485572 0.0025842846 -0.019001959 -0.015208313
-0.014283401 0.017950177 -0.007444507 -0.016058112 0.017401284 0.019656634 -0.012117222 0.015292994
-0.01894013 0.022555081 0.015785709 0.0049846233 -0.016126087 -0.004928735 0.0069583687 -0.015964184
0.01812309 -0.008340922 0.01880899 0.0029828816 -0.0014640391 -0.01982565 -0.01552845 0.0003571272
0.0038211555 -0.014488286 -0.015426683 -0.024587123 0.0037777931 -0.009910682 -0.014822582 0.022089398
0.018192032 0.016699214 -0.0028682798 0.009982839 0.015187964 -0.021646265 -0.01781488 -0.022758106
0.021335412 0.023148343 -0.017569473 0.004740733 -0.011616147 -0.0154271815 0.023773825 0.022561347
-0.014249638 0.0035605521 -0.021374473 -0.011359403 0.018083612 -0.008746713 -0.023353038 0.0107712215
-0.011144183 -0.022207484 0.0118723065 -0.020096747 0.01617204 -0.0101553975 0.012179128 -0.01078901
0.020127002 -0.0008723945 0.01879291 0.01033211 -0.010302484 -0.02318628 0.023022026 -0.020505084
-0.00039210916 -0.010093376 0.0034558624 0.018584361 -0.0034613162 -0.012548292 0.024634797 -0.02345078
0.012923858 0.010640991 0.017628402 0.017225772 0.010659716 0.008340321 -0.021334145 -0.0025514483
0.024737278 -0.0241251 0.0095703155 0.014751601 -0.020182384 -0.021676166 -0.02129749 -0.0013347268
-0.008541849 0.0013041825 -0.0017585158 0.015215501 -0.0027498663 0.01870097 -0.015437791 0.0015549929
0.0033235163 0.008430272 0.010171232 -0.006120935 0.022674127 0.0012789548 0.021502782 0.001455009
0.00936105 0.018770326 0.018437339 0.02179691 -0.0029693395 -0.007274342 -0.0041011693 0.008277953
0.01887751 -0.023971075 -0.024615673 -0.019525504 0.0077102752 0.0017107994 -0.02479352 0.008763442
-0.010544449 -0.008648074 -0.011013499 0.018699659 0.007706201 -0.0155711565 -0.012952256 -0.024918795
-0.010735867 -0.019170245 0.01722875 0.024034536 0.015896767 -0.0010424048 -0.0009503037 0.008078316
-0.012760514 0.02103269 0.0028764338 0.020703757 -0.0058731823 -0.012469426 -0.00070622267 0.017727975
0.021360299 0.0043804944 -0.0115291355 0.02221082 -0.009046167 -0.009502212 0.006610161 -0.0040412843
-0.0096844705 0.024843438 0.009570959 0.006314713 -0.01418109 -0.013457355 0.020536482 -0.014036811
-0.018187512 -0.0142685445 0.014634184 0.0065184385 0.0063968124 0.018471826 0.01702785 -0.0076411786
-0.00430609 0.016197696 -0.019001827 -0.011224282 -0.0044029593 0.0093012275 0.0069825086 -0.020329699
-0.008487078 -0.008454585 0.019185279 0.008394367 -0.022215445 -0.021368835 -0.019321049 -0.018799353

base.3.bias f4 [64]
00000000: 27f1 c33c 8d9e 37bc 9aa5 05b9 a31e c0bc
00000010: 1a71 78bb d3a7 31bc 4d1e f6ba cdf0 ce3a
00000020: e39e 0c3c b374 f73b da3a 26bc a25d 85bc
00000030: bd82 65bc 0adb 4c3c 00b3 a53b a754 bd3b
00000040: 2afe 143c e00a a63b 80fb 983b d7a2 4a3c
00000050: b355 96bc f04b bbbc 6fa9 b93c 4b87 823c
00000060: a39f 53bc 5d99 52bc f3af 0d3b fdcb 4bbc
00000070: 1d67 723c 57e2 2bbc f31a 513c bae5 5abc
00000080: ab40 8a3c 2742 61bb 2002 8a3c 853e a1bc
00000090: ab05 ae3c b782 123c 200e e43b 937c cf3b
000000a0: 1a5a 913c ea6e 1abc d780 113c f8c9 adbc
000000b0: 33cc cbbb c0af 2fbc f7b1 c0bc cd82 eaba
000000c0: 7220 b3bc 008d 473b d765 783c 5a67 053b
000000d0: 2df2 0cbc 8054 7c3c 7df6 18bc cdf8 9c3a
000000e0: 0766 81bc bfaa 943c bd14 3e3c 13f2 073c
000000f0: a748 c6bc 3bf1 a4bc 070f fbbb 9a02 40ba
0.023918701 -0.011207235 -0.0001274556 -0.023452109 -0.003790921 -0.010843235 -0.0018777341 0.0015788317
0.008582803 0.0075517534 -0.010145867 -0.01628 -0.014008221 0.012503395 0.005056739 0.0057779136
0.009093801 0.0050672144 0.004668653 0.012367926 -0.018351411 -0.022863358 0.0226638 0.015933653
-0.012916478 -0.0128539475 0.0021619766 -0.012438771 0.014795092 -0.010490975 0.012762773 -0.013360435
0.01687654 -0.0034371705 0.016846716 -0.019683132 0.021242937 0.008942298 0.0069596916 0.006331989
0.01774316 -0.009425858 0.0088808155 -0.02121447 -0.006219411 -0.010723054 -0.02352236 -0.0017891765
-0.021866057 0.0030449033 0.015160999 0.0020355792 -0.008602661 0.015401006 -0.009336111 0.0011976004
-0.01579572 0.018147824 0.011601624 0.008297461 -0.024204565 -0.020134559 -0.0076617035 -0.00073246064

base.4.weight f4 [64]
00000000: 0000 803f 0000 803f 0000 803f 0000 803f
00000010: 0000 803f 0000 803f 0000 803f 0000 803f
00000020: 0000 803f 0000 803f 0000 803f 0000 803f
00000030: 0000 803f 0000 803f 0000 803f 0000 803f
00000040: 0000 803f 0000 803f 0000 803f 0000 803f
00000050: 0000 803f 0000 803f 0000 803f 0000 803f
00000060: 0000 803f 0000 803f 0000 803f 0000 803f
00000070: 0000 803f 0000 803f 0000 803f 0000 803f
00000080: 0000 803f 0000 803f 0000 803f 0000 803f
00000090: 0000 803f 0000 803f 0000 803f 0000 803f
000000a0: 0000 803f 0000 803f 0000 803f 0000 803f
000000b0: 0000 803f 0000 803f 0000 803f 0000 803f
000000c0: 0000 803f 0000 803f 0000 803f 0000 803f
000000d0: 0000 803f 0000 803f 0000 803f 0000 803f
000000e0: 0000 803f 0000 803f 0000 803f 0000 803f
000000f0: 0000 803f 0000 803f 0000 803f 0000 803f
1.0 1.0 1.0 1.0 1.0 1.0 1.0 1.0
1.0 1.0 1.0 1.0 1.0 1.0 1.0 1.0
1.0 1.0 1.0 1.0 1.0 1.0 1.0 1.0
1.0 1.0 1.0 1.0 1.0 1.0 1.0 1.0
1.0 1.0 1.0 1.0 1.0 1.0 1.0 1.0
1.0 1.0 1.0 1.0 1.0 1.0 1.0 1.0
1.0 1.0 1.0 1.0 1.0 1.0 1.0 1.0
1.0 1.0 1.0 1.0 1.0 1.0 1.0 1.0

base.4.bias f4 [64]
00000000: 0000 0000 0000 0000 0000 0000 0000 0000
00000010: 0000 0000 0000 0000 0000 0000 0000 0000
00000020: 0000 0000 0000 0000 0000 0000 0000 0000
00000030: 0000 0000 0000 0000 0000 0000 0000 0000
00000040: 0000 0000 0000 0000 0000 0000 0000 0000
00000050: 0000 0000 0000 0000 0000 0000 0000 0000
00000060: 0000 0000 0000 0000 0000 0000 0000 0000
00000070: 0000 0000 0000 0000 0000 0000 0000 0000
00000080: 0000 0000 0000 0000 0000 0000 0000 0000
00000090: 0000 0000 0000 0000 0000 0000 0000 0000
000000a0: 0000 0000 0000 0000 0000 0000 0000 0000
000000b0: 0000 0000 0000 0000 0000 0000 0000 0000
000000c0: 0000 0000 0000 0000 0000 0000 0000 0000
000000d0: 0000 0000 0000 0000 0000 0000 0000 0000
000000e0: 0000 0000 0000 0000 0000 0000 0000 0000
000000f0: 0000 0000 0000 0000 0000 0000 0000 0000
0.0 0.0 0.0 0.0 0.0 0.0 0.0 0.0
0.0 0.0 0.0 0.0 0.0 0.0 0.0 0.0
0.0 0.0 0.0 0.0 0.0 0.0 0.0 0.0
0.0 0.0 0.0 0.0 0.0 0.0 0.0 0.0
0.0 0.0 0.0 0.0 0.0 0.0 0.0 0.0
0.0 0.0 0.0 0.0 0.0 0.0 0.0 0.0
0.0 0.0 0.0 0.0 0.0 0.0 0.0 0.0
0.0 0.0 0.0 0.0 0.0 0.0 0.0 0.0

base.4.running_mean f4 [64]
00000000: f7b0 603c b398 adbc a880 203b 7396 3c3b
00000010: 6d3a 6f3c 5f2a 77bb 0301 1cbc 9aa3 7fbc
00000020: d341 6f3b 729c 053c 3f29 28bb fbc3 5a3b
00000030: afd4 d0bc a51e ecbb 7aaa 5abc e58e 8bba
00000040: c573 0bbc 4295 31bc f149 b13b fba0 0b3c
00000050: f85f f7b9 a050 dcbb 713e 1abb f6c8 a63c
00000060: 2252 37bc e821 7a3b 432c 87bc 4719 3dbc
00000070: b036 ff3b 8563 b8bb fdfc 00bc e965 10bc
00000080: 274d 313c 9216 8a3a 41c8 1ebb 6b7c d93a
00000090: ee33 0d3b 5cf1 973b a70e 703b 0d77 c0bb
000000a0: f881 ce3b 03bf 743b 33ec 2bbb c308 743b
000000b0: 5fe4 8c3b 8af3 753b bce9 9dbc fcc9 b33b
000000c0: f21f c03b 5dcb 623c 2787 11ba 9be5 68bb
000000d0: 1588 653c 6ee8 15bb e0eb 72bc d7bc 62bc
000000e0: d3d2 15ba 1f6f 1dbb 1521 5a3c 0e6a ab3b
000000f0: 0cde 933b 75eb 19ba 2029 6d3c 8374 013b
0.013714067 -0.021190977 0.0024490748 0.0028776198 0.014601332 -0.0037714464 -0.009521726 -0.0156029705
0.003650774 0.008154975 -0.002565935 0.0033380974 -0.02549204 -0.0072058016 -0.013346309 -0.0010647444
-0.008511488 -0.0108388085 0.005410426 0.008522267 -0.00047183014 -0.0067234784 -0.0023535753 0.020359498
-0.011189016 0.0038167182 -0.016500598 -0.011541671 0.0077885017 -0.005627098 -0.007872817 -0.00881336
0.010821617 0.0010535291 -0.0024228247 0.0016592866 0.0021545845 0.0046369266 0.0036629827 -0.005873567
0.0063021146 0.0037345297 -0.0026233315 0.0037236668 0.004299685 0.0037529194 -0.019276492 0.005486725
0.005863183 0.013842431 -0.00055514503 -0.0035537246 0.014009495 -0.0022874135 -0.014826745 -0.013838968
-0.0005715314 -0.0024022532 0.013313551 0.0052311486 0.004512554 -0.00058715726 0.014475137 0.0019753284

base.4.running_var f4 [64]
00000000: d3eb 673f fa61 673f 40b1 673f c7ac 673f
00000010: f613 673f 88c7 673f 4447 673f f5a0 683f
00000020: c4d7 673f 0ea7 673f c421 673f ecef 673f
00000030: ecff 6b3f 3e70 683f 8575 673f c2a0 673f
00000040: 5da0 673f e5d3 693f 5cc8 693f 2d42 683f
00000050: 36e1 673f 9fbf 663f 30a9 673f 06ea 683f
00000060: 09f2 673f 22ea 663f b98f 673f fe0f 693f
00000070: 3b88 673f 12c4 6a3f fc54 683f b259 683f
00000080: ec82 673f 917f 673f a526 6b3f 5d62 673f
00000090: 1527 673f bf92 673f 7b5a 693f 916a 673f
000000a0: 7aa5 663f f611 683f a321 683f 2b74 673f
000000b0: bc1c 693f 0402 683f d276 673f ddd3 663f
000000c0: fbdc 673f f8ee 663f b12d 683f d46b 673f
000000d0: 7895 673f 535a 683f dd26 683f 3f8c 683f
000000e0: 38e2 673f ac16 683f 7ef3 683f 4dce 663f
000000f0: a86b 673f 8e86 673f 5f15 683f f145 693f
0.90594214 0.90383875 0.9050484 0.9049801 0.9026483 0.90538836 0.9034312 0.908706
0.9056361 0.9048928 0.902859 0.90600467 0.9218738 0.9079627 0.90413696 0.9047967
0.9047907 0.9133895 0.9132135 0.90725976 0.9057802 0.9013614 0.90492535 0.9098209
0.9060369 0.9020101 0.9045368 0.9104003 0.90442246 0.9170543 0.90754676 0.90761864
0.90434146 0.90429026 0.9185584 0.90384465 0.9029401 0.9045829 0.9115369 0.9039698
0.9009625 0.90652406 0.90676326 0.90411633 0.9105947 0.90628076 0.9041568 0.9016703
0.90571564 0.9020839 0.9069472 0.9039891 0.90462446 0.90762824 0.906843 0.90839
0.9057956 0.90659595 0.9099654 0.9015854 0.90398645 0.9043969 0.9065761 0.9112235

base.6.weight f4 [32, 64, 5, 5]
00000000: 771c a9bc 7313 fb3b a069 813b 439d 27bc
00000010: 1a3a 693b 4ff0 9abc dd5b 51bc a7be ebbb
00000020: 7749 9b3c 2f47 bdbc 67a3 39bb 3bfd 87bc
00000030: d39f ed3b 8af3 3e3c 634b 8a3c 0766 a33b
00000040: 52c5 aabc 0092 b13c 2aa4 90bc 7d87 babc
00000050: 9ab1 493b a094 d1bb 2d28 ca3c 9d5a cabc
00000060: 7d6a c7bc c70e 3f3c b3eb 2f3b 52af 813c
00000070: 3aab 99bb fa27 3c3c 2066 303c adb7 d33b
00000080: 0d49 3b3c 5b63 c93c 0f2a b33c b5e3 ba3c
00000090: aa39 07bc 40d0 24bc b37a 293b 2abc 023c
000000a0: 2ddb 2ebc e79c d1ba 5017 703c da9f b5bb
000000b0: ebe1 8e3c d04d c13c e7ca 47bb 4a9a c13c
000000c0: 2364 853c 7adb 8c3c c0b0 46bc 0015 d7bb
000000d0: dad5 3fbc b08a be3c 8a82 563c b0e8 463c
000000e0: c2b1 98bc 00df 233b 808f a9ba e792 fe3b
000000f0: 80bc 58bb 7a14 093c 6d7b 98bc 3704 053c
00000100: 1a53 19bc 8790 00bc 3350 403c 5385 e9bb
00000110: d3b2 b9bc 73ef 643c cd95 263a 0d05 a83c
00000120: 4d8a 18bb bac5 3f3c 5035 0abc 6553 a7bc
00000130: dac9 113c abf6 9abc d32b 8bbc 8880 b8bc
00000140: 80ee 5bbb 6b0b 9fbc 1d09 2a3c 9b49 83bc
00000150: bd84 293c 9a18 243a 374b 09bc 6785 33bb
00000160: 330f ba3a e735 153b fd48 643c c0fb cc3b
00000170: fd7d 45bc 2f81 8dbc 73d3 ce3b 3a71 e6bb
00000180: daa8 9bbc 3367 53b9 3dd1 6c3c 5801 9cbc
00000190: c764 33bc faf2 ae3b 6704 653a 67d9 d2bb
000001a0: f07c 54bc 7d03 5dbc 80bb be3a 67dd da3b
000001b0: 67ba 323a 7f11 8fbc da8d 053b 4d46 50bb
000001c0: 336f a7bc 40af ad3b 0d93 473c e341 1fbc
000001d0: 6084 06bc a3f2 a8bc f878 bbbc 5d79 c43c
000001e0: a007 783c f7d6 abbc 13b9 6a3c 2b58 a23c
000001f0: 775e 363c 10ba 9cbc cbcc a13c d036 3bbc
00000200: e7a1 5b3b da87 b43c 7d96 093c 906e b8bc
00000210: e7ec 4bbb d38a 783c 678e db3a 2283 8f3c
00000220: f877 ccbc 4db4 42bb 9da8 3ebc 4d16 b53a
00000230: ea81 b33c 33c7 06bc 2794 9c3b af52 c8bc
00000240: c27a abbc 7b78 91bc 67b0 e7bb fa76 de3b
00000250: ba99 85bc f0ec c1bc aa30 a13c 202d 813b
00000260: 338d c9bc 7321 d9bb cdf7 a9bb af28 bebc
00000270: a7b0 91bb e708 7dbb a074 8e3c 8d5d 0fbb
00000280: 206d 923c 405c 74bc 3bf9 983c 4014 883b
00000290: 7367 283c dfc4 bcbc d32e df3b 7375 4cbb
000002a0: 3000 a43c 700b c1bc 00c6 f2b9 2702 b73b
000002b0: 805e 21bb ef8e 9b3c a0d5 e8bb ed45 623c
000002c0: 1708 353c 7a6c 163c 4016 413c bd0f 41bc
000002d0: 6bf4 a93c 67e6 28ba 032e 7b3c 8af7 b53c
000002e0: 1768 ccbc 9b7f 95bc 102e 9c3c dac5 2dbb
000002f0: db7f 96bc b3d8 6c3b f28d ab3c 0033 dfbb
00000300: ed5c 3bbc 676a 45bb eac6 49bc 2ddf c5bc
00000310: 7235 cbbc edf8 6d3c c748 41bc b00c cc3c
00000320: ba63 d13b 5a51 0e3b c00a 3e3b d7f0 59bc
00000330: cdf7 2f3c 2d8d 8dbb e0fe 78bc 130c 38bc
00000340: a7de dc3b b359 b7bb cd21 d1ba 234b 63bc
00000350: daa0 72bb 787a 893c 0ae6 99bc c38e 1bbc
00000360: 305f 61bc 6a74 a93c 5dd5 153c ed89 afbc
00000370: 677c 9eb9 20ae 56bc e3f4 64bc 1d76 353c
00000380: dac3 b83c ba04 ef3b da7d 683b 2a09 0ebc
00000390: aa38 69bc 1d62 523c 5fa1 bbbc 4fbd 95bc
000003a0: 7d06 04bc a07f b3bc bd6c 4d3c 1acd 5f3c
000003b0: 008e 393c 40af 4b3c 8d71 723b e752 013b
000003c0: 1a54 33bb c036 4c3b ea97 9f3c fa43 debb
000003d0: 88e7 aabc d23c a0bc a3c2 b93c c373 0fbc
000003e0: 9ac1 cd3a 83ab 93bc 7a2b 923b 3dbf 713c
000003f0: 732f e53b 0794 b13c 20fc 783c b868 b33c
-0.020643456 0.0076622306 0.003949359 -0.010230365 0.003558761 -0.018913416 -0.01277825 -0.0071943584
0.01895593 -0.023105232 -0.0028326155 -0.016600242 0.0072517185 0.011654744 0.01688165 0.004986528
-0.020846043 0.021676064 -0.017656405 -0.022769684 0.0030776025 -0.0063958913 0.02467736 -0.02470141
-0.02434277 0.011661238 0.0026843369 0.01583067 -0.0046896012 0.0114841405 0.010766536 0.006461105
0.011430991 0.02458351 0.021870641 0.022813657 -0.008253494 -0.010059416 0.0025860488 0.007979432
-0.010672373 -0.0015992195 0.014653996 -0.0055427374 0.01744171 0.023596674 -0.003048593 0.023633141
0.0162831 0.017194498 -0.012127101 -0.0065637827 -0.011708701 0.02325949 0.013092646 0.012140438
-0.018639449 0.0025004745 -0.0012936443 0.007768977 -0.003307134 0.008366698 -0.018613541 0.008118681
-0.009358192 -0.007846958 0.011737871 -0.007126489 -0.022668278 0.013973105 0.00063547195 0.02051022
-0.0023275793 0.0117048565 -0.008435562 -0.020425508 0.008898223 -0.018916449 -0.01698867 -0.022522226
-0.0033558905 -0.019414624 0.010378149 -0.016026309 0.010346589 0.00062597694 -0.008379749 -0.0027392746
0.0014195204 0.0022767724 0.013933417 0.006255597 -0.012053964 -0.017273514 0.006311828 -0.0070325406
-0.019001413 -0.00020160973 0.014454183 -0.01904361 -0.01094932 0.0053390237 0.0008736313 -0.006434608
-0.012969241 -0.013489601 0.0014551729 0.0066792252 0.0006817937 -0.017464397 0.002037874 -0.0031780184
-0.020438766 0.0053004324 0.012181056 -0.009720298 -0.008210272 -0.02062351 -0.02288483 0.023983652
0.015138537 -0.020976527 0.014326352 0.019817432 0.011130921 -0.01913169 0.019750973 -0.011426643
0.003351325 0.022037435 0.008397696 -0.022513658 -0.0031116547 0.015169817 0.0016750813 0.017518584
-0.02495955 -0.0029709518 -0.01163688 0.001381585 0.021912534 -0.008226204 0.0047784033 -0.02445349
-0.020932559 -0.017757645 -0.0070705893 0.0067890855 -0.016308654 -0.02367255 0.019676525 0.003942147
-0.024603462 -0.006626302 -0.005187011 -0.023212759 -0.0044461074 -0.0038610043 0.017389596 -0.002187583
0.0178743 -0.014914572 0.01867353 0.0041528046 0.0102785705 -0.023043094 0.006811002 -0.0031197935
0.02001962 -0.023565024 -0.00046305358 0.0055849734 -0.0024622977 0.018989054 -0.007105544 0.013810617
0.011049292 0.009181136 0.01178509 -0.011783537 0.02074643 -0.0006443024 0.015330794 0.022212762
-0.024951978 -0.018249324 0.019064933 -0.0026515634 -0.018371513 0.0036139905 0.020941708 -0.0068114996
-0.011435729 -0.0030123235 -0.012315491 -0.02415427 -0.024805758 0.014524681 -0.011797137 0.024908394
0.006390062 0.002171597 0.0028998107 -0.01330205 0.010740233 -0.004319808 -0.015197486 -0.0112333475
0.0067404094 -0.00559541 -0.0015955508 -0.013872894 -0.0037022145 0.01678203 -0.018786449 -0.009494486
-0.013755605 0.020685393 0.009145108 -0.021428073 -0.00030228795 -0.013103038 -0.013974401 0.011075524
0.022554327 0.0072942646 0.0035475404 -0.008669177 -0.014234701 0.012840775 -0.022904096 -0.018278746
-0.008058188 -0.021911442 0.012538132 0.01365974 0.011325359 0.01243192 0.003699395 0.0019733252
-0.002736336 0.0031160563 0.019481618 -0.006783006 -0.020862356 -0.019560251 0.022675818 -0.008755627
0.0015697957 -0.01802612 0.004460749 0.014755067 0.006994182 0.02167703 0.01519683 0.02190052

base.6.bias f4 [32]
00000000: d251 b73c ba16 ee3b cd3f c63a 2739 8e3b
00000010: 6dd9 f33b b0cb 1abc f5fa b0bc 3ae5 a23c
00000020: 3b31 c8bc 67fb 623b 00cc 4fba 8de6 803b
00000030: 5f8a c13c f062 bf3c 4ac9 423c a203 aabc
00000040: 33f3 60b7 8d56 8ebc c774 a8bc 1559 bf3c
00000050: af29 9c3c 5076 9dbc 7512 9cbc 60ac 1abc
00000060: 7ba8 95bc 904f 89bc 00ba bf3a 3a1e 9a3c
00000070: 2339 223c 4d4d 7c3b 778c b1bc 3321 8e39
0.022377882 0.007265893 0.0015125215 0.004340309 0.0074416907 -0.009447977 -0.02160404 0.019884694
-0.024437537 0.003463471 -0.00079268217 0.003933734 0.02362555 0.023362607 0.011888811 -0.020753685
-1.3408065e-05 -0.017375255 -0.020563496 0.023357907 0.019062845 -0.019221455 -0.01905177 -0.009440511
-0.018268814 -0.016761571 0.0014627576 0.018813241 0.009901318 0.0038498223 -0.021673424 0.00027109086

base.7.weight f4 [32]
00000000: 0000 803f 0000 803f 0000 803f 0000 803f
00000010: 0000 803f 0000 803f 0000 803f 0000 803f
00000020: 0000 803f 0000 803f 0000 803f 0000 803f
00000030: 0000 803f 0000 803f 0000 803f 0000 803f
00000040: 0000 803f 0000 803f 0000 803f 0000 803f
00000050: 0000 803f 0000 803f 0000 803f 0000 803f
00000060: 0000 803f 0000 803f 0000 803f 0000 803f
00000070: 0000 803f 0000 803f 0000 803f 0000 803f
1.0 1.0 1.0 1.0 1.0 1.0 1.0 1.0
1.0 1.0 1.0 1.0 1.0 1.0 1.0 1.0
1.0 1.0 1.0 1.0 1.0 1.0 1.0 1.0
1.0 1.0 1.0 1.0 1.0 1.0 1.0 1.0

base.7.bias f4 [32]
00000000: 0000 0000 0000 0000 0000 0000 0000 0000
00000010: 0000 0000 0000 0000 0000 0000 0000 0000
00000020: 0000 0000 0000 0000 0000 0000 0000 0000
00000030: 0000 0000 0000 0000 0000 0000 0000 0000
00000040: 0000 0000 0000 0000 0000 0000 0000 0000
00000050: 0000 0000 0000 0000 0000 0000 0000 0000
00000060: 0000 0000 0000 0000 0000 0000 0000 0000
00000070: 0000 0000 0000 0000 0000 0000 0000 0000
0.0 0.0 0.0 0.0 0.0 0.0 0.0 0.0
0.0 0.0 0.0 0.0 0.0 0.0 0.0 0.0
0.0 0.0 0.0 0.0 0.0 0.0 0.0 0.0
0.0 0.0 0.0 0.0 0.0 0.0 0.0 0.0

base.7.running_mean f4 [32]
00000000: 98e8 e53c 6b97 09bb e126 903c c7a1 d9bc
00000010: fa17 313c a782 523c 9645 813c 0ff1 12bc
00000020: fbdc 993c fd7f c93a 685b 28bc 9557 85bc
00000030: fa60 62bc f36c 183a 4586 6a3b d446 aebc
00000040: b71a d7bb a0ea d3bb 6ae2 dd3c cddf 1ab9
00000050: 8095 f03b ee9f 02bc 8343 2bbc aaf1 f2bc
00000060: 6308 98bc 7f3b 21bc 7018 c0bc a211 bdbb
00000070: e0f9 d3bb 37a0 85bc c4fa 98bb c372 58bb
0.02806501 -0.0020994793 0.017596664 -0.0265664 0.010808939 0.012848533 0.015780251 -0.008968606
0.01878213 0.0015373226 -0.010275699 -0.016277114 -0.013817066 0.00058145745 0.0035785597 -0.021274008
-0.006564464 -0.0064671785 0.027085502 -0.00014769957 0.0073420405 -0.0079727005 -0.010453108 -0.02965625
-0.018558687 -0.009840845 -0.023449153 -0.0057699243 -0.0064689964 -0.016311748 -0.0046685655 -0.0033027388

base.7.running_var f4 [32]
00000000: 46ae 683f 0794 683f 1882 693f 4b66 6b3f
00000010: 388c 673f 8cff 673f 7fe3 6d3f 5a5c 693f
00000020: 28ce 683f 98dd 673f f15a 6a3f 8683 673f
00000030: 8c5f 693f 22d4 673f 21a7 693f f5e3 693f
00000040: ca5b 673f 68fd 6a3f ee18 6b3f fb40 683f
00000050: b0f7 683f c4b8 683f dd7c 6a3f 0eba 6d3f
00000060: 8e02 673f 52ca 6b3f e947 683f 7e5d 683f
00000070: 1b23 6a3f b72e 683f 84e3 663f c9ca 673f
0.9089092 0.9085087 0.9121413 0.9195296 0.9044833 0.9062431 0.92925256 0.9115654
0.9093957 0.905725 0.91545016 0.90435064 0.9116142 0.90558064 0.91270643 0.9136346
0.90374434 0.9179292 0.91834915 0.9072415 0.9100294 0.9090693 0.91596776 0.9286202
0.90238273 0.9210559 0.90734726 0.9076766 0.91459817 0.9069628 0.9019091 0.905438

head.0.weight f4 [24, 1024]
00000000: 54b5 36bc cc54 e13c 88ed 42bc 4ef0 96bc
00000010: 1030 a4bc 6868 e5bc 004f e63b 5cb3 ca3c
00000020: b840 94bb f862 a9bc 0821 393c 3e1c d9bc
00000030: 0022 9dbc 80e8 50bb 0a3f f0bc 5e2b 8dbc
00000040: 3892 023c 2036 32bb deea b03c 1ea5 c7bc
00000050: b405 623c d809 a8bb 30f6 a9bc 9476 dcbc
00000060: b0bc 563b fa4a 9a3c 70fb bb3c 0037 b2bb
00000070: cc59 b8bc 3654 a83c a03c 34bb 4ec4 be3c
00000080: a002 0f3b e0b5 7f3c deb0 86bc bc89 6dbc
00000090: 38b9 fbbc 26a7 ea3c c2e6 ddbc e0c9 f2bb
000000a0: 8046 00ba 00dd 263a 62ba b93c 74f6 a93c
000000b0: 801c 433a b26e ac3c 407e 5f3b 26a2 96bc
000000c0: 907f 14bc f8ea fb3c c013 73bc 280e 813b
000000d0: fc21 ff3c f09e a6bc 4897 803c 622e 9ebc
000000e0: 20cd cabb 3425 fbbc d06c bd3c 20a6 713b
000000f0: c2d2 a9bc 9e0d a1bc 788c e53c 2e3f fc3c
00000100: f407 60bc eae1 fe3c b6ec 9b3c a04a 1c3c
00000110: de29 d03c 800b e2bc a432 cb3c 467a dc3c
00000120: f612 f4bc 446a a73c 7076 cb3c 92f5 99bc
00000130: 8ef6 893c 1e3d debc 2c3a 6ebc 647a c33c
00000140: 324b ef3c e011 66bc 8063 afb9 0c84 15bc
00000150: 5cbe d4bc ec71 573c 301f bcbb 1c8d 293c
00000160: bcb7 ba3c 3e60 823c 92d4 fbbc a04d 04bc
00000170: 0ed1 8f3c 4e42 f73c f4cb d13c 409a e53c
00000180: 807e 88b9 f0ae a8bc e468 81bc 8ae1 a4bc
00000190: 9a86 ff3c a860 81bb 0483 d23c 38e5 9b3b
000001a0: 70df 1dbc 3e6c b93c 1890 1bbc 3045 c43c
000001b0: 4c0b 26bc 60c5 4c3b 6094 973c 6c1f 6cbc
000001c0: b42a 1fbc 1855 d2bc 1803 27bc e456 7f3c
000001d0: 5c7e c6bc bcd2 03bc 2246 a2bc 6039 183b
000001e0: 9036 443b 8093 9eba dc21 7e3c c086 f1bc
000001f0: fc21 01bc 4cfe 58bc 58cc 43bc c04d ba3c
00000200: a09c aebc 882e b7bb f843 f53c 9e66 debc
00000210: b073 7b3b f0f5 7bbb 1e79 d6bc ea89 9ebc
00000220: b09d 3d3c 5089 fd3c c049 443c b0b8 fabc
00000230: aa14 a0bc 28a9 c4bc 8e72 c6bc 505c ccbb
00000240: a886 f23b e4c5 f4bc 0a19 dfbc c0e9 81ba
00000250: 20e2 cdba 5cd5 d73c a4bb 66bc f4d4 403c
00000260: 1433 69bc f00c 6f3b eee1 f7bc b008 ec3c
00000270: 3489 293c ca1d e9bc 8e06 993c fa1d 8d3c
00000280: 3a55 a0bc 0091 3ebc 6894 413c 3624 c1bc
00000290: 303a 39bb 344a 343c 808d ca39 a2f2 89bc
000002a0: e82a e3bc 3891 bf3c 466e b7bc 242d a0bc
000002b0: 6224 de3c 40f9 e1bc 78d6 30bc c214 e2bc
000002c0: 6c72 f63c c4d6 ccbc 14a1 bb3c 046f d8bc
000002d0: aac4 d5bc 6aa6 f53c 64a7 f8bc 7626 a33c
000002e0: 8043 56ba 7c9a 78bc e0bb d23a 3ab6 d6bc
000002f0: 9ef9 d73c c0e9 2fba f8df 5abc b813 0abc
00000300: deb9 853c b8cd fbbb 9ebe bebc f073 72bc
00000310: 98e8 a5bb 9a8d b13c fe91 b63c 501a e43c
00000320: 72d6 8ebc 9605 9ebc e8a8 af3c 8ae8 a0bc
00000330: 802d f4b9 b442 8b3c a8e4 2bbc 00d5 78b9
00000340: b45f a63c 20d5 273c 5418 6bbc 40fd 6a3b
00000350: 7c14 9b3c e68c e4bc e014 43bc ec14 81bc
00000360: 74bc 85bc 3226 d1bc f43e 6bbc bcfe 6f3c
00000370: 5ccc 153c 0801 69bc ce38 af3c 20ac 333b
00000380: 40e8 59bb 7028 54bc 286f e3bb 0add b23c
00000390: f0f8 37bc 7acc 8b3c 6a14 c63c 6ce7 d53c
000003a0: 9015 ae3b 769c debc d024 18bc a048 87bc
000003b0: 34cf abbc 840f 333c e4de debc f499 833c
000003c0: 802f e63b c6b3 b63c f019 3ebb f6c5 943c
000003d0: f2a3 88bc 30aa 503c 9ae9 923c 5866 3e3c
000003e0: b27b 963c 22cf d9bc ee99 d13c 3a42 993c
000003f0: ac66 b4bc d8cd f83c 244a adbc 606f e53c
-0.01115163 0.027506255 -0.011897452 -0.018425133 -0.02004245 -0.028003886 0.0070284605 0.024743728
-0.0045243166 -0.020677075 0.011299379 -0.026502725 -0.019181252 -0.0031876862 -0.029326934 -0.017232593
0.007969432 -0.0027192906 0.021596368 -0.024370726 0.013795305 -0.0051281266 -0.020747274 -0.026912011
0.0032766275 0.01883458 0.022947043 -0.0054386854 -0.022503756 0.020547967 -0.0027501956 0.023286965
0.0021821633 0.015607327 -0.016441759 -0.01449817 -0.030727968 0.028644156 -0.027087573 -0.0074093193
-0.0004893318 0.0006365329 0.022671882 0.0207474 0.00074429065 0.021048877 0.003410235 -0.018387865
-0.009063616 0.03075169 -0.014836252 0.003938455 0.031144135 -0.02033946 0.015697137 -0.019309226
-0.0061890036 -0.030657388 0.023123175 0.00368727 -0.02073038 -0.019659813 0.028021082 0.030791845
-0.013673771 0.031113584 0.019033771 0.009539276 0.025410589 -0.027593374 0.02480442 0.026913773
-0.029794198 0.020436414 0.024836749 -0.018793855 0.0168412 -0.027128752 -0.014540236 0.023862071
0.02921066 -0.014042348 -0.00033452734 -0.009125721 -0.025969677 0.01314972 -0.0057410225 0.0103485845
0.02279269 0.015915032 -0.03074101 -0.008075148 0.01755574 0.030182984 0.025609948 0.028027654
-0.0002603419 -0.02059123 -0.015797086 -0.020127077 0.031192113 -0.00394829 0.025697239 0.0047575496
-0.009635791 0.022634622 -0.009494804 0.023958772 -0.010134529 0.0031245574 0.018503368 -0.014411788
-0.009714771 -0.025675341 -0.010193609 0.015584681 -0.024230175 -0.008045848 -0.019808833 0.0023227558
0.0029939748 -0.0012098402 0.015511002 -0.0294832 -0.007881638 -0.013244223 -0.011950575 0.022742152
-0.021314919 -0.0055902638 0.029939637 -0.027148541 0.0038368516 -0.003844615 -0.0261808 -0.019352872
0.01157324 0.030949265 0.011980474 -0.030605644 -0.019541103 -0.024006441 -0.024224546 -0.0062365904
0.007401306 -0.029879518 -0.02723362 -0.0009911582 -0.0015707649 0.026346855 -0.014082823 0.011769522
-0.014233369 0.0036476217 -0.030259099 0.028812736 0.010347653 -0.028456587 0.018679883 0.017226208
-0.01957189 -0.01163125 0.011815168 -0.023576837 -0.0028263442 0.0110040195 0.00038633868 -0.01683933
-0.02773042 0.023384675 -0.02239145 -0.019552775 0.027116958 -0.027584672 -0.010793321 -0.027597789
0.030083857 -0.025004752 0.022903956 -0.026420124 -0.026094753 0.029986579 -0.030353256 0.0199158
-0.00081735104 -0.015173551 0.001607772 -0.02620994 0.026364144 -0.00067105517 -0.013359062 -0.008427553
0.01632398 -0.0076844357 -0.023284253 -0.0147981495 -0.0050631277 0.021673966 0.022286411 0.027844578
-0.01743624 -0.019289773 0.021442845 -0.019642133 -0.00046573207 0.01699958 -0.010491528 -0.00023730472
0.020309307 0.010243684 -0.014349062 0.0035856515 0.018930666 -0.027899217 -0.011906832 -0.015757047
-0.016325213 -0.025530908 -0.014358271 0.014648136 0.009142961 -0.014221437 0.021389391 0.0027415827
-0.0033250004 -0.012949094 -0.006940741 0.021833915 -0.011228785 0.017065275 0.024179656 0.026111327
0.005312629 -0.027174216 -0.0092861205 -0.016514122 -0.020972826 0.010928992 -0.027205892 0.016064622
0.0070247054 0.02230252 -0.002900716 0.018160801 -0.016679738 0.012735888 0.017933656 0.01162108
0.01836953 -0.026588026 0.025586095 0.018708337 -0.022021614 0.030371591 -0.021153517 0.02800721

head.0.bias f4 [24]
00000000: c0e7 c03c 000f 5fba f654 913c 80fc 263b
00000010: f8c1 75bc f005 bbbb 125d c2bc acf0 f6bc
00000020: 70b7 ae3c b004 c3bc b6ad a33c 700d fe3b
00000030: dcda 5c3c 2c79 d4bc d436 f5bc d216 ebbc
00000040: eac5 bd3c acbc b4bc 50d9 693c dc76 2a3c
00000050: f41d 78bc 2806 053c 2aa7 b23c a03c 37bb
0.023548007 -0.000850901 0.017740708 0.0025480092 -0.014999859 -0.005707495 -0.02372602 -0.030144058
0.021327704 -0.023805946 0.019980293 0.0077530667 0.0134799145 -0.025936686 -0.02993337 -0.028697405
0.023165662 -0.022062622 0.014273003 0.010404315 -0.01514386 0.008119144 0.021808226 -0.002795972

head.2.weight f4 [2, 24]
00000000: 7be0 813d bc59 453e e01a 3b3e d4c4 d1bd
00000010: 64cd ccbc 1775 3ebe f24b 2abe 902a 353e
00000020: 2308 50be 8d67 afbd d5f3 47be 01bb 6d3c
00000030: d117 f7bd d413 ffbc 4aeb e93b 9ee0 da3d
00000040: cd1b 443e d8a8 18be f329 633c f959 2b3e
00000050: da0f ef3d 9cb0 71bd 277c b93d 2924 39be
00000060: fce9 f93d 91ff 7fbd b057 f5bd 36f4 08be
00000070: 2e93 cb3d 0051 3dbe 481d 2f3e 065a babd
00000080: 6f85 343e 8aaf de3d 50ed 9e3c 57d1 1e3e
00000090: f832 0b3e f2e4 263e 396a 23be 7c80 8dbb
000000a0: 930b a83b 8725 90bd 831d 1ebe bb64 aabd
000000b0: e838 cb3d bd89 2e3e 390d 46be fb6a 02bd
0.063416444 0.19272512 0.18271971 -0.1024262 -0.025000282 -0.18599354 -0.16630533 0.17692018
-0.20315604 -0.085646726 -0.19526608 0.014509917 -0.120650895 -0.031137384 0.0071386443 0.106873736
0.1915123 -0.14908159 0.013864982 0.1673354 0.11672945 -0.05900632 0.09056883 -0.180802
0.12202832 -0.062499586 -0.11979616 -0.13374409 0.09940182 -0.1848793 0.17101014 -0.09099202
0.17629026 0.10873325 0.019400269 0.15509544 0.13593662 0.16298273 -0.1595849 -0.004318295
0.005128333 -0.07038408 -0.15440945 -0.08319994 0.099229634 0.1704473 -0.19340982 -0.031840306

head.2.bias f4 [2]
00000000: 6561 48be a36b 24be
-0.19568403 -0.16056685
