models/AC-RM-2 Q_LR=0.001 P_LR=5e-06 BATCH_SIZE=128 GAMMA=0.99 MEMORY_SIZE=150000 BETA=0.3_policy_10463.pt (torch, 319769 bytes, 22 tensors)

base.0.weight f4 [32, 2, 5, 5]
000000 14 24 e0 3c 34 90 b3 3d ae 1a 8b 3d ff 1e d2 3c
       0.027360953 0.08767739 0.06792198 0.025649546
000010 77 da 88 bd 81 c9 63 3d e7 0c 77 3c 73 02 b9 ba
       -0.06682294 0.05561209 0.01507876 -0.001411511
000020 f5 b7 b0 3d f9 5e f3 bd 56 0c d5 bd cb 70 83 3c
       0.08628837 -0.11883349 -0.104027435 0.016044995
000030 39 de 9f 3d bf 7c c1 bd 08 21 8e 3d 91 7b 92 3d
       0.078060575 -0.094476216 0.06939894 0.07152475
000040 63 7a 30 3d 6c 43 81 bd 2c 98 17 3e 43 37 6d 3d
       0.043085467 -0.06311688 0.14804143 0.05791403
000050 a4 0c 36 3d 99 c7 d4 3d 6d bc 87 bc ea c4 c1 3d
       0.04444565 0.10389633 -0.01656934 0.094613865
000060 55 ac 3f bd 97 bd 79 3d 10 19 e9 3d 0a ae 0f be
       -0.046795208 0.060971823 0.113817334 -0.14031234
000070 03 3b 62 3d 45 bb 9a bc eb 43 bc bd 27 fd e5 3c
       0.05523206 -0.018888125 -0.09192642 0.028074814
000080 52 90 ca 3d c6 17 be 3d cd 47 f7 bc 74 3b 88 bd
       0.09890808 0.09281878 -0.030185604 -0.06651965
000090 b2 66 86 3d 72 64 e0 bd e1 61 09 bb 95 a0 80 3c
       0.06562556 -0.109566584 -0.0020962881 0.015701571
0000a0 2e bf 82 bc 52 c1 99 3c f7 d4 b3 bd c6 e2 bb bd
       -0.015960302 0.01876894 -0.08780854 -0.09174113
0000b0 ce 5a 04 be ca c4 ef bc 08 06 48 bc bb 1b 8f bd
       -0.12925264 -0.029268641 -0.012208469 -0.06987711
0000c0 dc ad d2 bd 27 6e 17 bd 59 7d f4 bd c6 df 7d 3c
       -0.10287067 -0.036970284 -0.11937971 0.015495246
0000d0 8f c6 ca bd 27 9c d7 3d 04 27 14 3e fd ab a2 ba
       -0.09901153 0.105278306 0.14468008 -0.0012410876
0000e0 89 a7 99 bd d0 ce 9d bd 0f fc 20 3e 92 9f 37 3d
       -0.07502658 -0.07705462 0.15721153 0.044829912
0000f0 0d d6 d5 3d f0 d6 bf 3d 05 05 51 3d 22 0e ce bd
       0.104412176 0.09367168 0.051030178 -0.10061289
000100 ab 16 c4 3d e9 b8 94 3d 99 14 1b 3d 2f 29 fd bd
       0.09574636 0.07261831 0.03786144 -0.12361371
000110 83 97 12 3e 96 57 9d bd d9 5d d4 3a b1 27 2c 3d
       0.1431561 -0.07682721 0.0016202285 0.04203004
000120 a8 99 c6 bd c7 b2 18 3e 15 a9 f7 bc 48 96 bf 3d
       -0.09697276 0.14911948 -0.030231992 0.09354836
000130 0a 5c b7 3d a7 e1 63 bd 0e 22 14 bb 73 5a 65 bd
       0.08953102 -0.05563512 -0.0022603306 -0.055994462
000140 bb db 8c bd cb 68 83 bd f1 f6 16 bd c9 f7 a1 bb
       -0.06877848 -0.06416472 -0.036856595 -0.0049428684
000150 a8 26 a7 3d 57 c5 13 be 8f 56 f0 3d 54 0d 08 be
       0.0816167 -0.14430748 0.1173526 -0.13286334
000160 43 15 5c bd 6c 7b 93 bc b3 2a 8f bd 6b 14 f7 3d
       -0.053731214 -0.018003188 -0.06990566 0.12064441
000170 69 27 04 be 4d 05 2d bc 2e 1d 0d 3d 7d d4 de 3d
       -0.12905659 -0.010560346 0.034451656 0.10880373
000180 dc c0 d8 3d ac 54 e3 bd 60 48 e5 3d 41 c1 ff 3d
       0.1058366 -0.11100134 0.11195445 0.12488032
000190 23 e7 91 3d 7e f0 77 bd b2 e2 5a bd 4b cd f3 bd
       0.07124164 -0.060532086 -0.05343885 -0.11904391
0001a0 4a 11 3d bd 74 13 40 3c 3d c1 95 3d 27 1f b4 3c
       -0.046159066 0.011723388 0.07312248 0.02198751
0001b0 b2 9a e8 3d c2 ad 2e 3d 0c 30 a3 3b ea 92 1a be
       0.11357631 0.042646177 0.004980093 -0.15095106
0001c0 ee 94 b0 bd 2b 10 d5 3d f8 10 4e 3d 24 eb ce 3d
       -0.08622156 0.104034744 0.05030915 0.10103443
0001d0 77 86 c9 bd 3c 32 76 bd c0 45 23 3b 3f e9 c1 bd
       -0.098401 -0.0601065 0.00249134 -0.09468316
0001e0 fe 63 81 bc 1c e5 75 bd 3b d6 41 bd 7e 39 18 be
       -0.01579475 -0.06003295 -0.047323447 -0.14865682
0001f0 81 d2 93 bc 75 f7 23 3c 8c dc df 3c dc 64 6f 3d
       -0.018044712 0.010007729 0.027326845 0.058445796
000200 7a 40 8e 3d af c9 39 bc 64 43 42 3d da eb 15 bd
       0.06945892 -0.011339589 0.04742755 -0.03660188
000210 fc b5 6f bd eb 3f be bd 2a 98 93 bd 1d c0 53 3d
       -0.058523163 -0.09289535 -0.07206757 0.051696885
000220 b7 40 9c 3d b4 9e 1e 3d 99 c5 53 bd 73 c8 d3 3d
       0.07629531 0.03872557 -0.051702116 0.10340967
000230 b9 ad d4 bd 8d 19 01 3e 5c e0 5a bc 46 3e 2c bb
       -0.103846975 0.12607403 -0.0133591555 -0.0026282235
000240 4f 0d 91 bd ac e1 8e 3d 1c 83 12 3e 59 78 86 3d
       -0.070826165 0.06976637 0.14307827 0.06565923
000250 88 95 e1 3d f4 cf 62 3d 69 63 a5 bd ac 7e 90 3d
       0.11014849 0.0553741 -0.080756016 0.07055411
000260 bf 56 01 3e 3c 72 c0 bd 33 0c 9a 3d bb 68 0d 3d
       0.12630747 -0.093967885 0.07521858 0.034523707
000270 5d e0 27 3c 84 87 07 3e fa f5 43 3d ac 70 9a 3c
       0.0102463635 0.13235289 0.047842003 0.018852554
000280 38 e9 f3 bd aa ed be 3c 9d b8 bf bd 51 5e 2a 3d
       -0.11909717 0.023306686 -0.09361384 0.041593853
000290 58 74 c4 3b eb 01 8d 3c bc ea 01 3e fd 68 01 be
       0.0059953146 0.017212829 0.126872 -0.12637706
0002a0 43 7a 02 3e f2 b2 ea 3a 3e c2 fe 3d a6 86 ab 3c
       0.12741952 0.0017906113 0.124393925 0.020938229
0002b0 74 42 ca bb 56 38 0b be f8 89 e3 3d 29 47 b1 3d
       -0.0061724726 -0.13595709 0.111103 0.08656151
0002c0 36 b6 87 3c c9 5c db 3d 6e 03 9f bd f6 ab 73 3d
       0.016566377 0.10711057 -0.07764326 0.059490167
0002d0 f8 9a 23 3d c6 33 e1 bc 7d 3a 89 3c 0e 79 b5 3d
       0.03994271 -0.027490508 0.016751522 0.0886098
0002e0 28 27 b3 bd ae bb 98 bd 28 0d 9a bc a7 c7 44 bd
       -0.08747703 -0.07457672 -0.018805102 -0.048041966
0002f0 5b 79 19 bd 59 d9 37 3d 91 f0 06 be d2 93 42 bc
       -0.03746925 0.044885013 -0.13177706 -0.011876063
000300 1e 16 96 bd e2 97 5a bd 6c 14 3f bd 97 c7 ef bc
       -0.07328437 -0.053367503 -0.046650335 -0.029269977
000310 fe 41 1e be 05 32 af 3d 4d 84 63 3d c6 6b 80 bc
       -0.15454862 0.08554462 0.055546094 -0.01567639
000320 5c f2 c9 3d 0a 4d 2a 3d 6c 87 a0 bc 17 c4 c2 bd
       0.098606795 0.041577376 -0.019595824 -0.095100574
000330 09 a4 b4 bd 63 1a 5b bc 9e a4 88 3c 63 97 04 be
       -0.0882035 -0.01337299 0.016680058 -0.12948374
000340 13 96 dd 3d d2 79 c1 bd a4 06 34 3b 06 a0 4b bc
       0.1081964 -0.094470635 0.0027469778 -0.012428289
000350 77 85 c4 bd 48 b1 07 3e 49 3d b9 bd ee 9a 03 be
       -0.09595769 0.13251221 -0.09044892 -0.1285207
000360 ea c0 2b 3d ab 03 08 be 9b 78 ea 3c 64 b2 59 ba
       0.041932024 -0.13282649 0.028621962 -0.00083044753
000370 a4 86 3a bc aa 2d 00 be b8 04 7e 3d 0d f8 01 3e
       -0.01138464 -0.1251742 0.06201622 0.1269228
000380 c5 b9 73 bd 89 e9 59 bc 41 9b af 3d ce 1c 88 bd
       -0.059503336 -0.013300308 0.08574534 -0.06646119
000390 9e 24 c8 bd ae 8f d3 3b 5a e0 bc 3d c9 19 8d bd
       -0.09772609 0.006456337 0.09222479 -0.06889684
0003a0 5d b2 bc bd bb 26 65 3d 88 34 32 3d 22 b5 84 bd
       -0.092137076 0.05594514 0.04350713 -0.06479861
0003b0 e4 b2 04 bd 87 ba e8 3d d4 e4 f0 bd c1 6e 32 3d
       -0.032397166 0.11363702 -0.117623955 0.043562654
0003c0 cb 44 0b 3e f0 76 c7 bc 09 30 f3 bd 0e 09 cd 3d
       0.13600461 -0.024348706 -0.11874396 0.10011493
0003d0 ef 2a 1d bd db da f2 3d 12 94 5b 3b 19 e6 e8 3d
       -0.038371023 0.118581496 0.0033505005 0.11372013
0003e0 83 d2 cd 3d 09 60 17 3e 38 16 3d bd 29 0d a8 3c
       0.100499175 0.14782728 -0.046163768 0.020514088
0003f0 99 17 ba bc d3 81 aa bd f0 5c 11 be 0c 9d 2f bc
       -0.02271633 -0.08325543 -0.14195609 -0.010718595

base.0.bias f4 [32]
000000 6e 1e 2a b9 c4 d3 9c b8 d0 64 6a b8 0c a3 92 b9
       -0.000162238 -7.478104e-05 -5.5883836e-05 -0.0002796877
000010 95 b3 40 38 1a ab a9 37 76 d6 7f b8 f7 b3 92 39
       4.5943616e-05 2.0226045e-05 -6.099647e-05 0.00027981374
000020 20 74 44 38 f4 95 e6 b6 1d 6c f3 b7 46 00 12 b9
       4.683819e-05 -6.871991e-06 -2.9018202e-05 -0.00013923747
000030 a4 f8 e8 b6 b5 db 9c b8 92 cb e3 b5 e7 26 3f 39
       -6.9430844e-06 -7.479583e-05 -1.6972065e-06 0.00018229672
000040 19 7f 05 b9 61 06 11 b7 71 84 86 b8 5e e5 7a b7
       -0.00012731216 -8.644159e-06 -6.414287e-05 -1.4954565e-05
000050 15 75 70 b6 99 54 2e b9 c4 e5 56 b9 fd 8a 92 38
       -3.5830938e-06 -0.00016625448 -0.00020494225 6.987711e-05
000060 8a a3 83 38 ae 2b 5f b8 71 e0 12 37 b3 ed 68 b9
       6.277028e-05 -5.3208023e-05 8.754535e-06 -0.00022213794
000070 eb 3c 88 b7 01 96 f8 b9 52 50 88 b8 f6 19 95 b7
       -1.624083e-05 -0.00047414008 -6.499946e-05 -1.7774273e-05

base.1.weight f4 [32]
000000 69 8d 80 3f 5a f4 7b 3f 97 3e 85 3f 6b 6b 81 3f
       1.0043155 0.98419726 1.0409726 1.0110906
000010 fb 7e 7d 3f 59 4b 7a 3f 53 12 76 3f 70 01 7f 3f
       0.9902188 0.9777122 0.9612171 0.9961157
000020 71 0c 7c 3f 1c 92 7b 3f 69 d6 78 3f 93 11 78 3f
       0.98456484 0.9826982 0.97202164 0.96901816
000030 7d a1 7b 3f 2f f2 78 3f a6 7d 7b 3f fe 40 7c 3f
       0.98293287 0.9724454 0.982386 0.9853667
000040 25 6b 7c 3f 47 83 7b 3f 9c 51 7e 3f 01 5b 79 3f
       0.9860099 0.9824719 0.99343276 0.97404486
000050 bd 7f 79 3f 93 6a 80 3f e2 fe 77 3f 96 f0 7c 3f
       0.9746054 1.0032524 0.96873295 0.98804605
000060 45 19 7c 3f 4c 0e 80 3f ef e1 7b 3f 6c f4 80 3f
       0.9847606 1.0004363 0.9839162 1.0074592
000070 c5 c5 81 3f c7 5e 81 3f 39 21 7d 3f 4a f5 7b 3f
       1.013848 1.0107049 0.9887882 0.98421156

base.1.bias f4 [32]
000000 1b 88 dd 3a cc 34 6e 3c 4b 6a fd 3c 9d c9 3f 3c
       0.0016901525 0.014538955 0.030934473 0.011705783
000010 4e ad 77 bb 26 3c d6 bb 33 76 d7 ba b2 66 12 3b
       -0.0037792507 -0.006537932 -0.0016438424 0.0022339043
000020 cb 3a aa b9 9f 97 1c bc 4a e8 04 3c ed 17 07 bc
       -0.0003246873 -0.009557634 0.008112023 -0.00824545
000030 5e 5e 2a 3d 23 79 00 bc 1d 7b 81 3a e2 d3 9f 3a
       0.0415939 -0.007841381 0.000987861 0.0012193883
000040 f7 02 18 3c 38 bf f0 bb fd 19 3e 3b e1 33 17 bc
       0.009278051 -0.007347014 0.002900719 -0.0092286775
000050 19 0b 77 ba ed 33 ac ba d6 4d 17 3c 8c e5 b0 3c
       -0.0009423956 -0.0013138034 0.009234866 0.021593831
000060 e4 11 bf 3b a7 12 0c 3c 27 fc 78 3b e9 81 1b 3c
       0.00583099 0.008549369 0.0037992091 0.009491422
000070 f3 93 09 3d 41 d9 a5 3b cd bd 0b bc 95 d1 43 3c
       0.03358836 0.005061299 -0.008529139 0.011951824

base.1.running_mean f4 [32]
000000 14 47 bf 3d 16 35 f4 3e 9b 0a 9b 3d a7 33 2f 3e
       0.09339729 0.4769675 0.07570382 0.17109548
000010 d6 88 42 bc bb 07 99 bf 26 69 b6 3e b8 e4 34 3d
       -0.011873445 -1.1955484 0.35627097 0.044163436
000020 75 90 04 bf 71 0c 0f bd e8 5a a1 3d 7c 67 b9 bf
       -0.51782924 -0.034923974 0.07878667 -1.4484706
000030 75 78 9e 3e 55 4f 7c 3d e9 13 c8 be d5 6f 94 3e
       0.30951276 0.061599094 -0.3907769 0.2899157
000040 4d f3 90 3e 75 b6 36 bf 69 b1 dc 3d 9a 46 a4 bf
       0.28310624 -0.7137216 0.10776026 -1.2834046
000050 f8 46 a3 3e a6 c9 58 bd d4 58 7f 3e 7e b7 2e bd
       0.31890082 -0.052926682 0.24936229 -0.04265546
000060 23 c7 3f 3e c9 80 10 3e 1a 48 a5 3e 65 bc 1c 3e
       0.18728308 0.14111628 0.32281572 0.15306242
000070 1e e6 46 3e ae a9 9a 3d 5e 16 19 3e 3a 61 7f 3e
       0.1942372 0.07551895 0.14949939 0.24939433

base.1.running_var f4 [32]
000000 9e 99 46 3a 7c 7a 75 3b ec 91 31 3a 24 9c 8c 3a
       0.00075759913 0.003745704 0.0006773758 0.0010727686
000010 17 88 a4 3a 02 ef 68 3c 81 23 4a 3b f0 45 c4 39
       0.0012552765 0.01421714 0.0030843916 0.0003743614
000020 9e a1 1b 3b 7c 60 6f 3a 90 6f 24 3a 04 82 ba 3c
       0.0023747454 0.0009131504 0.00062727276 0.022767074
000030 42 d7 d9 3b de 9c 46 3b da 7d e9 3a a4 d5 47 3b
       0.006647975 0.0030305902 0.0017813996 0.003049233
000040 40 b9 f6 3a 51 19 f3 3b b9 e4 1c 3a d4 21 b3 3c
       0.0018823519 0.0074187894 0.000598501 0.021866716
000050 89 31 54 3b 18 40 5c 3a 18 f5 bd 3a 27 b8 32 3b
       0.0032378158 0.00084018847 0.0014492599 0.0027270408
000060 3d 93 0e 3b 43 d1 1c 3a eb be c8 3a 26 45 87 3a
       0.0021755241 0.000598211 0.0015315687 0.001032029
000070 e7 95 85 3a 37 a9 76 3a 81 d4 cb 3a 0e f8 07 3b
       0.0010191769 0.000940937 0.0015551002 0.0020747217

base.3.weight f4 [32, 32, 5, 5]
000000 03 23 82 3b 34 0c f8 3c e6 f4 9d 3c 4d ab 0b bd
       0.003971459 0.030279256 0.019281816 -0.034098912
000010 ff 8a b6 bc 06 75 4e 3b 2d 8c 4f bc 60 be 08 3d
       -0.022283075 0.0031502857 -0.012667698 0.03338468
000020 6d c1 c4 3b fc 40 3c bc 9d a9 66 bc c4 29 91 bc
       0.0060045035 -0.011490103 -0.014078525 -0.01772011
000030 9b 1f af 3c 7f b7 d1 3a cb 1a 79 3c 1d 02 05 bc
       0.021377375 0.0016000121 0.015204142 -0.00811818
000040 66 c3 e2 3b 07 8c 0f bd 82 d8 23 3d d2 09 9c 3c
       0.006920266 -0.03504565 0.0400014 0.019047651
000050 c0 2d 03 3b ce 1f bc bc f9 8a ca 3b 06 b7 e9 b9
       0.0020016283 -0.022964384 0.0061811176 -0.00044577586
000060 d1 4b 55 3c 4a eb bc 3b 0f 69 a2 3a e7 b2 20 3c
       0.013018564 0.0057653533 0.0012390929 0.009808279
000070 be 12 05 bd 19 bd b4 bc b2 eb c7 3c 00 1d b5 3c
       -0.032488577 -0.022062825 0.02440438 0.022108555
000080 ca dc d5 37 36 36 bb bb 86 16 4d bc 34 24 3e 3d
       2.5494392e-05 -0.0057132496 -0.012517577 0.046421245
000090 cb 26 bc bc be c6 ad 3c 93 a0 12 bd 9f d8 ad bc
       -0.022967717 0.021212932 -0.035797667 -0.021221457
0000a0 5a 07 2a bc 7e 6a 36 bb 0e 72 d8 3b 24 2b cb 3a
       -0.010377729 -0.002783447 0.0066053933 0.0015500528
0000b0 d8 2e 3d ba 86 98 24 3d a5 37 44 bc 1a 50 ae bb
       -0.0007216758 0.04018452 -0.011976157 -0.0053196074
0000c0 b9 5a d0 3c 77 82 e6 3c 73 7e ad bc 59 4f c6 3c
       0.025433885 0.028138382 -0.02117846 0.024207758
0000d0 34 ed 3a bd 36 2c a0 3b 03 65 8b 3c 65 57 e0 bc
       -0.04563637 0.004888083 0.01701594 -0.027385423
0000e0 10 9f 37 3c 98 fa 4b 3c 41 94 2a bd 1d 9b d4 3c
       0.011207357 0.012449883 -0.041645292 0.02595287
0000f0 aa f3 c4 3c 63 8a a7 bc b6 9e a8 bc 98 e8 f0 bc
       0.02404197 -0.02045173 -0.020583492 -0.029407784
000100 1e b8 a3 bc 52 82 2e 3c c4 ff d4 bc 66 95 d2 bc
       -0.019985255 0.010651188 -0.026000865 -0.025706004
000110 ef 7c b7 3c 28 e2 97 bc a1 e1 8a 3c 2e d1 59 3c
       0.02239844 -0.018540457 0.016953291 0.013294501
000120 a0 4a f7 3c f7 4d ce 3b 98 85 3b bd 15 e7 b2 bc
       0.030186951 0.006295915 -0.0457817 -0.021838704
000130 e6 18 2e 3d c9 6f a6 bc 27 a1 24 3c ac 05 2a bd
       0.042504214 -0.020316975 0.010048187 -0.041509315
000140 da db 45 bc 9b de f9 bb b7 51 0f bc 2a cf 39 bc
       -0.0120763425 -0.0076254136 -0.00874751 -0.011340896
000150 88 5d b3 bb be 76 8b 3c dd 45 e3 3b 9d 3f a4 ba
       -0.0054737963 0.017024394 0.0069358186 -0.0012531165
000160 0d e5 33 3c be a0 65 3d cc 20 44 3c 8e 49 ee bc
       0.010979903 0.0560615 0.01197071 -0.029087808
000170 c2 c6 06 bd c9 89 c1 3c 5d c4 90 3c cd 65 f4 bc
       -0.032904394 0.023625271 0.017671758 -0.029833699
000180 b4 6c 67 bb 0a ee 78 bc 4c be 12 bc d9 4d 95 3c
       -0.0035312595 -0.015193472 -0.008956503 0.018225597
000190 21 e8 78 bc d2 20 90 3b 3e c8 04 bc 40 21 d2 bc
       -0.015192063 0.0043984437 -0.008104382 -0.02565062
0001a0 ff e5 36 3c 23 92 88 bc 6e 9f d6 3c a3 1b 94 bb
       0.011163234 -0.016671246 0.026199069 -0.004519896
0001b0 ef 01 d2 3c 28 dd 32 bc 17 2c 0b 3c d8 ce f0 3c
       0.025635688 -0.010916986 0.008494399 0.029395506
0001c0 01 d1 84 bc 15 8b d9 3c 26 e2 a3 bb 04 13 34 bc
       -0.016212942 0.026555577 -0.005001324 -0.010990862
0001d0 3f 28 e9 bb 3b 30 91 3b 0f 0b 2f 3c 53 b3 fc 3b
       -0.0071153934 0.0044307983 0.010683789 0.007711807
0001e0 00 53 ca bc 06 d5 8d 3b 2c 2b 0e bd f4 2c 95 bb
       -0.02469778 0.004328373 -0.03470914 -0.004552478
0001f0 74 24 aa 3c 00 2b 02 bc ca 8a ee bc 74 60 d9 b9
       0.020769335 -0.007944822 -0.029118914 -0.00041461329
000200 4a 68 b0 3b 4f 7e 93 3c dc ed 0d bb 49 e1 b6 3c
       0.005383526 0.018004565 -0.0021656668 0.022324221
000210 06 89 db 3c 06 e1 8b bc 5e aa 29 bd 95 14 05 bd
       0.026798736 -0.017075073 -0.04142224 -0.03249033
000220 90 ad 0b bd ae 0b 15 3d 8f f6 f7 bc 7c f1 12 bd
       -0.03410107 0.03638809 -0.030268935 -0.03587483
000230 1b 57 da bc bf fd 9d bc 11 ea bf bc e6 39 54 3c
       -0.026652863 -0.019286035 -0.023427041 0.012953257
000240 dd 8b dc 3c 7a ac 04 bd 06 10 fa 3c 0a 79 c4 bc
       0.02692216 -0.03239105 0.030525219 -0.023983497
000250 aa 62 44 3c 54 37 16 3d bb bd 59 bc d2 9b 68 bc
       0.011986414 0.03667386 -0.013289864 -0.014197307
000260 af 73 e7 3c aa 64 c7 3c e6 1f 30 3d 6d 27 c4 ba
       0.028253404 0.024339993 0.04299917 -0.0014965363
000270 57 59 ee 38 05 e7 5b b8 cd 9c 7c bc 67 0f 1a 3d
       0.00011365365 -5.2428823e-05 -0.015418244 0.037612345
000280 42 6e 9c 3c a4 35 df 3c ac 94 29 bc af aa e9 3c
       0.019095544 0.027247258 -0.010350388 0.028523771
000290 32 a1 f7 3c 9e 89 0a 3a ba 1c 06 bb b4 80 d2 3c
       0.030228231 0.0005284789 -0.00204639 0.025696136
0002a0 5b da 3d 3c 3c 81 85 b8 f0 77 a0 bc 45 e8 3a 3a
       0.0115877045 -6.366006e-05 -0.01958844 0.0007129948
0002b0 f2 1f a8 3c 3b 44 2f 3c 8d e7 64 3c 7e 72 b4 bc
       0.020523045 0.01069742 0.013971222 -0.02202725
0002c0 fc c3 1e bd ea 0d ba 3c 15 35 84 3c 4d 08 00 bd
       -0.038761124 0.022711713 0.016138593 -0.031257916
0002d0 2a 5c a2 39 4e 97 74 3c 59 4b fd 3c 10 e1 22 bc
       0.00030967715 0.014928652 0.030919718 -0.009941354
0002e0 3e 73 f7 b9 c2 f9 72 3c 79 36 bd bc d9 48 47 3c
       -0.00047197373 0.014830055 -0.023097264 0.012163364
0002f0 7a a6 66 3c 8b 5e 46 ba f3 e9 84 3a f6 ac 42 bd
       0.014077777 -0.00075671886 0.0010140523 -0.04752823
000300 c1 6e 88 3b 08 40 49 3c 73 e1 6f bc 2c 64 99 bc
       0.0041635935 0.012283333 -0.014641154 -0.018724523
000310 98 88 1d bc 50 f2 95 3c 2c 12 d4 3c 56 e7 84 3b
       -0.009615086 0.01830402 0.025887571 0.0040558977
000320 79 2d e1 bc 7f d0 38 3c 7f 2f d4 bc 76 bc ec bc
       -0.027487503 0.011280178 -0.025901554 -0.028898459
000330 10 9e 82 bc bc a9 ae 3c 4e bd d7 bc 18 8b 16 3d
       -0.01594451 0.02132117 -0.026335385 0.036753744
000340 71 2f 31 3c 16 b5 6b 3c bf 1a 45 3b 00 d4 01 bd
       0.010814534 0.014386436 0.0030075756 -0.03169632
000350 d7 a3 42 bc ff 8e 4d bc b7 d4 c4 3c 21 29 9d 3c
       -0.011879883 -0.0125463 0.024027212 0.01918465
000360 fb 7b 5d bb c1 7d d4 3c f0 8d cb bc 3a f3 c5 bc
       -0.0033795822 0.02593887 -0.024847955 -0.024163831
000370 30 eb 62 bc 5d 49 29 3a d5 1a a1 bc 72 c4 98 bc
       -0.013850018 0.00064577704 -0.019666115 -0.01864836
000380 05 51 00 3d 30 fa 45 bc c5 b7 42 3b ff 8e 77 bb
       0.031327266 -0.012083575 0.0029711586 -0.0037774441
000390 bf b6 0d 3d 21 1e ec bc a4 07 04 bc 37 b9 22 3c
       0.03459811 -0.02882296 -0.008058462 0.009931854
0003a0 00 c0 20 3c 71 53 7d 3c 26 fb 4f bd 92 72 1c bd
       0.009811401 0.0154617885 -0.050776623 -0.0381952
0003b0 b1 6a a4 ba a2 bd 0f bc ff 56 b6 3c 8e 49 db 3b
       -0.0012544004 -0.008773239 0.02225828 0.006692118
0003c0 a2 90 f1 bb 3d 73 38 bc 43 88 8b 3c fb 25 b9 3c
       -0.007371978 -0.011257944 0.017032748 0.022601118
0003d0 13 c2 54 3d a1 77 d3 bc 35 17 41 bc 05 5d d6 3c
       0.051942896 -0.02581388 -0.011785318 0.026167402
0003e0 d3 09 30 bc ab 82 07 3d 71 d7 d1 3c 88 07 3c 3b
       -0.01074453 0.0330836 0.025615426 0.0028691012
0003f0 d1 35 19 bc e7 af 1f 3c 52 57 91 b8 e9 46 d3 3b
       -0.00935121 0.009746528 -6.9304035e-05 0.006447662

base.3.bias f4 [32]
000000 3a 90 65 b7 bf d0 aa b7 31 56 c1 b6 43 26 0b 37
       -1.3683044e-05 -2.0362784e-05 -5.761882e-06 8.293954e-06
000010 a9 ab 02 b6 87 47 2c b7 e3 90 b9 b6 e6 96 92 36
       -1.947143e-06 -1.0268653e-05 -5.5302967e-06 4.368706e-06
000020 34 31 7e b5 2b 4e a4 37 9f 80 88 b7 d8 d8 a3 37
       -9.4693974e-07 1.9586723e-05 -1.6272357e-05 1.953209e-05
000030 e3 37 b7 37 b4 a1 a2 b7 2c cc ca 37 09 37 80 b7
       2.1841324e-05 -1.9387204e-05 2.4175351e-05 -1.5284417e-05
000040 ce c5 01 38 12 15 74 36 af 08 11 b6 1a 10 52 b7
       3.0940217e-05 3.6371098e-06 -2.1611738e-06 -1.2520724e-05
000050 6c 85 b2 37 93 e3 b0 b7 85 db 15 37 c7 c6 b8 37
       2.1281383e-05 -2.1086807e-05 8.932203e-06 2.2027072e-05
000060 32 54 01 37 df 52 a0 37 26 71 cc 36 b9 e7 33 b6
       7.708602e-06 1.9112076e-05 6.092846e-06 -2.680796e-06
000070 a6 ef 34 37 a9 d1 f1 b6 91 73 24 37 ee 0c 7a b7
       1.0784634e-05 -7.2067673e-06 9.802069e-06 -1.4904172e-05

base.4.weight f4 [32]
000000 64 fc 78 3f ab 8f 80 3f a2 50 80 3f 1b 11 7d 3f
       0.9726012 1.0043844 1.0024607 0.98854226
000010 7f d0 7c 3f d7 ec 80 3f ca ca 78 3f 40 fb 7b 3f
       0.9875564 1.0072278 0.9718443 0.9843025
000020 07 a8 7e 3f 0d 45 80 3f 52 3b 7b 3f 82 7c 80 3f
       0.9947514 1.0021073 0.9813739 1.0037997
000030 88 c2 7b 3f e9 13 80 3f 6b 4b 7b 3f 75 61 7f 3f
       0.98343706 1.0006076 0.98161954 0.9975808
000040 1c 3c 79 3f 0f 0c 7c 3f 5d aa 78 3f 25 4c 7d 3f
       0.97357345 0.984559 0.97134954 0.9894431
000050 4a 64 80 3f 9f c6 7d 3f 1b 2b 78 3f 37 7a 77 3f
       1.0030606 0.99131197 0.96940774 0.9667086
000060 47 cf 7f 3f 45 c9 78 3f 4f c2 7a 3f ec 04 7b 3f
       0.99925655 0.9718211 0.9795274 0.98054385
000070 9b 3f 7c 3f 7c 36 7e 3f 01 fb 7a 3f 84 0b 82 3f
       0.98534554 0.99301887 0.9803925 1.0159764

base.4.bias f4 [32]
000000 9b 1d c1 bc 94 69 8c 3b 7c 60 25 3c c5 e7 c8 bc
       -0.023573687 0.004285047 0.010093804 -0.024524579
000010 12 88 52 bc 5f 8f 4b 3b c8 44 2f bc 8b c4 95 bb
       -0.0128498245 0.0031060798 -0.010697551 -0.004570549
000020 1a 56 2d 3c 45 f2 22 3b af 60 36 3c 2f 29 07 3c
       0.01057961 0.0024863642 0.01113145 0.008249565
000030 5f 10 55 39 91 b1 7e 3b 02 d8 ad 3b a4 a6 85 3b
       0.00020319362 0.0038863162 0.005305291 0.004078703
000040 64 88 25 bc 31 50 b5 3c bb 39 46 bc f4 c4 0d 3b
       -0.010103319 0.022132965 -0.012098725 0.0021632286
000050 d4 7c 68 bc 6e 4a 0c 3c f2 3c 71 bb 9d 38 92 3c
       -0.014189918 0.008562667 -0.0036810008 0.017849261
000060 02 13 79 bb ad 93 46 3c 3c f1 a0 bb 66 53 67 bb
       -0.0038005714 0.01212017 -0.00491157 -0.0035297512
000070 22 59 39 3c cc 3f 9e 3c 27 37 08 3c f7 75 5d bc
       0.011312755 0.01931753 0.008313931 -0.013516895

base.4.running_mean f4 [32]
000000 0c a4 fd 3d 71 8f 98 3d 89 3a f5 3c 65 71 64 3e
       0.12384805 0.07449234 0.029935138 0.22308882
000010 72 0b 8c 3e 3d 61 06 be 5e f8 99 3d e9 cf 01 be
       0.27352482 -0.13123031 0.075180754 -0.12676968
000020 74 70 a0 3d c1 2f d1 3d a0 dc bd bd fd 6d 01 3e
       0.07833949 0.102141865 -0.092705965 0.12639613
000030 f1 6d 5d 3d c5 10 8a 3e 7d d7 33 3e 07 a7 83 bd
       0.054059926 0.2696592 0.17562671 -0.06428342
000040 fc a6 ff bc 3b f0 94 3b d4 7b 7a be 46 6c 91 3e
       -0.031207554 0.0045452393 -0.24461299 0.2840292
000050 d2 99 22 3e 4a 1d d1 3d fb d9 5a 3d 95 c4 5a 3e
       0.1587899 0.102106646 0.05343054 0.21364053
000060 b6 76 5d 3e 1b 14 64 bd 8b c0 16 bd 6a c4 93 bd
       0.21627316 -0.055683237 -0.036804717 -0.072151974
000070 10 57 9e bd 5a 23 25 be a2 b7 dc bc cb 52 01 3e
       -0.077314496 -0.16126767 -0.026943032 0.1262924

base.4.running_var f4 [32]
000000 ce 35 c2 3d 8f 1e 49 3d d2 91 cd 3c 0d 9c 4a 3d
       0.09482919 0.04910141 0.025093947 0.049465228
000010 68 d2 01 3f a2 43 0c 3d e4 b0 18 3e 04 d7 d1 3d
       0.5071168 0.034244187 0.14911228 0.10246089
000020 c6 e6 3b 3e ed d5 ff 3c 87 8f de 3d a7 23 63 3d
       0.18349752 0.031229937 0.108672194 0.055453923
000030 10 bc a1 3d 71 f4 f1 3d 8c cd 43 3d 97 1c 9e 3d
       0.07897198 0.118142016 0.047803447 0.07720297
000040 a3 87 c6 3d cb a2 03 3e cc 52 8d 3d 5a 86 ad 3d
       0.096938394 0.1285507 0.06900558 0.08472891
000050 36 b8 8b 3d c9 9d 41 3d 52 57 0b 3e 46 56 07 3e
       0.06822245 0.047269616 0.13607529 0.13216504
000060 20 26 e7 3d df ab e9 3d 70 1e 24 3e aa 87 f4 3d
       0.11286569 0.11409735 0.16027236 0.11939938
000070 49 ca 33 3d f4 3a a4 3d b7 4a c3 3d 6a 29 db 3c
       0.043894086 0.08019057 0.09535735 0.026753146

base.6.weight f4 [32, 32, 5, 5]
000000 b7 5a bc 3b 22 dc aa 3c e0 66 31 bd ac 17 06 bd
       0.0057481187 0.02085692 -0.043311 -0.03273742
000010 56 fe 21 bc 63 ce dc 3b 24 b3 87 b9 a2 29 1c 3c
       -0.009887299 0.0067384704 -0.00025882677 0.00953141
000020 78 1c 36 3c 55 d9 94 bb 99 b9 80 bc 25 6e b9 bc
       0.011115186 -0.0045425096 -0.0157135 -0.022635529
000030 62 ab a3 bb 83 79 f3 3b bc e4 b4 3c e3 bb c9 bc
       -0.0049947957 0.007430257 0.022081725 -0.024625724
000040 0c 51 93 3c 6e 00 6a 3c d7 81 de bc 03 bf 6a bc
       0.017982982 0.014282329 -0.027161522 -0.014327767
000050 06 82 4c b9 3a e2 34 bb 54 74 98 ba 62 e1 1e bc
       -0.00019503394 -0.0027600662 -0.0011631348 -0.00969729
000060 ea 9f ad ba bf 87 ca bc 69 77 f8 bc 2a 86 11 3c
       -0.0013246511 -0.024722932 -0.030330377 0.008882085
000070 76 3f d6 3a 0f f2 10 bc bd 0d c5 bc e4 92 83 3c
       0.0016345817 -0.008846774 -0.024054402 0.016061254
000080 27 1f d5 bc 69 68 f6 3c 29 1e 49 3c 6b 2d 2e 3b
       -0.026015831 0.030079084 0.012275257 0.0026577364
000090 e5 f4 14 3b dd 04 b2 bc 7f 20 16 bc 16 76 9a 3b
       0.0022728976 -0.021730835 -0.009163021 0.004713784
0000a0 4c 5c d2 39 dc 02 5d bc c4 39 ae bb e4 22 2d 3d
       0.00040123088 -0.013489451 -0.005316945 0.042269602
0000b0 0a 71 69 3c ac 8c ad bc 0e 70 03 3a b1 17 98 bc
       0.014248142 -0.021185242 0.0005013951 -0.018565984
0000c0 af 4c 40 bb 81 58 e7 3c 01 b4 ef bc e4 f5 17 bc
       -0.0029342582 0.028240444 -0.029260637 -0.0092749335
0000d0 d5 2b 44 bc 2e 7d 58 bc 89 b2 df bb ea f4 c7 bc
       -0.011973341 -0.013213439 -0.006826703 -0.024408776
0000e0 b3 70 82 3b 63 66 75 bc 0d 72 84 3c 3c 82 95 3c
       0.00398072 -0.014978024 0.016167665 0.018250577
0000f0 0b 75 db ba 72 d4 26 bc e6 ce 8f bc 37 3f 77 bc
       -0.0016743256 -0.010182487 -0.017554712 -0.015090755
000100 d6 57 ec 3c de 50 a6 3c 99 5f 55 bc 48 f8 04 bd
       0.028850477 0.020302232 -0.013023281 -0.032463342
000110 d1 a8 c0 bb 91 37 48 3c 38 e2 0b 3c 37 82 00 3d
       -0.0058794995 0.012220279 0.0085378215 0.031374183
000120 99 70 b2 3c 7c 36 d9 3c 5b 51 3f 3c 25 a6 08 3b
       0.021782206 0.026515238 0.0116771115 0.0020850983
000130 8d 7b 9d 3a eb 39 bc 3c fb cb 39 bc 2f d9 58 bb
       0.001201497 0.022976836 -0.011340137 -0.0033088436
000140 22 d8 cb 3b 8a 9e 46 3d 2c f8 9b bc 28 74 e3 bc
       0.0062208334 0.04849104 -0.019039236 -0.027765349
000150 d3 6c 78 bc df 3c bc 3c f9 66 96 3c db de a6 bc
       -0.015162664 0.022978244 0.018359648 -0.020369938
000160 87 7d 61 3c d6 bd ef bc b4 9b aa 3c ec 0b c3 bb
       0.013762838 -0.029265326 0.020826198 -0.005952349
000170 09 21 46 3c 10 32 5d bb 29 fa c9 bc 3e bf 2c bd
       0.012092837 -0.0033751763 -0.024655418 -0.04217457
000180 7e 98 d2 bc cc 09 34 3c 7a f5 0d 3c 39 73 cb 3c
       -0.02570748 0.010988664 0.008664483 0.024835216
000190 36 9d 8a 3c 7d 12 8a 3c 6e 04 40 3c fe 3e f9 bc
       0.016920667 0.016854519 0.011719806 -0.030425545
0001a0 0d 6c 4c 3c 43 f3 a5 3c 31 99 0f bc 0d 34 2e 3c
       0.012476933 0.020257598 -0.008764551 0.010632527
0001b0 ae f7 8b bb bd e5 cf 3c e3 2a da bb 0c 8f 05 3d
       -0.004271469 0.025378102 -0.0066579445 0.032607123
0001c0 6d cc cc bc d7 e7 01 bd 9b 97 97 3c 49 c9 61 3c
       -0.024999822 -0.03171524 0.018504908 0.0137809
0001d0 29 bc 4b bc 29 51 7e 3c 1b 89 bd 3c 77 32 14 bd
       -0.012434998 0.01552228 0.023136666 -0.03618094
0001e0 f3 80 0a 3d 39 c9 a9 3c 0b 79 e3 3c fc 24 95 3c
       0.03381438 0.020725833 0.027767679 0.018206112
0001f0 3a 63 f6 bb 8a 1b 04 bd c2 85 8c bb 48 97 2c 3c
       -0.007519153 -0.032252826 -0.004288406 0.010534115
000200 38 eb bd 3c b6 5e 5e bc 7e 2c 60 bc 6f 88 a0 bc
       0.02318345 -0.013572386 -0.013682483 -0.019596307
000210 e6 1f 0d bd 27 0b 82 bc 08 28 04 3c 8e 12 ac bc
       -0.03445425 -0.015874458 0.008066185 -0.021004941
000220 0e ac b9 3c 7c a9 0d bd 0f 21 ad 3c b5 26 04 3d
       0.02266505 -0.03458546 0.021133928 0.032263476
000230 85 36 f8 bb 06 cd 20 3d e5 2e 05 ba 58 41 0b 3d
       -0.0075748586 0.039258026 -0.0005080535 0.033997864
000240 bd 81 94 3a 9b b8 23 bb 17 10 cb 3c 27 e8 8c 3c
       0.0011330169 -0.002498186 0.024787946 0.017200543
000250 d5 3d 89 3c e0 b2 49 bb 64 33 39 3d 2d da a4 3b
       0.016753117 -0.0030776784 0.045215026 0.0050308914
000260 81 82 73 bc 88 1a e9 3b 55 f0 c9 3c 6a 42 35 3c
       -0.0148626575 0.0071137585 0.024650732 0.011063198
000270 e0 3b 04 3c 3d 7b f0 bc a7 ea 9c bc 1a e6 d4 3c
       0.008070916 -0.02935564 -0.01915486 0.025988627
000280 e3 c6 9e bc 8a cf c5 bb 48 5a f1 3b ab 62 97 bc
       -0.019381946 -0.0060367035 0.0073654987 -0.018479666
000290 b3 df 16 bd a9 18 56 ba 45 36 21 bc 12 fb 06 bc
       -0.03683443 -0.0008167127 -0.009839599 -0.008238571
0002a0 3a 83 f4 bc e2 52 ac bb 64 69 9b bc 2f 37 03 bd
       -0.02984773 -0.005258904 -0.018971153 -0.03203505
0002b0 18 24 02 3d 54 87 c2 3c 65 c2 3a 3b 44 23 e2 3c
       0.031772703 0.02374617 0.0028497216 0.027604707
0002c0 7c 8e a9 bc ec 10 6c 3c dc 3f 90 3c ea 71 a9 3c
       -0.020697825 0.014408331 0.017608576 0.020684201
0002d0 c2 f3 a5 3c 81 22 14 3d a2 ba 22 bd 52 87 94 ba
       0.020257834 0.036165718 -0.03972877 -0.0011331833
0002e0 76 47 fc 3b ff 37 24 bc 37 0c fb 3c 8b 00 98 3c
       0.0076989485 -0.010023116 0.030645473 0.018554946
0002f0 1a 27 6a bc bf cf d8 3c 97 9f 6b bc 69 2a 04 bc
       -0.014291549 0.026466249 -0.014381311 -0.008066752
000300 12 50 02 bd d5 d9 8c bc 83 17 e2 3c 00 77 1c 3d
       -0.031814642 -0.017193714 0.027599102 0.038199425
000310 ba 67 cc 3c 07 65 94 bc 7b 2e ab bc f7 2d 39 ba
       0.024951804 -0.01811458 -0.020896187 -0.0007064039
000320 7c 40 2f 3d 4d 33 f9 3c 2c e6 bc bc 9d c2 07 bd
       0.042786106 0.03041997 -0.023058973 -0.033144582
000330 a8 e0 97 ba 98 c0 33 3c 46 46 c1 3c 18 67 99 3b
       -0.0011587339 0.010971211 0.02359308 0.004681479
000340 79 93 9d bc c6 ef 80 3c 40 d9 ae bc 50 56 99 3b
       -0.01923536 0.015739333 -0.021343827 0.0046794787
000350 39 d5 ac 3c 92 23 20 bd ea a1 0a 3b a4 44 47 bc
       0.021097766 -0.039096422 0.0021153637 -0.012162361
000360 13 c1 8d 3c 48 17 fe bc 58 18 24 bd e4 49 8d 3c
       0.017303979 -0.03101696 -0.04006228 0.017247148
000370 ee 26 0f 3d 08 a7 da bc e7 79 f6 bb 08 0d 9b 3c
       0.034949236 -0.026690975 -0.007521856 0.018927112
000380 7a 10 a5 3c ac dd 07 bd 70 d9 92 3b d2 93 97 bc
       0.020149458 -0.033170387 0.004481487 -0.018503103
000390 0a fa 0e 3d 7d 9a a8 bc 6b a1 b7 bc 83 da d5 bc
       0.034906425 -0.020581478 -0.022415837 -0.026105171
0003a0 2e 3b 14 bd f3 a9 4e 3c f6 2a ee 3b 9a bc 5a bc
       -0.03618925 0.012613761 0.007268305 -0.01335063
0003b0 b8 83 13 bd 48 11 cb bc bf 3c 8b bc 87 b9 ae bc
       -0.03601429 -0.024788514 -0.01699674 -0.0213287
0003c0 a9 48 2e b8 01 8d 38 bb d1 8a 73 bb a9 7f ce bc
       -4.1552503e-05 -0.0028160217 -0.0037161598 -0.025207357
0003d0 94 5d 40 b8 8f 3e 28 bc 07 1c b7 bc ad 03 7e bc
       -4.586352e-05 -0.010268821 -0.022352232 -0.015503806
0003e0 fd c8 42 3c 76 f9 45 3c 2c 6e dc 3a 6c bc 04 3d
       0.01188874 0.012083402 0.0016817502 0.032406256
0003f0 50 9e d7 3c 61 ae ae 3b e9 e3 0b bc 4b 19 e4 3b
       0.026320606 0.005330846 -0.008538225 0.006961023

base.6.bias f4 [32]
000000 f8 a0 43 36 b5 84 8c b6 f6 a1 2b 37 4c 01 e8 35
       2.915096e-06 -4.1877743e-06 1.0230104e-05 1.7285724e-06
000010 e9 e1 26 b6 74 2f 87 b5 5a e3 70 36 5a 81 25 b7
       -2.4867425e-06 -1.0072094e-06 3.5895123e-06 -9.864883e-06
000020 82 6c 7b b7 1b 31 43 b7 3b f2 2d b6 90 9c a0 34
       -1.498603e-05 -1.1634339e-05 -2.5920006e-06 2.9916237e-07
000030 e5 72 9c b7 1e a4 c0 b6 95 ba 62 b8 9c 81 70 37
       -1.8650151e-05 -5.7411517e-06 -5.4056367e-05 1.4335292e-05
000040 51 09 91 36 f2 6b 9d b6 a9 64 74 35 61 b6 4f 37
       4.3224213e-06 -4.691531e-06 9.1043563e-07 1.2380625e-05
000050 fd ac a5 35 f0 31 8b 36 47 4b 6f b4 82 f6 ca b6
       1.2343804e-06 4.1483363e-06 -2.2285995e-07 -6.0487664e-06
000060 f7 05 2b b6 75 75 9d b6 11 a2 d4 b4 37 29 90 b6
       -2.5484458e-06 -4.6926384e-06 -3.9605996e-07 -4.2963325e-06
000070 1d 61 95 b7 30 83 f9 b5 3e aa 1f 37 23 b3 c8 b7
       -1.7807406e-05 -1.8590126e-06 9.516776e-06 -2.3925275e-05

base.7.weight f4 [32]
000000 25 23 81 3f 21 58 82 3f 20 3d 81 3f bc 28 82 3f
       1.008885 1.0183145 1.0096779 1.0168681
000010 00 3e 82 3f 6e c5 7c 3f 46 98 88 3f 7d 54 83 3f
       1.0175171 0.98738754 1.067147 1.0260159
000020 9a 6a 7d 3f 28 61 80 3f 10 00 83 3f 51 e7 7a 3f
       0.98990786 1.002965 1.0234394 0.9800921
000030 27 67 82 3f b5 8d 81 3f 7a da 83 3f 64 4e 81 3f
       1.018773 1.012137 1.0301049 1.0102048
000040 e9 2a 7f 3f ea ae 7c 3f c5 5d 7f 3f b5 e3 82 3f
       0.9967485 0.987044 0.99752456 1.0225741
000050 81 cb 81 3f 93 9f 83 3f af 8e 84 3f a3 74 82 3f
       1.014023 1.0283073 1.0356044 1.0191845
000060 fe ac 83 3f 4f 3a 81 3f 6a cd 7f 3f 18 78 80 3f
       1.0287168 1.0095919 0.9992281 1.003665
000070 db 4d 83 3f 22 7c 7b 3f d9 fe 80 3f 21 eb 7f 3f
       1.0258135 0.98236287 1.0077773 0.99968153

base.7.bias f4 [32]
000000 02 02 78 3c 52 f8 56 3c 0a 78 40 3c af 0e 2b 3c
       0.015137197 0.013120728 0.01174737 0.010440513
000010 6c 4b 96 3b 5f 13 58 3b 3a db f8 3c a9 8f 53 3c
       0.0045866277 0.003297053 0.030377973 0.012912669
000020 dd e3 23 3c e3 2b 27 3b 4c fe 38 bc b3 ef 15 3c
       0.010003057 0.0025508336 -0.011291098 0.009151387
000030 ff b8 89 3c dc e5 86 b8 db 38 9a 3c 81 0a fa 3b
       0.016811846 -6.4324326e-05 0.018825939 0.0076306467
000040 3b cf 62 3c e1 03 ad 3b 8f 32 58 3c b0 f8 c1 3c
       0.013843353 0.0052800034 0.013195648 0.023678154
000050 e0 bf 8d 3c 69 41 28 3c 20 dd 20 3c 54 af 89 3c
       0.017303407 0.010269501 0.009818345 0.016807236
000060 b8 fa 8d 3c 27 b1 af 3c 86 98 b0 3c 55 41 de 3b
       0.017331466 0.021446778 0.021557104 0.0067826905
000070 fe d4 c4 3c 21 19 22 bc 4c ea 46 3c d0 84 43 3b
       0.024027344 -0.0098936865 0.012140822 0.00298338

base.7.running_mean f4 [32]
000000 1c b8 85 3c 19 f3 c0 3d 06 34 2c be b2 2f 22 be
       0.016323142 0.09421367 -0.1681672 -0.15838507
000010 2f f5 a6 3c 10 5e 23 3e a1 93 ec bd 83 5f a6 3e
       0.020380585 0.15953851 -0.115515955 0.32494745
000020 ce be 1a be 5c f5 99 be d0 dd 34 be 64 8a ba 3d
       -0.15111849 -0.30070007 -0.1766274 0.09108427
000030 4a 9d 69 be a8 18 37 3f 62 21 74 3e 6d 87 5f be
       -0.22813907 0.71522 0.2384086 -0.21829005
000040 a2 56 8c 3d 28 d6 fe 3e ef 5b 16 3e 6d 6f 83 3e
       0.068524614 0.49772763 0.14683507 0.2567095
000050 22 4a f9 3e 8f 80 f6 3e ff e9 f3 3e b1 c5 dc 3d
       0.4868937 0.48144957 0.47639462 0.10779894
000060 ea 69 6f 3e 36 d3 b7 bd 62 2c f9 3e 75 68 6b 3d
       0.23380247 -0.08975832 0.48666674 0.057472665
000070 2e 80 c5 3d bf 91 b0 bc f0 3f b1 3d f6 9d 0c 3e
       0.09643589 -0.021553872 0.08654773 0.13732132

base.7.running_var f4 [32]
000000 58 84 36 3e 4b 26 05 3f c9 a2 17 3e b6 8c 3d 3e
       0.17823923 0.52011555 0.14808191 0.18510708
000010 0d 1d 9f 3d e2 9c 57 3e af a0 07 3e 45 66 c9 3d
       0.07769213 0.2105594 0.1324489 0.098339595
000020 3d e3 2f 3e ae 80 a1 3e aa 03 a8 3e 30 81 5b 3e
       0.17176528 0.31543487 0.32815295 0.21436
000030 67 8a 60 3e a2 47 19 3e 2d 38 93 3e b1 e1 0b 3e
       0.21927796 0.14968732 0.28753796 0.13660313
000040 b4 39 8d 3e 81 2a 0b 3f f6 e6 12 3e ea 14 68 3e
       0.27583086 0.5436173 0.14345917 0.22664228
000050 b1 80 14 3f 4a bd 5d 3e a8 7d c8 3d 43 bd 76 3e
       0.5800887 0.2165424 0.09789592 0.24095635
000060 2b b6 b2 3d 7a 79 13 3e 75 21 97 3e d6 12 66 3e
       0.08726152 0.14401808 0.29517713 0.22468123
000070 5a 2e 2d 3e e5 ad 0f 3e 39 bb 33 3e b4 d0 d9 3e
       0.16912213 0.14031179 0.17551889 0.4254204

head.0.weight f4 [24, 1024]
000000 b8 b3 8f bc 60 ec a6 3c 13 44 f4 bb 34 9c 92 3c
       -0.017541751 0.020376384 -0.007454404 0.01789675
000010 76 3e 8f bc 40 8f d3 3c 67 59 cc ba 88 07 2b 3c
       -0.017485838 0.025825143 -0.0015590609 0.010438807
000020 cc 3f c5 3b e9 3d b0 bc 10 0c ba bc b5 b5 d4 39
       0.006019568 -0.021513896 -0.02271083 0.00040571173
000030 0b 6e dd 3b 18 cd 85 bc 75 f9 f2 bc 07 b1 9f bc
       0.006757503 -0.016333148 -0.029659966 -0.019493593
000040 62 91 a5 bb 44 22 9e bb 16 5a 0d bc 44 2f d0 3b
       -0.0050527314 -0.004825862 -0.008627435 0.0063532908
000050 fa 42 2a 3c 8a 2f 98 3c c2 5e 9e 3b 84 21 16 3a
       0.010391945 0.018577356 0.0048330734 0.000572704
000060 30 40 12 bd 59 ed 89 3c e5 52 79 3b 37 34 3b 3c
       -0.035705745 0.016836809 0.0038043794 0.011426023
000070 92 11 8f 3c fe ff 13 bc 2d b6 e8 bb c2 5e c9 bb
       0.017464433 -0.009033201 -0.007101795 -0.006145329
000080 87 b2 89 ba 8e a2 4d bb da 2e 72 bc 48 af 50 3c
       -0.0010505476 -0.0031377408 -0.014781678 0.012737103
000090 71 65 44 bc 41 0a 74 3c eb dc 44 3c bd cd 60 bc
       -0.011987076 0.014895023 0.012015562 -0.013720927
0000a0 3f 86 e0 bb a3 4d 91 bc 3c ee 45 bc 59 f5 c6 3c
       -0.006851941 -0.017737215 -0.012080725 0.024286913
0000b0 ce fd 70 bc da a9 5e bc ef 35 c7 bc 03 1e c6 bc
       -0.014708949 -0.0135903 -0.02431771 -0.024184233
0000c0 91 75 02 bc f6 c7 9c bb 97 b0 50 3b 79 7d 42 3c
       -0.0079626 -0.0047845794 0.0031843537 0.011870735
0000d0 c4 11 f8 3b 1b ca 6a bb 3c d3 ce 3c 00 1b 32 bc
       0.007570477 -0.003582603 0.025247209 -0.010870695
0000e0 d7 78 5a 3c ff 30 11 bd 3b e7 c9 bc 0a 57 28 3b
       0.0133344745 -0.035447117 -0.024646392 0.0025686645
0000f0 bb 7e 40 3a 83 01 be bb 10 5c 9a bc 2a 71 59 bc
       0.0007343103 -0.00579852 -0.018842727 -0.013271609
000100 2b bd 04 bc 52 fd a7 bc 28 83 58 bc cd 8c b5 3b
       -0.008101742 -0.020506535 -0.013214864 0.0055404664
000110 ec 27 7f 39 81 03 ec bc 77 a2 8a 3c 9a 19 78 3a
       0.00024333567 -0.028810265 0.016923172 0.0009464264
000120 fc a9 05 3b bd a5 5e 3c 50 b1 12 bb 1c da e1 3c
       0.0020395508 0.01358932 -0.0022383519 0.027569823
000130 e6 12 80 3c e4 bd c0 ba 2e 86 2d bc e9 37 9a b9
       0.015634011 -0.0014705029 -0.010591073 -0.00029414825
000140 d6 bc 84 39 c9 e7 33 38 9b 53 bb 3a 3a 37 56 bb
       0.00025317696 4.2892792e-05 0.0014291884 -0.0032686726
000150 ca 5e 3d 3b 4a b1 d9 bc b4 67 08 3c 00 be 48 bc
       0.002889561 -0.026573796 0.008325506 -0.012252331
000160 ec 16 14 3c 36 fc e4 3b 8d 82 db 3b eb 09 21 3b
       0.009038668 0.0069880737 0.0066989125 0.0024572562
000170 85 f4 8a 3c 71 d1 bd ba 86 cd bf 3b 97 f8 c4 3a
       0.0169623 -0.0014481974 0.0058533577 0.0015027699
000180 a5 17 18 bc 64 13 ad bc ac 51 d1 bb ea cd f2 bb
       -0.009282981 -0.02112741 -0.00638791 -0.007409801
000190 da bf 76 3c b0 65 b5 bc e7 ae 81 b9 75 3e a9 bb
       0.015060389 -0.022143215 -0.0002473511 -0.005164916
0001a0 80 d8 b6 bc 0d ed 94 bc 0f 22 e5 bc 15 c0 11 3c
       -0.022320032 -0.01817944 -0.027970342 0.008895894
0001b0 38 25 17 3c a4 a1 a6 3b 0b b9 1a bc 9c ba f2 bb
       0.009225182 0.005085187 -0.009443532 -0.0074074995
0001c0 2a ab 00 00 2a ab 00 00 99 3c 5b bb 03 6f a6 bb
       6.1402e-41 6.1402e-41 -0.0033452867 -0.0050791516
0001d0 00 2d 2b bc 28 b3 1f 3c b0 d7 24 bc db 43 f7 3b
       -0.010447741 0.009747304 -0.0100611895 0.007545931
0001e0 0b 4b 1a 3c 16 08 33 3c 3b eb 6a bc 51 89 91 bc
       0.009417306 0.010927221 -0.01433831 -0.017765673
0001f0 38 5c f1 3b 8b cf ab 3b 63 89 01 3c c1 06 df 39
       0.0073657297 0.005243247 0.007906291 0.00042538907
000200 c4 a5 94 39 73 fa 15 bc 07 e5 b1 3b 42 98 a2 3c
       0.00028352265 -0.00915395 0.0054289135 0.019847993
000210 fb 72 db 3c 87 8f 41 bc 81 56 fe 3c 8d 5f 81 bc
       0.026788225 -0.011814005 0.031047108 -0.015792632
000220 66 15 a4 3b 18 b6 df 3b 3e e4 11 3c 37 7f 46 3b
       0.0050074337 0.006827127 0.008904515 0.0030288228
000230 f5 30 4c bc 70 74 08 bd ec d9 14 3c 4b ce fa 3b
       -0.012462844 -0.03331417 0.00908516 0.0076539866
000240 5b 19 95 ba 22 8b 19 bc 61 4a 37 3c 4f 5d 75 3a
       -0.0011375354 -0.009371551 0.011187167 0.00093599124
000250 ff 69 4a 3c 94 68 ca 3c 56 83 00 3d 2b b3 a8 bb
       0.012354373 0.02470807 0.03137525 -0.0051483116
000260 df 49 af 3c ec f0 e1 3b 0c 0f b8 3a 37 aa 15 3d
       0.02139753 0.006895175 0.001404257 0.036539283
000270 48 a8 57 3c 0f 98 50 bc b2 86 6a bb 15 9e 06 bc
       0.01316268 -0.012731566 -0.003578585 -0.008216401
000280 4b ef d8 bb 69 56 b8 bb 6f 71 fb bb c9 1f 6a 3a
       -0.006620323 -0.0056255353 -0.0076734344 0.0008931128
000290 8d 3f 80 bb 10 76 26 3b 68 fa 14 bd 39 df cb 3c
       -0.003913826 0.002539996 -0.03637162 0.024886714
0002a0 f9 38 6c 3c d9 f1 ad bc ab a0 e6 bc 76 c1 26 bc
       0.01441788 -0.021233486 -0.028152784 -0.010177961
0002b0 18 0b 1d bc 0d e8 1c 3c d0 4f bd bb 60 bb 37 bc
       -0.0095851645 0.00957681 -0.0057773367 -0.011214107
0002c0 94 5e 39 bc 47 34 0a bc 35 be 1f bc f0 87 9e bb
       -0.011314053 -0.008435315 -0.009749939 -0.0048379824
0002d0 84 83 0b bc 6d f2 11 bd a7 06 b2 3b 6a a3 cb bc
       -0.0085152425 -0.035631586 0.005432922 -0.024858195
0002e0 8f 19 39 3c 6e 0c b9 3b 2e 52 8e bc 56 7e 94 3c
       0.011297598 0.0056472337 -0.01737317 0.018126648
0002f0 b0 49 b0 bb ab 38 c3 bc bc 6e 1c bc 72 40 3b bc
       -0.005379878 -0.023830732 -0.0095478855 -0.011428939
000300 5c 20 14 3c c4 40 44 3c a7 35 c4 3b 25 0c 75 3c
       0.009040918 0.011978332 0.005987841 0.014956509
000310 e4 f2 9d 3b 86 bc 7a 3c b0 33 d3 bc 7d 65 c1 3c
       0.0048202146 0.015303737 -0.025781482 0.023607964
000320 a3 e9 30 3b 87 4d 9d bb 29 ac 99 bc 30 45 3a 39
       0.0026994727 -0.0048005017 -0.01875885 0.00017764117
000330 cd bc e1 3b ee 83 d0 3b 48 d9 13 3c 7d 5c 4f 3c
       0.006888962 0.0063633835 0.009023972 0.012656328
000340 20 07 02 3d 0a 44 5d 3c b1 57 d6 3b 6b eb 0c 3d
       0.031745076 0.013504991 0.0065412153 0.0344042
000350 b9 52 03 bc f7 53 f2 3c 9d c7 ed 3b 44 30 9b bc
       -0.008015328 0.029581053 0.007256462 -0.018943913
000360 d9 e4 12 3c 96 e6 ee 3c 9c 56 e7 bc 62 26 94 bc
       0.008965694 0.029162686 -0.02823954 -0.018084709
000370 a3 3f 1d bc 01 01 83 bb fa 00 17 bb bc 19 19 bc
       -0.009597692 -0.0039979224 -0.0023041354 -0.009344514
000380 ec 9a 4c ba ec 9a 4c ba b6 a6 92 bb 74 fe 50 3b
       -0.00078050676 -0.00078050676 -0.00447544 0.0031889947
000390 cd 75 b1 3a 99 99 5d bc e7 77 03 bd 1a 0b dd 3b
       0.0013539136 -0.01352539 -0.03209677 0.006745708
0003a0 93 b1 95 3c 09 2c dd bc 81 8b eb 3c 96 c3 06 3b
       0.01827315 -0.026998537 0.028753044 0.0020563356
0003b0 2a 38 c9 ba 34 8e ea 3a c3 d6 fa 3a cd 3e 63 3b
       -0.0015351821 0.0017895163 0.001913749 0.0034674883
0003c0 e4 f0 49 bb bc 14 f6 3c e7 94 25 3d 7b 9b e0 3c
       -0.0030813748 0.030039184 0.040425207 0.027417889
0003d0 06 1c 0b 3d d9 7a b3 3b 3b 41 e0 3c 94 c5 7d bb
       0.033962272 0.005477291 0.027374854 -0.0038722502
0003e0 2d 80 c5 3b 0b 13 34 3c d8 e2 39 bb 75 93 9c bc
       0.0060272426 0.010990868 -0.002836397 -0.019113282
0003f0 7e 99 d9 bc 59 de 06 3c 43 9e 89 bc fd 81 f9 3c
       -0.026562449 0.008231723 -0.016799098 0.030457491

head.0.bias f4 [24]
000000 04 b1 79 bc 83 ce 0f bd 5d 30 43 3a f6 cc ed 3c
       -0.015239958 -0.035109054 0.00074458664 0.029028397
000010 05 3b a3 3c d4 52 91 bb c3 ab 29 bc 01 74 f7 3c
       0.019925604 -0.0044349227 -0.010355893 0.030206682
000020 8a a3 11 bb 00 c5 99 3c c1 1c 07 3d e5 c8 f8 3c
       -0.002222272 0.018770695 0.032986406 0.030369231
000030 a9 f6 0a 3c d4 7f 39 bc 70 4c 00 3d c9 49 cf 3c
       0.00848166 -0.0113219805 0.031322896 0.025303738
000040 c5 c6 21 3c 7e 81 ea 3a 22 72 cf bc f7 ff d8 3b
       0.0098740505 0.0017891375 -0.025322977 0.0066223103
000050 00 56 58 3c 42 c9 89 3c e9 49 4a bb 6f aa 60 bc
       0.013204098 0.0168196 -0.0030866808 -0.01371251

head.2.weight f4 [2, 24]
000000 07 a8 af ba f3 3e 0c be 3f 36 07 3e dc e3 50 3e
       -0.0013401516 -0.13695888 0.13204287 0.20399421
000010 d0 29 4d 3e c8 95 cf bd 3e f1 60 3e 2e 41 33 be
       0.20035481 -0.101359904 0.21967027 -0.17505333
000020 9c e9 f4 bd b9 b0 e5 3d 3c 24 40 be bd 0a 1a 3d
       -0.1195862 0.11215348 -0.18763822 0.037607897
000030 c2 a9 fb bd d0 dd 4a 3d de 10 04 be da 5f de 3d
       -0.12288238 0.049527943 -0.1289706 0.10858126
000040 f7 c8 1a be 1a 9a fe 3d 3c f8 c9 3d 50 77 40 3e
       -0.15115725 0.12431736 0.098618 0.18795514
000050 44 d4 67 be a6 b9 52 3e 30 67 21 3e 21 b1 2e 3c
       -0.22639567 0.20578632 0.15762019 0.010662348
000060 51 3e f5 3d 5f 25 c8 bd b3 56 20 3c 7d 4b 60 be
       0.119747765 -0.09772753 0.009786296 -0.21903796
000070 76 db 6c be 88 e3 fa bc 6e ca 1d 3e 8a e1 16 3e
       -0.23130593 -0.030626073 0.15409252 0.14734474
000080 67 b4 52 3e 2f a1 e1 bc 42 a1 4e 3d 91 b8 4e be
       0.2057663 -0.027542679 0.050446756 -0.20187594
000090 19 05 3a 3e 41 ad 54 bc c7 6f 41 3e 6d 90 46 3e
       0.18166007 -0.01298076 0.18890296 0.19391032
0000a0 61 7b 3f 3e 9b 83 71 3d ca c1 39 3e 30 02 f9 bd
       0.18699409 0.0589634 0.18140331 -0.1215862
0000b0 88 36 fb ba 97 65 4d be 40 be 41 3e 99 f6 01 3e
       -0.0019166032 -0.20058285 0.18920231 0.12691726

head.2.bias f4 [2]
000000 ac 3d cb 3d 5c 64 38 be
       0.09923872 -0.18007034
