models/AC-RM Q_LR=0.1 P_LR=5e-06 BATCH_SIZE=128 GAMMA=0.99 MEMORY_SIZE=100000_q.pt (torch, 736954 bytes, 22 tensors)

base.0.weight f4 [64, 2, 5, 5]
00000000: 5284 edbe 8eb8 d9be 0969 d9be aef6 aabe
00000010: f469 02bf 3b4c bbbe c668 1bbf 59d4 babe
00000020: 3b06 f4be 6330 d0be 9f80 f9be a654 bebe
00000030: acba e2be f3f2 c3be c069 d5be 126d d6be
00000040: 1aa7 bbbe d88f acbe 7458 0fbf 86f3 bebe
00000050: 7302 f7be f524 cabe 56bb b2be 9dd9 0bbf
00000060: c094 aebe c25e b0be d9b9 0cbf a607 06bf
00000070: 8525 f4be 0dff f3be 3a3c ffbe 5bdc d2be
00000080: 54da aebe fdb3 c3be cfda d2be e0e9 c3be
00000090: 7a51 1bbf c957 0dbf 05f0 07bf a606 fabe
000000a0: ed6f b0be efb1 b5be 1513 eabe c597 09bf
000000b0: 0858 c3be adeb b1be 78b9 02bf 011c b9be
000000c0: 9681 fcbe c57f a8be 66de 11bf ee1a c1be
000000d0: 5581 ffbe e510 15bf e493 16bf 31e7 dabe
000000e0: 6716 dcbe b0b6 d9be 5af9 bcbe 6686 abbe
000000f0: 28fa a8be cbd2 18bf a5a2 b2be df57 f3be
00000100: a6e7 d4be 85f2 02bf 5961 0ebf ea4f b5be
00000110: e71d d9be fee5 0cbf 88a8 b5be 311e 0cbf
00000120: 783f f9be ab96 eebe c896 b9be 9964 19bf
00000130: cd37 10bf e6c2 f6be 071b 0cbf 0958 ddbe
00000140: 7378 19bf 7508 0abf 93f2 c1be e2ef 05bf
00000150: c2be 0fbf 170a ddbe f581 e8be 119b babe
00000160: 0bdb bebe 33b4 1abf d038 15bf de36 1cbf
00000170: bf48 eabe 5f1d cbbe 6383 e8be 0abf fdbe
00000180: 82fc d8be a178 b0be a851 b6be c53f d3be
00000190: 1165 03bf 6d22 0abf cd68 dcbe 391b 01bf
000001a0: 25dc f2be bf8f d8be e2c6 dbbe 0b56 07bf
000001b0: b92a 0fbf a104 ddbe e0ec 08bf 7f26 0ebf
000001c0: 5ef2 0dbf 91e7 14bf 2492 23bf 7ab9 d7be
000001d0: b0e4 e8be 54bc 0ebf 320f f2be a0b8 1bbf
000001e0: 494b 0abf 27e1 d8be a435 0dbf 077f 21bf
000001f0: bd66 0bbf f011 ebbe 949e 08bf b74c dbbe
00000200: a849 e7be 111c dbbe 255e 11bf b636 dcbe
00000210: e127 d9be 01de d8be d36c 0fbf 33c6 debe
00000220: 603a d7be 3cf2 ddbe b996 01bf 184a 1abf
00000230: cc48 0abf fc55 0ebf dd48 07bf 224a e1be
00000240: 3236 06bf eb2d 10bf 1aa1 debe 838e dfbe
00000250: 6932 d9be 0c97 f6be dfd4 b4be 7a07 f1be
00000260: a020 04bf 88f8 a2be 7388 44bf f709 afbe
00000270: 61ac d5be f516 11bf 6df2 b0be 093b 1abf
00000280: f148 b4be 4305 f0be cdbe 17bf 3ca6 e2be
00000290: cf07 0bbf 9596 1abf a228 17bf 2cbb 13bf
000002a0: 3c74 18bf 2767 0dbf c956 49bf 7add 14bf
000002b0: 3da4 23bf b3a3 10bf 2d44 3fbf 86e7 13bf
000002c0: 7680 15bf 4015 24bf 1f8b ecbe fa07 17bf
000002d0: 3c30 b0be 2cc4 12bf fbe7 31bf 6a76 04bf
000002e0: 59f4 16bf 89c1 2dbf 7e92 02bf a338 13bf
000002f0: bae7 f2be 4ef8 febe af8e 28bf 302c 0bbf
00000300: f5e4 0cbf a574 f7be 0577 27bf 02d8 15bf
00000310: c1c0 0fbf 25e2 0cbf f8ad febe 632c f9be
00000320: 6617 27bf a271 30bf 2bf4 32bf af0b 33bf
00000330: 62ac 3dbf d31b 29bf f9ca 30bf 3958 2ebf
00000340: b588 33bf b169 3abf 0389 2bbf 169a 32bf
00000350: 0f91 2ebf e1ba 32bf ca7c 2bbf 8bcf 36bf
00000360: 7681 30bf ee26 31bf e20b 33bf 378c 34bf
00000370: 4920 35bf a9bb 2ebf 27b1 31bf 18ea 30bf
00000380: 37c8 34bf 772b 31bf f0fb 35bf 2bf2 33bf
00000390: 62f2 2ebf b2e5 31bf 28f3 2cbf 9670 2abf
000003a0: aec1 32bf 1827 30bf e056 2fbf 8324 37bf
000003b0: 4e01 34bf 664f 31bf 2964 2ebf c3a8 33bf
000003c0: c8ee 3dbf f1d0 35bf 4c1d 33bf 2b2a 32bf
000003d0: 3ee7 2dbf 6f26 37bf e8bb 35bf 67ec 31bf
000003e0: 012c 32bf da56 2fbf 2cf5 05bf 9c01 b0be
000003f0: 6002 45bf 833e 0dbf 5c8f 2abf d427 0bbf
-0.46390015 -0.42523617 -0.42462948 -0.33391327 -0.5094292 -0.36581597 -0.60706747 -0.36490133
-0.47661003 -0.40661916 -0.48730943 -0.37173957 -0.44283044 -0.38271293 -0.41682243 -0.4188009
-0.36650926 -0.33703494 -0.55994344 -0.3729517 -0.48244056 -0.3948132 -0.3490855 -0.54628927
-0.34097862 -0.34447294 -0.5497108 -0.5235542 -0.47684875 -0.47655526 -0.49850637 -0.41183743
-0.34150946 -0.38223258 -0.41182563 -0.3826437 -0.606712 -0.55212075 -0.53100616 -0.48833197
-0.34460393 -0.35487315 -0.45717683 -0.53747207 -0.381531 -0.3475012 -0.5106425 -0.36154178
-0.49317616 -0.3290998 -0.5697998 -0.37715858 -0.4990336 -0.58228904 -0.58819413 -0.4275451
-0.42985842 -0.42522192 -0.3690899 -0.33500975 -0.33003354 -0.59696645 -0.34889713 -0.47527978
-0.41582984 -0.51151305 -0.5561729 -0.35412532 -0.42405626 -0.5503844 -0.35480142 -0.5473357
-0.48681235 -0.46599326 -0.3624785 -0.59919125 -0.56335145 -0.4819557 -0.5472874 -0.43231228
-0.59949416 -0.53919154 -0.37880382 -0.5231916 -0.5615045 -0.4317176 -0.4541165 -0.3644643
-0.37276492 -0.6043121 -0.58289814 -0.6102122 -0.45758626 -0.39670846 -0.4541274 -0.49559814
-0.42380148 -0.34467033 -0.35609174 -0.4125959 -0.5132609 -0.5395878 -0.43048707 -0.50432163
-0.47433582 -0.4229717 -0.42925173 -0.52865666 -0.55924565 -0.43167594 -0.5348644 -0.5552749
-0.5544795 -0.5816584 -0.6389487 -0.42133695 -0.45486975 -0.55756116 -0.47277218 -0.6082859
-0.54021126 -0.42359278 -0.55159974 -0.63084453 -0.5445364 -0.45912123 -0.5336697 -0.42831966
-0.45173383 -0.4279485 -0.5678428 -0.4301049 -0.42413238 -0.42356876 -0.5602543 -0.4351059
-0.42036724 -0.43348873 -0.5062061 -0.6026931 -0.5401733 -0.5559995 -0.52845556 -0.4400187
-0.52426445 -0.56320065 -0.43482286 -0.43663415 -0.42421272 -0.48162115 -0.35318658 -0.47076017
-0.5161228 -0.3183024 -0.76770705 -0.3418729 -0.41733077 -0.56675655 -0.34559956 -0.6024633
-0.352119 -0.46879014 -0.59275514 -0.44267452 -0.5430879 -0.6038602 -0.59046376 -0.57707477
-0.5955236 -0.55235523 -0.7864805 -0.58150446 -0.6392248 -0.56499785 -0.74713403 -0.5777515
-0.5839914 -0.64094925 -0.4619989 -0.58996546 -0.344118 -0.57330585 -0.694946 -0.51743186
-0.58966595 -0.67873436 -0.5100478 -0.57508296 -0.47442418 -0.49798816 -0.6584272 -0.543643
-0.5503686 -0.4833118 -0.65415984 -0.58532727 -0.56153494 -0.5503257 -0.49742103 -0.48666677
-0.6527008 -0.6892339 -0.6990382 -0.699397 -0.7409116 -0.6605808 -0.6905971 -0.6810337
-0.70130473 -0.7281752 -0.6700594 -0.69766366 -0.6819009 -0.69816405 -0.6698729 -0.71410435
-0.6894754 -0.69200027 -0.69940007 -0.7052645 -0.7075239 -0.68255097 -0.6941094 -0.691072
-0.70618004 -0.6920695 -0.7108755 -0.70291394 -0.68338597 -0.6949111 -0.67558527 -0.6657804
-0.6982678 -0.6880965 -0.68491936 -0.7154009 -0.7031449 -0.6926178 -0.6812158 -0.70179385
-0.74192476 -0.71021944 -0.6996658 -0.69595593 -0.6793097 -0.7154302 -0.7098985 -0.69501346
-0.69598395 -0.684919 -0.5232723 -0.34376228 -0.7695675 -0.5517351 -0.66625 -0.5435765

base.0.bias f4 [64]
00000000: d29a ddbe 7951 bcbe 83fb 2bbf 2b52 fdbe
00000010: 7fc2 1ebf 5c6a 20bf 0dc6 f3bc 6738 883e
00000020: c7b3 d2bf 5609 34bf 9629 1f3f d11a 15bf
00000030: 4eaa febe 617f 0dbe 4f6d 24bf 5abf b7be
00000040: 78f0 a63e 3b13 e5be 3613 91bd 312a 1bbf
00000050: 56a0 eebf 5fbb c6be ca9e 94bd cac8 1abe
00000060: 11b9 1fbf 6631 bbbe cc95 d8bf 2abc 11bf
00000070: 82eb 17bf cd1e 43bf fb3f 0bbf a587 083f
00000080: c481 fbbf 08d1 c9ba 3c48 52be f09f 963d
00000090: 22dd 63be 9150 4d3f 8d0c 00bf 8fab a5be
000000a0: 3416 c1be ff11 ea3d 1057 56ba 3957 e4be
000000b0: 51c9 06be ea8b e1be d616 cdbe 81ca 0e3f
000000c0: 22d6 1bbd 90df 08bf 42a1 01bf 5986 e3be
000000d0: 19bb aa3e aee7 a53e 36ad dabe cfd4 4cbf
000000e0: 7760 23bf 08d3 f2bd 9a17 e8be 5398 d03e
000000f0: ab60 13bf af50 b6be 489d 10bf d1c7 9ebc
-0.4328218 -0.3678091 -0.6718065 -0.49476752 -0.6201553 -0.6266229 -0.029757524 0.26605532
-1.6461114 -0.70326746 0.6217283 -0.58244044 -0.49739307 -0.13818122 -0.6422929 -0.35888177
0.32605338 -0.44741234 -0.07083742 -0.60611254 -1.8642681 -0.38814828 -0.07256849 -0.15115657
-0.62391764 -0.36561126 -1.6920714 -0.5692774 -0.5934373 -0.76218873 -0.543945 0.5333198
-1.9648976 -0.0015397379 -0.20535368 0.073547244 -0.22252324 0.8020106 -0.5001915 -0.3235745
-0.37712252 0.11429214 -0.00081764255 -0.44597796 -0.13162734 -0.44052058 -0.40056485 0.55777746
-0.03804601 -0.5346613 -0.50636685 -0.44438437 0.3334587 0.3240332 -0.42710274 -0.8001222
-0.6381907 -0.11856657 -0.45330507 0.40741214 -0.5756938 -0.35608432 -0.5648999 -0.01938239

base.1.weight f4 [64]
00000000: 1fe4 093f fb2f 0a3f b86e 193e f429 b03e
00000010: cec9 493f e82f b03e d088 273d a870 993e
00000020: b098 b6bf d330 b03e a866 52bf 44d5 7a3e
00000030: 4f3d 0a3f e516 593e 3f5f 85bc 83e0 b93e
00000040: 41b0 033f 1920 0a3f 3916 173a 5f1b d8be
00000050: 1bc7 b7bf fdd0 093f 663f f539 d3ac 4a3e
00000060: a123 b03e 8542 0a3f 87dc b4bf b50b b53f
00000070: d171 0a3f a417 b13e bedc af3e dc8c c93e
00000080: cea4 bfbf 75cb 183a 92e3 243f 9d3b 933e
00000090: 48ee 0cbe 5e70 e23f d987 e9bd 20cc 0d3f
000000a0: 4747 0a3f 102f cc3e 4701 ca39 99a2 af3e
000000b0: 0ba1 de3d d907 da3e fcd5 a53e 45a0 493f
000000c0: fc99 bab9 005a ba3f 6220 0a3f 414c 8bbe
000000d0: 4990 1a3f 5a6f 1b3f 5dcd cf3e 312b 90be
000000e0: 210a d8be e446 6f39 4327 b03e 33cf 253f
000000f0: 5227 b03e b041 0a3f acdb 1b3f 1838 66be
0.5386371 0.5397946 0.14983642 0.34407008 0.78823555 0.3441155 0.04090196 0.29968762
-1.4265347 0.3441225 -0.8218789 0.24495417 0.539998 0.2120014 -0.016280768 0.363041
0.5144082 0.5395523 0.00057635043 -0.42208382 -1.4357637 0.53834516 0.00046777277 0.1979249
0.34402183 0.5400775 -1.41298 1.4144198 0.5407992 0.3458835 0.343481 0.3936528
-1.4972169 0.00058286573 0.64409745 0.2875642 -0.13762772 1.7690542 -0.11402864 0.55389595
0.5401501 0.39879656 0.00038529394 0.3430374 0.1087056 0.42584112 0.3238982 0.78760177
-0.00035591412 1.4558716 0.5395566 -0.27206615 0.6037641 0.60716784 0.40586367 -0.28157952
-0.42195228 0.00022819225 0.34404954 0.64769286 0.34405 0.5400648 0.6088207 -0.22482336

base.1.bias f4 [64]
00000000: 2ef8 efbe 5523 f1be 674e 17bf ba9d e9be
00000010: 0730 20bf e0e7 27bf 245d f7bc 81e2 b0bf
00000020: 524a 683f 36e8 27bf 41f5 0cbf 986a 03bf
00000030: cb27 f0be e7b2 12bf 05de bfbf a36f adbe
00000040: 6d7e d5bf 8823 f0be f760 53bd 1c5c 9bbf
00000050: 45c5 763f 8473 f4be 82e9 5dbd 93b8 acbd
00000060: 64e5 27bf 7e11 f0be a262 7c3f 2af5 eebe
00000070: 3043 efbe 5dc1 2bbf e278 f2be 8fe5 babf
00000080: ddbe c4bd 0e30 c139 ec79 9ebe a8b8 2abf
00000090: 1934 36bf 5898 4d3f 9abc cbbf d08b bdbe
000000a0: 7259 f0be 72e0 5fbf 9198 fab9 e7ae eabe
000000b0: 7a6d 14be 45e8 fabe d28b b4be 9a0b 90bf
000000c0: b0a7 d1bc 8de7 27bf 10cb f0be 8815 c2bf
000000d0: 47ed e8bf 3bb9 d7bf af29 b3be c853 efbf
000000e0: 8502 9bbf 8f2c fdbd 1291 e9be a73b dbbf
000000f0: 9d1b eabe 1308 f0be 6fe1 abbf 19b8 98bd
-0.46869034 -0.4709727 -0.5910401 -0.45628148 -0.62573284 -0.6558819 -0.03019578 -1.3819124
0.90738404 -0.655887 -0.5506173 -0.51334524 -0.4690536 -0.57304233 -1.498963 -0.33874235
-1.6679207 -0.46902108 -0.051606145 -1.2137485 0.9639476 -0.4774438 -0.05417777 -0.08433642
-0.655844 -0.46888345 0.98588 -0.4667142 -0.46730947 -0.67091924 -0.4735785 -1.4601306
-0.09606717 0.00036847632 -0.30952394 -0.66688013 -0.71173245 0.80310583 -1.5916932 -0.3702073
-0.4694324 -0.8745185 -0.00047797387 -0.45836565 -0.14494887 -0.49005333 -0.35262924 -1.125354
-0.025592655 -0.65587693 -0.47029924 -1.5162821 -1.8197411 -1.6853403 -0.3499274 -1.8697443
-1.2110144 -0.123620145 -0.45618492 -1.712758 -0.45724192 -0.4688116 -1.3428172 -0.07456989

base.1.running_mean f4 [64]
00000000: 44b2 273e b222 b53c 871b 97bd c046 acbd
00000010: feb5 97bd c239 353d 38ca 083e dbd6 2dbd
00000020: 6f32 e23b 4d68 4abd df0a d3bd d861 fcbc
00000030: 0d33 363d e738 76bb ad52 cabc 891a 80bb
00000040: f37f 0cbd 5b91 9a3d c20f 0c3d 7202 e6bc
00000050: f53f 80bc e2ac dc3b 0022 ce3c 8e08 33bd
00000060: 9792 bcbd aac6 2e3d 94d1 b53b 6ff4 50bd
00000070: bb35 cf3c 3279 77bc cf7a 84bd 0a6b e6bc
00000080: 88a4 70bd 3dee 903d 00c3 a3bd 5f69 24bc
00000090: e3b4 39bd 6f14 b9bd f1cf bdbb 1b95 13bb
000000a0: 9d53 e03c f424 073c cd9a fd3d e837 ccbd
000000b0: 6505 073e fb59 12bb 7732 63bb 876a 073d
000000c0: 43aa 8b3d 23ef babd 5ac0 403d e481 25bd
000000d0: 9311 c7bb d1db b5bc 808f 29bd ab58 843c
000000e0: f78c 07bd acc4 273d be43 c3bd 837a 67bd
000000f0: d810 97bd 5d06 393d 6282 8e3c 97b6 f9bc
0.16376597 0.02211127 -0.07378297 -0.08411932 -0.07407759 0.044244535 0.1335839 -0.04244123
0.006902985 -0.049415875 -0.10304808 -0.030808374 0.04448228 -0.0037570538 -0.024697626 -0.0039094132
-0.03430171 0.075472556 0.034194715 -0.028077338 -0.015655497 0.0067344764 0.025162697 -0.04370933
-0.09207647 0.04266993 0.0055486653 -0.05101436 0.025294175 -0.015104579 -0.064687364 -0.028127212
-0.05875066 0.0707669 -0.07996178 -0.010034888 -0.045338523 -0.090371005 -0.005792611 -0.0022519294
0.02738362 0.008248556 0.123830415 -0.09971601 0.13185652 -0.0022331465 -0.003466753 0.033060577
0.06819584 -0.09127643 0.04705844 -0.040407076 -0.006075093 -0.022199543 -0.041396618 0.016155561
-0.03309342 0.040959045 -0.09534405 -0.05651332 -0.073762596 0.045172084 0.017396156 -0.030482573

base.1.running_var f4 [64]
00000000: be20 673f f07d 663f 9c85 663f f694 663f
00000010: 2b83 663f 637b 663f f4dd 663f 3f75 663f
00000020: 516a 663f 197e 663f a2bc 663f 6285 663f
00000030: 9a76 663f 3071 663f cc7c 663f 4771 663f
00000040: fa72 663f 8aa8 663f 607d 663f 4e73 663f
00000050: 556d 663f de78 663f c578 663f 2472 663f
00000060: cba1 663f 7870 663f 976e 663f 9d78 663f
00000070: ee93 663f 9a69 663f 5e84 663f 0a6a 663f
00000080: 9889 663f cfa1 663f f8bb 663f 3c71 663f
00000090: ad81 663f 01ad 663f 9c79 663f c16d 663f
000000a0: 086f 663f 7b71 663f 72e3 663f efb5 663f
000000b0: f4c0 663f 2871 663f ef69 663f db70 663f
000000c0: 49af 663f 9ab9 663f b486 663f e38c 663f
000000d0: b867 663f 9f69 663f c475 663f 5373 663f
000000e0: b070 663f 0d71 663f 78ad 663f 0382 663f
000000f0: 378b 663f 197c 663f ee70 663f 0e73 663f
0.90284336 0.90035915 0.9004762 0.90071046 0.90043896 0.90032023 0.90182424 0.90022653
0.90005976 0.9003616 0.9013158 0.90047276 0.9002472 0.9001646 0.90034175 0.900166
0.9001919 0.9010092 0.9003506 0.9001969 0.9001058 0.9002818 0.9002803 0.90017915
0.90090626 0.90015364 0.90012497 0.9002779 0.9006947 0.90004885 0.90045726 0.9000555
0.900537 0.9009065 0.9013057 0.9001653 0.9004162 0.90107733 0.9002931 0.9001122
0.9001317 0.9001691 0.90190804 0.9012136 0.90138173 0.9001641 0.9000539 0.90015954
0.90111214 0.90126956 0.9004929 0.90058726 0.9000201 0.90004915 0.90023446 0.9001972
0.900157 0.9001625 0.9010844 0.9004213 0.90056175 0.9003311 0.9001607 0.9001931

base.3.weight f4 [64, 64, 5, 5]
00000000: 69cc 9abb 2371 9a39 1d50 293b 543d 193b
00000010: ada3 823a 8317 f0bb 32ca e3b9 4082 273b
00000020: fc74 f43a b9dc e33a feec 2a3b e267 5d3a
00000030: 946c 51ba b1d1 513a 2394 4e39 664e 72b7
00000040: 9b4a aaba 7804 453a 252c 3a38 d5bc c639
00000050: 73d5 a7ba 53ca 223a 53db e8b9 f171 11b9
00000060: dfeb 15b9 d405 ae39 929d ab39 276e a739
00000070: d9b6 acb9 834e e437 f40f d539 547a 5439
00000080: c2c7 a8b8 11e1 57b9 c65e 8cb9 90b8 093a
00000090: 71fd 25b9 01f9 e739 beb9 f2b7 dbc0 30b9
000000a0: ab6c aeb9 c156 3cb8 6568 dd39 b32b 41b9
000000b0: bbae 9db8 a1ec b439 ccc5 64b7 3ccd a939
000000c0: 989e 9939 67cd a0b9 0780 073f 4961 ed3e
000000d0: 55b8 063f 64b1 ec3e 3b32 e13e e8f9 ee3e
000000e0: ab5a ed3e 9b34 083f 1145 063f 1365 ff3e
000000f0: d2d4 063f 6b15 073f 7271 093f 0217 073f
00000100: 63dc e23e cbf2 e43e 23cb e93e d28e ee3e
00000110: 2b1a 073f b390 f93e 0e74 aa3e d00a d33e
00000120: 6d8a ea3e e96a e63e 2522 b53e 6b19 38b8
00000130: d575 50b8 abec 68b8 0268 c0b7 afa9 22b8
00000140: 1bc5 ccb7 10a5 a537 7692 7138 b33a ae36
00000150: d125 58b8 259a 3f38 fa03 8fb7 023a 7138
00000160: d1e4 b036 c51d 83b8 6c21 27b8 826c 25b8
00000170: 0026 0a38 2e85 9537 b6a8 f0b7 3d33 55b9
00000180: 6e17 c4b7 9b1e b536 e3c0 0839 1220 e9b8
00000190: 00f4 08b8 b310 f137 b0ef 7cb8 b7bd cc37
000001a0: 2be6 4db8 cecd 0238 60a2 8db8 4b7a 1238
000001b0: 2879 f2b7 b5b0 f7b7 9cf1 4838 315c e4b7
000001c0: 4f17 e7b7 0045 8ab8 9e5e 5d38 fc53 3cb8
000001d0: 2ca6 4eb8 a44f 1738 7dda 5fb8 d8a3 1fb8
000001e0: 5388 a9b8 11dc 3d38 af09 04b8 bee2 c838
000001f0: 8f0e 1bb9 97f1 303a 2265 273a 83b6 4339
00000200: bcf4 fab9 57e2 6db9 0f9e 283a bc83 8639
00000210: 88c9 21ba afe7 3eb9 dbda b8b9 f446 e7b9
00000220: 10c2 013a 66c1 a8b9 49a5 2839 c6a1 ae39
00000230: 38e1 10ba 1b8b 1a3a ba3f cb38 2b65 ff39
00000240: 2efc c339 20ad 4d39 f1cf d237 2995 47b9
00000250: 7b4d 3839 3b8b ccb9 f97c d53a 35ff 313b
00000260: ffb6 cc39 3f80 8b3a 6fe8 293b 9c97 9b3a
00000270: c071 313b c23f fe38 a9f5 9439 9556 253b
00000280: dee7 103b 67b0 233b b4ce 23ba e09d 9cba
00000290: 31c8 fd39 7e29 88ba 92cd 94ba 89c1 a339
000002a0: febb e3b9 8392 7d39 160b f9b8 f486 093a
000002b0: 298a ca38 1858 7538 e207 e437 9675 f6b5
000002c0: 4302 57b8 1e2f 5738 870d 3db8 e8a0 6fb8
000002d0: 5c68 54b8 63e4 6438 60e9 a237 bac3 3038
000002e0: 5f73 5638 e86d 4938 56ad 4db8 f45f 17b8
000002f0: 59b3 efb7 cc88 2638 d0f1 4d38 ecbd 2ab8
00000300: a699 8438 9b3b 87b7 92ab 5338 9ffd 09b9
00000310: fc53 8538 dcc1 4039 2ec4 8036 03ca 94b5
00000320: f67d bf38 e3d4 23b9 c0ff 033a 89d5 4939
00000330: 0a1d 12b9 4a2b 9439 48d5 1b38 34f1 0a3a
00000340: f405 a7b8 bff2 4539 f554 09b9 aef6 8bb9
00000350: e717 d4b9 66d4 0bba f49d aa39 4d7d abb9
00000360: f047 0639 c390 c9b8 2d5b 6fb8 d891 8db9
00000370: 785f 2639 fa91 51b9 5444 1038 d29a 0c3a
00000380: 99b6 1839 2b06 3438 565b 2737 056e 36b8
00000390: ff83 6cb6 929f 7838 712f 0b38 3711 3338
000003a0: d82c 89b8 1876 34b8 8b83 2738 1fa0 95b9
000003b0: b08b 4939 b238 11b9 a2e0 3db9 c82d b2b9
000003c0: c05f 68b8 beaf 9238 3501 4f38 76fa 2d37
000003d0: e4d4 1839 9c2f 8538 d508 f738 0528 9d38
000003e0: 3f69 6f38 8968 2439 44f4 5d38 288f d0b7
000003f0: d67d 16b8 15a1 9cb7 eb8d 6438 b2ca 6eb8
-0.0047240746 0.00029457462 0.0025835105 0.0023382502 0.0009966992 -0.0073270216 -0.0004344746 0.0025559813
0.0018650587 0.0017384506 0.00260812 0.00084459607 -0.00079888967 0.0008003964 0.00019700876 -1.4442578e-05
-0.0012992205 0.00075156195 4.438697e-05 0.00037906194 -0.0012804702 0.0006209958 -0.00044413898 -0.00013870724
-0.00014297616 0.00033192209 0.0003273306 0.00031934792 -0.0003294263 2.7216278e-05 0.00040638412 0.00020263466
-8.048072e-05 -0.00020587842 -0.00026773493 0.0005253637 -0.0001583004 0.00044245276 -2.8935141e-05 -0.00016856512
-0.0003326883 -4.490349e-05 0.00042230185 -0.00018422194 -7.5188895e-05 0.00034508578 -1.3635912e-05 0.00032387103
0.00029300596 -0.00030670615 0.5292973 0.46363285 0.5262502 0.46229088 0.43983635 0.46675038
0.46358237 0.5320527 0.52449137 0.498818 0.5266849 0.52767056 0.5368873 0.5276948
0.44308767 0.44716486 0.45662794 0.46593338 0.52774304 0.4874321 0.33291668 0.41219187
0.45808735 0.4500344 0.35377613 -4.389269e-05 -4.9700804e-05 -5.5533525e-05 -2.2936616e-05 -3.878184e-05
-2.441048e-05 1.9746396e-05 5.759528e-05 5.1924376e-06 -5.1533632e-05 4.5681507e-05 -1.704878e-05 5.75129e-05
5.2718465e-06 -6.252112e-05 -3.984703e-05 -3.944012e-05 3.2937154e-05 1.78242e-05 -2.8688792e-05 -0.0002033235
-2.3375931e-05 5.3977833e-06 0.00013041827 -0.00011116279 -3.265217e-05 2.8737215e-05 -6.030471e-05 2.4407038e-05
-4.909017e-05 3.1186086e-05 -6.7536486e-05 3.4923007e-05 -2.8905066e-05 -2.952698e-05 4.7908732e-05 -2.7222648e-05
-2.75482e-05 -6.593205e-05 5.2778625e-05 -4.490091e-05 -4.9268987e-05 3.6075377e-05 -5.3370826e-05 -3.8061145e-05
-8.08394e-05 4.5266064e-05 -3.148027e-05 9.578977e-05 -0.00014787375 0.0006749867 0.00063856144 0.0001866464
-0.00047866057 -0.000226864 0.0006432244 0.0002565662 -0.0006171693 -0.00018206121 -0.00035258275 -0.00044112618
0.0004949877 -0.0003218755 0.00016083302 0.00033308397 -0.0005526724 0.0005895362 9.691664e-05 0.00048712766
0.00037381187 0.00019614818 2.5130781e-05 -0.00019033685 0.00017576471 -0.00039013647 0.0016287855 0.0027160172
0.00039046255 0.0010643079 0.0025925895 0.0011870745 0.0027075857 0.0001212354 0.0002841179 0.002522861
0.002211086 0.002497697 -0.00062487577 -0.0011948906 0.00048405075 -0.0010388342 -0.0011352769 0.00031233978
-0.0004343688 0.0002418254 -0.0001187531 0.0005246245 9.657845e-05 5.8494596e-05 2.7183389e-05 -1.836265e-06
-5.12621e-05 5.1303876e-05 -4.507371e-05 -5.7131896e-05 -5.064193e-05 5.4572138e-05 1.9420579e-05 4.2143954e-05
5.1129024e-05 4.8024493e-05 -4.903724e-05 -3.609057e-05 -2.8574535e-05 3.9704886e-05 4.9101014e-05 -4.0708037e-05
6.32287e-05 -1.612101e-05 5.0466107e-05 -0.0001315982 6.3575775e-05 0.00018382765 3.8375356e-06 -1.1085652e-06
9.131052e-05 -0.00015624198 0.0005035363 0.00019248402 -0.00013934463 0.00028261013 3.7153513e-05 0.00053002243
-7.9642894e-05 0.00018877814 -0.00013096987 -0.00026695937 -0.000404536 -0.0005334079 0.0003254261 -0.00032709018
0.00012806035 -9.611391e-05 -5.7066954e-05 -0.00027002278 0.00015866559 -0.00019986174 3.439591e-05 0.0005363646
0.00014563873 4.292109e-05 9.9752415e-06 -4.3494645e-05 -3.5243572e-06 5.927642e-05 3.3184366e-05 4.269296e-05
-6.541022e-05 -4.3025328e-05 3.993841e-05 -0.00028538794 0.00019220891 -0.00013849398 -0.00018108127 -0.00033984915
-5.5402284e-05 6.994557e-05 4.935377e-05 1.03699185e-05 0.00014575158 6.350802e-05 0.00011779523 7.4937976e-05
5.708006e-05 0.00015679201 5.2917996e-05 -2.4862195e-05 -3.587998e-05 -1.8671659e-05 5.4491607e-05 -5.6932397e-05

base.3.bias f4 [64]
00000000: 1179 0b3d c2fb 36bf e812 f5be a8f5 ecbe
00000010: 6149 f1be 1019 36bf d8c8 eabe 71eb 80be
00000020: 6774 18bf b891 ccbe bd99 83bd 9368 a5bf
00000030: cd15 73bf 5730 afbf 61ff e2be 928c 39bf
00000040: ed3f 353f 518d dfbe 3452 e7be 0613 45bd
00000050: 8c17 3dbf 93ae cebe e956 51bf 8a2f 6ebd
00000060: 76e7 e9be df8c 8d3f 3298 3dbe 9b36 2abf
00000070: 5f51 36bf 35dc eebe da73 67bf fe7d f9bf
00000080: ad04 043f 3fbd cabf 6d71 d8be 2e4f acbf
00000090: c0ba f0be 65fa f6be 20d5 e9be e2ac 86bf
000000a0: 6163 90be 5166 c1bf be1a 02bf fe18 683e
000000b0: cd54 37bf 491d 95be e252 a73e 06bc cabe
000000c0: f841 f3be 5563 8c3f efe7 57be b3c7 f4be
000000d0: d73d debe f0eb 85be f4df efbe bc78 9abe
000000e0: 05af 25bf 851d e5be 7fd6 f2be 6da6 8b3d
000000f0: 9da7 f3be 9371 a93d 4051 4abf 74f8 6dbf
0.034051005 -0.714779 -0.47865987 -0.4628117 -0.47126296 -0.7113199 -0.45856357 -0.25179628
-0.59552616 -0.39954925 -0.064258076 -1.2922539 -0.9495514 -1.3686627 -0.44335464 -0.7248012
0.7080067 -0.43662503 -0.45179904 -0.048113845 -0.73864055 -0.40367565 -0.8177324 -0.058150806
-0.45684403 1.1058615 -0.18515089 -0.6648957 -0.7121791 -0.4665238 -0.9041115 -1.9491575
0.51569635 -1.5839003 -0.42274037 -1.3461664 -0.4701748 -0.4823791 -0.45670414 -1.052151
-0.2820082 -1.510935 -0.50822055 0.22665784 -0.7161377 -0.29123905 0.32680422 -0.39596575
-0.47511268 1.0967814 -0.2108457 -0.47808608 -0.43406555 -0.2615657 -0.4685055 -0.30170238
-0.64720184 -0.44749084 -0.47429273 0.068188526 -0.47588816 0.08273616 -0.7903023 -0.92957234

base.4.weight f4 [64]
00000000: 3dd4 f1be d462 823e 474a 0b3f 5b23 0b3f
00000010: 232b 0b3f 705c 1f3f bf30 b03e 3825 e83e
00000020: 8842 9f3e fc20 163f 6c3c ec3e 8153 25bf
00000030: cbcc 2abd 635c 25bf aed5 af3e ddcd dd3e
00000040: 4c34 b43f b649 0b3f 694a 0b3f c1c2 ae3e
00000050: a528 833e 9e2a 4d3e 868f 133f f19c 683f
00000060: db4a 0b3f 5bc5 b33f 6ed3 343f e9ec a7bf
00000070: 118b 163f 9f44 0b3f 044a 3bbe 2891 a2bf
00000080: d1ff b13f 8312 12bf 79e3 603d 2333 9ebf
00000090: ab0f 0b3f e028 0b3f cf4a 0b3f 2c5a d43d
000000a0: 2727 11ba 0d32 a6be ce0f af3e 2c4d 023f
000000b0: 6395 753e 9038 ed3e 67d3 9b3f 0177 203f
000000c0: 174b 0b3f 6955 af3f 1ec6 863e 9eee a43e
000000d0: 1230 b03e ee1c a43e d506 0b3f 6a3b 903e
000000e0: cebc af3e a94a 0b3f c92f b03e 3f33 eb3d
000000f0: 13eb ac3e 2c37 0740 f201 c03e 6061 d6be
-0.47232237 0.25466025 0.54410213 0.54350823 0.54362696 0.62250423 0.3441219 0.45340896
0.31105447 0.5864408 0.46139848 -0.6458054 -0.041699212 -0.64594096 0.34342712 0.43321124
1.407846 0.5440935 0.54410416 0.3413296 0.25616947 0.20035788 0.57640874 0.90864474
0.54411095 1.4044603 0.70635116 -1.3119174 0.5880595 0.5440158 -0.18289953 -1.2700548
1.3906194 -0.57059497 0.054904435 -1.2359356 0.5432078 0.54359245 0.54411024 0.103687614
-0.0005537145 -0.3246006 0.34191746 0.50899005 0.23982768 0.46332216 1.217389 0.62681586
0.54411453 1.369794 0.26323026 0.322133 0.34411675 0.32053322 0.543073 0.2817033
0.34323734 0.544108 0.34411457 0.11484384 0.33773097 2.1127424 0.37501484 -0.41871166

base.4.bias f4 [64]
00000000: 164d 51bf cbed 3bbf 356e e9be 9f41 ecbe
00000010: 9e27 ecbe b1a1 d0bf 776a e9be 5fca 97be
00000020: 8163 1dbf 3eb9 c4bf 6361 ecbd bca0 a4bf
00000030: 9680 6dbf 0d2e aabf 2d47 ecbe 058e 3abf
00000040: a61d 8cbf ed65 ebbe 5fa5 e9be aee5 e5bc
00000050: 8e13 3fbf 66f2 bdbe 1dc7 36bf 6e28 18bd
00000060: 3a6a e9be 529e 933f 887a 16be 3f58 30be
00000070: 54ce debf 8ceb ebbe 520c 6cbf 23ed bdbe
00000080: 2fe5 063f 5a33 c8bf 72f0 12bf e00e 223e
00000090: a2ec ebbe 781b ecbe 6e6a e9be e0ed a7bf
000000a0: e1b1 8cbe cf29 c3bf f677 0fbf e44d 313e
000000b0: 8a17 35bf 7e23 9fbe 15f5 c5bf cfc6 d2bf
000000c0: e463 e9be ad4c 933f cdcb 9fbe 311a ecbe
000000d0: 3f6a e9be 004d b1be 6c28 ecbe 6ff5 c2be
000000e0: 7654 0ebf 0392 e9be 5d6e e9be 334f 5fbd
000000f0: 749a 0ebf b63d 9f3d d20d 47bf 4f0f 3fbf
-0.8175825 -0.7340972 -0.45591894 -0.46143815 -0.46123976 -1.6299344 -0.4558904 -0.29646584
-0.61479956 -1.5369031 -0.115420125 -1.2861552 -0.9277433 -1.3295304 -0.46148053 -0.72872955
-1.0946548 -0.459762 -0.4563398 -0.028063621 -0.74639213 -0.37098998 -0.7139757 -0.03714793
-0.45588857 1.153269 -0.1469518 -0.17221163 -1.7406716 -0.46078146 -0.922063 -0.37094983
0.52693456 -1.5640671 -0.5739814 0.15825987 -0.46078974 -0.46114707 -0.45589012 -1.3119469
-0.2747946 -1.5247134 -0.5604242 0.17314869 -0.7073904 -0.31081766 -1.5465418 -1.6466922
-0.45584023 1.1507775 -0.31210175 -0.46113732 -0.45588872 -0.3462906 -0.4612459 -0.38077876
-0.5559763 -0.4561921 -0.45592013 -0.05451889 -0.55704427 0.07775442 -0.77755463 -0.74632734

base.4.running_mean f4 [64]
00000000: bdaf d1bb 5820 b83b 352e d5bb 8f70 28bc
00000010: 93c8 75ba e859 97bc 6757 413b d98a 21bc
00000020: 3fc7 be3b fe40 0738 c876 55bc 579b 9f3c
00000030: 7380 a63b 2a57 523b 6f6d 0ebc fb58 423c
00000040: f76d 9a39 978b 2e3c 61d6 363c 2c88 0fbc
00000050: f3dc b63c 4e66 cc3b 39de 2dbc 93da de3b
00000060: f377 f0ba 4188 cabb 9b61 fe3a 11f6 bebc
00000070: 5bcd f23b bf17 8f3c e056 b93b 5105 04bb
00000080: 576b 273b 595c 31bb 6d11 003c b260 35ba
00000090: e729 003b 6f23 8f3c 39a7 b63b 6315 383c
000000a0: 38a7 df3b 1808 233c d3ba bab9 9982 b5bc
000000b0: 91d7 ba3a 0085 e73a 1dd2 7b3a 1960 98bc
000000c0: e942 2e3b 5bdc 933b 1387 05bc 0a50 32b8
000000d0: 17f0 133c 1734 0cbc 5f94 3e3b fe50 9ebb
000000e0: 7f94 80bc 50ec ad3b aba7 3ebc f35b cfbb
000000f0: d810 4ebc 7fa7 663c 8885 e0bb 98f3 cd3b
-0.0063991235 0.00561909 -0.0065057524 -0.010280742 -0.0009375896 -0.018475488 0.0029501559 -0.009859764
0.005822092 3.2247037e-05 -0.013028808 0.019483251 0.0050812303 0.003209541 -0.008693083 0.011862035
0.000294551 0.010653398 0.01115951 -0.008760493 0.022322154 0.0062377816 -0.010612064 0.0068009584
-0.0018346295 -0.0061807935 0.0019407751 -0.023310693 0.007409734 0.017467378 0.0056561083 -0.002014477
0.0025546157 -0.00270631 0.007816655 -0.0006919011 0.0019556226 0.01747295 0.0055741337 0.011235568
0.006825354 0.00995066 -0.0003561588 -0.022157 0.0014254918 0.0017663538 0.00096061995 -0.01860051
0.0026590175 0.0045123524 -0.00814988 -4.251305e-05 0.00902941 -0.008557341 0.0029080135 -0.0048314324
-0.015695808 0.0053077117 -0.011636655 -0.0063281 -0.012577258 0.01407802 -0.0068518557 0.006285142

base.4.running_var f4 [64]
00000000: 87aa 673f fadf 683f 4ce0 683f d1b3 6a3f
00000010: 4a33 6a3f 0582 693f 1b31 673f 8064 693f
00000020: dc3e 683f 1cb8 683f 3cf6 673f e061 673f
00000030: df97 673f 7061 693f 0b80 6a3f c109 6c3f
00000040: e612 673f 1def 683f 3249 673f 8709 673f
00000050: 6e4a 6a3f 8ed7 693f 6cda 683f cc9c 6a3f
00000060: 3aad 693f b149 683f d0e7 673f 6d26 693f
00000070: 031b 6a3f 1813 6d3f a6a8 693f e143 673f
00000080: 7f36 6b3f 3625 6d3f 1bd9 683f 327f 673f
00000090: 93fb 683f d3c1 6b3f ac56 683f 2e85 6e3f
000000a0: 126c 673f 3b35 6c3f 176c 683f e31d 6c3f
000000b0: d400 6a3f 4894 673f 3835 673f 775d 6b3f
000000c0: 0dee 663f 33c9 693f 4516 693f e4ad 683f
000000d0: f73c 673f 9d73 6a3f bfab 673f 4eeb 663f
000000e0: 6646 673f 0827 673f 6f4d 6b3f d0c2 673f
000000f0: ffef 6a3f d5a0 6a3f f324 683f 87cf 673f
0.9049458 0.9096676 0.9096725 0.9168063 0.9148451 0.9121402 0.90309304 0.91168976
0.90720916 0.9090593 0.906101 0.9038372 0.9046611 0.911643 0.9160163 0.92202383
0.9026321 0.9098986 0.9034606 0.9024891 0.9151982 0.91344535 0.90958285 0.91645503
0.9127995 0.90737444 0.9058809 0.9107426 0.91447467 0.9260726 0.9127296 0.9033795
0.9188003 0.92634904 0.90956277 0.9042846 0.9100887 0.9209263 0.9075725 0.93171966
0.9039928 0.92268723 0.9078993 0.92233104 0.91407514 0.90460634 0.9031558 0.9193949
0.90206987 0.9132263 0.91049606 0.90890336 0.903274 0.9158266 0.9049644 0.90202796
0.90341794 0.9029393 0.9191503 0.90531635 0.91772455 0.9165166 0.9068138 0.90551037

base.6.weight f4 [32, 64, 5, 5]
00000000: 9bfd 2338 1dba 8438 08e5 2bb8 dd89 07b7
00000010: 23f8 9ab7 0e09 2338 a780 a137 3529 74b8
00000020: 4587 2637 ff7d db37 940f 36b8 4f44 0f38
00000030: f980 8438 1a5a 77b8 fa08 b6b7 b4d5 fc37
00000040: 263e 1038 eb5c 5f38 986e 6b37 e8ac 01b8
00000050: 90d3 50b8 2f06 6c38 ad2a dcb7 a97e 36b8
00000060: 4643 69b8 48f9 82b8 606b 52b8 8379 71b7
00000070: ee97 86b8 99b8 5ab8 8c6f 6db8 7852 0038
00000080: b943 c3b7 1ce7 1cb7 a95e 8938 98ef 78b8
00000090: d911 80b8 37c5 24b8 4958 73b8 63dc d5b7
000000a0: daef 18b8 9bd0 f237 c29e 62b8 2120 5a38
000000b0: 026e 0f38 1f19 7e38 da10 3ab8 1652 6b37
000000c0: b90e 4ab7 406d 6438 a099 25bf ab8a f0be
000000d0: 2fdd f2be 2f8e 21bf 33c1 f5be 3925 22bf
000000e0: b5fb eebe 5b3d f5be 7f7a 1fbf 9bf3 f1be
000000f0: 974d 26bf b770 edbe 5b48 26bf dd1d efbe
00000100: b727 26bf 3197 f3be 4f63 25bf 6450 26bf
00000110: a795 23bf 0563 edbe 460e 26bf 375d 25bf
00000120: f85f f1be 6b6e f5be 7595 23bf 2639 f6be
00000130: 1cb0 f0be a5c2 f5be 5ab2 23bf 5ff1 edbe
00000140: bb06 25bf 0b6d f4be 093e eebe 4ed0 ecbe
00000150: 3250 26bf 0b28 edbe 9739 edbe bc83 21bf
00000160: 28f1 efbe 34f1 efbe 2e6f f3be f2d6 efbe
00000170: 65db 22bf db6a 24bf f04b f3be a2bd f4be
00000180: df99 23bf ea40 26bf 65e5 f4be a892 24bf
00000190: 6c9c ecbe a554 edbe 9f2c 24bf 5619 26bf
000001a0: a653 22bf fbea febe 3f83 edbe da7c 23bf
000001b0: d728 f2be 3f6e 22bf 9a9e 25bf 8541 26bf
000001c0: 934f 26bf 2ca6 edbe 2218 f4be 7d45 f4be
000001d0: 61e0 23bf 366a 23bf 61a6 efbe 3cb4 22bf
000001e0: fff2 24bf 2129 edbe f5c4 ecbe e702 f6be
000001f0: 9e92 23bf e09b f3be 062a f6be 6f51 f5be
00000200: d0d8 22bf cf34 f6be 3fd2 f0be a81f 26bf
00000210: b57d 25bf a593 22bf 65fd f1be 73da 24bf
00000220: 524f 26bf 8f46 26bf 2805 f0be 9854 23bf
00000230: 9adb 22bf fa41 26bf 0b2f 24bf 0694 edbe
00000240: bd5f edbe 944f 26bf a257 f4be 8e9c f1be
00000250: 38f1 ecbe 0143 edbe 01b9 efbe 9f34 26bf
00000260: 4550 edbe c4ff f2be 54ac f3be 8977 21bf
00000270: 66ea 22bf ac38 26bf f082 f0be cad8 efbe
00000280: 0a2a 23bf 5415 23bf 5a60 25bf 2537 f3be
00000290: 52f1 f3be c9d6 21bf 19d0 ecbe 4972 eebe
000002a0: 032c f3be 5330 26bf 4da0 24bf 819b ecbe
000002b0: eee8 f2be 9822 edbe 39d6 23bf 5f75 12bf
000002c0: 81fa efbe fe5b f4be 22ad 24bf bd3f 22bf
000002d0: c55a f6be 1617 f1be b0d2 23bf 7c95 f2be
000002e0: 899e efbe d017 26bf cd53 24bf 37a5 25bf
000002f0: 3de2 22bf 7fe4 24bf b33e 25bf ad19 24bf
00000300: 7814 eebe 12bd 25bf 29c8 24bf b555 25bf
00000310: 97c5 24bf d505 22bf f818 eebe fde8 f2be
00000320: ba04 febe ed05 07bf aa2b fbbe a157 fabe
00000330: a165 febe a2d7 09bf dc1e fbbe c99c 07bf
00000340: 3497 06bf b9ff 08bf 64c2 fcbe c1dc 06bf
00000350: eacd 08bf ddd8 fcbe b04e fabe 1ecf febe
00000360: a69b febe 93d0 08bf 18b8 f7be 7f13 fdbe
00000370: ec1e ffbe 75a0 f8be aa67 febe 4c6c 06bf
00000380: 37f5 06bf 1c40 26bf 7772 f5be 7570 23bf
00000390: e034 23bf c920 f4be 8f85 efbe 97b4 ecbe
000003a0: 30c5 ecbe b44a 26bf 249d 23bf 4e09 22bf
000003b0: 4839 f5be 2811 eebe 7d53 25bf 6c77 f2be
000003c0: 66db 25bf 4b60 24bf 522f f4be 623a 26bf
000003d0: 00d7 25bf 35b9 25bf ea54 f6be 919a ecbe
000003e0: 51ea 25bf 5642 f1be 2fba f5be 8216 f6be
000003f0: ad05 f3be d6c6 efbe 1c66 f0be 562a edbe
3.9098417e-05 6.328917e-05 -4.098288e-05 -8.078726e-06 -1.8473778e-05 3.887066e-05 1.9252604e-05 -5.821251e-05
9.925866e-06 2.6165506e-05 -4.340669e-05 3.4157474e-05 6.3182735e-05 -5.8973303e-05 -2.170027e-05 3.0140254e-05
3.4390156e-05 5.325388e-05 1.4032841e-05 -3.091703e-05 -4.9788097e-05 5.6272544e-05 -2.6245916e-05 -4.3510143e-05
-5.5614182e-05 -6.245315e-05 -5.0167902e-05 -1.4393011e-05 -6.417917e-05 -5.214717e-05 -5.660909e-05 3.0594383e-05
-2.3277347e-05 -9.352134e-06 6.550301e-05 -5.9350947e-05 -6.10684e-05 -3.9284318e-05 -5.8017937e-05 -2.5494204e-05
-3.6463003e-05 2.8945788e-05 -5.4030454e-05 5.2005173e-05 3.419631e-05 6.0581715e-05 -4.436155e-05 1.4026204e-05
-1.2043566e-05 5.4461183e-05 -0.6468754 -0.46980795 -0.47434375 -0.6310758 -0.47998962 -0.6333805
-0.46676412 -0.47898373 -0.6229629 -0.4725617 -0.6496214 -0.46375057 -0.64954156 -0.4670247
-0.6490435 -0.47576287 -0.6460466 -0.64966416 -0.63900226 -0.46364608 -0.6486553 -0.6459536
-0.4714353 -0.47935805 -0.6389993 -0.48090476 -0.4700936 -0.48000064 -0.6394402 -0.46473214
-0.64463395 -0.47739443 -0.46531704 -0.46252674 -0.6496612 -0.46319613 -0.46333 -0.63091636
-0.46863675 -0.4686371 -0.4754576 -0.46843678 -0.6361602 -0.6422555 -0.47518873 -0.47800928
-0.63906664 -0.649428 -0.47831264 -0.6428628 -0.4621309 -0.4635364 -0.64130586 -0.6488241
-0.6340889 -0.4978865 -0.46389195 -0.63862383 -0.47296783 -0.6344947 -0.6469513 -0.64943725
-0.6496517 -0.46415842 -0.47674662 -0.47709265 -0.6401425 -0.6383394 -0.46806625 -0.63556266
-0.6443328 -0.4632044 -0.46244016 -0.4804909 -0.63895595 -0.4757986 -0.48078936 -0.4791369
-0.6361208 -0.48087165 -0.47035405 -0.64892054 -0.6464494 -0.6350654 -0.47263637 -0.6439583
-0.64964783 -0.64951414 -0.46878934 -0.63800955 -0.63616335 -0.6494442 -0.6413428 -0.46401995
-0.46362105 -0.64965177 -0.4772311 -0.47189754 -0.46277785 -0.46340182 -0.46820834 -0.64924043
-0.46350303 -0.4746076 -0.47592413 -0.6307302 -0.63638914 -0.64930224 -0.46974897 -0.46845084
-0.6373602 -0.6370442 -0.64600146 -0.4750301 -0.4764505 -0.6321836 -0.46252516 -0.46571568
-0.47494516 -0.64917487 -0.643071 -0.4621239 -0.47443336 -0.46315455 -0.6399875 -0.57210344
-0.46870807 -0.47726434 -0.6432668 -0.63378507 -0.48116127 -0.47087926 -0.6399336 -0.47379673
-0.4680064 -0.64880085 -0.6419037 -0.6470522 -0.6362646 -0.6441116 -0.64548796 -0.6410168
-0.4649999 -0.64741623 -0.6436792 -0.64583904 -0.64364 -0.6329015 -0.46503425 -0.4744338
-0.4961298 -0.5274342 -0.4905675 -0.4889498 -0.49686912 -0.53844655 -0.4904698 -0.5297361
-0.5257447 -0.535152 -0.49367058 -0.52680594 -0.534392 -0.49384204 -0.4888816 -0.49767393
-0.49728125 -0.5344326 -0.4838264 -0.49428937 -0.4982828 -0.4855992 -0.49688464 -0.52509
-0.5271792 -0.64941573 -0.47938892 -0.6384347 -0.63752556 -0.47681263 -0.46781585 -0.4623153
-0.46244192 -0.6495774 -0.6391165 -0.6329545 -0.47895265 -0.46497464 -0.6458052 -0.47356737
-0.647879 -0.6420943 -0.47692353 -0.64932835 -0.6478119 -0.6473573 -0.4811166 -0.46211675
-0.64810663 -0.47120923 -0.4799361 -0.48064047 -0.47465268 -0.46831387 -0.46952903 -0.46321362

base.6.bias f4 [32]
00000000: 2f8c f5be 0925 fabe 6cff 17bf dc7e 03bf
00000010: 41dd f2be 8150 f9be f615 e4be 148c 04bf
00000020: 4cb1 08bf 5652 3cbd c93c fbbe d15e 03bf
00000030: 0085 f6be fdd0 06bf 1783 c8be 90f9 a5be
00000040: 47af 01bf 07a1 0bbf 8323 2fbf a686 0cbd
00000050: 8514 aebe 1296 19bf 79be 09bf 5e79 f5be
00000060: 9e9c 14bf 49c3 2dbf da83 f2be f60a f9be
00000070: cf7d 03bf 912b eabe 37ee 1fbf 2b82 2e3f
-0.47958514 -0.4885638 -0.5937412 -0.5136545 -0.47434428 -0.48694232 -0.44548005 -0.5177624
-0.53395534 -0.04597696 -0.49069813 -0.51316553 -0.48148346 -0.5266264 -0.39162514 -0.32416964
-0.50658077 -0.54542583 -0.6841356 -0.0343081 -0.3400003 -0.59994614 -0.53806263 -0.47944158
-0.5805148 -0.67876107 -0.4736622 -0.48641175 -0.51363844 -0.45736364 -0.6247286 0.6816737

base.7.weight f4 [32]
00000000: 252e b03e 84aa 073f 6ebc af3e e16f 003f
00000010: 61d9 073f 69c5 0a3f bc63 293e abf1 f43e
00000020: 3e8c 443f fd7c 4d3f bb99 503f 287a 043f
00000030: ff27 dc3d 39e7 b43d 7094 603e 546e 9b3e
00000040: 1a66 033f baa6 363e 2201 983e b9b9 0d3e
00000050: 3987 d83d 0df0 c33e eea7 8a3e 8a29 b03e
00000060: 186c 623d 7b18 a73e bce4 063f 8cc7 ce3c
00000070: d216 ad3e 8795 2d3d 8723 c33e 5adb 9e3f
0.34410205 0.5299456 0.34323448 0.50170714 0.5306607 0.54207474 0.16541952 0.47840628
0.7677649 0.8026884 0.81484574 0.51748896 0.10749816 0.08833165 0.21931624 0.3035761
0.5132767 0.17837039 0.29688364 0.13840379 0.10572667 0.38269082 0.27081245 0.34406692
0.055278867 0.32635865 0.5269277 0.025241636 0.33806473 0.04237893 0.38113043 1.2410691

base.7.bias f4 [32]
00000000: 6051 12bf 947a 02bf 6290 35bf 11d8 ecbe
00000010: 0893 01bf 6b80 00bf 9ce6 d6be 68d5 04bf
00000020: a92b c4bf a322 47bf cc4b 9abf 1918 02bf
00000030: 71e1 f5be 2c02 07bf 05aa cdbe 5d16 acbe
00000040: 7da7 0dbf 63de 02bf d5a8 33bf 2e3e 20be
00000050: cf1d 8bbe cc4b 12bf 662d 0dbf 9a65 0ebf
00000060: 4294 0cbf 7224 19bf 17a3 02bf 4c85 00bf
00000070: 7e23 20bf 449b ebbe 8176 1abf c8ed 13bf
-0.5715542 -0.5096829 -0.70923436 -0.46258596 -0.50614977 -0.5019595 -0.41972816 -0.5188813
-1.5325824 -0.77787226 -1.2054381 -0.5081802 -0.4802356 -0.5273769 -0.40168777 -0.33610812
-0.5533369 -0.51120585 -0.7017949 -0.1564872 -0.2717118 -0.57146907 -0.551474 -0.5562378
-0.54913723 -0.59821236 -0.51030105 -0.50203395 -0.62554157 -0.46016896 -0.6033707 -0.577847

base.7.running_mean f4 [32]
00000000: e8fc 80bc 33fc 973b 1ac4 38bb 50c6 e83c
00000010: 7f48 9d3c f039 143c 937a 293c b060 acbb
00000020: 37ee e8bb b205 66bb 9c7c 1cbb dad1 483c
00000030: 7fe7 a93c ffaa 01bc 5dc4 f83c 6d3f e13b
00000040: 33db d8bb f562 c8ba e81c 383c 0317 65bc
00000050: 9898 b5bc 3a48 6e3b 4750 783b e3ae 47bb
00000060: ebc0 583a 9dfa a3bb 0dac bb3c e88b 5a3c
00000070: 5c58 07bc 37a1 8a3b d0fa cc3b e448 04bc
-0.015745595 0.004638219 -0.0028193058 0.028414875 0.019199608 0.0090470165 0.010344165 -0.0052605495
-0.0071084755 -0.003509861 -0.0023877984 0.012257064 0.020740269 -0.007914304 0.03036707 0.006874016
-0.0066179275 -0.001528828 0.011237361 -0.013982537 -0.022167489 0.0036358968 0.0037889646 -0.003046923
0.0008268493 -0.0050042407 0.022909189 0.01333902 -0.008260813 0.004230644 0.006255485 -0.008074019

base.7.running_var f4 [32]
00000000: e014 6b3f a318 693f 7f7c 683f 0fae 713f
00000010: 546f 673f e49a 683f 7422 693f 27e2 683f
00000020: 60e6 673f 6171 6a3f 0f9e 673f 0292 683f
00000030: 8d85 683f 2866 6d3f 7514 6e3f 04c9 663f
00000040: aa8d 683f 8605 693f 2654 693f 4867 6d3f
00000050: c997 6b3f 2558 693f 60ad 693f 783c 693f
00000060: 31f0 663f 2022 6b3f 9f21 703f 426a 673f
00000070: fb04 693f 0ce6 693f 4d73 6b3f 8e6a 683f
0.9182873 0.9105322 0.90814966 0.9440622 0.9040425 0.90861344 0.91068196 0.9097008
0.905859 0.9157925 0.90475553 0.9084779 0.9082878 0.92734003 0.92999965 0.90150476
0.9084116 0.91024053 0.91144025 0.9273572 0.9202848 0.9115012 0.91280174 0.91107893
0.90210253 0.91848946 0.938013 0.9039651 0.91023225 0.9136665 0.9197281 0.9078759

head.0.weight f4 [24, 1024]
00000000: 851b f6be c46e f0be 0024 26bf ea1a f6be
00000010: d443 20bf 06ff 24bf 1578 f6be 2ae4 21bf
00000020: ac21 edbe 5e67 22bf 7b3f 26bf 649a 24bf
00000030: 9160 24bf 622b f4be da4e 26bf dce6 20bf
00000040: 851d f4be 11a5 ecbe dc7f 23bf 8c6b 21bf
00000050: cc96 24bf 9adf 20bf 72f8 23bf 7a1a f7be
00000060: fa7c f8be de49 26bf d845 f1be bbdb 22bf
00000070: 7452 f5be 6d82 24bf 8392 f2be f678 f8be
00000080: 3160 f4be 4324 f4be b134 26bf 93f8 22bf
00000090: 51a2 25bf 5803 f9be ff5f f3be 5e72 24bf
000000a0: b16e eebe b917 26bf 2a35 f5be 1047 23bf
000000b0: 5eca f2be b877 22bf 87d0 24bf db05 edbe
000000c0: 0d9b ecbe c4b2 20bf 7dba f2be 11f3 f6be
000000d0: eb00 edbe 713e edbe 6490 25bf c04b 26bf
000000e0: 02f9 f0be bdeb ecbe f176 23bf 4b1f 22bf
000000f0: bb9a f7be ae3c f7be 3f2a edbe 8643 21bf
00000100: 98c4 24bf 210c 21bf 4060 22bf 4173 21bf
00000110: 41c6 25bf 6cb0 f4be 1a08 22bf e0dd ecbe
00000120: 37ac f6be c0b8 eebe ebb8 eebe 993b f4be
00000130: f041 f6be e9f0 edbe 67af f6be 440c f7be
00000140: 600d f1be 026c f1be bf9c eebe 827e f8be
00000150: ad82 f7be 8bf2 f2be a39b edbe 209f ecbe
00000160: a9fd 22bf fb1d f2be f8a4 20bf 6566 f2be
00000170: d418 26bf ffbe ecbe cf5a eebe 4d43 eebe
00000180: d835 26bf 678c 22bf 0ae1 25bf e6fe f2be
00000190: 4151 eebe baaa f5be 4f05 21bf c35a f9be
000001a0: c88d 21bf 096e 24bf 64c9 20bf 2ea6 f0be
000001b0: 4a4f 26bf 0072 f3be 5903 edbe aa50 f9be
000001c0: b2f0 23bf dd30 f0be dd85 25bf 7d52 edbe
000001d0: 0c6f 22bf 16a0 efbe 0d94 efbe c865 eebe
000001e0: 5049 f6be 1493 20bf 9b22 26bf e5ff 21bf
000001f0: 3a06 f6be df1f f5be da45 26bf b894 f0be
00000200: 66e0 f1be 3ccb 21bf f24f 26bf 1a82 f6be
00000210: 21ca f7be aae9 24bf 9571 f8be 56ea 1fbf
00000220: f8c5 f6be 91f6 f4be 9b61 20bf e6e8 f4be
00000230: 8b9c efbe 864e 22bf dd19 efbe 084b eebe
00000240: bc96 23bf 74f0 23bf be23 23bf e196 f3be
00000250: 2418 f0be 40f2 21bf b195 f3be 8d03 f0be
00000260: 8856 25bf f327 f2be 0118 25bf 8b59 edbe
00000270: be06 eebe f613 f9be c48b 23bf 5eee 25bf
00000280: 12a2 ecbe ef43 edbe c21b 24bf 6a2e 20bf
00000290: cc48 26bf b080 edbe fbb0 f6be 8643 f6be
000002a0: 8831 edbe 742c 25bf a7ee 1fbf c974 f6be
000002b0: 554d 26bf 044b 23bf 66a1 24bf 9caa ecbe
000002c0: fa58 23bf 0414 22bf 3f13 26bf 7b19 f3be
000002d0: 2f0c f7be 50a8 efbe a693 f5be 7361 f7be
000002e0: bf31 23bf 194b 26bf a1e9 22bf 6d79 21bf
000002f0: c0ee 20bf 0dd0 ecbe 2ede edbe 4ad2 25bf
00000300: 237d eabe be32 0fbf f0b1 0dbf 15f8 f0be
00000310: 4ee4 0dbf 5f87 0fbf 0d84 0ebf b7b1 ecbe
00000320: 762c e8be 1fe2 10bf 448f 0dbf 33a0 e9be
00000330: 0c7b f0be 6a84 e8be 315d 12bf ff64 f1be
00000340: ba95 10bf 684d e8be 1548 f1be a0a1 0fbf
00000350: dded eebe 0825 f0be ac0a f2be 26ac f0be
00000360: 842a e8be 684f 12bf 2a96 0dbf b6eb eabe
00000370: c248 12bf 2027 12bf c9c9 0cbf 5174 f8be
00000380: eefb f0be 1187 11bf 6b81 f1be 2494 f1be
00000390: 4b42 ebbe b82e f1be 3b9a f2be 4f74 f1be
000003a0: be58 efbe 5364 12bf e955 f1be 1589 0fbf
000003b0: c589 ecbe 65b0 e8be a0bd ebbe 2e50 11bf
000003c0: 6acc f0be 1004 0ebf 732a 0dbf 5209 ebbe
000003d0: 149d eabe d23e e8be 2329 e8be e081 efbe
000003e0: 8b04 0ebf 903f e8be babf 0dbf 5e48 ebbe
000003f0: 86d1 efbe 6fc5 0fbf 5b49 0ebf 4ef5 f1be
-0.4806787 -0.46959507 -0.6489868 -0.4806741 -0.626035 -0.64451635 -0.4813849 -0.63238776
-0.46314752 -0.63438976 -0.64940614 -0.6429808 -0.6420985 -0.47689348 -0.6496407 -0.62852263
-0.47678772 -0.46219686 -0.6386697 -0.6305473 -0.642926 -0.6284119 -0.6405097 -0.48262388
-0.4853285 -0.6495646 -0.471236 -0.6361653 -0.4791447 -0.64261514 -0.47377405 -0.48529786
-0.47729638 -0.47683915 -0.6492415 -0.63660544 -0.647008 -0.48635364 -0.47534177 -0.6423701
-0.46568826 -0.6487995 -0.47892123 -0.6378031 -0.4742002 -0.63463926 -0.6438069 -0.4629353
-0.46212044 -0.62772775 -0.47407904 -0.4823232 -0.46289763 -0.46336702 -0.6467345 -0.64959335
-0.47064978 -0.46273604 -0.63853365 -0.63329 -0.48360237 -0.48288482 -0.46321294 -0.6299366
-0.6436248 -0.6290913 -0.63428116 -0.6306649 -0.64755636 -0.4779085 -0.6329361 -0.46263027
-0.48178264 -0.46625328 -0.46625456 -0.4770172 -0.4809718 -0.46472862 -0.48180696 -0.48251545
-0.47080517 -0.47152716 -0.46603963 -0.48534018 -0.48341885 -0.4745067 -0.46407804 -0.46215153
-0.63668305 -0.47288498 -0.6275172 -0.47343746 -0.64881635 -0.46239468 -0.46553656 -0.4653572
-0.6492591 -0.63495487 -0.6479651 -0.47460097 -0.46546367 -0.47981817 -0.62898725 -0.48702058
-0.63106966 -0.642304 -0.628073 -0.47001785 -0.64964736 -0.47547913 -0.46291617 -0.48694354
-0.64039147 -0.4691228 -0.64657384 -0.46351996 -0.63450694 -0.46801823 -0.4679264 -0.46562028
-0.48102808 -0.62724423 -0.64896554 -0.6328109 -0.48051625 -0.47875878 -0.64950335 -0.46988463
-0.47241515 -0.63200736 -0.64965737 -0.48146135 -0.483964 -0.64419043 -0.48524156 -0.62466943
-0.48197913 -0.47844365 -0.62648934 -0.47833937 -0.4679912 -0.6340107 -0.4669942 -0.4654162
-0.6390188 -0.6403878 -0.63726413 -0.4757605 -0.46893418 -0.6326027 -0.47575143 -0.4687771
-0.6458516 -0.47296104 -0.6448975 -0.46357378 -0.4648952 -0.4864804 -0.6388514 -0.64816844
-0.462174 -0.46340892 -0.64104855 -0.6257082 -0.6495483 -0.46387243 -0.481819 -0.4809839
-0.46326852 -0.64520955 -0.6247353 -0.48135975 -0.6496175 -0.6378634 -0.64308774 -0.46223915
-0.6380764 -0.6331179 -0.6487312 -0.47480378 -0.48251483 -0.468081 -0.4796421 -0.48316535
-0.6374778 -0.6495834 -0.6363774 -0.63075906 -0.62864304 -0.4625248 -0.46458572 -0.64774
-0.45798597 -0.559368 -0.55349636 -0.47064272 -0.5542649 -0.56065935 -0.55670244 -0.46229336
-0.4534642 -0.56595033 -0.5529673 -0.45630035 -0.46968877 -0.45413524 -0.5717345 -0.47147366
-0.56478465 -0.45371556 -0.47125307 -0.56105995 -0.4666585 -0.46903253 -0.47273767 -0.4700634
-0.45344937 -0.57152414 -0.5530726 -0.45882958 -0.5714227 -0.5709095 -0.549954 -0.48526242
-0.47067207 -0.5684672 -0.4716905 -0.47183335 -0.45949015 -0.47105956 -0.47383294 -0.4715905
-0.46747392 -0.5718433 -0.47135857 -0.56068546 -0.4619886 -0.45447078 -0.4604311 -0.5676297
-0.47030956 -0.5547495 -0.551429 -0.45905548 -0.45822966 -0.45360428 -0.45343885 -0.46778774
-0.5547568 -0.45360994 -0.55370677 -0.4595365 -0.4683954 -0.56160635 -0.5558068 -0.47257465

head.0.bias f4 [24]
00000000: 35a1 88bf 13d5 62bf 13ee 38bf 23ac 7abe
00000010: dbae 59bf 661e 95bf f633 81bf 756d 4bbe
00000020: 8033 82bf 2c0b 14bf 8ddb bebf 47cb 84bf
00000030: 33f7 d2bf 532d b3bf 2349 24bf e8a9 36bf
00000040: bf0e 4fbf 5317 3cbf d4e4 3bbf 7ba3 59bf
00000050: 7c87 7dbf fdac 6ebe a179 1dbe 363f 86bf
-1.0674196 -0.88606375 -0.7223827 -0.24479727 -0.85032433 -1.1649902 -1.0093982 -0.19865973
-1.0171967 -0.57829547 -1.4910752 -1.0374535 -1.6481689 -1.3998207 -0.641741 -0.71353006
-0.80881876 -0.7347309 -0.7339604 -0.85015076 -0.9903486 -0.23308177 -0.15378429 -1.048804

head.2.weight f4 [2, 24]
00000000: 48ff 05bf af56 1cbe 30ea 19bf 52f6 583f
00000010: 7706 123e 4a15 d83e 7ef5 32bf 89a3 333f
00000020: 7202 4cbf cce6 14bf b423 23bf 5788 3f3c
00000030: b625 093f 3673 81bc 5472 79be 2c4a 09bf
00000040: 7eb5 c7be c9b3 37bf fd64 27bf b968 d13e
00000050: 3c5f bb3d 7a83 533f 4e34 e9be 14c5 c3be
00000060: b4e4 003f 5f63 433e 2f15 cb3e 0385 c9bf
00000070: 2f36 b6bd db33 dabe eba9 9e3e 4b1f bbbf
00000080: a547 b33e 5af6 833e 2aaf c1ba f64a 1e3e
00000090: b1c8 03bf 9222 3abf 1b8b 9e3e 32d6 eb3e
000000a0: 1182 9d3e 8a48 e93e 01bf dd3e 9471 0fbf
000000b0: 832b 4dbf 053b c8bf 782b 173f c2ff afbe
-0.52342653 -0.15267442 -0.60122967 0.84750855 0.14260279 0.42203742 -0.6990584 0.7017141
-0.7969123 -0.5816467 -0.63726354 0.011690221 0.5357317 -0.015802007 -0.24360019 -0.536288
-0.39005655 -0.71758705 -0.6538847 0.4090021 0.09149024 0.8262249 -0.45547718 -0.38236296
0.50348973 0.19080876 0.396646 -1.5743717 -0.088970535 -0.42617688 0.30989012 -1.4618925
0.35015598 0.2577389 -0.0014776934 0.15458283 -0.51478106 -0.72709 0.30965504 0.46061856
0.30763295 0.45563155 0.43309787 -0.5603268 -0.8014452 -1.5643011 0.59050703 -0.34374815

head.2.bias f4 [2]
00000000: 0f3c c53e 80eb bb3d
0.38522384 0.091757774
