models/AC-RM-2 Q_LR=0.001 P_LR=5e-06 BATCH_SIZE=128 GAMMA=0.99 MEMORY_SIZE=150000 BETA=0.3_policy_8121.pt (torch, 319769 bytes, 22 tensors)

base.0.weight f4 [32, 2, 5, 5]
000000 6b d3 03 3d 3a 12 be 3d f2 82 92 3d 86 ad d9 3c
       0.032184046 0.0928082 0.07153882 0.026572
000010 31 be 86 bd 48 24 6d 3d 61 8d 91 3c 6b fa 0b bb
       -0.06579245 0.05789593 0.01776761 -0.0021358978
000020 19 87 ac 3d e2 3b f7 bd cc 2a d2 bd bc 8d 96 3c
       0.08424205 -0.120719686 -0.10262069 0.018378131
000030 04 d4 9c 3d d4 b0 c7 bd 7d 02 84 3d 6f 84 93 3d
       0.07657626 -0.09750524 0.06445787 0.07202994
000040 63 5c 33 3d e5 52 86 bd 4d 94 13 3e 4f 67 5a 3d
       0.04378928 -0.065587796 0.14412041 0.05332118
000050 73 dd 30 3d 5c c5 d3 3d 8c d6 a3 bc 30 3f ba 3d
       0.04317994 0.10340378 -0.019999765 0.09094083
000060 47 f6 50 bd 9f 4a 86 3d 0a b3 f7 3d b9 84 08 be
       -0.05101612 0.065572016 0.12094696 -0.1333188
000070 7b 3f 72 3d c9 80 81 bc 69 73 b8 bd d6 a2 05 3d
       0.05914257 -0.01580848 -0.09006388 0.032625996
000080 e1 2b d4 3d b5 af c2 3d e7 ed f7 bc ff fb 85 bd
       0.10359932 0.0950617 -0.030264808 -0.06542205
000090 39 03 8f 3d 61 4f d9 bd 2d aa 21 ba 2d 2c 58 3c
       0.069830365 -0.106108434 -0.0006167021 0.013194126
0000a0 58 63 81 bc 88 ee ad 3c 24 ea af bd 2b 5a b9 bd
       -0.015794441 0.021231905 -0.08589581 -0.09050401
0000b0 1e ef 05 be b1 49 fe bc a9 d7 38 bc 35 bd 8d bd
       -0.13079497 -0.031040998 -0.011281886 -0.06920854
0000c0 72 4c d1 bd e8 34 1c bd bc 31 fb bd f1 a5 6a 3c
       -0.10219659 -0.038136393 -0.122653455 0.01432179
0000d0 f2 b8 d0 bd 99 34 cc 3d e2 32 12 3e 64 52 8a bb
       -0.101915255 0.0997097 0.14277223 -0.0042212475
0000e0 36 b3 9c bd 7b 73 a4 bd e2 f8 1b 3e 3f b3 35 3d
       -0.07651369 -0.08029839 0.1523166 0.044360396
0000f0 6f 59 d1 3d a8 9b bd 3d 70 87 44 3d 33 89 d6 bd
       0.10222136 0.09258205 0.047980726 -0.104753874
000100 eb e8 c7 3d 32 29 92 3d 82 84 1b 3d 96 03 01 be
       0.097612225 0.07136764 0.037968166 -0.12599024
000110 57 e0 0f 3e af f8 95 bd 70 01 d6 ba 31 da 2a 3d
       0.14050423 -0.07322823 -0.0016327333 0.04171199
000120 d4 d6 cb bd 63 f4 15 3e c1 a7 de bc 38 78 bc 3d
       -0.099530846 0.14644007 -0.0271796 0.092026174
000130 e3 0d b2 3d d2 06 6d bd 4c 30 70 bb 6e 20 5e bd
       0.08694055 -0.057867832 -0.003664988 -0.054230146
000140 75 1d 91 bd 45 18 8a bd 36 90 20 bd 6a e1 c3 bb
       -0.070856966 -0.0674291 -0.03920003 -0.005977799
000150 3a 6d ac 3d 79 16 15 be 25 6e ea 3d e8 52 0a be
       0.08419271 -0.14559354 0.1144679 -0.13508189
000160 c8 28 5e bd a4 d0 62 bc 75 3a 91 bd db e0 f3 3d
       -0.05423811 -0.013843689 -0.07091228 0.11908122
000170 0b 7c 05 be 87 b3 23 bc f8 aa 1e 3d 06 a0 d9 3d
       -0.130356 -0.009991533 0.038737267 0.10626225
000180 6a e4 d4 3d 2b 14 e6 bd bd 74 e6 3d ca 80 02 3e
       0.10395129 -0.112343155 0.11252735 0.12744442
000190 2a 83 a6 3d 1f 3e 6a bd 76 f5 59 bd 1a fd f5 bd
       0.08130486 -0.05718815 -0.053212605 -0.12011166
0001a0 9f 01 3b bd b7 79 aa 3c 5b 2e 9e 3d 85 fc b8 3c
       -0.045655843 0.020809991 0.07723685 0.022581348
0001b0 0e 39 e7 3d d5 3d 35 3d 18 99 48 3c 3b 09 18 be
       0.11290179 0.04424842 0.012243532 -0.14847271
0001c0 45 82 b1 bd e7 01 d2 3d 21 af 51 3d 30 6d d8 3d
       -0.08667425 0.10254269 0.051192407 0.10567701
0001d0 fb a1 c5 bd bc 4d 76 bd b3 41 c8 3a c5 6a be bd
       -0.09650036 -0.060132727 0.0015278369 -0.092977084
0001e0 eb ed fb bb 7d 4f 62 bd bb 36 37 bd 40 33 17 be
       -0.007688274 -0.055251587 -0.04472993 -0.14765644
0001f0 5d 9b 69 bc d8 c9 74 3c bf b2 d7 3c 2f 47 63 3d
       -0.014258233 0.014940701 0.02633035 0.055487808
000200 c3 5b 8a 3d 47 70 36 bc e7 6b 56 3d 60 d9 16 bd
       0.067557834 -0.011135167 0.052348997 -0.0368284
000210 6a fe 77 bd 6e 83 c0 bd 90 67 90 bd 3b 95 5f 3d
       -0.060545363 -0.09400068 -0.07051003 0.054585677
000220 d0 8a 99 3d a8 37 14 3d 0f 09 5a bd cf 65 d6 3d
       0.074971795 0.03618589 -0.053231295 0.10468637
000230 ee df d1 bd f0 52 fe 3d 39 b9 89 bc 49 4f 86 bb
       -0.10247789 0.12418163 -0.016811954 -0.004098807
000240 25 d5 8b bd d0 04 99 3d f2 21 14 3e f2 3c 85 3d
       -0.068277635 0.07471621 0.14466074 0.06505765
000250 34 d0 e2 3d 37 48 75 3d 2b b2 9d bd fc b7 95 3d
       0.11074868 0.059883323 -0.076999985 0.07310483
000260 6c af 02 3e a7 ff c5 bd 61 05 9b 3d 43 70 10 3d
       0.1276223 -0.096679024 0.07569385 0.03526331
000270 64 fe 14 3c 2a a5 05 3e 36 5e 39 3d 3a 57 90 3c
       0.009093855 0.13051286 0.045255862 0.017619718
000280 3f 93 f4 bd 79 82 ac 3c 28 0f c7 bd 85 2a 19 3d
       -0.119421475 0.021058308 -0.09719688 0.037394065
000290 66 ad 3c 3b 67 39 8d 3c f7 8d 00 3e 30 6e 02 be
       0.0028789877 0.017239286 0.12554155 -0.12737346
0002a0 b0 54 02 3e 7a 9b eb 3a 5d e7 fe 3d 16 e4 a3 3c
       0.12727618 0.0017975413 0.12446473 0.02000622
0002b0 33 98 d8 bb 59 2d 0b be 6a f0 e4 3d b0 2d bc 3d
       -0.0066099404 -0.13591518 0.11178668 0.09188402
0002c0 c3 c0 a6 3c 1a 86 e0 3d 9f 58 9d bd 78 3e 7a 3d
       0.020355588 0.10963078 -0.07682919 0.06109473
0002d0 39 06 2f 3d 9c db d5 bc fa 98 87 3c f6 32 b4 3d
       0.042730544 -0.026105694 0.016552437 0.087987825
0002e0 53 ca b4 bd d9 08 95 bd f3 2b 94 bc f7 09 4c bd
       -0.08827653 -0.07277078 -0.018087363 -0.04981419
0002f0 96 83 23 bd 0d c3 2c 3d ea 59 04 be 5b 1b 24 bc
       -0.039920412 0.042178202 -0.12924924 -0.010016288
000300 dc ee 94 bd 45 9f 5a bd 23 5c 40 bd 70 2d dc bc
       -0.07272121 -0.053374548 -0.04696287 -0.026877135
000310 aa 72 1c be 91 eb b0 3d b5 56 65 3d 63 14 79 bc
       -0.15278116 0.08638681 0.055990893 -0.0152026145
000320 f9 5f cd 3d eb f3 2b 3d 3e df af bc 56 b4 c6 bd
       0.10028071 0.041980665 -0.021468755 -0.09702365
000330 14 f0 bd bd 7a a8 1a bc 20 f0 9b 3c eb ab 05 be
       -0.09274307 -0.009439582 0.019035399 -0.13053863
000340 68 92 da 3d ab e7 c7 bd 21 7c e6 3b a3 e2 27 bc
       0.10672456 -0.09760984 0.0070338403 -0.0102469055
000350 23 6e c5 bd 8c 73 06 3e 6b 75 bc bd ac 5b fe bd
       -0.096401475 0.13130015 -0.09202083 -0.12419829
000360 f7 3c 33 3d 6f 7f 08 be cb 48 e5 3c 0d 99 8f b9
       0.043759312 -0.13329862 0.027988812 -0.00027389117
000370 aa ba b9 bb f3 91 fb bd 4c a3 7d 3d a2 96 01 3e
       -0.005668004 -0.12283697 0.06192331 0.12655118
000380 8f 0b 6e bd 96 e9 8e bc 68 b6 ae 3d cc a2 8a bd
       -0.058116492 -0.017445367 0.08530885 -0.06769332
000390 06 6c cd bd 2b ea 26 3a 2a 94 ba 3d 8f 10 8a bd
       -0.100303695 0.0006367291 0.09110291 -0.067414396
0003a0 bc eb bc bd 61 d8 5b 3d d9 15 1f 3d 7b 1e 84 bd
       -0.0922465 0.053673152 0.038839195 -0.06451126
0003b0 5e cf f8 bc 61 6e ea 3d 53 e8 f4 bd 9a bc 23 3d
       -0.030372318 0.11446834 -0.11958375 0.039974786
0003c0 8d 3c 0d 3e 26 db b3 bc de 61 f2 bd 3e 97 ca 3d
       0.1379263 -0.021955084 -0.11835073 0.098921284
0003d0 fc 0a 25 bd 76 a6 f9 3d 6f 72 ca 3b 86 48 ea 3d
       -0.04029368 0.12189953 0.0061781923 0.11439614
0003e0 ea 94 ca 3d 34 c8 16 3e b0 93 3e bd b8 6f a5 3c
       0.09891684 0.14724809 -0.046527565 0.020194873
0003f0 7d eb b9 bc fc 09 a5 bd 61 1a 0f be 95 2b 3f bc
       -0.022695297 -0.08058545 -0.13974907 -0.011668106

base.0.bias f4 [32]
000000 33 30 21 39 c2 ef 97 b9 b5 6c 99 39 7d d5 f4 b8
       0.00015372112 -0.00028979598 0.00029263427 -0.00011674592
000010 be 41 27 39 f9 db 2f b8 d2 8f d0 b8 23 ba 80 b8
       0.00015950852 -4.1928117e-05 -9.9450015e-05 -6.138186e-05
000020 a1 57 66 b7 89 de 09 39 83 f6 c0 b8 95 7f 62 39
       -1.3729471e-05 0.00013148239 -9.20119e-05 0.00021600568
000030 59 bf 24 b9 32 64 29 38 74 ea 46 b9 77 3d e7 b8
       -0.00015711541 4.0386054e-05 -0.00018970092 -0.00011026387
000040 64 84 d3 b9 67 c3 af 38 89 d2 54 b8 7f 19 d8 b8
       -0.00040343695 8.381047e-05 -5.0740815e-05 -0.000103044316
000050 82 38 b0 b8 9c 58 cb b9 f5 e4 3d b8 f3 a7 31 39
       -8.4028594e-05 -0.00038785196 -4.5274344e-05 0.00016942601
000060 49 ec 05 39 65 4a 95 39 58 53 e0 b7 ac d0 33 38
       0.00012771891 0.00028474923 -2.674169e-05 4.2871266e-05
000070 93 c3 a1 b8 bf 97 f0 38 90 2a 9d 35 48 0c af 38
       -7.713507e-05 0.00011472357 1.1709799e-06 8.346938e-05

base.1.weight f4 [32]
000000 b9 c2 7f 3f de b8 7c 3f 5b 74 84 3f 9f 20 81 3f
       0.999065 0.98719585 1.0348009 1.008808
000010 97 31 7e 3f 19 44 7c 3f 16 d1 75 3f 38 08 7f 3f
       0.9929442 0.9854141 0.96022165 0.99621916
000020 d6 b2 7c 3f c1 ed 7c 3f da 7e 7b 3f 5f 16 7a 3f
       0.9871038 0.98800284 0.98240435 0.97690386
000030 83 f3 7c 3f 05 90 7a 3f 37 30 7c 3f 55 c2 7d 3f
       0.9880907 0.97876006 0.9851107 0.9912465
000040 c6 11 7d 3f 7b cd 7c 3f ad 26 7f 3f ca 7f 7c 3f
       0.98855245 0.9875104 0.9966839 0.9863249
000050 ed fe 7b 3f 69 65 80 3f 26 8e 7a 3f 4c 9f 7d 3f
       0.9843586 1.0030948 0.9787315 0.9907119
000060 ca 7d 7c 3f 6c 0e 80 3f f3 3c 7d 3f 43 28 80 3f
       0.9862944 1.0004401 0.98921126 1.0012287
000070 12 38 81 3f 48 e7 80 3f b8 40 7e 3f 2f 6e 7d 3f
       1.0095236 1.0070581 0.993175 0.9899625

base.1.bias f4 [32]
000000 fd b5 87 ba 96 69 4c 3c 35 b7 b5 3c bf 3f 33 3c
       -0.0010353919 0.0124763455 0.022182086 0.010940491
000010 15 1b 27 bb 33 bc 21 bb 06 31 a4 bb 79 31 3a 38
       -0.002549832 -0.0024678826 -0.005010727 4.439193e-05
000020 ce d0 21 bb 00 53 1d bc 4e 1a a3 3b 11 50 12 bc
       -0.0024691108 -0.009602308 0.004977501 -0.008930222
000030 01 d7 08 3d 5c e0 02 bc 30 17 9b 3a 6b b6 ef ba
       0.03340817 -0.007988062 0.0011832472 -0.0018288618
000040 c2 61 db 3b e6 83 d8 bb f8 e9 bb 3b d9 72 80 bb
       0.0066950032 -0.0066075204 0.0057346784 -0.003919941
000050 5c bf 88 b9 58 87 0a 3a b9 d8 f2 3b 53 44 9a 3c
       -0.00026082515 0.000528445 0.0074110893 0.018831408
000060 10 39 a8 3a b9 29 9e 3b 0d 39 38 3a 0f 39 a6 3b
       0.0012834389 0.004826751 0.0007027544 0.00507272
000070 89 05 c7 3c 83 62 c7 3b 91 b8 88 bb c4 be 06 3c
       0.024294632 0.0060847416 -0.0041723927 0.008224193

base.1.running_mean f4 [32]
000000 12 b0 05 3e cf a0 d5 3e 16 13 17 3e f1 f2 34 3e
       0.13055447 0.4172425 0.14753374 0.176708
000010 0f 58 8b bc 88 dc 9c bf 2b ad 2d 3f 6e ad 01 3e
       -0.017009763 -1.2254801 0.6784236 0.12663814
000020 c5 ed fe be 59 b9 0a be b4 38 ad bd a3 16 b8 bf
       -0.4979078 -0.13547267 -0.08458081 -1.4381908
000030 15 be 61 3e 18 4e e9 bd 16 e9 bd be e5 89 74 3e
       0.22045167 -0.11391848 -0.37091893 0.23880728
000040 ba 00 86 3e fc 43 4c bf 5e 41 89 bb 62 2c 92 bf
       0.2617243 -0.79791236 -0.0041887006 -1.1419795
000050 5a 63 66 3e fa d1 aa bd 17 40 2e 3e 1a bf 1f bd
       0.22498837 -0.08340831 0.17016636 -0.039000608
000060 d4 a3 12 3e 0f ed 03 3e 3d 08 bf 3e e1 ef 8e 3e
       0.14320308 0.128834 0.37310973 0.27917388
000070 c2 c0 86 3e 01 34 90 3d 89 2b 27 3d 8a 86 7b 3e
       0.26318938 0.07041169 0.040813003 0.24563041

base.1.running_var f4 [32]
000000 91 ae 62 3a 3e e6 57 3b 1a 8a 9e 3a bc c6 92 3a
       0.0008647228 0.0032943632 0.0012095601 0.0011198143
000010 81 a9 be 3a d1 5e 7a 3c a1 bb fe 3b 1e 7c 1f 3a
       0.0014546366 0.015281395 0.007773832 0.00060838636
000020 c3 54 0d 3b 92 55 a0 3a 8e 3b 5f 3a ab 00 b7 3c
       0.0021565414 0.0012232533 0.0008515649 0.022339186
000030 43 f3 b5 3b 11 19 34 3b 4f e5 d6 3a 82 a7 32 3b
       0.0055526807 0.002748076 0.0016395244 0.0027260487
000040 a4 28 f6 3a a1 a2 1a 3c a5 e1 11 3a 1f d5 91 3c
       0.0018780422 0.009438188 0.00055649347 0.01780182
000050 ba dc 19 3b db 73 97 3a 90 2b 8e 3a 12 3f 4b 3b
       0.002347751 0.0011554913 0.0010846723 0.0031012935
000060 cd 64 f1 3a 51 e7 17 3a 91 e2 fb 3a 47 30 da 3a
       0.0018416882 0.00057946617 0.0019217302 0.0016646468
000070 2a 32 a4 3a f9 39 9a 3a 54 f4 ab 3a f5 fe 0c 3b
       0.0012527157 0.0011766545 0.001311908 0.002151427

base.3.weight f4 [32, 32, 5, 5]
000000 af 4c 9a 3a bf f2 0a 3d 96 0d ae 3c 7d 0e fa bc
       0.0011772121 0.033922907 0.021246713 -0.030524487
000010 68 28 8b bc 13 96 fc 3a 85 6a 28 bc 9d 2f 10 3d
       -0.01698704 0.00192708 -0.0102793025 0.035201658
000020 98 91 22 3c e1 8f 03 bc af 05 3d bc 71 8a 23 bc
       0.009922408 -0.008029909 -0.011537 -0.0099817375
000030 9a 83 e6 3c 0d 7e 3a 38 98 99 4a 3c 29 e5 9f bb
       0.028138924 4.446325e-05 0.012365721 -0.004879613
000040 8c 24 4d 3c 15 fc da bc d2 26 24 3d 6d a8 88 3c
       0.0125209205 -0.02673153 0.040076084 0.016681874
000050 4a 19 9a 3b 47 9c 8a bc 15 81 76 3c c7 3f 70 3a
       0.0047027217 -0.016920222 0.015045424 0.0009164777
000060 48 7f 43 3c 82 a8 4f 3b 3b 5a a3 3b 5a b2 09 3c
       0.011932202 0.0031686132 0.0049851215 0.008404339
000070 f3 e8 03 bd 3c be cd bc 87 4d 9b 3c 73 11 d3 3c
       -0.03220458 -0.025115125 0.018957866 0.025765156
000080 03 10 5e bb 20 b0 6d bb 0f 41 70 bc 59 43 30 3d
       -0.0033884055 -0.0036268309 -0.014663949 0.043032978
000090 73 76 94 bc d2 60 8d 3c bf 06 1d bd c1 4a b2 bc
       -0.018122887 0.017258082 -0.03833651 -0.021764161
0000a0 58 6e 23 bc 0b ae 7f 3b 89 52 c9 3b f4 5e 08 3b
       -0.0099750385 0.003901365 0.006143872 0.002080855
0000b0 13 cc 6c 39 c8 25 23 3d f4 66 20 bc a0 f8 a0 bb
       0.00022582737 0.039830953 -0.009790171 -0.004912451
0000c0 cb 0f dc 3c 41 9a dd 3c 24 60 9b bc 8e d2 c7 3c
       0.026863 0.027051093 -0.018966742 0.024392392
0000d0 df 4d 1b bd 7d 7a 2f 3c 4a 2b a4 3c 15 58 e9 bc
       -0.03791606 0.010710356 0.020040173 -0.028484384
0000e0 16 62 4b 3c 31 58 9b 3c 80 e9 0c bd ff d3 e0 3c
       0.012413522 0.018962951 -0.03440237 0.027444838
0000f0 08 5e f0 3c da 1c 8c bc cc 9e 8c bc b0 dc ae bc
       0.029341713 -0.017103601 -0.017165564 -0.021345466
000100 b6 d4 9d bc 8a 66 31 3c 5b 0f cd bc b8 1f 9f bc
       -0.019266468 0.01082767 -0.025031736 -0.019424304
000110 e1 da e3 3c 34 5d 95 bc 4b ef ac 3c 32 7b 85 3c
       0.02781433 -0.01823292 0.021110198 0.016294096
000120 34 02 06 3d a4 df fb 3b e5 a7 3e bd 18 cc cb bc
       0.032716945 0.007686572 -0.046546835 -0.024877593
000130 35 ee 30 3d 45 65 9e bc f1 4b 5a 3c aa 17 17 bd
       0.043195922 -0.019335398 0.01332377 -0.036887802
000140 a2 d5 1f bc 6a d6 0b bc 81 0d 25 bc df a7 25 bc
       -0.009755524 -0.008535007 -0.01007402 -0.010110824
000150 23 9a 14 bb ad bc 82 3c d7 20 1c 3c 5e b0 ac ba
       -0.002267488 0.015959108 0.009529314 -0.001317512
000160 91 7e ed 3b a4 43 4f 3d f3 3d e3 3b a2 95 e9 bc
       0.007247754 0.050601617 0.006934875 -0.028513733
000170 af 30 f4 bc 8b 27 c6 3c a6 d1 53 3c e9 76 00 bd
       -0.02980837 0.024188777 0.012928402 -0.0313634
000180 cb cc 0a bc 85 c6 8f bc 34 24 58 bc 16 57 5d 3c
       -0.008471678 -0.017550716 -0.013192225 0.013509532
000190 b2 2b 81 bc 76 46 d9 3a 53 4c e4 bb fe e6 c9 bc
       -0.015767906 0.0016576785 -0.0069671064 -0.024646278
0001a0 dd 58 39 3c fd 67 9b bc a4 b5 bf 3c 54 41 b0 bb
       0.011312691 -0.018970484 0.023402043 -0.0053788815
0001b0 3f e4 b7 3c c4 01 ef bb 7a e4 b7 3b c4 1b e4 3c
       0.022447703 -0.0072939117 0.0056119533 0.027845271
0001c0 5a 44 5a bc 33 d4 b2 3c 7f 63 6a 39 c9 8a 88 bc
       -0.01332196 0.0218297 0.00022353044 -0.01666774
0001d0 33 ae e6 bb 94 c6 11 3c 00 87 10 3c 79 84 30 3c
       -0.007039809 0.008897442 0.008821249 0.010773771
0001e0 9c 1a bb bc 59 45 96 3b 7b e7 0f bd 03 4e 8a bb
       -0.022839837 0.0045859036 -0.035132866 -0.0042207255
0001f0 6b bd c0 3c 0a b0 f4 bb 5e 82 cb bc 42 fb a3 3a
       0.023527822 -0.0074672746 -0.024842437 0.0012510794
000200 b5 9d 56 3c 03 64 da 3c 32 33 b9 ba 77 62 d6 3c
       0.013099124 0.026659017 -0.0014129637 0.026169999
000210 19 16 e1 3c 08 98 1a bc be 8e 09 bd f9 a8 fa bc
       0.027476357 -0.009435661 -0.033583395 -0.03059815
000220 ff 02 01 bd 1d 69 1f 3d 73 eb c7 bc c8 98 f2 bc
       -0.031496998 0.038918603 -0.024404263 -0.029613867
000230 52 6f da bc 25 90 94 bc bb 37 a7 bc bc 23 94 3c
       -0.02666441 -0.01813514 -0.020412317 0.018083446
000240 1d fe 03 3d f4 bf 06 bd 40 1d 03 3d 86 4f ac bc
       0.032224763 -0.032897905 0.032010317 -0.021034013
000250 fc 5f 7d 3c 31 4d 1f 3d 3a 77 87 bc 70 cd 2a bc
       0.015464779 0.038891975 -0.016536344 -0.010424957
000260 a9 a4 b7 3c c6 ce bd 3c 09 aa 13 3d a4 c6 92 bb
       0.022417383 0.023169886 0.03605083 -0.004479246
000270 57 aa bd 3b 60 be b9 bb a1 06 8b bc c9 e5 02 3d
       0.0057881284 -0.0056684464 -0.016970934 0.03195742
000280 66 77 8d 3c 24 a5 ff 3c d7 96 6d bc 48 74 f6 3c
       0.017268848 0.031206675 -0.014501295 0.030084744
000290 b8 0c d9 3c ca 7b 22 ba f1 bf 03 3b 0b a0 d9 3c
       0.026495323 -0.00061982556 0.002010342 0.026565572
0002a0 e8 34 61 3c da 25 36 b8 cb 52 95 bc ce 7c 73 3b
       0.013745524 -4.3427433e-05 -0.018227955 0.0037153247
0002b0 3b c7 b9 3c 43 85 26 3c 6f a2 3b 3c b5 87 c5 bc
       0.022678008 0.010163608 0.011452301 -0.024112562
0002c0 8a fb 08 bd e3 f5 e0 3c 9d 4c 94 3c 84 6d da bc
       -0.03344301 0.027460998 0.018102938 -0.02666355
0002d0 28 b0 31 bb 09 3f 99 3c a7 79 0b 3d 55 93 13 bc
       -0.0027113054 0.018706815 0.034051564 -0.009007295
0002e0 8e 86 61 3b a2 b3 83 3c 08 ce 96 bc df 08 6a 3c
       0.0034412476 0.016076867 -0.01840879 0.014284342
0002f0 26 39 6a 3c c6 3e a5 bb e3 23 9e 3a 18 a0 32 bd
       0.014295852 -0.0050428836 0.0012065138 -0.04360971
000300 75 14 fb 3b 57 1e 18 3c 6f 31 a8 bc a9 43 93 bc
       0.007662351 0.009284577 -0.020531384 -0.017976599
000310 22 5c a1 bb f4 3b aa 3c c0 2a ab 3c 3b 31 7e bb
       -0.004924313 0.020780541 0.020894408 -0.0038786668
000320 f4 fa d6 bc d7 9d 60 3c 60 eb d4 bc 56 e5 b1 bc
       -0.02624271 0.013709507 -0.025991142 -0.021715801
000330 6e 36 35 bc 1c 81 c6 3c 99 91 cf bc ee 5d 19 3d
       -0.01106034 0.024231486 -0.025337981 0.037443094
000340 05 66 8e 3c 08 65 96 3c 23 b0 a6 3b f9 11 f2 bc
       0.017382631 0.018358722 0.005086915 -0.029549586
000350 13 7e 19 bc 64 33 0d bc 38 00 e2 3c ea 23 aa 3c
       -0.009368437 -0.0086182095 0.027587995 0.020769078
000360 cc 7b fb ba 99 23 ed 3c 19 16 92 bc f3 db a7 bc
       -0.0019186675 0.028947638 -0.017832803 -0.020490622
000370 24 e9 5e bc f9 5a f5 3a d8 31 87 bc f6 db 84 bc
       -0.01360539 0.0018719129 -0.01650326 -0.016218167
000380 20 a0 0c 3d 39 ac 57 bc 89 02 9e 3b 87 1c 7b bb
       0.034332395 -0.01316362 0.0048220796 -0.0038316564
000390 b2 ac 13 3d 07 11 b2 bc 7f bc 13 bc 0b 45 f6 3b
       0.036053367 -0.021736635 -0.009017109 0.007515555
0003a0 2c 1b 36 3c 75 40 94 3c 7b bb 42 bd da 80 12 bd
       0.011114877 0.018097142 -0.047542077 -0.035767414
0003b0 d7 d4 ec b9 4e b7 07 bc b2 d7 b6 3c f4 58 be 3b
       -0.00045172006 -0.008283449 0.022319648 0.005808944
0003c0 3a 54 c8 bb fb f6 1f bc 46 af bb 3c 1f 3a a5 3c
       -0.006113556 -0.009763475 0.022910725 0.020169316
0003d0 77 69 47 3d e8 7d e3 bc 3d 48 88 bc a0 5a da 3c
       0.048684563 -0.027769998 -0.016636008 0.026654541
0003e0 85 7f 4f bc b7 2c 07 3d 77 ef de 3c 1d 68 9c 3b
       -0.01266468 0.033001628 0.027213795 0.0047731535
0003f0 f4 df ff bb c5 ee 02 3c f8 1d a7 3b 8c d8 c0 3b
       -0.0078086797 0.007991497 0.005100008 0.0058851894

base.3.bias f4 [32]
000000 e8 e8 36 38 54 90 0f 38 e7 9a 68 38 f0 89 b2 37
       4.3609092e-05 3.4228273e-05 5.5457374e-05 2.1283486e-05
000010 de b7 fa 37 33 52 4e 38 ae f8 29 b8 70 2d 0c 38
       2.9887942e-05 4.919078e-05 -4.052434e-05 3.3420918e-05
000020 b1 44 d9 36 38 ea 92 b8 33 13 ec b7 ca f2 ed 37
       6.4751007e-06 -7.005449e-05 -2.8142333e-05 2.836566e-05
000030 79 16 77 38 47 de 84 37 fb 36 5e b8 e7 ee bc b7
       5.891032e-05 1.5839132e-05 -5.298013e-05 -2.2522594e-05
000040 11 85 89 b8 27 ce 84 37 94 17 c3 36 26 43 2a 38
       -6.5574546e-05 1.5831623e-05 5.8141977e-06 4.0593695e-05
000050 2c f2 3b b8 02 72 27 38 73 67 75 38 e9 b7 32 b8
       -4.4809814e-05 3.992208e-05 5.8508896e-05 -4.2609787e-05
000060 c3 40 61 b8 1c e3 86 b8 a6 c4 8c b7 97 a3 ae 37
       -5.3704494e-05 -6.43192e-05 -1.6780872e-05 2.0818594e-05
000070 6e 7c 41 37 de e2 6c 38 61 ac 81 37 f8 73 b8 38
       1.15326675e-05 5.647807e-05 1.5458269e-05 8.7954046e-05

base.4.weight f4 [32]
000000 ab cf 7a 3f c7 96 80 3f df c7 7f 3f 76 39 7e 3f
       0.97973126 1.0046014 0.99914354 0.9930643
000010 fe a4 7c 3f e1 2d 81 3f 49 73 7a 3f 50 93 7d 3f
       0.9868926 1.0092126 0.9783216 0.99052906
000020 19 ad 7d 3f 3e 52 80 3f ae 39 7d 3f fa af 80 3f
       0.9909225 1.0025098 0.9891614 1.0053704
000030 7f 0b 7d 3f 5e 46 7f 3f 3b ac 7b 3f 06 b4 7f 3f
       0.98845667 0.99716747 0.9830968 0.9988407
000040 6d ea 7b 3f 2e 6a 7d 3f 8c 63 7a 3f 82 82 7c 3f
       0.9840458 0.9899014 0.97808146 0.9863664
000050 83 87 80 3f 7a 27 7e 3f ae 17 79 3f 64 34 7a 3f
       1.0041355 0.99278986 0.9730176 0.9773619
000060 6b a0 7f 3f 85 00 7a 3f 93 b0 7c 3f e9 62 7c 3f
       0.99854153 0.9765704 0.9870693 0.98588425
000070 f6 3a 7b 3f 83 91 7e 3f 95 4e 7c 3f 06 d6 81 3f
       0.9813684 0.99440783 0.98557407 1.014344

base.4.bias f4 [32]
000000 18 30 93 bc 23 44 71 3b 19 49 82 3b 35 f5 83 bc
       -0.017967269 0.0036814294 0.003975999 -0.016108135
000010 7c 6d 1c bc e9 d1 02 3a 88 28 02 bc a3 70 28 bc
       -0.0095475875 0.00049903855 -0.007944234 -0.010280761
000020 63 09 ba 3b e6 06 a1 3b 22 f5 19 3c ee 97 d6 3b
       0.0056773885 0.0049141524 0.009396823 0.006548873
000030 ff 0f 9b 39 57 30 74 3b cc f4 9f ba 36 8e c8 3a
       0.00029575822 0.0037260258 -0.0012203692 0.0015301171
000040 7b 02 bb bb cb 8b 71 3c f4 fc 6e bc 28 7f 96 ba
       -0.005707083 0.014742802 -0.014586676 -0.0011481987
000050 65 1f 03 bc 36 ec f4 3b 57 8e e6 bb 7d b0 54 3c
       -0.0080030905 0.0074744476 -0.007036011 0.012981531
000060 dd bb 36 bb 1c 88 90 3b 00 c9 41 bb df ab ce bb
       -0.0027882971 0.0044107568 -0.0029569268 -0.0063071097
000070 0d d9 81 3b e5 67 41 3c f0 4f c7 3b 8d ec 12 bc
       0.003962642 0.011804556 0.0060825273 -0.008967531

base.4.running_mean f4 [32]
000000 c1 80 7a 3e 3e 48 a2 3d 71 4d 92 3b 78 9c 2c 3e
       0.24463178 0.07923935 0.004464798 0.16856563
000010 d7 44 96 3e 63 c8 02 be b0 d3 cd 3d c3 00 60 bd
       0.29349396 -0.12771754 0.10050142 -0.054688226
000020 82 16 2c bd 3e 0e 0c 3d 56 c5 24 be 52 55 cc 3d
       -0.042013653 0.03419327 -0.16090903 0.09977211
000030 e0 60 ac 3d 85 be 7f 3e 44 aa 13 3e 79 75 65 bd
       0.08416915 0.24975021 0.1442042 -0.056020234
000040 99 21 8d bc 93 f5 fe bc fe 7c 32 be 26 2a 85 3e
       -0.017227935 -0.031122958 -0.17430493 0.2600872
000050 29 4c d0 3d 4d 90 69 3d 96 ed 71 bd c9 2c 57 3e
       0.101707764 0.05702238 -0.05906447 0.21013178
000060 a4 5c 26 3e eb 21 06 be b8 91 4b 3b 79 9d 0b be
       0.16246277 -0.13098876 0.0031062197 -0.1363429
000070 fe 9e d8 bd 0c 38 90 bd 4d 85 92 bd 4f 26 8b 3c
       -0.105772 -0.0704194 -0.07154331 0.01698604

base.4.running_var f4 [32]
000000 d1 78 70 3e 5f cc 1e 3d d0 b1 b8 3c 7c f1 94 3d
       0.23483588 0.038769122 0.022545725 0.07272622
000010 c6 cc 21 3f b3 74 ab 3c 87 d8 f9 3d 77 ba a6 3d
       0.63203084 0.02092967 0.121995024 0.08141034
000020 55 9c 52 3e df 90 e7 3c ff a0 02 3e 3f 66 a8 3d
       0.20567448 0.028267322 0.12756728 0.08222627
000030 93 ee 2e 3d dc cb 18 3e 14 95 31 3d 87 1a 8f 3d
       0.04270799 0.14921516 0.043355063 0.069874816
000040 c2 ad 87 3d 2e d2 0a 3e e0 47 a0 3d 27 7d 22 3e
       0.066249385 0.1355674 0.07826209 0.15868054
000050 3f f5 92 3d 7d f0 73 3d 3a 67 58 3e 36 5a 87 3d
       0.07175683 0.05955552 0.21133128 0.06609003
000060 28 2a d7 3d da b7 cf 3d 6a 11 cd 3d 3d 7e f6 3d
       0.105060875 0.10142489 0.10013087 0.12035797
000070 72 27 69 3d 84 aa 2e 3d f0 6b e8 3d 16 bd b5 3c
       0.056922384 0.042643085 0.113487124 0.02218489

base.6.weight f4 [32, 32, 5, 5]
000000 80 4d 7b 3b d9 fa ee 3c cb b2 0c bd 75 05 01 bd
       0.0038345754 0.029172348 -0.034350198 -0.031499345
000010 9b dc 33 bc 53 83 ef 3b 32 fc 00 3c d3 98 8c 3c
       -0.010977889 0.0073093562 0.007872628 0.017162716
000020 fd bd 6e 3c 2e c0 d0 bb f2 88 57 bc 12 19 ae bc
       0.014571664 -0.006370566 -0.013155209 -0.021252189
000030 2f a7 6c 3a 46 31 dd 3b 0b 86 bf 3c ba 19 cd bc
       0.0009027598 0.0067502586 0.023379346 -0.025036681
000040 ae 21 72 3c 90 af 6f 3c 21 43 ec bc f6 9d 68 bc
       0.014778538 0.01462926 -0.028840603 -0.014197817
000050 34 c0 23 bb be 87 94 bb fd 40 86 bb b1 19 a0 bb
       -0.0024986388 -0.0045327833 -0.0040971027 -0.004885875
000060 15 0b 4c bb 0d e4 c3 bc d7 fe ed bc 22 15 12 3c
       -0.0031134535 -0.023912454 -0.029052181 0.008916171
000070 14 69 b4 3b bd 47 8a bb 2e 80 a7 bc c8 b6 67 3c
       0.0055056904 -0.0042199777 -0.020446863 0.0141427
000080 0e 10 e7 bc 02 8b d3 3c 25 4a c3 3b 29 0a de 3b
       -0.028205898 0.02582312 0.0059597665 0.0067761135
000090 0f 98 c6 ba 9f 61 c7 bc ee 68 6a bc 09 27 75 bb
       -0.0015151518 -0.024338542 -0.014307244 -0.00374073
0000a0 9e 35 d9 ba 11 24 aa bc 6c 2f b1 bb 65 df 0c 3d
       -0.0016571765 -0.02076915 -0.0054072645 0.034392733
0000b0 26 9d 4d 3c 55 8b ce bc f2 a5 02 bc 98 98 a0 bc
       0.012549674 -0.025212923 -0.007974135 -0.019604012
0000c0 88 b7 28 bc ef a0 da 3c 71 c6 f8 bc df cb 5c bb
       -0.0102976635 0.026688067 -0.030368062 -0.0033690853
0000d0 a7 b2 09 bc fa 1d 2e bc d5 93 04 bc c2 72 ed bc
       -0.00840441 -0.010627264 -0.0080918865 -0.028985385
0000e0 82 64 1b 3c 69 85 90 bc 88 55 a1 3c 1e c0 80 3c
       0.009484412 -0.01764174 0.019694105 0.015716609
0000f0 cc 8c cb bb 79 f5 48 bb 4f 5c a3 bc 5c fe 39 bc
       -0.0062118527 -0.0030663891 -0.019941477 -0.011352148
000100 5f ae e2 3c 9b 0d af 3c bf ed 3c bc 0d 18 0b bd
       0.027671037 0.021368792 -0.011531292 -0.033958483
000110 f7 5e c1 bb f9 65 e3 3b 73 cb 1f 3b c6 58 f0 3c
       -0.0059012133 0.0069396463 0.002438274 0.029339205
000120 10 f1 a9 3c a8 38 b6 3c bf 42 4b 3c 05 d2 6a 3b
       0.02074483 0.022243813 0.01240605 0.0035830748
000130 03 cb 1d bb 34 4e c0 3c 3e cd 03 bc 34 6e b5 bb
       -0.0024077303 0.02347479 -0.008044539 -0.005536819
000140 b8 c1 d0 3b 1c ba 32 3d ef 57 91 bc 3b 38 ac bc
       0.0063707493 0.04363452 -0.017742125 -0.021022907
000150 cb 37 85 bc a5 2b dc 3c d4 63 77 3c 1b 19 ad bc
       -0.016261956 0.02687628 0.0150994845 -0.021130135
000160 c1 d0 ac 3c 0d 75 e6 bc d9 5c e6 3c a1 b0 14 bc
       0.021095635 -0.028131986 0.028120445 -0.009075315
000170 03 72 4f 3c 77 5c aa bb 8c 33 cb bc 93 c4 11 bd
       0.01266146 -0.005199011 -0.024804853 -0.03558786
000180 f3 9f d7 bc 2c a5 34 3c e9 93 15 3c 3f c3 ab 3c
       -0.026321387 0.011025708 0.009129503 0.020967124
000190 dd 82 85 3c da fd b7 3c 88 75 90 3c 7f 0b ce bc
       0.016297752 0.022459913 0.017634168 -0.025151966
0001a0 49 3f 6e 3c 57 e4 94 3c 5e 3d 39 bb ff 9c 8b 3c
       0.014541456 0.018175287 -0.0028265337 0.017042635
0001b0 ce 9c 96 ba d8 b8 d9 3c 5e e9 11 bc 37 04 14 3d
       -0.0011490823 0.026577398 -0.008905737 0.036136832
0001c0 50 86 a5 bc f9 a5 fd bc 93 8e 9e 3c 89 42 48 3c
       -0.020205647 -0.030962931 0.019355094 0.0122228945
0001d0 80 f2 45 bc 7d a1 4c 3c 0b 4b b9 3c 6d 58 0e bd
       -0.012081742 0.012489674 0.022618791 -0.0347523
0001e0 05 60 05 3d 3d 9f 99 3c b9 3e ce 3c c0 3b 8f 3c
       0.032562274 0.018752689 0.025176393 0.017484546
0001f0 29 c9 01 bc 2f f8 f8 bc bd 59 26 bc 34 72 45 3c
       -0.0079214955 -0.03039178 -0.010153231 0.012051154
000200 fc d9 e9 3c d1 59 0a bc ba af 39 bc 99 55 da bc
       0.028546326 -0.008444265 -0.0113334 -0.026652144
000210 70 a6 15 bd b7 2d 9c bc ff 0f 29 3c 55 51 9c bc
       -0.03653568 -0.019064767 0.010318755 -0.01908175
000220 49 38 8f 3c 2f d5 11 bd 3b a0 82 3c 99 d0 09 3d
       0.017482894 -0.0356037 0.015945544 0.0336462
000230 0f c9 49 bc fd 2d 0e 3d 8e 99 f9 38 21 71 c8 3c
       -0.0123160025 0.034711827 0.00011901847 0.024468007
000240 02 17 60 3a f4 59 9b bb f0 14 be 3c 99 ac 80 3c
       0.00085483503 -0.004740948 0.023203343 0.015707301
000250 2d 62 84 3c 46 40 5b bb 82 27 16 3d 42 25 c1 3b
       0.016160095 -0.0033455058 0.03665877 0.005894334
000260 1d 2f 58 bc 9c 04 58 3c 6a 56 e3 3c fe c0 55 3a
       -0.013194826 0.013184693 0.027751166 0.0008154063
000270 b4 1f e4 3b 45 96 09 bd 29 43 89 bc 52 f7 ee 3c
       0.006961787 -0.033590574 -0.016755657 0.029170666
000280 f5 4f e7 bc 1a 01 dc bb 14 c8 2f b9 c3 f4 8a bc
       -0.028236369 -0.0067139985 -0.00016763835 -0.016962415
000290 c5 97 11 bd e8 d7 7b bb b8 f6 0e bc f2 1b 3e bc
       -0.03554513 -0.003842825 -0.0087258145 -0.011603342
0002a0 98 59 f8 bc cb 84 9a bb 51 88 9d bc b6 64 05 bd
       -0.03031616 -0.004715537 -0.01923004 -0.03256675
0002b0 99 10 f7 3c 97 64 b7 3c a0 db 3c 3b f2 d7 e2 3c
       0.030159282 0.022386832 0.002881743 0.027690861
0002c0 3d d5 a6 bc 2e 1c 97 3c 83 ed b9 3c c2 62 cc 3c
       -0.020365352 0.018446054 0.022696262 0.024949435
0002d0 60 cf 97 3c 54 c3 0b 3d 3f a7 11 bd c5 3e 48 bb
       0.018531501 0.034121826 -0.03555989 -0.0030554992
0002e0 f4 bc 27 3c c4 97 48 bc 67 b7 f9 3c 73 49 c4 3c
       0.010237921 -0.012243215 0.03048296 0.023960805
0002f0 59 80 86 bc 31 35 d8 3c 15 ca 0b bc ff e6 b5 bb
       -0.016418623 0.026392551 -0.008532067 -0.0055512185
000300 d4 8c 01 bd aa b3 b5 bc b1 58 c7 3c c9 b6 05 3d
       -0.031628445 -0.022180397 0.024334284 0.03264502
000310 5c 74 eb 3c 6b 36 aa bc b1 1c b7 bc 5d 38 06 bb
       0.028742008 -0.020777902 -0.022352548 -0.0020480372
000320 9c ad 19 3d de f6 ee 3c 01 c2 bd bc 6e 4f cd bc
       0.037519082 0.02917045 -0.023163797 -0.02506229
000330 2b e6 82 bb 30 9b 2d 3c 63 e7 c7 3c ad 65 09 3c
       -0.0039947233 0.010596082 0.024402326 0.008386058
000340 55 40 3d bc 56 b5 b0 3c 27 20 b7 bc 5e 4a 57 3b
       -0.0115509825 0.021570843 -0.022354199 0.0032850723
000350 bb 11 ec 3c 58 4b 0d bd 2b 23 ff 3b 22 94 08 bc
       0.028817048 -0.03449568 0.007786175 -0.008336099
000360 c8 d2 85 3c 9c 3a e3 bc 61 2f 18 bd b3 ea 85 3c
       0.01633586 -0.027737908 -0.03715456 0.016347265
000370 a4 aa fc 3c e3 1f ff bc 0c 1d 24 bc de 0b 9c 3c
       0.030843087 -0.031143134 -0.010016691 0.019048627
000380 f0 ef 9d 3c e8 5f 0a bd f2 88 19 3c bb 31 33 bc
       0.01927945 -0.03378287 0.009371029 -0.01093715
000390 f6 a8 20 3d 7b 38 de bc 98 59 ad bc 83 c4 b9 bc
       0.039223634 -0.027126541 -0.021160886 -0.022676712
0003a0 11 7e 0d bd b3 f0 7f 3c 5c 36 e9 3a aa a0 1f bc
       -0.034544054 0.015621352 0.001779269 -0.009742895
0003b0 99 41 0f bd 55 f1 ce bc fd 14 87 bc db 29 cb bc
       -0.03497467 -0.02526156 -0.0164895 -0.024800232
0003c0 1e 26 17 bb 02 aa 52 bb 0c 67 03 bc 4e 0e ae bc
       -0.002306349 -0.003214479 -0.008020174 -0.021247055
0003d0 b6 b8 e2 39 30 e6 95 bc d3 6e e0 bc 02 1e b6 bc
       0.000432437 -0.018298239 -0.027396595 -0.022231106
0003e0 34 d1 29 3c 78 cb 60 3c d5 5e ff 3b 0c 60 00 3d
       0.010364819 0.013720386 0.0077932873 0.031341597
0003f0 ac b8 f2 3c e4 30 b0 3b 3e 57 13 bc a5 ee 08 3c
       0.029629074 0.005376922 -0.008992968 0.008357679

base.6.bias f4 [32]
000000 f3 e6 85 38 ec f5 a6 b8 5c 4b fa b6 d0 aa 8e b7
       6.384952e-05 -7.961303e-05 -7.4593536e-06 -1.700726e-05
000010 22 ee 97 35 d6 5a ab 37 13 80 9e b8 c4 11 91 b7
       1.1319682e-06 2.0427087e-05 -7.557883e-05 -1.729362e-05
000020 65 42 63 37 c8 01 87 b6 44 09 53 38 1e 11 f1 36
       1.3545713e-05 -4.023521e-06 5.031495e-05 7.1843524e-06
000030 27 77 a8 b8 f1 29 0b b8 b3 2d 27 38 51 21 cf 37
       -8.033058e-05 -3.3179243e-05 3.9858463e-05 2.4691837e-05
000040 9c 48 8d b8 b2 24 68 38 7a 76 89 b6 05 61 61 37
       -6.7369285e-05 5.5347286e-05 -4.0967107e-06 1.3433634e-05
000050 85 04 82 b5 e8 f4 3d b8 72 b8 57 b8 4f c8 88 36
       -9.68707e-07 -4.5289198e-05 -5.1431773e-05 4.076435e-06
000060 d2 9c 8e b7 8b 5d 19 b7 24 58 7e 36 46 c2 6a 37
       -1.7000744e-05 -9.14129e-06 3.7900254e-06 1.399272e-05
000070 a2 24 36 31 81 56 97 37 5b f7 8d b8 ff 85 39 37
       2.650531e-09 1.8040884e-05 -6.7694775e-05 1.1058058e-05

base.7.weight f4 [32]
000000 12 b2 80 3f cd 8f 82 3f 93 d7 81 3f ed 39 82 3f
       1.0054343 1.0200135 1.0143913 1.0173928
000010 02 84 81 3f 15 3a 7f 3f c8 85 87 3f 1b 7a 82 3f
       1.011841 0.99698 1.0587702 1.0193514
000020 57 c4 7f 3f 2c 5d 80 3f 19 23 83 3f fb 38 7d 3f
       0.99908966 1.0028434 1.0245086 0.9891507
000030 e8 0c 82 3f 0b 92 81 3f 4a 7c 83 3f 32 2e 81 3f
       1.0160189 1.0122694 1.0272305 1.0092223
000040 bd 89 7f 3f 30 93 7d 3f 44 45 80 3f 69 2c 82 3f
       0.99819547 0.99052715 1.0021138 1.0169803
000050 41 18 82 3f 11 8a 83 3f 1c db 84 3f 89 c8 82 3f
       1.0163652 1.027651 1.0379367 1.0217448
000060 bb 9b 83 3f bc 41 81 3f 00 97 80 3f fd e6 80 3f
       1.02819 1.0098186 1.0046082 1.0070492
000070 51 23 83 3f fb 96 7c 3f b5 7e 81 3f 22 1a 80 3f
       1.0245153 0.9866788 1.0116793 1.0007975

base.7.bias f4 [32]
000000 2c e0 5b 3c 5b 96 65 3c ad 3f 48 3c aa 6e 30 3c
       0.013420146 0.014012898 0.012222213 0.010768572
000010 1d be 02 3b 3a 08 bd 3b cd b6 da 3c 55 49 45 3c
       0.0019949742 0.005768803 0.026698494 0.0120414095
000020 c7 74 31 3c 7b 86 56 3b 04 ba 10 bc 35 25 34 3c
       0.010831065 0.0032733965 -0.008833412 0.010995199
000030 62 f0 6f 3c 87 24 a5 3b 6e 08 8d 3c b5 49 dc 3b
       0.014644714 0.005039755 0.017215934 0.0067226538
000040 f0 5d 2e 3c c9 f9 9f 3b 22 71 2f 3c ec c5 a0 3c
       0.010642514 0.0048820716 0.010708125 0.019625627
000050 e2 35 92 3c 31 08 1f 3c da 40 27 3c cc fa 5e 3c
       0.017847959 0.009706543 0.010208333 0.013609599
000060 eb 52 81 3c e2 7b 98 3c 20 ce 9d 3c 05 6b ad 3b
       0.015786609 0.01861376 0.019263327 0.0052922987
000070 b1 3d 9e 3c bd a5 34 bc c5 7c 69 3c 61 56 52 3b
       0.019316526 -0.011025843 0.014250939 0.0032094943

base.7.running_mean f4 [32]
000000 59 8a be bc db 2b f6 3d ff 54 ec 3d 5d b1 24 be
       -0.023259329 0.120200835 0.11539649 -0.16083284
000010 9b 05 7f bd b9 28 e5 3d 98 ba 49 bd 5b ad d4 3c
       -0.062261205 0.11189408 -0.049250215 0.025961569
000020 26 36 69 be 21 97 83 be ca 62 19 be 8d 69 37 3d
       -0.22774562 -0.2570124 -0.14979091 0.044778395
000030 11 7f 36 be 4e 0b c0 3e 35 91 4a 3e 6f 2c cf bd
       -0.1782191 0.37508625 0.19781955 -0.10115897
000040 db e0 8f 3d b9 1d 7d 3e 14 ad 19 3b 64 8f 3f 3e
       0.0702531 0.2471837 0.002344911 0.18707043
000050 af 9c e0 3e 9b 1f ba 3e 2b 1f b1 3e 4c 13 1b 3e
       0.4386954 0.36352238 0.34594092 0.1514408
000060 b7 06 32 3e 55 82 38 be 34 c2 bc 3e 16 f7 16 bd
       0.17385374 -0.18018468 0.36866915 -0.036856733
000070 05 3c d8 3d bf 79 8e be ab ae 88 3d 56 71 e3 3d
       0.10558323 -0.2782726 0.0667394 0.111056015

base.7.running_var f4 [32]
000000 22 0a ad 3d 3c a8 48 3e b2 59 77 3e 42 c1 0f 3e
       0.08449198 0.19595426 0.2415531 0.14038566
000010 5e 06 f4 3d 3a 3b 59 3e 2a 34 dd 3d b3 c9 d1 3d
       0.11915277 0.21214 0.10800965 0.10243549
000020 52 50 4a 3e 30 10 40 3e 36 5a 05 3e bd bc 13 3e
       0.19757202 0.18756175 0.13022694 0.14427467
000030 21 28 34 3e 73 fb eb 3d ad 9b 67 3e 0e b3 45 3e
       0.17593433 0.115225695 0.2261798 0.19306585
000040 96 7e 2b 3e e9 2b 65 3e 1c c0 38 3e 8e 6d 4f 3e
       0.16747507 0.22380032 0.18042034 0.20256636
000050 8e 39 3d 3f 7b a9 7c 3e 16 06 d2 3d b1 be 55 3e
       0.73915946 0.24674027 0.10255067 0.20873524
000060 ce c1 ab 3d cc 73 f5 3d cd 52 3a 3e ca 39 72 3e
       0.08386575 0.11984977 0.18195648 0.23654857
000070 04 19 51 3e ef 8f 67 3e e8 e7 e2 3d 0f f2 95 3e
       0.20419699 0.226135 0.11079389 0.2928624

head.0.weight f4 [24, 1024]
000000 8a 68 5e bc 40 6b cd 3c 99 45 76 bb 89 eb c3 3c
       -0.013574729 0.025075555 -0.0037578105 0.023916023
000010 f0 37 8f bc 72 dc ce 3c 40 2a 01 3a 52 d9 18 3c
       -0.017482728 0.0252516 0.0004927255 0.009329157
000020 a2 35 43 3c 37 ff ce bb 46 e9 a0 bc bc 44 06 3c
       0.0119146425 -0.006317045 -0.019642483 0.0081950985
000030 cd 74 db 3b f9 ed 86 bc a5 73 f4 bc 23 61 94 bc
       0.0066972733 -0.016470896 -0.0298403 -0.018112725
000040 d3 37 59 39 85 38 fb b9 03 b9 44 bb d3 0a 66 3c
       0.00020715529 -0.0004791656 -0.0030017502 0.014040667
000050 b3 7a 09 3c f8 50 cc 3c 0b 76 b6 3b 9a af e1 39
       0.00839107 0.024940953 0.005568271 0.00043046178
000060 7c a7 f8 bc 68 9e b9 3c d4 95 30 3b d8 a6 5e 3c
       -0.0303533 0.022658542 0.0026944773 0.013589583
000070 f9 f1 a0 3c 5b 37 83 ba 89 31 a4 bb cd 3b c9 bb
       0.019646632 -0.0010011004 -0.005010788 -0.006141162
000080 ff 1d 32 3a 74 bf 2b ba 36 9b 40 bc c2 1d 3f 3c
       0.0006794631 -0.0006551661 -0.011755755 0.01166481
000090 6d 91 8f bc 20 0f 82 3c e6 01 14 3c 39 9b 0e bc
       -0.0175254 0.015876353 0.009033656 -0.008704
0000a0 26 87 e6 bb a2 03 9e bc 8a 3e 73 bc 39 14 e3 3c
       -0.007035154 -0.019288842 -0.014846453 0.027719604
0000b0 a5 55 1b bc 5a bb 67 bc 09 47 ae bc 41 64 f4 bc
       -0.0094808685 -0.014143789 -0.021274107 -0.029832961
0000c0 8f 1a 1d bc a2 03 99 bb ef 78 8f ba 49 7c a5 3b
       -0.009588852 -0.0046696225 -0.0010946075 0.0050502163
0000d0 fa 39 35 3c 91 7d 4d bb 73 25 b2 3c 17 e8 29 bc
       0.011061186 -0.003135536 0.021746373 -0.010370276
0000e0 6f 6b 5d 3c 89 b0 0a bd 53 29 ad bc 8b a6 3f 3b
       0.013514384 -0.033859763 -0.021137869 0.0029243554
0000f0 f5 7b 05 3a e1 71 9d bb 23 8a 82 bc 65 f6 61 bc
       0.00050920184 -0.004804835 -0.01593501 -0.013791655
000100 bf 2e 9f bb fb 8a 89 bc 3c aa 17 bc ef 99 ef 3b
       -0.0048578675 -0.016789904 -0.009256896 0.0073120515
000110 98 22 8e 39 48 b1 08 bd db 2d 8d 3c ae 52 b0 3b
       0.00027110125 -0.033372194 0.01723378 0.00538095
000120 5f 64 16 3c 57 a2 ac 3c d6 71 27 3b b7 9a ef 3c
       0.009179204 0.021073503 0.002555003 0.029248578
000130 07 86 7a 3c ed 64 37 3a 09 c0 28 bc b7 c2 bc 3b
       0.015290744 0.0006995935 -0.010299691 0.0057605165
000140 61 96 00 00 44 a4 00 00 27 f1 a2 b6 cf a4 8b bb
       5.3946e-41 5.8927e-41 -4.85605e-06 -0.00426159
000150 02 3c 11 3c fd 3f 7b bc f6 9a 94 3c 3c 87 b7 bb
       0.008864405 -0.01533508 0.018140297 -0.005600838
000160 16 3f 2c 3c 87 b3 af 3b 75 16 3e b9 e2 3b 97 3a
       0.010513088 0.0053619775 -0.00018128178 0.0011538232
000170 77 9d 80 3c 48 56 91 bb bd a8 d5 39 19 41 be b9
       0.015700085 -0.0044353344 0.00040752246 -0.00036288126
000180 52 f3 a3 bb 52 58 8a bc 27 8e 5f bb cf 83 d7 bb
       -0.0050033713 -0.016887818 -0.003411183 -0.006576992
000190 c1 ee 68 3c b5 18 bf bc 82 26 53 bb c5 6f 33 bb
       0.01421708 -0.02332721 -0.0032218997 -0.0027379852
0001a0 77 b3 6e bc 7b 61 5a bc dc 20 be bc 32 86 2c 3c
       -0.014569155 -0.013328905 -0.023209028 0.0105300415
0001b0 2e 6f 39 3c d1 e5 cd 3b 20 fb 80 bb 94 91 02 bb
       0.011318011 0.0062834998 -0.0039361864 -0.0019923197
0001c0 b5 84 a2 b0 b5 84 a2 b0 66 7d 71 ba 43 4f bf bb
       -1.1824769e-09 -1.1824769e-09 -0.0009212106 -0.005838306
0001d0 b9 54 c0 bb 6d 12 1c 3c da 11 4c bc 8d 9b 06 3c
       -0.0058694747 0.009525877 -0.012455428 0.008215797
0001e0 be cc 4d 3c c6 88 20 3c d1 d3 31 bc 12 38 90 bc
       0.012561021 0.009798234 -0.010853724 -0.017604861
0001f0 c9 60 76 3b 6f 3a 9c 3b 32 9f 0f 3c 9d 85 b6 39
       0.003759431 0.004767708 0.008765982 0.00034813295
000200 6f 0d 84 3b af 14 de bb d0 d3 db 3b 85 d1 a5 3c
       0.0040299217 -0.006777368 0.0067085996 0.020241508
000210 f0 bf fa 3c f9 c2 61 bc 86 e2 f3 3c f5 cc ad bc
       0.030609101 -0.013779395 0.0297711 -0.021215895
000220 08 c5 51 3b 75 c1 1a 3b b8 bd 3c 3b 34 11 e1 b9
       0.003200831 0.0023613845 0.0028799605 -0.00042928162
000230 1f aa a8 bb 30 94 db bc 40 8e 63 3c 1b cf 23 3c
       -0.005147233 -0.02680406 0.0138888955 0.009998108
000240 d0 16 cb 3b 1c f0 82 bc 96 d8 84 3c d0 d4 a2 3a
       0.006197788 -0.015983634 0.016216557 0.0012423042
000250 a0 54 5b 3c 42 64 d0 3c 59 bc f9 3c fe 2e 23 bc
       0.013386875 0.025438432 0.030485319 -0.009959934
000260 d3 30 b4 3c 75 ce 1f 3c 9e 49 8d 3b 03 74 04 3d
       0.021995937 0.009753813 0.0043117544 0.0323372
000270 f2 c0 4d 3c ef 2e 4b bc eb 1f 23 bb df 8f 68 bc
       0.012558209 -0.012401327 -0.002489085 -0.014194458
000280 69 8d 0b bc 18 90 eb bb 5e 68 f9 bb f3 4d 66 bb
       -0.0085176015 -0.007188808 -0.0076113185 -0.0035141676
000290 34 fe f2 bb f3 fa d0 3a b8 ae 02 bd 70 c0 ef 3c
       -0.0074155573 0.0015943929 -0.031904906 0.029266566
0002a0 cc 88 a5 3c 47 f4 85 bc 2a 03 e1 bc 0c a2 56 bc
       0.020206831 -0.016351832 -0.027467329 -0.013100158
0002b0 e6 19 a0 bb 69 e2 23 3c 26 ed 12 bc 42 93 e9 bb
       -0.0048859 0.010002711 -0.008967673 -0.00712815
0002c0 fb 29 46 bc f7 77 0f bc 67 d3 2d bc 26 0c 07 bc
       -0.01209497 -0.008756629 -0.010609484 -0.0082426425
0002d0 4d 14 43 bb 39 72 02 bd 2f 82 cb 3b 61 00 d3 bc
       -0.002976674 -0.031847212 0.0062105875 -0.025757017
0002e0 91 e7 59 3c 3f 61 83 3b 52 d3 92 bc 77 d1 90 3c
       0.013299839 0.0040093954 -0.017923031 0.017678006
0002f0 6f 01 e1 bb e7 1a a7 bc 20 32 3d bc b1 7b 1d bc
       -0.006866626 -0.02039857 -0.011547595 -0.00961201
000300 9b 19 f5 39 58 60 84 3b 69 a2 22 3b 52 14 14 3c
       0.0004674912 0.0040398054 0.0024816042 0.009038048
000310 30 5a 9e 3b 2d 54 dd 3b 07 5e b6 bc e9 38 3c 3c
       0.0048325285 0.0067544193 -0.022261633 0.011488178
000320 ee 6a c2 ba 08 25 5f bc 50 37 a9 bc ba e3 4f ba
       -0.0014832893 -0.013619669 -0.020656258 -0.0007930357
000330 ba 43 86 39 8f a2 3a 3b f0 6c b0 3a 36 f9 d9 38
       0.00025608932 0.002847824 0.00134602 0.000103937855
000340 f3 52 ec 3c e6 39 2a 3c a3 48 24 3b c1 1a f5 3c
       0.028848147 0.010389781 0.002506771 0.029919984
000350 6f a6 15 bc 55 19 c5 3c d3 62 a0 3b 5d 07 ac bc
       -0.009133919 0.02405993 0.0048945933 -0.020999605
000360 e9 cd 16 3c 35 6d d2 3c dc b1 af bc cb d6 65 bc
       0.009204366 0.02568684 -0.021447115 -0.014028261
000370 aa e3 b6 bb ff 41 2d bc 39 6d 18 bb c0 c1 4d bc
       -0.005581339 -0.010574817 -0.002325846 -0.012558401
000380 c9 50 a8 3a 0a 2b a5 3a 53 d7 6c 39 d1 81 05 3c
       0.0012841459 0.0012601328 0.00022586928 0.008148626
000390 18 32 53 3a ae a3 70 bc fa fb eb bc 4a e9 26 3a
       0.0008056476 -0.014687462 -0.028806675 0.000636716
0003a0 f5 66 a1 3c 77 71 04 bd d1 22 ca 3c fe bd f7 39
       0.019702414 -0.03233477 0.024674805 0.00047253066
0003b0 2f 22 1d 3b d0 63 ad 38 11 49 e2 3a 6b 18 37 3a
       0.0023976674 8.2678744e-05 0.0017264207 0.00069845346
0003c0 78 55 f9 bb 9c 0a cd 3c 36 2e 15 3d e6 5a ac 3c
       -0.0076090656 0.025029473 0.036421023 0.021039438
0003d0 04 00 e2 3c 5b d7 9e 3b 0f cc fb 3c b0 23 14 3a
       0.027587898 0.0048474497 0.030736951 0.000565107
0003e0 c7 e3 9e 3b ca ad 50 3b 97 89 33 bc 9d 2f da bc
       0.0048489305 0.0031841868 -0.010958097 -0.026634032
0003f0 87 fc c7 bc 88 df 26 3c 65 2e b2 bc 1c 52 d7 3c
       -0.024412407 0.01018513 -0.021750638 0.02628427

head.0.bias f4 [24]
000000 6c 79 74 bc 71 7c 00 bd f4 41 35 ba ca d3 de 3c
       -0.014921527 -0.031368677 -0.000691443 0.027200598
000010 e5 20 92 3c d4 58 8d bb ae d9 1b bc bb 6e ea 3c
       0.017837951 -0.0043135677 -0.009512348 0.028617254
000020 d4 0f 26 bb d9 4a 8f 3c 2d c0 07 3d ba 8a eb 3c
       -0.0025339024 0.017491745 0.033142257 0.028752673
000030 08 41 0d 3c 0c a1 37 bc 05 91 f4 3c 1a d5 d1 3c
       0.008621462 -0.01120783 0.029854307 0.02561431
000040 dc 39 24 3c db 53 74 3a 2c 4a d1 bc 01 56 0d 3c
       0.01002356 0.0009320357 -0.025548063 0.008626462
000050 7f 96 64 3c 7f cc 7e 3c 64 60 8a b7 96 de 8a bc
       0.013951897 0.015551685 -1.6495767e-05 -0.01695184

head.2.weight f4 [2, 24]
000000 b5 48 93 3a 93 05 11 be c1 0c 05 3e 57 6f 4c 3e
       0.0011236878 -0.14162283 0.12993146 0.19964348
000010 b6 4c 49 3e 80 a7 cf bd 82 42 5d 3e ce ef 34 be
       0.19658169 -0.1013937 0.21607402 -0.17669603
000020 be f8 ef bd 3f 31 e3 3d 0e cb 3e be fe 8e 14 3d
       -0.11717366 0.11093377 -0.18632147 0.03626918
000030 d8 e2 fa bd 47 d6 49 3d 23 d0 01 be cf d0 e6 3d
       -0.12250298 0.049276616 -0.12677054 0.11270296
000040 eb 3c 18 be ee 48 f9 3d 37 bb cf 3d 3a 16 40 3e
       -0.14866988 0.12172113 0.1014313 0.18758479
000050 a4 a1 65 be 64 ef 51 3e 04 93 21 3e 79 a3 79 3c
       -0.22424942 0.20501477 0.15778738 0.015236729
000060 05 53 f0 3d d0 bd bf bd 4e 59 44 3c 1d da 5b be
       0.11734585 -0.09362376 0.0119841825 -0.21469922
000070 47 03 69 be 0a 55 fb bc cc db 21 3e ee 84 18 3e
       -0.22755156 -0.030680198 0.15806502 0.14894459
000080 d7 4a 50 3e ca 4c d7 bc 4a ea 48 3d 2a 6f 4d be
       0.20341049 -0.026281733 0.04905156 -0.20061937
000090 15 aa 39 3e b6 ba 4f bc da 3f 3f 3e 2f 87 42 3e
       0.18131287 -0.012678793 0.18676701 0.18996881
0000a0 93 f4 3c 3e 46 9a 7c 3d aa 0e 37 3e 59 1e f8 bd
       0.18452673 0.061670564 0.17876688 -0.12115163
0000b0 03 fb 88 bb 74 9a 4c be c9 8a 42 3e 18 ee fa 3d
       -0.0041803136 -0.19980794 0.18998255 0.12252444

head.2.bias f4 [2]
000000 18 7b c9 3d 94 94 37 be
       0.098379314 -0.17927772
