models/AC-RM-2 Q_LR=0.001 P_LR=5e-06 BATCH_SIZE=128 GAMMA=0.99 MEMORY_SIZE=150000 BETA=0.05_policy_3449.pt (torch, 319747 bytes, 22 tensors)

base.0.weight f4 [32, 2, 5, 5]
000000 4a c8 af 3d ac a1 ef bb fe f3 f6 3d 8f 85 b7 3d
       0.08583124 -0.007312974 0.120582566 0.08961021
000010 d8 12 c5 bd 83 5d 54 bc 03 47 aa 3d 1f 26 11 be
       -0.09622735 -0.012961748 0.08314326 -0.14174698
000020 2f ee 01 be c1 79 6d bd 1d d7 d8 3d ed 15 86 3d
       -0.12688516 -0.05797744 0.105879046 0.06547151
000030 94 82 07 be 6b 25 74 bd 6a 02 57 bd 9d 13 8f 3c
       -0.13233405 -0.059605997 -0.052492537 0.017465407
000040 e2 98 ac 3b 64 8f ce 3d c0 4f c3 bd 1e 3a 85 bd
       0.0052672485 0.10085943 -0.095366955 -0.065052256
000050 41 18 41 3b fb 41 9b bc bf 58 50 bd 1b 17 c8 bd
       0.002946392 -0.01895236 -0.050865885 -0.09770032
000060 2c e2 81 bb 07 ae b0 bc 2e 5f fa 3d 6a b4 02 3e
       -0.0039637294 -0.021567358 0.12225185 0.12764135
000070 04 2a 86 3d 34 8b be 3d 94 69 04 bd e2 4d 9b 3d
       0.065509826 0.09303895 -0.03232725 0.07583214
000080 45 c1 dc bd fe 4e 8a bd d1 d6 fb bd 0e 7a 97 3d
       -0.10779051 -0.06753348 -0.12296832 0.07396327
000090 13 7f 96 bd aa 4c d5 3b cf 8a f2 bd 02 b8 7e 3d
       -0.07348456 0.006509383 -0.11842882 0.062187202
0000a0 d9 3f 1f 3d a6 02 80 3d 58 44 f7 3d 0e d3 6d 3d
       0.03887925 0.06250505 0.120735824 0.058062606
0000b0 f2 b1 13 3b b6 ba 63 3d 8c 29 a9 bc 65 07 b1 3c
       0.0022536484 0.055597983 -0.020649694 0.021609971
0000c0 61 a3 a3 bc c7 6d f4 bd 8e 42 79 bd 14 6e 53 bd
       -0.019975366 -0.11935001 -0.060854487 -0.05161865
0000d0 d3 94 ec bd 8d 0e fc 3d 18 94 78 bd d6 62 9b bd
       -0.115518235 0.12307463 -0.06068811 -0.07587211
0000e0 b5 f4 9b 3c d1 04 1e 3c 0a d8 6d bc 33 73 b3 3d
       0.019037584 0.009644703 -0.01451684 0.08762207
0000f0 59 64 ae 3c ab 2d a6 3d e8 c8 02 be 2b a6 39 bd
       0.021288084 0.08114179 -0.12771952 -0.045324486
000100 ed a9 fb bd 4c f0 80 3c 1e b0 ae bd 9e 38 b0 3c
       -0.1228827 0.015739582 -0.085296854 0.021511372
000110 22 f5 81 3d fb 20 e9 3d fd 1d d3 bb 48 39 a7 bd
       0.063455835 0.11383244 -0.006442784 -0.081652224
000120 5a 0c 17 be 48 8a 90 3d 32 a6 00 be 78 56 02 bd
       -0.14750805 0.07057625 -0.12563398 -0.031820744
000130 27 9b c3 bc 29 79 43 bc 61 13 b4 bd bf 60 17 be
       -0.023877693 -0.011930742 -0.08792759 -0.14783
000140 0b 01 95 3d 59 0e 10 3e 13 e0 91 3d 7f 59 cf 3d
       0.072755896 0.14067973 0.07122817 0.10124492
000150 ca 3c b0 3d fb 90 85 3d 94 2c 9e bc c4 3e 08 3b
       0.086053446 0.065217935 -0.019308366 0.0020789364
000160 af ea 8d 3c 53 eb 85 3d 68 81 32 3c 40 a9 7c 3b
       0.01732382 0.06539025 0.010895111 0.003855303
000170 f6 3d e6 bc 10 4d 4f bd 3b 74 4e bd 23 4f fa bd
       -0.028105717 -0.050610602 -0.050403815 -0.122221254
000180 3c bf cf 3d b5 a9 f4 3d a4 6a 61 3d 28 8f b4 3d
       0.10143897 0.119464315 0.05503334 0.088163674
000190 7a 60 4c bd da 55 0a 3d 95 31 84 bd ad d2 84 bb
       -0.049896695 0.03377328 -0.064547695 -0.004053435
0001a0 96 01 49 3d ae ed 0b 3d 8c 23 74 3d 46 60 cc bc
       0.049073778 0.034162216 0.059604213 -0.02494825
0001b0 f4 c8 75 bc 04 49 f5 bc a7 b7 9d 3d 55 3b 0f 3b
       -0.015001524 -0.029942043 0.077010445 0.0021855433
0001c0 78 af 27 3d 0e f4 fe bd 40 26 ec 3d f0 89 05 3e
       0.040938824 -0.124488935 0.11530733 0.130409
0001d0 22 4d 93 3d 75 33 d3 3d 57 b5 d5 3d 64 97 e6 3d
       0.07192446 0.10312549 0.104349785 0.11259344
0001e0 b9 ea a1 bd be 60 5a 3d 16 77 06 3d dc f7 89 3d
       -0.07906098 0.053314917 0.032828413 0.067367285
0001f0 30 8e f4 3d e9 1b 01 bd 63 17 87 3d 77 c3 ba 3d
       0.119411826 -0.031520758 0.065962575 0.09119313
000200 16 80 0c bd 5a 1a 46 bc 4a 77 43 bd fb c5 1f bd
       -0.03430184 -0.012091244 -0.047721185 -0.03900717
000210 f2 57 9c bd cc 46 cc bd 7a 05 f8 bd 8a 20 c2 3a
       -0.07633962 -0.09974441 -0.121104196 0.0014810723
000220 45 5e 97 3d d2 02 67 3d 02 52 19 bd 3f 06 6a 3c
       0.07391027 0.056399174 -0.037431724 0.014283716
000230 6a c8 21 bd 3c fa d4 bc d1 eb 28 bd 54 09 28 bd
       -0.03949777 -0.025998227 -0.041240517 -0.04102452
000240 f3 84 53 3d b0 5c 7f 3d 02 42 5a bd 97 89 e2 3d
       0.051640462 0.062344253 -0.053285606 0.110613994
000250 1b 73 87 3d dc 22 e5 3d 60 93 db 3c 03 21 d1 3d
       0.066137515 0.111882895 0.026803672 0.102113746
000260 61 48 f9 3c 81 06 c1 3d 48 f5 83 bd c6 19 00 3e
       0.03043002 0.09425069 -0.06443268 0.12509832
000270 6d 62 ba 3c 4f 0b 02 3e 2e 47 04 bd 2c d4 c2 bd
       0.022752011 0.12699626 -0.032294445 -0.09513125
000280 1f 56 e1 bd 83 96 04 bd 01 68 21 bd 44 bb a9 3d
       -0.110027544 -0.0323701 -0.039405826 0.08287671
000290 b3 e0 de 3d 62 09 fe 3c 07 83 a9 bd a7 45 cb 3d
       0.10882702 0.031010333 -0.082769446 0.099253945
0002a0 82 cd ee bd da 7f f3 bd ab 66 b1 bd 42 15 cc 3d
       -0.11660291 -0.1188962 -0.086621605 0.09964992
0002b0 61 b5 53 bd 6a 74 a0 3d 0e f0 ac 3d 78 2d 00 bd
       -0.05168665 0.07834704 0.08444224 -0.031293362
0002c0 9c 1e 03 3e 62 8e 12 bd 4c 02 5e bc eb 7c 0c 3d
       0.12804645 -0.035780318 -0.013550352 0.03429882
0002d0 76 18 9e bd d4 8f ef 3d d1 82 be bc 3f c7 43 3d
       -0.07719509 0.11697355 -0.023255737 0.047797438
0002e0 1d a5 db 3c 8e f2 b7 bd 5e 92 88 3d a6 83 f3 bc
       0.02681213 -0.089818105 0.06668542 -0.02972586
0002f0 ca 5e 01 be 0a 4b 96 bd 17 3c da 3d 26 d4 03 bd
       -0.12633815 -0.07338531 0.106559925 -0.032184742
000300 af df 36 bd 4a fb d3 bd 76 96 ca bd 7e ab 06 be
       -0.044646915 -0.10350664 -0.098919794 -0.13151357
000310 8c df 03 3e a4 d8 a7 bd 6c 87 10 bd f0 57 b2 bd
       0.12878245 -0.08195618 -0.0352854 -0.08708179
000320 ae be 05 bd 7f 5d 06 3e d6 43 e2 bd d5 da be 3d
       -0.03265255 0.13121603 -0.11048095 0.09319083
000330 ab 07 f1 3d d3 cb bd 3c c0 53 0b bd f3 2f 09 be
       0.11769041 0.02316848 -0.034015417 -0.13397197
000340 28 b8 1e 3d 4b d3 83 3d 79 75 8d bd d5 dc 6d bc
       0.038749844 0.06436785 -0.06907172 -0.0145179825
000350 20 8b a1 3d 23 09 86 bc 2d 98 95 bd a1 92 b4 bd
       0.07887864 -0.016361779 -0.07304416 -0.0881703
000360 a5 dc 39 3d 5e 10 60 3d 4c 34 0a be 0c 44 d8 bc
       0.04537644 0.05470311 -0.13496512 -0.026399635
000370 d0 22 9f 3d 16 be 7f bd c9 06 3a 3d 05 41 be 3d
       0.07770312 -0.06243714 0.045416627 0.09289745
000380 f1 51 d6 bd 5a 46 dd bd 1e f6 0d be f5 70 19 3d
       -0.10464848 -0.10804434 -0.13863418 0.03746124
000390 b0 66 fc bc 73 0a 11 bd fe 1b fa 3d af c4 e3 bd
       -0.030810684 -0.035410356 0.1221237 -0.11121499
0003a0 42 d9 09 3e f4 69 f6 bd 26 19 11 be de 26 8e bd
       0.13461784 -0.12031928 -0.1416975 -0.06941007
0003b0 d8 55 9d 3d ca d8 b4 3d d2 22 59 bd bf 78 f1 3d
       0.07682389 0.08830412 -0.053011723 0.117906086
0003c0 37 8e 11 be c4 41 f3 bb 65 93 55 3d fd 0a 9e 3d
       -0.14214407 -0.0074236114 0.05214252 0.077169396
0003d0 94 d0 b6 bd 00 a4 b4 bb c0 e8 a3 bd 41 68 e3 3d
       -0.08926502 -0.0055127144 -0.08003378 0.11103869
0003e0 43 46 8a bd ba 23 b2 bd 20 da 04 be d0 c5 0b 3e
       -0.067516826 -0.086982206 -0.12973833 0.13649678
0003f0 d8 00 bb 3c cc 57 9c bd a3 12 68 3d 73 ef 38 bc
       0.02282755 -0.076339334 0.0566584 -0.011287558

base.0.bias f4 [32]
000000 cf dd db b7 84 91 bf b9 a8 b1 29 b8 83 39 88 b8
       -2.6210122e-05 -0.00036538776 -4.0458195e-05 -6.495698e-05
000010 a3 83 ba 38 78 dc 3c b9 6a df a8 b7 7c 94 41 39
       8.8936904e-05 -0.00018011208 -2.0131196e-05 0.00018461229
000020 fc 5e 64 39 4e 93 88 38 f5 c4 b6 38 d7 0b 59 b8
       0.00021779159 6.512423e-05 8.7151224e-05 -5.174786e-05
000030 af 29 ea 38 3e d3 4c b9 ce 56 a9 39 f0 a5 7c 38
       0.00011165754 -0.0001953365 0.00032298866 6.0236023e-05
000040 33 bc a6 39 26 cd d3 39 6b a6 4d b9 6c d6 bb 39
       0.00031802207 0.00040397904 -0.00019612319 0.00035827176
000050 3c f0 cf b9 24 9c 14 39 79 5a 9b 39 ba 2d 5d 39
       -0.00039661105 0.00014172547 0.0002963131 0.00021093237
000060 3a be 60 b9 30 fa 0e 39 3c bf 44 b9 e5 da ac b7
       -0.0002143317 0.00013635377 -0.00018763257 -2.0605929e-05
000070 b9 77 3a 39 6c cf 1e b9 47 63 ee 38 03 65 95 39
       0.00017782942 -0.00015145325 0.00011367216 0.00028494754

base.1.weight f4 [32]
000000 80 1c 7d 3f 4e 21 81 3f 34 d9 7e 3f 95 fb 7f 3f
       0.9887161 1.0088289 0.99550176 0.9999326
000010 af 58 7d 3f 72 0f 7d 3f 3a 37 80 3f 5d e3 80 3f
       0.98963445 0.9885169 1.0016854 1.0069386
000020 24 a3 7d 3f 7c 94 81 3f dd c3 7e 3f 25 c3 7f 3f
       0.9907706 1.0123439 0.99517614 0.9990714
000030 da 35 7b 3f 59 41 7d 3f bc dd 81 3f 18 e0 7d 3f
       0.98129046 0.9892784 1.0145793 0.99170065
000040 ab a3 80 3f 50 9c 83 3f 3b b1 7e 3f 67 81 7f 3f
       1.0049948 1.0282078 0.9948918 0.9980683
000050 45 df 7e 3f 66 a7 7d 3f 2f ce 80 3f eb 43 7c 3f
       0.9955943 0.99083555 1.0062922 0.98541135
000060 36 fc 7e 3f 27 d8 7c 3f 12 d1 7e 3f d7 60 7c 3f
       0.99603593 0.9876732 0.99537766 0.98585266
000070 9a 9a 80 3f 83 fe 7d 3f 41 31 82 3f 9d 10 81 3f
       1.0047181 0.9921648 1.0171281 1.0083195

base.1.bias f4 [32]
000000 cf 8f cf bb f5 d8 ca 3b cd 94 ac 3b 12 22 69 3b
       -0.006334282 0.006190414 0.005266762 0.0035573286
000010 7e f4 de 39 d3 4b a3 39 b7 77 13 3b 35 79 d0 bb
       0.000425253 0.00031146276 0.0022501776 -0.0063621053
000020 d5 30 aa bb b8 f4 3d 3c 44 82 cd 3b 83 7a 4f 3b
       -0.0051938095 0.01159399 0.0062716324 0.0031658716
000030 b0 b5 30 bc d5 41 30 bb 2e 5b ce 3b c4 d6 4f 3a
       -0.010785505 -0.0026894708 0.0062974906 0.0007928426
000040 1b 29 c2 3b 66 e4 82 b8 d1 31 38 bc 6e ec de 3b
       0.0059253103 -6.2414256e-05 -0.011242346 0.006803087
000050 72 a7 9c bb 64 af 60 3a b6 d8 bb b9 82 d6 ea bb
       -0.004780703 0.0008571057 -0.00035828882 -0.0071666846
000060 48 94 fa ba 92 51 1b bc 9d d7 01 3b 58 21 66 bc
       -0.0019117678 -0.009479897 0.0019812353 -0.014046036
000070 86 4f 25 3c 15 dd 9c bb bb 76 ba 3b 38 92 0b 3b
       0.010089761 -0.004787097 0.0056904233 0.002129687

base.1.running_mean f4 [32]
000000 54 32 62 bd d8 38 8e bd c2 30 4c 3f 96 d7 2c be
       -0.055223778 -0.06944436 0.797619 -0.16879115
000010 96 a8 fc be 08 92 31 bf 6d 39 41 be e6 d6 25 3e
       -0.4934737 -0.6936345 -0.18869562 0.16195258
000020 a5 bf 94 3f a9 89 bc 3d 3f fb b3 3e 20 b1 87 bd
       1.1620985 0.09205944 0.35152623 -0.06625581
000030 96 4f 80 bf aa 2b 22 be 7c d7 88 bc f0 40 87 3e
       -1.0024288 -0.15836969 -0.016704313 0.2641673
000040 d2 fe 12 3e 37 90 42 3e 03 4e a6 be 2a eb da 3e
       0.14355019 0.19000326 -0.32481393 0.4275754
000050 55 99 17 3e b5 02 49 3f c3 76 57 bd 48 5e 8d be
       0.14804585 0.78519756 -0.052603494 -0.27610993
000060 0b 4b ef be c6 e8 f4 bd 74 43 85 3e 45 87 e6 be
       -0.4673694 -0.119584605 0.26028025 -0.45025077
000070 dc d3 a4 3d 76 17 2c 3f 6e 98 24 bd f1 8d e9 3d
       0.080482215 0.672233 -0.04018443 0.11404026

base.1.running_var f4 [32]
000000 b2 c7 83 3b 15 af f2 39 a1 a3 2e 3c f2 26 3d 3b
       0.0040216083 0.00046288283 0.010659129 0.0028862325
000010 f7 f8 41 3b b3 6c b7 3b 7f f8 f4 3a fc e6 5a 3a
       0.0029597858 0.0055976748 0.001868978 0.00083504594
000020 99 cf 5d 3c e7 39 e5 39 c2 9c 46 3b 1a 56 e6 3a
       0.013538265 0.00043721424 0.0030305837 0.0017573268
000030 af 7b 39 3c 8d 04 88 3a 9c ff 0d 39 7d 6e 1d 3b
       0.011320992 0.0010377333 0.0001354203 0.0024022155
000040 69 21 1a 3a 7d 74 40 3a 70 17 15 3b 32 f0 fe 3a
       0.0005879612 0.0007341577 0.0022749566 0.0019450246
000050 4e 19 12 3a 97 40 09 3c 64 e8 05 3a 09 41 03 3b
       0.00055732287 0.008377216 0.0005108176 0.0020027778
000060 fb bd 3f 3b 44 de 50 3a 31 41 e9 3a 4d 5f 88 3b
       0.0029257524 0.00079676905 0.0017795918 0.0041617514
000070 8b 57 46 3a fb dc 97 3b 53 b7 94 3a 07 2e de 3a
       0.00075661455 0.004634497 0.0011346139 0.0016950973

base.3.weight f4 [32, 32, 5, 5]
000000 36 14 de bb ac e7 82 3c 15 e8 32 bd 54 ad 94 ba
       -0.0067773117 0.01597961 -0.043678362 -0.001134316
000010 25 cf b7 3c 8f 30 a3 3b 04 d9 af bc 89 fa 9a 3a
       0.022437641 0.004980154 -0.021465786 0.0011823933
000020 2b 61 56 bc c7 ab ad 3c 04 71 95 3c 4e 80 6c 3c
       -0.01308469 0.021200074 0.018242367 0.014434887
000030 a2 13 06 bd 2e 18 89 3c 38 72 93 bc 37 f5 20 bb
       -0.032733567 0.016735163 -0.0179988 -0.0024560222
000040 72 71 02 3d b5 9c 78 3c d0 d3 74 bc 5e 84 c7 bc
       0.03184647 0.015174081 -0.014943078 -0.02435511
000050 c4 2a d0 bb 99 6d ea 3c 7e 28 99 bb d9 e8 cf 3b
       -0.0063527543 0.028616713 -0.0046740165 0.0063448963
000060 bd ed fa 3c 63 ed 4b bc de 40 f6 bc 6b 6e d4 3c
       0.03063094 -0.012446734 -0.030060228 0.025931558
000070 31 c5 19 bd 4e ec 5a 3c fb 8e 4f 3c 59 fe 03 bd
       -0.037541572 0.0133620035 0.012668367 -0.032224987
000080 e6 1e 6d 3c 3d e1 f6 3c 3a bc 9d 3c eb e1 e0 bc
       0.014472699 0.030136699 0.019254792 -0.027451476
000090 18 3b be 3c 45 e4 7d 3b ce b1 00 3b d0 5d 6e bc
       0.023221537 0.0038740796 0.001963723 -0.014548734
0000a0 74 2b f6 bc c2 2a b1 bc 30 22 ab 3b c4 1c cc 3c
       -0.030050017 -0.021626834 0.0052225813 0.02491606
0000b0 53 97 db bc 04 21 97 bc a7 20 be 3c e5 90 c9 bc
       -0.026805555 -0.01844836 0.02320893 -0.024605224
0000c0 55 04 c9 3c 73 16 d4 bc 1d 50 e6 3c a9 d0 7c bc
       0.024538198 -0.02588961 0.028114373 -0.015430608
0000d0 a1 fb 09 bc 6a 12 80 bc 38 e0 e6 bc bd 9c ea bc
       -0.008421809 -0.01563378 -0.028183088 -0.028639192
0000e0 0d 32 48 3b 6e d6 bc 3c 4e 92 3c bc 84 6c df 3b
       0.003054741 0.023051467 -0.011509491 0.006818356
0000f0 93 79 9b bc 5f de f7 3b 3c b9 04 3d 22 61 02 3d
       -0.01897887 0.0075643505 0.032403216 0.031830914
000100 8c c4 91 3c 6f b4 e2 bb a0 29 a0 bb b2 9f 19 bc
       0.017793916 -0.006918482 -0.0048877746 -0.009376453
000110 78 0b c0 bc ff 17 1b bd 5a d6 72 3b 5c 55 eb 3b
       -0.023442969 -0.03786468 0.0037054033 0.0071818065
000120 ae 70 7c bb 62 46 e0 bb 14 58 59 3c 33 9b af bc
       -0.003851931 -0.006844328 0.013265628 -0.02143631
000130 51 76 91 bc f3 eb d2 3c 86 31 0b bc d7 27 c6 3c
       -0.017756613 0.025747275 -0.008495694 0.024188919
000140 8a 53 41 39 0c a6 0e bd 89 43 f0 bc 5c 4e 46 bc
       0.00018437035 -0.034826323 -0.029329078 -0.012103643
000150 8d 6b 02 bd 68 6c 79 bb ec 1b 99 bc 2f 7e 92 3c
       -0.03184085 -0.0038059 -0.018690072 0.017882435
000160 04 1f 07 bd d4 b0 ae bc fe 4c 51 bb b7 26 e0 bc
       -0.032988563 -0.021324553 -0.003193676 -0.02736221
000170 47 c2 dc bc e9 53 02 3d 7d 2a 7a 3c 91 43 e7 bc
       -0.026948107 0.031818304 0.015268919 -0.02823046
000180 ba 75 d6 3a 85 22 86 bc 90 b4 28 3c 3a f2 ba 3c
       0.001636199 -0.016373882 0.010296956 0.02282058
000190 60 bf f9 3c 6e 05 94 bb 00 ec a6 3b 72 3a f0 3c
       0.030486763 -0.004517249 0.0050940514 0.029324744
0001a0 b5 4e 6a bc d1 fe e0 3b e4 7c e1 3c ef 01 72 3c
       -0.014300992 0.006866314 0.027525373 0.014770969
0001b0 cc 2a 12 3d 8d 75 0e bc e9 4b a2 3b 9b f3 a6 ba
       0.035685346 -0.0086950185 0.004952897 -0.0012737395
0001c0 b3 b4 71 bb 58 50 64 39 3b 58 bb 3c 6f 39 f8 bc
       -0.0036881387 0.00021773705 0.02286922 -0.030300824
0001d0 7e a3 e3 bc cf 99 1a 3c 8f 8b ae 3c a0 7a cd bc
       -0.02778792 0.009436085 0.021306781 -0.025082886
0001e0 27 eb fa 3c b0 e4 f9 3c 59 46 ef 3b 8d d9 b2 3b
       0.030629708 0.030504555 0.0073020873 0.005458063
0001f0 8f ec 35 3c 07 43 35 bc de 35 97 bb 86 f2 d2 bc
       0.011103763 -0.011063344 -0.0046145758 -0.02575041
000200 ff 59 c2 bb 33 ec 71 bc 94 40 9f 39 3b db 1c 3b
       -0.0059311385 -0.014765787 0.00030374958 0.0023934382
000210 2e d5 00 3d 61 fd b5 bc 07 0d 84 3c 98 11 84 3c
       0.031453304 -0.022215547 0.016119493 0.01612167
000220 33 6d 85 3b 46 53 82 3c b3 ad c1 bc 95 f2 e5 bc
       0.0040718555 0.015908848 -0.023642397 -0.028069774
000230 34 6c 92 3c 0f aa 4f 3c 5f 3f 0d bc 12 88 67 3c
       0.01787386 0.0126748225 -0.008621066 0.014131563
000240 b9 79 04 3c 69 52 62 3c bb 2b 91 3b 3d 23 fb bc
       0.008085662 0.013813593 0.004430262 -0.030656451
000250 96 44 29 bb 64 1f 8b bc 28 71 c3 3c ef 45 c0 bc
       -0.0025828234 -0.016982742 0.023857668 -0.023470847
000260 8b e4 0d bd b9 65 95 3b 58 0c 03 3c ce a9 1a bd
       -0.034641784 0.0045592454 0.007998548 -0.037759595
000270 bb a6 01 3d 89 a4 9f 3c 70 1a a6 3b 0f 46 c6 bc
       0.031653147 0.019487636 0.0050690696 -0.024203328
000280 d8 ec 93 3c b2 fd 9b bc 2c 14 09 bd 13 43 dd 3b
       0.018057272 -0.01904187 -0.033466503 0.0067523806
000290 71 e4 cf 3b 0d a9 be bb bb 70 7a ba d4 7e 43 bc
       0.006344371 -0.0058184923 -0.00095535413 -0.011932094
0002a0 98 e9 05 ba a9 a8 f8 bc 02 2b 76 bc 92 06 d2 ba
       -0.00051083555 -0.03035386 -0.015024902 -0.0016023687
0002b0 b8 c9 34 3c 72 1f ac 3c 56 bb 03 bc 40 83 d1 3c
       0.011034422 0.021011088 -0.00804027 0.02557528
0002c0 10 08 86 3c 48 80 07 bc 45 14 0f 3d 46 1e 57 3c
       0.016361266 -0.008270331 0.03493144 0.013129776
0002d0 92 65 e4 bc fa d3 ba bb fc 8f a2 bb 26 4d cb 3c
       -0.027880464 -0.005701539 -0.004961012 0.02481706
0002e0 61 33 84 3b b5 84 99 3c 78 11 84 3c e4 0c 0a bc
       0.004034445 0.018740037 0.016121611 -0.008425925
0002f0 95 e3 20 3c 49 2b 8b 3c 41 82 3b bc 08 f3 5d 3c
       0.009819885 0.016988413 -0.011444629 0.013546713
000300 fe bc 0c bc cd 8c 4b 3b de d5 9a 3c 3c 33 23 3c
       -0.008589981 0.0031059266 0.018900808 0.009960946
000310 8b ed e5 3b 38 f4 ce 3c 49 6a 09 bd df 50 3a bc
       0.0070168427 0.025262937 -0.033548627 -0.01137182
000320 7d d9 14 3d 93 29 d7 3c 72 b4 b9 3c 8f bf bf 3c
       0.036340225 0.026264941 0.02266905 0.023406772
000330 75 98 c5 3a e6 6f 1a bc bb 77 64 3b 03 79 f3 3c
       0.0015075343 -0.009426093 0.0034861404 0.029720789
000340 9d d3 f3 bb 6d b3 82 3c cd b2 e2 bc 59 6c e3 bc
       -0.0074409978 0.015954698 -0.02767315 -0.027761625
000350 f9 23 e7 bc cd ce 8f bc e3 d1 3e bc d8 ea 98 3c
       -0.028215395 -0.017554665 -0.011646721 0.01866667
000360 2d 24 34 bc d8 3a 99 3c 13 88 6f 3b 7f b9 8b 3c
       -0.010994953 0.018704817 0.0036549612 0.017056225
000370 3f 2b 69 3c fb 6c ed 3c 14 ad 15 3c 33 b6 44 3c
       0.014231502 0.02898263 0.009135503 0.01200633
000380 fe 17 08 bd 68 14 83 bc cf 53 09 3c ad 3a 69 bc
       -0.033226006 -0.016000941 0.008381798 -0.014235181
000390 53 ee b1 bc 24 f8 2c 3c d0 7f ff 3c 2c 9a d9 3c
       -0.021720087 0.010557208 0.031188875 0.026562773
0003a0 23 b3 80 bc a2 51 63 3c f1 ad 80 3c 33 f8 9f bc
       -0.015710419 0.013874443 0.015707942 -0.01952753
0003b0 ae 2d 6b bc b2 87 13 3c 5f d2 0f 3d 9f 19 a7 3b
       -0.014354153 0.00900452 0.035112735 0.00509949
0003c0 8f 7a ba 3b f2 9c f3 3c ee bb f3 3a 2a 31 1b ba
       0.0056908797 0.029737923 0.0018595436 -0.0005920107
0003d0 8d e7 10 3d 29 3e 14 3d c8 36 ad bb 70 82 11 3d
       0.035377074 0.036192093 -0.0052860714 0.035524786
0003e0 a9 d1 34 3d c9 4e 1d bc 05 61 ee bc a0 0d 8a bc
       0.04414526 -0.009601303 -0.029098997 -0.0168522
0003f0 8e 00 e8 3c f8 8b b2 3c 35 b3 59 bc ff 86 37 bc
       0.028320577 0.021795258 -0.013287355 -0.011201619

base.3.bias f4 [32]
000000 f0 44 a4 37 c6 66 ea b6 bb f0 ec 36 3d ea 5f 37
       1.9582425e-05 -6.985708e-06 7.061373e-06 1.3346374e-05
000010 9f f3 80 b8 b4 98 b5 35 f2 85 21 b8 12 97 11 b7
       -6.1488936e-05 1.3529993e-06 -3.8510138e-05 -8.677847e-06
000020 2b ae 07 b6 09 34 84 b7 b8 ae 69 37 65 a1 4b b8
       -2.0217947e-06 -1.5759857e-05 1.3928562e-05 -4.8549282e-05
000030 1e bb d9 38 18 63 51 b7 5a 0e 50 b6 ca 8e a3 35
       0.000103822196 -1.2480443e-05 -3.100277e-06 1.2186003e-06
000040 62 c7 68 b7 7e 94 d8 b6 48 05 11 b8 40 4e 90 b6
       -1.38747e-05 -6.4545884e-06 -3.4575613e-05 -4.300644e-06
000050 34 f8 65 37 6e f8 28 b8 33 05 94 37 f2 d0 0e b8
       1.3707253e-05 -4.028569e-05 1.7645396e-05 -3.4050034e-05
000060 7f 7d 90 b6 a5 54 53 b7 c1 a7 3e 37 1b 7a 19 37
       -4.306144e-06 -1.2596288e-05 1.1363941e-05 9.147941e-06
000070 31 a8 dc 36 7c f8 6a 37 2c ff 00 36 f5 8c 91 37
       6.576091e-06 1.4005342e-05 1.9222016e-06 1.7350985e-05

base.4.weight f4 [32]
000000 bd e3 7d 3f 73 f0 80 3f 05 1b 7f 3f 0c 6c 80 3f
       0.99175626 1.0073379 0.99650604 1.0032973
000010 c5 76 7f 3f 14 c9 80 3f 84 46 80 3f 04 55 7f 3f
       0.997906 1.0061364 1.002152 0.997391
000020 a7 8b 7e 3f c5 46 80 3f d0 98 80 3f 2f 35 80 3f
       0.9943184 1.0021597 1.0046635 1.001623
000030 8d 97 80 3f 38 6e 7e 3f 8a 07 7f 3f e7 65 7f 3f
       1.004625 0.9938693 0.9962088 0.99764866
000040 3e 68 7e 3f 52 ff 7e 3f b3 59 80 3f b1 bb 7d 3f
       0.9937781 0.9960834 1.0027374 0.9911452
000050 8c 59 7e 3f 10 57 80 3f b5 07 80 3f 88 63 80 3f
       0.9935539 1.0026569 1.0002352 1.0030375
000060 96 b9 7c 3f 7b 3e 80 3f 21 18 80 3f 57 3f 80 3f
       0.9872068 1.0019068 1.0007364 1.001933
000070 25 28 80 3f f7 b4 7f 3f 4c 12 7d 3f e2 54 7f 3f
       1.0012251 0.99885505 0.98856044 0.99738896

base.4.bias f4 [32]
000000 e9 c4 86 bb 27 9d cc ba 93 32 23 bb a7 30 22 bb
       -0.004112829 -0.00156108 -0.002490197 -0.0024748237
000010 db 6c 8a bb ff 04 12 3c 70 77 c3 3a 52 7f 7b 3a
       -0.0042244024 0.008912324 0.0014912914 0.00095938623
000020 63 75 93 3b 58 fe 31 bc 02 6a ff 3a 7d 3f f4 bb
       0.0045000776 -0.010863863 0.0019486549 -0.0074538575
000030 9b dd da 3b 47 94 6c bb be a8 47 bb 40 6e 01 bc
       0.0066792495 -0.0036099122 -0.0030465568 -0.007899821
000040 10 b8 05 bc 77 af 67 ba dd 9a f0 3a d8 71 a9 ba
       -0.00816156 -0.0008838097 0.00183567 -0.0012927605
000050 b5 bb aa bb 26 b8 25 bb 56 ad a2 bb 18 cf 3e bb
       -0.0052103647 -0.0025286763 -0.004964511 -0.0029115137
000060 9c b1 b4 bb ea 90 05 bb a4 8f 28 3c c1 2a 8f bb
       -0.0055143367 -0.0020380565 0.010288153 -0.0043691103
000070 1d cb f7 b9 36 49 0e bb a3 c2 0a ba de b0 b1 3a
       -0.00047262842 -0.0021711118 -0.00052932854 0.0013556739

base.4.running_mean f4 [32]
000000 90 9e 28 3d a9 13 12 3e 11 45 a9 3d 21 2b 5e bd
       0.041166842 0.14265312 0.082651265 -0.05424035
000010 d4 03 b6 bc d0 5d 8e bc 27 51 82 3c 7a a3 58 3b
       -0.022218622 -0.017378718 0.015907837 0.0033056424
000020 91 f7 d3 3d 3a 97 03 bc bb 44 0c 3e 7c 35 4b bd
       0.10349954 -0.008031661 0.13698094 -0.049611554
000030 90 87 88 bd 27 ec c6 3b 55 0a c6 bd 96 f5 ec 3d
       -0.066664815 0.006070632 -0.096699394 0.11570279
000040 ed 21 4b 3e 9b 5e 02 3e 05 3a d6 3c 5d 28 ed bd
       0.1983716 0.12731402 0.026150713 -0.11579964
000050 64 32 cd bd ab ab 4b bd d7 7c 66 3d 14 86 c2 3d
       -0.10019377 -0.049724262 0.0562714 0.094982296
000060 8b e7 03 3e fb fb 77 3c d4 9b f7 bd 2f 72 0a be
       0.12881295 0.01513576 -0.12090269 -0.1352012
000070 c5 94 bf bd 70 44 d7 3d e9 cd e2 bd 6d 46 9d 3d
       -0.093545474 0.105111 -0.110744305 0.07679448

base.4.running_var f4 [32]
000000 16 fb c9 3d d1 6d 27 3d 08 b7 ab 3d 9f 88 7f 3d
       0.09862344 0.040876213 0.0838452 0.06238615
000010 8e e9 7a 3d 67 9d 36 3d e6 80 dc 3c 4e be d6 3d
       0.06125789 0.044583704 0.026916932 0.104855165
000020 c3 6a 3a 3d 53 f9 07 3d e9 4e 04 3d 87 e3 75 3d
       0.045511972 0.03319676 0.032301817 0.06003144
000030 62 dd 40 3d dd ca 6f 3d f0 b8 6b 3d e7 75 17 3e
       0.047086127 0.058543075 0.057549417 0.1479107
000040 22 f9 5a 3d 71 2f 4b 3d dc ae 0e 3d 51 2b 63 3d
       0.053460248 0.04960579 0.034834728 0.05546123
000050 65 0d 93 3d f4 b2 55 3d 33 27 62 3d 93 0f 35 3d
       0.07180289 0.052172616 0.055213165 0.044204306
000060 6b 24 01 3d 58 84 2b 3d 75 51 f7 3d 4e 57 33 3d
       0.03152887 0.04187426 0.120760836 0.043784432
000070 46 e7 5f 3d d4 a5 3c 3d c5 0d f7 3d 6b 95 05 3e
       0.05466392 0.046056584 0.12063173 0.1304528

base.6.weight f4 [32, 32, 5, 5]
000000 d6 a5 d1 3c e7 0e a1 3c 29 e6 7e bb 07 07 cf bb
       0.025591772 0.019660426 -0.003889451 -0.0063179764
000010 42 2f c3 bc ae 5d 32 bc 7e 63 e8 3c 3d 19 06 3d
       -0.023826245 -0.010886593 0.028367754 0.032738913
000020 a2 d3 b6 3c de 5f b3 3c 11 23 6f bc 31 0d ce 3b
       0.022317711 0.021896299 -0.014595763 0.0062881936
000030 fb af ba bc 7e 32 db b9 e7 29 48 bc e5 21 b3 bc
       -0.022788992 -0.00041808555 -0.012217022 -0.021866748
000040 20 5b 0a 3d 4b ed de 3a 1a 8e be 3c 20 1b d5 bb
       0.03377831 0.0017007975 0.023261119 -0.0065034777
000050 06 e2 97 3c 53 cf 6e 3b 39 c2 a1 bc 61 9e 05 bd
       0.018540394 0.0036439493 -0.019745933 -0.032621745
000060 ab f2 16 bd 1d 60 c6 bc 38 ae 5a b9 98 c7 58 3c
       -0.03685252 -0.024215752 -0.00020855002 0.013231181
000070 8c 78 57 3c 58 5d a3 bc 0f cc 75 3c 83 ec 3d 3b
       0.013151299 -0.01994197 0.015002265 0.0028980083
000080 82 92 36 bc 04 07 4b bc 21 2f 75 3c 19 99 c6 3c
       -0.011143329 -0.012391809 0.01496485 0.024242925
000090 79 d5 28 3b c0 f8 1d bd c2 95 86 bc 80 99 b7 bb
       0.0025762005 -0.038567305 -0.016428832 -0.0056030154
0000a0 96 f8 7f bc 43 9d cb 3c 3c 68 08 bd ac aa cd bc
       -0.015623232 0.024855262 -0.03330253 -0.025105797
0000b0 a8 73 d6 3c a6 d1 76 3c 87 e4 b6 3c 0f 6b 9f bc
       0.026178196 0.0150646325 0.022325767 -0.01946023
0000c0 66 7f 53 3c 48 90 73 3c 01 35 2a bc e5 1e e9 3c
       0.012908792 0.014865942 -0.010388614 0.028457114
0000d0 cb 4b 4b 3c d9 bd a4 bb 89 34 dc 3c c9 28 9c bc
       0.012408207 -0.0050275144 0.02688052 -0.019062417
0000e0 04 56 13 bd 9c 98 a7 3c 29 7d cd bc 87 f3 3e 3c
       -0.035970703 0.020458512 -0.025084095 0.011654741
0000f0 50 60 a1 bc 8b f7 33 bc bf 51 7e bb 99 a1 78 bc
       -0.019699246 -0.010984312 -0.0038806049 -0.015175247
000100 36 50 cd 3c dc fe 34 3c 02 43 6f 39 f2 ca 20 3c
       0.025062662 0.011047091 0.00022817779 0.009814011
000110 6e 80 8b bc 67 61 37 bb 23 2f 72 ba f3 b6 46 bc
       -0.017029013 -0.002798164 -0.00092385913 -0.012128579
000120 7d 91 1a bc 91 0a 9e bc 7b b0 5c 3c c4 4d 79 bc
       -0.009434101 -0.019292148 0.013469811 -0.015216295
000130 9b 51 f8 bc 8b bf 56 bc d7 0e 1a 3c a5 fa ff bc
       -0.03031235 -0.013107191 0.009402952 -0.031247446
000140 99 74 ce bc 79 db 9b 3c f2 3c ac bc 0b bb 13 3d
       -0.025202082 0.019025551 -0.021025155 0.03606705
000150 02 d9 bf 3b c2 14 8f 3c 77 1d ac bc ac c2 0e 3c
       0.005854727 0.017465953 -0.021010144 0.008713406
000160 8e c8 01 bc ee 84 8e 3c 88 f2 b5 ba a9 39 47 3c
       -0.007921351 0.01739737 -0.0013881484 0.012159743
000170 e7 d5 18 bd 8a c4 35 ba 37 13 f2 3b ac b6 3b 3c
       -0.03731337 -0.00069338887 0.0073875445 0.011457127
000180 e8 b5 60 ba e8 fe e5 bb 85 b6 92 bc 28 30 18 3b
       -0.0008572028 -0.0070189126 -0.017909298 0.0023222063
000190 05 c2 2f bc b1 9b f8 3c 20 cb 3f bd 1a 62 ef 3c
       -0.01072741 0.030347677 -0.046824574 0.029221583
0001a0 7c a2 d0 bc d8 dc ac bb 34 d2 9b 3b fb ca 48 3c
       -0.025468104 -0.00527535 0.004755283 0.012255426
0001b0 3c f2 fb 3c a7 24 5e bb 1d 81 ad bc 7b f1 b1 bc
       0.030755155 -0.0033896358 -0.02117973 -0.021721592
0001c0 62 5b 16 3b d5 e7 7e bc d5 5c 95 bc c8 1c 9e bc
       0.0022942652 -0.015558203 -0.018232742 -0.019300833
0001d0 da 66 2a 3b 73 13 c4 3b c6 86 91 3c 06 e4 8f 3a
       0.0026001246 0.005983764 0.01776446 0.001097799
0001e0 74 7c 9f 3b e7 12 12 3c 1a a8 ea 3b 95 3e c5 3a
       0.004867131 0.0089156395 0.0071611525 0.0015048558
0001f0 62 42 16 3c 4e 5a 5b bc 48 dc ee 3b c2 d9 17 3d
       0.0091711 -0.0133882295 0.007289443 0.037072904
000200 22 7b 84 bc 9c de 22 3c e9 11 0b bc 01 d4 5d 3c
       -0.016171996 0.0099407695 -0.008488157 0.013539315
000210 b2 64 5a 3d 13 85 93 bb 30 86 ea bc 91 b8 6c 3b
       0.053318687 -0.0045019477 -0.028628439 0.0036120752
000220 52 f1 ec 3b fc 3b 29 3d ce a8 10 3d 0f 28 85 bb
       0.007230916 0.04131697 0.035317235 -0.0040636132
000230 b9 ca 17 3c a1 5f 66 3b 41 67 41 b8 e3 4a 94 3c
       0.009264641 0.0035152214 -4.611095e-05 0.018102115
000240 cf 17 e5 3c 52 54 2e 3b 73 e8 d5 3c a7 82 e3 bc
       0.027965454 0.0026600552 0.026111817 -0.02777226
000250 0c de 1a 3b 9b 67 d0 3b 59 3b de 3c ed c8 50 bb
       0.0023630885 0.006360007 0.027127909 -0.0031858042
000260 45 4d b4 3c 33 dd 54 3c d8 d7 9a bc 3f 1f 82 3c
       0.022009501 0.012992191 -0.01890175 0.01588404
000270 73 02 4a 3b c1 6c 28 bd a6 88 84 bc 13 4e 06 bd
       0.0030824214 -0.04111934 -0.01617844 -0.0327893
000280 d3 19 48 3c 50 7f 2e 3b a2 6d 73 3b 64 9b ff ba
       0.012213188 0.0026626177 0.0037144204 -0.0019501266
000290 4c c1 88 bb 58 d9 58 bc 8e a1 4a 3c 58 e6 b8 3b
       -0.0041734334 -0.013235413 0.012367619 0.0056426935
0002a0 1e fa 23 3c b7 d7 ee 3c 72 76 bf 3c 88 44 b2 3c
       0.010008363 0.029155595 0.023371909 0.021761194
0002b0 c9 14 1e bd 42 ae ce ba 5b 83 8b 3c 84 7f dc bc
       -0.03859404 -0.0015768486 0.017030409 -0.026916273
0002c0 23 f7 fb 3b 83 40 d3 3b 97 91 db bc 39 01 27 3d
       0.007689373 0.0064468994 -0.026802821 0.04077265
0002d0 f4 e3 97 bc 86 5a 9a bc 60 12 13 3c 1e f0 66 bc
       -0.018541314 -0.018841993 0.008976549 -0.014095334
0002e0 24 ed 66 bc eb 1d a5 bb 49 55 80 3c 98 f5 a0 3c
       -0.014094625 -0.005038967 0.015665667 0.019648358
0002f0 1b 6e 67 bc 89 df 08 3d 12 e9 15 bd 0c 85 b2 bc
       -0.014125372 0.033416305 -0.036599226 -0.021791957
000300 97 c0 8e 3c 5c f7 16 3d 70 d5 c9 bc 16 9d 82 3c
       0.017425818 0.036856994 -0.024637908 0.015944045
000310 45 50 01 3c 20 a7 1e bc df 67 b1 3c b4 e4 9c 3c
       0.007892673 -0.0096834 0.021655975 0.019152023
000320 3d 4a 88 bc f8 85 b8 bc 59 6d 83 3b 66 c0 ed bb
       -0.016636962 -0.022524819 0.004010838 -0.0072556017
000330 95 61 a2 bc 39 46 95 bc 9f a6 d0 bb a0 36 e2 3c
       -0.019821921 -0.018221961 -0.006367519 0.027613938
000340 79 a6 61 3c c0 b9 0b 3d 34 e8 51 3c 9a b9 01 3d
       0.0137726 0.034112692 0.012811709 0.031671144
000350 9f bc 76 bc 82 94 5a bc 9c 04 c8 bb 36 43 6a bc
       -0.015059619 -0.013341071 -0.006104065 -0.014298251
000360 79 3a 65 bc 30 4a a1 bc 24 84 cf bb c8 28 18 3d
       -0.013990992 -0.019688696 -0.006332891 0.037148267
000370 e0 d3 5a bc bf d8 40 bc 63 39 9c 3c f9 5c ac 3c
       -0.013356179 -0.011770426 0.019070333 0.021040427
000380 4d fd 14 3d dd 69 bd bb af b1 00 3d fa 97 e0 bc
       0.03637438 -0.005780442 0.031419452 -0.027416218
000390 e0 9e de bc 98 2f 2e bb b7 38 9b bc 88 22 70 3b
       -0.027175367 -0.002657866 -0.018947942 0.0036641676
0003a0 7e 2b 89 bc da 86 f6 3c 3f dc a4 3c 0a e4 09 bc
       -0.016744372 0.0300936 0.020124553 -0.008416185
0003b0 0d 61 0d 3d d3 d0 9d 3c c4 97 66 3c 77 45 e8 3c
       0.034516383 0.019264614 0.01407427 0.028353436
0003c0 b7 fb 96 3c 3d 9d aa bc f6 6c 2d bc 17 e2 ca 3c
       0.018430574 -0.02082693 -0.01058506 0.024766011
0003d0 c3 74 0a 3d 1b a5 aa 3c 0a 7e 07 ba 1a 9c ae bc
       0.03380276 0.020830682 -0.00051686226 -0.02131467
0003e0 8d c9 e5 3c 75 5a 4a 3c 35 aa 89 3c 52 ab d3 3b
       0.028050208 0.012350668 0.016804794 0.006459632
0003f0 f4 29 a5 bc 33 f4 22 bb 12 11 03 bd 2d ce 3e bb
       -0.020161606 -0.0024864792 -0.0319987 -0.002911459

base.6.bias f4 [32]
000000 60 06 5c b7 96 79 0d b6 92 ac d1 b6 8a f6 0d b6
       -1.3114506e-05 -2.108141e-06 -6.248775e-06 -2.1154142e-06
000010 2b ba 22 38 23 c0 ce 37 f3 7f 0c 37 4f 51 23 b7
       3.8797192e-05 2.4646584e-05 8.374441e-06 -9.734488e-06
000020 5b a9 9c 37 ae 9c 06 37 fc b9 5a b6 35 b0 3e 37
       1.8675511e-05 8.023502e-06 -3.2592789e-06 1.1365909e-05
000030 8a ac 05 b7 50 88 15 b6 b3 4d 59 b7 c8 7d 07 35
       -7.96759e-06 -2.2282074e-06 -1.2952299e-05 5.0474455e-07
000040 08 c6 31 37 24 30 9c 36 e5 64 54 37 71 cf 27 37
       1.059613e-05 4.6547666e-06 1.2659676e-05 1.0002274e-05
000050 d0 0a 0e 37 7b 2c 88 b6 a9 39 a7 b7 a4 65 95 35
       8.466377e-06 -4.058294e-06 -1.9934801e-05 1.1130946e-06
000060 a6 89 fe 36 a2 d3 a5 37 71 ca 7c b7 e4 d6 5f 37
       7.5858143e-06 1.9768082e-05 -1.5067505e-05 1.3341869e-05
000070 5a c2 af b6 2f b3 6d 37 ff b0 32 36 9c b4 60 b7
       -5.238032e-06 1.416802e-05 2.6627092e-06 -1.3393492e-05

base.7.weight f4 [32]
000000 c5 d5 85 3f 9e 0a 83 3f ce c0 85 3f 58 e4 85 3f
       1.0455862 1.0237615 1.0449464 1.046031
000010 4d fc 85 3f 98 8e 83 3f 1c 64 84 3f a7 1d 85 3f
       1.0467621 1.0277891 1.0343051 1.0399674
000020 89 0a 86 3f 5c fe 84 3f 2c 82 85 3f 51 a5 83 3f
       1.0471965 1.0390124 1.043035 1.0284826
000030 ec 0e 86 3f 80 4c 87 3f 2f 95 85 3f 8b 36 87 3f
       1.0473304 1.0570221 1.0436152 1.056352
000040 6b 67 83 3f 0f 7c 83 3f c1 60 86 3f aa 2b 85 3f
       1.0265936 1.0272235 1.0498277 1.040395
000050 91 d3 84 3f f2 54 85 3f ef e6 85 3f 3a 80 85 3f
       1.0377065 1.0416548 1.04611 1.0429757
000060 8f 00 87 3f 6f a9 84 3f 65 79 88 3f 22 5b 86 3f
       1.0547045 1.0364207 1.0662047 1.0496562
000070 b7 a8 84 3f 51 fe 84 3f 8a c5 86 3f aa 13 85 3f
       1.0363988 1.0390111 1.0529034 1.0396626

base.7.bias f4 [32]
000000 08 a7 a4 3c 65 95 a9 3c f6 7e 80 3c f1 9b ca 3c
       0.020099178 0.02070112 0.01568554 0.024732562
000010 59 fa 8c 3c 8b f7 63 3c d0 0b 67 3c 3b 00 b9 3c
       0.017209219 0.013913999 0.014101937 0.022583118
000020 c3 cc b6 3c 9b b1 b3 3c 30 3e e6 3c 2d 63 a8 3c
       0.022314435 0.021935275 0.028105825 0.020555103
000030 52 48 bc 3c 4a 3c b9 3c 97 53 7a 3c 0b ff 17 3d
       0.022983704 0.022611756 0.015278718 0.037108462
000040 b3 ec 59 3c 3c ef b9 3c 05 7b 32 3d ae 1c 82 3c
       0.013301062 0.022697084 0.04357435 0.015882816
000050 17 bc 90 3c 34 35 e2 3c 79 2e ab 3c 3c 85 4c 3c
       0.017667813 0.02761326 0.020896183 0.012482937
000060 01 0d e5 3c 47 81 94 3c a4 48 b8 3c 4a 03 3a 3c
       0.027960302 0.01812805 0.022495575 0.011353323
000070 03 f9 5c 3b 6b 26 2c 3c 64 0f 0e 3d f3 bb a9 3c
       0.0033717758 0.010507206 0.034682646 0.020719504

base.7.running_mean f4 [32]
000000 8c 97 43 3b 06 86 87 3e f9 d2 83 bd d1 fa b4 3e
       0.0029844968 0.2646944 -0.06436724 0.35347608
000010 81 6f 7c 3e f9 ef bf bd 4c ff 23 3e 09 81 3f be
       0.2465191 -0.09371943 0.16015357 -0.18701567
000020 26 77 f8 3d 97 41 c7 3d d2 19 f6 3d 5d 11 39 bd
       0.12132101 0.09729307 0.120166436 -0.045182575
000030 5a 5c 9e 3e 5f 6e 31 3e 91 59 51 3e 16 8c b5 3e
       0.30929834 0.1732726 0.20444323 0.3545844
000040 ea 81 8a be ca 5f 89 3d 75 da 52 3e d8 4d 8e 3d
       -0.27052242 0.067077234 0.20591147 0.06948441
000050 32 27 5c 3d d5 a9 ac 3e 46 84 3a bd 81 d1 b6 3d
       0.053748317 0.33723322 -0.045536302 0.089266784
000060 cc 77 74 3e 36 4b 3f 3e 65 3c c9 3d 45 3b 2a 3e
       0.23873824 0.18681034 0.098259725 0.16624172
000070 8e 80 23 3d 43 3e e5 3d 91 ce 2a 3d 7f 6b 08 be
       0.03991752 0.11193516 0.041700903 -0.13322257

base.7.running_var f4 [32]
000000 e9 58 5c 3d 51 88 76 3d cf 53 bd 3d 33 7b 92 3d
       0.05379573 0.060188595 0.09244501 0.07152405
000010 fe 55 3a 3d 7c 3a ac 3d ba 46 c2 3d da 31 cb 3d
       0.045492165 0.084095925 0.09486146 0.09921618
000020 e8 65 4b 3d 41 95 9b 3d 3a 78 b2 3d 8c 99 c5 3d
       0.049657732 0.07596827 0.08714338 0.09648427
000030 dd 9e 9d 3d 49 06 86 3d 2b e6 bc 3d 03 a3 9e 3d
       0.076963164 0.065441675 0.092235886 0.07745936
000040 e0 65 39 3e c3 9c bb 3d 8c 0f d9 3d 51 0f 91 3d
       0.18105268 0.09160759 0.105986685 0.070829995
000050 5d ec e5 3d 53 25 67 3d c5 67 33 3d 83 8e 00 3e
       0.11226723 0.05643208 0.043800134 0.12554364
000060 ee bd a3 3d aa 00 01 3e eb 11 95 3d da 6c 6d 3d
       0.079952106 0.1259791 0.07278808 0.057965137
000070 06 31 ea 3d 0c f3 31 3e 0b 0f 89 3d c3 f9 63 3d
       0.11435132 0.17377871 0.06692322 0.055658113

head.0.weight f4 [24, 1024]
000000 a8 3f 86 3c 4c f6 75 3c d5 22 5a 3c 05 d8 42 3c
       0.016387776 0.015012335 0.013313969 0.011892323
000010 91 01 6f 3b 0c b8 67 b8 a0 12 64 3b f4 7e a0 bc
       0.003646944 -5.52461e-05 0.003480114 -0.019591786
000020 84 62 ad 3b 8f ed d1 bc f4 fa 9f 3b 5a ab 94 3b
       0.005291285 -0.025625972 0.004882211 0.0045370283
000030 ef b1 6c 3c 50 b0 82 3c 8b 3f 8d 3c 30 71 8a 3c
       0.01444672 0.015953213 0.017242214 0.016899675
000040 7a a5 11 3d 66 ed c4 3c a8 4e 3e bc 0d 03 8d 3b
       0.0355582 0.024038982 -0.011615433 0.004303342
000050 40 79 b4 3b 77 54 05 3d 0d 31 62 bb 7a ac b6 3c
       0.005507618 0.032551255 -0.00345141 0.02229904
000060 b4 1e ef bc c6 89 21 bc 87 e9 03 bd 9b ee e8 3b
       -0.029189445 -0.009859508 -0.03220513 0.007108522
000070 3d 94 b6 3b aa 7c f6 3c 0b 88 b4 3c 8a ef fc bb
       0.0055718706 0.030088741 0.022037527 -0.007718985
000080 9a e1 3c 3b c2 e8 60 ba a3 42 bc ba 63 3d 60 bb
       0.0028820992 -0.00085796055 -0.0014363121 -0.0034216277
000090 2b 28 0a bc 1e c9 ff 3b a8 b5 bd 3b 88 68 d1 3c
       -0.008432428 0.0078059575 0.0057894774 0.02556254
0000a0 54 d2 0e 3d fa 8e b1 bb 4e 3b 10 3d 64 82 76 3b
       0.034868553 -0.0054186555 0.035212807 0.003761434
0000b0 dd 30 49 3b 0d f6 0f 3b 91 8e 45 3b d6 11 43 3b
       0.003069929 0.0021966726 0.003014479 0.002976527
0000c0 f8 28 00 3d 22 61 9b 3c 65 32 74 bc a0 3c d8 3c
       0.03128907 0.018967215 -0.014904593 0.026396096
0000d0 1a 90 ca 3c f6 92 78 bc a0 97 ba bb b4 2d cf bb
       0.024726916 -0.015171757 -0.0056943446 -0.006322587
0000e0 30 c1 92 3c 5a c6 1a bd aa 45 aa bc a8 78 d8 3c
       0.017914385 -0.03778682 -0.020785172 0.02642472
0000f0 e1 14 de 3c 74 6d c6 3c db 25 85 bc b4 57 af bc
       0.027109565 0.024222113 -0.016253402 -0.021404125
000100 2a 70 6a 3b ab f8 1d bd a3 27 dc bb b6 43 05 bd
       0.0035772421 -0.038567226 -0.0067185923 -0.032535277
000110 1a 0b c8 bc 37 cc 16 bd 80 5e 26 3c eb 5a aa 3c
       -0.024419356 -0.03681585 0.0101543665 0.020795306
000120 1c 0e ad 3b b7 1e a5 bc e9 68 9c bc 6c 63 60 bc
       0.005281223 -0.020156248 -0.019092994 -0.013695579
000130 ee 17 21 bd 10 e1 d8 bc 7a 63 77 bb 5b 6a 21 bd
       -0.03932946 -0.026474506 -0.0037748502 -0.03940807
000140 c4 bb 00 80 5b 5c 88 b9 39 0f 05 39 61 2b c8 ba
       -6.7358e-41 -0.00026008752 0.0001268954 -0.0015271717
000150 41 eb 76 bb 1b e2 93 bb 7d f5 e6 3c 8b 90 0d 3b
       -0.0037676843 -0.004513038 0.02819323 0.0021601047
000160 6e 37 f0 3a ee 26 4b bc 4a 27 aa bc 25 50 1d bb
       0.0018327066 -0.012399418 -0.020770688 -0.0024004069
000170 2d 69 a4 39 41 fa 42 b9 27 a5 91 38 05 a4 00 00
       0.0003135888 -0.00018594509 6.944901e-05 5.8839e-41
000180 c7 87 8e 3c 94 0a d4 3b 07 72 81 bc 04 2c b5 39
       0.017398728 0.0064709876 -0.015801443 0.00034555804
000190 28 b0 9e 3c 5b 2b f8 ba dd c2 95 3b ec 20 1c 3d
       0.019371107 -0.0018933819 0.0045703487 0.038117334
0001a0 7d cd 32 3d 81 2f aa 3c ee b0 30 bb c9 db 58 bc
       0.043653 0.020774605 -0.0026960927 -0.013235995
0001b0 3f 84 36 bc 6e f0 4a bb b1 ea 8e bc dd b8 ad bc
       -0.011139928 -0.0030966061 -0.017445894 -0.021206314
0001c0 55 bf 4c bb fa d2 98 bb 30 fa 56 bb 97 9d 02 bb
       -0.0031241972 -0.0046638222 -0.0032802932 -0.0019930357
0001d0 05 73 75 bc c1 c9 c5 3b d9 08 ed bc 2c 3c 8f bc
       -0.014981036 0.006036014 -0.028934883 -0.017484747
0001e0 a6 50 ae 3b df 86 d1 bc 92 ea 0f bc e3 f8 19 ba
       0.0053196726 -0.025577007 -0.008783953 -0.0005873574
0001f0 0b ec f2 3a 23 46 01 bb e2 25 90 ba 6b 59 b6 ba
       0.0018533481 -0.0019725643 -0.0010997618 -0.0013912147
000200 e9 e8 e6 39 2d 52 e6 39 6a 86 05 39 72 02 d5 3a
       0.0004404255 0.00043930244 0.00012733942 0.0016251339
000210 b5 0f 92 bc 73 5c a1 3c 17 34 27 3c ce e1 23 3a
       -0.017829755 0.019697404 0.01020529 0.0006251604
000220 4c 4c a8 3b d2 54 04 3d 9c a4 4b bc 9a 1d a1 3c
       0.0051360484 0.032307453 -0.012429383 0.019667435
000230 29 f8 79 38 f7 b5 2d 3a 9f bb 34 3a e9 e8 e6 39
       5.9597343e-05 0.0006626541 0.0006894413 0.0004404255
000240 15 1c 08 bd d5 d3 8e 3b 68 4a 0a bd 64 19 20 bd
       -0.033229906 0.0043587484 -0.033762366 -0.039086714
000250 3c 3d 2c bc a4 60 7a bc db fc b2 bc 16 81 f1 3c
       -0.010512646 -0.01528183 -0.021849087 0.029480498
000260 5b 5e 6f 3b d1 ee 82 3c ad f9 aa 3b 50 b8 71 bc
       0.0036524746 0.015983017 0.005217752 -0.014753416
000270 c9 4f 4d bc 60 fd de bb 62 e7 45 bd e4 d9 13 bd
       -0.012531229 -0.006805107 -0.048316367 -0.03609647
000280 a2 fd dc 3c d4 36 e2 3b a9 f4 57 3d 17 e7 52 3d
       0.02697641 0.0069035087 0.05272356 0.051489916
000290 3d c5 11 3d 9b 86 12 3d 39 2d 97 3c 5c 7f 2f 3c
       0.03558849 0.0357729 0.018454181 0.010711517
0002a0 94 6d 31 3c 0e e3 4a 3c 8f 3c 02 3d 09 ba 03 bc
       0.010829348 0.012383236 0.031796034 -0.00803996
0002b0 93 8d 30 3d c4 49 ef 3c e2 de 47 bb 82 ff 59 3d
       0.043103766 0.029209979 -0.0030497839 0.053222187
0002c0 ca 02 00 00 89 6e 00 80 ed e5 93 b8 1b ad 7a 38
       1e-42 -3.9653e-41 -7.052333e-05 5.976586e-05
0002d0 c3 bd 77 3b 7a 85 d6 3c e7 54 04 3c 20 10 3a bc
       0.0037802316 0.026186693 0.008076883 -0.011356384
0002e0 70 8c 22 bc 56 ee c9 bc c4 fa c8 bc da fe d9 3b
       -0.009921178 -0.02464978 -0.024533637 0.006652695
0002f0 f3 3c 7b 39 fb e5 97 39 30 87 a7 b8 09 4b 12 b9
       0.0002395993 0.00028972313 -7.988361e-05 -0.00013951598
000300 a3 48 9f 38 62 26 37 39 b1 57 f8 39 19 27 bc b8
       7.5952405e-05 0.00017466539 0.0004736758 -8.971821e-05
000310 96 65 9a 39 a1 85 74 ba ae f6 b7 3c 97 3a f2 3c
       0.00029448856 -0.00093277736 0.022456493 0.029568953
000320 5d 05 4c bd 40 7c b9 3c 7f 70 97 3c 51 0e 11 3b
       -0.049809802 0.022642255 0.01848626 0.0022133777
000330 26 18 41 39 b1 12 d4 39 5d 3c b1 b8 d1 17 35 36
       0.0001841491 0.00040449717 -8.451261e-05 2.6984965e-06
000340 92 29 b1 bb e7 26 41 3c fb f6 5e bc 34 f8 ea 3b
       -0.005406567 0.01178906 -0.013608689 0.0071707014
000350 17 e2 ba 3c b2 e0 1f 3d 41 f9 97 3b 7d 79 50 3b
       0.022812886 0.039032646 0.0046378677 0.0031810694
000360 a6 e6 96 bb 66 ee 82 3b b8 fb af 3c e8 b1 3d 3c
       -0.004605132 0.0039957045 0.021482334 0.011578061
000370 08 e0 d3 bc 97 56 de bc ab 0e ce bc 79 43 b7 3b
       -0.025863662 -0.027140899 -0.025153479 0.00559276
000380 8e 97 e8 3a 34 62 07 bd 32 7d b4 bc c2 9a 97 3c
       0.0017745362 -0.03305264 -0.022032354 0.018506411
000390 a7 53 95 bb 2e c5 0a 3d f6 55 f8 3c 03 ad 18 3d
       -0.0045570913 0.03387945 0.030314427 0.03727437
0003a0 8b 9a 0c 3d 48 74 8b bb 45 6a 7d bb fd cf bc bb
       0.03432707 -0.004255805 -0.0038668078 -0.005762099
0003b0 65 cb ee bb e3 c0 86 3c 06 49 91 bc 18 b2 15 bd
       -0.00728743 0.016449397 -0.017735016 -0.036546797
0003c0 40 ba fd 39 48 d6 8d ba 1a 2a 7d bb 7c 0b c1 bb
       0.00048394687 -0.0010821307 -0.003862983 -0.0058912616
0003d0 03 be 10 3c 3d ce 6a 3a 86 a1 0a 3c 32 3b a6 bc
       0.008834365 0.00089571235 0.008461362 -0.020291898
0003e0 14 b9 c7 bc 8a b4 1c 3a 8d e8 74 bc ff 82 f2 bc
       -0.024380244 0.000597783 -0.014948023 -0.02960348
0003f0 e1 4c 04 3c a0 89 58 bb 1d eb 6d b9 ff 0d d9 39
       0.00807497 -0.0033041015 -0.00022689668 0.00041399893

head.0.bias f4 [24]
000000 53 5b cd 3c fa 3f 59 3c 06 a9 9e 3b 7f 56 90 bc
       0.02506796 0.013259882 0.0048419265 -0.01761937
000010 a0 2c a6 bc 69 b2 39 bc 29 b5 c5 bb 35 18 a6 bb
       -0.02028495 -0.01133404 -0.006033559 -0.0050688037
000020 32 3e 02 3d c2 b5 9e 3b 74 9e b7 3c 9a 32 c6 3c
       0.031797595 0.0048434446 0.022414424 0.02419405
000030 8b a5 93 3a 44 0d cd 3c 2d f9 31 bc be c1 e2 38
       0.0011264546 0.02503074 -0.010862631 0.00010812607
000040 92 b8 60 bb 57 2c 04 3d 78 2d b1 3c 24 33 76 3c
       -0.00342897 0.03226885 0.021628127 0.015026841
000050 42 d0 11 ba 72 0f 8e bc c6 f4 10 3c ad b3 1a bc
       -0.0005562344 -0.01734135 0.008847421 -0.009442252

head.2.weight f4 [2, 24]
000000 a0 90 1a be d4 4c 84 3e 6d 55 12 bc 23 b8 c7 3d
       -0.15094233 0.25839865 -0.0089315 0.09751918
000010 6b 72 46 bd e6 19 f6 bd c5 9e 6c 3b ea 25 43 3c
       -0.04844896 -0.120166585 0.0036105376 0.011910895
000020 41 6e 4d be 5d 4a 4c 3e 88 d5 fa bd 7b d6 77 be
       -0.2006159 0.19950242 -0.12247759 -0.24202912
000030 74 ed 0c bd 40 17 51 3e 7e 8b e6 bd 49 ab 4f 3e
       -0.03440614 0.20419025 -0.11257075 0.20280184
000040 3c b8 cb 3d 7b e9 44 3e 56 fd 20 3e 0c 4d 68 3e
       0.09947249 0.1922969 0.1572164 0.22685641
000050 1e f0 97 3d 44 7d 17 3e f1 50 9b bd f5 15 1f 3e
       0.074188456 0.14793879 -0.07583798 0.1553572
000060 a2 5c 0d 3e 9a c9 08 be 94 b4 e4 3d c5 26 e3 bd
       0.13804868 -0.13358155 0.11167255 -0.11091379
000070 e6 c5 29 3e 40 60 7f be 8f a2 36 be 6c ba 08 be
       0.16579399 -0.2493906 -0.17835449 -0.13352364
000080 d8 64 46 3e 7b c2 63 be 78 e3 1e 3e 52 bd 52 3e
       0.19374406 -0.22242157 0.1551646 0.20580032
000090 74 ed 0c 3d 84 c1 86 3c d2 1a 11 3e bd e0 b1 3d
       0.03440614 0.016449697 0.14170387 0.086854436
0000a0 be 80 74 bd d7 6c f5 3b 9f 2f 66 be bb 6c ed 3c
       -0.05969309 0.0074897814 -0.22479104 0.02898251
0000b0 0c 77 26 3e e6 8a 13 bd 8b f8 58 3e b4 2b 3c bd
       0.1625635 -0.036021136 0.21188562 -0.045940116

head.2.bias f4 [2]
000000 e5 aa 0d 3e 53 67 0d bd
       0.13834722 -0.034522366
