models/AC-RM-2 Q_LR=0.001 P_LR=5e-06 BATCH_SIZE=128 GAMMA=0.99 MEMORY_SIZE=150000 BETA=0.05_policy_3248.pt (torch, 319747 bytes, 22 tensors)

base.0.weight f4 [32, 2, 5, 5]
00000000: 2e59 ac3d 86ae fabb bd20 f83d a147 b73d
00000010: cfac c8bd ee0f 52bc a6e4 ab3d fbcb 0fbe
00000020: 3868 01be 03a2 74bd 7098 d93d 4df5 873d
00000030: b4c7 06be 5f90 74bd 243c 5fbd 0613 a33c
00000040: 5f19 063c 4428 d23d 655c c1bd 46c9 86bd
00000050: 414f a33b 2c1f 85bc 1a93 49bd 0f5e c5bd
00000060: 6d93 94bb ca05 b7bc a6a8 f83d 2a71 013e
00000070: f9e0 823d 88d4 bb3d cedb 03bd e149 9a3d
00000080: f2f7 ddbd d91d 8dbd dd9c ffbd c681 973d
00000090: a5a1 97bd beed b63b 3a54 f6bd d136 753d
000000a0: 33f6 253d ca8a 823d 76c8 f73d 3756 6c3d
000000b0: a14e d33a 8162 6a3d d7dd 9ebc 4de7 b33c
000000c0: 2a64 a1bc 875f f4bd e350 77bd 7dc0 52bd
000000d0: dfe5 f0bd f093 f93d 7f1f 73bd 0869 99bd
000000e0: 6c72 a13c 511e 123c c0ae 6abc 2f5d b63d
000000f0: f6fa b63c ad4d a73d 1922 04be d344 3cbd
00000100: 1ced f8bd e644 893c 0c50 adbd 9c0e a53c
00000110: c0e1 803d a582 e93d 873d cabb 27ac a6bd
00000120: 093c 18be ba92 8f3d 6e47 01be 96f7 01bd
00000130: f112 d9bc 5538 80bc ce14 bbbd baaa 14be
00000140: 2216 963d e071 0e3e 01f5 8d3d 90fc cb3d
00000150: 1792 b53d 517c 863d a80a adbc 07b0 e3b9
00000160: f3c3 743c c406 8c3d dfd8 333c acee d23a
00000170: baa2 fbbc d61b 57bd 3bb0 46bd 3e72 fbbd
00000180: 33c3 cb3d d938 f03d cf95 593d eeae b63d
00000190: cfb1 4abd 1873 093d b749 85bd a16c 93bb
000001a0: c359 4d3d 70a7 0d3d f5ca 723d 4fd2 cfbc
000001b0: 15ba 7dbc 5542 f5bc 1ba1 9e3d 45da 183b
000001c0: 24f1 273d 1d38 00be 869e ef3d 1c99 063e
000001d0: 2e76 963d 1a2d d43d a039 d63d 5def e83d
000001e0: 8a91 9fbd 76b5 643d ac57 073d 842f 8a3d
000001f0: 77f4 f83d 4b2e f3bc 7d5f 8b3d a1a6 ba3d
00000200: 44c4 0dbd 6185 2dbc 62e0 3bbd a7ae 1cbd
00000210: cd61 9dbd 4639 cdbd 2f48 f7bd 8110 603b
00000220: 258f 9e3d 0264 673d 00c2 19bd 8361 7f3c
00000230: c200 18bd a003 afbc b67e 29bd 2686 28bd
00000240: 5a72 563d 72d5 843d b550 41bd 0d11 e33d
00000250: 09c9 873d 2e86 e73d e6fe ec3c f1a2 d23d
00000260: 8f27 023d 6baa c33d 1a90 7ebd 9815 023e
00000270: f17f bf3c eac9 023e 17c5 02bd 078c c1bd
00000280: 76fa ddbd ba46 02bd f5f5 20bd ee01 aa3d
00000290: 405e e13d eb58 013d 553e a9bd 7303 ca3d
000002a0: 5c01 f5bd 7399 f3bd 53a5 b1bd 41c5 ca3d
000002b0: 063f 5abd e6ed 983d 2a51 ab3d 6b68 f7bc
000002c0: bd38 043e e149 07bd 8299 29bc 2110 173d
000002d0: 81d9 9bbd d592 f03d 4655 b3bc 7f02 4d3d
000002e0: 331b e93c 9a96 b5bd 68e1 883d 362b efbc
000002f0: f72b ffbd 6ed5 92bd f1b1 da3d 946e 05bd
00000300: 86e5 37bd 2400 d3bd 4c8d c9bd 5a0d 07be
00000310: ace6 023e b86a aabd ee97 14bd 56f1 b2bd
00000320: 8f11 08bd 7d8c 063e 294a e0bd 2178 be3d
00000330: 97bf f13d 5225 c73c d0c8 08bd 7c8c 07be
00000340: 2d0c 213d 5254 853d 803e 8abd 4993 60bc
00000350: 2ba0 a43d 1e6d 80bc 4862 93bd 0fb2 b3bd
00000360: 82ea 3a3d 22e5 653d b200 0abe efe6 cfbc
00000370: b893 9e3d d2b5 7fbd 7791 3e3d 78ef bd3d
00000380: 643b d6bd d853 dfbd 3cee 0dbe 5242 1c3d
00000390: 492b f2bc 9837 09bd 6b64 fb3d 036a e2bd
000003a0: 8d5c 0b3e fa01 f4bd 0307 0fbe d44e 8cbd
000003b0: 9bfd 9e3d 5004 b83d f934 54bd b97d f63d
000003c0: ae55 11be 99f0 f1bb 5e4d 5b3d a98d 9f3d
000003d0: 12f4 b2bd eb29 c8bb ab8f a4bd 9ab9 e53d
000003e0: 90e3 89bd 5a8a b0bd 3129 06be 38bb 0c3e
000003f0: 9e69 c23c 0242 9cbd 4309 693d 0ee9 3abc
0.08415447 -0.0076501993 0.12115619 0.08949209 -0.097985856 -0.012821181 0.083932206 -0.14042656
-0.12637413 -0.05972482 0.10624778 0.06638584 -0.13162118 -0.059707996 -0.054500714 0.019906532
0.00818476 0.10261586 -0.09441451 -0.065813586 0.004983813 -0.016250215 -0.049212553 -0.09637081
-0.004534176 -0.022341628 0.12141542 0.12640825 0.063905664 0.091713965 -0.032192044 0.075336225
-0.108383074 -0.068904586 -0.12481091 0.07397799 -0.07403878 0.0055825403 -0.12027784 0.05986673
0.040517997 0.06374128 0.12098782 0.05769941 0.0016121456 0.057222847 -0.01939289 0.021960879
-0.019701082 -0.11932283 -0.060379874 -0.051453102 -0.117625944 0.1218642 -0.05935621 -0.07490736
0.01970788 0.008918361 -0.01432389 0.08904492 0.022336464 0.08169112 -0.12903632 -0.045964073
-0.121546 0.016756486 -0.08462533 0.020148568 0.062930584 0.114018716 -0.0061718854 -0.08138304
-0.14866652 0.07010408 -0.12624905 -0.031730257 -0.02649829 -0.015651861 -0.091348276 -0.14518252
0.0732844 0.13910627 0.069314964 0.09960282 0.08865755 0.0656668 -0.021123245 -0.00043427965
0.014939296 0.06837228 0.010976999 0.0016092858 -0.030717243 -0.05251678 -0.04850791 -0.12277649
0.09949341 0.11729593 0.053121384 0.08920084 -0.049485978 0.033557028 -0.065082006 -0.0044990336
0.05013443 0.03458351 0.059275586 -0.025368838 -0.01548626 -0.029938856 0.07745572 0.0023323458
0.041001454 -0.12521406 0.11700158 0.13144344 0.0734676 0.10360165 0.1046021 0.1137378
-0.07791431 0.055837117 0.033042595 0.06747344 0.12156003 -0.02968516 0.06805322 0.09113813
-0.034611 -0.010590882 -0.045868285 -0.0382525 -0.0768467 -0.1002069 -0.12074315 0.0034189525
0.077421464 0.05649186 -0.03753853 0.015587213 -0.037110098 -0.021364033 -0.041380607 -0.04114356
0.052355148 0.06486024 -0.04719611 0.110872366 0.06630141 0.113048896 0.028930139 0.10284985
0.031776007 0.09553989 -0.062149145 0.1270355 0.023376437 0.12772337 -0.03192624 -0.09450536
-0.10838787 -0.03180573 -0.039297063 0.08301149 0.11004305 0.03157894 -0.08263842 0.09863939
-0.1196315 -0.118945025 -0.08674111 0.099009044 -0.05328276 0.074672505 0.0836509 -0.030201158
0.12912269 -0.03302944 -0.0103515405 0.036880616 -0.07609845 0.11746756 -0.021891247 0.05005121
0.028455352 -0.088666156 0.06683618 -0.02919541 -0.124595575 -0.07169615 0.10678471 -0.03257616
-0.044896625 -0.10302761 -0.09841403 -0.13188687 0.12783307 -0.08321136 -0.036277704 -0.087374374
-0.03321987 0.1313953 -0.10951645 0.093002565 0.11804121 0.024309788 -0.033394635 -0.13237184
0.039318252 0.065102234 -0.06750202 -0.0137069905 0.08038362 -0.015677031 -0.0719648 -0.08774196
0.0456338 0.05612672 -0.13476828 -0.025378672 0.07743019 -0.062429257 0.046525445 0.09274191
-0.104605466 -0.10904664 -0.1386041 0.038149185 -0.029561656 -0.033500284 0.122750126 -0.110553764
0.13609524 -0.119144395 -0.13967519 -0.06850973 0.07763215 0.089851975 -0.05180833 0.120356984
-0.1419284 -0.007383418 0.05354058 0.077906914 -0.08737959 -0.0061085126 -0.08035215 0.11217041
-0.06732857 -0.086201385 -0.13101651 0.13743293 0.023732003 -0.076297775 0.0568936 -0.011408104

base.0.bias f4 [32]
00000000: 76b7 b636 c82b bb39 8dd1 3ab6 3394 b338
00000010: fcfb 0939 f439 06b9 1b88 97b8 7c90 2db9
00000020: b415 5b38 47e0 f039 7887 beb8 e81c 4939
00000030: 42ec 1fb9 1180 0fb9 8fee 75b9 4b1e 9db9
00000040: f697 c137 c641 9539 b5df 9e39 b842 d438
00000050: 4317 a138 c022 2c37 54cf 0fb9 8edc 7ab6
00000060: 7b83 2c39 6aee 26b9 62d0 d1b8 3b06 dbb8
00000070: 84ab 95b9 ffa4 9cb8 4f94 1a39 51de 12b9
5.4453803e-06 0.0003570004 -2.7838134e-06 8.5629894e-05 0.0001315921 -0.00012800825 -7.225593e-05 -0.0001655239
5.223388e-05 0.00045943467 -9.085139e-05 0.00019179622 -0.00015251435 -0.00013685251 -0.00023453891 -0.00029967944
2.3078155e-05 0.000284685 0.00030302783 0.00010121375 7.681411e-05 1.026009e-05 -0.00013714778 -3.7381283e-06
0.00016452179 -0.0001591981 -0.00010004711 -0.00010443894 -0.00028547284 -7.4693926e-05 0.00014741834 -0.00014006464

base.1.weight f4 [32]
00000000: 7812 7e3f b1db 803f 48de 7e3f d7cd 7f3f
00000010: fdd9 7d3f b491 7d3f 081b 803f 0ebf 803f
00000020: b41c 7e3f 126d 813f 26ef 7e3f fe8c 7f3f
00000030: 265d 7c3f 02b7 7d3f 8743 813f 65f4 7d3f
00000040: 80b8 803f 72dc 823f 050a 7f3f 26ff 7f3f
00000050: a7e9 7e3f 716b 7e3f 6f87 803f 173a 7d3f
00000060: 999b 7f3f fa51 7d3f 7f59 7e3f c900 7d3f
00000070: 7190 803f f2d0 7d3f 2d01 823f 27ee 803f
0.9924693 1.0067044 0.99557924 0.9992346 0.9916075 0.9905045 1.0008249 1.0058305
0.9926255 1.0111411 0.9958366 0.9982451 0.98579633 0.9910737 1.0098733 0.9920104
1.0056305 1.0223525 0.99624664 0.999987 0.99575275 0.9938269 1.0041331 0.98916763
0.998468 0.9895321 0.9935531 0.98829323 1.004408 0.9914695 1.0156609 1.0072678

base.1.bias f4 [32]
00000000: 0922 2fbb fb63 f83b c7d3 9a3b 9d33 003b
00000010: 4299 9139 7b85 193a c041 263b 8caf 6fbb
00000020: 3e9e 0fbb 3890 e43b c073 c33b b546 4f3b
00000030: 0818 e5bb 964b f4ba 1117 b83b c931 b138
00000040: 0d08 da3b dce4 c4b9 0b94 11bc 49cd cd3b
00000050: 8bce 88bb 37dc c33a 53f7 5c3a dccb 91bb
00000060: b1d9 13b9 17c4 cabb c41c b73a 0d62 38bc
00000070: 3159 1f3c 5f09 4cbb f88f b63b db73 c73a
-0.0026723167 0.007580278 0.004724953 0.0019562014 0.0002777074 0.0005856377 0.002536878 -0.003657314
-0.0021914388 0.0069752 0.005964726 0.0031627838 -0.00699139 -0.0018638249 0.005617984 8.449291e-05
0.0066537918 -0.00037554547 -0.008885394 0.0062805754 -0.0041750125 0.0014942948 0.0008429188 -0.0044493508
-0.00014100109 -0.0061879265 0.0013970365 -0.011253846 0.009725855 -0.0031133515 0.0055713616 0.0015217023

base.1.running_mean f4 [32]
00000000: 4f78 5abd 348c babd c110 573f 1cb2 13be
00000010: 423d eabe ed06 2abf 6a5b 4abe 86b9 393e
00000020: b190 913f ae1e ff3d a1c4 a83e bf7f 95bd
00000030: 8566 74bf 41ea 48be 92c2 1fbd 1052 843e
00000040: d783 f53d c42a 7d3e 700d 9abe a721 ae3e
00000050: c35d 1a3e cbd3 323f 4ccc 58bd e393 55be
00000060: 68d6 f2be d1ae d7bd caa4 8b3e 49a5 cebe
00000070: 3c3c 813d 997d 3c3f cee2 b0bd c68a 003e
-0.05333739 -0.09108773 0.8400994 -0.14423412 -0.4574986 -0.6641682 -0.19761434 0.18137178
1.1372281 0.124570236 0.32962516 -0.07299756 -0.9546893 -0.19620611 -0.039003916 0.2584386
0.11988037 0.24723345 -0.30088377 0.3401005 0.1507483 0.6985442 -0.052929208 -0.20857196
-0.47429204 -0.105313905 0.27274162 -0.40360478 0.06310317 0.73629147 -0.086370096 0.12552938

base.1.running_var f4 [32]
00000000: 501e 873b 6f49 d239 51e9 393c 397f 313b
00000010: 8a60 343b 76eb a13b 26b2 003b 0748 3e3a
00000020: cd7a 573c 5847 dd39 6e65 3b3b e6ca e83a
00000030: 7af6 2c3c d490 973a bd1e 2539 4e9c 243b
00000040: d624 1a3a 8d12 963a 4af2 0c3b 4273 b13a
00000050: fbbb 163a 4326 e93b aa92 073a 87a5 d33a
00000060: f744 473b c417 3d3a b11f 023b a8f4 643b
00000070: 81a8 3a3a 43c3 ba3b 3468 a43a 9522 ea3a
0.0041234866 0.00040109034 0.011347131 0.0027083887 0.0027523362 0.004941399 0.0019637435 0.0007258658
0.013151837 0.0004220556 0.0028594392 0.0017760664 0.0105568115 0.0011563548 0.00015747077 0.002511758
0.0005880123 0.001144962 0.002150672 0.0013538378 0.0005750057 0.007115157 0.0005171696 0.0016147353
0.0030406096 0.0007213319 0.0019855315 0.0034935866 0.0007120446 0.0056995465 0.0012543262 0.001786309

base.3.weight f4 [32, 32, 5, 5]
00000000: 65f5 e5bb fbb0 873c 3260 2bbd 4833 6bbb
00000010: c752 b43c ece7 a83b 6061 abbc b368 103b
00000020: f18b 86bc d99a ad3c 0e14 993c 3ee6 793c
00000030: b16b 02bd 2d53 743c e835 9cbc 25e2 40ba
00000040: 2122 003d be07 863c a65a 69bc a635 d1bc
00000050: 1249 b6bb 2be1 e13c d2a1 68bb 61cc cc3b
00000060: e729 e73c 0b0a 3cbc dd4b fabc 69be cd3c
00000070: ff61 16bd a2ab 253c 032d 613c e5f3 02bd
00000080: 3e65 5b3c 3c42 f83c 5c8b 7e3c 17dd d3bc
00000090: 515c cf3c f3b4 593b a11c d23a 05a9 79bc
000000a0: 95f2 eebc ed49 afbc eacf 683b 93f2 d73c
000000b0: b6bc e8bc 284c 97bc e097 d03c 11d0 bbbc
000000c0: 8f8f ba3c 1d6e dfbc 7690 d93c 63d4 88bc
000000d0: 2cda 19bc 42ec 79bc 59f3 d7bc 5f54 f8bc
000000e0: acbf ef3a 347a b73c 08dc 33bc 97e0 0b3c
000000f0: c49b a8bc 2fbb cf3b 1f14 003d 5b9e 073d
00000100: f674 a13c 2de6 e8bb 206a aabb 609f 1cbc
00000110: e578 bcbc cbed 18bd d386 693b 3b71 df3b
00000120: 39e7 8fbb 60ba d7bb fc61 643c c288 b8bc
00000130: 6214 93bc 9387 d43c aa1c 53bc c423 bd3c
00000140: dedd 91b9 1e3f 0fbd 759c eebc 455d 83bc
00000150: 2fd0 05bd 6f25 74bb 9c63 99bc 4df3 953c
00000160: 34b3 0bbd fe42 b8bc 5a84 4ebb 1a24 e0bc
00000170: a497 d8bc 2797 013d ce3f 613c c8f1 dcbc
00000180: f492 c839 df42 84bc 69b1 213c cd8e a63c
00000190: 545b 033d f08d 44bb 85e4 aa3b 2577 e83c
000001a0: b5f6 42bc 587d 0e3c ab68 ec3c c5f7 763c
000001b0: f2e1 0c3d 8cb8 cfbb 49e7 b33b 4429 abba
000001c0: c229 fdba 5184 273a 134e b73c ea21 f3bc
000001d0: 33e7 e4bc 9b13 353c 02e6 b33c 2c2e d8bc
000001e0: f61f 003d be31 fa3c e6b8 043c ac51 d33b
000001f0: 8575 233c 60ff 25bc 888f 71bb 571f cfbc
00000200: 32de ffbb 363f 80bc caca 9c3a 7ec5 443b
00000210: ad8d 033d 8a31 c3bc 9a47 7c3c fcb1 8b3c
00000220: 86d8 7e3b 54d5 8c3c 2c95 c3bc ffed e0bc
00000230: dc7c 9c3c 84dd 683c dcd5 d6bb e5fb 663c
00000240: 9c94 033c 2dfd 793c 1c36 a43b 6a2d f9bc
00000250: 1192 3fbb c73f 90bc 7d83 ce3c dcf0 c3bc
00000260: 5255 15bd 329e 8d3b 4823 dc3b 9b22 17bd
00000270: 1d2d 013d dbc5 9b3c 6540 a73b 9bc7 d2bc
00000280: b382 9e3c 280d a3bc c1a1 0dbd 3761 ac3b
00000290: dbe6 c03b c7f3 aabb 4832 d8b9 1843 59bc
000002a0: 3025 24bb 8589 ffbc 81c4 70bc 14f6 d2ba
000002b0: 3eb1 2e3c 36ef a63c 9fd9 08bc 90f1 cb3c
000002c0: 161c 873c e41c e8bb f713 043d 010b 433c
000002d0: 03a5 e9bc 7a08 c6bb 9e41 a2bb 6178 b93c
000002e0: b1dd 153b 63a7 9b3c 5533 6c3c 54f8 04bc
000002f0: e516 063c b44f 803c db70 52bc d49b 5b3c
00000300: a96f 14bc 04ef 8e3a cbec 8b3c d87b 283c
00000310: fd8c 8b3b d86e cc3c 634a 07bd 64f0 56bc
00000320: 6038 153d 29ba cf3c af3e c33c 4780 bf3c
00000330: 4444 fb3a 91d5 26bc a3ed ae3a 2d3f ef3c
00000340: ed53 e2bb 6c34 913c 1de9 dfbc 24a9 edbc
00000350: d316 f4bc 69a7 69bc 09ce 2fbc 490b 8b3c
00000360: 9043 4cbc 5805 883c 1780 553b 2262 8c3c
00000370: 7362 703c 4cdf f63c 2b53 153c f92b 413c
00000380: b1a9 04bd d1c6 96bc e30f f03b 2f94 5abc
00000390: 7559 ccbc 44b9 313c da59 ed3c e65f c83c
000003a0: 4ac8 74bc c3a4 1e3c 66f7 673c 11ea b6bc
000003b0: cde2 7fbc 37a5 0b3c 8d9a 003d 64d5 423b
000003c0: acde 8b3b cc20 ea3c 3287 593b ea0c 2dbb
000003d0: 47ab 0a3d 7882 0c3d 4121 ddbb 61b0 173d
000003e0: eef7 2f3d 2402 4bbc d790 ebbc bcd9 8abc
000003f0: d3cc eb3c 63a7 b13c e72e 74bc 64c5 15bc
-0.0070177787 0.016563883 -0.041839786 -0.003588872 0.022012128 0.0051546004 -0.020920455 0.0022035062
-0.016424151 0.021192001 0.01868632 0.015252648 -0.031840984 0.014912409 -0.019068673 -0.0007357917
0.031282548 0.016361114 -0.014242804 -0.025538277 -0.00556291 0.027573189 -0.0035496843 0.00624995
0.028218223 -0.011477004 -0.030553753 0.025115209 -0.03671455 0.010111721 0.013743642 -0.031970877
0.013390837 0.03030502 0.015536156 -0.02586226 0.025312575 0.0033219426 0.0016030261 -0.015238051
-0.029168407 -0.021397555 0.0035524317 0.026360786 -0.028410297 -0.018468931 0.025463045 -0.022926362
0.022773532 -0.027274186 0.026558142 -0.016702836 -0.009390395 -0.015254082 -0.026361154 -0.030313669
0.0018291376 0.022397138 -0.0109777525 0.008537433 -0.020582087 0.0063394527 0.03126919 0.033110004
0.019709092 -0.007107517 -0.0052006394 -0.009559482 -0.023006866 -0.037336152 0.003563334 0.006818918
-0.0043915776 -0.006583497 0.013939377 -0.022526149 -0.017954055 0.025943553 -0.012885252 0.023088343
-0.0002782186 -0.034972303 -0.029127339 -0.016035685 -0.032669242 -0.0037253757 -0.018724255 0.018304491
-0.03410645 -0.022492882 -0.0031511993 -0.027360965 -0.026439495 0.03163829 0.013748122 -0.026970759
0.0003825646 -0.016145168 0.009868958 0.020331765 0.03206952 -0.0029991828 0.00521523 0.028377125
-0.01189964 0.0086968765 0.028858503 0.015073721 0.034395166 -0.0063391384 0.005490218 -0.0013058563
-0.0019314813 0.0006390261 0.022376096 -0.029679257 -0.027942276 0.011052038 0.021960262 -0.026389204
0.03128048 0.030541297 0.008100724 0.006448945 0.009976749 -0.010131687 -0.0036859233 -0.025283499
-0.00780847 -0.015655141 0.0011962291 0.003002494 0.032117534 -0.023827333 0.0153979305 0.017052643
0.0038886382 0.017191567 -0.023874842 -0.027457235 0.019102506 0.01421297 -0.0065562557 0.014098142
0.008031037 0.015258116 0.005011333 -0.030417163 -0.002923135 -0.017608536 0.025209183 -0.023918562
-0.03645832 0.004321837 0.006718073 -0.036898237 0.031537164 0.019015243 0.005104112 -0.025729945
0.019349432 -0.019903734 -0.03457809 0.0052606123 0.005886895 -0.005217049 -0.00041236193 -0.013260625
-0.002504658 -0.031193504 -0.014695288 -0.0016095066 0.010662375 0.020377737 -0.008352666 0.02489546
0.016492885 -0.007083522 0.032245602 0.011904479 -0.028521067 -0.006043491 -0.00495167 0.022640409
0.0022867734 0.019000715 0.014416535 -0.008115847 0.008184169 0.015663005 -0.01284429 0.013403852
-0.009059825 0.0010904972 0.017080685 0.010283433 0.0042587505 0.024955198 -0.033029925 -0.013118837
0.036430717 0.025357323 0.0238336 0.023376597 0.0019170125 -0.010182754 0.0013345968 0.02920493
-0.0069069774 0.017725192 -0.027332837 -0.029011317 -0.02979604 -0.014261105 -0.010730275 0.016973155
-0.01246728 0.01660411 0.0032577568 0.017136637 0.01467191 0.030135773 0.009114067 0.011790269
-0.032388393 -0.01840535 0.0073261126 -0.013340994 -0.024945 0.010847393 0.028973509 0.02445979
-0.014940331 0.009682837 0.0141581055 -0.022328408 -0.015618038 0.008523277 0.03139739 0.0029729242
0.004268488 0.028580092 0.0033192155 -0.0026405402 0.03385475 0.034304112 -0.006748349 0.037033442
0.042961054 -0.012390647 -0.028755588 -0.016949527 0.028784191 0.021686262 -0.0149037605 -0.0091413

base.3.bias f4 [32]
00000000: f9e3 a936 a957 c236 e218 22b8 14d3 b136
00000010: 9892 acb7 31d5 99b7 d74f 0d38 18b1 d7b7
00000020: 8c63 9fb7 2f1a 1836 88e0 d6b6 eeb7 49b8
00000030: 6a04 4ab7 0a87 d2b4 d4f0 c7b7 6fbf dcb6
00000040: f961 8236 0625 2cb6 732e aa37 2a33 5338
00000050: 5e5c b737 73eb 8bb8 18ee b535 056d 9ab7
00000060: 1387 8c37 0c8f d837 a2df a737 c937 fdb7
00000070: 0ce2 1637 1ca2 5638 2769 b7b7 f6dc 70b7
5.063132e-06 5.7918555e-06 -3.8646984e-05 5.299584e-06 -2.057226e-05 -1.8338296e-05 3.3691376e-05 -2.5712463e-05
-1.9000632e-05 2.2665006e-06 -6.403836e-06 -4.8093432e-05 -1.2041166e-05 -3.9213802e-07 -2.3834793e-05 -6.5787967e-06
3.8857074e-06 -2.5651548e-06 2.0287209e-05 5.035397e-05 2.1858312e-05 -6.671892e-05 1.3554845e-06 -1.8408997e-05
1.67522e-05 2.5815818e-05 2.0012088e-05 -3.0185927e-05 8.993327e-06 5.1172552e-05 -2.1864265e-05 -1.4356561e-05

base.4.weight f4 [32]
00000000: 0d52 7e3f 519a 803f b921 7f3f 94ff 803f
00000010: 31cc 7f3f f98e 803f b323 803f 99c2 7f3f
00000020: 6313 7f3f b6b4 7f3f 8495 803f 86d7 7f3f
00000030: f26b 803f 9fac 7e3f 7604 7f3f 59b6 7f3f
00000040: 11ee 7e3f 273f 7f3f 7417 803f 08be 7d3f
00000050: 1bb6 7d3f 9d84 803f 2b0c 803f 7655 803f
00000060: a351 7c3f 7c06 803f 971e 803f 186c 803f
00000070: 743a 803f b6c8 7f3f f3b7 7d3f b18e 7f3f
0.9934395 1.0047094 0.9966083 1.0077996 0.99920946 1.0043632 1.0010895 0.9990631
0.99638957 0.9988512 1.0045629 0.9993824 1.0032942 0.9948215 0.9961618 0.99887615
0.9958201 0.9970574 1.0007157 0.9911809 0.99105996 1.004047 1.0003713 1.0026081
0.9856207 1.0001979 1.0009335 1.0032988 1.0017838 0.99915636 0.9910881 0.99827105

base.4.bias f4 [32]
00000000: 63cd 58bb 3751 36bb 844d 0abb d394 65ba
00000010: 61ef 11ba c2d9 1a3c 42a3 943b e45b 543b
00000020: c5cb c43b 6ea8 02bc bba9 e23a 1484 a7bb
00000030: 7b0e dc3b f83a 76bb 5fc7 76b9 637d d8bb
00000040: 38f0 eabb 8479 403a c892 043b e428 c6ba
00000050: d761 a3bb e56e 04bb 8e15 a3bb c4cb 22bb
00000060: b34d 8bbb c26a bbb9 1651 263c f74b 8ebb
00000070: 28a4 9eba d797 13bb 7f80 4f3b 9baf a53a
-0.0033081404 -0.0027819404 -0.0021103332 -0.0008757833 -0.0005566981 0.009451332 0.0045360634 0.0032403404
0.0060057365 -0.007974727 0.0017293015 -0.0051121805 0.0067155934 -0.003757177 -0.0002353466 -0.006606744
-0.0071697496 0.0007342326 0.002022909 -0.0015118388 -0.0049860287 -0.00202077 -0.0049769348 -0.0024840692
-0.004251206 -0.0003574696 0.010151168 -0.004342552 -0.0012103366 -0.0022520924 0.0031662283 0.0012640835

base.4.running_mean f4 [32]
00000000: 1055 c63c 6abc 113e 0b7e 563d e36f 1bbc
00000010: bf4d b5bc 7e24 fcbc dddf 87bc dc02 e33c
00000020: ad60 c53d ca64 cbbb 2eb0 2e3e e7f2 7bbd
00000030: 8f5d 9dbd ce5f 043d 615b 05be 5ada 4c3e
00000040: fd36 433e 3206 ed3d 8d2e 9c3b 74f0 0dbe
00000050: f940 c9bd 89e0 86bc 4550 873d 4603 953d
00000060: 5dbf f43d 290f 54bb 9327 c4bd 5195 d5bd
00000070: 049a c1bd 4479 f03d 7019 bdbd f5eb b93d
0.024210483 0.1423203 0.052366298 -0.009487125 -0.022131799 -0.03077912 -0.016586239 0.027711324
0.0963758 -0.0062070834 0.17059395 -0.061510947 -0.076838605 0.03231793 -0.1302314 0.2000517
0.19063945 0.11573447 0.0047662915 -0.13861257 -0.09826846 -0.016464489 0.06607107 0.07276015
0.11950562 -0.003235767 -0.09577861 -0.104288705 -0.09453204 0.117418796 -0.092333674 0.09078208

base.4.running_var f4 [32]
00000000: 4dd2 953d 1bcf 2e3d 3f0d 993d 7263 073d
00000010: 0b7c 753d 95ce e03d aed7 053d 8dad dc3d
00000020: 6ad5 8c3d e6a0 383d 168e ac3c 28a2 933d
00000030: 8b01 843d 8f1c 733d adc0 b93d ddc8 883d
00000040: 941f 913d 23ab 403d 8d67 4e3d 8258 a33d
00000050: 9d14 8a3d 0266 103d a0b4 023d c085 9d3d
00000060: adc5 0b3d 2c84 8c3d 6e0b aa3d f4e3 c73c
00000070: 1428 5e3d 18e9 343d f1f5 843d 4791 e13d
0.07315502 0.04267798 0.074732296 0.033053823 0.05993275 0.109769024 0.03267639 0.1077529
0.06876643 0.04507532 0.021063846 0.07208663 0.06445607 0.059353407 0.09069953 0.06678937
0.07086101 0.04703821 0.050391722 0.07975866 0.06742213 0.035253532 0.03191054 0.076915264
0.034124065 0.06861147 0.08302961 0.024400689 0.05423744 0.044167608 0.06492222 0.110140376

base.6.weight f4 [32, 32, 5, 5]
00000000: aea7 d13c f8e8 923c 69e2 b7bb ce0a e4bb
00000010: d7fe c6bc 15f3 37bc ff3e df3c 9278 ff3c
00000020: a2f5 bb3c dcc7 a93c 58a3 73bc 4b81 b33b
00000030: 8052 bebc c8e9 4eb9 a234 52bc 61da b3bc
00000040: d38a 043d a7d3 e838 a922 b53c ae66 f1bb
00000050: 89dd a93c 7151 1e3b 7bc4 9dbc 6e7b 0ebd
00000060: e171 10bd 0a62 e5bc 3427 58bb 5aca 413c
00000070: 097e 413c 5770 afbc 7e24 373c 4195 eb3a
00000080: 477b 21bc 7d9f 76bc 2636 553c f3e1 ad3c
00000090: 9c4c e83a 433c 15bd 5235 99bc 2b71 d5bb
000000a0: 3f59 92bc b2e9 c13c f4b6 02bd 3ed1 debc
000000b0: b9a2 ce3c 2581 593c 0810 b13c 66ef 8fbc
000000c0: f120 493c f59a 4a3c 9b3b 5ebc b21a d03c
000000d0: 3e29 2b3c d95f d8bb 2921 d93c 9e86 b3bc
000000e0: feef 1ebd 322d 9a3c 5cc4 d0bc 251e 333c
000000f0: 1643 b4bc 659e 62bc c3ff 9ebb 0afa 71bc
00000100: 7b63 cb3c 322b f23b e330 75ba e152 313c
00000110: a2fe 93bc bae8 6bbb 6734 10ba c7c4 24bc
00000120: 5d61 12bc a77b a4bc f850 413c 2525 91bc
00000130: d7df ebbc c203 28bc a457 023c a240 f6bc
00000140: 35e7 ddbc 2906 a33c 4c6e a4bc 6648 113d
00000150: 7171 e13b df7c 733c 25b2 a6bc bfb6 123c
00000160: d090 15bc fd47 933c 6694 8bbb b3c9 463c
00000170: dc97 22bd d9aa 22bb 2b7a f53b 9160 1b3c
00000180: d1e4 40ba 23c3 1fbc 783b 97bc 3ffe 7d3a
00000190: 02d8 66bc 7b04 ec3c 5fe3 39bd dbb1 c63c
000001a0: edfd e5bc 04b5 f7bb 4de3 523b 9cbf 5e3c
000001b0: 65f0 e43c df3b 98bb 1c2e b9bc faea bfbc
000001c0: 2100 893b ea66 99bc 2b65 a0bc 37de a8bc
000001d0: 49de 933b bae2 bd3b 1326 743c 5e4e 453a
000001e0: ffd4 933b f768 163c 5d69 2c3c 5e34 dbba
000001f0: 3ea5 0a3c b524 28bc 7758 5f3c c861 123d
00000200: 1603 95bc 2e52 3e3c 94e6 ccbb cd8c 913c
00000210: a6b4 4e3d a88d dcbb c5aa 00bd 32a9 c63b
00000220: 239f 273c e220 1e3d cf10 063d 2af6 dabb
00000230: 7a63 363c ebe2 b13b 0f48 0ebb 8b69 743c
00000240: bd1d e63c a47d a33b 2d2d df3c b819 f3bc
00000250: d5bc a4ba 584c 093c 9518 de3c 7dc5 c2bb
00000260: 2310 bd3c a20a 8a3c 22f0 97bc ff2b 813c
00000270: ec80 773a f590 23bd 5443 5ebc 5f72 f0bc
00000280: d125 413c 0f33 2537 81da 983b 8823 11ba
00000290: 546d 2dbb 81a9 79bc dde6 383c 46f0 1f3c
000002a0: cb8e 193c 0a45 ec3c 734d a93c 8ecc ac3c
000002b0: fe85 15bd 7dfe dcba ab1b 923c 2748 d7bc
000002c0: 030c bb3b 5fb9 6c3b 871a f6bc 2ceb 283d
000002d0: f0e7 8fbc 26fc 97bc a797 c73b 8e0b 8ebc
000002e0: b58f 63bc a4e8 6fbb c522 803c e200 903c
000002f0: f7f2 87bc 0a59 113d 3461 10bd 21f9 93bc
00000300: a60f 923c d3e3 0d3d 4b98 b9bc 04a5 883c
00000310: 8705 e33b 9a48 50bc d472 a43c fcaa a63c
00000320: 97c2 88bc 4cc6 bebc cf54 c43b 8a4f 2abc
00000330: 04e1 9abc df31 81bc da85 0abc 0647 d73c
00000340: 2166 303c f44e 123d 7af8 743c 5d2d f53c
00000350: 9bae 86bc e0f5 7abc 35ed 86bb 426e 73bc
00000360: 55f7 65bc 0f49 a4bc 86c5 d5bb 9a82 183d
00000370: 9d72 5ebc 3d63 54bc 484f 8b3c 2812 af3c
00000380: bb23 1e3d 9a7b 13bc 4e98 f43c 30e3 e6bc
00000390: 43da e8bc 8d8d 8cbb b34d a7bc 9814 e439
000003a0: cdc2 97bc d1e5 e33c 209b 9f3c e11e 17bc
000003b0: d6e9 003d 21fd 963c 4d45 563c 3f83 e93c
000003c0: 2fcd 973c 551e bebc 4359 2ebc 81f6 d23c
000003d0: 9102 103d 0e6d a53c 7038 44ba a52a 93bc
000003e0: 4eed e03c a3e3 873c 69e5 5a3c 3b64 f93b
000003f0: 6495 9dbc 34f9 ea3a 2c09 fcbc ef95 f8bb
0.025592651 0.017933354 -0.005611707 -0.006959296 -0.024291439 -0.011227389 0.027251719 0.031185422
0.022944275 0.020725183 -0.014870487 0.0054780594 -0.023232698 -0.00019732781 -0.012829931 -0.021954717
0.032358956 0.000111020454 0.022111254 -0.0073669767 0.020735519 0.002415743 -0.019258728 -0.03478568
-0.035264853 -0.02800085 -0.0032982351 0.0118280295 0.011809834 -0.021415872 0.011178134 0.0017973558
-0.009856052 -0.015052673 0.013013398 0.021225905 0.0017723027 -0.036434423 -0.018702183 -0.006513735
-0.017864821 0.023671005 -0.03191276 -0.027199384 0.025224077 0.013275419 0.02161409 -0.017570209
0.01227592 0.012366046 -0.013564016 0.025403354 0.010446845 -0.006603223 0.02650507 -0.021914776
-0.038803093 0.018820379 -0.025484256 0.01093248 -0.022004645 -0.0138317095 -0.0048522665 -0.014769087
0.02482771 0.007390403 -0.0009353293 0.0108229825 -0.018065754 -0.003599687 -0.00055009726 -0.010056681
-0.008934346 -0.020078493 0.01179909 -0.017717907 -0.028793259 -0.010254802 0.0079554655 -0.030060116
-0.027087787 0.019900398 -0.020072125 0.035469435 0.0068799783 0.014861315 -0.020348618 0.008954703
-0.009128764 0.017978663 -0.004259634 0.01213305 -0.039695606 -0.0024821071 0.00749137 0.009483472
-0.0007358315 -0.009751114 -0.018460974 0.00096890697 -0.014089586 0.02881073 -0.045382854 0.02425473
-0.028075183 -0.0075594205 0.003217894 0.013595488 0.02794666 -0.004645809 -0.022604994 -0.023427475
0.0041809236 -0.018725831 -0.01957949 -0.020613773 0.0045125824 0.00579485 0.014901656 0.0007526631
0.004511475 0.009180299 0.010523167 -0.0016723981 0.008462248 -0.010262658 0.0136319315 0.035737783
-0.018189948 0.011616273 -0.006253073 0.017767334 0.05046525 -0.006730754 -0.03141286 0.00606265
0.010230812 0.03860558 0.032730874 -0.006682177 0.0111321155 0.005428662 -0.002171043 0.0149177415
0.028090352 0.0049893428 0.027243221 -0.02967535 -0.0012568483 0.008380018 0.027111331 -0.0059439526
0.023078984 0.016850773 -0.018547121 0.01576805 0.0009441513 -0.039933164 -0.013565857 -0.029351411
0.011788801 9.846654e-06 0.0046647196 -0.00055366056 -0.002646287 -0.015238167 0.011285511 0.0097618755
0.009372423 0.028841514 0.020666813 0.021093633 -0.036504738 -0.0016860511 0.017835459 -0.026279522
0.005708219 0.0036121232 -0.030041946 0.041239902 -0.017566651 -0.018552851 0.0060910764 -0.017339494
-0.013889243 -0.003660717 0.01564158 0.017578546 -0.016595347 0.035485305 -0.03524895 -0.01806313
0.017829727 0.0346411 -0.022655627 0.016680248 0.006928149 -0.012712622 0.020074286 0.020345204
-0.01669435 -0.023287915 0.0059915553 -0.01039494 -0.018906124 -0.01577085 -0.008454764 0.026278984
0.010766537 0.035719827 0.01495182 0.029928857 -0.01644068 -0.01531741 -0.0041176328 -0.0148578305
-0.014036019 -0.020054368 -0.006523791 0.037233926 -0.013577131 -0.012963113 0.017005578 0.021370962
0.038608294 -0.009001637 0.02985778 -0.028184503 -0.028424388 -0.004289335 -0.020422792 0.00043502892
-0.018525505 0.027819546 0.019483149 -0.009223671 0.031473003 0.018431248 0.013078046 0.028504966
0.018530456 -0.023207823 -0.010641399 0.025752308 0.035158698 0.020193603 -0.00074852165 -0.01796467
0.027456906 0.016588038 0.01336036 0.0076108254 -0.019236274 0.0017927052 -0.030766092 -0.007586233

base.6.bias f4 [32]
00000000: d769 9232 c490 6d34 bf53 cfb7 bfce 9cb6
00000010: 7a08 2537 e591 1a36 0f6f fdb5 76a6 afb6
00000020: a9aa 0c37 9b47 da35 d73c 10b7 a4c1 d5b5
00000030: 78b8 ad36 defe 6fb7 6d7d 0b38 3042 97b6
00000040: 7bbc e936 20bf ffb6 85a3 8234 d6aa 4bb6
00000050: 5699 0136 664b 96b5 0039 8e37 117c 8736
00000060: 7e70 0137 67a4 d6b6 a0c6 8fb5 8e4e 52b7
00000070: b2e9 a736 5107 2538 3c72 d6b6 8282 9a36
1.7044767e-08 2.212501e-07 -2.471532e-05 -4.6732307e-06 9.83674e-06 2.303271e-06 -1.8882291e-06 -5.234785e-06
8.384385e-06 1.6263106e-06 -8.597234e-06 -1.5926094e-06 5.1772768e-06 -1.4304851e-05 3.3256994e-05 -4.507856e-06
6.965883e-06 -7.621842e-06 2.4333363e-07 -3.0348797e-06 1.9311751e-06 -1.1197815e-06 1.6954262e-05 4.0377568e-06
7.715191e-06 -6.396836e-06 -1.0712138e-06 -1.2535265e-05 5.0041936e-06 3.934588e-05 -6.3909956e-06 4.6047508e-06

base.7.weight f4 [32]
00000000: 0067 853f 954d 823f 2e88 853f 4730 853f
00000010: 3596 853f ddac 833f 6716 843f 6cdd 843f
00000020: 18a2 853f 6777 843f e436 853f d416 833f
00000030: 5b5c 853f 6431 863f d2e4 843f 0d08 863f
00000040: 394a 833f a879 833f ab1c 853f dc68 843f
00000050: 6ad9 833f 5889 843f d549 853f 042f 853f
00000060: 9ff7 853f 8b82 843f 07f4 863f 214e 853f
00000070: 8711 843f 23c8 843f e105 863f a7ee 843f
1.0422058 1.0179926 1.0432184 1.0405358 1.0436465 1.0287129 1.0319337 1.0380073
1.0440092 1.0348939 1.0407376 1.0241342 1.041881 1.0483823 1.038233 1.0471207
1.0257026 1.0271502 1.0399374 1.03445 1.0300725 1.0354414 1.0413157 1.0404973
1.0466193 1.0352339 1.0543221 1.0414468 1.0317849 1.0373577 1.0470544 1.0385331

base.7.bias f4 [32]
00000000: 629c 9e3c 27c3 943c 75b1 843c ca73 ba3c
00000010: b7ca 8c3c 3fc3 593c 00aa 5d3c 2f81 b93c
00000020: a189 af3c a027 ae3c 7f6b d43c 4421 a93c
00000030: 9124 a13c 5f07 ba3c 2036 683c f496 033d
00000040: 4cd7 483c 1413 a73c c2af 163d 74af 743c
00000050: 286a 7a3c 8de6 c63c 24b9 9f3c c16d 3d3c
00000060: 061a e53c 2eef 8e3c 092a 7b3c 2e05 1e3c
00000070: a662 b93a 4dbe 113c 88c7 043d 0913 a13c
0.019361679 0.018159462 0.0161979 0.02276029 0.017186506 0.013291179 0.013529301 0.022644607
0.021427931 0.021259129 0.025930164 0.020645745 0.019670757 0.022708593 0.014173061 0.032126382
0.012258362 0.02039484 0.03678871 0.014934409 0.015284099 0.024279857 0.019497462 0.011561812
0.02796651 0.017448034 0.015329846 0.00964479 0.0014143779 0.008895469 0.03241685 0.019662397

base.7.running_mean f4 [32]
00000000: cafc 9bbd 07ca 473e cb64 203d 4f7d ac3e
00000010: a368 a03e ee08 78bd 35bc 083e 96da 15be
00000020: 3eb2 21bd ecee 8c3d ddef b73e a943 b0be
00000030: fa0a 563e 858c 9b3e d047 7e3e f27d 983e
00000040: faaa 66be db98 3cbd b37c 6e3e 210d 0dbe
00000050: a528 5a3d 398a 9a3e b483 00be a12a 92bd
00000060: 8b94 983e b124 123d ca0b dd3d dc9f 743d
00000070: 2df4 5dbd c933 e93d 0186 e63d adef 18be
-0.07616575 0.19510661 0.039158624 0.33689353 0.3132983 -0.06055539 0.13353045 -0.14634165
-0.039476626 0.06881508 0.3592519 -0.3442662 0.20902625 0.30380645 0.24832082 0.2978359
-0.2252616 -0.04604421 0.23289756 -0.1377454 0.053261418 0.3018358 -0.12550241 -0.07137037
0.2980083 0.035679523 0.10793264 0.059722766 -0.054187942 0.1138683 0.11256028 -0.14935179

base.7.running_var f4 [32]
00000000: cd26 6a3d d641 3d3d 4254 cc3d e86b d83d
00000010: 9f6e 913d 8927 c43d 54b4 da3d 07f8 8e3d
00000020: 1ae0 2a3d 6f35 2b3d 7acc f83d 1f6d 2f3e
00000030: 27ce 753d d5aa 813d 09d1 983d 7cd5 9d3d
00000040: 38b2 ce3d c7a9 013e 2baa 983d 8286 663e
00000050: 41b3 b93d 55fe b13d 2d15 5a3d 45ef 423e
00000060: f747 cc3d 6fd6 c23d e9f2 c03d 7412 5e3d
00000070: 008b df3d f8f5 1b3e ba94 ea3d a474 cd3d
0.05716591 0.046205364 0.099770084 0.105674565 0.071011774 0.09577853 0.10678926 0.06980901
0.041717626 0.041799005 0.12148376 0.1713147 0.060011055 0.06331412 0.07461745 0.077067345
0.10092586 0.12662421 0.07454332 0.22512248 0.09067393 0.08691088 0.05324285 0.19036587
0.09974664 0.09513556 0.094213314 0.054216817 0.10915184 0.15230548 0.114541486 0.10032013

head.0.weight f4 [24, 1024]
00000000: 2cfa 583c 7fde 503c 2ee9 383c 53dd ec3b
00000010: 3e05 a13a fb03 82bb 1079 9b3b fe4c 75bc
00000020: 1957 6b3b 9232 e0bc 0d32 9d3b 2e66 1d3b
00000030: 1cd4 4c3c 758a 643c 929d 6e3c 0f0b 6a3c
00000040: d2fc 053d c8c0 ae3c 2cb5 77bc b684 603a
00000050: e4c2 673a 191d fa3c 45be aabb dd7b ac3c
00000060: 1f02 e2bc 351c 38bc b93d 04bd 883d 003c
00000070: 29ee 9a3b e795 e83c 7ad4 a03c ed3f 2abc
00000080: 07e2 13bb b7c2 34bb 4e75 42bb 8b63 01bc
00000090: 8fcd f5bb ea80 243c 900c 163c fae2 c13c
000000a0: 1814 093d bce9 19bc b698 053d f95d df3a
000000b0: 0963 b339 e507 baba b07c 0dba 6528 0fba
000000c0: c2b9 f63c 6448 993c f259 85bc 0540 c73c
000000d0: 29b8 da3c c767 72bc cd26 90bb 159f 0cbc
000000e0: 9cee a23c b098 10bd 0b53 acbc b126 c33c
000000f0: 16fc da3c 96ca c53c d734 91bc fa92 b8bc
00000100: c725 b23b f8a5 15bd 182c 9abb 1c88 06bd
00000110: 0874 c9bc 7465 16bd a3b9 303c fbfc 9e3c
00000120: bfc4 043a 43a9 aabc 5bc1 88bc e2f4 40bc
00000130: bac4 16bd ca37 c7bc 74d0 d8ba 5c3f 18bd
00000140: 24c1 85ba fbb8 03bb 15b4 19bb 5372 a5bb
00000150: 283c 90bb 2676 c8bb 3543 f83c 70e9 853b
00000160: 40f9 9b3b 7b6b 85bc 5277 b9bc 48d3 88bb
00000170: 3069 24bb 23c6 82bb eded 9aba 1e9b 58ba
00000180: a536 ac3c 92a2 153c aec0 64bc c6db 2dbb
00000190: 3895 a13c 19d9 b8b9 9752 023c 39f3 173d
000001a0: dbb8 2c3d 234c 893c dc42 57bb e39e 4bbc
000001b0: 1203 2cbc b721 e3ba a753 8fbc 0261 babc
000001c0: ed56 78bb c69c 9abb 7448 9dbb 1f20 8eba
000001d0: 6641 69bc 32af bf3b e686 e1bc b175 78bc
000001e0: 9880 be3b c17c d9bc 2b07 f7bb c127 a33a
000001f0: caa5 7b3a cb80 65bb aa9f d2ba 1c3d 2ebb
00000200: 62cb 1039 d371 883b 56c5 8d3b 0d94 083c
00000210: d683 c6bc 776c b43c 4a08 313c 0a8e f539
00000220: 1ca9 f63a f54d df3c dae4 55bc 825a f73c
00000230: 7de6 6a3b 769f 65bc f512 93bb 52ef 8aba
00000240: ffcc fbbc 8168 e03b d21d 03bd eba3 12bd
00000250: 0d61 2dbc 54bc 8abc 83d7 c1bc d8c6 003d
00000260: 8e62 af3b 8d6c 8d3c ef31 c43b 94f1 4bbc
00000270: 4835 28bc 40b6 90bb 7ca2 3cbd 8eb1 09bd
00000280: adb5 d63c d629 b13b 6491 543d 1dcc 503d
00000290: a169 0e3d f533 123d 88bb 8f3c af8b 073c
000002a0: fa41 873c 457f 383c 2c89 003d bbf5 0ebc
000002b0: a131 2f3d ef96 ea3c 95b3 81bb 2b6f 563d
000002c0: a90f c4ba c206 11bb db7a 7ebb aeff 85bb
000002d0: adfe 023b 69f2 ef3c a47d 303c 636f 29bc
000002e0: acaa 41bc 02d1 d3bc 960b d5bc 4d15 043c
000002f0: 23c9 89ba ef3a 5ab9 7fc3 34bb 71f4 8cba
00000300: a2e9 243b e942 ec3a 6696 ff3a ddf8 713a
00000310: 5733 d4ba 00a5 b8bb aa9e d43c 0cfb f33c
00000320: 5027 35bd 430c a33c 3039 7b3c 21e5 1c3a
00000330: 5e4d 823b 6e9c 653b 8f5c 413b caef 1d3b
00000340: 0add 9dbb 9905 4d3c df8b 5ebc 9cf7 913b
00000350: 3b46 ba3c 27ed 1b3d af33 c13b f2f2 063b
00000360: 6273 f1ba 488b 2d3b f770 ad3c 5eb2 3a3c
00000370: 7baa cabc 19c3 d4bc b824 c5bc 12e4 dc3b
00000380: 8210 7d3b c701 00bd fab0 a0bc a554 983c
00000390: da32 c4bb e8ad 093d f072 023d c3f0 133d
000003a0: 5690 023d 9976 1539 3bf1 65ba f26b 63bb
000003b0: c257 92bb bd6e 9c3c 5bdb 7abc d4cf 0bbd
000003c0: 16b2 303c e3ee 00bc b71d 71bc 81ba d8bb
000003d0: f5cd 0a3c 9ecb c339 f721 373c 8fc5 95bc
000003e0: 0077 d8bc d652 293a 16bb 7ebc b6c3 d9bc
000003f0: 790a 9d3c b1a6 27bc c466 bf3b c3c9 74bc
0.013243239 0.01274836 0.011286063 0.0072285323 0.0012284887 -0.0039677597 0.0047446564 -0.01497197
0.0035910069 -0.027367864 0.0047972263 0.0024017203 0.012501743 0.013949026 0.014563935 0.014284863
0.03271181 0.02133216 -0.015118878 0.00085646973 0.00088409916 0.030531453 -0.00521067 0.021055156
-0.027588902 -0.011237194 -0.032285426 0.00782717 0.004728098 0.028391792 0.019632567 -0.010391218
-0.0022565143 -0.002758188 -0.002967197 -0.007897268 -0.007501311 0.010040501 0.009158269 0.023667801
0.03346643 -0.0093941055 0.03261634 0.0017041556 0.00034215327 -0.0014193027 -0.0005397303 -0.00054610363
0.030117873 0.018711276 -0.01627824 0.02432252 0.026699143 -0.01479525 -0.0043991567 -0.00858285
0.019889168 -0.035301864 -0.021035692 0.02382216 0.026731532 0.024144452 -0.017725391 -0.022531021
0.0054366323 -0.036535233 -0.0047049634 -0.032844648 -0.02459146 -0.036717847 0.010786447 0.01940774
0.0005064718 -0.020832663 -0.016693762 -0.011777135 -0.036808707 -0.024318594 -0.0016541616 -0.0371698
-0.0010204655 -0.002009927 -0.0023453285 -0.005049029 -0.0044017024 -0.0061176 0.030305484 0.004086666
0.0047599375 -0.016286602 -0.022639904 -0.0041755773 -0.002508711 -0.003990905 -0.0011820175 -0.00082628604
0.02102215 0.009132998 -0.013961954 -0.00265287 0.019724473 -0.00035256965 0.007954261 0.03709719
0.04216848 0.016759938 -0.0032846248 -0.012428018 -0.010498779 -0.0017328773 -0.017495943 -0.022751335
-0.0037893609 -0.004718396 -0.004799897 -0.0010843313 -0.014236784 0.0058497423 -0.027530145 -0.015164779
0.0058136694 -0.026548745 -0.0075386963 0.0012447761 0.00095995946 -0.0035019394 -0.0016069312 -0.0026586717
0.00013808676 0.0041639595 0.004326503 0.008336079 -0.024232786 0.022024376 0.010805199 0.0004683587
0.0018818709 0.027258852 -0.013055051 0.030194525 0.0035842948 -0.014015069 -0.004488344 -0.0010599887
-0.030737398 0.0068483953 -0.03201086 -0.035800856 -0.010582221 -0.016935505 -0.023662334 0.031439632
0.005352325 0.017263675 0.005987398 -0.012447733 -0.0102666095 -0.004416257 -0.046053395 -0.033616595
0.026209677 0.0054065986 0.051896468 0.050975908 0.034768704 0.03569408 0.017545477 0.008273049
0.016510952 0.011260812 0.031380817 -0.008725579 0.04277194 0.028636424 -0.0039581754 0.05235211
-0.001495828 -0.0022129272 -0.0038830552 -0.0040893173 0.0019988224 0.029290395 0.010772143 -0.010341498
-0.0118204765 -0.025856499 -0.026006501 0.008061719 -0.0010512214 -0.00020812055 -0.0027582345 -0.0010754002
0.002516367 0.0018025312 0.0019499778 0.0009230504 -0.0016189617 -0.005634904 0.025954563 0.029782794
-0.044226944 0.019903308 0.015333459 0.00059850706 0.003976508 0.0035035866 0.0029504632 0.0024099224
-0.0048176097 0.012513542 -0.013583153 0.004454566 0.022738567 0.038067963 0.0058960537 0.0020591584
-0.0018421228 0.0026480723 0.02117203 0.011395065 -0.024739495 -0.025971936 -0.02406536 0.0067410553
0.0038614576 -0.031251695 -0.019615639 0.01859505 -0.0059875073 0.033613116 0.031847894 0.03611828
0.03187593 0.00014253928 -0.0008771603 -0.0034701792 -0.004466028 0.019095773 -0.0153110875 -0.034133747
0.0107846465 -0.007869455 -0.014716557 -0.00661403 0.008471956 0.00037345005 0.011177531 -0.01828268
-0.026423931 0.0006459182 -0.015547534 -0.02658258 0.019170033 -0.010232613 0.005841108 -0.014940682

head.0.bias f4 [24]
00000000: 8a04 c73c 399d 5d3c e639 863b 2d96 8bbc
00000010: 333e acbc 23b3 31bc 1e58 b2bb 02dd 9bbb
00000020: cd55 fe3c 046b a63b a979 b13c b3d4 bf3c
00000030: 277b af38 bf62 d23c 2a6f 3ebc 88a3 7639
00000040: 5630 4fbb 9ca8 063d 9c65 b43c d58a 7d3c
00000050: 3b41 e8ba 05aa 89bc 5679 053c 5623 13bc
0.024294157 0.013526254 0.0040962575 -0.017039383 -0.021025753 -0.010845932 -0.0054426333 -0.004756571
0.031046772 0.005078675 0.021664457 0.023416853 8.367589e-05 0.025681851 -0.011623183 0.00023521308
-0.0031614504 0.032875642 0.022021107 0.015474995 -0.0017719636 -0.016804704 0.0081466045 -0.008980593

head.2.weight f4 [2, 24]
00000000: 1fcb 12be 7404 803e 437a 00bb d794 b83d
00000010: d155 2abd c9ab 02be 4abd 1db9 003b 983b
00000020: a9c7 45be 8a73 453e 2199 edbd c25e 70be
00000030: 7d10 d8bc f0ba 493e 4968 d7bd a341 493e
00000040: 6920 bb3d 1918 3e3e a702 193e 72c8 603e
00000050: cb65 a63d fd34 113e 3656 8ebd 388d 173e
00000060: ae96 053e 7333 00be 3975 d63d e304 d4bd
00000070: 82c3 223e 9ad2 77be 26d4 32be 3552 01be
00000080: f8bd 3e3e 88ec 5cbe 2645 183e 5344 4b3e
00000090: 7d10 d83c 4a01 c23c a88a 093e 82d7 be3d
000000a0: dc47 53bd 7259 683c bc37 5ebe f0fc 143d
000000b0: f054 1f3e 17b0 f4bc 877f 523e b9f2 1dbd
-0.14335297 0.25003397 -0.0019604124 0.09012764 -0.041585747 -0.12760843 -0.00015043202 0.004645705
-0.19314446 0.19282356 -0.11601473 -0.23473647 -0.02637505 0.19700217 -0.10517938 0.19653945
0.09137041 0.1856388 0.14942418 0.21951464 0.08124884 0.1418037 -0.06950037 0.14799964
0.13045761 -0.12519626 0.10471577 -0.103524946 0.15894893 -0.24201432 -0.1746374 -0.12629016
0.18627155 -0.21574605 0.14870128 0.19850282 0.02637505 0.023682255 0.134318 0.093184486
-0.051582202 0.014181482 -0.21700948 0.036374032 0.15559745 -0.029869122 0.2055646 -0.038561556

head.2.bias f4 [2]
00000000: 156b 0e3e d24f 10bd
0.13908036 -0.035232373
