models/AC-RM-2 Q_LR=0.001 P_LR=5e-06 BATCH_SIZE=128 GAMMA=0.99 MEMORY_SIZE=150000_policy_3565.pt (torch, 319744 bytes, 22 tensors)

base.0.weight f4 [32, 2, 5, 5]
0.12505148 -0.120696746 -0.019107299 0.113028966 0.08894774 0.09947081 0.032198176 0.09662122
-0.021383421 -0.11473213 0.065365665 0.03551263 -0.05852285 -0.07710948 -0.044109978 -0.06360074
-0.07372423 0.10549358 0.03486884 -0.027529078 0.10190511 -0.09481004 -0.019628214 0.088228725
0.041798357 0.084285766 0.014099056 -0.035626072 -0.031109132 0.104134075 0.0067575607 0.013057134
0.05853773 -0.1002866 0.11683061 -0.000976702 0.055441696 0.07851399 -0.038876005 -0.04484497
0.11219632 0.13023503 -0.032060374 0.12016107 -0.06296429 0.022232905 -0.11174976 0.068128094
0.05956243 -0.05847495 0.09006115 -0.032291677 0.008371669 0.12737527 -0.012030688 -0.0069803847
0.016517712 -0.10546477 0.03228413 -0.018021893 0.07670151 0.019372635 -0.058878973 0.073812224
0.043606393 0.08097779 -0.12188988 -0.13514496 0.11958978 -0.059052777 0.12288069 0.05227307
0.11343696 0.01782425 0.11206763 0.0057565486 -0.07202474 -0.09114409 -0.104342505 -0.0081756385
0.11178151 0.13367131 0.08887321 0.084201366 -0.013104483 0.05210161 0.10776069 -0.034165032
0.08893636 0.05773227 -0.09822575 -0.057446007 0.01118294 -0.14183956 0.0768636 -0.10005568
0.06599396 -0.05863151 -0.06265801 0.012563268 -0.020214226 -0.09755372 -0.03273497 -0.029127343
0.0030695458 0.120836504 -0.12204249 0.032579985 0.027100693 0.0059358594 0.10319857 -0.09950819
-0.1271655 0.06252666 -0.07156836 0.0009500877 -0.107393034 -0.10344465 0.02028225 -0.042245455
0.09428535 -0.122506 -0.04215117 -0.008212052 -0.08686247 0.05147918 0.055302147 0.024130838
-0.040500395 -0.13763084 0.049585633 -0.12470292 0.076854534 0.045853943 0.06451532 -0.12387223
-0.13840546 -0.012780515 0.029095184 -0.109507054 -0.018198032 0.012534184 0.09877802 0.09064992
-0.04952689 -0.020773793 -0.14071348 0.003333672 0.1472135 0.1339222 -0.06677539 -0.11046441
-0.05350936 -0.04943728 -0.11036707 -0.12662442 -0.026370523 -0.01926661 -0.017221456 0.122413315
0.008825158 -0.08746061 -0.03738683 0.0957724 0.11504757 -0.0006410456 0.0646966 0.09286344
-0.08037628 -0.12705047 0.12090174 -0.018274684 0.058825683 0.12427627 0.10819299 -0.120178536
0.05811202 -0.09129166 0.11663365 0.023384303 -0.07377645 0.027957086 0.076324165 -0.13353907
-0.14200258 -0.0027964646 0.123170346 -0.10772329 0.025082825 0.054767013 0.0784986 0.08943561
0.0055437945 0.11986974 -0.032488227 0.12753293 -0.13115498 0.04122142 -0.02292733 -0.050069958
0.12885804 -0.10888984 0.06728468 -0.0042952048 -0.026775172 0.023590805 -0.12592271 -0.06962827
0.058211148 0.0603893 -0.021862501 -0.0752695 -0.061573498 -0.027343096 -0.12764661 0.081968
0.010680072 -0.021937214 -0.11019667 0.0426611 0.13368846 -0.06793983 0.039516803 0.062163483
-0.027917206 -0.11377393 0.09531234 -0.08598163 0.070415445 -0.10529381 0.033686843 -0.13630421
-0.068382084 -0.04710104 -0.07947727 0.015898293 -0.067392 0.08927321 -0.046252303 0.09656575
-0.13332655 -0.04870906 -0.114139386 0.069584854 0.12137372 0.124855325 0.07818671 0.09226396
0.08066993 0.028513586 0.09628598 0.062790476 0.018455923 0.058326025 0.008400653 0.13180932
00000000: 7f0d 003e db2f f7bd e986 9cbc bb7b e73d
00000010: 3c2a b63d 5ab7 cb3d 3ce2 033d 59e1 c53d
00000020: 492c afbc aef8 eabd 6fde 853d b175 113d
00000030: a8b5 6fbd 93eb 9dbd aaac 34bd 1b41 82bd
00000040: bbfc 96bd 050d d83d a1d2 0e3d a984 e1bc
00000050: a0b3 d03d c42b c2bd 59cb a0bc 43b1 b43d
00000060: c134 2b3d 049e ac3d baff 663c a5ec 11bd
00000070: 94d8 febc 3f44 d53d 876e dd3b 97ed 553c
00000080: 42c5 6f3d 1063 cdbd e344 ef3d ae04 80ba
00000090: d516 633d f1cb a03d 723c 1fbd 5caf 37bd
000000a0: 2fc7 e53d 555c 053e bd51 03bd 0217 f63d
000000b0: 6cf3 80bd c821 b63c 0fdd e4bd be86 8b3d
000000c0: bcf7 733d 6e83 6fbd fb71 b83d 4744 04bd
000000d0: 5329 093c aa6e 023e 5d1c 45bc b6bb e4bb
000000e0: 2750 873c eafd d7bd 5d3c 043d a6a2 93bc
000000f0: ae15 9d3d 5cb3 9e3c 142b 71bd dd2a 973d
00000100: 9e9c 323d afd7 a53d 67a1 f9bd 7163 0abe
00000110: 7deb f43d 53e1 71bd dfa8 fb3d 491c 563d
00000120: a351 e83d 2904 923c b783 e53d 6ea1 bc3b
00000130: b581 93bd c1a9 babd 86b1 d5bd 1df3 05bc
00000140: b4ed e43d 22e1 083e 2803 b63d c471 ac3d
00000150: 2fb4 56bc 7f68 553d a3b1 dc3d a2f0 0bbd
00000160: 4424 b63d ac78 6c3d 952a c9bd 814c 6bbd
00000170: a638 373c 643e 11be aa6a 9d3d fee9 ccbd
00000180: d727 873d 9827 70bd d852 80bd 2ad6 4d3c
00000190: 4e98 a5bc 3fca c7bd 1b15 06bd 779c eebc
000001a0: 6f2a 493b 2179 f73d 6af1 f9bd 9772 053d
000001b0: 4602 de3c 9981 c23b c659 d33d f3ca cbbd
000001c0: ac37 02be fa0d 803d 6f92 92bd 4e0f 793a
000001d0: e1f0 dbbd cada d3bd f626 a63c 9209 2dbd
000001e0: ad18 c13d 6de4 fabd b5a6 2cbd d88b 06bc
000001f0: f3e4 b1bd d5db 523d 8184 623d 09ae c53c
00000200: bee3 25bd 19ef 0cbe 4e1a 4b3d 3f64 ffbd
00000210: e965 9d3d 58d1 3b3d 9c20 843d b9b0 fdbd
00000220: 29ba 0dbe 5d65 51bc 0659 ee3c 3c45 e0bd
00000230: 0a14 95bc 2e5c 4d3c 214c ca3d aaa6 b93d
00000240: b5dc 4abd cd2d aabc 3217 10be bc79 5a3b
00000250: 23bf 163e e722 093e 89c1 88bd 2a3b e2bd
00000260: a12c 5bbd bf7e 4abd 2108 e2bd d5a9 01be
00000270: ff06 d8bc 02d5 9dbc 0314 8dbc d5b3 fa3d
00000280: 6597 103c 8c1e b3bd ef22 19bd 5224 c43d
00000290: 0f9e eb3d d80b 28ba a77f 843d 302f be3d
000002a0: 529c a4bd 8519 02be 559b f73d cab4 95bc
000002b0: 33f3 703d 8f84 fe3d 4994 dd3d 2a20 f6bd
000002c0: df06 6e3d 1ff7 babd a0dd ee3d 7090 bf3c
000002d0: 1b18 97bd 4206 e53c d84f 9c3d 77be 08be
000002e0: 2069 11be e444 37bb bc40 fc3d 079e dcbd
000002f0: 7f7a cd3c 6053 603d e0c3 a03d 042a b73d
00000300: b8a8 b53b 447e f53d 6012 05bd fe97 023e
00000310: 7e4d 06be cbd7 283d 19d2 bbbc 2816 4dbd
00000320: 5df3 033e a301 dfbd 8dcc 893d cabe 8cbb
00000330: 9b57 dbbc 8141 c13c e2f1 00be 4499 8ebd
00000340: d06e 6e3d c55a 773d fd18 b3bc e526 9abd
00000350: 7e34 7cbd a1fe dfbc cbb5 02be d7de a73d
00000360: 78fb 2e3c acb5 b3bc cbae e1bd 68bd 2e3d
00000370: a1e5 083e 0a24 8bbd 5fdc 213d 239f 7e3d
00000380: a0b2 e4bc 4e02 e9bd 1e33 c33d 2317 b0bd
00000390: f935 903d 48a4 d7bd 37fb 093d 5593 0bbe
000003a0: e80b 8cbd 05ed 40bd fbc4 a2bd 233d 823c
000003b0: d104 8abd dfd4 b63d 0e73 3dbd 44c4 c53d
000003c0: c186 08be 2783 47bd e9c1 e9bd 8182 8e3d
000003d0: c992 f83d 26b4 ff3d 5b20 a03d e3f4 bc3d
000003e0: 4736 a53d 5395 e93c 9531 c53d 4b98 803d
000003f0: e030 973c 45e7 6e3d e4a2 093c 06f9 063e

base.0.bias f4 [32]
0.00013935339 5.1076404e-05 0.00015330139 0.00033025528 -0.00014620548 0.00046719267 -0.0004081439 0.00023532912
1.769611e-05 0.0001257592 8.297324e-05 0.00033158244 -0.00027784958 0.00011263038 0.000101257756 0.00040163854
0.0008236405 -0.00013170241 -0.00023413288 -2.4680191e-06 0.0004014378 0.0002804225 0.00028145668 -0.00015065828
7.226811e-05 0.00012935621 4.536199e-05 0.00035162113 0.00038335496 -0.00012227778 -0.00018173594 2.1297987e-05
00000000: 641f 1239 df3a 5638 87bf 2039 1d26 ad39
00000010: bc4e 19b9 8af1 f439 26fc d5b9 aec2 7639
00000020: 1b72 9437 3ade 0339 eb01 ae38 3ed8 ad39
00000030: 57ac 91b9 fa33 ec38 585a d438 0393 d239
00000040: 94e9 573a 9919 0ab9 9181 75b9 3fa0 25b6
00000050: 1278 d239 ac05 9339 7a90 9339 06fa 1db9
00000060: a58e 9738 cba3 0739 1143 3e38 ca59 b839
00000070: 08fd c839 b137 00b9 5f90 3eb9 14a9 b237

base.1.weight f4 [32]
0.9992137 0.9994117 0.9974315 1.0046554 0.9939126 1.0148371 1.0021704 0.9974969
0.98936856 0.99778444 1.0054452 0.9959064 0.99113554 1.0062727 0.9957372 0.9889008
0.99504393 0.99931765 1.0052714 1.0118568 0.99675995 0.9902062 0.9947177 0.9953236
1.0038348 1.0017545 0.9878102 1.0013976 0.9952518 1.0219411 0.998499 0.9860993
00000000: 78cc 7f3f 72d9 7f3f ac57 7f3f 8c98 803f
00000010: 0e71 7e3f 2fe6 813f 1f47 803f f55b 7f3f
00000020: 4247 7d3f cd6e 7f3f 6eb2 803f b9f3 7e3f
00000030: 0fbb 7d3f 8bcd 803f a2e8 7e3f 9a28 7d3f
00000040: 33bb 7e3f 48d3 7f3f bcac 803f 8684 813f
00000050: a92b 7f3f 277e 7d3f d2a5 7e3f 87cd 7e3f
00000060: a97d 803f 7e39 803f 21e1 7c3f cc2d 803f
00000070: d2c8 7e3f f7ce 823f a19d 7f3f 0171 7c3f

base.1.bias f4 [32]
0.0022998394 0.0011523362 -0.0020007838 0.007986736 0.0050963513 0.004793324 0.003339398 0.0021584237
-0.003607187 -0.00018289563 0.00014060439 -0.0023382439 -0.0023753215 0.0036103309 0.0039508445 -0.004797384
0.00015573534 0.00464395 0.0030389936 0.009882498 -0.0006121531 -0.0032103586 -0.0013569109 -0.0035945522
0.0019403482 0.0013175728 -0.006689781 -0.00051907345 0.0022612968 0.007162611 -0.0015222768 -0.00810724
00000000: e7b8 163b fd09 973a 951f 03bb ccda 023c
00000010: 4bff a63b 5111 9d3b cdd9 5a3b 5774 0d3b
00000020: 8e66 6cbb acc7 3fb9 346f 1339 393d 19bb
00000030: 48ab 1bbb 4d9b 6c3b 1676 813b 6033 9dbb
00000040: e34c 2339 472c 983b da29 473b 33ea 213c
00000050: e678 20ba e164 52bb 60da b1ba 9492 6bbb
00000060: 4853 fe3a 68b2 ac3a f335 dbbb 6e12 08ba
00000070: 4432 143b 56b4 ea3b 2287 c7ba 3bd4 04bc

base.1.running_mean f4 [32]
0.80029935 0.5990064 -0.6598798 0.035439402 -0.21387453 0.029413642 0.2315481 -0.25183925
-0.24561419 0.32981676 0.15693621 0.1355203 0.22414358 0.08547767 0.4258417 0.7619814
0.018280772 0.8956708 0.20442198 0.1368995 -0.13701971 0.3237833 -0.38807198 -0.060079344
-0.11938185 -0.44780996 -0.2277728 -0.26201546 -0.542641 0.1505792 0.7892343 -0.5378183
00000000: 6be0 4c3f 7c58 193f e2ed 28bf e828 113d
00000010: ed01 5bbe e1f4 f03c f21a 6d3e 13f1 80be
00000020: 4982 7bbe bedd a83e e3b3 203e d5c5 0a3e
00000030: e585 653e eb0e af3d ec07 da3e 3711 433f
00000040: 8fc1 953c ae4a 653f ff53 513e 622f 0c3e
00000050: e54e 0cbe edc6 a53e 5fb1 c6be c215 76bd
00000060: 797e f4bd 5947 e5be 463d 69be e426 86be
00000070: 85ea 0abf 6f31 1a3e 420b 4a3f 76ae 09bf

base.1.running_var f4 [32]
0.0069173696 0.003977893 0.0062264465 0.0026438045 0.002292308 0.0003477737 0.0015127037 0.0041195927
0.0026731768 0.0010852864 0.000923229 0.0009537249 0.0013575255 0.001760273 0.00259466 0.008557516
0.00062565453 0.0080634495 0.0010668047 0.0005161134 0.0007793846 0.00266248 0.0040825508 0.0009325634
0.0019267745 0.0034896205 0.0011474144 0.002569232 0.0060517136 0.0013637803 0.008943204 0.0027851088
00000000: 1aab e23b fc58 823b 3807 cc3b ae43 2d3b
00000010: 8c3a 163b 6555 b639 ea45 c63a a6fd 863b
00000020: 7730 2f3b 2b40 8e3a d904 723a 6503 7a3a
00000030: ffee b13a f6b8 e63a 2c0b 2a3b d334 0c3c
00000040: f702 243a 8f1c 043c 07d4 8b3a c94b 073a
00000050: 9d4f 4c3a 017d 2e3b ebc6 853b 4577 743a
00000060: d38b fc3a 1eb2 643b d764 963a 8f60 283b
00000070: 744d c63b e0c0 b23a 8486 123c 5f86 363b

base.3.weight f4 [32, 32, 5, 5]
0.01467919 0.002538084 0.00010743281 -0.0140146315 0.032992195 0.03285142 -0.029315406 0.01204478
0.0028618225 0.037319217 -0.020031832 -0.023360942 -0.0064541083 -0.018442169 -0.022757003 -0.009770799
-0.001310999 0.0051296684 -0.02789176 -0.012060365 -0.00864153 0.0211012 0.033229798 0.012334822
0.03649649 0.021011868 0.0028839803 0.024359403 0.028704926 0.006907549 0.035546985 0.008405999
-0.0064202542 -0.035570182 -0.025545966 0.02645363 -0.009115418 -0.014126417 0.005783242 0.025778979
-0.013195365 0.0034199292 -0.01796622 0.011287647 0.024112543 -0.017824627 0.008951584 -0.018802714
0.03569676 0.027813848 -0.020588469 -0.035698112 0.020369343 0.020783411 0.0075576445 -0.00484237
0.027481489 0.03127394 0.022936096 0.026731877 -0.03424317 -0.012081392 -0.016734708 0.021238176
0.010254863 -0.01737495 -0.022413474 -0.014313908 -0.02276335 -0.01254837 0.017257055 -0.0025279613
0.007524268 -0.00827608 0.030759197 0.025562564 -0.004755109 -0.019156845 -0.009924832 0.010462033
0.019117428 0.026023347 -0.028534042 -0.013318808 0.027322384 0.008919131 0.026338568 0.017908048
0.010919185 -0.0087140035 0.030054973 -0.0057019712 0.025769658 -0.0149366055 -0.021748373 -0.011657792
0.017104719 0.032203965 0.0010520375 0.008073375 -0.025686398 -0.0022951649 -0.008897281 -0.020035582
0.02855093 -0.009989823 0.0087299505 -0.030752659 -0.017271927 0.015936738 -0.009283137 0.034806006
-0.023535408 -0.026848402 -0.015686374 -0.0056155915 0.0048569003 0.021409195 0.014845387 -0.008913265
0.010057428 0.020177953 -0.017865058 -0.035888474 0.024424622 -0.0014261376 0.0027810775 0.032069415
0.025299046 0.020677337 0.0419343 -0.017053131 -0.0051931553 -0.020688275 -0.0074743233 0.008158066
0.03272919 -0.0074800826 0.009487286 -0.012480381 -0.02231364 0.030299906 0.034155544 -0.01519308
0.028900992 0.033394437 0.01231077 0.006358172 0.03347799 0.02621005 0.022884626 0.033046465
-0.027891895 0.0041116835 -0.015459793 -0.013156934 0.021325314 0.021397457 0.009512963 -0.014365674
-0.011263213 -0.040713936 0.00014076139 0.04012186 -0.01662002 -0.025499351 -0.009924557 -0.024568943
0.011840859 0.018880242 -0.014126909 -0.010111317 -0.032763954 0.0025091658 0.02637156 -0.02146828
-0.0035054986 -0.03131281 0.013607839 -0.005243001 0.014232447 0.0007664437 -0.010444495 -0.011547524
0.016853198 0.008596676 -0.022781383 -0.009618137 -0.031200085 -0.022317018 0.037599254 0.0017973894
0.017500412 0.024713602 0.018848471 -0.027207455 -0.0037656773 0.029689532 -0.015040038 0.014111971
-0.015785491 -0.013353454 -0.025226459 -0.015630262 0.009137299 0.009412262 -0.021073807 0.0281525
-0.032641765 0.02328172 0.030924581 0.040934 0.01820474 0.0065528834 0.027300036 -0.01010524
0.025462402 0.014021964 0.023927227 0.0051324186 -0.0039317943 0.016538477 0.020191193 0.031406023
-0.025260119 0.01512309 0.024713269 -0.020870192 -0.0056792344 -0.019570403 0.0033838896 -0.035889104
-0.023381349 -0.029031273 -0.021479512 -0.031695914 0.0059733842 -0.019843135 0.017271172 -0.011357651
-0.027911367 -0.022901237 -0.021442257 0.013793691 0.015009667 0.002998346 0.0034011924 0.038868167
-0.0063478393 -0.020267487 0.025064709 0.011910037 -0.0016512688 -0.016452473 -0.016820889 -0.00060844014
00000000: fc80 703c fc55 263b 8d4d e138 a09d 65bc
00000010: d322 073d 368f 063d dd26 f0bc 7857 453c
00000020: 6a8d 3b3b 09dc 183d cc19 a4bc 725f bfbc
00000030: fc7c d3bb 0814 97bc e56c babc b415 20bc
00000040: d4d5 abba c716 a83b 437d e4bc d698 45bc
00000050: 3495 0dbc 6cdc ac3c f81b 083d fe17 4a3c
00000060: 587d 153d 1521 ac3c 2901 3d3b 5f8d c73c
00000070: 9826 eb3c b958 e23b b799 113d 51b9 093c
00000080: ff60 d2bb 0ab2 11bd c645 d1bc 48b5 d83c
00000090: d658 15bc 7d72 67bc 5a81 bd3b 702e d33c
000000a0: 5f31 58bc e420 603b e52d 93bc d3ef 383c
000000b0: ab87 c53c f404 92bc aaa9 123c 2608 9abc
000000c0: c436 123d ded9 e33c 26a9 a8bc 2f38 12bd
000000d0: 9cdd a63c f941 aa3c 1ea6 f73b beac 9ebb
000000e0: dc20 e13c 1a19 003d 7be4 bb3c cffc da3c
000000f0: 9142 0cbd 08f1 45bc 3a17 89bc affb ad3c
00000100: 0304 283c e955 8ebc 769c b7bc e284 6abc
00000110: 347a babc ae97 4dbc ab5e 8d3c 27ac 25bb
00000120: 228e f63b 6598 07bc b6fa fb3c 9568 d13c
00000130: bfd0 9bbb d1ee 9cbc c39b 22bc f268 2b3c
00000140: 279c 9c3c ea2e d53c 39c0 e9bc 2137 5abc
00000150: 31d3 df3c 8c21 123c fbc3 d73c e6b3 923c
00000160: 62e6 323c 2ec5 0ebc d935 f63c 9ad7 babb
00000170: e41a d33c aab8 74bc a529 b2bc 5300 3fbc
00000180: 321f 8c3c 4ee8 033d 85e4 893a 3046 043c
00000190: 486c d2bc 7a6a 16bb e7c5 11bc a921 a4bc
000001a0: a4e3 e93c 5bac 23bc 1108 0f3c 00ed fbbc
000001b0: db7d 8dbc c38d 823c 4c18 18bc be90 0e3d
000001c0: 54cd c0bc 2ef1 dbbc b680 80bc ff02 b8bb
000001d0: a226 9f3b 5662 af3c 113a 733c f108 12bc
000001e0: e9c7 243c 3c4c a53c be59 92bc cbff 12bd
000001f0: 2516 c83c 3ded baba bd42 363b 385b 033d
00000200: f23f cf3c 8563 a93c 4dc3 2b3d 02b3 8bbc
00000210: 582b aabb 757a a9bc 2beb f4bb 69a9 053c
00000220: 0b0f 063d 7b1b f5bb 9070 1b3c 837a 4cbc
00000230: 18cb b6bc 8237 f83c afe6 0b3d 65ec 78bc
00000240: c6c1 ec3c 9bc8 083d 1db3 493c 3658 d03b
00000250: 3820 093d 75b6 d63c 8a78 bb3c bb5b 073d
00000260: 8b7d e4bc 4dbb 863b 124b 7dbc 2e90 57bc
00000270: 6db2 ae3c b849 af3c 42dc 1b3c 015e 6bbc
00000280: 5789 38bc a8c3 26bd 5999 1339 d256 243d
00000290: b526 88bc 04e4 d0bc 9c9a 22bc cf44 c9bc
000002a0: 2a00 423c bdaa 9a3c 8d74 67bc f0a9 25bc
000002b0: 7f33 06bd d170 243b 2b09 d83c 3fde afbc
000002c0: 82bc 65bb dc41 00bd 6af3 5e3c 7bcd abbb
000002d0: 362f 693c 2beb 483a 631f 2bbc d331 3dbc
000002e0: b80f 8a3c 13d9 0c3c 06a0 babc 6495 1dbc
000002f0: 5297 ffbc 2ed2 b6bc ad01 1a3d 6196 eb3a
00000300: 065d 8f3c 2e74 ca3c 1c68 9a3c 2be2 debc
00000310: 95c9 76bb 7637 f33c 7e6a 76bc e535 673c
00000320: 9350 81bc 72c8 5abc b8a7 cebc 090b 80bc
00000330: 9cb4 153c e335 1a3c faa2 acbc 12a0 e63c
00000340: 5fb3 05bd 4eb9 be3c 8c55 fd3c 69aa 273d
00000350: 1b22 953c 92b9 d63b 53a4 df3c 7390 25bc
00000360: 8796 d03c 61bc 653c 0803 c43c d92d a83b
00000370: 48d6 80bb b37b 873c 0068 a53c 9aa3 003d
00000380: 4fee cebc d6c6 773c 7b73 ca3c f7f7 aabc
00000390: df18 babb 1c52 a0bc 3fc4 5d3b 7400 13bd
000003a0: 3e8a bfbc fed2 edbc cdf5 afbc 93d3 01bd
000003b0: 61bc c33b 128e a2bc 467c 8d3c 7115 3abc
000003c0: 61a6 e4bc 609b bbbc aca7 afbc effe 613c
000003d0: 1beb 753c e67f 443b 8ae6 5e3b 3a34 1f3d
000003e0: 8901 d0bb 0008 a6bc 8154 cd3c 5122 433c
000003f0: 636f d8ba 56c7 86bc f6cb 89bc ba7f 1fba

base.3.bias f4 [32]
-8.195428e-06 -3.1374584e-05 -0.00031011002 -0.00010261234 -5.7967067e-05 2.1099699e-05 -4.4655215e-05 -7.2699426e-05
-2.5055402e-05 -3.1238284e-05 -7.3396644e-05 -1.1536199e-05 -1.893514e-05 7.443799e-05 4.3619413e-05 -3.38964e-05
3.818762e-05 9.868187e-05 4.6609854e-05 6.912884e-05 1.9293962e-05 -6.281348e-05 9.715714e-05 -3.2975136e-06
4.066441e-05 1.3766027e-05 2.3462944e-05 -7.065374e-05 3.5407287e-05 1.7339744e-05 0.00014409932 -5.9426427e-05
00000000: 187f 09b7 3498 03b8 4396 a2b9 9531 d7b8
00000010: aa21 73b8 42ff b037 2c4c 3bb8 3576 98b8
00000020: 112e d2b7 da05 03b8 86ec 99b8 998b 41b7
00000030: e7d6 9eb7 971b 9c38 fdf3 3638 fb2b 0eb8
00000040: a52b 2038 6df3 ce38 f37e 4338 43f9 9038
00000050: 78d9 a137 bbba 83b8 d8c0 cb38 da4a 5db6
00000060: 148f 2a38 a3f4 6637 4ad2 c437 f02b 94b8
00000070: 4982 1438 d174 9137 5e19 1739 a440 79b8

base.4.weight f4 [32]
0.9989479 0.98270595 1.0038416 0.99568665 1.0104624 1.0110611 0.9947058 1.0022393
0.9918516 0.9959721 1.0161395 0.9982576 0.99117976 0.9955932 1.0044248 0.9917159
1.0165211 0.9970112 0.99780864 0.99449563 0.99670637 0.99286866 0.99314594 0.99740374
0.99809694 1.0013787 0.9986 1.0001771 1.0044541 0.98744977 0.99513376 0.99833107
00000000: 0dbb 7f3f 9e92 7b3f e27d 803f 52e5 7e3f
00000010: d556 813f 736a 813f 0aa5 7e3f 6149 803f
00000020: fde9 7d3f 07f8 7e3f dc10 823f cf8d 7f3f
00000030: f5bd 7d3f 32df 7e3f fe90 803f 18e1 7d3f
00000040: 5d1d 823f 203c 7f3f 6370 7f3f 4497 7e3f
00000050: 2628 7f3f a42c 7e3f d03e 7e3f da55 7f3f
00000060: 4883 7f3f 2d2d 803f 40a4 7f3f ce05 803f
00000070: f491 803f 82c9 7c3f 16c1 7e3f a092 7f3f

base.4.bias f4 [32]
-0.00655831 -0.015535456 0.0035657529 0.001623475 0.0074798367 0.003998758 -0.0040976782 0.0030706949
0.0028441465 -0.0053669955 0.0012000342 -0.002321979 -0.009904528 -0.009378593 0.0030058892 -0.0044563427
0.004691816 -0.003623306 -0.0033387314 0.00030040328 -0.003146917 0.0036628514 -0.0005681153 -0.00021222494
-0.005380341 -0.0017827306 -0.004866606 0.0011137628 -0.0042648655 -0.0022609043 0.00076220545 0.00807995
00000000: 17e7 d6bb 6d88 7ebc 68af 693b c8ca d43a
00000010: 6b19 f53b 0308 833b d145 86bb b63d 493b
00000020: dc64 3a3b 9fdd afbb 774a 9d3a 582c 18bb
00000030: 9a46 22bc aca8 19bc 74fe 443b 8306 92bb
00000040: cebd 993b fd74 6dbb 9ece 5abb 727f 9d39
00000050: 823c 4ebb 730c 703b 93ed 14ba b388 5eb9
00000060: 924d b0bb 83aa e9ba 0d78 9fbb aefb 913a
00000070: 49c0 8bbb ae2b 14bb bece 473a c461 043c

base.4.running_mean f4 [32]
0.13151467 -0.013581453 0.0010336973 -0.008258497 -0.029872622 -0.0072264974 0.056012116 -0.13099995
-0.20861906 -0.017999116 -0.17494354 -0.062951826 0.072637185 0.124791786 0.021859376 0.038070574
0.028163947 -0.1453315 0.11986712 -0.014394338 -0.12938632 0.03313977 -0.1002738 -0.10064371
-0.08760807 -0.050494604 -0.06903946 0.21841884 -0.17313945 -0.038181003 -0.03638639 -0.04261282
00000000: c8ab 063e be84 5ebc 207d 873a a64e 07bc
00000010: 6eb7 f4bc 41cc ecbb f66c 653d da24 06be
00000020: 3ca0 55be e272 93bc 6624 33be e3ec 80bd
00000030: cec2 943d d692 ff3d 6f12 b33c e4ef 1b3d
00000040: 14b8 e63c c8d1 14be e57c f53d 3bd6 6bbc
00000050: d97d 04be 91bd 073d 5a5c cdbd 4a1e cebd
00000060: dc6b b3bd 6ed3 4ebd 8f64 8dbd 30a9 5f3e
00000070: 784b 31be af63 1cbd e509 15bd c88a 2ebd

base.4.running_var f4 [32]
0.02903993 0.09418576 0.043742765 0.06751617 0.043227796 0.019402 0.09607545 0.041535567
0.18209435 0.122536406 0.016577957 0.046021912 0.17244059 0.055127602 0.027494589 0.09737939
0.032823633 0.1350906 0.06740206 0.04505132 0.04889276 0.036764335 0.10310248 0.09109976
0.07640251 0.053412642 0.06890945 0.046156917 0.039067842 0.12529677 0.08012953 0.07031618
00000000: 26e5 ed3c 77e4 c03d 9d2b 333d eb45 8a3d
00000010: a10f 313d f1f0 9e3c 35c3 c43d 3321 2a3d
00000020: f176 3a3e 5ef4 fa3d 7fce 873c 7981 3c3d
00000030: 4494 303e 7bcd 613d 553c e13c d86e c73d
00000040: 1372 063d 3155 0a3e 170a 8a3d bc87 383d
00000050: c643 483d 3396 163d 6527 d33d 8392 ba3d
00000060: eb78 9c3d 37c7 5a3d 6620 8d3d 090f 3d3d
00000070: 9a05 203d cc4d 003e f31a a43d ee01 903d

base.6.weight f4 [32, 32, 5, 5]
-0.009110585 0.02339516 -0.02876867 0.014762115 0.01684006 -0.033064745 0.01589463 -0.012789184
0.0015334724 -0.008335597 0.029461525 0.011537098 -0.012743166 -0.024381015 -0.027251739 -0.02382059
-0.03575892 -0.021649683 -0.019054165 0.0074266815 -0.013049871 -0.016936928 -0.004404474 0.026775891
0.012617912 0.02416102 -0.022274628 0.018295493 -0.036779955 -0.01863292 0.030569544 0.0091915475
0.020449271 0.012978901 0.031779595 0.029282864 0.0030544258 0.018699206 -0.009651035 0.020140357
-0.012947437 0.008250427 -0.019198302 0.0048680278 0.023434598 0.019145621 -0.024293344 0.007329238
-0.014568314 -0.010697242 -0.023633692 -0.016724313 -0.012142875 0.03201176 0.016997132 -0.0159214
0.021104407 -0.036657933 -0.009677678 -0.009968694 0.00263436 0.0026984091 -0.036043294 -0.022228954
0.019796258 -0.011924028 -0.019747099 -0.012899389 0.00021918704 0.00319148 0.022347007 0.034955546
0.026829856 0.0030942997 0.016896747 -0.019306429 -0.02199991 -0.027891913 0.0018019954 -0.021985175
0.02519269 -0.008835418 -0.012620816 0.0024198662 0.0001394985 0.022065613 0.03299497 -0.0010956619
0.020969141 -0.019707067 -0.01081775 -0.033873085 -0.029572375 -0.0049808463 -0.0077078366 0.035129987
0.026573235 0.023408463 0.021234838 0.022846803 -0.0053408616 0.020008406 -0.008551404 -0.0028160755
0.008262184 -0.017414428 0.006359071 -0.023762107 0.01592143 -0.0029666724 0.046328135 0.019896701
0.014289012 -0.0053156987 -0.013156806 0.040047 0.027070962 -0.009824159 0.029361518 0.026554551
0.027313191 0.029060448 -0.004984679 -0.003008476 -0.02336308 -0.03702871 0.0001928937 0.02712697
0.037612528 0.00023671852 0.010520839 -0.013759442 0.034490444 0.017932616 -0.0049291938 0.011032848
0.02827142 0.031582043 0.038536042 -0.014172419 0.0026473876 -0.013536234 -0.022800732 0.0143514015
0.010448523 0.011898336 -0.021848021 0.0048762383 -0.025095161 0.041751422 0.01991861 -0.011792685
-0.02036884 0.0021201782 -0.0073583284 -0.011721702 -0.0177792 -0.014928309 -0.0097586755 0.009067197
-0.034760896 0.009221209 0.013698329 -0.008045337 -0.005434971 -0.019649265 0.036316965 -0.02843223
0.025740616 -0.021025592 -0.0047842115 0.016473373 -0.012381514 0.027324298 0.0069103916 0.012327956
-0.027485289 -0.009130174 -0.004547465 -0.00018927969 -0.039505754 0.001079604 0.0066667586 -0.02291064
-0.038784668 -0.0042455723 0.00013403363 -0.022717232 -0.016991712 -0.018683253 0.024404367 -0.039569438
0.0039261673 -0.011599129 0.0048638787 -0.0057957433 0.029223701 -0.022832027 -0.032184575 0.01788701
0.027626209 0.0022194427 -0.007465276 -0.029335946 0.018784294 0.0049672346 -0.029241258 -0.030939532
0.020533912 -0.029310688 0.0073495954 -0.013095275 0.013542911 0.018190779 -0.020165335 -0.01987359
0.033939134 0.027460115 -0.014937559 0.010704597 -0.025535002 0.017553193 0.02523984 -0.00331329
0.021461723 -0.02189796 -0.023389459 -0.012567711 0.012045262 -0.023328424 -0.003263271 -0.009533221
-0.036052067 0.021681 0.03224296 0.01970478 -0.010689328 0.009394975 -0.037795726 0.0089513
0.041112393 -0.016030135 -0.015799502 -0.024227137 -0.0088800425 0.004103497 0.01734901 -0.018071517
0.020849902 0.0046138926 0.012225694 -0.017994622 0.0034015817 0.025126416 0.012772862 0.0074382788
00000000: 9044 15bc 35a7 bf3c 46ac ebbc ccdc 713c
00000010: 2af4 893c e66e 07bd 7535 823c ba89 51bc
00000020: ccfe c83a 0792 08bc 4c59 f13c 1906 3d3c
00000030: b6c8 50bc b2ba c7bc 0a3f dfbc 6623 c3bc
00000040: f277 12bd ad5a b1bc 7b17 9cbc 855b f33b
00000050: 20cf 55bc 50bf 8abc 6853 90bb 1d59 db3c
00000060: 5cbb 4e3c 55ed c53c 4879 b6bc 6ee0 953c
00000070: 94a6 16bd 11a4 98bc fb6c fa3c 2598 163c
00000080: 3b85 a73c 75a5 543c 522b 023d 9ee2 ef3c
00000090: c32c 483b 142f 993c 601f 1ebc 64fd a43c
000000a0: 7d21 54bc cd2c 073c c245 9dbc fa83 9f3b
000000b0: eaf9 bf3c 47d7 9c3c d602 c7bc 1b2a f03b
000000c0: f0af 6ebc 7c43 2fbc 729b c1bc 6d01 89bc
000000d0: e9f2 46bc c31e 033d 923d 8b3c 996d 82bc
000000e0: 26e3 ac3c a126 16bd 208f 1ebc bc53 23bc
000000f0: 3aa5 2c3b cbd7 303b 22a2 13bd 7f19 b6bc
00000100: c32b a23c 005d 43bc abc4 a1bc f557 53bc
00000110: 93d5 6539 2628 513b 1211 b73c 8c2d 0f3d
00000120: 49ca db3c bcc9 4a3b 0c6b 8a3c 8428 9ebc
00000130: 2839 b4bc 957d e4bc ef30 ec3a 411a b4bc
00000140: e660 ce3c 6ec2 10bc 8ac7 4ebc 9e96 1e3b
00000150: 5846 1239 f2c2 b43c bc25 073d 509c 8fba
00000160: 7ac7 ab3c b770 a1bc ef3c 31bc 81be 0abd
00000170: c441 f2bc 5e36 a3bb 0592 fcbb 76e4 0f3d
00000180: 1db0 d93c 1bc3 bf3c aff4 ad3c 3829 bb3c
00000190: 6502 afbb abe8 a33c 301b 0cbc e88d 38bb
000001a0: 1d5e 073c b4a8 8ebc c15f d03b c0a8 c2bc
000001b0: a96d 823c 816c 42bb 92c2 3d3d 68fe a23c
000001c0: 761c 6a3c 502f aebb a58f 57bc 5308 243d
000001d0: ecc3 dd3c 82f5 20bc 9187 f03c ee88 d93c
000001e0: eabf df3c 2d10 ee3c 8556 a3bb da29 45bb
000001f0: ee63 bfbc 6bab 17bd 8243 4a39 6139 de3c
00000200: 980f 1a3d a537 7839 995f 2c3c 486f 61bc
00000210: da45 0d3d 6ce7 923c 1385 a1bb 1ec3 343c
00000220: 7799 e73c 2c5c 013d f8d7 1d3d 6f33 68bc
00000230: cb7f 2d3b 15c7 5dbc 9ac8 babc 2422 6b3c
00000240: 4830 2b3c 3df1 423c 9ffa b2bc dac8 9f3b
00000250: 5e94 cdbc 8a03 2b3d 5a2c a33c 1b36 41bc
00000260: 8edc a6bc b0f2 0a3b 221e f1bb 620c 40bc
00000270: afa5 91bc de95 74bc dae2 1fbc 958e 143c
00000280: 7161 0ebd 8e14 173c f56e 603c 97d0 03bc
00000290: d717 b2bb 7ff7 a0bc 19c1 143d b5ea e8bc
000002a0: fcdd d23c dd3d acbc e0c4 9cbb 2bf3 863c
000002b0: d5db 4abc 35d7 df3c 9170 e23b 32fb 493c
000002c0: d428 e1bc ba96 15bc e702 95bb 6179 46b9
000002d0: c9d0 21bd 8081 8d3a d374 da3b 18af bbbc
000002e0: acdc 1ebd 711e 8bbb 618b 0c39 7d19 babc
000002f0: 3432 8bbc 9f0d 99bc abeb c73c 9013 22bd
00000300: 14a7 803b 460a 3ebc 2c61 9f3b 38ea bdbb
00000310: 8b66 ef3c 3b0a bbbc f9d3 03bd c787 923c
00000320: 5c50 e23c 1274 113b 469f f4bb f051 f0bc
00000330: 85e1 993c 2fc4 a23b 5d8b efbc e774 fdbc
00000340: bc36 a83c f81c f0bc e0d4 f03b 908d 56bc
00000350: 16e3 5d3c d404 953c c631 a5bc f0cd a2bc
00000360: c303 0b3d 09f4 e03c aabc 74bc 5662 2f3c
00000370: c82e d1bc b7cb 8f3c c8c3 ce3c c823 59bb
00000380: 7fd0 af3c 5a63 b3bc 409b bfbc cde8 4dbc
00000390: 7e59 453c 401b bfbc 9adc 55bb 3a31 1cbc
000003a0: 55ab 13bd 5a9c b13c 3211 043d eb6b a13c
000003b0: 4b22 2fbc 62ed 193c b1cf 1abd 79a8 123c
000003c0: 7865 283d a151 83bc f56d 81bc fd77 c6bc
000003d0: 997d 11bc a176 863b 831f 8e3c b80a 94bc
000003e0: 6acd aa3c 2330 973b 474e 483c 7569 93bc
000003f0: 12ed 5e3b ead5 cd3c 4445 513c cebc f33b

base.6.bias f4 [32]
-3.4301032e-05 -6.0141258e-05 -0.00010896336 1.9204881e-05 -1.669897e-05 -1.8615821e-05 4.0789982e-05 6.515951e-05
-1.16919e-06 4.138096e-06 -9.361669e-05 1.09470975e-05 1.1538295e-06 5.0283856e-05 -3.8516123e-06 3.5379762e-06
2.1367592e-05 2.9144054e-05 2.1458657e-06 1.07362275e-05 -7.0311864e-05 2.5759458e-05 3.0275653e-05 6.894551e-05
-4.9180653e-06 -2.346619e-05 -2.232004e-06 -1.4377352e-05 -4.516332e-05 -3.938374e-05 -6.5478553e-06 -5.9983954e-06
00000000: 74de 0fb8 2f40 7cb8 4283 e4b8 2b1a a137
00000010: c414 8cb7 2c29 9cb7 e915 2b38 3fa6 8838
00000020: 10ed 9cb5 f9d9 8a36 1454 c4b8 6da9 3737
00000030: 48dd 9a35 e1e7 5238 193d 81b6 f86d 6d36
00000040: 8e3e b337 617a f437 b101 1036 bf1f 3437
00000050: 6574 93b8 0416 d837 78f8 fd37 d796 9038
00000060: dc05 a5b6 42d9 c4b7 89c9 15b6 4236 71b7
00000070: bf6d 3db8 f82f 25b8 a6b5 dbb6 d345 c9b6

base.7.weight f4 [32]
1.0386969 1.0328345 1.0569028 1.0458086 1.0247216 1.0261776 1.0364566 1.0252289
1.0535443 1.0548773 1.0372889 1.0266043 1.0260819 1.0343043 1.0387435 1.0467963
1.035584 1.0576539 1.0355021 1.0342876 1.0241743 1.0450623 1.028773 1.058734
1.0486206 1.0459716 1.044831 1.0258027 1.0589768 1.0397838 1.0295994 1.0413772
00000000: 05f4 843f ec33 843f 9748 873f 0edd 853f
00000010: 142a 833f ca59 833f 9caa 843f b33a 833f
00000020: 8ada 863f 3806 873f e2c5 843f c567 833f
00000030: a756 833f 1564 843f 8cf5 843f 6cfd 853f
00000040: 048e 843f 3461 873f 558b 843f 8963 843f
00000050: 2518 833f 9ac4 853f d5ae 833f 9984 873f
00000060: 3339 863f 66e2 853f 06bd 853f 814d 833f
00000070: 8d8c 873f a317 853f eac9 833f d94b 853f

base.7.bias f4 [32]
0.012069529 0.008962982 0.024349207 0.021538228 0.009309986 0.020095356 0.021659832 0.016944423
0.030370105 0.026025187 0.01371082 0.018191887 0.009854464 0.008043573 0.02977225 0.02809419
0.01233654 0.019729063 0.01973338 0.015030854 0.012823225 0.013829546 0.018113509 0.024890529
0.033900842 0.015488432 0.029622125 0.0061233505 0.014260093 0.024571111 0.008100374 0.019979667
00000000: 46bf 453c 79d9 123c fd77 c73c f070 b03c
00000010: e988 183c 049f a43c f66f b13c 08cf 8a3c
00000020: baca f83c c632 d53c 59a3 603c 2707 953c
00000030: 9e74 213c 31c9 033c efe4 f33c c925 e63c
00000040: 331f 4a3c d89e a13c e6a7 a13c f943 763c
00000050: 8118 523c 5295 623c c862 943c 39e7 cb3c
00000060: 9cdb 0a3d 31c3 7d3c 19aa f23c 63a6 c83b
00000070: 2aa3 693c 5b49 c93c 6eb7 043c 66ac a33c

base.7.running_mean f4 [32]
-0.05699462 0.33112493 0.026528986 0.020802887 -0.058806468 0.10611781 0.056700464 0.13990991
0.18772799 -0.008586931 -0.15036279 0.035506546 0.1491935 -0.084979765 0.11617382 0.016228253
0.038309168 0.04982303 0.056908246 -0.051478375 -0.09647519 0.17037235 0.32522675 0.25928557
0.1985247 -0.03331784 0.08803805 -0.027671317 -0.19645125 0.1182298 0.027556542 0.07023293
00000000: 3173 69bd 3589 a93e 5153 d93c d16a aa3c
00000010: 0ddf 70bd 4b54 d93d bf3e 683d 8b44 0f3e
00000020: c43b 403e 33b0 0cbc b4f8 19be 506f 113d
00000030: 2ec6 183e df09 aebd 8aec ed3d 1df1 843c
00000040: 13ea 1c3d 3c13 4c3d 9f18 693d fdda 52bd
00000050: c994 c5bd 1776 2e3e 1f84 a63e 14c1 843e
00000060: 0f4a 4b3e 4a78 08bd 4b4d b43d f5ae e2bc
00000070: 842a 49be 7722 f23d 42be e13c 48d6 8f3d

base.7.running_var f4 [32]
0.046024017 0.11210071 0.066513166 0.0733831 0.051084206 0.11471636 0.08482513 0.1165335
0.05133961 0.029955262 0.07102164 0.09227502 0.076482944 0.077579185 0.08315384 0.10722632
0.050231855 0.089154825 0.11832901 0.062062126 0.06305203 0.03932667 0.082300104 0.09801424
0.04360176 0.06423232 0.058848675 0.055130374 0.05202025 0.051115453 0.07997182 0.11959484
00000000: ae83 3c3d 0f95 e53d 0e38 883d e149 963d
00000010: ac3d 513d 69f0 ea3d ccb8 ad3d 1ea9 ee3d
00000020: 7c49 523d bd64 f53c cb73 913d b0fa bc3d
00000030: 17a3 9c3d d6e1 9e3d 8f4c aa3d 7999 db3d
00000040: ebbf 4d3d ce96 b63d 7b56 f23d db34 7e3d
00000050: 6c21 813d 0115 213d f58c a83d b1bb c83d
00000060: c297 323d 3c8c 833d 4f0b 713d 63d0 613d
00000070: 3013 553d 705e 513d 44c8 a33d 24ee f43d

head.0.weight f4 [24, 1024]
0.025791043 0.02587045 0.033041384 0.02610979 0.025449127 0.006899935 0.034952864 -0.02752389
-0.008051201 0.033180945 0.012464936 0.011711522 0.015028636 0.02580885 0.025787305 0.045737237
-2.1017e-41 -2.1017e-41 -0.0001605432 -0.0015634808 -0.003588866 0.02850148 0.017657552 -0.041480634
0.025238609 0.03302157 -0.0005059081 0.0024741068 -0.00069140416 -2.1017e-41 -2.1017e-41 -2.1017e-41
-9.814561e-07 -9.814561e-07 -9.814561e-07 -7.97041e-07 -0.0026105046 -0.007064597 -0.0023224247 0.02638689
0.0005010491 0.014261772 0.0052143373 0.0038565055 -9.814561e-07 -9.814561e-07 -9.814561e-07 -9.814561e-07
0.045763254 0.013901585 0.0030959258 0.00906096 0.04537618 -0.011266588 -0.021239325 0.030846132
0.014889565 0.0108611155 0.0068780757 0.010569795 0.023923406 0.015130373 0.026162088 0.050675422
0.026353018 0.03639447 0.036004048 0.03412244 0.016985634 0.025405053 0.004103583 0.015908465
-0.029147033 -0.017930035 0.030391868 0.017665857 0.034618467 0.03918637 0.041090034 0.014146471
0.01685308 0.01682379 0.017462455 0.013455799 -0.0019204032 -0.013064233 0.008189431 0.025385546
0.007071694 -0.012243203 0.0035007545 0.016119886 0.01648337 0.016553843 0.016572429 0.016572429
1.7276645e-05 1.7276645e-05 1.7276645e-05 1.6583135e-05 0.005958423 -0.028369628 0.01630984 0.05026603
0.027920619 0.024433132 -0.01661198 -0.013061599 1.6365715e-05 1.7276645e-05 1.7276645e-05 1.7276645e-05
0.00087950565 0.008010537 -0.009461738 -0.012936886 0.011528758 0.02879403 0.039190665 -0.003960402
-0.0034346497 0.010277772 -0.030414468 -0.031961117 -0.00545533 -0.008362788 -0.025664123 -0.035705604
0.0009464597 0.0009444901 0.0010075634 0.0008734964 -0.0014276329 0.00035980804 0.018791284 0.0030058986
-0.0006346101 -0.024345605 0.0015761569 0.0045642564 0.00091043377 0.0009464597 0.0009464597 0.0009464597
0.0031723212 -0.002337994 0.0063911094 0.012446367 -0.008693935 -0.032929074 0.0047665047 -0.026235601
0.010458504 0.03425931 -0.0122107165 -0.0038167562 -0.001770641 0.021823991 0.0067373915 0.0018983623
0.00051055057 -0.01801851 -0.008867857 -0.037455782 -0.036580496 0.0072487104 0.0060263155 0.038750283
-0.013303459 -0.013049506 0.007349959 -0.02662939 0.011047857 -0.021498436 -0.030648328 -0.020740785
-4.9941176e-05 -2.5641719e-05 -0.0002854091 -0.0053280233 0.007873426 0.0046618776 -0.009123806 0.00080299604
0.0036414387 0.0201694 0.029206567 -0.009524367 -0.00018715716 -7.035239e-05 -4.3928718e-05 -5.9392703e-05
0.010598636 0.010700368 0.01049943 0.0092002135 0.00665674 0.010459061 0.030953582 0.009387967
-0.015699683 0.033182286 0.0027871835 0.00987257 0.010383032 0.010508949 0.010508949 0.010508949
0.026858814 0.012355535 0.022682773 -0.0049195387 0.038085636 -0.018231858 -0.039935738 0.016266052
0.011851367 -0.0148882 0.008530142 0.033906348 0.02253937 0.032531936 0.022811279 -0.014321061
-0.0012841345 -0.0014320232 -0.0014948098 -0.0002986673 0.0013414676 0.0032919901 0.01116788 0.0021619454
-0.006705542 0.024252443 0.004257622 0.00010727992 -0.0014536477 -0.0012239555 -0.0012239555 -0.0012239555
-0.01959931 -0.02828476 -0.031216146 -0.024950461 0.0049883802 0.016209956 -0.00188729 0.019114437
0.022032574 -0.01485659 -0.0017964422 0.009449027 -0.009051911 -0.022198925 0.0015986311 -0.0031103732
00000000: bd47 d33c 44ee d33c 6756 073d 33e4 d53c
00000010: b07a d03c da18 e23b bc2a 0f3d c879 e1bc
00000020: 2fe9 03bc bee8 073d bb39 4c3c afe1 3f3c
00000030: ab3a 763c 156d d33c e63f d33c f856 3b3d
00000040: 963a 0080 963a 0080 7d57 28b9 b6ed ccba
00000050: 2e33 6bbb f07b e93c 92a6 903c 99e7 29bd
00000060: 33c1 ce3c a041 073d eb9e 04ba a024 223b
00000070: 593f 35ba 963a 0080 963a 0080 963a 0080
00000080: 93ba 83b5 93ba 83b5 93ba 83b5 3ef4 55b5
00000090: 0015 2bbb 237e e7bb d233 18bb 5229 d83c
000000a0: d658 033a 35aa 693c 08dd aa3b 6dbd 7c3b
000000b0: 93ba 83b5 93ba 83b5 93ba 83b5 93ba 83b5
000000c0: 4072 3b3d 79c3 633c 04e5 4a3b 6c74 143c
000000d0: 60dc 393d 7f97 38bc 18fe adbc 07b1 fc3c
000000e0: 5df3 733c d2f2 313c 7b61 e13b ef2c 2d3c
000000f0: 05fb c33c 62e5 773c e051 d63c 0891 4f3d
00000100: 49e2 d73c 5e12 153d fb78 133d f9c3 0b3d
00000110: 7525 8b3c 421e d03c 5977 863b 7852 823c
00000120: c2c5 eebc 02e2 92bc 5ef8 f83c fdb7 903c
00000130: 18cc 0d3d e381 203d 064e 283d 9ac6 673c
00000140: 780f 8a3c 0bd2 893c 6c0d 8f3c b675 5c3c
00000150: 0ab6 fbba 5d0b 56bc f72c 063c 59f5 cf3c
00000160: abb9 e73b b797 48bc ea6c 653b da0d 843c
00000170: 2208 873c ed9b 873c e7c2 873c e7c2 873c
00000180: 50ed 9037 50ed 9037 50ed 9037 031c 8b37
00000190: e03e c33b 6c67 e8bc 379c 853c c1e3 4d3d
000001a0: c8b9 e43c fe27 c83c d915 88bc 5100 56bc
000001b0: 1b49 8937 50ed 9037 50ed 9037 50ed 9037
000001c0: a08e 663a a13e 033c 6805 1bbc 3cf5 53bc
000001d0: 1ee3 3c3c 75e1 eb3c 6486 203d 43c6 81bb
000001e0: dc17 61bb 1a64 283c c327 f9bc a9e9 02bd
000001f0: a0c2 b2bb 1304 09bc 913d d2bc 0a40 12bd
00000200: d61b 783a a897 773a 3810 843a 5afb 643a
00000210: 691f bbba 9ea4 bc39 2ef0 993c 9cfe 443b
00000220: f75b 26ba 6f70 c7bc 0d97 ce3a c28f 953b
00000230: 2daa 6e3a d61b 783a d61b 783a d61b 783a
00000240: b8e6 4f3b 0839 19bb 836c d13b d9eb 4b3c
00000250: 0271 0ebc a3e0 06bd 5730 9c3b 0bec d6bc
00000260: 255a 2b3c 7e53 0c3d 750f 48bc 8b22 7abb
00000270: da14 e8ba 3ac8 b23c 56c5 dc3b 78d2 f83a
00000280: 78d6 053a 8e9b 93bc 7d4a 11bc 3c6b 19bd
00000290: 6ed5 15bd 9786 ed3b 6678 c53b 9eb8 1e3d
000002a0: c0f6 59bc 98cd 55bc edd7 f03b e125 dabc
000002b0: 1202 353c 7d1d b0bc 3412 fbbc 94e8 a9bc
000002c0: ee77 51b8 2c19 d7b7 f6a2 95b9 b396 aebb
000002d0: 8bff 003c aac2 983b 047c 15bc 2780 523a
000002e0: 34a5 6e3b 4c3a a53c 9c42 ef3c 170c 1cbc
000002f0: 9e3f 44b9 278a 93b8 1a40 38b8 6e1c 79b8
00000300: e7a5 2d3c 9950 2f3c cd05 2c3c 7ebc 163c
00000310: c820 da3b 7b5c 2b3c 5e92 fd3c fdcf 193c
00000320: 9f9c 80bc 26ea 073d 2ea9 363b 8fc0 213c
00000330: 981d 2a3c ba2d 2c3c ba2d 2c3c ba2d 2c3c
00000340: 0407 dc3c df6e 4a3c 39d1 b93c 1534 a1bb
00000350: afff 1b3d fa5a 95bc a893 23bd 6240 853c
00000360: 3c2c 423c a3ed 73bc 02c2 0b3c 62e1 0a3d
00000370: 7ca4 b83c 3540 053d b8de ba3c e2a2 6abc
00000380: 6750 a8ba bab2 bbba 7eed c3ba 7296 9cb9
00000390: 2fd4 af3a 6ebe 573b 7cf9 363c 6daf 0d3b
000003a0: 2aba dbbb 0fad c63c 8683 8b3b 78fb e038
000003b0: 5388 beba 226d a0ba 226d a0ba 226d a0ba
000003c0: bb8e a0bc 71b5 e7bc 01b9 ffbc e964 ccbc
000003d0: 9175 a33b beca 843c f25e f7ba e195 9c3c
000003e0: a87d b43c 0e69 73bc 9976 ebba 17d0 1a3c
000003f0: 774e 14bc 85da b5bc 2989 d13a 67d7 4bbb

head.0.bias f4 [24]
-0.015986534 0.030560823 0.034140423 0.012029652 -0.014859266 -0.019790191 0.022932757 0.000381258
-0.0040004468 0.0015434688 -0.0046014395 0.0009407089 0.008330318 0.0033224823 -0.010159526 0.033546217
0.033435594 0.0064788694 -0.021419255 0.007055746 -0.009273211 0.00802717 -0.008436375 0.03251886
00000000: 31f6 82bc b15a fa3c d4d6 0b3d 0418 453c
00000010: 4774 73bc 0a1f a2bc 7add bb3c 95e3 c739
00000020: 2e16 83bb 384e ca3a acc7 96bb e899 763a
00000030: e37b 083c 01be 593b 2474 26bc c267 093d
00000040: c3f3 083d b24c d43b 6f77 afbc e333 e73b
00000050: aaee 17bc 6484 033c b938 0abc 7f32 053d

head.2.weight f4 [2, 24]
0.10326485 0.1270906 0.04415706 -0.05090013 0.1817491 0.07030966 0.08351897 -0.036761083
-0.21148574 -0.24309704 0.008277355 -0.24231842 -0.1517427 0.05019419 -0.0045449883 0.16879341
0.20031269 0.13264315 -0.19727543 0.21450122 -0.21106812 0.018951952 0.026526142 0.13877502
-0.16163988 -0.0828887 0.20168567 0.1087856 -0.14494866 -0.23300308 -0.011457654 0.2083542
0.011330933 0.11219136 -0.24648213 0.04928405 -0.24172227 0.21112017 0.17930236 -0.08656995
-0.15441726 -0.064385615 0.21139294 -0.1483928 0.09264441 0.15912966 0.11784992 -0.16065519
00000000: 867c d33d 0a24 023e 09de 343d a87c 50bd
00000010: 701c 3a3e 83fe 8f3d fe0b ab3d ca92 16bd
00000020: b88f 58be 6eee 78be be9d 073c 5222 78be
00000030: 7062 1bbe 6c98 4d3d 20ee 94bb 2ed8 2c3e
00000040: c51e 4d3e 9bd3 073e 9202 4abe 35a6 5b3e
00000050: 3e22 58be 2041 9b3c 5a4d d93c 0a1b 0e3e
00000060: ed84 25be 8dc1 a9bd b086 4e3e fcca de3d
00000070: 6c6d 14be 5c98 6ebe e2b8 3bbc ce5a 553e
00000080: 61a5 393c 95c4 e53d d065 7cbe 12de 493d
00000090: 0b86 77be e32f 583e 0a9b 373e 964b b1bd
000000a0: 8f1f 1ebe 9bdc 83bd 6477 583e 48f4 17be
000000b0: 5abc bd3d e3f2 223e 4d5b f13d cb82 24be

head.2.bias f4 [2]
0.021311024 0.015421445
00000000: 7594 ae3c 3aaa 7c3c
