models/AC-RM-2 Q_LR=0.001 P_LR=5e-06 BATCH_SIZE=128 GAMMA=0.99 MEMORY_SIZE=150000 BETA=0.05_policy_3380.pt (torch, 319747 bytes, 22 tensors)

base.0.weight f4 [32, 2, 5, 5]
000000 6f 66 ac 3d 0f bf 0b bc c6 72 f5 3d 25 1a b6 3d
       0.08417975 -0.008529439 0.11984782 0.088917054
000010 83 4b c6 bd 5e 30 66 bc 56 58 a9 3d 57 68 11 be
       -0.096823715 -0.014049618 0.08268802 -0.14199959
000020 6a 5c 02 be 58 22 6f bd 0b f5 d6 3d ae fe 84 3d
       -0.12730566 -0.058382362 0.10495957 0.06493889
000030 ef 3f 08 be 92 b3 77 bd 9c 8e 59 bd 5d 63 93 3c
       -0.13305639 -0.060473986 -0.05311452 0.017991716
000040 9c 77 ba 3b 40 3b cd 3d f6 d8 c5 bd 9f 57 87 bd
       0.005690528 0.10021067 -0.09660523 -0.06608509
000050 20 5a 70 3b 9a 80 96 bc d3 d1 51 bd 08 a7 c9 bd
       0.0036674812 -0.018371869 -0.051225495 -0.09846312
000060 de 4f a9 bb b5 ff ba bc d9 b9 f7 3d 5b 63 01 3e
       -0.0051669916 -0.022827009 0.120959945 0.12635557
000070 7d c1 83 3d b3 3c bd 3d e7 9c 07 bd 46 e3 99 3d
       0.06433389 0.09240093 -0.033108618 0.07514052
000080 40 f6 de bd 20 9a 8c bd e0 5b fd bd 7a e8 95 3d
       -0.10886812 -0.068653345 -0.123710394 0.07319732
000090 43 29 98 bd b7 76 a5 3b 11 be f5 bd ea 12 7b 3d
       -0.07429745 0.0050495523 -0.11999143 0.061297335
0000a0 30 b9 20 3d 05 d6 7f 3d 11 b2 f4 3d 23 41 67 3d
       0.03923911 0.062459964 0.11948026 0.056458604
0000b0 5a da 9a 3a 8e 6b 66 3d d8 49 a7 bc a3 d7 a9 3c
       0.0011814341 0.056254916 -0.020420954 0.020732706
0000c0 05 97 ac bc 79 a9 f6 bd b4 09 77 bd 00 62 51 bd
       -0.021068105 -0.12044043 -0.060311988 -0.05111885
0000d0 dc cc ee bd de 80 fa 3d 22 e2 76 bd a1 23 9a bd
       -0.116601676 0.12231611 -0.06027425 -0.07526327
0000e0 43 ff 9f 3c ac ff 14 3c d6 6a 6f bc 72 d8 b3 3d
       0.019530898 0.00909416 -0.014612874 0.08781518
0000f0 bf da b3 3c cd fb a6 3d 25 b1 03 be 4d c5 3d bd
       0.021954892 0.08153496 -0.12860544 -0.04633074
000100 73 47 fc bd 20 5b 85 3c d3 60 ae bd 31 2e a5 3c
       -0.12318315 0.016278803 -0.085145615 0.020163627
000110 ac 4c 7f 3d c1 af e6 3d 92 af c3 bb ca c6 a6 bd
       0.06232898 0.11263991 -0.0059718573 -0.08143385
000120 33 f8 17 be ad 3f 8f 3d db 6e 01 be 34 1f 01 bd
       -0.14840774 0.06994567 -0.12639944 -0.0315239
000130 2b c4 c7 bc ad cb 5c bc 0f 04 b7 bd 93 6e 16 be
       -0.024385532 -0.013476294 -0.08936321 -0.14690618
000140 0e c1 95 3d 45 be 0f 3e 43 2c 90 3d c0 d9 cd 3d
       0.07312213 0.14037426 0.07039692 0.10051298
000150 bf 9d b1 3d bc 4c 86 3d 47 44 a1 bc 93 eb 7b 3a
       0.08672666 0.06557605 -0.019685877 0.00096099934
000160 dc e6 81 3c 06 a8 86 3d ec cc 34 3c 7e a3 4a 3b
       0.015857153 0.06575017 0.011035185 0.0030920203
000170 e8 4e f4 bc bf 79 55 bd b3 87 50 bd d9 11 fa bd
       -0.029822782 -0.05211806 -0.050910663 -0.122104354
000180 6e ea ce 3d 75 5e f2 3d 81 96 5c 3d 7a 1a b4 3d
       0.10103308 0.118344225 0.05385447 0.087941125
000190 8d cc 47 bd 09 41 06 3d 21 ad 86 bd 67 95 ac bb
       -0.04877906 0.032776866 -0.065759905 -0.0052668336
0001a0 f3 d4 49 3d fa 1d 10 3d c4 20 70 3d 81 86 d4 bc
       0.04927535 0.035184838 0.058624998 -0.025943043
0001b0 ce aa 83 bc 4e 1a f9 bc 8a bb 9f 3d 1c 5c 93 3a
       -0.016072657 -0.03040805 0.07799442 0.0011242661
0001c0 df 83 24 3d 5c f5 00 be 9d cd ec 3d 42 86 06 3e
       0.040164825 -0.12593597 0.11562655 0.13137153
0001d0 40 eb 91 3d 21 3c d1 3d b8 2c d3 3d bb f4 e5 3d
       0.071249485 0.10216547 0.10311264 0.11228319
0001e0 55 0d a0 bd 67 16 5a 3d 0f f6 03 3d d0 4e 88 3d
       -0.07815043 0.05324402 0.03221708 0.06655657
0001f0 33 8d f5 3d 51 30 f6 bc 72 aa 87 3d 41 d0 b8 3d
       0.11989822 -0.030052336 0.06624307 0.09024096
000200 dd 4a 11 bd 68 23 45 bc d2 da 3d bd 04 93 21 bd
       -0.035471786 -0.012032367 -0.04635126 -0.039446846
000210 b3 73 9e bd 06 81 ce bd d3 28 f9 bd 11 f2 3b 3b
       -0.077369116 -0.10083203 -0.1216599 0.0028678218
000220 84 eb 97 3d 61 23 64 3d 7e 3b 1e bd 9f e6 63 3c
       0.07417968 0.055697802 -0.038630955 0.013909965
000230 64 12 1c bd 69 1c cf bc 78 dc 2d bd 52 c8 2d bd
       -0.038103476 -0.025282102 -0.042446584 -0.04242737
000240 43 5d 50 3d 03 7a 82 3d c6 cb 53 bd 71 7f e1 3d
       0.05087019 0.06370928 -0.051708005 0.11010636
000250 ce cc 85 3d 7f 2c e4 3d c2 6e e0 3c 4b 5d d2 3d
       0.06533204 0.111412995 0.027396563 0.102717005
000260 2f 5d fd 3c 19 e6 c0 3d 0f 6a 83 bd 6b f1 ff 3d
       0.030928222 0.09418888 -0.064167134 0.12497219
000270 0d c5 b9 3c 23 02 02 3e 62 73 07 bd 4d da c4 bd
       0.022676969 0.12696128 -0.033069022 -0.0961195
000280 50 e4 e0 bd 7f 35 04 bd 3c 11 22 bd 86 94 a8 3d
       -0.10981047 -0.03227758 -0.039567217 0.082314536
000290 96 87 de 3d 3d 94 fd 3c eb bc aa bd fa 0e ca 3d
       0.10865705 0.030954475 -0.083368145 0.09866138
0002a0 57 24 f1 bd ff 88 f2 bd da 14 b3 bd 5d a5 c8 3d
       -0.117745094 -0.11842536 -0.087442115 0.097971655
0002b0 6f 62 5b bd fa bb 9b 3d c3 47 ac 3d 1e 8c ff bc
       -0.05356067 0.07604213 0.08412125 -0.031194743
0002c0 80 b6 03 3e 0f e4 0d bd 0f df 50 bc e9 3f 0e 3d
       0.12862587 -0.03464132 -0.012748494 0.03472892
0002d0 f8 14 9f bd ed c5 ee 3d c4 d1 bc bc e0 5e 43 3d
       -0.07767671 0.11658845 -0.023049243 0.0476979
0002e0 2e e6 d6 3c d6 02 b8 bd 2c 2c 88 3d 85 f2 f3 bc
       0.026232805 -0.08984916 0.0664905 -0.029778728
0002f0 64 78 01 be 5f 7d 96 bd 81 a7 d9 3d 0b cd 07 bd
       -0.12643582 -0.073481314 0.10627652 -0.03315453
000300 bb 30 3a bd dc 46 d4 bd 54 e0 c8 bd f7 b8 07 be
       -0.04545663 -0.10365078 -0.09808412 -0.13254152
000310 c6 e8 01 3e f6 ff ab bd d9 ea 16 bd c1 66 b2 bd
       0.12686452 -0.0839843 -0.036845062 -0.08711005
000320 18 2f 06 bd 0a 1d 07 3e d7 01 e3 bd ed 6a bc 3d
       -0.032759756 0.13194671 -0.11084335 0.09200082
000330 c5 af ef 3d f3 06 c0 3c e0 31 0a bd a0 28 09 be
       0.11703447 0.023440814 -0.03373897 -0.13394403
000340 b8 2f 1c 3d 9d fd 82 3d eb a8 8c bd f5 20 69 bc
       0.038131446 0.06396029 -0.06868156 -0.014229049
000350 92 88 a1 3d c5 13 8b bc 34 30 96 bd 6d eb b3 bd
       0.07887377 -0.0169772 -0.07333413 -0.08785138
000360 5a aa 3a 3d 1c e0 5f 3d 2f 53 0b be 02 b3 dc bc
       0.045572616 0.054657087 -0.13605951 -0.026940826
000370 d3 51 9f 3d 2a ae 7f bd d1 b6 38 3d 87 44 bb 3d
       0.077792786 -0.062421955 0.045096222 0.0914393
000380 9c 2e d9 bd 82 2e de bd 61 17 0d be 88 3a 18 3d
       -0.10604593 -0.108487144 -0.1377845 0.037165195
000390 1a 8c fd bc 49 11 11 bd 70 4f fa 3d d2 28 e3 bd
       -0.030950595 -0.035416875 0.12222183 -0.1109177
0003a0 44 f0 09 3e 59 3a f6 bd 04 e3 10 be 79 fc 8d bd
       0.1347056 -0.12022848 -0.141491 -0.06932921
0003b0 8b d5 9d 3d f2 30 b5 3d 72 ae 58 bd 63 37 f2 3d
       0.07706746 0.08847226 -0.05290074 0.118269704
0003c0 bb 50 11 be 66 75 f3 bb e3 2b 56 3d a6 6b 9d 3d
       -0.14190952 -0.0074297665 0.052287947 0.07686548
0003d0 2c f2 b6 bd d0 6e b3 bb f4 37 a4 bd 4e 15 e3 3d
       -0.08932909 -0.0054758564 -0.08018485 0.11088048
0003e0 90 03 8c bd 4e 25 b4 bd 54 ce 05 be b1 d8 0a 3e
       -0.06836617 -0.08796178 -0.13066989 0.13559224
0003f0 47 17 ba 3c bd 0e 9c bd 25 c1 66 3d 1c ab 3e bc
       0.022716178 -0.076199986 0.05633654 -0.011637475

base.0.bias f4 [32]
000000 5c 72 83 b7 15 0f 63 b9 a5 b0 20 b9 71 4e 06 39
       -1.566967e-05 -0.00021654025 -0.00015324594 0.00012808458
000010 4a 05 32 39 d7 2f a4 38 dc a2 46 37 25 2c 57 b8
       0.00016977373 7.82904e-05 1.1839638e-05 -5.1301107e-05
000020 c2 1e e9 b7 28 b4 71 b9 97 18 01 b8 22 0e 89 37
       -2.7790087e-05 -0.00023050664 -3.0778898e-05 1.6338254e-05
000030 a3 9e aa 38 26 e0 1a b8 6b 30 8a 38 52 a9 a9 b9
       8.13578e-05 -3.6925216e-05 6.589371e-05 -0.00032360345
000040 3f 5c 66 39 8a 35 b2 39 b0 0a 51 b7 16 1d 6f 37
       0.00021968874 0.00033990695 -1.2459859e-05 1.4252282e-05
000050 6d 77 5d 38 31 e3 5c b9 01 9f 08 ba 4e 1a 29 39
       5.280173e-05 -0.0002106547 -0.0005211682 0.00016126895
000060 3f 13 06 38 b5 d5 ce 39 5d 1c 14 b9 99 a2 64 b8
       3.1966014e-05 0.00039450606 -0.00014124946 -5.4510867e-05
000070 c8 05 27 39 7f ec 7b b9 46 f1 83 b9 2f 5f 53 b8
       0.00015928515 -0.00024025327 -0.0002516603 -5.0394967e-05

base.1.weight f4 [32]
000000 db a3 7d 3f d6 19 81 3f 17 d9 7e 3f e0 06 80 3f
       0.9907815 1.008601 0.9955 1.0002098
000010 02 81 7d 3f fd 3b 7d 3f 90 22 80 3f e9 dc 80 3f
       0.99024975 0.9891966 1.0010548 1.0067416
000020 75 f0 7d 3f 0c 75 81 3f b0 bc 7e 3f 00 cf 7f 3f
       0.99195033 1.0113845 0.99506664 0.9992523
000030 93 91 7b 3f 5d 43 7d 3f 32 9e 81 3f d1 b8 7d 3f
       0.98269004 0.98930913 1.0126402 0.9911013
000040 34 9b 80 3f 1a 52 83 3f 43 e5 7e 3f 4e 7c 7f 3f
       1.0047364 1.025943 0.99568576 0.9979905
000050 61 de 7e 3f bd e1 7d 3f f2 9b 80 3f f9 c3 7c 3f
       0.99558073 0.99172574 1.0047591 0.9873653
000060 61 9c 7f 3f ff 0a 7d 3f f5 67 7e 3f 65 bf 7c 3f
       0.9984799 0.98844904 0.99377376 0.98729545
000070 bc 6a 80 3f ab e9 7d 3f 6f 1c 82 3f 85 00 81 3f
       1.0032573 0.99184674 1.0164927 1.0078284

base.1.bias f4 [32]
000000 f3 ed 90 bb 18 0e f0 3b ea f9 9b 3b 9a 23 52 3b
       -0.004422897 0.007325899 0.0047600167 0.0032064677
000010 b0 1d a8 39 38 e2 9b 39 99 73 1b 3b eb 29 ba bb
       0.00032065576 0.0002973245 0.0023720025 -0.0056812665
000020 1c 2e 44 bb 21 d4 27 3c 0b db aa 3b f7 ef 48 3b
       -0.002993471 0.010243447 0.0052141002 0.0030660608
000030 b4 05 1f bc e1 ac 26 bb de 9d d0 3b 53 b6 29 39
       -0.00970595 -0.0025432634 0.0063664755 0.00016185017
000040 ff 1b ad 3b 34 3e fd b9 a1 be 2b bc 6a bb d0 3b
       0.0052828784 -0.00048302265 -0.010482461 0.0063699977
000050 db cb 93 bb 5c 53 6a 3a 60 9e 4a 3a e0 4e b7 bb
       -0.0045103854 0.0008938813 0.0007729288 -0.0055941194
000060 31 d9 ed b8 15 ba 18 bc 31 55 ab 3a 75 79 48 bc
       -0.00011341496 -0.009321709 0.0013071654 -0.012235989
000070 1c 04 21 3c 7a 36 95 bb 2d 71 9c 3b 6c e4 0b 3b
       0.00982764 -0.0045536133 0.004774234 0.0021345867

base.1.running_mean f4 [32]
000000 93 12 b8 bd 89 6f b3 bd 40 68 49 3f 05 8a 3d be
       -0.08987918 -0.08761508 0.786747 -0.18509682
000010 80 bd ff be ff ec 35 bf 86 8f 54 be ce 9b 23 3e
       -0.49949265 -0.7106475 -0.20757875 0.15977404
000020 5e 55 93 3f 2d d3 03 3e b8 7a ba 3e a7 eb c4 bd
       1.1510427 0.12873526 0.36421752 -0.096152596
000030 c7 1a 7f bf 73 c0 2a be 47 b9 06 bc 66 d8 95 3e
       -0.99650234 -0.16674976 -0.0082228845 0.2926666
000040 31 9c 0d 3e 6d 42 68 3e 80 9f 98 be 65 07 d2 3e
       0.13829114 0.2268159 -0.2980919 0.41021267
000050 1c f9 1c 3e 9e a1 41 3f 05 63 62 bd 19 70 83 be
       0.15329403 0.75637233 -0.055270214 -0.2567146
000060 69 87 f9 be 22 c2 03 be 82 c9 9d 3e 75 14 e4 be
       -0.48736122 -0.12867025 0.308178 -0.44546857
000070 88 2e 38 3d 82 47 34 3f 87 64 34 bd 0b f0 e4 3d
       0.04496625 0.7042161 -0.044041183 0.11178597

base.1.running_var f4 [32]
000000 b2 03 8d 3b c7 24 cb 39 12 45 26 3c 44 79 3a 3b
       0.004303419 0.00038746579 0.010148304 0.0028453628
000010 03 36 51 3b 7f c8 b3 3b c0 60 02 3b fc 39 27 3a
       0.0031923063 0.0054865475 0.0019894093 0.0006379185
000020 df 98 5a 3c 86 d9 e0 39 de 85 4c 3b 14 bd e7 3a
       0.013342111 0.00042886677 0.003120772 0.0017680251
000030 58 d7 3b 3c 94 2a 6f 3a d9 c1 06 39 e4 2c 35 3b
       0.011464916 0.0009123471 0.0001285145 0.0027645165
000040 60 ca 1a 3a a8 6a 7a 3a c8 f2 0d 3b 6f 18 f7 3a
       0.000590479 0.0009552636 0.0021659601 0.0018851886
000050 0d 49 1b 3a ce ef 03 3c 68 9d 08 3a 9a 03 f6 3a
       0.0005923666 0.008052779 0.00052114436 0.0018769384
000060 27 e1 47 3b fe cb 5a 3a 9c 66 0c 3b 43 35 7f 3b
       0.0030499191 0.0008346437 0.0021423465 0.0038941659
000070 67 4c 46 3a 71 ab ad 3b e7 9d ad 3a 56 22 d1 3a
       0.00075644854 0.0052999784 0.0013245911 0.0015955667

base.3.weight f4 [32, 32, 5, 5]
000000 14 e1 fa bb c1 0b 69 3c dd 90 2f bd c2 a4 bd ba
       -0.007656226 0.014223994 -0.04286276 -0.0014468657
000010 86 37 b6 3c 94 00 88 3b 0c 3f bf bc a7 58 fa 3a
       0.022243273 0.0041504595 -0.023345493 0.0019099907
000020 7e 2d 61 bc 59 52 ac 3c 59 d2 92 3c fd bf 57 3c
       -0.013743756 0.02103536 0.017922567 0.013168332
000030 af c7 06 bd 79 95 88 3c 83 2e 9a bc a6 aa bb ba
       -0.032905277 0.016672837 -0.018821007 -0.0014317825
000040 82 59 fc 3c b3 78 6e 3c be 09 6f bc 98 7d cb bc
       0.0308044 0.014555144 -0.014589725 -0.024840161
000050 88 ec b3 bb eb 07 e2 3c 67 c0 9f bb 29 7f c6 3b
       -0.005490843 0.027591666 -0.004875231 0.006057639
000060 9c 1b f3 3c 90 02 36 bc 55 b1 f8 bc 07 4c c0 3c
       0.029676251 -0.011109009 -0.030357996 0.023473753
000070 e4 6b 19 bd 03 87 4f 3c 3f 8d 66 3c 9e b7 03 bd
       -0.03745641 0.012666467 0.014071762 -0.032157533
000080 a3 b3 43 3c 24 0e f2 3c 8c 81 94 3c 0b 53 d1 bc
       0.011944684 0.029547758 0.018128179 -0.025552293
000090 ac 54 cd 3c af 0a 69 3b 21 8c b9 3a 8f d6 7e bc
       0.025064789 0.0035559346 0.0014156142 -0.015554084
0000a0 0b 1b ef bc c4 f1 b3 bc 83 b5 2d 3b 73 23 cb 3c
       -0.0291877 -0.021965869 0.0026505894 0.024797177
0000b0 aa 86 dc bc 44 3d 9c bc e6 b0 c4 3c f0 2c b9 bc
       -0.026919682 -0.019072182 0.024010133 -0.022604436
0000c0 20 db cb 3c bb 4d de bc 00 71 e4 3c ef d3 77 bc
       0.02488476 -0.027136674 0.027885914 -0.0151262125
0000d0 de d6 02 bc fd 09 76 bc 00 e7 e7 bc b3 3c ec bc
       -0.007985799 -0.01501703 -0.028308392 -0.028837537
0000e0 dc 2a 52 3b 96 48 c0 3c 16 e5 2f bc d7 17 d7 3b
       0.0032069003 0.023472112 -0.010735771 0.006564121
0000f0 ac a5 a1 bc 20 95 ea 3b a1 ff 05 3d 85 1d 08 3d
       -0.019732319 0.0071588904 0.03271449 0.033231277
000100 ec f1 97 3c 53 3b cb bb c5 56 8a bb 54 ad 0f bc
       0.018547975 -0.0062021404 -0.0042217695 -0.008769352
000110 4d 0a b9 bc 52 a1 18 bd 9d bc 99 3b 69 7f 06 3c
       -0.02258792 -0.037263222 0.004691674 0.008209088
000120 de 06 67 bb 73 1c cc bb ca 02 66 3c d5 09 bc bc
       -0.0035251896 -0.0062289773 0.014038751 -0.022953907
000130 a6 10 a2 bc 52 9c d5 3c 5e f2 1e bc 12 cd c2 3c
       -0.01978333 0.026075516 -0.0097013395 0.023779426
000140 cf cc 8a ba b5 55 15 bd be 27 ee bc 17 39 57 bc
       -0.0010589602 -0.03645869 -0.029071685 -0.01313617
000150 f4 f9 03 bd 12 16 74 bb 71 24 9f bc 11 61 8f 3c
       -0.032220796 -0.00372446 -0.019426556 0.01750234
000160 77 7e 09 bd 16 72 b3 bc db 55 3c bb f9 4b e4 bc
       -0.033567872 -0.021904986 -0.0028737697 -0.027868258
000170 ca c1 e0 bc 7a 28 02 3d a2 e1 6d 3c de b5 e9 bc
       -0.027436156 0.031776883 0.014519127 -0.028529104
000180 30 cb eb 38 16 0a 87 bc e6 a1 13 3c ca 19 a9 3c
       0.0001124352 -0.016484302 0.009010768 0.02064218
000190 24 63 fb 3c 35 6b 76 bb 88 80 96 3b f1 d5 e8 3c
       0.030686922 -0.0037600521 0.004592959 0.028422328
0001a0 13 9a 59 bc d1 6e eb 3b 27 09 e6 3c d8 7f 69 3c
       -0.013281363 0.007184841 0.028080536 0.014251672
0001b0 21 ee 0d 3d 4e 18 04 bc 05 2b ae 3b cb b4 7e ba
       0.034650926 -0.008062435 0.005315187 -0.00097162713
0001c0 a2 d5 8e bb e4 9a 14 3a 2a da b2 3c 2f 05 f4 bc
       -0.004358963 0.00056688325 0.021832544 -0.029787628
0001d0 cc 90 e0 bc 52 9f 0f 3c 6a 23 b3 3c 83 e2 da bc
       -0.027412795 0.008766012 0.021867473 -0.026719337
0001e0 95 37 02 3d df 65 fb 3c c1 82 d3 3b 3b 02 ae 3b
       0.03179129 0.030688224 0.006454796 0.0053103245
0001f0 4d 3f 20 3c 35 93 30 bc da 70 ae bb e1 63 d5 bc
       0.009780717 -0.010777284 -0.0053235115 -0.026048603
000200 aa cb ee bb 0c a1 71 bc c5 9f 0e 3a 10 12 e9 3a
       -0.0072874622 -0.014747869 0.00054406776 0.0017781872
000210 b0 e8 ff 3c a1 c0 c1 bc ee 5b 87 3c fe 69 8d 3c
       0.031238884 -0.023651423 0.016523328 0.017262455
000220 5c 2b 84 3b bb 80 84 3c 56 31 cb bc 1d 55 e5 bc
       0.004033489 0.016174665 -0.024803799 -0.027994687
000230 9e 74 96 3c 7c 4e 53 3c 9a 2a 07 bc 37 99 5b 3c
       0.018366154 0.01289713 -0.008249903 0.0134032285
000240 3b 08 e8 3b 56 e4 72 3c 53 92 ad 3b 81 bc f5 bc
       0.0070810593 0.014824947 0.005296984 -0.029997112
000250 0d fb 34 bb 5e 9e 90 bc 17 89 cb 3c 41 31 c6 bc
       -0.0027615458 -0.01765364 0.024845643 -0.024193408
000260 e4 d8 15 bd 53 93 6e 3b 12 b8 06 3c 4f 34 18 bd
       -0.036583796 0.003640373 0.008222597 -0.03715926
000270 61 f9 fd 3c 28 52 92 3c ad 96 87 3b be 56 c4 bc
       0.031002702 0.01786144 0.004137835 -0.023967143
000280 4e c8 9b 3c 65 72 a5 bc a9 7d 10 bd 9a 42 bd 3b
       0.019016411 -0.02019615 -0.03527609 0.005775762
000290 cf a8 cd 3b 62 e6 af bb 44 a7 b0 ba 46 6d 54 bc
       0.006276227 -0.00536804 -0.0013477583 -0.012965506
0002a0 48 f8 b6 ba 44 13 fe bc 65 68 76 bc 31 9d 03 bb
       -0.0013959492 -0.031015046 -0.015039538 -0.0020082707
0002b0 15 10 29 3c c2 3b a4 3c 87 d0 10 bc 0e 60 cb 3c
       0.010318776 0.020048026 -0.008838779 0.024826076
0002c0 57 90 6d 3c 16 f3 05 bc d4 01 0e 3d 86 0b 50 3c
       0.014499745 -0.008175632 0.034669712 0.01269806
0002d0 4d d5 ec bc af 09 f5 bb 2f 09 ac bb 67 3b c7 3c
       -0.028910303 -0.007477961 -0.005250118 0.024320317
0002e0 91 97 75 3b 2c 5a 9b 3c 10 85 64 3c 75 10 0e bc
       0.0037474374 0.018963896 0.01394774 -0.008670916
0002f0 86 b9 11 3c b1 43 86 3c 10 34 4a bc 26 f5 4b 3c
       0.00889433 0.0163897 -0.012341514 0.012448585
000300 20 70 14 bc de cf 1e 3b b2 3e 92 3c a9 a4 0b 3c
       -0.009059936 0.0024232785 0.017852161 0.008523145
000310 90 ac d1 3b f2 c1 c6 3c b4 78 0e bd 62 86 5b bc
       0.006398745 0.024262402 -0.03478308 -0.013398739
000320 7c 3d 12 3d de 98 d4 3c 24 4e c9 3c b5 ac c3 3c
       0.035703167 0.025951799 0.024573393 0.023886064
000330 ac 00 b3 3a f0 c3 1c bc 1f 04 49 3b ca 9b f8 3c
       0.0013656816 -0.0095681995 0.0030672622 0.030347724
000340 da 0f fd bb c1 67 80 3c e5 0b d6 bc 07 da e2 bc
       -0.007722837 0.015674474 -0.026128719 -0.027691854
000350 79 13 ef bc 51 ac 90 bc a2 29 40 bc 71 3c 8c 3c
       -0.02918409 -0.017660292 -0.011728676 0.017118664
000360 ea 46 48 bc 2f 37 8e 3c 23 8b 48 3b 3d 82 89 3c
       -0.0122239385 0.017360298 0.003060051 0.016785735
000370 09 8e 6b 3c 5b 7c fa 3c 4f 67 20 3c 92 6e 3e 3c
       0.014377126 0.030576875 0.009790256 0.011623042
000380 97 ee 07 bd 46 9b 92 bc 8b 70 c1 3b bb 32 59 bc
       -0.03318652 -0.017896306 0.0059033087 -0.013256724
000390 10 a1 b9 bc ab eb 41 3c 55 f7 ef 3c 88 28 c3 3c
       -0.022659808 0.011835973 0.029292742 0.023823038
0003a0 f5 eb 80 bc 88 93 49 3c cd 56 82 3c 11 43 b1 bc
       -0.015737513 0.012303241 0.01591053 -0.021638425
0003b0 55 8b 8c bc c4 c6 15 3c 6e ce 0c 3d 34 bb 77 3b
       -0.017156282 0.009141628 0.034376554 0.003780079
0003c0 eb 5c 9c 3b 51 5d ea 3c c4 06 4a 3b 7e 57 9b ba
       0.004771819 0.02860895 0.0030826787 -0.0011851636
0003d0 b4 c0 0d 3d ee 42 0d 3d 48 c8 e7 bb 2c 7f 11 3d
       0.034607604 0.034487657 -0.007073436 0.03552167
0003e0 23 65 2f 3d 19 24 35 bc 03 a5 e9 bc b6 d3 8c bc
       0.04282106 -0.01105597 -0.028521067 -0.017190795
0003f0 13 09 e9 3c e6 02 af 3c a5 32 72 bc da 8b 26 bc
       0.02844671 0.021363687 -0.014782582 -0.010165179

base.3.bias f4 [32]
000000 25 ed f1 b6 00 c1 90 b4 94 35 4a b5 69 b8 6e 36
       -7.209967e-06 -2.6962516e-07 -7.532883e-07 3.5572104e-06
000010 22 40 33 38 85 de 89 36 b5 b8 76 38 2f 32 be b7
       4.2736654e-05 4.108823e-06 5.8822992e-05 -2.2673134e-05
000020 f8 32 db b6 87 9c 90 b7 4c c6 b7 37 28 c5 5d 38
       -6.532642e-06 -1.7239026e-05 2.190764e-05 5.2874122e-05
000030 f7 60 04 b8 7f da 89 37 35 21 5b 37 86 24 5f 37
       -3.1561558e-05 1.6433418e-05 1.3061149e-05 1.330034e-05
000040 08 c1 19 37 e7 b1 c6 b5 bd c3 ce 34 32 0c a3 37
       9.164454e-06 -1.4803926e-06 3.8512908e-07 1.9436793e-05
000050 06 ac 11 37 5f 8a 66 b7 18 53 b2 37 69 14 d8 b7
       8.682726e-06 -1.3741285e-05 2.1257947e-05 -2.575871e-05
000060 8b 51 6d b7 f2 97 8a 37 fb 61 62 37 35 e1 f6 b7
       -1.41452865e-05 1.6521637e-05 1.3493463e-05 -2.9430355e-05
000070 d6 a1 b7 35 2a aa cc 37 cc 1d 3b b7 0e d9 69 b6
       1.3681663e-06 2.4397934e-05 -1.1153006e-05 -3.4846048e-06

base.4.weight f4 [32]
000000 10 da 7d 3f 5d d2 80 3f 2c ed 7e 3f ff b4 80 3f
       0.9916086 1.0064198 0.99580646 1.0055236
000010 c4 aa 7f 3f 00 e0 80 3f 06 3c 80 3f 83 4b 7f 3f
       0.9986994 1.0068359 1.0018318 0.99724597
000020 89 8d 7e 3f 34 07 80 3f 53 80 80 3f f4 25 80 3f
       0.99434716 1.0002198 1.0039161 1.0011582
000030 d2 84 80 3f 3f 89 7e 3f 03 f0 7e 3f 7d cb 7f 3f
       1.0040534 0.9942817 0.9958498 0.99919873
000040 4d c8 7e 3f a0 24 7f 3f bb 3d 80 3f bc ca 7d 3f
       0.99524385 0.9966526 1.0018839 0.99137473
000050 f0 8b 7e 3f 37 6b 80 3f a5 0a 80 3f 9e 76 80 3f
       0.9943228 1.0032719 1.0003248 1.0036199
000060 7a 50 7c 3f 19 35 80 3f ff 23 80 3f 1c 3c 80 3f
       0.985603 1.0016204 1.0010985 1.0018344
000070 9a 38 80 3f 3d c2 7f 3f f7 5a 7d 3f 49 68 7f 3f
       1.0017273 0.9990576 0.98966926 0.997685

base.4.bias f4 [32]
000000 50 d4 8a bb 04 6c 16 bb 96 44 4a bb 57 b3 f9 ba
       -0.0042367354 -0.0022952566 -0.0030863634 -0.001905064
000010 1b 64 28 bb 7c e7 21 3c 2d 00 81 3b 02 5a 5d 3a
       -0.0025694433 0.00988185 0.0039367885 0.0008443893
000020 84 9c 8f 3b 4b f3 16 bc 60 34 0a 3b 47 03 be bb
       0.004382672 -0.009213279 0.0021088347 -0.0057987305
000030 3d 0c d9 3b f7 1b 53 bb 22 cc 24 bb 92 cc 01 bc
       0.0066237734 -0.0032212713 -0.0025146087 -0.0079223085
000040 a8 49 e8 bb ac e0 f3 b8 33 9d 2d 3b 70 eb b1 ba
       -0.0070888586 -0.00011628991 0.0026491403 -0.0013574194
000050 ff f8 97 bb fa 5a 02 bb 6d d2 99 bb 47 c5 0f bb
       -0.004637837 -0.0019890652 -0.004694274 -0.0021937655
000060 4b 06 ce bb 04 8f 80 ba b2 8e 23 3c 98 0c 94 bb
       -0.0062873713 -0.0009808247 0.009982752 -0.004518103
000070 2c 45 e7 b9 2d cc ed ba 60 20 02 3b fb 12 eb 3a
       -0.0004411129 -0.0018142514 0.0019855723 0.0017934734

base.4.running_mean f4 [32]
000000 13 03 9a bb 42 c3 04 3e 0d 95 88 3d 3e 9c 2c 3c
       -0.0047000735 0.1296511 0.06669054 0.010535298
000010 fb 87 45 bc de 28 df 39 aa 8e 71 bc 7f 40 e9 3c
       -0.012056346 0.00042564323 -0.014743486 0.028473137
000020 33 f5 b2 3d c6 08 b9 bc b8 e2 20 3e 0c 6b 63 bd
       0.08738174 -0.022587191 0.15711486 -0.05552201
000030 dc 71 81 bd 1f 43 2b 3d bd 23 f7 bd af e7 35 3e
       -0.06320545 0.04181206 -0.120673634 0.17764162
000040 95 26 5c 3e 22 3c ef 3d 31 fc 74 3c 89 d3 15 be
       0.21499093 0.11681391 0.014952705 -0.14631476
000050 0c 86 b8 bd 8c a7 99 bd e4 a6 85 3d 52 dd 5a 3d
       -0.090099424 -0.0750266 0.065259725 0.053433724
000060 7a af ca 3d 99 4e b7 3c fc cf b1 bd ea ae ee bd
       0.09896751 0.022376345 -0.08682248 -0.11654456
000070 aa 8f cd bd a8 0b eb 3d a9 19 f8 bd 15 e4 61 3d
       -0.10037167 0.11476833 -0.12114269 0.055149157

base.4.running_var f4 [32]
000000 2d 7c ba 3d f8 96 2a 3d d2 18 9e 3d 2e 9e 8c 3d
       0.09105716 0.04164788 0.07719578 0.06866108
000010 92 a8 4d 3d f4 5a a6 3d c7 40 d1 3c 4c 4f e3 3d
       0.05020959 0.08122817 0.025543584 0.11099109
000020 89 1e 5e 3d b4 5c 57 3d 20 36 f4 3c b9 69 8b 3d
       0.05422834 0.052578643 0.029810965 0.06807274
000030 ad 21 7a 3d 10 7c 0a 3d ac db 4f 3d 0e 90 ca 3d
       0.061067272 0.03380972 0.050746605 0.098907575
000040 0d 20 54 3d 0a d9 1f 3d b1 91 44 3d 52 78 60 3d
       0.05178838 0.039025344 0.047990505 0.054802246
000050 81 18 75 3d 92 b1 b1 3d 71 08 79 3d d8 02 6f 3d
       0.059837822 0.08676447 0.060799066 0.05835232
000060 86 bb 21 3d e2 b4 53 3d 92 aa be 3d 48 55 21 3d
       0.039485477 0.051686175 0.093098775 0.03938797
000070 75 3e a1 3d 8f da 2a 3d 38 ee c4 3d 7a e1 1a 3e
       0.07873241 0.04171234 0.09615749 0.15125075

base.6.weight f4 [32, 32, 5, 5]
000000 28 c2 cd 3c 85 5c 95 3c ff b7 93 bb 5f a5 fc bb
       0.025116995 0.018232593 -0.004508018 -0.0077101435
000010 ce 66 c2 bc 49 ae 31 bc e8 86 e1 3c 3e 22 03 3d
       -0.023730662 -0.0108447755 0.027530149 0.032015078
000020 e8 e6 b6 3c 19 7c b2 3c 86 03 68 bc e6 6f c3 3b
       0.022326902 0.02178769 -0.014160996 0.005964267
000030 f1 0b bb bc be ff ad b9 d5 fe 43 bc d8 93 af bc
       -0.022832843 -0.00033187674 -0.011962612 -0.021432802
000040 98 b3 08 3d 36 87 82 3a 64 d8 b9 3c 40 54 ea bb
       0.0333744 0.0009958509 0.02268619 -0.0071511567
000050 e7 12 9b 3c 67 ff 83 3b 31 48 9d bc 16 96 0b bd
       0.018929912 0.004028249 -0.019199463 -0.03407868
000060 99 73 0f bd f4 64 d4 bc 0c 97 7d ba a7 75 44 3c
       -0.035022352 -0.025927044 -0.0009673692 0.011990941
000070 3c 96 3f 3c 24 89 b4 bc f5 30 5b 3c e5 3e 44 3b
       0.0116935335 -0.02203805 0.0133783715 0.0029944715
000080 47 5d 3e bc 2b 66 57 bc 4e c0 47 3c 30 6b bf 3c
       -0.011618919 -0.013146917 0.012191845 0.02336654
000090 a5 2e 1c 3b ad ff 1c bd 52 a8 8c bc 02 23 fd bb
       0.0023831513 -0.03832977 -0.017170105 -0.0077251205
0000a0 c9 00 8e bc 1c 6d c8 3c 4e 46 0b bd 52 e3 d5 bc
       -0.017334359 0.02446609 -0.034002595 -0.026109371
0000b0 b2 93 cb 3c e2 38 70 3c 58 9f b4 3c 01 84 97 bc
       0.0248507 0.014661999 0.022048637 -0.018495562
0000c0 bc 6d 61 3c 22 30 6e 3c ed 17 43 bc 5f d4 dc 3c
       0.013759073 0.014537843 -0.01190756 0.026956735
0000d0 65 86 38 3c c3 bf f3 bb 95 84 d7 3c 5f ea a8 bc
       0.011262511 -0.0074386313 0.026308337 -0.02061957
0000e0 30 37 19 bd 5e 4d 9e 3c 68 75 d6 bc 20 ee 30 3c
       -0.037406147 0.019324 -0.02617903 0.010798961
0000f0 50 32 ac bc 37 32 4c bc ed d9 95 bb 4b b7 80 bc
       -0.021020085 -0.012463144 -0.004573098 -0.0157124
000100 77 1c c9 3c fb 2f 14 3c f5 38 d5 ba 2b 49 2c 3c
       0.024549706 0.009044643 -0.0016267585 0.0105154915
000110 3d 83 90 bc 7d 68 6c bb 1a c7 ef ba 8b a9 3e bc
       -0.017640704 -0.0036073022 -0.001829359 -0.011637102
000120 e9 a3 f3 bb d3 aa 9b bc 21 1f 51 3c 73 01 85 bc
       -0.007435311 -0.019002354 0.012763769 -0.016236043
000130 f2 0d f1 bc af c0 52 bc 3d ad 18 3c 05 6f 00 bd
       -0.029425595 -0.012863322 0.009318647 -0.031355876
000140 86 ee d3 bc 6b fa 9f 3c a3 d8 ac bc 80 0f 14 3d
       -0.025870573 0.019528588 -0.021099394 0.036147594
000150 b0 4f cc 3b 7b 70 89 3c e2 fe a9 bc d6 8a 13 3c
       0.0062350854 0.016777268 -0.02075142 0.009005269
000160 90 0d 09 bc 52 f7 90 3c eb 20 4f bb c7 e3 48 3c
       -0.00836505 0.017696057 -0.0031605314 0.012261338
000170 ff 04 1d bd b2 99 24 bb 28 7b da 3b 03 f8 28 3c
       -0.038334843 -0.0025116024 0.0066675134 0.010313037
000180 47 06 1d ba f6 30 09 bc f7 7f 9c bc 76 d8 b3 39
       -0.000599001 -0.00837349 -0.019103987 0.00034302816
000190 49 0a 59 bc 04 71 02 3d c6 82 41 bd 2b a8 e5 3c
       -0.013247081 0.03184606 -0.047243856 0.02803429
0001a0 ea fa e8 bc df 7a d3 bb 1f 6a b2 3b 14 35 39 3c
       -0.028439958 -0.0064538564 0.0054447795 0.011304159
0001b0 83 49 fc 3c 29 f0 a4 bb c9 18 af bc af 86 ae bc
       0.030796772 -0.005033512 -0.021374123 -0.021304457
0001c0 22 ec de 3a 1b 0c 82 bc 24 7d a2 bc 5d bc ab bc
       0.0017007629 -0.015874913 -0.019835062 -0.020963842
0001d0 0a f3 3b 3b 7c 8b bf 3b 54 23 87 3c 76 7c 05 39
       0.0028678798 0.0058454853 0.016496338 0.00012730234
0001e0 0d f9 9d 3b d9 45 10 3c 7c f3 09 3c 1a 26 38 3a
       0.004820949 0.0088057155 0.008419868 0.00070247205
0001f0 cc 86 0a 3c c1 e0 49 bc 4c 5a 00 3c 1d 13 1c 3d
       0.00845499 -0.012321652 0.007834028 0.038104165
000200 a0 f6 92 bc ae a3 41 3c a2 d8 f4 bb bc 6a 6c 3c
       -0.017939866 0.011818809 -0.0074721137 0.014429744
000210 7d c2 56 3d 13 83 a5 bb 66 44 ef bc 33 0b bd 3b
       0.052431572 -0.0050510257 -0.02920742 0.0057691573
000220 9d ca fe 3b fa 18 27 3d a4 27 0c 3d bd 8a a4 bb
       0.007775618 0.040795304 0.03421749 -0.0050214217
000230 8e 9a 1d 3c 69 82 89 3b 2a 3c 79 ba 82 53 7f 3c
       0.009619368 0.0041964543 -0.00095075613 0.015583875
000240 de 6f de 3c 27 83 69 3b bb 47 da 3c fe 5d e5 bc
       0.027152952 0.0035631151 0.026645532 -0.02799892
000250 f8 29 a3 39 cd 9b da 3b ef 40 d6 3c 40 5c 84 bb
       0.00031121052 0.006671405 0.02615401 -0.0040393174
000260 37 b4 af 3c 46 2c 55 3c 4d 2b 95 bc 19 a2 73 3c
       0.021448238 0.013011044 -0.018209124 0.01487019
000270 3a d2 35 3b fe 8a 28 bd 3c 7d 79 bc a3 2a fc bc
       0.0027743713 -0.04114818 -0.015227612 -0.03078205
000280 4f 97 30 3c af ce 08 3b ee 27 6b 3b 7b f6 b2 ba
       0.010778262 0.0020875146 0.0035881954 -0.0013653779
000290 2a 3e 70 bb aa fc 79 bc 57 9f 24 3c 32 b5 c8 3b
       -0.0036658146 -0.015257994 0.010047755 0.006125116
0002a0 c6 f2 13 3c 2e 6e e6 3c 55 e6 ae 3c 31 45 a7 3c
       0.00903005 0.02812871 0.021350065 0.020418735
0002b0 f3 60 19 bd 1d 9b 21 bb f6 35 89 3c 47 68 d7 bc
       -0.037445974 -0.0024659105 0.016749363 -0.02629484
0002c0 f1 3d e8 3b c8 5a 90 3b ea 5b e7 bc 64 cd 21 3d
       0.007087462 0.004405353 -0.02824207 0.039502516
0002d0 79 dc 91 bc 4a 8e 99 bc 91 50 e8 3b 66 91 84 bc
       -0.017805325 -0.018744607 0.0070896824 -0.016182613
0002e0 c5 89 71 bc c2 e6 6c bb 7f 32 7d 3c 27 8e 92 3c
       -0.0147423195 -0.0036148285 0.015453934 0.01789005
0002f0 88 a5 82 bc 7a 15 0c 3d bb 78 14 bd 6c 4e b0 bc
       -0.015948072 0.03420017 -0.03624795 -0.02152177
000300 c5 18 8c 3c 64 4b 0f 3d e4 1e bf bc 0b f0 84 3c
       0.017101655 0.034984007 -0.02333016 0.016227743
000310 83 46 03 3c d8 92 39 bc 7a 85 a8 3c 35 5f a5 3c
       0.008012417 -0.011326514 0.02057146 0.020187
000320 1e 9b 85 bc 2f 10 c0 bc 1c 32 81 3b 15 a0 f7 bb
       -0.016309317 -0.023445217 0.003942741 -0.007556925
000330 fb 1a a8 bc f8 27 88 bc 5f d4 04 bc 00 28 d9 3c
       -0.020520678 -0.016620621 -0.008107274 0.026508331
000340 95 e4 42 3c e7 04 0c 3d 5b 9b 69 3c bf cc f4 3c
       0.0118953185 0.034184363 0.014258231 0.029882787
000350 55 66 81 bc 17 67 79 bc 61 24 b4 bb c7 cc 59 bc
       -0.015795866 -0.015222332 -0.0054975008 -0.013293452
000360 3d 2f 79 bc 8b 29 a0 bc 4a be db bb e7 f3 18 3d
       -0.015209016 -0.01955106 -0.006706034 0.03734198
000370 36 f3 49 bc 62 b8 53 bc 0a 32 93 3c 1f 6d ab 3c
       -0.012326052 -0.012922378 0.017968196 0.020926056
000380 55 16 1c 3d c4 18 ef bb 78 5b ff 3c ab 06 e6 bc
       0.038107235 -0.0072966535 0.031171545 -0.028079351
000390 7c 8b ea bc f0 21 a2 bb b1 d8 a2 bc 42 7c 44 3b
       -0.028630964 -0.0049478933 -0.019878717 0.002998129
0003a0 88 d8 95 bc ab a2 ea 3c 02 a0 95 3c 7d 2f 0e bc
       -0.018291727 0.02864202 0.018264774 -0.008678314
0003b0 22 ec 08 3d e6 07 95 3c f3 85 5a 3c bc 60 de 3c
       0.03342832 0.018192243 0.0133376 0.027145736
0003c0 83 7e 93 3c 00 db b6 bc b5 0a 3f bc 59 38 c8 3c
       0.018004661 -0.022321224 -0.011660268 0.024440931
0003d0 d0 a8 04 3d c1 4c a1 3c 1b ff 5b bb 9f c2 a8 bc
       0.032387555 0.01968992 -0.0033568803 -0.020600615
0003e0 28 ec da 3c ff 81 60 3c 2f 1b 7d 3c 47 cc ca 3b
       0.026723936 0.0137028685 0.015448376 0.0061889025
0003f0 c6 7e a3 bc b5 5c 5c b9 5f 88 fa bc 95 4e a1 bb
       -0.019957911 -0.00021015371 -0.030582605 -0.004922698

base.6.bias f4 [32]
000000 56 ec 98 34 d6 ef 8e b5 c5 bb 78 b7 2c d1 2c b3
       2.8484163e-07 -1.0649626e-06 -1.482567e-05 -4.023711e-08
000010 99 f4 3a 36 e7 ac 9c 36 c4 a3 fd 35 7a 87 5f 37
       2.7858534e-06 4.669291e-06 1.8897631e-06 1.3323379e-05
000020 76 8a 4a b5 19 c2 71 36 34 af 6f 37 7e c2 06 36
       -7.545235e-07 3.6024778e-06 1.4286303e-05 2.0080765e-06
000030 d1 25 46 b6 1c 31 bd 37 1b 79 af 36 56 ee ab 37
       -2.9526311e-06 2.2553424e-05 5.229505e-06 2.0495772e-05
000040 bc 5e 9e b7 d5 92 80 b6 19 0a 04 b6 ef ae 31 b7
       -1.8879182e-05 -3.8317908e-06 -1.967541e-06 -1.0590752e-05
000050 79 6a c5 b4 d6 b8 7f 36 38 f3 01 36 21 62 17 b7
       -3.6771578e-07 3.810555e-06 1.936407e-06 -9.023149e-06
000060 70 52 4a b7 66 15 21 b6 9c 04 e1 b6 cf 3b f1 b7
       -1.2059332e-05 -2.4003325e-06 -6.706059e-06 -2.875729e-05
000070 8e b2 36 b7 5d f6 31 b7 06 98 35 36 8f ca 0a b8
       -1.0889618e-05 -1.0607383e-05 2.705959e-06 -3.309041e-05

base.7.weight f4 [32]
000000 0c d2 85 3f bb b9 82 3f 16 a0 85 3f eb 6a 85 3f
       1.0454726 1.021293 1.0439479 1.0423254
000010 f0 ab 85 3f 19 8e 83 3f e1 54 84 3f 28 fb 84 3f
       1.0443096 1.027774 1.0338403 1.0389147
000020 8d fe 85 3f 33 8d 84 3f 27 3a 85 3f 85 7c 83 3f
       1.0468308 1.035559 1.0408372 1.0272375
000030 04 d7 85 3f dc cc 86 3f 26 48 85 3f 37 74 86 3f
       1.0456243 1.0531268 1.0412643 1.0504216
000040 43 67 83 3f 4e 8c 83 3f 57 b0 85 3f 8e e0 84 3f
       1.0265888 1.0277193 1.044444 1.0381029
000050 6e 7d 84 3f 11 c2 84 3f 48 bc 85 3f 37 7d 85 3f
       1.0350778 1.0371724 1.0448084 1.0428838
000060 26 79 86 3f e3 8c 84 3f 05 16 88 3f 6e ee 85 3f
       1.0505722 1.0355495 1.063172 1.0463388
000070 32 a7 84 3f 14 d5 84 3f 6c 40 86 3f 23 0c 85 3f
       1.0363524 1.0377526 1.048841 1.0394329

base.7.bias f4 [32]
000000 dd 81 a5 3c b4 f3 9e 3c a6 97 7a 3c 0d a1 af 3c
       0.020203525 0.019403316 0.015294945 0.0214391
000010 02 1d 89 3c 16 02 61 3c e9 40 5f 3c 65 cf b5 3c
       0.016737465 0.0137334075 0.013626316 0.02219362
000020 a5 49 b7 3c 0d 91 ae 3c 9d 6a dd 3c 3f 95 a8 3c
       0.022373984 0.0213094 0.027028376 0.020578979
000030 d5 b9 b3 3c b0 c7 b5 3c e4 75 6b 3c 79 f9 0e 3d
       0.021939198 0.022189945 0.014371369 0.034905884
000040 c1 4e 54 3c 63 fe ad 3c 23 30 1d 3d d7 e1 84 3c
       0.0129582295 0.021239465 0.038375985 0.01622097
000050 13 23 88 3c b1 0d c8 3c 91 08 ab 3c 2a 15 4e 3c
       0.016618287 0.024420591 0.020878108 0.012578288
000060 65 4d df 3c c2 84 92 3c cf 57 a0 3c b5 14 33 3c
       0.027258584 0.01788557 0.01957312 0.01093023
000070 f3 04 4d 3b fa ae 2e 3c 97 47 0b 3d 05 39 aa 3c
       0.0031283468 0.010661835 0.03400382 0.020779142

base.7.running_mean f4 [32]
000000 39 10 c0 3c 29 de 44 3e 8a 63 a1 3b 97 37 b0 3e
       0.023445236 0.19225372 0.004925196 0.34417412
000010 4a 5d 88 3e 11 20 ef bd be b7 63 3e 2d 27 ec bc
       0.26633674 -0.11676038 0.22238061 -0.028827274
000020 8d 5d b4 3d ef d9 9c 3d 24 1a 39 3e a2 10 11 be
       0.08806906 0.07658755 0.18076378 -0.14166501
000030 de b8 67 3e cc f3 22 3e 5d 17 84 3e 8c 76 b1 3e
       0.22629115 0.15913314 0.25799075 0.34660757
000040 b9 92 8e be 30 53 40 3d 90 94 45 3e 4a da 6a bd
       -0.27846316 0.046954334 0.19294953 -0.057337083
000050 83 0a 81 38 df a8 83 3e 13 30 05 be 28 00 99 3c
       6.153157e-05 0.25714776 -0.1300662 0.018676832
000060 cb 20 83 3e 28 4d 27 3e 5a b2 b2 3d db ff ef 3d
       0.25610957 0.16338027 0.08725424 0.117187224
000070 78 04 01 3d f8 78 05 3d 1f e4 8f 3d 43 11 8d be
       0.031498402 0.032586068 0.070259325 -0.27552232

base.7.running_var f4 [32]
000000 bb cf ff 3c c9 0b 83 3d 0a c5 c1 3d dd 31 28 3e
       0.031226983 0.06398732 0.0946141 0.16425271
000010 94 56 5a 3d a0 68 53 3d bb 5d 12 3e 78 04 f9 3d
       0.053305224 0.05161345 0.14293568 0.121590555
000020 b6 f5 0e 3d 72 41 8c 3d 10 24 92 3d fe 85 a1 3d
       0.034902297 0.0684842 0.071357846 0.07886885
000030 e3 e5 80 3d 76 20 bf 3d 9c e5 31 3e 07 35 f7 3d
       0.062938474 0.09332363 0.17372745 0.12070661
000040 1c c3 21 3e e4 39 ab 3d 11 36 f7 3d dc a1 65 3d
       0.15797085 0.08360651 0.12070859 0.056062564
000050 2a e6 a9 3d d2 78 23 3d f1 09 8b 3d e1 c9 b0 3d
       0.082958534 0.039910145 0.067890055 0.08632255
000060 f1 f4 08 3e 25 20 1b 3e 4f e0 94 3d 85 a0 91 3d
       0.13374688 0.15148981 0.07269346 0.07110695
000070 77 5f af 3d ae 2d 9e 3d 52 f1 57 3d 69 0f 8a 3e
       0.0856313 0.077235565 0.052720375 0.26964882

head.0.weight f4 [24, 1024]
000000 70 92 7e 3c a1 87 6b 3c c6 b3 54 3c d8 5c 2e 3c
       0.015537843 0.014375598 0.012982314 0.010642253
000010 67 3c 80 3b 4d 38 79 3a 69 56 5f 3b a3 ac 97 bc
       0.0039134505 0.00095069857 0.0034078604 -0.018514937
000020 9c bc 56 3b 5e a0 d6 bc 8d 40 a1 3b d4 d1 89 3b
       0.0032766229 -0.026199516 0.004921025 0.0042059217
000030 9e 26 6b 3c 74 0b 80 3c 70 cc 85 3c ec 82 83 3c
       0.014352469 0.015630461 0.016332835 0.01605364
000040 8e 27 11 3d f3 c3 c3 3c 1a 3c 43 bc ad 34 87 3b
       0.035438113 0.023897147 -0.011916185 0.0041261525
000050 36 a4 b4 3b 6b ec 07 3d 00 cb ac bb 3a 4b a9 3c
       0.0055127395 0.03318445 -0.005273223 0.020665754
000060 8e 1c dc bc fa e9 11 bc f3 01 06 bd 60 eb e8 3b
       -0.026869085 -0.008905882 -0.032716703 0.007108137
000070 f7 e1 dd 3b 26 47 fe 3c 06 54 b5 3c 6b a5 00 bc
       0.006771322 0.031039786 0.022134792 -0.007851939
000080 03 7e e8 39 da 8c 54 bb ca 01 87 bb 70 9c b4 bb
       0.00044344374 -0.0032432587 -0.0041200863 -0.005511813
000090 24 12 03 bc 91 07 1d 3c d6 81 f8 3b 9d f2 cb 3c
       -0.0079999305 0.0095843235 0.007583837 0.02489596
0000a0 29 7d 0e 3d de 0a eb bb e2 40 11 3d 94 80 8d 3a
       0.03478733 -0.0071729263 0.035462268 0.0010795766
0000b0 30 df 44 3a 64 16 c4 b9 2f 65 0d 3a e1 1e 0e 3a
       0.0007510064 -0.00037400716 0.00053938007 0.00054214714
0000c0 f1 47 ff 3c dd b5 98 3c fb 0e 7f bc 83 fa d6 3c
       0.031162234 0.018641407 -0.0155675365 0.0262425
0000d0 e6 d2 d5 3c db 0b 60 bc 0b 16 b9 bb d6 29 e0 bb
       0.02610154 -0.013674702 -0.0056483797 -0.0068409247
0000e0 e5 a0 ac 3c 9f 92 15 bd 02 b5 a1 bc da b5 c7 3c
       0.021072814 -0.036516782 -0.019739632 0.024378706
0000f0 8f 50 d8 3c 88 67 c6 3c 65 3c 89 bc df 86 b1 bc
       0.0264056 0.02421929 -0.016752431 -0.021670757
000100 96 c5 98 3b 1d 95 19 bd c1 f5 be bb 30 52 02 bd
       0.004662226 -0.03749572 -0.005827636 -0.03181666
000110 02 3e c4 bc 1e 02 12 bd d9 a2 30 3c ac 85 a4 3c
       -0.023955349 -0.03564655 0.010781013 0.020083271
000120 e9 c6 4d 3b 28 98 ac bc cd da 91 bc 92 16 4f bc
       0.0031399077 -0.021068648 -0.017804528 -0.0126396585
000130 9f 58 1c bd d7 2c d1 bc 21 73 3c bb 59 15 1d bd
       -0.038170453 -0.025534077 -0.0028755146 -0.038350437
000140 94 87 03 3a 17 f6 f9 ba 25 98 3a bb 96 8d 7c ba
       0.0005017456 -0.0019070533 -0.0028472033 -0.0009634135
000150 f0 7d 2c bb 34 eb 03 bb 6f c3 f8 3c 24 8e 63 3b
       -0.0026320182 -0.0020129206 0.030366627 0.0034722174
000160 15 31 45 3b d0 9b 4e bc 5a b3 ac bc 8b 2a 48 bb
       0.003008907 -0.012610391 -0.021081615 -0.0030542936
000170 fe 22 a4 ba 96 2c 45 b4 2b 3c 00 00 65 94 00 00
       -0.0012522636 -1.8363275e-07 2.1584e-41 5.3234e-41
000180 06 41 a3 3c 50 4f 07 3c 4c 2d 71 bc 0e 32 43 3a
       0.019928467 0.008258656 -0.014720272 0.00074461184
000190 2a 04 a6 3c 9a f4 c7 39 8e ad cf 3b 43 97 1b 3d
       0.020265657 0.0003813848 0.006337828 0.03798605
0001a0 07 d7 2a 3d 9f c7 9a 3c 49 57 d3 ba 12 a5 44 bc
       0.041708972 0.018894015 -0.0016124035 -0.012002246
0001b0 c9 dd 15 bc 0d aa cc ba 4c fb 85 bc c0 02 ad bc
       -0.009147116 -0.0015614644 -0.01635518 -0.021119475
0001c0 81 f3 22 bb 9c 9e 84 bb 50 fd 48 bb 65 2e 67 b9
       -0.0024864378 -0.004047228 -0.0030668564 -0.0002204716
0001d0 df 38 61 bc e1 b0 0f 3c b7 21 e9 bc e4 2f 83 bc
       -0.013746469 0.008770199 -0.02845846 -0.016014047
0001e0 e4 2a c7 3b 5c 2c d6 bc 7d 3b 0a bc ec ca 2d b9
       0.006078111 -0.0261442 -0.008437035 -0.0001657416
0001f0 ae 9f 2a 3b 27 aa dc ba 50 4d 91 b6 10 9c 37 ba
       0.0026035118 -0.0016835377 -4.330337e-06 -0.0007004151
000200 b1 dc 40 3a 29 d2 a1 b9 93 80 9a 3b f5 e0 fb 3b
       0.00073571043 -0.00030864895 0.0047150343 0.007686729
000210 8c a6 cb bc 7a 18 be 3c ab c9 11 3c 8e b8 16 3b
       -0.02485969 0.02320503 0.008898179 0.0022998187
000220 44 66 39 3b db 8d 01 3d f0 09 56 bc 91 69 e9 3c
       0.0028289715 0.031629425 -0.013063893 0.02849272
000230 98 50 5f 3b 02 14 e4 ba d6 0b c9 39 d6 0b c9 39
       0.0034075137 -0.0017400982 0.00038346526 0.00038346526
000240 2e ce fe bc 11 68 d5 3b e0 79 02 bd 6d 08 17 bd
       -0.031104174 0.00651265 -0.03185451 -0.03687327
000250 1e 03 16 bc 62 71 6b bc 33 44 b4 bc 70 17 02 3d
       -0.009156017 -0.014370294 -0.022005176 0.031760633
000260 18 75 81 3b fc db 90 3c fa 3e c5 3b a9 4e 58 bc
       0.0039507262 0.017683022 0.0060194703 -0.013202348
000270 37 31 2f bc a4 a1 a5 bb c3 1b 3e bd f9 32 0b bd
       -0.010692886 -0.0050546695 -0.046413194 -0.03398416
000280 94 98 dc 3c f3 83 d8 3b ad a8 57 3d 63 ee 53 3d
       0.026928224 0.0066075264 0.052651096 0.051741015
000290 31 fc 0e 3d 68 11 10 3d 4e 0f 8e 3c b4 d5 21 3c
       0.034908477 0.03517285 0.017341282 0.009877611
0002a0 ce 24 74 3c d0 31 48 3c 58 be 03 3d a5 50 0a bc
       0.014901353 0.0122189075 0.032163948 -0.008442079
0002b0 13 a6 32 3d 58 75 f0 3c 98 4b 48 bb d7 e4 59 3d
       0.043615412 0.029352829 -0.0030562636 0.053196754
0002c0 3d 81 9f 39 74 70 ef ba 83 ee a6 bb b5 60 34 bb
       0.00030423133 -0.0018267767 -0.005094351 -0.0027523462
0002d0 e5 60 b9 3b 4b eb e9 3c 55 b5 20 3c b7 28 2d bc
       0.0056573027 0.02855458 0.009808858 -0.010568789
0002e0 f7 4b 27 bc 71 05 cd bc 5d 2a cd bc b2 ef ca 3b
       -0.0102109825 -0.025027009 -0.025044614 0.0061931247
0002f0 11 5b 36 b9 8c 98 4e 37 a0 e8 ca b1 6a 17 99 30
       -0.00017390797 1.2314074e-05 -5.90542e-09 1.113887e-09
000300 8b 1c cb 3a f5 09 d2 3a 67 27 be 3a e5 1f 2d 3a
       0.0015496177 0.0016024696 0.0014507592 0.0006604179
000310 4a c8 aa ba 4a d4 82 b9 10 c1 cc 3c 62 9c fc 3c
       -0.0013029661 -0.000249537 0.024994403 0.030836288
000320 c5 26 45 bd 0e f9 ae 3c ad c9 8d 3c 6c bc 44 3a
       -0.048132677 0.021358993 0.01730808 0.00075048837
000330 c1 c8 ac 3b 11 aa 5b 3b 84 23 95 3a fb 1e 7c 3a
       0.005272955 0.0033518116 0.0011378382 0.00096176536
000340 a9 8a 8f bb 6a 33 51 3c 89 7a 51 bc 84 19 f6 3b
       -0.0043805433 0.012768606 -0.012785562 0.007510366
000350 1b cd c0 3c bb ee 2a 3d 9f 1a bc 3b 80 40 69 3b
       0.023535302 0.041731577 0.005740478 0.0035591424
000360 36 c1 8f bb d9 18 75 3b 0e 12 b0 3c 43 ad 46 3c
       -0.004387046 0.0037398844 0.021492984 0.01212627
000370 cb 38 c7 bc 67 bc d4 bc 0f 1b c6 bc 3a f9 d8 3b
       -0.024319073 -0.025968743 -0.024182824 0.006621507
000380 0e f5 49 3b ab 8f 02 bd 23 1e ab bc ab 3b 9e 3c
       0.003081623 -0.031875294 -0.020888394 0.019315561
000390 fb cc 88 bb 8a 01 10 3d f8 11 03 3d 6b 18 13 3d
       -0.004174826 0.035157718 0.03199956 0.03591196
0003a0 3c b4 07 3d 7d ed e1 ba c0 96 e0 ba 7b bc 89 bb
       0.03313087 -0.0017236915 -0.0017134771 -0.004203377
0003b0 17 87 bc bb 7b 3f 93 3c 08 f1 86 bc cb 7a 10 bd
       -0.0057534087 0.017974606 -0.016472355 -0.035273355
0003c0 0c 21 45 39 01 26 f1 bb 92 bd 45 bc ba 34 d3 bb
       0.00018799695 -0.0073592667 -0.012069123 -0.0064454945
0003d0 e2 c1 4d 3c d5 a4 a1 3a a1 ab 33 3c cd fe 9d bc
       0.012558432 0.0012332449 0.0109662125 -0.019286538
0003e0 43 b5 d0 bc 80 db e6 ba 32 e9 68 bc e5 d5 eb bc
       -0.025477057 -0.0017613024 -0.014215754 -0.028788516
0003f0 9f e9 93 3c 96 af e3 bb 18 93 9e b9 19 93 9e b9
       0.018055735 -0.0069484217 -0.00030245702 -0.00030245705

head.0.bias f4 [24]
000000 fb 37 d0 3c f6 bd 4f 3c 01 fa a8 3b b1 3c 93 bc
       0.025417319 0.012679568 0.005156756 -0.017973276
000010 27 11 a3 bc 99 a4 40 bc 97 ce d2 bb 55 df b3 bb
       -0.01990564 -0.011757993 -0.006433319 -0.0054892697
000020 6c ae 03 3d 72 73 8a 3b 6d 7b ba 3c 83 cf c8 3c
       0.032148764 0.004225188 0.022763932 0.024513012
000030 a7 29 bd 3a aa e1 c9 3c 6d 8c 2c bc cc 03 a0 b9
       0.0014431969 0.024643738 -0.010531527 -0.00030520407
000040 89 1d 80 bb 56 7a 02 3d ad 29 ad 3c 99 f7 6f 3c
       -0.003909771 0.03185495 0.021138037 0.014646434
000050 94 1b 51 b9 e1 4d 91 bc e8 84 17 3c 5d 63 21 bc
       -0.00019942067 -0.01773733 0.009247996 -0.00985035

head.2.weight f4 [2, 24]
000000 a8 eb 17 be 8d 1f 82 3e 9e e7 d7 bb 8d 83 be 3d
       -0.1483599 0.25414696 -0.00658889 0.09302435
000010 55 39 3c bd 12 03 fe bd f5 99 80 3a d0 ad f9 3b
       -0.045953114 -0.12402929 0.0009811508 0.007619597
000020 34 7d 4a be 2b b4 48 3e 8f 1c f6 bd 96 18 75 be
       -0.19774324 0.19599979 -0.12017166 -0.2393516
000030 da 13 00 bd c8 9b 4c 3e 29 b6 e1 bd 68 0c 4c 3e
       -0.031268932 0.19981301 -0.110210724 0.19926608
000040 61 fa c2 3d 90 be 40 3e 60 d8 1c 3e c1 f0 63 3e
       0.09520412 0.18822694 0.15316916 0.22259809
000050 3c 15 9d 3d d1 db 13 3e 9f 81 96 bd b7 67 1a 3e
       0.07670066 0.14439322 -0.07348942 0.15078627
000060 75 b7 0a 3e eb 6b 04 be 05 ec df 3d e2 f2 d9 bd
       0.13546546 -0.12931792 0.10933689 -0.10642029
000070 ed 39 27 3e a7 74 7b be 86 f7 33 be ce 59 04 be
       0.1633069 -0.24556218 -0.17574891 -0.12924883
000080 a4 73 43 3e b3 2c 60 be f8 86 1c 3e d5 fe 4f 3e
       0.19087082 -0.21892051 0.15285861 0.20312054
000090 da 13 00 3d bf cc aa 3c ca b0 0e 3e 49 30 b9 3d
       0.031268932 0.020849584 0.13934627 0.09042413
0000a0 ae 00 63 bd 56 b1 3d 3c 16 0c 62 be 2f 42 08 3d
       -0.05542057 0.011577925 -0.22074923 0.033266243
0000b0 16 f0 23 3e fc fa 04 bd 15 93 56 3e 4b 66 29 bd
       0.16009554 -0.03246592 0.20954545 -0.04135732

head.2.bias f4 [2]
000000 6a 48 0d 3e 3b d0 0b bd
       0.13797155 -0.03413413
