models/AC-RM Q_LR=0.01 P_LR=1e-06 BATCH_SIZE=48_q.pt (torch, 737043 bytes, 22 tensors)

base.0.weight f4 [64, 2, 5, 5]
-0.1847815 0.011913223 -0.08548756 -0.044593234 -0.12974331 -0.052550215 -0.056891177 -0.051293116
-0.13715774 -0.14022383 0.06476993 -0.058945347 0.023383249 -0.007963586 0.08774299 0.013169226
-0.18564844 0.03206372 0.013566554 -0.08302811 -0.17061877 -0.11786189 0.049690314 0.08411252
-0.015370781 -0.0007611715 -0.0033624729 -0.060851023 0.008738163 0.08922994 0.033660635 -0.15889893
0.0917964 -0.12311853 -0.101984635 -0.0053910366 -0.1763995 0.023329113 0.079292156 -0.11476439
-0.029127618 0.08625753 -0.15621854 -0.05946212 0.038898773 -0.05589536 0.019641532 0.0741481
-0.1043003 -0.07809965 0.0046235532 -0.009446514 0.07060641 -0.11811527 -0.17684413 -0.08841676
-0.13550225 0.0107405055 0.004940095 -0.055020943 0.05660652 0.034080897 0.03783244 -0.02315492
-0.07802425 -0.15943411 -0.018499557 -0.053982273 -0.0012452009 0.06206288 -0.07635369 -0.06114045
0.04718856 0.06442787 -0.17050111 -0.14297989 -0.14733411 -0.08160026 0.0036110315 -0.036796987
0.014381937 -0.0922277 -0.12833104 -0.19999212 -0.06338593 -0.034597572 -0.085665114 0.051058095
-0.08656416 -0.07682166 -0.08791697 0.020852728 0.034177445 0.0034651284 -0.13545573 -0.12539427
-0.056204103 -0.19046958 -0.08923227 0.010245997 -0.26702076 -0.36430404 -0.21356781 -0.36994964
-0.25714263 -0.11284344 -0.73209625 -0.52161217 -0.49703667 -0.123240896 -0.3445781 -0.2617455
0.14165595 -0.5269357 -0.17474502 -0.075061694 -0.3610957 -0.22125548 -0.34066606 -0.3769152
-0.1556697 -0.5739713 -0.16093418 -0.30705178 -0.46677017 -0.056649603 -0.096570015 -0.13333108
-0.19110394 -0.12074378 0.032639597 -0.29863688 -0.31187144 -0.27530515 -0.1381956 -0.11893319
0.040310822 0.3582731 -0.2566844 -0.3906497 -0.08183279 -0.30232948 -0.021544077 -0.13495798
-0.41157252 -0.27154198 -0.2957988 -0.047601484 -0.38894567 -0.56867373 -0.04239142 -0.106211185
-0.0075025605 0.05164022 -0.049314365 -0.056652796 -0.20860395 -0.009924569 0.053251542 -0.09729926
0.0112958215 0.01577264 -0.05863412 -0.0513652 -0.07930414 -0.010426479 -0.04778138 -0.009451368
-0.083586596 -0.13090123 -0.15003929 -0.043749597 -0.016628338 -0.01244621 0.04269226 -0.17614838
-0.19355494 -0.15633187 -0.11595588 -0.15391941 0.04905664 -0.062276892 -0.0943207 0.040419113
0.02798823 0.024014547 0.049642153 -0.1927922 -0.016705634 -0.19891983 0.009772716 -0.09846813
0.029475307 -0.03249674 0.014622876 0.06120845 -0.13361032 -0.14601775 -0.13188167 -0.031972494
0.067420766 -0.117964566 -0.15958768 -0.14936686 -0.1234953 -0.13926058 -0.116460875 -0.08272344
-0.085372254 -0.027207093 -0.02381592 -0.083687924 -0.041969664 0.004123491 -0.09880894 0.07471134
0.05287915 -0.13690273 -0.10688595 0.082624085 -0.06737687 0.03896437 -0.052113168 -0.12263429
-0.13096039 0.016860822 0.079040535 -0.064062856 -0.15152484 -0.038918264 -0.18859074 0.027964735
-0.11364413 -0.11856638 -0.16376457 0.008787107 0.065950714 -0.06948969 -0.15534134 0.047030993
-0.067599155 -0.07422968 0.050063152 0.0049408935 0.09124497 -0.0049415706 -0.07275681 -0.089498214
0.074150294 -0.14479536 -0.1887772 -0.0078075887 -0.11599221 -0.021729203 -0.18375352 -0.2137447
00000000: 5d37 3dbe ae2f 433c 1a14 afbd 65a7 36bd
00000010: 6edb 04be e53e 57bd b906 69bd bb18 52bd
00000020: 1473 0cbe d696 0fbe 19a6 843d ad70 71bd
00000030: 3a8e bf3c b379 02bc 99b2 b33d bdc3 573c
00000040: a01a 3ebe 3f55 033d 4046 5e3c a40a aabd
00000050: b0b6 2ebe 9361 f1bd 1288 4b3d 2f43 ac3d
00000060: bad5 7bbc 5b89 47ba ef5c 5cbb ec3e 79bd
00000070: 832a 0f3c 30be b63d bcdf 093d 67b6 22be
00000080: c0ff bb3d 9125 fcbd 52dd d0bd 4ba7 b0bb
00000090: 12a2 34be b21c bf3c ed63 a23d 9809 ebbd
000000a0: 0b9d eebc caa7 b03d c1f7 1fbe 8d8e 73bd
000000b0: 5254 1f3d 88f2 64bd 47e7 a03c f6da 973d
000000c0: 659b d5bd b6f2 9fbd 2d81 973b 8dc5 1abc
000000d0: 189a 903d 6be6 f1bd a116 35be d913 b5bd
000000e0: 1ac1 0abe f2f8 2f3c 85e0 a13b a45d 61bd
000000f0: 3ddc 673d 6998 0b3d 30f6 1a3d 63af bdbc
00000100: 2ecb 9fbd b242 23be 628c 97bc 841c 5dbd
00000110: 0236 a3ba a535 7e3d 535f 9cbd 696e 7abd
00000120: cb48 413d c2f2 833d d897 2ebe 5269 12be
00000130: c1de 16be 0a1e a7bd 0ea7 6c3b 70b8 16bd
00000140: 37a2 6b3c e0e1 bcbd 3669 03be bcca 4cbe
00000150: 7cd0 81bd 2fb6 0dbd 3171 afbd 4b22 513d
00000160: 8d48 b1bd ad54 9dbd d00d b4bd 57d3 aa3c
00000170: a6fd 0b3d 3517 633b e8b4 0abe 5b67 00be
00000180: 4636 66bd 750a 43be 69bf b6bd d4de 273c
00000190: f2b6 88be 0f86 babe 85b1 5abe 0a6a bdbe
000001a0: 33a8 83be 761a e7bd a96a 3bbf 6088 05bf
000001b0: 977b febe b965 fcbd 8a6c b0be 8203 86be
000001c0: 420e 113e 42e5 06bf 5cf0 32be f2b9 99bd
000001d0: 89e1 b8be cc90 62be c86b aebe 07fb c0be
000001e0: e167 1fbe c8ef 12bf eecb 24be e435 9dbe
000001f0: 80fc eebe 6a09 68bd 80c6 c5bd f187 08be
00000200: c0b0 43be 8448 f7bd 19b1 053d efe6 98be
00000210: 9dad 9fbe ccf4 8cbe 2683 0dbe 3f93 f3bd
00000220: f61c 253d 926f b73e 236c 83be 3d03 c8be
00000230: f397 a7bd eeca 9abe 347d b0bc 6d32 0abe
00000240: a2b9 d2be 8d07 8bbe f172 97be c6f9 42bd
00000250: e323 c7be 9a94 11bf a0a2 2dbd 4085 d9bd
00000260: 0ad8 f5bb b284 533d dcfd 49bd c30c 68bd
00000270: 469c 55be a99a 22bc 4a1e 5a3d d644 c7bd
00000280: 1c12 393c a035 813c 552a 70bd 5164 52bd
00000290: 356a a2bd d3d3 2abc 69b6 43bd e9d9 1abc
000002a0: 732f abbd f90a 06be e6a3 19be c732 33bd
000002b0: 2738 88bc 30eb 4bbc 14de 2e3d 3e60 34be
000002c0: 4433 46be 7615 20be 477a edbd 0d9d 1dbe
000002d0: 9eef 483d 0e16 7fbd 362b c1bd 838e 253d
000002e0: 9347 e53c 28ba c43c 9255 4b3d 526b 45be
000002f0: 41da 88bc a4b1 4bbe be1d 203c a9a9 c9bd
00000300: 3376 f13c 4d1b 05bd ca94 6f3c b6b5 7a3d
00000310: 25d1 08be ad85 15be fd0b 07be 97f5 02bd
00000320: e613 8a3d 6897 f1bd f46a 23be a0f3 18be
00000330: 1beb fcbd 539a 0ebe 0a83 eebd e86a a9bd
00000340: a6d7 aebd 69e1 debc 9b19 c3bc 9364 abbd
00000350: 62e8 2bbd 591e 873b 575c cabd 4202 993d
00000360: cf97 583d 3b30 0cbe 05e7 dabd d136 a93d
00000370: e2fc 89bd 1a99 1f3d 9e74 55bd b027 fbbd
00000380: 7b1a 06be b51f 8a3c 01e0 a13d 6333 83bd
00000390: 5429 1bbe c268 1fbd ee1d 41be 4d16 e53c
000003a0: 41be e8bd eed2 f2bd e6b1 27be ccf7 0f3c
000003b0: 2b11 873d 9c50 8ebd cd11 1fbe 92a3 403d
000003c0: 6d71 8abd bb05 98bd 050f 4d3d 38e7 a13b
000003d0: a5de ba3d e6ec a1bb 8601 95bd d74a b7bd
000003e0: 1cdc 973d 3c45 14be cf4e 41be cdd6 ffbb
000003f0: 538d edbd 7101 b2bc e229 3cbe e4df 5abe

base.0.bias f4 [64]
-0.07829526 0.012746927 0.39655972 -0.18913345 0.02862481 -0.1154711 -0.13221982 -0.1489356
0.12202301 -0.030950962 -0.09673509 -0.1888025 0.07313174 0.3402319 0.056506936 0.049470633
-0.059485953 0.019786125 0.07011003 0.648445 0.081576414 -0.115302 -0.13394843 -0.115774155
-0.012222275 0.28783208 -0.12928325 -0.004346079 -0.039835904 0.019183546 0.0070162904 -0.09776895
-0.18297274 0.05764833 -0.190666 -0.12146243 -0.019873256 -0.045500793 -0.00198907 -0.1906158
-0.09263126 -0.022035103 0.042500332 -0.21888843 -0.13287161 0.02720659 -0.196866 0.037628774
-0.102973044 -0.15533997 -0.0061801146 0.10630758 -0.12437348 0.0067337975 0.03433989 -0.042602938
-0.1838599 -0.16265014 -0.11350103 0.33676028 -0.11513378 -0.15912661 -0.17728817 -0.068006925
00000000: 4459 a0bd 7dd8 503c e009 cb3e 33ac 41be
00000010: 947e ea3c 1d7c ecbd a264 07be 9382 18be
00000020: 33e7 f93d df8c fdbc 0c1d c6bd 7155 41be
00000030: 18c6 953d e032 ae3e d173 673d b8a1 4a3d
00000040: 8ba7 73bd 8316 a23c d995 8f3d 7e00 263f
00000050: 8911 a73d 7423 ecbd c729 09be 001b edbd
00000060: f03f 48bc ba5e 933e d462 04be 8e69 8ebb
00000070: f92a 23bd d026 9d3c e9e8 e53b 163b c8bd
00000080: 355d 3bbe a820 6c3d f33d 43be 4bc1 f8bd
00000090: 3dcd a2bc 0a5f 3abd 0f5b 02bb ca30 43be
000000a0: 75b5 bdbd f682 b4bc d414 2e3d 4a24 60be
000000b0: 7f0f 08be 5be0 de3c 3e97 49be a120 1a3d
000000c0: 88e3 d2bd 7111 1fbe 8f82 cabb cab7 d93d
000000d0: 86b7 febd 30a7 dc3b fca7 0c3d 6b80 2ebd
000000e0: c545 3cbe c28d 26be 3a73 e8bd d86b ac3e
000000f0: 42cb ebbd 16f2 22be 088b 35be 3747 8bbd

base.1.weight f4 [64]
0.9343732 0.93439966 0.73564935 0.9453571 0.93293554 0.9210723 0.9428583 0.91799057
0.8367581 0.93308866 0.9534862 0.92861986 0.9298346 0.5857532 1.5552521 0.93508935
0.9342739 0.78503716 0.9542206 0.86265737 0.9517129 0.95302385 0.9722228 0.95389944
0.9538264 1.4574224 0.92462176 0.9543306 0.9399664 0.9543449 0.9343873 0.95436835
0.9540411 0.9200671 0.9169218 0.95435774 0.95278496 0.92350817 0.9635366 0.94189686
0.9192654 0.95412755 0.9274406 0.8393016 0.93537855 0.9543577 0.91551197 0.94109565
0.9468788 0.93419874 0.961038 1.2846599 0.9269011 0.9344514 0.9658148 0.93435824
0.9570409 0.93439996 0.9560114 0.39475754 0.93436646 0.95437706 0.9543181 0.95436525
00000000: 1533 6f3f d134 6f3f 8453 3c3f ec02 723f
00000010: ddd4 6e3f 65cb 6b3f 295f 713f 6e01 6b3f
00000020: c735 563f e6de 6e3f ac17 743f 08ba 6d3f
00000030: a409 6e3f ecf3 153f 8012 c73f 0462 6f3f
00000040: 932c 6f3f 32f8 483f cd47 743f 1dd7 5c3f
00000050: 75a3 733f 5ff9 733f 98e3 783f c132 743f
00000060: f82d 743f d18c ba3f 03b4 6c3f 034f 743f
00000070: a3a1 703f f34f 743f 0234 6f3f 7c51 743f
00000080: 0a3c 743f 8489 6b3f 63bb 6a3f ca50 743f
00000090: b7e9 733f 086b 6c3f 56aa 763f 2720 713f
000000a0: fa54 6b3f b441 743f bf6c 6d3f 78dc 563f
000000b0: f874 6f3f c950 743f fe5e 6a3f a5eb 703f
000000c0: a666 723f a627 6f3f 9606 763f bc6f a43f
000000d0: 6449 6d3f 3538 6f3f a43f 773f 1a32 6f3f
000000e0: a200 753f d634 6f3f 2abd 743f a91d ca3e
000000f0: a432 6f3f 0e52 743f 314e 743f 4851 743f

base.1.bias f4 [64]
-0.046171844 -0.065592036 0.29801786 -0.076079704 -0.0518969 -0.08028092 -0.05918796 -0.0450255
0.036187194 -0.06633178 -0.0526534 -0.066253506 -0.06713506 0.29651704 -0.0392098 -0.06515926
-0.06609518 -0.005001379 -0.047168083 0.6257597 -0.044177007 -0.054216225 -0.014426339 -0.029548278
-0.05044162 0.34989154 -0.07381098 -0.045934923 -0.051803835 -0.045816634 -0.06564223 -0.045661103
-0.045903042 -0.074581 -0.083319 -0.045814294 -0.054939676 -0.07076397 -0.03396889 -0.07648407
-0.086889505 -0.047397174 -0.07020128 -0.11896061 -0.0678925 -0.045839477 -0.08424391 -0.0606566
-0.086699046 -0.06576468 -0.03923011 0.23987484 -0.09141796 -0.04561313 -0.054453447 -0.06571848
-0.06448357 -0.045430597 -0.06635422 0.30404574 -0.0656103 -0.0456133 -0.04600571 -0.045621198
00000000: b01e 3dbd 1e55 86bd cc95 983e adcf 9bbd
00000010: d891 54bd 536a a4bd 136f 72bd a96c 38bd
00000020: 0639 143d f5d8 87bd 17ab 57bd ebaf 87bd
00000030: 1b7e 89bd 15d1 973e 759a 20bd 3872 85bd
00000040: e95c 87bd 9ce2 a3bb 5233 41bd ca31 203f
00000050: f3f2 34bd d511 5ebd 745c 6cbc 3b0f f2bc
00000060: df9b 4ebd fc24 b33e 362a 97bd 4226 3cbd
00000070: 4230 54bd 39aa 3bbd 6f6f 86bd 2307 3bbd
00000080: d404 3cbd ecbd 98bd 27a3 aabd c5a7 3bbd
00000090: 6d08 61bd b3ec 90bd f622 0bbd aea3 9cbd
000000a0: 20f3 b1bd 8a23 42bd b0c5 8fbd 9fa1 f3bd
000000b0: 390b 8bbd 2dc2 3bbd 1288 acbd 0e73 78bd
000000c0: 458f b1bd a2af 86bd c0af 20bd c0a1 753e
000000d0: 5739 bbbd d5d4 3abd 940a 5fbd 6997 86bd
000000e0: f60f 84bd 6f15 3abd b9e4 87bd e2ab 9b3e
000000f0: b15e 86bd 03d5 3abd 7c70 3cbd 4bdd 3abd

base.1.running_mean f4 [64]
0.04374517 0.07831677 -0.056049164 0.09264566 -0.017674467 0.034194097 -0.029552925 -0.081038095
-0.017189588 0.03293529 0.056625254 0.0431421 0.03613011 -0.04150206 -0.03408676 0.018443828
0.15508944 -0.060256965 0.037684575 -0.036311228 -0.0032238662 0.059688874 -0.037313204 -0.013158846
-0.005228055 -0.07445984 -0.0072107366 0.026728837 0.16316749 0.016168302 0.087166585 0.013643677
-0.010487723 0.019037304 0.023449434 0.038250394 0.061778218 -0.0109791765 -0.016339717 0.115863875
-0.05892243 -0.024269594 0.008377643 -0.103938155 -0.054039717 0.021998553 0.012456643 -0.020507772
-0.024213279 0.014907451 -0.014241024 -0.10068977 -0.06227984 0.016640455 -0.0053792726 0.09960445
-0.033233866 3.267944e-05 -0.025244549 -0.010359442 0.09394389 0.0014840056 0.028463436 0.019096226
00000000: 232e 333d 8b64 a03d cf93 65bd 02bd bd3d
00000010: 0bca 90bc 1c0f 0c3d fa18 f2bc 4df7 a5bd
00000020: 2ed1 8cbc 28e7 063d e2ef 673d c5b5 303d
00000030: 2bfd 133d 10fe 29bd 8f9e 0bbd 8317 973c
00000040: c4cf 1e3e 02d0 76bd 245b 1a3d 15bb 14bd
00000050: 8047 53bb 527c 743d bbd5 18bd 3398 57bc
00000060: 1b50 abbb 677e 98bd 0b48 ecbb 6ff6 da3c
00000070: 6115 273e 6373 843c 6584 b23d bb89 5f3c
00000080: b3d4 2bbc 1ff4 9b3c 0719 c03c 72ac 1c3d
00000090: 280b 7d3d 01e2 33bc dfda 85bc 0a4a ed3d
000000a0: a558 71bd 07d1 c6bc 6242 093c 87dd d4bd
000000b0: c058 5dbd 4f36 b43c f316 4c3c eaff a7bc
000000c0: ed5a c6bc 623e 743c 2f53 69bc 7036 cebd
000000d0: 2519 7fbd 9051 883c 9c44 b0bb 6bfd cb3d
000000e0: 3c20 08bd 4811 0938 a8cd cebc a6ba 29bc
000000f0: a765 c03d f782 c23a 272c e93c b06f 9c3c

base.1.running_var f4 [64]
0.9003616 0.90076333 0.9005066 0.90148205 0.90026146 0.9003549 0.90014774 0.9006519
0.9000892 0.90011215 0.90046376 0.9005107 0.9001502 0.9003521 0.9003182 0.9000645
0.9029603 0.90056044 0.9002004 0.9003874 0.90019166 0.9006096 0.9001498 0.9000637
0.90017253 0.9008781 0.90007395 0.9003138 0.9028043 0.90013814 0.90057796 0.9001308
0.9002346 0.9000325 0.90051925 0.90023226 0.90044945 0.90011704 0.90007216 0.90179133
0.9003425 0.900191 0.9000595 0.90120524 0.9003948 0.9001778 0.9002907 0.90014637
0.9001887 0.900129 0.9000759 0.90080285 0.90047944 0.9001237 0.9001128 0.9012422
0.9002012 0.9000809 0.9001655 0.9001537 0.9012498 0.9001319 0.9001766 0.90029514
00000000: 197e 663f 6d98 663f 9a87 663f 87c7 663f
00000010: 8977 663f a97d 663f 1570 663f 1f91 663f
00000020: 3f6c 663f c06d 663f cb84 663f df87 663f
00000030: 3e70 663f 7a7d 663f 417b 663f a16a 663f
00000040: 6828 673f 218b 663f 8973 663f ca7f 663f
00000050: f672 663f 5a8e 663f 3870 663f 936a 663f
00000060: b571 663f f29f 663f 3f6b 663f f77a 663f
00000070: 2f1e 673f 746f 663f 478c 663f f96e 663f
00000080: c675 663f 8868 663f 6e88 663f 9f75 663f
00000090: db83 663f 126e 663f 216b 663f ccdb 663f
000000a0: d97c 663f eb72 663f 4d6a 663f 63b5 663f
000000b0: 4680 663f 0d72 663f 7479 663f fe6f 663f
000000c0: c472 663f db6e 663f 606b 663f 049b 663f
000000d0: d285 663f 826e 663f cb6d 663f cfb7 663f
000000e0: 9673 663f b46b 663f 3f71 663f 7970 663f
000000f0: 4fb8 663f 0b6f 663f f971 663f be79 663f

base.3.weight f4 [64, 64, 5, 5]
-0.046042494 -0.043106604 -0.057926837 -0.038680095 -0.07165978 -0.050493836 -0.06163301 -0.04692635
-0.068330325 -0.04204345 -0.062127087 -0.041420445 -0.0645089 -0.070688926 -0.05375801 -0.045404416
-0.084845655 -0.04309908 -0.08145693 -0.05585153 -0.044498354 -0.0565388 -0.06286356 -0.07697817
-0.05443129 -0.06178813 -0.054815 -0.05482791 -0.06368718 -0.054564722 -0.06164185 -0.07297422
-0.04462287 -0.080304265 -0.04027288 -0.051884007 -0.046454255 -0.061047524 -0.083727606 -0.07351507
-0.056659248 -0.06979884 -0.054112468 -0.08133544 -0.0519655 -0.059586465 -0.051482003 -0.04683543
-0.06221703 -0.040071864 -0.061745588 -0.040010393 -0.035463024 -0.018400675 -0.0677555 -0.046808723
-0.020964272 -0.054443248 -0.033112753 -0.07364853 0.03212964 -0.17651758 0.07732463 -0.07835792
-0.021408422 0.2704651 -0.0233509 -0.1714857 0.039922908 0.22644114 0.6611431 0.186691
-0.08816849 0.23993121 0.46012357 -0.047586136 -0.07939903 -0.08472089 -0.0552077 -0.07542579
-0.035108022 -0.079694025 -0.08168673 -0.067627564 -0.07942716 -0.05842706 -0.051490128 -0.057913177
-0.06747052 -0.048352946 -0.06001745 -0.055864315 -0.07341739 -0.07907284 -0.036216736 -0.06448515
-0.06991874 -0.062497944 -0.058900483 -0.082466446 0.017817656 -0.011113599 0.065671004 0.0669451
0.012383393 0.008319372 0.022796897 0.04618456 0.050824948 -0.0023184568 0.022307305 0.031718824
-0.08273399 0.07339101 0.00099352 -0.016441733 0.05476782 -0.0630607 0.08235019 -0.010614693
0.08073583 -0.07433571 0.07121488 0.06682397 0.13303985 -0.04656341 -0.07728124 -0.073892504
-0.07145461 -0.048316464 -0.044300716 -0.060120437 -0.03660194 -0.04534201 -0.06322682 -0.04369399
-0.05004552 -0.057436414 -0.056837495 -0.084291995 -0.08491615 -0.036356915 -0.06127748 -0.051150538
-0.040018875 -0.049308278 -0.040608484 -0.059433453 -0.08103821 -0.079876386 -0.020981057 -0.0048255445
-0.004720694 -0.0024821043 0.019654853 -0.0139867095 -0.012605706 -0.012144202 -0.024654431 -0.01589401
-0.020438334 -0.009959868 0.011269453 0.007911933 0.00093229715 -0.0242137 -0.009236625 -0.017046219
0.0049220803 0.01962385 -0.014104885 0.0044902298 -0.028389562 0.012400547 -0.02236915 -0.00078237354
-0.013887974 0.012313983 0.014399767 0.007372984 0.0160567 -0.0018430144 -0.0068586855 -0.0056515723
-0.0060256124 0.0016490876 -0.014334664 0.012319419 -0.020244753 -0.019001234 -0.0033852905 -0.011715451
0.012511245 0.00095593336 0.019624168 -0.006231058 -0.01698494 0.015817558 -0.01734146 -0.0014257402
0.009106547 -0.0034307465 -0.0129698375 0.0036989239 0.018314393 -0.0060785892 -0.03865918 -0.015420253
-0.0076050116 0.02951633 -0.0030584922 -0.020216696 0.008196712 -0.04343167 -0.028179193 -0.037816476
-0.028751278 -0.024921639 0.00089545164 0.033998452 0.6685267 0.12838891 -0.16451433 -0.3647528
0.099682875 -0.06869752 -0.069055535 -0.049845815 -0.07262993 -0.08232548 -0.06103106 -0.06859022
-0.039048243 -0.08258902 -0.046152577 -0.04126324 -0.046715688 -0.07687482 -0.0686817 -0.07432287
-0.07479381 -0.053243678 -0.07552956 -0.08121441 -0.05504848 -0.048964616 -0.06979975 -0.040161055
-0.05401065 -0.050571375 -0.046683736 -0.05046863 -0.047110848 -0.07927402 -0.042144895 -0.053844795
00000000: 0e97 3cbd 8d90 30bd b144 6dbd 056f 1ebd
00000010: 5dc2 92bd a0d2 4ebd e572 7cbd d835 40bd
00000020: c5f0 8bbd c135 2cbd f978 7ebd 7ca8 29bd
00000030: 3e1d 84bd 5bc5 90bd 5c31 5cbd fbf9 39bd
00000040: 8fc3 adbd a988 30bd e4d2 a6bd 93c4 64bd
00000050: e843 36bd 3b95 67bd 9cbe 80bd bba6 9dbd
00000060: 58f3 5ebd 8d15 7dbd b285 60bd 3b93 60bd
00000070: 6d6e 82bd 427f 5fbd 2a7c 7cbd 8273 95bd
00000080: 78c6 36bd 9076 a4bd 2df5 24bd 5384 54bd
00000090: d146 3ebd f80c 7abd 6179 abbd 128f 96bd
000000a0: 8713 68bd b2f2 8ebd 09a5 5dbd 3293 a6bd
000000b0: c7d9 54bd f010 74bd cbde 52bd 82d6 3fbd
000000c0: 49d7 7ebd 6522 24bd f1e8 7cbd f0e1 23bd
000000d0: ad41 11bd 03bd 96bc 65c3 8abd 81ba 3fbd
000000e0: 44bd abbc e2ff 5ebd 3da1 07bd 0ad5 96bd
000000f0: 5f9a 033d 06c1 34be 605c 9e3d 1e7a a0bd
00000100: b760 afbc 677a 8a3e 634a bfbc f399 2fbe
00000110: 3486 233d 30e0 673e ad40 293f ed2b 3f3e
00000120: ae91 b4bd 87b0 753e 5195 eb3e aee9 42bd
00000130: f59b a2bd 2582 adbd 7821 62bd d678 9abd
00000140: 6ecd 0fbd 9f36 a3bd 5f4b a7bd 5280 8abd
00000150: b5aa a2bd 3651 6fbd 50e7 52bd 5e36 6dbd
00000160: fc2d 8abd bd0d 46bd dcd4 75bd fbd1 64bd
00000170: db5b 96bd f1f0 a1bd 0058 14bd ca10 84bd
00000180: 8e31 8fbd d8fd 7fbd a241 71bd 2be4 a8bd
00000190: 55f6 913c d015 36bc 857e 863d 831a 893d
000001a0: b7e3 4a3c fa4d 083c 8fc0 ba3c 052c 3d3d
000001b0: d22d 503d 40f1 17bb cfbd b63c 99eb 013d
000001c0: 7070 a9bd 074e 963d 0039 823a d0b0 86bc
000001d0: 3954 603d f825 81bd 37a7 a83d 40e9 2dbc
000001e0: d458 a53d 523d 98bd 1bd9 913d 01db 883d
000001f0: 993b 083e 46b9 3ebd a045 9ebd f454 97bd
00000200: cb56 92bd 7ce7 45bd ab74 35bd d940 76bd
00000210: eaeb 15bd 8bb8 39bd 107d 81bd 78f8 32bd
00000220: 88fc 4cbd 7242 6bbd 6fce 68bd 48a1 acbd
00000230: 85e8 adbd fdea 14bd 18fe 7abd 3a83 51bd
00000240: d5ea 23bd 7af7 49bd 1555 26bd 7e70 73bd
00000250: 5cf7 a5bd 3b96 a3bd 77e0 abbc 9a1f 9ebb
00000260: 0db0 9abb cdaa 22bb 3703 a13c 8328 65bc
00000270: 2a88 4ebc 7af8 46bc 17f8 c9bc 2834 82bc
00000280: 4b6e a7bc b72e 23bc 83a3 383c 0da1 013c
00000290: 6765 743a cf5b c6bc 3755 17bc 83a4 8bbc
000002a0: 6749 a13b 32c2 a03c 2d18 67bc c722 933b
000002b0: 3a91 e8bc aa2b 4b3c 823f b7bc 3318 4dba
000002c0: 638a 63bc 97c0 493c 00ed 6b3c 1399 f13b
000002d0: 5789 833c 4d91 f1ba d3be e0bb d330 b9bb
000002e0: 8072 c5bb 3326 d83a f0db 6abc 63d7 493c
000002f0: 53d8 a5bc 7aa8 9bbc c0db 5dbb 2af2 3fbc
00000300: f7fb 4c3c 9a97 7a3a ddc2 a03c e72d ccbb
00000310: 0024 8bbc d393 813c ad0f 8ebc e7df baba
00000320: a033 153c 60d6 60bb 717f 54bc a569 723b
00000330: 1108 963c e72e c7bb 1759 1ebd 3ba5 7cbc
00000340: 7633 f9bb 3bcc f13c fc70 48bb 7c9d a5bc
00000350: 804b 063c 68e5 31bd 0dd8 e6bc 73e5 1abd
00000360: cd87 ebbc 7728 ccbc bebc 6a3a f641 0b3d
00000370: 9124 2b3f 6278 033e 7276 28be e1c0 babe
00000380: 8926 cc3d 49b1 8cbd fd6c 8dbd 202b 4cbd
00000390: 00bf 94bd 439a a8bd b4fb 79bd 0779 8cbd
000003a0: 0df1 1fbd 6f24 a9bd 7c0a 3dbd a503 29bd
000003b0: f358 3fbd 8c70 9dbd fea8 8cbd 9736 98bd
000003c0: 7f2d 99bd 0b16 5abd 3eaf 9abd be53 a6bd
000003d0: 847a 61bd 1f8f 48bd 2cf3 8ebd eb7f 24bd
000003e0: 453a 5dbd ee23 4fbd 7237 3fbd 32b8 4ebd
000003f0: 4ef7 40bd 6b5a a2bd 20a0 2cbd 5c8c 5cbd

base.3.bias f4 [64]
-0.032428402 -0.06954444 -0.29399863 -0.12791581 -0.2671729 -0.11943565 -0.18941653 -0.11457657
-0.29473272 -0.17297333 -0.079773486 -0.16758722 -0.18535985 -0.17081931 -0.039337635 -0.116330095
-0.08107458 -0.13782687 -0.26509082 -0.10588602 -0.26341507 -0.122065194 -0.07579899 -0.20463292
-0.3386537 -0.16486864 -0.10877924 -0.15459049 -0.13327716 -0.029019061 -0.026714029 -0.030747542
-0.10138799 -0.14923006 -0.07216725 -0.055754017 -0.24568845 -0.13340057 -0.06838519 -0.2862345
-0.046935793 -0.10187826 -0.049395148 -0.10964453 -0.12807627 -0.12140867 -0.036203675 -0.15423788
0.03512033 -0.030566752 -0.11679542 -0.029615235 -0.020280318 -0.15200481 -0.06543502 -0.0084436005
-0.089730695 -0.41034332 -0.043762255 -0.113010675 -0.08469488 -0.057999603 -0.120148756 -0.22844183
00000000: a5d3 04bd 516d 8ebd fd86 96be 5dfc 02be
00000010: e3ca 88be ae9a f4bd 68f6 41be 1fa7 eabd
00000020: 35e7 96be ec1f 31be 4860 a3bd fc9b 2bbe
00000030: f9ce 3dbe 42eb 2ebe 8020 21bd 793e eebd
00000040: 6e0a a6bd 7d22 0dbe fcb9 87be c5da d8bd
00000050: 57de 86be 51fd f9bd 803c 9bbd 4b8b 51be
00000060: 0564 adbe 53d3 28be a6c7 debd f84c 1ebe
00000070: cf79 08be 62b9 edbc 61d7 dabc 45e2 fbbc
00000080: 82a4 cfbd c4cf 18be 6ccc 93bd 535e 64bd
00000090: c195 7bbe 299a 08be 890d 8cbd 548d 92be
000000a0: bf3f 40bd 8da5 d0bd 9152 4abd 508d e0bd
000000b0: 6d26 03be 1ca5 f8bd 4e4a 14bd 89f0 1dbe
000000c0: 56da 0f3d 2067 fabc 7032 efbd a69b f2bc
000000d0: e922 a6bc 26a7 1bbe cc02 86bd 0757 0abc
000000e0: bac4 b7bd 8518 d2be 0d40 33bd 2472 e7bd
000000f0: 8274 adbd fe90 6dbd 8d10 f6bd a8ec 69be

base.4.weight f4 [64]
0.6329019 0.5558549 0.61423445 0.8211731 0.878425 0.93320817 0.8817783 0.9426087
0.73426527 0.89315397 0.9286178 0.8236922 0.6270204 0.8188527 0.9543598 0.8771168
0.8169786 0.9441889 0.7321037 0.81070507 0.60160553 0.9257758 0.9534256 0.6377903
0.49139425 0.83288 0.8044099 0.33053696 0.8939595 0.9344129 0.7148323 0.9544083
0.8682335 0.8324676 0.954129 0.5160591 0.81686956 0.49915612 0.95440745 0.7818092
0.93457097 0.8560415 0.95436746 0.57724893 0.87089 0.85867214 0.95441306 0.9800667
1.0974354 0.9542979 0.93191594 0.8333129 0.9538042 0.9141813 0.95442146 0.7446217
0.92535627 0.5529202 0.5139774 0.6175508 0.9892069 0.95400614 0.91979086 0.9572707
00000000: dc05 223f 824c 0e3f 783e 1d3f 6638 523f
00000010: 76e0 603f bbe6 6e3f 39bc 613f ce4e 713f
00000020: cff8 3b3f bda5 643f e5b9 6d3f 7edd 523f
00000030: 6984 203f 55a0 513f ed50 743f ba8a 603f
00000040: 8225 513f 5db6 713f 266b 3b3f 5e8a 4f3f
00000050: d202 1a3f a5ff 6c3f b313 743f 3a46 233f
00000060: 0798 fb3e a037 553f cfed 4d3f 243c a93e
00000070: 88da 643f af35 6f3f 40ff 363f 1a54 743f
00000080: 8d44 5e3f 991c 553f cc41 743f 731c 043f
00000090: 5d1e 513f 6491 ff3e 0c54 743f a624 483f
000000a0: 0b40 6f3f 8925 5b3f 6d51 743f 96c6 133f
000000b0: a6f2 5e3f f0d1 5b3f 6a54 743f a7e5 7a3f
000000c0: c378 8c3f de4c 743f 0b92 6e3f ff53 553f
000000d0: 832c 743f c907 6a3f f754 743f 879f 3e3f
000000e0: 26e4 6c3f 2e8c 0d3f 0694 033f cf17 1e3f
000000f0: aa3c 7d3f bf39 743f 6a77 6b3f b10f 753f

base.4.bias f4 [64]
-0.033890765 -0.09119271 -0.2885767 -0.11302051 -0.24936862 -0.12511723 -0.1658033 -0.1392612
-0.27136573 -0.19845358 -0.055331066 -0.15958388 -0.20101574 -0.1683936 -0.05058562 -0.12469161
-0.057331238 -0.117459446 -0.24379596 -0.094623275 -0.29639938 -0.13697349 -0.09342478 -0.18717162
-0.34003907 -0.17193016 -0.079390675 -0.08987999 -0.13680363 -0.04847233 -0.0019640466 -0.045571815
-0.12798403 -0.14911829 -0.057866115 -0.015396122 -0.23271894 -0.1294211 -0.045550033 -0.27941787
-0.03380292 -0.10512319 -0.04892309 -0.10923261 -0.14305075 -0.13432552 -0.0455061 -0.16934097
0.057526838 -0.048165955 -0.12552437 -0.027832905 -0.028138654 -0.17127761 -0.045803957 0.009282181
-0.07869962 -0.4242266 0.00067496573 -0.1255989 -0.078212135 -0.06142177 -0.14137158 -0.20978215
00000000: 0bd1 0abd 3ec3 babd 53c0 93be 4c77 e7bd
00000010: 7d5a 7fbe bb1e 00be 57c8 29be 7d9a 0ebe
00000020: 73f0 8abe 6a37 4bbe d4a2 62bd f569 23be
00000030: 12d7 4dbe 5f6f 2cbe de32 4fbd 515e ffbd
00000040: 29d4 6abd 948e f0bd a6a5 79be d9c9 c1bd
00000050: a9c1 97be c742 0cbe 7e55 bfbd eba9 3fbe
00000060: 9a19 aebe 760e 30be 9497 a2bd 0013 b8bd
00000070: 4016 0cbe ec8a 46bd 3cb7 00bb 83a9 3abd
00000080: 3f0e 03be 77b2 18be 0505 6dbd 0440 7cbc
00000090: e04d 6ebe f786 04be ac92 3abd dc0f 8fbe
000000a0: ee74 0abd d44a d7bd 9463 48bd 59b5 dfbd
000000b0: e57b 12be a18c 09be 9b64 3abd b867 2dbe
000000c0: 43a1 6b3d aa49 45bd 7689 00be d501 e4bc
000000d0: 0983 e6bc 6663 2fbe ee9c 3bbd 4a14 183c
000000e0: 442d a1bd 3b34 d9be 2ff0 303a ff9c 00be
000000f0: af2d a0bd 6595 7bbd b6c3 10be 22d1 56be

base.4.running_mean f4 [64]
0.0013696947 -0.00823609 0.0076480876 0.009285156 -0.028994827 -0.0089451615 0.013032756 0.008220418
0.0027682842 0.009273429 -0.0023644487 0.004829656 0.006014767 0.0014612487 0.0023989156 0.004919818
-0.0046819346 -0.0039095026 -0.006720643 -0.0071472707 -0.011257316 0.0148089845 -0.005655341 -0.003927451
-0.008034958 0.0021568544 -0.0061399066 -0.007397786 -0.011849124 0.0005460937 -0.0013024297 0.010989656
0.0007318003 0.0056466605 0.0087322965 -0.014621809 -0.024246598 -0.0067007835 0.003597889 0.005157238
0.01286048 0.01203424 -0.0042732377 -0.008928739 0.0005138901 0.0018620532 0.0026389302 0.0037392806
-0.011277036 0.0027509143 0.00429394 0.0023090015 -0.0020384197 0.0076516503 0.008836111 -0.007900322
0.002865711 -0.00053908274 0.005667077 -0.009395154 0.006307444 0.01317354 -0.014692484 -0.0054546953
00000000: 5487 b33a aaf0 06bc cf9c fa3b c420 183c
00000010: 8f86 edbc ba8e 12bc 5787 553c efae 063c
00000020: 1a6c 353b 95ef 173c def4 1abb 1742 9e3b
00000030: 8617 c53b 5f87 bf3a 2037 1d3b 6d36 a13b
00000040: ea6a 99bb 491b 80bb d738 dcbb a733 eabb
00000050: 9b70 38bc 62a1 723c 7050 b9bb d9b1 80bb
00000060: 0ea5 03bc 035a 0d3b 4531 c9bb 2069 f2bb
00000070: d422 42bc ba27 0f3a 4ab6 aaba f50d 343c
00000080: 49d6 3f3a 9f07 b93b e811 0f3c 5090 6fbc
00000090: cda0 c6bc 3f92 dbbb 90ca 6b3b 0cfe a83b
000000a0: c3b4 523c 432b 453c 8406 8cbb d849 12bc
000000b0: 95b6 063a 2310 f43a e7f1 2c3b b80e 753b
000000c0: 51c3 38bc af48 343b 2eb4 8c3b 9e52 173b
000000d0: 0297 05bb b2ba fa3b 56c5 103c 5a70 01bc
000000e0: a7ce 3b3b 3b51 0dba e3b2 b93b 22ee 19bc
000000f0: adae ce3b d5d5 573c bfb8 70bc 4dbd b2bb

base.4.running_var f4 [64]
0.9116553 0.90191734 0.90718037 0.90446764 0.91206306 0.9093591 0.9066655 0.9026089
0.9044391 0.90943867 0.90514237 0.90395004 0.9056614 0.9150124 0.9150689 0.90735584
0.90399224 0.90540457 0.90539974 0.9027738 0.90838134 0.9101567 0.9160604 0.9080164
0.90972537 0.9077858 0.9091447 0.90649635 0.9079598 0.90480304 0.9093399 0.9067808
0.9046119 0.91544 0.9066082 0.9050492 0.9045673 0.90688676 0.9049811 0.90391546
0.9165406 0.90307915 0.906144 0.9068721 0.91630185 0.90487 0.904407 0.90660375
0.9069758 0.91007406 0.9054144 0.9094226 0.90680206 0.90484583 0.9079135 0.9074818
0.90753645 0.90269107 0.90910727 0.90978765 0.9133604 0.90710545 0.9094146 0.90934646
00000000: 3e62 693f 0ee4 663f f93c 683f 318b 673f
00000010: f77c 693f c2cb 683f 3b1b 683f 6011 673f
00000020: 5289 673f f9d0 683f 69b7 673f 4569 673f
00000030: 6dd9 673f 413e 6a3f f541 6a3f 7948 683f
00000040: 096c 673f 98c8 673f 47c8 673f 2f1c 673f
00000050: ae8b 683f 0800 693f ef82 6a3f c373 683f
00000060: c3e3 683f a664 683f b5bd 683f 2510 683f
00000070: 0e70 683f 2ca1 673f 80ca 683f c922 683f
00000080: a594 673f 475a 6a3f 7a17 683f 4eb1 673f
00000090: b991 673f bb29 683f d7ac 673f 0167 673f
000000a0: 68a2 6a3f 3230 673f 0ef9 673f c528 683f
000000b0: c292 6a3f 8fa5 673f 3887 673f 2f17 683f
000000c0: 912f 683f 9dfa 683f 3dc9 673f ebcf 683f
000000d0: 2e24 683f faa3 673f 056d 683f ba50 683f
000000e0: 4f54 683f c316 673f 41bb 683f d8e7 683f
000000f0: fdd1 693f 1038 683f 65cf 683f eeca 683f

base.6.weight f4 [32, 64, 5, 5]
-0.059175257 -0.19222577 -0.10621691 -0.108356334 0.03130955 0.010972578 -0.10834949 -0.04659151
-0.0560903 0.06749809 0.019019363 -0.18767908 -0.030092549 -0.11342066 0.07043031 -0.050679687
-0.03278131 -0.10254598 -0.04629699 -0.019179808 0.06343605 0.63412786 -0.09107575 0.46151504
-0.06498651 -0.17195795 0.033103347 -0.2544716 -0.046394594 -0.20759414 -0.17690448 0.010236701
-0.19088091 -0.017655687 -0.1949874 -0.1445837 0.0330816 -0.22021586 0.0037496754 -0.23337954
0.12903614 0.057335775 0.11740215 0.017769592 0.011672218 0.6976578 0.10214901 0.24847439
0.23181564 0.049590528 0.19173348 0.20104685 0.18676502 0.2182948 0.20875771 0.23429963
0.2216967 0.2039918 0.1918542 0.2123848 0.22694448 0.21803473 0.19236843 0.22721854
0.19172667 0.21178104 0.1783265 0.19011143 0.24836037 0.18368874 0.08431505 -0.060265664
-0.33902743 0.09300696 0.19735855 0.0072809802 -0.011474499 -0.008216383 -0.00057746976 0.00065858907
-0.01042186 -0.03650679 -0.019998038 -0.021041008 -0.015326326 0.0012867032 -0.006126647 0.020908449
-0.036920603 -0.018832669 0.0261718 -0.013531281 -0.0032216609 -0.030902058 0.0059586326 -0.10179061
0.0020368085 -0.11236479 -0.0538666 -0.25386336 -0.07679381 -0.045298833 -0.11139414 -0.053822074
-0.08526603 -0.073271506 -0.049211144 -0.06129996 -0.050014183 -0.08616228 -0.08054135 -0.07865951
-0.07944548 -0.08238333 -0.08297882 -0.018297873 -0.08290918 -0.0690204 -0.111173466 -0.050825663
-0.17735995 0.031339567 -0.09012292 0.020183677 -0.0932942 0.05641866 -0.14832325 0.12630437
-0.18595718 0.098243214 0.042396337 -0.045296066 0.3297103 -0.043271728 0.28265938 -0.20798711
-0.10284328 0.008492211 -0.092067584 0.036998782 -0.24880391 -0.08833969 -0.19177777 -0.080256894
-0.21967581 -0.1700084 -0.03350035 -0.27770826 0.17985922 -0.3721305 -0.045884226 -0.07764471
-0.07975234 -0.08200518 -0.084170796 -0.038716227 -0.08300202 -0.036817946 -0.06159732 -0.057972178
-0.072582014 -0.08222995 -0.04586157 -0.03511052 -0.05788369 -0.040095437 -0.07057094 -0.06805153
-0.037757874 -0.03954026 -0.07756354 -0.07064899 -0.06979016 -0.07239336 -0.06001064 0.0051735635
-0.044018183 0.13106175 0.07887596 0.014279014 0.15825531 -0.0442109 0.14931662 0.090675354
0.0594017 0.09021714 0.020937255 0.05397614 0.13286917 -0.029573172 -0.007749342 0.0032063287
0.021398874 0.12787046 -0.0056136306 -0.031116078 -0.04448821 0.013688691 -0.03809851 0.0019141767
-0.22917494 -0.27618286 -0.25262523 -0.26927385 -0.2651243 -0.22227563 -0.2834391 -0.262422
-0.26874205 -0.24290833 -0.2828896 -0.24273188 -0.29806212 -0.28560805 -0.24994831 -0.23149267
-0.22448225 -0.2826135 -0.22290911 -0.26210052 0.21199045 0.13489449 -0.3292442 -0.2323222
-0.29571563 -0.053183407 -0.037894662 -0.04625336 -0.056239095 -0.06415303 -0.0662048 -0.05315826
-0.044171717 -0.07778236 -0.037540227 -0.08503149 -0.07668661 -0.079860404 -0.058796242 -0.071735315
-0.06489104 -0.07371641 -0.042524397 -0.053241618 -0.041971333 -0.03350549 -0.044715617 -0.053084202
-0.07604307 -0.040442616 0.0087006455 0.010207496 -0.016056528 -0.01901404 0.013415987 0.017383188
00000000: c161 72bd d5d6 44be 4088 d9bd ede9 ddbd
00000010: 713e 003d 54c6 333c 56e6 ddbd bdd6 3ebd
00000020: f1be 65bd 703c 8a3d 7fce 9b3c f22e 40be
00000030: a684 f6bc 1749 e8bd c43d 903d 8195 4fbd
00000040: b245 06bd a003 d2bd eaa1 3dbd f91e 9dbc
00000050: c3ea 813d 3456 223f ec85 babd b34b ec3e
00000060: a617 85bd bf15 30be 6097 073d 1a4a 82be
00000070: 4208 3ebd 8f93 54be 7326 35be d6b7 273c
00000080: 4976 43be a9a2 90bc c7aa 47be c00d 14be
00000090: 9280 073d 4480 61be 1dbd 753b 0cfb 6ebe
000000a0: 0d22 043e ebd8 6a3d 8a70 f03d 8991 913c
000000b0: d53c 3f3c b499 323f 8033 d13d 1270 7e3e
000000c0: 1461 6d3e 701f 4b3d c855 443e 3adf 4d3e
000000d0: 543f 3f3e ac88 5f3e 95c4 553e 3eec 6f3e
000000e0: 7604 633e 3ae3 503e 6d75 443e 677b 593e
000000f0: 2264 683e 7f44 5f3e 3bfc 443e faab 683e
00000100: ff53 443e 21dd 583e 399b 363e 92ac 423e
00000110: 2e52 7e3e e718 3c3e 5ead ac3d 21d9 76bd
00000120: 0195 adbe 6f7a be3d 5c18 4a3e 4a95 ee3b
00000130: 89ff 3bbc 029e 06bc 5761 17ba 2aa5 2c3a
00000140: 73c0 2abc 2588 15bd edd2 a3bc 315e acbc
00000150: 451b 7bbc 98a6 a83a 0ac2 c8bb 3248 ab3c
00000160: 0f3a 17bd f846 9abc 3e66 d63c 4eb2 5dbc
00000170: 8022 53bb 5026 fdbc a240 c33b 9877 d0bd
00000180: fa7b 053b 831f e6bd 39a3 5cbd 61fa 81be
00000190: 1346 9dbd 458b 39bd 9c22 e4bd 8974 5cbd
000001a0: f59f aebd 5f0f 96bd a091 49bd ab15 7bbd
000001b0: acdb 4cbd d975 b0bd ddf2 a4bd 3d18 a1bd
000001c0: 50b4 a2bd 97b8 a8bd cdf0 a9bd 6ce5 95bc
000001d0: 4acc a9bd 915a 8dbd eaae e3bd 922e 50bd
000001e0: d99d 35be eb5d 003d 5e92 b8bd 3d58 a53c
000001f0: 0811 bfbd 4117 673d 0de2 17be ef55 013e
00000200: 8f6b 3ebe bd33 c93d c8a7 2d3d 5e88 39bd
00000210: cacf a83e b23d 31bd bbb8 903e 93fa 54be
00000220: 7f9f d2bd ea22 0b3c ee8d bcbd 098c 173d
00000230: 74c6 7ebe 70eb b4bd 6461 44be ba5d a4bd
00000240: b2f2 60be af16 2ebe aa37 09bd c72f 8ebe
00000250: 042d 383e e487 bebe 19f1 3bbd 3104 9fbd
00000260: 3255 a3bd 55f2 a7bd bd61 acbd e894 1ebd
00000270: f7fc a9bd 6ace 16bd 794d 7cbd 3c74 6dbd
00000280: e1a5 94bd 2d68 a8bd 57d9 3bbd 0cd0 0fbd
00000290: 7317 6dbd 1d3b 24bd 7f87 90bd 9a5e 8bbd
000002a0: 00a8 1abd f8f4 21bd a2d9 9ebd 6bb0 90bd
000002b0: 25ee 8ebd f842 94bd b8cd 75bd ff86 a93b
000002c0: 694c 34bd 0d35 063e b889 a13d 87f2 693c
000002d0: ae0d 223e 7d16 35bd 75e6 183e 00b4 b93d
000002e0: 324f 733d c4c3 b83d 9b84 ab3c 1616 5d3d
000002f0: db0e 083e 7043 f2bc 31ee fdbb 4521 523b
00000300: b14c af3c 79f0 023e 8cf2 b7bb 25e7 febc
00000310: 4539 36bd 8846 603c 2f0d 1cbd 1de5 fa3a
00000320: d6ac 6abe d767 8dbe 1858 81be 43de 89be
00000330: 5fbe 87be 399c 63be ee1e 91be 2d5c 86be
00000340: 8f98 89be f6bc 78be e8d6 90be b58e 78be
00000350: 999b 98be 383b 92be 73f2 7fbe 6a0c 6dbe
00000360: adde 65be b7b2 90be 4942 64be 0a32 86be
00000370: 0614 593e c821 0a3e b292 a8be dfe5 6dbe
00000380: 0a68 97be d8d6 59bd 6f37 1bbd 2a74 3dbd
00000390: f75a 66bd aa62 83bd 6296 87bd 7abc 59bd
000003a0: 67ed 34bd 5c4c 9fbd c8c3 19bd fd24 aebd
000003b0: df0d 9dbd da8d a3bd 54d4 70bd f7e9 92bd
000003c0: 98e5 84bd a1f8 96bd 102e 2ebd e213 5abd
000003d0: 22ea 2bbd 0d3d 09bd b927 37bd d26e 59bd
000003e0: 78bc 9bbd 28a7 25bd 278d 0e3c 573d 273c
000003f0: fb88 83bc 55c3 9bbc bace 5b3c 3067 8e3c

base.6.bias f4 [32]
-0.02267738 -0.39932716 -0.06515788 -0.07014851 -0.21205917 -0.09856046 -0.14892195 -0.22640425
-0.21339686 -0.1619947 -0.14318971 -0.034446638 -0.23823701 -0.1422527 -0.255836 -0.103123814
-0.245804 -0.2624378 -0.07074043 -0.2572285 -0.23932125 -0.11122137 -0.08940678 -0.15928881
-0.05582255 -0.07103986 -0.0787654 -0.28016287 -0.2494597 -0.15634713 -0.0764646 -0.31337574
00000000: eac5 b9bc 9c74 ccbe 7f71 85bd 06aa 8fbd
00000010: 0a26 59be 11da c9bd ff7e 18be 84d6 67be
00000020: b584 5abe f0e1 25be 53a0 12be eb17 0dbd
00000030: 67f4 73be b1aa 11be f0fc 82be 9432 d3bd
00000040: 0bb4 7bbe 3f5e 86be 5ce0 90bd 74b3 83be
00000050: a110 75be 08c8 e3bd e71a b7bd 9b1c 23be
00000060: 30a6 64bd 597d 91bd c14f a1bd 8271 8fbe
00000070: 5d72 7fbe 7619 20be 7999 9cbd c972 a0be

base.7.weight f4 [32]
0.45551547 0.290227 0.9456155 0.93845034 0.7156563 0.9422324 0.9588379 0.89001554
0.9334297 0.8459202 0.7874003 0.9156398 0.77704984 0.89023566 0.9255981 0.9310619
0.8936192 0.9118628 0.923774 0.9186482 0.9218831 0.33957654 0.9271723 0.92851436
0.9364315 0.73535585 1.0398586 0.7331627 0.7597926 0.24937753 0.24508141 0.71181834
00000000: 5339 e93e a298 943e db13 723f 483e 703f
00000010: 4035 373f 2436 713f 6776 753f 0fd8 633f
00000020: 40f5 6e3f 3a8e 583f 1193 493f 5f67 6a3f
00000030: bdec 463f 7ce6 633f fff3 6c3f 135a 6e3f
00000040: 3ac4 643f d76f 693f 747c 6c3f 872c 6b3f
00000050: 8800 6c3f fadc ad3e 2a5b 6d3f 1eb3 6d3f
00000060: fab9 6f3f 4840 3c3f 161a 853f 8db0 3b3f
00000070: c581 423f d35c 7f3e 9ff6 7a3e ba39 363f

base.7.bias f4 [32]
-0.017049188 -0.35516238 -0.06616143 -0.06454099 -0.24020226 -0.09529021 -0.15711972 -0.23188289
-0.22591673 -0.15654306 -0.13327314 -0.01919913 -0.22129354 -0.1475672 -0.24980119 -0.09241601
-0.23683676 -0.2764572 -0.08466732 -0.27884012 -0.2505209 -0.15172915 -0.0867136 -0.14677107
-0.06281261 -0.056719773 -0.074135594 -0.27063712 -0.24022898 -0.100901924 -0.12315402 -0.32827726
00000000: bdaa 8bbc d8d7 b5be a57f 87bd 112e 84bd
00000010: 95f7 75be 8327 c3bd fee3 20be b572 6dbe
00000020: b756 67be d34c 20be c178 08be 7e47 9dbc
00000030: c69a 62be db1b 17be e2cb 7fbe 9b44 bdbd
00000040: 5685 72be cc8b 8dbe 0f66 adbd 22c4 8ebe
00000050: 4744 80be e35e 1bbe e696 b1bd 284b 16be
00000060: e6a3 80bd fe52 68bd 67d4 97bd f390 8abe
00000070: 96fe 75be aba5 cebd 2d38 fcbd f513 a8be

base.7.running_mean f4 [32]
-0.010683051 0.008900069 0.01511792 -0.022707716 -0.014359737 -0.007438966 -0.008781069 0.014191276
0.026957719 -0.010809839 0.013488983 -0.016622806 0.0037035828 -0.029922688 0.0054443865 -0.009875887
0.03108483 -0.0019912373 0.008316438 0.021711184 0.008548847 0.0041229837 -0.0003252022 -0.02268361
0.015734706 -0.0072511546 0.0010555264 -0.015601535 -0.0068636946 0.00118023 -0.009824226 -0.004698099
00000000: f707 2fbc 98d1 113c 27b1 773c 8805 babc
00000010: 1a45 6bbc 92c2 f3bb 79de 0fbc 8782 683c
00000020: 6fd6 dc3c c01b 31bc e500 5d3c 8d2c 88bc
00000030: cfb7 723b 6d20 f5bc d366 b23b 79ce 21bc
00000040: 9da5 fe3c 6b7f 02bb ab41 083c a7db b13c
00000050: 7710 0c3c 181a 873b e77f aab9 fad2 b9bc
00000060: 12e6 803c 189b edbb 9759 8a3a 959d 7fbc
00000070: d8e8 e0bb f3b1 9a3a caf5 20bc 83f2 99bb

base.7.running_var f4 [32]
0.9094836 0.90521765 0.90273863 0.9511376 0.92642945 0.9205035 0.90211403 0.9385614
0.9443561 0.9136527 0.9069692 0.9537454 0.9189716 0.92817044 0.90524644 0.9079393
0.91662306 0.91779476 0.91789305 0.9358991 0.90277123 0.9147536 0.9032208 0.9106081
0.9260293 0.9068578 0.9295992 0.90679854 0.9091637 0.9227885 0.91348845 0.90264326
00000000: ebd3 683f 58bc 673f e119 673f c17d 733f
00000010: 7b2a 6d3f 1ea6 6b3f f2f0 663f 8f45 703f
00000020: 52c1 713f 25e5 693f 222f 683f a928 743f
00000030: b941 6b3f 949c 6d3f 3bbe 673f b66e 683f
00000040: cfa7 6a3f 99f4 6a3f 0afb 6a3f 1597 6f3f
00000050: 041c 673f 4b2d 6a3f 7a39 673f 9d1d 693f
00000060: 4210 6d3f d527 683f 37fa 6d3f f323 683f
00000070: f4be 683f de3b 6c3f 61da 693f a113 673f

head.0.weight f4 [24, 1024]
-0.03698712 -0.08422394 -0.08930272 -0.03538554 -0.03126622 -0.04534888 -0.051801465 -0.051943623
-0.038790178 -0.04093132 -0.06246185 -0.049103297 -0.04285929 -0.052002233 -0.073966466 -0.045579102
-0.0352059 -0.06374602 -0.086997084 -0.07037982 -0.046212737 -0.029063791 -0.05602523 -0.03306015
-0.25818294 -0.06325346 -0.035563026 -0.07460291 -0.084690675 -0.042424 -0.06930792 -0.04566861
-0.02419626 -0.0026059337 -0.012297098 0.023781192 -0.02939922 0.0195681 0.030325469 0.009577241
0.00075412914 -0.02335409 0.023210745 0.011556163 0.01021092 0.02026856 -0.020835627 0.029163118
-0.0038424022 0.007460147 0.02526924 -0.0062000975 -0.013481125 0.0061980635 0.008535694 -0.18217121
-0.1841656 0.01154593 -0.02061573 -0.00588673 -0.008172989 0.027938403 -0.00985365 0.0011585727
-0.08086156 -0.04119551 -0.07791868 -0.030985218 -0.068889245 -0.03193187 -0.031195862 -0.054984864
-0.076900594 -0.08997242 -0.06950392 -0.039566062 -0.03192877 -0.070913576 -0.035257824 -0.045206677
-0.07217853 -0.06197216 -0.08576991 -0.05299077 -0.036932774 -0.07337867 -0.076548114 -0.042206768
-0.03457562 -0.049475778 -0.07511477 -0.058410205 -0.07133871 -0.07727827 -0.05175979 -0.07114828
-0.031826053 -0.047317676 -0.053659957 -0.03847721 -0.07758848 -0.068001986 -0.05819349 -0.023323122
-0.07988648 -0.052731466 -0.08290262 -0.04051469 -0.08154385 -0.02865372 -0.07856775 -0.070314005
-0.05361666 -0.057963353 -0.02598542 -0.07849868 -0.062185414 -0.06357092 -0.06697038 -0.08141482
-0.051995035 -0.061942216 -0.07177205 -0.04557228 -0.06032816 -0.061469737 -0.0445322 -0.035934612
-0.015874594 -0.012432717 0.004638795 0.03006719 -0.009058993 0.015925288 -0.0006429367 -0.009528182
0.0086474195 0.026354399 0.003737837 0.019202583 0.004799526 0.004397426 -0.0008295849 -0.01587959
0.009434093 -0.0067536347 -0.010208238 -0.015438903 -0.025194634 -0.027805522 0.028962418 0.019774016
-0.0135822445 0.018194064 -0.02144524 0.029555503 -0.01396117 -0.026485503 -0.002172526 -0.0098172575
-0.02884872 -0.06887762 -0.06700642 -0.08672447 -0.053761262 -0.048604112 -0.045342527 -0.08613322
-0.030818684 -0.09020223 -0.03214595 -0.053014383 -0.047338717 -0.07794847 -0.03351526 -0.04347433
-0.075318046 -0.044576023 -0.086541034 -0.0742702 -0.04925107 -0.06337624 -0.031419385 -0.041428432
-0.05810688 -0.06935231 -0.08622026 -0.055662103 -0.07955988 -0.04572191 -0.031566642 -0.047669932
-0.03734579 -0.040303573 -0.042671807 -0.03843042 -0.0479669 -0.059255637 -0.052606884 -0.05115335
-0.03230655 -0.026614672 -0.048912674 -0.037774816 -0.06727177 -0.07684521 -0.028079662 -0.065231845
-0.06430312 -0.07974528 -0.0821057 -0.04449561 -0.074762546 -0.06186684 -0.07193265 -0.05843402
-0.029332256 -0.032791298 -0.08434901 -0.039191585 -0.07709192 -0.04849201 -0.03991761 -0.04886559
-0.05615889 -0.08062322 -0.066954285 -0.07635332 -0.056758616 -0.072922476 -0.039728455 -0.078751214
-0.07075528 -0.06462931 -0.031875573 -0.052769635 -0.062299263 -0.07910485 -0.04730163 -0.03134468
-0.058580775 -0.09060754 -0.06185097 -0.029429594 -0.03336163 -0.08451493 -0.04543905 -0.04634368
-0.063737996 -0.061186176 -0.069790706 -0.06280438 -0.08428583 -0.06444909 -0.048300203 -0.0733349
00000000: ce7f 17bd 9a7d acbd 58e4 b6bd 6ef0 10bd
00000010: 0211 00bd bfbf 39bd c62d 54bd d6c2 54bd
00000020: 73e2 1ebd 9aa7 27bd ffd7 7fbd 8a20 49bd
00000030: 398d 2fbd 4b00 55bd bb7b 97bd 27b1 3abd
00000040: 1034 10bd 468d 82bd 872b b2bd 4c23 90bd
00000050: 9149 3dbd 3017 eebc b67a 65bd 146a 07bd
00000060: 8e30 84be 088b 81bd 89aa 11bd 69c9 98bd
00000070: 4e72 adbd cac4 2dbd 50f1 8dbd 020f 3bbd
00000080: 3c37 c6bc 50c8 2abb c479 49bc c6d0 c23c
00000090: a2d6 f0bc 484d a03c 1e6d f83c dce9 1c3c
000000a0: c0b0 453a 1451 bfbc 7624 be3c 1056 3d3c
000000b0: b44b 273c 400a a63c 7aaf aabc 7ee7 ee3c
000000c0: d0d0 7bbb 4074 f43b 7001 cf3c 302a cbbb
000000d0: f0df 5cbc 2019 cb3b 4cd9 0b3c 178b 3abe
000000e0: e895 3cbe 242b 3d3c 52e2 a8bc 78e5 c0bb
000000f0: 00e8 05bc 14df e43c 3471 21bc 40db 973a
00000100: bf9a a5bd a0bc 28bd d493 9fbd b6d4 fdbc
00000110: ce15 8dbd feca 02bd 778e ffbc cf37 61bd
00000120: 0f7e 9dbd 7643 b8bd 1258 8ebd 0610 22bd
00000130: bec7 02bd 233b 91bd 826a 10bd a32a 39bd
00000140: 56d2 93bd 85d6 7dbd 22a8 afbd da0c 59bd
00000150: d246 17bd 8e47 96bd 42c5 9cbd 01e1 2cbd
00000160: 2a9f 0dbd 1da7 4abd c6d5 99bd 8a3f 6fbd
00000170: 081a 92bd 1244 9ebd 1302 54bd 30b6 91bd
00000180: 095c 02bd 2ed0 41bd 8bca 5bbd 479a 1dbd
00000190: b6e6 9ebd a044 8bbd 4c5c 6ebd 2210 bfbc
000001a0: 869b a3bd f3fc 57bd d9c8 a9bd bbf2 25bd
000001b0: 7600 a7bd 35bb eabc 21e8 a0bd ca00 90bd
000001c0: 259d 5bbd fb6a 6dbd 60df d4bc eac3 a0bd
000001d0: 22b6 7ebd 7831 82bd c427 89bd d0bc a6bd
000001e0: bff8 54bd 1fb7 7dbd 39fd 92bd 00aa 3abd
000001f0: a91a 77bd b1c7 7bbd 6567 36bd 2c30 13bd
00000200: 700b 82bc 98b2 4bbc 0801 983b 784f f63c
00000210: 2c6c 14bc c075 823c c08a 28ba 181c 1cbc
00000220: e8ad 0d3c 2ee5 d73c 80f6 743b bc4e 9d3c
00000230: 5845 9d3b 4818 903b 8078 59ba ea15 82bc
00000240: 7491 1a3c 984d ddbb 7440 27bc 74f3 7cbc
00000250: fa64 cebc 68c8 e3bc 9842 ed3c 1efd a13c
00000260: 1088 5ebc b80b 953c eead afbc 621e f23c
00000270: 64bd 64bc 20f8 d8bc f060 0ebb 90d8 20bc
00000280: 2754 ecbc b60f 8dbd a93a 89bd 999c b1bd
00000290: c534 5cbd 1b15 47bd 16b9 39bd 9d66 b0bd
000002a0: 7777 fcbc f2bb b8bd 79ab 03bd 9c25 59bd
000002b0: 3ee6 41bd 73a3 9fbd 4c47 09bd 2412 32bd
000002c0: 5940 9abd 5995 36bd 6d3c b1bd fa1a 98bd
000002d0: 7dbb 49bd 67cb 81bd 9db1 00bd dcb0 29bd
000002e0: 7b01 6ebd 9508 8ebd 3f94 b0bd f2fd 63bd
000002f0: 4af0 a2bd e646 3bbd 064c 01bd 8c41 43bd
00000300: e6f7 18bd 5c15 25bd a2c8 2ebd 3769 1dbd
00000310: f178 44bd 0ab6 72bd 517a 57bd 2d86 51bd
00000320: df53 04bd 0307 dabc a858 48bd c4b9 1abd
00000330: c8c5 89bd 0561 9dbd 5207 e6bc 4698 85bd
00000340: 5bb1 83bd 7e51 a3bd 0927 a8bd 0741 36bd
00000350: 1b1d 99bd 1568 7dbd 6d51 93bd 8358 6fbd
00000360: 334a f0bc 2b50 06bd 2cbf acbd 5b87 20bd
00000370: 5ee2 9dbd 8f9f 46bd a680 23bd 4927 48bd
00000380: dd06 66bd c91d a5bd 541f 89bd 215f 9cbd
00000390: b97b 68bd 6158 95bd 4eba 22bd 5148 a1bd
000003a0: 25e8 90bd 5f5c 84bd f68f 02bd f924 58bd
000003b0: 832d 7fbd b901 a2bd 5bbf 41bd 4763 00bd
000003c0: 65f2 6fbd 7290 b9bd 7157 7dbd 5516 f1bc
000003d0: 34a6 08bd 2a16 adbd 4c1e 3abd dfd2 3dbd
000003e0: 1189 82bd 5b9e 7abd 6eee 8ebd 959f 80bd
000003f0: 0d9e acbd e2fd 83bd 6fd6 45bd 9c30 96bd

head.0.bias f4 [24]
-0.1396714 -0.23423457 0.3552953 -0.07698545 -0.105457805 -0.015817547 -0.07190779 -0.009480505
-0.1455069 0.5107308 0.38435608 -0.05455615 0.39364928 -0.090359025 -0.14833929 -0.11696135
-0.15465382 -0.037351143 -0.19122095 -0.057023603 -0.08414669 -0.30943894 -0.060701635 -0.13520654
00000000: 0506 0fbe 30db 6fbe 44e9 b53e 8caa 9dbd
00000010: 43fa d7bd cd93 81bc 6444 93bd 1f54 1bbc
00000020: c3ff 14be 41bf 023f 52ca c43e 4576 5fbd
00000030: 668c c93e 270e b9bd 41e6 17be 6f89 efbd
00000040: 925d 1ebe 83fd 18bd 6dcf 43be 9591 69bd
00000050: 1a55 acbd c86e 9ebe 47a2 78bd 9573 0abe

head.2.weight f4 [2, 24]
-0.12845603 0.1420423 0.29094195 0.0938354 -0.046824843 -1.0213392 0.04800175 0.052680735
-0.05543718 0.18550238 0.32286558 -0.1431571 0.23181574 -0.087288566 -0.01247479 -0.07829604
0.033570718 0.002655486 -0.29286823 -0.14484853 -0.13299975 0.052480426 0.06418962 0.060207747
-0.10964189 -0.122397676 0.29089403 0.05349253 -0.11367703 0.14557266 0.07431491 0.029262008
0.031625133 0.1971832 0.365835 -0.025384342 0.23044921 0.023750989 0.103228144 0.045732874
-0.041530527 -0.1873075 0.09149808 -0.020377 -0.06105307 0.17916356 0.07617534 0.09562501
00000000: fa89 03be 8973 113e 58f6 943e c62c c03d
00000010: 68cb 3fbd 3ebb 82bf 7c9d 443d c1c7 573d
00000020: 1912 63bd 56f4 3d3e a34e a53e c697 12be
00000030: 1b61 6d3e 59c4 b2bd 1063 4cbc ad59 a0bd
00000040: 7381 093d aa07 2e3b d3f2 95be 2c53 14be
00000050: 1631 08be b7f5 563d d975 833d 669c 763d
00000060: ed8b e0bd a2ab fabd 10f0 943e fc1a 5b3d
00000070: 81cf e8bd 0011 153e 6a32 983d e1b6 ef3c
00000080: 5b89 013d 65ea 493e ba4e bb3e d3f2 cfbc
00000090: e1fa 6b3e 6f91 c23c 4769 d33d 6552 3b3d
000000a0: ea1b 2abd 8acd 3fbe 5863 bb3d abed a6bc
000000b0: c912 7abd a776 373e d101 9c3d 0cd7 c33d

head.2.bias f4 [2]
0.29474425 0.265693
00000000: b8e8 963e ea08 883e
