models/AC-RM Q_LR=0.01 P_LR=5e-06 BATCH_SIZE=128 GAMMA=0.9_policy.pt (torch, 737028 bytes, 22 tensors)

base.0.weight f4 [64, 2, 5, 5]
00000000: 5523 de3d 1259 b8bd 64a4 a53d e75f 993d
00000010: 26ac 57bc fac1 653d ce70 22bd 991d 3e3c
00000020: e527 4d3c a9ae 05be 5f16 b83d bf74 de3d
00000030: f546 dcb9 9666 bd3d 927e 013e 59a0 873b
00000040: 3e76 da3c 11d1 9c3c 4a42 c43c 0acc ab3d
00000050: b25a 10bc 0e74 0ebe 690b bfbd 9967 0d3e
00000060: c784 30bd d5ad 843c 6dda 27bd 4344 0e3d
00000070: cdeb a83d ab31 7abd e30f 183d 531c d4bc
00000080: 537a d0bd 2d85 d9bd 27c6 d33d cc7d b7bd
00000090: da67 543d a7fb 983b 9428 38bd ce4c e9bd
000000a0: fa59 a8bd 0056 b73c 03a3 8d3d a4f3 bd3d
000000b0: 7c7c 043e 792b 0b3d 6e2b 9f3d 8689 80bd
000000c0: 8ec6 e63d 9c21 013e a980 083c 6321 f2bc
000000d0: b446 e73d d420 fa3c c6b4 d53d d587 d4bd
000000e0: 593e 25bd b605 753d 6ce9 cabd 026f e73c
000000f0: 1045 10bd 1e3a aebd 4725 b4bd bea6 d93d
00000100: 8e80 413d bf3d e73d 8310 ee3d 6ccc d23d
00000110: f8fa f3bc e874 a93d 056f 793d a3c2 823d
00000120: e739 003e d72a 8abd 1a8b 623c dc16 d13c
00000130: c97f 3abc fb9f 92bb 8bfb 04be 8e9d 0b3e
00000140: c0eb e5bd 5d6a 9c3d c711 073e ef27 0b3e
00000150: df8e c13d 4184 c8bd 5bf7 fc3d b91f b0bd
00000160: 6262 ebbc 9267 5fbd 8324 1bbd 911a dcbd
00000170: 3ded 05be a6ca 9ebd b545 b9bd 52ef 9c3c
00000180: 7374 f33d 0dd9 753d 929d ee3d 0e7e 203d
00000190: fe11 023e b86b 62bc 9532 9ebc 63ca ecbd
000001a0: 0e4f c9bd 0b7e 14bd f8ed 813d be8a cdba
000001b0: 307d bd3d 163b 0abe 2469 e23d 84aa ae3c
000001c0: 821c aebd 6054 9dbb 323e c53d 8f65 b2bd
000001d0: e5f5 aabd 5d10 413d 43f8 fa3d 898d 4cbc
000001e0: d455 e0bd 6222 aa3d 6b67 013d 157e 9abd
000001f0: 2243 f7bd 6a48 03be bc64 8a3d d645 0fbe
00000200: 10dc efbc 281a b2bd a271 5abd 523a 073e
00000210: 89e5 cf3d 3b23 8ebd fe22 b3bd 4aaf 543d
00000220: 1087 963d 2918 973d b08e 8d3d fcb0 92bd
00000230: acc4 ed3d 915f e53d a0b1 da3d 0dad e2bd
00000240: 9795 073a 5099 b33d 1004 04be 42c4 c73d
00000250: 89ad b73d 4d15 813d 3490 d2bd 5e69 c8bd
00000260: f4c6 cabd 4851 01be d035 353d 086f fe3d
00000270: 3f2c 42bd 65fe fc3b f019 a23d 2c33 d53d
00000280: 6665 ac3d 523a bfbd bde9 fa3d 144f 9a3b
00000290: 7ed5 1e3d b6ff d2bd 6606 4e3d 2afa afbb
000002a0: ffb2 eb3b 3cbf c73d f7a8 da3d 90ad c4bd
000002b0: a194 acbd 5a8e e7bd 1735 b9bd ebfd e73d
000002c0: fce0 413d 656b cc3d ea54 8dbd 909f 09be
000002d0: 33c5 ca3c c01a c53c d208 063e fa4e 2f3d
000002e0: 7aa2 f2bd 3e8f 0bbe e64b d23d 02ae 1cbd
000002f0: f14c d13d 9c81 0ebe 27fb 33bd e38c fd3c
00000300: 1a1a debd f218 da3d 87df c13d 54bf 2a3c
00000310: 232c d4bc 0b82 94bd e9ca 87bd cf6d 4a3d
00000320: 3dd9 afbd f67c af3d 2cf5 d33d efe9 04be
00000330: 3526 95bd d54c 4c3d 0633 adbd 7fc2 bfbd
00000340: 5f53 e43d ccf3 a83d bcba a33d c29a 82bd
00000350: 5a58 41bc 8dc5 e0bd ec5a 053e 43f8 f03d
00000360: c36b db3d 74f8 30bd f8ff a43c c2c8 cd3d
00000370: 493f 55bd da0c a23d 74fe 013e 700d 08be
00000380: 6fd8 f33d 8439 0c3d d399 bebd 3452 79bd
00000390: 28ef 54bd 7ebb 25bc 6dc4 183c c663 6fbd
000003a0: 1af2 82bd fe97 203d 6807 9ebd 4b3d 0cbe
000003b0: 010f 5fbc 202e 50bd 2de0 5fbd e71a 59bc
000003c0: 7e7e b4bd 3524 d23d fbbe fb3d 952a 3cbd
000003d0: 47aa efbd 245b d03d b942 d43b e71a 383d
000003e0: 506c dd3d 991d 72bc e5c1 39bd 9599 51bd
000003f0: 5026 a8bd a02c f2bd fe72 f0bd 9b18 7b3d
0.10846583 -0.09001364 0.08087996 0.07488995 -0.013163602 0.056093194 -0.03965836 0.011603736
0.012521719 -0.13054909 0.08988642 0.10862111 -0.00042014537 0.09248082 0.12645939 0.004138988
0.02666771 0.01914266 0.02395739 0.08388527 -0.008810686 -0.13911459 -0.09328348 0.1380905
-0.043095376 0.01619617 -0.04097979 0.03473307 0.082481004 -0.061082523 0.037124526 -0.025892412
-0.101795815 -0.106211044 0.10340529 -0.08959541 0.051856853 0.004668671 -0.044960573 -0.113916025
-0.08220287 0.022379875 0.06915858 0.092749864 0.12938112 0.033977006 0.077719554 -0.062762305
0.1126834 0.12610477 0.008331456 -0.029556936 0.112927824 0.030533232 0.104348704 -0.103774704
-0.040342662 0.0598199 -0.09907803 0.028251175 -0.035222113 -0.08507179 -0.087961726 0.10627507
0.04724174 0.11291074 0.11624243 0.10292897 -0.029782757 0.08274251 0.060896892 0.0638478
0.12522088 -0.06746452 0.01382711 0.025523596 -0.011383005 -0.0044746376 -0.12986581 0.13634321
-0.11226606 0.07637475 0.13190375 0.13589452 0.094510786 -0.097908504 0.12351867 -0.085998006
-0.028733436 -0.05454213 -0.037876617 -0.10747255 -0.1307878 -0.07753496 -0.09046499 0.019157086
0.11887445 0.06002145 0.11651148 0.039182715 0.12702176 -0.013819627 -0.019311229 -0.1156204
-0.098295316 -0.036253016 0.06344217 -0.0015681607 0.09252393 -0.13499102 0.1105521 0.021321543
-0.08501531 -0.004801318 0.096310034 -0.08710777 -0.08347682 0.047134746 0.122543834 -0.0124849165
-0.109538704 0.08307339 0.031592768 -0.075435795 -0.120733514 -0.12820593 0.06757495 -0.13991484
-0.029279739 -0.08696395 -0.053331025 0.13205841 0.10151202 -0.069403134 -0.087469086 0.05192498
0.0734998 0.07377655 0.06911981 -0.07162663 0.11609778 0.111998685 0.106784105 -0.11068163
0.0005172132 0.087694764 -0.12892175 0.0975423 0.08968646 0.06302891 -0.10281411 -0.09785722
-0.099012285 -0.12628663 0.044240773 0.12423521 -0.047405478 0.007720756 0.079151034 0.10410151
0.08417778 -0.093372956 0.12251613 0.004709134 0.03877782 -0.10302679 0.05029907 -0.005370398
0.007192969 0.09753272 0.10676759 -0.09603417 -0.08426786 -0.11306448 -0.09043329 0.11327728
0.047333702 0.099814214 -0.06900962 -0.13439775 0.024752235 0.024060607 0.13089302 0.042799927
-0.11847396 -0.13628861 0.10268383 -0.038251884 0.102197535 -0.1391663 -0.04394069 0.03095097
-0.10844822 0.10649289 0.094664626 0.010421593 -0.025899952 -0.07251366 -0.06630499 0.049421128
-0.08586357 0.08568756 0.10349497 -0.12979864 -0.07282678 0.04987796 -0.084569976 -0.09363269
0.11148714 0.082496256 0.07994601 -0.06377174 -0.01180085 -0.1097518 0.13022965 0.11766102
0.10713913 -0.043205693 0.020141587 0.10048057 -0.052062307 0.079126075 0.12694722 -0.13286376
0.11906516 0.03423454 -0.093066834 -0.06086941 -0.05198589 -0.010115502 0.009324175 -0.05844476
-0.063938335 0.03920745 -0.077162564 -0.13695256 -0.013614417 -0.05082524 -0.05465715 -0.013251043
-0.08813189 0.10260812 0.12292286 -0.045939047 -0.117024 0.10173634 0.0064776805 0.04494753
0.108116746 -0.014777564 -0.045350928 -0.051171858 -0.082104325 -0.11824918 -0.11740683 0.061302762

base.0.bias f4 [64]
00000000: 15b2 d5bd 8c15 f8bd 20ac 34bd 8d15 0a3d
00000010: 6a61 953d 9592 093e e3f3 05be ee70 d5bd
00000020: a9da fc3a a58b adbc 2b21 dabd 942c cbbd
00000030: d8ff 88bd 2650 cfbd 6cea 76bd 056a a0bc
00000040: 5064 fbba 40d3 ecbd 2c47 00be f7df cdbd
00000050: ed88 bd3d b344 a0bd 40d7 97bd d18b e5bd
00000060: c658 cc3c 13a0 1d3d 1b69 05be eb0f b13d
00000070: 8936 643d 852f a03d b4b0 bdbd 9c4f c53d
00000080: cb44 0e3e 85b6 bebd f848 d6bd be8d 4abd
00000090: 7b1c 46bd d26a 373d ca47 0f3e 5afe 303c
000000a0: 54ed 0bbe 6d48 a9bd e6bf 61bd 7775 93bd
000000b0: 04ea 00be 548a 89bd 9539 fcbd 6129 03be
000000c0: 9a3e 94bd 79ba f8bc 10f3 bd3d 8a7f cd3d
000000d0: 91e6 e8bb 597e 0bbe 2ca9 9ebd 44d9 393c
000000e0: db78 ecbd b522 1a3d 80d8 63bd 6df1 083e
000000f0: 917c a3bd 3868 843d 559d 5dbd b1a4 94bc
-0.10434357 -0.12113485 -0.044109464 0.03371196 0.07293971 0.13434823 -0.13081317 -0.1042193
0.001929124 -0.021184752 -0.106508575 -0.09920612 -0.06689423 -0.10122709 -0.060282156 -0.019581804
-0.0019179676 -0.1156373 -0.1252715 -0.100524835 0.09254632 -0.07825603 -0.074141026 -0.112083085
0.024944674 0.038482737 -0.13028376 0.08645614 0.05571607 0.07821564 -0.09262219 0.09634325
0.1389343 -0.093121566 -0.104631364 -0.049451582 -0.048367005 0.044779606 0.13992229 0.01080283
-0.13664752 -0.08265767 -0.05511465 -0.07200139 -0.1258927 -0.06715837 -0.123156704 -0.12808754
-0.07238503 -0.030362355 0.09274876 0.10034092 -0.007107564 -0.13622417 -0.07747111 0.011343304
-0.11546489 0.037630755 -0.055626392 0.13373347 -0.079827435 0.06465191 -0.05410512 -0.018144937

base.1.weight f4 [64]
00000000: f412 803f 6206 803f c3cb 7f3f 9403 803f
00000010: 2ef7 803f 665f 803f 31f4 803f 5900 803f
00000020: 65fe 803f 4328 7f3f 625c 7f3f 22d7 7f3f
00000030: 5f5f 803f 1628 803f bfc4 7f3f 941d 813f
00000040: 5597 7f3f fe4b 803f a40e 803f dd6e 803f
00000050: 832d 803f 9e1c 803f a0b6 803f 2c89 803f
00000060: 1b70 803f 1697 7f3f 10e0 803f a4e9 7f3f
00000070: 6def 7f3f e429 803f dc87 803f fa01 803f
00000080: cd12 803f 5991 803f ac57 803f b3ec 7f3f
00000090: 6ec3 7f3f 57dd 7f3f 9b07 803f 683a 7f3f
000000a0: 2762 803f 9757 7f3f 9beb 7f3f 292b 803f
000000b0: 8a9a 803f a743 7f3f bf18 803f de71 7f3f
000000c0: e1a7 7f3f f810 7f3f 8a2e 803f fff7 7f3f
000000d0: 0e79 7f3f b1db 803f c504 803f 7020 7f3f
000000e0: 43a3 803f c0f4 7f3f 4935 7f3f b7c0 7f3f
000000f0: 70f4 803f 6d29 803f 131a 803f 3251 7e3f
1.0005784 1.0001948 0.9992029 1.0001092 1.0075433 1.0029113 1.0074521 1.0000106
1.0077635 0.9967081 0.9975034 0.9993764 1.0029105 1.0012233 0.99909586 1.0087152
0.9984029 1.0023191 1.0004468 1.0033833 1.0013889 1.0008733 1.0055733 1.0041862
1.0034212 0.99839914 1.0068378 0.9996588 0.9997471 1.0012784 1.0041461 1.0000603
1.0005738 1.0044357 1.0026755 0.9997055 0.9990758 0.9994711 1.0002321 0.99698496
1.0029954 0.99743026 0.9996888 1.0013171 1.0047162 0.99712604 1.0007552 0.9978312
0.9986554 0.9963527 1.0014203 0.99987787 0.9979409 1.0067044 1.0001456 0.9965887
1.0049824 0.99982834 0.9969068 0.99903435 1.0074596 1.0012642 1.0007957 0.99342644

base.1.bias f4 [64]
00000000: 3d1b 9dba 265b 03ba 57dd ac39 346b 60ba
00000010: 8a0b 403a d7f6 243b c813 793b f25d 00ba
00000020: b6b0 193b 79fb 40bb dbab 453a 0af7 6cba
00000030: 998e cfba f463 893a 1ea6 7939 8052 c93b
00000040: 8d7d 0abb 91e0 53bb ba5e feba 0b87 1d3b
00000050: 1898 0d3b 73df 3abb 3574 0f3b b358 3a3b
00000060: 9574 993a 8818 0c3b 5a5c a43b 7649 4bb9
00000070: 13fd d938 1d09 a43a 637f 0dba 42e9 073b
00000080: ed42 073b 2ca8 803a 39b4 e0ba 5260 caba
00000090: c4bf 31ba 804c 50ba 236e 5aba e3ee 68bb
000000a0: ef8e b9b9 0623 74bb d580 bd39 dab5 c3b9
000000b0: cb99 1e3b 3c76 2e38 20b8 74b9 2344 aab9
000000c0: 0007 8abb 5018 353a 7f91 fdba c79a ce39
000000d0: 9a91 84ba 0c3d be3b d396 a0b9 72c4 f7ba
000000e0: 6d16 893a bf72 09b9 49ae 46bb b947 90bb
000000f0: 1457 3e3b 9bf0 273b 3fa3 1bbb 3146 27bb
-0.0011986267 -0.00050108356 0.00032971308 -0.00085608964 0.0007325938 0.0025171542 0.0038006175 -0.00048968114
0.0023451275 -0.0029446764 0.0007540562 -0.0009039497 -0.0015835344 0.0010482059 0.00023808374 0.006143868
-0.0021131963 -0.0032329897 -0.0019406893 0.002403679 0.0021605548 -0.0028514534 0.0021889333 0.0028434217
0.0011707718 0.0021376926 0.005015892 -0.00019386955 0.00010394505 0.0012514923 -0.0005397705 0.0020738398
0.0020639256 0.0009815744 -0.0017143554 -0.0015440083 -0.00067805895 -0.00079459697 -0.00083324517 -0.0035542778
-0.00035392444 -0.003725232 0.00036144877 -0.00037328788 0.0024200554 4.1594947e-05 -0.00023338245 -0.00032475693
-0.0042122602 0.0006908225 -0.0019345729 0.000394067 -0.0010114193 0.005805617 -0.0003062995 -0.001890315
0.0010458954 -0.00013108084 -0.0030316284 -0.0044030813 0.0029043602 0.002562559 -0.0023748425 -0.0025524015

base.1.running_mean f4 [64]
00000000: d200 243f 1373 113f a211 aa3d ea17 00be
00000010: 621e f53d e45a 333f e459 98be 4047 96be
00000020: b800 123f c44c 5dbf cc97 acbf daf8 50bd
00000030: 3b95 753f 51b2 a73f baec 16bf bf26 31be
00000040: 7ec9 473d 32ce 4b3f 9a5f 2bbf 34d3 ea3e
00000050: f4d6 98be 0b71 d1be bc11 93be 4b72 a13e
00000060: b4d2 983d 4f9f dc3e a9ad 0dbe d163 0bbf
00000070: 8f60 2d3f d20f 593f 17d9 1d3f 72d9 7dbd
00000080: cf22 15bc 27f6 fc3e a0a1 1b3e f7fc 2abf
00000090: 38fb 593f 136b 353f 10fd a53e 08a9 0bbf
000000a0: ad34 3ebe 714b 21bf 6750 073f 8622 87bf
000000b0: 5fc1 83bd 546a 913e 8dad 283f 8d30 dcbe
000000c0: cc65 dbbe 4819 ef3d 5c64 0dbe e1f1 ad3f
000000d0: 5f55 12be 38a8 6f3d dfca b9be 5a27 e0be
000000e0: 3eda ac3e dd69 ce3c 8bf7 29bf cf21 e43e
000000f0: 016a f93c d240 473f 98cd 15bd 68c2 97be
0.6406375 0.56816214 0.083041444 -0.12509122 0.11968686 0.70060563 -0.2975608 -0.29351234
0.57032347 -0.8644526 -1.3483825 -0.051018573 0.9593083 1.3101293 -0.58954966 -0.17299937
0.048776142 0.79611504 -0.6694275 0.4586426 -0.29851496 -0.40906557 -0.28724468 0.3153251
0.074620634 0.43090293 -0.13835777 -0.5444918 0.6772546 0.84789765 0.6165938 -0.06197495
-0.009102537 0.4940655 0.15198374 -0.66792244 0.85148954 0.7086651 0.32419634 -0.54554796
-0.18574782 -0.6300574 0.5285706 -1.0557411 -0.06433367 0.28401434 0.6588982 -0.4300579
-0.42851102 0.11674744 -0.13807815 1.358944 -0.14290379 0.058510035 -0.3628759 -0.43780023
0.33760256 0.025196964 -0.66393346 0.44557044 0.030446054 0.7783328 -0.036573023 -0.29640508

base.1.running_var f4 [64]
00000000: e4d5 f33b 6b8c bb3b 810e 553b 7e59 5a3a
00000010: d976 f33a 8eda 253c 17fa 383b 0eb0 ba3a
00000020: 4f6e a53b ecef 053c 0624 893c 9ee5 973a
00000030: 42aa 803c 52ce ba3c 31c4 5e3b 6b33 a63a
00000040: 9289 953a 21b5 3b3c 6339 8c3b 9fed ac3b
00000050: 7c36 793b 5f72 123b d44d 863a 8d2f 583b
00000060: 5c69 813a c33d 0e3b 1cb9 123a 8c54 983b
00000070: e815 ce3b 16be ec3b 95a3 db3b c4e4 783a
00000080: 555b 6c3a e885 983b 0a7f e03a f052 e53b
00000090: 0799 1a3c 6f0a cd3b 73d1 613a dbfd a03b
000000a0: 7f2b f339 d9de 8b3b f142 de3b 5e56 4e3c
000000b0: 7a85 cd3a 6a87 273b 540e 053c 6c40 ec3a
000000c0: c52e 2e3b 0b24 bf3a 0cac 873a 3a93 853c
000000d0: fe91 153b ce51 383a 1ee3 403b 88dd 8f3b
000000e0: 6c37 593b ead3 643a 595c 913b 68ad d83a
000000f0: 7759 803a 7939 e23b dbf1 913a ab02 203b
0.0074412692 0.0057235262 0.0032509866 0.00083293754 0.0018574848 0.010122908 0.0028225237 0.0014243142
0.00504855 0.008174878 0.01674081 0.0011588817 0.015706185 0.02280346 0.003399145 0.0012680119
0.0011408797 0.011456759 0.004279302 0.00527735 0.003802686 0.0022346003 0.0010246583 0.0032987327
0.0009873318 0.0021704293 0.00055970415 0.0046487506 0.0062892325 0.0072248084 0.00670285 0.0009494538
0.0009016295 0.0046546347 0.0017127704 0.0069984123 0.009435899 0.0062573473 0.0008614279 0.0049130744
0.0004638098 0.004268509 0.0067828824 0.012593834 0.0015680038 0.002556289 0.008121092 0.001802457
0.002657817 0.0014582885 0.0010350957 0.016305555 0.0022822614 0.0007031233 0.0029432247 0.0043904223
0.0033144606 0.00087290874 0.0044360575 0.0016531171 0.0009792288 0.006903824 0.0011134701 0.0024415653

base.3.weight f4 [64, 64, 5, 5]
00000000: 92ef ab3c 3d32 d1bb fdfd bc3c 806a a53c
00000010: 2675 26bc 35a9 913c ff60 c6bc 3945 14bc
00000020: ff20 61bc cabd a1bc 6d13 5fbc ca8b c4bc
00000030: 1d36 863c 04e7 11bc 5d36 57bc 9ff3 71bc
00000040: 352e 96bc 429f 813c 0ac5 e2ba 5974 ad3c
00000050: be45 13bc c30b ec3b 35c8 943a 3056 3abc
00000060: 9dc0 fe3a 02c3 a13c 8743 c9bc 50b4 5a3b
00000070: 671f 873c bc97 b1bc 3bb9 853b 7da1 c73c
00000080: 94bd 1ebc bff4 92bc 49d0 d3bb 7853 4f3c
00000090: 62ef ddbb 8635 88bb a4c6 103c dddf 0cbc
000000a0: a0a6 973c 63da 833c 7eed 6ebc 1151 953a
000000b0: 61da 873c e96a cf3c 1e93 913c d139 bf3b
000000c0: e050 083c a851 893c 9faf c93c b2bf ecbb
000000d0: 2871 253b bb2d ae3b 0fd8 993c 606a c2ba
000000e0: 83e1 f3bb 7cd1 82bc 4f52 09bc ae5e 4a3c
000000f0: c694 43ba 8b15 7aba 0fbc 053c 847b da3b
00000100: 130f 7dbc 2644 b13c 2173 b2bc 869e 08bc
00000110: f847 a9bc 8cba 803b ca95 e93b 61eb 4bbc
00000120: 1ec6 633c e555 8fbc 28de 8dbc a8c5 17ba
00000130: 2053 8cbc c9b1 d4bb 7baa 903c a979 8bbc
00000140: 2ecf 6c3b 6ad6 80bb c25b b0bc ab63 923c
00000150: 589f 9e3c eb25 d2bc 53d5 36bc dde3 86bc
00000160: c5c1 8f3c aca5 89b8 03a9 c93b 1db3 c43c
00000170: e03c 393c 9852 c8bc a8fb 113c 3879 30bc
00000180: 123d 593c 3c69 363c 6e56 b7bc 6197 51bb
00000190: 0417 af3c bfa3 82bc 5b17 693c b7af 9dba
000001a0: 03a4 b6bc 1ae1 c1bc 4cd5 ccbb 6f32 36bc
000001b0: 54e4 ad3a c74c b9bc 225f 95bc 99e7 b43c
000001c0: fa48 a83c 7fef 013c c031 5abc 5d93 103c
000001d0: dc30 6ebc f59c c5bb 6a79 a53c 4395 22bc
000001e0: 5b2f 80bc fe54 b8bc fbdb 313b 9f78 6a3a
000001f0: 94d0 30bc 0556 c1bb c176 9bbc 0141 98bc
00000200: 6c33 a83c e360 773c 7a06 c03c 3290 a33c
00000210: 9d77 9abc 173e 813c 6b13 2b3c 071c a93c
00000220: e180 d6bb 1ff7 2bbb e16c 293b d01b 0dbc
00000230: 9413 2a3c 141e 99bc 6caf 3c3c 2c97 a13c
00000240: d8aa e337 45ea 833c eb52 b8bb 3604 173c
00000250: 458b 98bc 60d0 86bc dbca f43b a3fe 943c
00000260: 84aa 9ebc 8709 b53c 9ace 403c f937 bf3c
00000270: fa8c c6bc 3c9f 233c 5280 503c 3235 863c
00000280: ade8 8e3c fdd3 963c 6cf4 15bc 4474 45bc
00000290: 0d85 fe3b e09c 223c 0596 ae3a 78f6 59bc
000002a0: e3f5 4e3b 8e1f 70bc 637e 8dbb b52a af3c
000002b0: 2e27 c7bc 8268 79bb bc22 1abc 0f23 8cba
000002c0: 8f71 d83b b393 303c 3961 943c e614 c53b
000002d0: 0896 23bc 8dba c7bc 1959 3aba f954 ec3b
000002e0: e6c9 e1bc aeb4 9a3c ab0e 85bc c325 7c3c
000002f0: 689e 73bb dc89 c2bc deab 1d3c 6f00 ab3c
00000300: 9180 983c 7f8e d13c b93f 5b3b 0117 0a3a
00000310: 39cf 12bc b540 463c 15ec 66bc ca71 443c
00000320: 1601 a0bc 9d5e 12bb d9c8 be3c 9b0b 54bc
00000330: 1048 91bc 44e9 58bc eda9 cd3c 5a66 0fbc
00000340: e11c 8f3b 5df7 9abc 0ebd f4bb 7d36 7c3c
00000350: 56ea a83b b566 b63b 5f56 a9bc 46df c8bc
00000360: e603 33bc 4ee9 0fbc cc1e 71bb 538e 86bc
00000370: 9501 d7bc b5f9 5a3c 671b ba3c 2e23 28bc
00000380: bbce 2ebc ba34 3abc 2e0d 74bc 86bc 26bc
00000390: f878 58bc 86d7 893b f3f6 4f3c ea89 7fbc
000003a0: ee1c b03b 10fc 79bc 903c ab3c 8b49 143a
000003b0: 0df4 27bc 3bdd 7abc df50 9bbc 0d2e ea3b
000003c0: fd3c 483c 185b 4cbc f42f e1b9 f16b 9cbc
000003d0: 0712 5c3c c069 c2bb e1e1 3c3c 3ef8 c23c
000003e0: 9926 483c b873 0ebb 2044 8d3c fc9f c83b
000003f0: 691b 88bc 2d20 b13b 8779 9b3c cf49 8abb
0.02098826 -0.0063841627 0.02307033 0.020192385 -0.010159766 0.01778088 -0.024216173 -0.009049707
-0.013740777 -0.019743819 -0.013615471 -0.023992438 0.016383225 -0.008905176 -0.01313552 -0.014767556
-0.01833258 0.01582301 -0.0017301154 0.021173643 -0.008988796 0.0072035505 0.001135117 -0.011373088
0.0019436065 0.019746307 -0.024568332 0.0033371635 0.016494466 -0.021678798 0.004080919 0.024368996
-0.009688754 -0.01793897 -0.0064640385 0.012654178 -0.0067729214 -0.004156771 0.008836422 -0.008598295
0.01851207 0.016095346 -0.01458299 0.0011391958 0.016583623 0.025319533 0.017770346 0.0058357497
0.008320063 0.01676257 0.024619875 -0.0072250003 0.0025244448 0.00531551 0.018779783 -0.0014832728
-0.0074426546 -0.01596903 -0.00838144 0.012351675 -0.00074608286 -0.00095399533 0.008162512 0.0066675562
-0.0154454885 0.021638941 -0.021783413 -0.008338576 -0.0206642 0.003928488 0.007128452 -0.012446255
0.013902215 -0.017497012 -0.017317846 -0.0005789646 -0.01712948 -0.00649092 0.017659416 -0.017025786
0.003613423 -0.00393181 -0.021528129 0.017869791 0.01936309 -0.025652846 -0.011159259 -0.016466076
0.017548451 -6.563528e-05 0.006154181 0.02401119 0.011306018 -0.024453446 0.008910097 -0.010771088
0.013259189 0.011133488 -0.02238008 -0.0031981098 0.02137328 -0.01594722 0.01422676 -0.0012030517
-0.022295004 -0.023666907 -0.006251013 -0.011120423 0.00132669 -0.022619618 -0.01823384 0.02208309
0.02054261 0.0079306355 -0.013317525 0.008824197 -0.014538016 -0.0060306736 0.020199496 -0.009923282
-0.01564758 -0.022501465 0.0027139175 0.00089443655 -0.010791916 -0.005900147 -0.018977525 -0.018585684
0.020532332 0.015098783 0.023440588 0.019966219 -0.018855864 0.015776677 0.010441641 0.020643247
-0.0065461253 -0.0026239825 0.002585225 -0.008612588 0.010380644 -0.0186911 0.011516433 0.019725405
2.7140064e-05 0.01610292 -0.005625119 0.009217313 -0.018621096 -0.016456783 0.0074704713 0.018187826
-0.019368418 0.02209927 0.011768008 0.02334212 -0.024237145 0.009986695 0.012725906 0.016382787
0.017444933 0.01841163 -0.009152513 -0.012051646 0.0077673257 0.009925097 0.0013319856 -0.013303392
0.0031579665 -0.014655961 -0.004318045 0.021382669 -0.024310675 -0.0038056676 -0.009407695 -0.0010691601
0.006605334 0.010777402 0.018112766 0.006014454 -0.009984501 -0.024380947 -0.00071086135 0.007212278
-0.027562093 0.018884983 -0.016242346 0.0153898625 -0.0037173275 -0.023747377 0.009623496 0.02087423
0.018615993 0.025580643 0.003345473 0.000526771 -0.008960539 0.012100388 -0.014094372 0.01199002
-0.019531768 -0.0022334226 0.023289131 -0.01294222 -0.017734557 -0.013239209 0.025105441 -0.00875243
0.0043674563 -0.01891678 -0.007468826 0.01539385 0.005154888 0.005566443 -0.020671068 -0.024520528
-0.010926222 -0.0087836515 -0.0036792038 -0.016425287 -0.026245872 0.013365199 0.022718145 -0.010262294
-0.010669406 -0.01136511 -0.01489572 -0.010176783 -0.013212435 0.0042066006 0.012693155 -0.015596846
0.0053745424 -0.01525785 0.020902902 0.0005656711 -0.010251057 -0.0153115345 -0.01895946 0.007146603
0.012221572 -0.01247289 -0.00042951072 -0.01909444 0.013432032 -0.0059330165 0.011528463 0.023800012
0.012216234 -0.0021736454 0.017244399 0.0061225872 -0.016614633 0.005405447 0.018978847 -0.0042202245

base.3.bias f4 [64]
00000000: 8bba ac3c 7d9e fdbb 34d4 c23c 064f b33a
00000010: ad1e 383c 7017 4cbc 3126 9abc 332e 03bc
00000020: e8f5 9ebb c623 4a3c 6b2f 9f3c 956f 0cbc
00000030: 0229 623c 4250 8fbb a2d1 233c 5a4a a13c
00000040: 4add bc3c b028 ffba dbcb c63b 839e b23c
00000050: 0afb a7bc 6b4c 30bc 6f42 7bbc ffd9 b0bc
00000060: f8a9 31bc af18 373c 9c5f 883b a804 c6bb
00000070: 13a7 34bc 28d8 a9bc cdac 84bc 6b23 9cbc
00000080: ee2f 18bc d501 b3bc 003f f2b9 8f4a be3c
00000090: bb1a a63c 64e5 4aba f1b9 c33c 502e a83b
000000a0: 53c7 963c efcd e9bb 2c77 0abc 9ec9 213c
000000b0: 899e b9bc 0d88 a43c daf1 f43a 3006 b63c
000000c0: 0e26 8e3c dce7 97ba b016 bfbb 55f0 89bc
000000d0: 530e 6bbb ef66 a83b ade6 38bc 30d1 92bc
000000e0: c42d 9bbc c989 76bc c1c7 2439 f8d1 c83c
000000f0: 36ba b5bc b3b0 83bc 8a92 0d3c c343 0cbc
0.021085044 -0.0077398405 0.023782827 0.0013680167 0.011237782 -0.01245676 -0.01881704 -0.00800662
-0.0048510917 0.012337631 0.01943179 -0.008571525 0.013803722 -0.004373581 0.009998711 0.019688774
0.023054738 -0.0019467082 0.006066782 0.0218041 -0.020505447 -0.010760407 -0.015335663 -0.021588324
-0.010843746 0.011175319 0.004161788 -0.0060430355 -0.011026162 -0.020732954 -0.01619568 -0.019059857
-0.009288771 -0.02185146 -0.00046204776 0.023228912 0.020276418 -0.00077398703 0.023892375 0.005132474
0.018405592 -0.007135145 -0.008451264 0.009874729 -0.022658603 0.020084405 0.00186878 0.022219747
0.01735213 -0.0011589485 -0.005831562 -0.016838232 -0.0035866692 0.0051392238 -0.011285466 -0.017922014
-0.018942721 -0.015047499 0.00015714673 0.024514183 -0.022183519 -0.016075468 0.008640895 -0.0085610775

base.4.weight f4 [64]
00000000: ac91 7f3f 1473 7f3f 0a5d 7f3f 4a88 803f
00000010: ed3d 803f cb98 803f e440 803f 12be 803f
00000020: 7fc7 7f3f f407 803f eb08 803f 1e81 7f3f
00000030: 333e 803f 7ef0 7f3f f8d0 7f3f 9fee 7f3f
00000040: d3dc 7f3f 9775 803f 2e40 803f 6837 7f3f
00000050: bfeb 7f3f a2d4 7f3f 0051 803f ce81 7f3f
00000060: 34a0 7f3f 5a32 7f3f ed1c 803f a089 7f3f
00000070: b604 803f f9c6 7f3f bb0f 803f 3d4c 803f
00000080: 796c 7f3f 8466 7f3f 2741 803f 95e9 7e3f
00000090: 366a 803f 8800 813f 1384 7f3f 557f 7f3f
000000a0: e590 803f ace2 7f3f 024d 803f 754f 803f
000000b0: e925 803f bed1 7f3f 38ec 7e3f f0b1 803f
000000c0: b1a5 7f3f ab35 803f 9a06 803f d2e9 7f3f
000000d0: 8769 7f3f 4406 803f a452 803f e486 7f3f
000000e0: b541 803f 273e 803f fa2c 803f 873d 7f3f
000000f0: b9b7 7f3f 84f2 7f3f 099f 7f3f aaaa 803f
0.9983165 0.9978497 0.9975134 1.0041592 1.0018898 1.0046629 1.0019803 1.0058005
0.9991378 1.0002427 1.0002722 0.9980639 1.0018982 0.99976337 0.99928236 0.9997348
0.99946326 1.0035886 1.0019586 0.9969392 0.99969095 0.99933827 1.0024719 0.9980744
0.99853826 0.99686205 1.0008827 0.99819374 1.0001438 0.99912983 1.00048 1.0023266
0.9977489 0.997658 1.0019883 0.9957517 1.0032413 1.0078287 0.99810904 0.9980367
1.0044218 0.9995525 1.0023501 1.0024248 1.0011569 0.99929416 0.9957919 1.0054302
0.998622 1.0016378 1.0002015 0.99966156 0.99770397 1.0001912 1.002522 0.998152
1.0020052 1.0018967 1.0013726 0.9970326 0.99889714 0.99979424 0.99852043 1.0052083

base.4.bias f4 [64]
00000000: 21eb b1bb 2cb8 8a3a a0ef 20ba c3bb 353b
00000010: 2be2 f73a 0c3f 103a 9abb 16bb fbca d33a
00000020: a26d b73a 4a34 693b dae2 c439 20dd aaba
00000030: 4ac2 5e3a 4945 62ba 453c 8b3a 1ce5 303a
00000040: 7633 09bb 1c46 313b 8ba8 d23b d03b 50bb
00000050: 1ffe 79b7 079a 79bb d9ae c03a c86e 6237
00000060: c385 82bb 57e2 a9b9 a9eb 993a bb34 e1ba
00000070: 7956 ba39 4db0 31bb 48db 163b 7781 acba
00000080: 0510 eb3a 3755 87ba 1c9f f43a 3f82 fdba
00000090: 5e40 533b 040b f73a c40e 043b 07c7 d9b9
000000a0: a09e b4ba 2a45 b9ba 3944 8db9 4bde fd3a
000000b0: 2211 f13a 1c1a 60bb 16f8 8dbb 1426 3bbb
000000c0: 3a34 4a3a 01c3 9e3a ec6d 99b9 f888 ab3a
000000d0: 0537 0cbb 8c22 fbb9 2728 34bb 42b4 13bb
000000e0: 2708 2a3a 7a61 ad3a d9ba a3ba 105d b0bb
000000f0: efc6 b139 8317 a03a 62e8 f439 36c9 3dba
-0.005429641 0.0010583452 -0.00061392225 0.0027730323 0.0018912008 0.0005502559 -0.0023000003 0.0016158515
0.0013994465 0.0035584145 0.0003755305 -0.0013035871 0.0008497579 -0.000863154 0.001062282 0.0006748007
-0.0020935214 0.0027049845 0.0064287833 -0.0031773932 -1.4900724e-05 -0.0038086192 0.0014700546 1.3496443e-05
-0.003983231 -0.00032402828 0.0011743206 -0.0017181853 0.00035541112 -0.002711314 0.0023018885 -0.0013161142
0.0017933851 -0.0010325079 0.0018663141 -0.0019341185 0.003223441 0.0018847887 0.0020150403 -0.00041537752
-0.0013780184 -0.0014134992 -0.00026944446 0.0019368617 0.0018391947 -0.003419525 -0.0043325527 -0.0028556632
0.0007713471 0.0012112559 -0.00029264332 0.0013087085 -0.00213951 -0.0004790019 -0.0027489753 -0.0022537862
0.00064862 0.0013227903 -0.0012491598 -0.0053821877 0.00033908288 0.0012214038 0.00046712445 -0.00072397606

base.4.running_mean f4 [64]
00000000: 0f2e dcbd 5fee 31bd 2842 92bb f5d9 693d
00000010: 5f98 483d 7686 9d3d d2a3 51bd dec3 aabc
00000020: e8d9 06be b0a6 5b3d a000 333c 6e3b b2bd
00000030: b085 513e 15c9 b0bc 46c7 06bd ea61 0a3e
00000040: c7d8 2fbd 3d8b 46bd 6a51 123d 077d 783d
00000050: d191 023c 751e 8bbd 5283 36bd 4291 02bc
00000060: 57ab 99bc f47c 4d3d 8e34 3a3d 0021 2e3e
00000070: 501b 0ebe f7ed ad3d c26a cebc ccd5 023e
00000080: 0490 8abd 5570 fd3a e6ca 08be 99cc 5a3e
00000090: c886 783e 7283 043e ab1e 02be 1134 28be
000000a0: 2171 b43d 59d0 af3c 1398 f23c 4bf8 9dbd
000000b0: 5c1f 413d 3d38 b3bc e44a 943d bcf7 683c
000000c0: 5171 3f3d d632 113e f992 cf3d e971 3f39
000000d0: a597 783e 7cd8 3b3e 1f60 ea3d a7a1 f7bd
000000e0: 1196 933d f069 4ebe 3117 c03d 08c8 143e
000000f0: 517d 793e 0afd b43c b367 1f3c b29f d83d
-0.107509725 -0.04344022 -0.004463453 0.057092626 0.048973437 0.07691662 -0.05118162 -0.02084535
-0.13169062 0.053625762 0.010925442 -0.087027416 0.20461154 -0.021580258 -0.032904886 0.13513914
-0.042931344 -0.04847263 0.035722174 0.06066611 0.007969336 -0.067929186 -0.04455883 -0.0079692025
-0.018758459 0.050167993 0.045460276 0.17004776 -0.13877606 0.08492654 -0.02519739 0.1277687
-0.0676575 0.0019335846 -0.1335865 0.2136711 0.24270165 0.12940767 -0.12707011 -0.16426112
0.0881064 0.021461653 0.02961353 -0.07713374 0.047149047 -0.021877402 0.07240847 0.014219221
0.046738926 0.14179549 0.10135455 0.00018257614 0.24276598 0.18344301 0.11444115 -0.120913796
0.07206357 -0.201576 0.093794234 0.14529431 0.2436421 0.022093315 0.009729314 0.105773345

base.4.running_var f4 [64]
00000000: 2e90 d93d 9d19 523e d020 3e3f 11c8 433d
00000010: 80ee d83c 2f29 a83d 443d aa3d 4ca0 3b3d
00000020: 9d7e 8c3e fe82 af3d 9afb 3c3e 081e 623e
00000030: 6f47 cc3d 88a3 da3d 6680 2c3e 2825 423d
00000040: 83b4 223e 4c6b cb3d b2f8 323e 232e 6d3d
00000050: bc4c 5b3e aee6 3f3d 3b39 b73d 33f0 f63e
00000060: e95b 6f3d 67bd 0f3e 6ea6 093e 5bce ce3e
00000070: 102e f63d 268e 823d 69cb b53d 2117 143d
00000080: 48cb 3e3e 6904 cb3d 2bce f83c b6f9 243e
00000090: d5ac a43d 9a58 893d ca0f 973d 8735 a63e
000000a0: 91e3 873d 0ed8 063e eb02 513d 07c5 ea3d
000000b0: a33b 9a3d 0b85 403d 985e d53d 8d0e bd3c
000000c0: 9830 7d3d 6f87 c43d ce6e 3a3d ee2d f03c
000000d0: 06f1 923d 877b 803d 6b78 903d ca82 fd3d
000000e0: 9afb d23d 742f 123e bd43 273d 781b 903d
000000f0: 4fb6 383d 4825 203d befd 203e c71b c03c
0.10623203 0.20517583 0.7426882 0.04779822 0.026480913 0.0821098 0.08312467 0.045807168
0.27440348 0.08569907 0.18455353 0.22081769 0.099745624 0.10675722 0.16845855 0.047398716
0.15889172 0.09932575 0.17477682 0.057905328 0.2141599 0.046850853 0.08946463 0.48230132
0.05843726 0.14037095 0.13442394 0.40391812 0.120205045 0.06374769 0.08876688 0.03615487
0.18632233 0.099129505 0.030371746 0.16110882 0.080407776 0.067063525 0.073760584 0.32462713
0.06635202 0.13168356 0.051028173 0.11463361 0.07530906 0.04700188 0.10418433 0.023078227
0.06181392 0.095961444 0.045515828 0.029318776 0.07174878 0.06273561 0.07054218 0.12378462
0.103018954 0.14275914 0.040836085 0.07036489 0.045095738 0.039098054 0.15721795 0.023450745

base.6.weight f4 [32, 64, 5, 5]
00000000: 80d5 893b 4a39 49bc 3006 54bc f12b cfbc
00000010: 9a2f 923a d0d4 23bc df02 dbbc a576 83bb
00000020: d146 4c3c 50f2 903c aad6 7fbc 7ac5 7cbb
00000030: 047f 173c 0464 aeba e911 9fbb 9f5b 07bc
00000040: 2fb6 bb3c 3ee4 12bb a108 babb 62c2 94bc
00000050: 76ae a93b 41ad 81bb f498 ae3c a37b 69bc
00000060: 3fe3 b5bc 40af ac3c 1867 743c aad9 983c
00000070: 13fb d5bb 6a8a 113c 9c7a 32bc 5a1e bcbc
00000080: c0ab 733c b508 76bc edd5 1abc 71e5 90bc
00000090: 609b c5bb 1c3f 713c fa85 00bb edb1 d23b
000000a0: 9668 5f3c ca29 933b 7ce2 103c 12d1 363c
000000b0: 5c62 aabc 7493 b63c 030e 793b 4d13 27ba
000000c0: 0707 bb3b f51d a7bc 8c75 85bc c597 1a3c
000000d0: 6d77 783c 5361 ba39 1fd5 9bbb 8dd0 1c3c
000000e0: 8321 92bc f450 333b 4f84 843c 4b91 1f3b
000000f0: 3777 7b3c 43a7 0e3c 9c23 ecba 4211 97bc
00000100: 2dc3 0f3c c333 1b3a 6e1e 0cbc c411 8239
00000110: e89c ef3b 95aa cdbb ef06 7cbc 7a05 273c
00000120: ac98 933c 0c7f bd3c 22db cabb 2239 6fbc
00000130: b89e af3c 32c0 dbbc 8139 ddbc 8183 2fb9
00000140: 7a18 2c3b 2eed 69bb 596a a3bc fa5f a4bc
00000150: 46e6 a83c 798f 3a3b 6a10 c03c 3dc6 f5bc
00000160: 26df 83bb 754d d9bc bfe0 1bbc 8bfe 993c
00000170: c869 9cbc 06ec af3c b980 98bc ebd9 d2bc
00000180: 9f8b 8ebc 25ea efbb f5e4 6ebc 4f6e b53c
00000190: 9057 a4bc 4252 60bc 6961 d5bb 43f9 9cbc
000001a0: 3f69 af3b cc0b a83b 72fe 87bc 1bcf 963c
000001b0: 3504 cf3b dd46 44bc 1b31 3fbc 3467 973c
000001c0: 7dbf 9e3c a055 ac3c a399 21b9 d638 37bc
000001d0: e13a 02bb 138d bfbc faca 4d3b bb6b dc3a
000001e0: 6f17 50bc 09d3 553c 8a29 80bc bd5f afbc
000001f0: 0924 053c 649a aa3b ab4e 0ebc 8b1b d4bb
00000200: 5d30 06bc 5724 a3bc 98ab 3b3c 88c8 5cbc
00000210: 41fb 0db9 aa11 deba cb03 11bc bbbf dd3c
00000220: 2b24 143c fb1b 98bc 1c1d d4b9 2a53 92bc
00000230: 9f9b 3a3c db3c 3bbc 5572 d2ba d25e 3dbc
00000240: afb4 b33c 2f18 81bc 0df3 303a 1b49 d7bc
00000250: f4b2 09ba 9a60 95bb 6436 08bc c9bc f43b
00000260: a0c0 45bc c464 aa3c 5e5f 85bc 6254 cd3c
00000270: abf5 14bc 2a8a 0ebc 9c72 53bc c0d5 9e3c
00000280: 3392 a3bc 80ab 59ba a295 aebc 5759 acbc
00000290: 1b4e 48bc b57d 33bc 4414 383c 2297 e43b
000002a0: 1ad7 83bc 3f16 c73c 284e c8bc de28 cebb
000002b0: 477d 893c a244 52bc 5c54 033b 3c5f abbc
000002c0: 2b64 293c 558a 24bc 8255 28ba 42b6 65bb
000002d0: 8cc2 963c 50e4 c23c 4728 a63c 3916 dcbc
000002e0: 1780 04bb cc8b 5a3c fbfb 57bc f211 a5bb
000002f0: 99de 513c 1bb9 ecbb 59e6 933c 9f0e b93c
00000300: 337c d0bc a4f2 6b3c fb33 8c3c 2bc9 e43b
00000310: 4c2e 5f3c 6df9 2f3c c7e0 e6bb 0bc1 0b3b
00000320: 9867 b13c 69a7 943c d386 903a d1e8 1a3c
00000330: 7867 023c 040a b8bb 9cf0 85bc 878c 653c
00000340: 0ced 113c 2703 99bc 578d 783b db82 883c
00000350: a46b bebc dcc4 323c 33e9 713c fb89 853c
00000360: a676 cabc 7c2e ad3c 3913 da3b f136 9abc
00000370: 1009 7e3c a481 aebb a2a7 35bb 8c9b cc3c
00000380: f124 963c 7bf2 d9bb 44b7 c93b be0f 933c
00000390: b339 6bbc 318a 163c 7156 ac3c 7626 c23b
000003a0: 6e33 c43b a348 bebc 12e1 923a 03b3 663c
000003b0: 9913 5eba 6738 813c e983 9d38 4f56 353c
000003c0: ef47 b63c 54f3 3bbb da59 a3bc d313 efbb
000003d0: ef64 983c ea44 fa3a c574 d23c dd10 123a
000003e0: 54d2 81bc 3144 113b ca34 c33b 28cb 833c
000003f0: 8c6a 543c 0ee6 b9bc 5403 69bc 696a a43c
0.0042063594 -0.012281725 -0.012940928 -0.025289508 0.0011153102 -0.009999469 -0.026734767 -0.0040119463
0.012468056 0.017693669 -0.015615145 -0.0038569854 0.0092465915 -0.0013304953 -0.00485443 -0.00826159
0.02291402 -0.0022413875 -0.005677298 -0.018159095 0.005178268 -0.003957421 0.021313168 -0.014250669
-0.022203086 0.02107966 0.014917158 0.018658478 -0.0065301745 0.008883098 -0.01089349 -0.022963692
0.014872491 -0.015016724 -0.009450418 -0.017687531 -0.006030485 0.014724519 -0.0019611106 0.006429902
0.013635775 0.0044910656 0.008843061 0.011158245 -0.020798855 0.022287108 0.0038002736 -0.00063734205
0.005707625 -0.020400027 -0.016291402 0.009435599 0.015165192 0.00035549197 -0.0047556306 0.009571207
-0.017838245 0.0027361484 0.01617637 0.0024348076 0.015348247 0.0087068705 -0.0018015984 -0.018440846
0.008774561 0.0005920494 -0.008552177 0.0002480877 0.007312406 -0.0062764385 -0.0153825125 0.010194177
0.018017136 0.02313187 -0.0061906734 -0.014601024 0.021437988 -0.026825044 -0.027004959 -0.0001673829
0.0026259706 -0.0035694349 -0.019948171 -0.020065296 0.020617615 0.0028466864 0.023445327 -0.030001754
-0.004024404 -0.026526192 -0.009514033 0.018798133 -0.01909341 0.02147485 -0.018616067 -0.025738677
-0.01740056 -0.0073216134 -0.014580955 0.022147326 -0.020061284 -0.013691487 -0.0065118563 -0.019161826
0.0053531225 0.0051283594 -0.016600821 0.018409302 0.00631764 -0.011979786 -0.0116694225 0.018481828
0.019378418 0.021036923 -0.0001541139 -0.011182984 -0.001987152 -0.0233827 0.00314015 0.0016816774
-0.0127008995 0.013050803 -0.015644807 -0.021407956 0.008126267 0.005206393 -0.008685748 -0.00647301
-0.008190242 -0.01991479 0.011454485 -0.013475545 -0.00013540407 -0.001694252 -0.008851002 0.027068963
0.009041826 -0.01856803 -0.0004045748 -0.017861921 0.011389642 -0.011428083 -0.0016055802 -0.011558251
0.021936743 -0.015758602 0.00067500846 -0.026279977 -0.00052528013 -0.004558635 -0.008313749 0.007468794
-0.012069851 0.020800002 -0.016280826 0.02506465 -0.009091775 -0.008699933 -0.012905743 0.019389033
-0.019967174 -0.00083034486 -0.021311585 -0.021038694 -0.012225653 -0.010955264 0.0112353 0.0069760242
-0.01609378 0.0243026 -0.02445133 -0.006291493 0.01678337 -0.012833746 0.0020039296 -0.020919435
0.010338823 -0.010042747 -0.0006421433 -0.003505126 0.018403314 0.023790509 0.020282878 -0.026866065
-0.002021795 0.013338994 -0.013182635 -0.0050375396 0.012809419 -0.0072242147 0.018054174 0.02258998
-0.025449848 0.014401112 0.01711463 0.006981989 0.013621878 0.01074062 -0.0070458385 0.002132478
0.021655843 0.018146234 0.0011026509 0.009454922 0.007959239 -0.0056164283 -0.016350083 0.014010555
0.008906614 -0.018678261 0.0037926042 0.01666396 -0.023244686 0.010911193 0.014765072 0.016301146
-0.02471478 0.02114033 0.0066551236 -0.018825026 0.01550509 -0.005325513 -0.0027718325 0.024976514
0.018328162 -0.0066512204 0.00615588 0.017951842 -0.014357018 0.009188221 0.021037312 0.005924995
0.005987576 -0.023227995 0.0011205992 0.014080766 -0.0008471548 0.015773965 7.5109136e-05 0.011067941
0.022251097 -0.002867897 -0.019940306 -0.0072960644 0.018602816 0.0019094024 0.025690446 0.0005571971
-0.015847363 0.002216589 0.0059572207 0.016088083 0.012964856 -0.022692706 -0.014221985 0.020070272

base.6.bias f4 [32]
00000000: 8081 c5bb 0894 77bb 25c1 afbc 2de9 d1bb
00000010: 6224 06bc c6a0 9bbc 543f 30bc 5ad4 36b9
00000020: f881 69bc 9db7 443c ed0a 06bc b8cf 203c
00000030: 6334 0f3c c9c3 b9bc a533 a73c 3d38 9abc
00000040: 3a56 cbbc 2af7 3bbc b607 8e3a ad6b 1abc
00000050: 876e d0b9 3f58 8aba 4b89 89bb a764 bcbc
00000060: 2322 b1bc dff1 adbc 7fb6 dbbb 89ee 7b3c
00000070: 1f8f da3b e11a 0abb 75b4 9c3c 6124 f13b
-0.0060274005 -0.0037777442 -0.021454403 -0.0064059705 -0.008187385 -0.018997561 -0.010757286 -0.0001743598
-0.014252178 0.012006667 -0.008181316 0.009815149 0.008740517 -0.022676365 0.020410368 -0.018825645
-0.02482139 -0.011472503 0.0010836038 -0.009425086 -0.000397552 -0.0010554864 -0.004197275 -0.022997214
-0.021622723 -0.021233497 -0.006705105 0.015376695 0.0066698934 -0.002107315 0.019129017 0.007359073

base.7.weight f4 [32]
00000000: 85e6 813f 3e93 813f e10f 813f ee4e 813f
00000010: 2690 823f 44e9 813f 2832 823f cbba 813f
00000020: 50f7 813f 0d3f 823f 4d46 823f 89a5 813f
00000030: 2dcc 823f cb95 813f 5984 813f b6be 813f
00000040: 084a 823f 71bd 813f ec72 823f 8eb9 813f
00000050: 8ba2 813f 9717 823f 2644 823f 5f0b 823f
00000060: a017 813f 19e8 813f c2e5 813f 1f7a 823f
00000070: f54c 813f cc9b 813f 05d3 813f fe04 823f
1.0148474 1.012306 1.0082971 1.0102212 1.0200241 1.0149312 1.0171556 1.013513
1.0153599 1.0175492 1.0177704 1.0128642 1.021856 1.0123838 1.0118514 1.0136325
1.0178843 1.0135938 1.0191321 1.0134752 1.0127729 1.0163449 1.0177047 1.015972
1.0085335 1.0148956 1.0148242 1.0193518 1.010161 1.012567 1.0142523 1.0157773

base.7.bias f4 [32]
00000000: ba9b f43b f067 f43b ca54 fa3b f61e e93b
00000010: 462f 8b3c 6d1d 283c 0fc5 693c 25ae 3a3c
00000020: 693f 723c ac63 573c 8299 663c 9566 003c
00000030: 2eda 043c 2cb8 293c 2842 3a3c 255f 143c
00000040: 5eef 643c 6e8e 103c bcd3 383c c6cd ea3b
00000050: 40ac 5c3c a81d 423c c917 593c 81a7 333c
00000060: 5415 bf3b e9d8 573c ae06 e73b aad7 3a3c
00000070: e2b9 d03b 845d 143c 899d 053c 9d0b 1f3c
0.007464853 0.0074586794 0.007639502 0.0071142865 0.016990315 0.010260922 0.014268174 0.011394058
0.014785626 0.013146322 0.014074685 0.007836957 0.008108659 0.010358851 0.011368312 0.009055887
0.013973085 0.00882302 0.01128095 0.0071656434 0.013468802 0.011847891 0.0132503 0.010965229
0.0058314 0.013174274 0.007050357 0.011403957 0.006369815 0.009055499 0.008155235 0.009707359

base.7.running_mean f4 [32]
00000000: c3ed 10be a377 5b3e b42f f0bc 54e9 cb3c
00000010: 6b67 dfbc 6ff1 d23d 6932 3d3e 638d 443e
00000020: 6dd0 3e3d 5657 543e d712 8d3e df42 993e
00000030: 5edb 123e 8065 4e3e 7049 cabc 3fd8 66be
00000040: eb78 0fbe d9b4 3f3e c828 543e ff12 c63c
00000050: 15de 543c 4895 e73d 9447 0fbe 3f7c df3e
00000060: e220 a0be d767 153e 5b74 c2bd aa7e 8a3e
00000070: 86b0 603e 570b de3d 81ab 043e 08c3 df3d
-0.14153199 0.21432357 -0.029319622 0.024891533 -0.027270993 0.10299956 0.18476261 0.1919456
0.04658549 0.20736441 0.27553436 0.2993383 0.14341494 0.20155907 -0.02469322 -0.22543429
-0.1401097 0.18721332 0.20718682 0.02417898 0.012992402 0.1130777 -0.13992149 0.4364948
-0.31275088 0.14590393 -0.09494849 0.27049762 0.21942338 0.10842007 0.12956049 0.10925871

base.7.running_var f4 [32]
00000000: 31e6 683e 536d 223e 0bea c93d 557d da3d
00000010: 62d8 003e 2b56 2b3e 909d 813e c30c 463e
00000020: 2615 893e e7bd cc3d 85f2 aa3e 95b9 5e3e
00000030: c908 143e d6b4 ef3e 79a8 a33e eceb 923e
00000040: 6c7c 553e 733e 503e d031 d83e f39b da3d
00000050: 69d4 653e 31f8 083e 4f35 0f3e eca8 6d3e
00000060: 963e 3f3e 2e2d a83d 51ac 053e 5efb 933e
00000070: 5db6 b53e 42c8 cf3d 6e11 213e b795 853e
0.22744061 0.15862016 0.09859093 0.106684364 0.12582543 0.16732089 0.25315523 0.19340806
0.26773947 0.099971585 0.33388153 0.21750481 0.14456476 0.46817654 0.31964472 0.2869562
0.20848244 0.20336322 0.42225504 0.10674276 0.2244431 0.13375928 0.1398518 0.2320897
0.18676218 0.08211742 0.13054015 0.28902715 0.35490695 0.10145618 0.15729305 0.26090786

head.0.weight f4 [24, 1024]
00000000: 62c4 6bbc 008b 9abc f41f bb3c 7ff7 c4bc
00000010: c4d2 14bd 4769 2c3c c59b e13b 3d43 883c
00000020: 123d e4bc 1c35 aabc 3975 403c 8f03 4ebb
00000030: 831a 6d3c 1562 55bb 0463 eabc 8e0e 8e3c
00000040: 2328 d63c 8f46 3bbb 17ee 14bc 5c9a cbba
00000050: fa7b 8d3c b807 4cbb 755d 4dbb 4c34 143d
00000060: 191b c13b 8b75 3b3c 1a76 54bc e169 0ebc
00000070: a95b 693c d34c 70bc a9f8 dbbb b9b2 12bb
00000080: 45b7 54bb 9a24 fc3c f71a 54ba 235e 98bc
00000090: 4d15 e93c cd9f eabb f1b3 113b a620 933b
000000a0: e086 8ebc bdd2 72bc ac90 adbc e29d 083b
000000b0: 412a 123c 9d44 af3c e164 f83c cd99 9e3c
000000c0: 33b1 a33c 5a4c 88bc 4988 c93c 46fc bc3c
000000d0: 5093 37bc 0db5 8e3b 56bc 383c 8c1f 033d
000000e0: 7f9e 16bd f324 4ebc d773 ee3c 9246 95bb
000000f0: c884 ad3c 9cab 7cbc e744 cb3b d812 afbc
00000100: 1439 943c 2c4e d8bc 0d6e 0bbc c592 d6bc
00000110: 0bac 88bc 9285 c6bc b38f b73a b051 97bb
00000120: ee25 2ebc 6eea dbbc ba86 0d3c 0a4a 533b
00000130: 6085 f9bc 2ec2 9bbc 789d d9bc e2cc c6bc
00000140: c769 503c ec83 b6bc 9139 fc3a ffc2 6ebc
00000150: 280d 46bb 3985 cb3c 8a46 cf3b 24d2 d13c
00000160: 5347 d63c e18b c5bc 091e ccbb cb5a 99bc
00000170: 9640 833c da7a 00bd b6f9 debc bb13 463c
00000180: f0b0 ce3b 230c 673c 95c0 7d3c a3f7 c13c
00000190: 751e 51bc 0803 823c 67a0 adbc 3cac 6f3c
000001a0: ca32 a7bb a91e 5abc 40c7 dabc a456 edbc
000001b0: a07e e43c e566 fb3c c6c6 a23c 6e14 f7bb
000001c0: 6b1f 9abb 501b d53c c584 eebb 7731 07bc
000001d0: 4f56 f9bc a7ab bb3b 49ff d13a b758 03bc
000001e0: 72d2 9e3c c807 e53b 26a6 c7bb e28b dd3c
000001f0: 143e f8bc bd91 22bb b401 fdbc 00b4 8dbc
00000200: 6e4e 72bc 7aa4 c4bb dad1 50bc 4e55 583c
00000210: 22f2 443c 1a30 29bc 72c0 583c b9f3 e9bc
00000220: fa45 cdbb cda4 273b 35fd 6bba 6bb9 83ba
00000230: 7bc4 7e3b 5165 8fbc 1077 04bc 5a29 2abc
00000240: dff6 72bc 06e9 a2bc 0c4f d4bc e350 cc3c
00000250: 63f6 faba b081 2d3c 2b40 0a3d 36d9 c73b
00000260: 7f61 8e3c 7929 15bc 54c4 0c3d 6afd bb3c
00000270: b1b8 263c 8094 deba 214e 123c 3314 15bc
00000280: e9fb 6c3c f1c7 e7bc 3bf4 8f3c 7f96 1cbc
00000290: 68c7 cdbb 6819 e33b b878 a0bc 973e 013c
000002a0: e1b0 d03b 7199 7ebc 3827 23bc c56a 93bc
000002b0: 29f2 f8bb 0d7e eb3c 8b30 1d3c 477a 05bd
000002c0: 549c d4bc b67c ab3c 1e85 92bc 78bf 01bd
000002d0: 04ef 8d3c 84f3 08bd a605 d43c 2fdd 9bbb
000002e0: a71f a63c 5fb6 f9b9 7c26 193c 8cd0 75bc
000002f0: 45b4 28bc 3c71 b63c 2cbb 9f3c beef 00bd
00000300: 9c26 34bc 2ce7 323a ac2c 9c3c 8800 5d3a
00000310: 2d3d 0b3d 3138 a7bc 589f f3bb 9c5b fa3a
00000320: ab10 e73c 7b0a a13a 9245 f4bb 90aa 8d3c
00000330: 6698 ab3c 24e6 d8ba 77d8 ec3b 8edf acbc
00000340: e55c 02bd 69f7 783c c796 2f3b e036 4ebb
00000350: 8a07 57bc 06be 9f3c 516c a73c 7f90 1e3d
00000360: a5bc bd3c 5a3e e7bb b56b 8a3c b647 8e3c
00000370: 4c10 85bc 6046 c2ba 1c2e 19bb a667 f03c
00000380: 1edc 6f3c 4096 b83c 12b4 95bc d6b7 91ba
00000390: 18b8 2a3d f1e6 8d3c 5b89 213c b58c 8abc
000003a0: 1f6e ddbb bc53 c23b 5a6d 303d bd79 b03c
000003b0: 305c a7bb 4a9a 1e3d 82f5 ff3b 2ed7 bebb
000003c0: 90c8 713c 8223 043d b79e adbc 5361 693c
000003d0: 6127 ce3c efa3 bfbc c9df d23a 66f0 283b
000003e0: b173 b63c 12ef 10bd f9bf 1b3d 0240 3d3c
000003f0: 9e95 a8bc c651 0d3d dc54 b4bc a62a 9fbc
-0.014390083 -0.018865108 0.022842385 -0.024043797 -0.036333814 0.010523147 0.0068850243 0.016633624
-0.027861152 -0.020777278 0.011746698 -0.0031435227 0.014471653 -0.0032559682 -0.028611667 0.017340925
0.026142186 -0.0028575992 -0.009089968 -0.0015533674 0.01727103 -0.003113253 -0.0031336222 0.036182687
0.005893123 0.011441599 -0.012967611 -0.008692236 0.014243045 -0.014666754 -0.006712992 -0.002238436
-0.003245787 0.030779172 -0.0008091176 -0.018599575 0.02845254 -0.007160163 0.0022232498 0.004489976
-0.017398298 -0.014820752 -0.021187149 0.0020846059 0.008921207 0.021395022 0.03032154 0.019360447
0.019981956 -0.01663797 0.024601119 0.023069512 -0.011204556 0.004355079 0.011275372 0.032012507
-0.036772247 -0.012582052 0.029107971 -0.004555532 0.02118148 -0.015421774 0.006203282 -0.02137129
0.018093623 -0.026404463 -0.008510125 -0.026193032 -0.016683599 -0.024233613 0.0014004618 -0.004617892
-0.01062916 -0.026845183 0.008638078 0.0032240176 -0.030459106 -0.01901349 -0.026564345 -0.024267618
0.012720532 -0.022279702 0.001924323 -0.014572858 -0.0030220244 0.024843799 0.0063255476 0.025612898
0.026157057 -0.024114551 -0.0062291664 -0.018720051 0.016022008 -0.03136716 -0.02721868 0.012089665
0.0063077137 0.014102015 0.01548781 0.023677653 -0.012763609 0.015870586 -0.02119465 0.014628466
-0.00510249 -0.013312974 -0.026706338 -0.028971978 0.02789241 0.030688712 0.019870173 -0.007540277
-0.0047034523 0.026014 -0.007279011 -0.008251539 -0.030436663 0.0057272497 0.0016021515 -0.008016757
0.019387458 0.006989453 -0.0060928045 0.02704424 -0.030303039 -0.0024806105 -0.030884601 -0.017297745
-0.014789207 -0.0060010524 -0.012745345 0.013203932 0.01202062 -0.01032641 0.013229476 -0.028558599
-0.0062644454 0.0025580407 -0.00090022694 -0.0010049766 0.0038874436 -0.017504366 -0.008085027 -0.010385836
-0.0148293665 -0.019886505 -0.025916599 0.024940914 -0.0019146915 0.010590002 0.0337526 0.0060988916
0.017380474 -0.009104126 0.03436692 0.022947986 0.01017587 -0.0016981512 0.00892976 -0.009099054
0.014464357 -0.028293582 0.017572513 -0.009557365 -0.0062798746 0.006930519 -0.019588813 0.007888458
0.006368742 -0.015539513 -0.009958081 -0.017995248 -0.007597227 0.02874663 0.009594093 -0.032587316
-0.02595345 0.02093349 -0.01788574 -0.03167674 0.017325886 -0.03343536 0.0258816 -0.0047565917
0.020278765 -0.00047628858 0.009347554 -0.015003335 -0.010296886 0.022270791 0.01949843 -0.031478636
-0.010995533 0.00068246084 0.01906427 0.000843056 0.03399389 -0.020412536 -0.0074347667 0.0019100788
0.02820619 0.0012286449 -0.0074545825 0.017293245 0.020946693 -0.001654808 0.007227953 -0.021102693
-0.031826872 0.015195706 0.002679275 -0.0031465814 -0.013124356 0.01949979 0.020437391 0.03871202
0.023161242 -0.0070569934 0.016897062 0.017368179 -0.016243123 -0.0014821999 -0.002337343 0.029346298
0.014639882 0.022532582 -0.01827434 -0.001111741 0.04167947 0.017322036 0.009859408 -0.016912797
-0.006757512 0.005930392 0.043073036 0.021542424 -0.005107425 0.03872136 0.0078112492 -0.0058239913
0.0147572905 0.032260425 -0.021193845 0.014244395 0.025165262 -0.0233936 0.0016088422 0.0025778054
0.022271963 -0.035384245 0.038024876 0.011550905 -0.020579156 0.034501813 -0.02201312 -0.019429516

head.0.bias f4 [24]
00000000: 4d17 f93c 06e9 743c 2943 ecbc 94e1 5bba
00000010: 3e59 ab3a 115d 7ebc 88c1 84bc 0d8e 0f3d
00000020: 9ea4 823c d692 823a 7fce 613c c2b8 9b3c
00000030: 15e8 9dbc 7baf c93c 15e0 2ebc 657e a13c
00000040: f79a bf3b 730a f73b c0ab aabc 7cd2 56bb
00000050: a1cb 0bbb aa3d 533b 2a1a c93b 7eac bb3c
0.030406618 0.014948135 -0.028840618 -0.0008387801 0.0013072861 -0.015525118 -0.016205564 0.03504758
0.015947636 0.0009961973 0.013782143 0.019008998 -0.019275704 0.024619808 -0.0106735425 0.01971359
0.0058473307 0.0075390874 -0.02083385 -0.0032779267 -0.002133109 0.00322328 0.006137152 0.0229094

head.2.weight f4 [2, 24]
00000000: 7f2e 1dbe 41e7 f03d 7054 bc3d f8db d73d
00000010: 980b 8f3d 4d05 db3d ed45 af3d 4a0f fbbd
00000020: 34db 4e3d f35b 4abe b13a 413e 0ffb 2e3c
00000030: e820 9fbd e69a 1f3d d0a3 823d 0269 723c
00000040: eec1 85bc 0720 b9bc cda9 4dbe 5136 553e
00000050: 8657 0b3d f3cf 13be 2a66 483e d9ca 8e3d
00000060: 857f 8ebc b0ea fdbd 977a febd 6015 8c3d
00000070: 3328 39be 13d8 a13c 249e 86bc e6de a7bc
00000080: 7226 503e ba1a b3bd 3e16 d4bd 1d38 cb3d
00000090: 0bc3 9c3d 3e21 97bc 1987 9f3d e325 413d
000000a0: cbe3 45be 51bd 61bd 213b 8eb9 566d 2abe
000000b0: 6d9b 83bd 22d6 da3d a97f a9bd c14d cc3d
-0.15349768 0.11762858 0.09195793 0.105400026 0.06984633 0.106943704 0.08558259 -0.122587755
0.050502017 -0.19761638 0.18870045 0.010679974 -0.07769948 0.038966082 0.06378901 0.014795544
-0.016327824 -0.02259828 -0.20084305 0.20821501 0.034019016 -0.14434795 0.19570222 0.06972284
-0.01739479 -0.12398279 -0.12425726 0.068400145 -0.18081741 0.019756353 -0.01643283 -0.020492028
0.20327166 -0.08745332 -0.10355805 0.09922812 0.07654389 -0.018448468 0.0778944 0.047155272
-0.19325177 -0.055112187 -0.00027128405 -0.16643271 -0.064261295 0.10685374 -0.08276302 0.09975768

head.2.bias f4 [2]
00000000: b570 213e cf34 fcbd
0.1576565 -0.1231476
