models/AC-RM-2 Q_LR=0.001 P_LR=5e-06 BATCH_SIZE=128 GAMMA=0.99 MEMORY_SIZE=150000 BETA=0.05_policy_3755.pt (torch, 319747 bytes, 22 tensors)

base.0.weight f4 [32, 2, 5, 5]
0	0x3db3475e	0.087538466
1	0xbbe1d6a1	-0.006892041
2	0x3df721d8	0.12067002
3	0x3db9def2	0.090757266
4	0xbdc0f071	-0.094208606
5	0xbc2f0b62	-0.010683866
6	0x3daa2a5a	0.08308859
7	0xbe1282fc	-0.14307779
8	0xbe017eb7	-0.12645994
9	0xbd67c92c	-0.056588337
10	0x3ddd22b0	0.10797632
11	0x3d86c178	0.0657987
12	0xbe08a330	-0.13343501
13	0xbd7232ee	-0.0591306
14	0xbd50ee95	-0.05100878
15	0x3ca78bf2	0.020452473
16	0x3bcc5b56	0.006236474
17	0x3dccebad	0.10005889
18	0xbdbfd519	-0.09366817
19	0xbd7a9307	-0.061175372
20	0x3bc72820	0.0060777813
21	0xbc8fae7c	-0.017539255
22	0xbd514321	-0.05108941
23	0xbdc3bda1	-0.09557653
24	0x39ff248b	0.00048664617
25	0xbca83192	-0.02053145
26	0x3dfa0dbf	0.12209653
27	0x3e03b8d3	0.12863474
28	0x3d8a57df	0.06755041
29	0x3dc35eaf	0.09539544
30	0xbcfb8bb5	-0.030706266
31	0x3d9a9d52	0.07549538
32	0xbddcbf57	-0.10778683
33	0xbd874983	-0.06605818
34	0xbdf83458	-0.12119359
35	0x3d9aac19	0.07552356
36	0xbd9674b0	-0.07346475
37	0x3bd646c3	0.006539197
38	0xbdef3673	-0.11680307
39	0x3d82e42a	0.06391175
40	0x3d2b2fb6	0.041793548
41	0x3d82d0d8	0.0638749
42	0x3df807d2	0.121108666
43	0x3d774d5f	0.06037652
44	0x3bbb0fd9	0.0057086763
45	0x3d70c6cf	0.05878335
46	0xbc990024	-0.018676825
47	0x3cb724ef	0.022356478
48	0xbc90969f	-0.017649947
49	0xbdec8ba5	-0.115500726
50	0xbd7c3d7a	-0.061582066
51	0xbd573a4e	-0.052545838
52	0xbde9ff08	-0.114255965
53	0x3dff0e40	0.1245389
54	0xbd7cc207	-0.061708476
55	0xbd9dc0e4	-0.077028066
56	0x3c8fa6ef	0.017535655
57	0x3c1ee25d	0.009697524
58	0xbc6a0240	-0.014282763
59	0x3db0745a	0.08615942
60	0x3ca4b064	0.02010364
61	0x3da2d0f7	0.07950013
62	0xbe0256cd	-0.12728424
63	0xbd316210	-0.04330641
64	0xbdfc4060	-0.12316966
65	0x3c6ea619	0.014565968
66	0xbdaf98fa	-0.085741
67	0x3cbd7c16	0.023130458
68	0x3d85b7cc	0.06529197
69	0x3dea8aa8	0.11452228
70	0xbbf3c5c9	-0.0074393493
71	0xbda7e8ea	-0.08198722
72	0xbe1692bc	-0.14704412
73	0x3d915d58	0.07097882
74	0xbe018989	-0.12650122
75	0xbd03ecba	-0.032208182
76	0xbcbf9f58	-0.02339141
77	0xbc27bea3	-0.010238322
78	0xbdaf9294	-0.085728794
79	0xbe18d5fc	-0.14925379
80	0x3d935791	0.07194436
81	0x3e0fab09	0.14030088
82	0x3d928d92	0.07155909
83	0x3dd133dc	0.102149695
84	0x3dacbc8a	0.084343985
85	0x3d842a78	0.06453413
86	0xbca1e56d	-0.019762719
87	0x3b37472b	0.0027966003
88	0x3ca39149	0.019966738
89	0x3d84cdee	0.064845905
90	0x3c25d9ef	0.01012276
91	0x3b90625a	0.0044062557
92	0xbcd5c76a	-0.026096065
93	0xbd4508d2	-0.048104115
94	0xbd4bf79e	-0.049796693
95	0xbdfba933	-0.122881316
96	0x3dd0337d	0.101660706
97	0x3df657c0	0.12028456
98	0x3d66e6d1	0.056372467
99	0x3db27f11	0.08715642
100	0xbd54d46d	-0.051960398
101	0x3cfdf782	0.03100181
102	0xbd846d29	-0.06466133
103	0xbb8b8c93	-0.004258701
104	0x3d474c49	0.048656736
105	0x3d044cb7	0.032299723
106	0x3d6ee014	0.058319166
107	0xbcce5397	-0.025186343
108	0xbc781c9a	-0.015143538
109	0xbcff0a9c	-0.031132989
110	0x3d9a8699	0.07545204
111	0x3a05d067	0.0005104602
112	0x3d247375	0.04014917
113	0xbdfe00be	-0.12402485
114	0x3de8c243	0.113651775
115	0x3e04702e	0.12933418
116	0x3d90450d	0.070444204
117	0x3dd0ef91	0.10201944
118	0x3dd40b75	0.10353748
119	0x3de16fe6	0.11007671
120	0xbda2f331	-0.07956541
121	0x3d5588b3	0.05213232
122	0x3d035abc	0.032068953
123	0x3d8874fc	0.06662938
124	0x3ded6dfd	0.11593244
125	0xbd0c014f	-0.034180935
126	0x3d76372a	0.060111202
127	0x3db929c7	0.090411715
128	0xbd0e53a6	-0.034747742
129	0xbc420f4d	-0.011844468
130	0xbd4cc218	-0.04998979
131	0xbd2ece57	-0.04267725
132	0xbd9c6220	-0.07635903
133	0xbdcc7bc8	-0.09984547
134	0xbdf7a54f	-0.12092077
135	0xba0022a8	-0.00048879767
136	0x3d8db7d3	0.06919827
137	0x3d638fb3	0.055556964
138	0xbd1bc4b9	-0.038029406
139	0x3c77c813	0.015123385
140	0xbd289299	-0.04115543
141	0xbcf4550d	-0.029825712
142	0xbd2a18de	-0.04152762
143	0xbd2abda9	-0.04168478
144	0x3d533688	0.051565677
145	0x3d7a6159	0.061127994
146	0xbd67f333	-0.056628417
147	0x3de09f18	0.10967845
148	0x3d853a96	0.06505315
149	0x3de4519d	0.11148379
150	0x3ccf66cc	0.025317572
151	0x3dcb94bf	0.099404804
152	0x3ceb8fa3	0.028755015
153	0x3dbf4382	0.09339048
154	0xbd844f57	-0.064604454
155	0x3dfcd24f	0.12344801
156	0x3ca50957	0.020146055
157	0x3e00d22d	0.12580176
158	0xbd05ba84	-0.03264858
159	0xbdc38b61	-0.09548069
160	0xbde57aa4	-0.112050325
161	0xbd0e8146	-0.034791254
162	0xbd23dadf	-0.040003654
163	0x3da8e469	0.08246691
164	0x3ddcafbd	0.10775707
165	0x3cfbe74e	0.030749943
166	0xbda82a77	-0.082112245
167	0x3dcded55	0.10055033
168	0xbdebe0a6	-0.11517458
169	0xbdf18ae3	-0.11794069
170	0xbdb1f0ad	-0.086884834
171	0x3dcd52c5	0.10025553
172	0xbd4f6fb9	-0.050643656
173	0x3da37c5f	0.07982706
174	0x3dafafd7	0.08578461
175	0xbd02a0cc	-0.03189163
176	0x3dffec7f	0.1249628
177	0xbd21771b	-0.03942023
178	0xbc77beda	-0.015121186
179	0x3d0a6715	0.033789713
180	0xbd9ed118	-0.07754725
181	0x3dec5d5c	0.115412444
182	0xbcd658af	-0.026165335
183	0x3d3e2584	0.046422496
184	0x3cd167c4	0.025562175
185	0xbdb9e272	-0.09076394
186	0x3d855796	0.06510846
187	0xbd01fc14	-0.03173454
188	0xbe02c5b6	-0.12770733
189	0xbd99ec97	-0.07515829
190	0x3ddb44b7	0.10706466
191	0xbcfcdb35	-0.030866245
192	0xbd33cfc6	-0.04389932
193	0xbdd2e8d0	-0.10298312
194	0xbdcbca30	-0.099506736
195	0xbe0672a3	-0.13129668
196	0x3e04f6cc	0.1298477
197	0xbda641e1	-0.08118034
198	0xbd0c86fb	-0.034308415
199	0xbdb1bbcc	-0.086783975
200	0xbd0a5ea6	-0.03378167
201	0x3e04c2de	0.12964961
202	0xbde22fb2	-0.110442534
203	0x3dc1a525	0.09455327
204	0x3df2145c	0.118202895
205	0x3cab8275	0.02093623
206	0xbd12c19b	-0.035829168
207	0xbe094d1f	-0.13408326
208	0x3d227de5	0.039670844
209	0x3d83f3bc	0.06442973
210	0xbd914d16	-0.07094781
211	0xbc843fef	-0.016143767
212	0x3da10b7d	0.07863519
213	0xbc801b08	-0.01563789
214	0xbd94e490	-0.07270157
215	0xbdb4bab1	-0.08824671
216	0x3d34eb01	0.04416943
217	0x3d5ed106	0.05439856
218	0xbe0941da	-0.13404027
219	0xbcd258df	-0.025677143
220	0x3d9ec5d6	0.07752578
221	0xbd81ded6	-0.06341331
222	0x3d37f62e	0.04491251
223	0x3dc07d76	0.0939893
224	0xbdd468ef	-0.10371577
225	0xbdddf502	-0.10837747
226	0xbe0f4253	-0.13990144
227	0x3d1a78de	0.037712924
228	0xbcf48b3d	-0.02985155
229	0xbd12e14b	-0.035859387
230	0x3df7eb9d	0.121054865
231	0xbde610b0	-0.11233652
232	0x3e09c48d	0.13453884
233	0xbdf57381	-0.11984921
234	0xbe11d226	-0.14240322
235	0xbd8ec9c1	-0.06972075
236	0x3d9b626c	0.07587132
237	0x3db443b8	0.08801979
238	0xbd57c58b	-0.052678626
239	0x3df07529	0.117410965
240	0xbe10df8b	-0.14147775
241	0xbc04abc0	-0.008097589
242	0x3d542398	0.051791757
243	0x3d9ea1a2	0.07745673
244	0xbdb75294	-0.089512974
245	0xbbb1bb9e	-0.005423977
246	0xbda53b27	-0.08067923
247	0x3de2a134	0.11065903
248	0xbd896f69	-0.06710703
249	0xbdb237e6	-0.08702068
250	0xbe0368c2	-0.1283293
251	0x3e0c1d4e	0.13683054
252	0x3cb73a48	0.022366658
253	0xbd9c6075	-0.07635585
254	0x3d6a941e	0.05727016
255	0xbc1765cf	-0.009240582

base.0.bias f4 [32]
0	0xb8822e72	-6.207534e-05
1	0xb9cb1559	-0.00038735082
2	0xb8f24340	-0.000115519855
3	0x37544126	1.2651353e-05
4	0xb99bb0e6	-0.00029695703
5	0x375e3c6c	1.3246299e-05
6	0xb916d4a6	-0.00014384332
7	0xb9840d6d	-0.00025187005
8	0xb976109f	-0.0002346658
9	0xb9532104	-0.00020134827
10	0x390fa880	0.00013700314
11	0x388b07fc	6.629524e-05
12	0xb8093a6e	-3.2717762e-05
13	0x3904bfa9	0.000126599
14	0x39142dde	0.00014131467
15	0x39afd50e	0.0003353734
16	0x39388fc7	0.00017601169
17	0xb99155ca	-0.00027720473
18	0x38225f74	3.8712707e-05
19	0x394e1375	0.00019652939
20	0xb8bd94cb	-9.039937e-05
21	0xb8c808fc	-9.5384166e-05
22	0x37a83671	2.0052512e-05
23	0xb74be5fa	-1.21532885e-05
24	0xb85592eb	-5.0919985e-05
25	0x399508c4	0.00028426026
26	0x39273fdb	0.00015950149
27	0x39411a80	0.00018415786
28	0xb9a14330	-0.00030758372
29	0xb9bb676c	-0.00035744475
30	0xba10802c	-0.0005512263
31	0x39c88359	0.00038244834

base.1.weight f4 [32]
0	0x3f7c8518	0.98640585
1	0x3f813f1f	1.0097388
2	0x3f7ea4b5	0.99470073
3	0x3f7fc0af	0.99903387
4	0x3f7cfa66	0.9881958
5	0x3f7d2791	0.988885
6	0x3f805a22	1.0027506
7	0x3f80d9a5	1.006642
8	0x3f7d6c88	0.9899373
9	0x3f81aa96	1.0130184
10	0x3f7f2e59	0.99680096
11	0x3f8008ec	1.0002723
12	0x3f7a3dc6	0.9775051
13	0x3f7d2939	0.98891026
14	0x3f81e526	1.0148056
15	0x3f7e3ced	0.99311715
16	0x3f80c671	1.006056
17	0x3f83bb75	1.0291582
18	0x3f7ebab9	0.99503666
19	0x3f7fdcab	0.9994609
20	0x3f7f0a7a	0.9962536
21	0x3f7d829c	0.9902742
22	0x3f80b7bc	1.0056071
23	0x3f7bb85c	0.98328185
24	0x3f7e47d4	0.9932835
25	0x3f7ce2ea	0.98783743
26	0x3f7f22ae	0.9966229
27	0x3f7b73f1	0.9822379
28	0x3f80c4b1	1.0060025
29	0x3f7e0a87	0.99234813
30	0x3f827c2a	1.0194142
31	0x3f8139f2	1.0095809

base.1.bias f4 [32]
0	0xbc1e2a5d	-0.009653655
1	0x3bd55c9d	0.0065112845
2	0x3baf0349	0.005340968
3	0x3b5c0222	0.0033570607
4	0x38c1aa0c	9.234631e-05
5	0x3a481ab5	0.0007633374
6	0x3b336f15	0.0027379442
7	0xbbcf5695	-0.00632746
8	0xbbb0bf6d	-0.0053939135
9	0x3c816d13	0.015799081
10	0x3be48746	0.0069741337
11	0x3b75bd2f	0.0037496795
12	0xbc7ab5ed	-0.015302164
13	0xbb8b8b45	-0.0042585456
14	0x3b8ebf9c	0.0043563377
15	0x3bba82da	0.0056918683
16	0x3bdba9c6	0.006703588
17	0x39878d72	0.00025854592
18	0xbc3505cf	-0.011048748
19	0x3bd104f2	0.0063787634
20	0xbb9a0cd7	-0.0047012377
21	0x3b1a5785	0.00235507
22	0xbb24f0a5	-0.002516785
23	0xbc1f38ab	-0.009718101
24	0xbba7edd2	-0.005124786
25	0xbc04af02	-0.008098366
26	0x3b865f56	0.0041007204
27	0xbc902081	-0.017593624
28	0x3c1999a0	0.009375006
29	0xbb9280e4	-0.0044709314
30	0x3bbebcbf	0.00582084
31	0x3bab23d9	0.0052227792

base.1.running_mean f4 [32]
0	0x3c460a2d	0.012087387
1	0xbd85a263	-0.065251134
2	0x3f3bf6ea	0.73423636
3	0xbe4b2804	-0.19839483
4	0xbf014caa	-0.50507605
5	0xbf29a272	-0.66263497
6	0xbe4dd714	-0.20101577
7	0x3e3691ef	0.17829107
8	0x3f985d35	1.1903445
9	0x3dc6654b	0.09687289
10	0x3e98f92e	0.2987761
11	0xbdccee9b	-0.10006448
12	0xbf80e0ff	-1.0068663
13	0xbde388b9	-0.11110062
14	0xbce8113a	-0.028328527
15	0x3e894419	0.26809767
16	0x3e120629	0.14260162
17	0x3e5ef942	0.21774772
18	0xbe9c9b82	-0.30587393
19	0x3eb40bf2	0.35165364
20	0x3e0b2914	0.13589889
21	0x3f506c1d	0.8141497
22	0xbdb46907	-0.08809095
23	0xbe69c7db	-0.22830145
24	0xbeecb0cf	-0.46228644
25	0xbdb5ad0c	-0.08870897
26	0x3e85d0f2	0.26135975
27	0xbedd4a47	-0.43220732
28	0x3ddabc63	0.10680463
29	0x3f2f499e	0.68471706
30	0xbdd8ce0c	-0.10586175
31	0x3df0585a	0.11735602

base.1.running_var f4 [32]
0	0x3b86b7f3	0.004111284
1	0x39c5679d	0.00037651966
2	0x3c1b4173	0.0094760535
3	0x3b2e3b54	0.0026585655
4	0x3b4f88b0	0.0031667165
5	0x3ba3da10	0.0050003603
6	0x3afd6fba	0.0019335665
7	0x3a1a5b83	0.000588827
8	0x3c6358fe	0.013876198
9	0x399b4cf3	0.00029621235
10	0x3b36ac90	0.0027873851
11	0x3ae72a16	0.0017636444
12	0x3c42c6dd	0.011888233
13	0x3a851aec	0.0010155118
14	0x3906105e	0.00012785333
15	0x3b21a468	0.0024664644
16	0x3a2269fd	0.0006195603
17	0x3aa80a1b	0.0012820394
18	0x3b1a26a0	0.0023521557
19	0x3ac28fad	0.0014843844
20	0x3a2b44ff	0.00065334135
21	0x3c172c00	0.009226799
22	0x3a167e83	0.00057408976
23	0x3adee0be	0.0017004234
24	0x3b3a21ad	0.002840142
25	0x3a56acfe	0.000818923
26	0x3ae2392f	0.0017259474
27	0x3b6e8591	0.003639553
28	0x3a57db9f	0.0008234325
29	0x3ba35b1a	0.0049852254
30	0x3aafd579	0.001341506
31	0x3b001a05	0.001954676

base.3.weight f4 [32, 32, 5, 5]
0	0xbbc91d75	-0.0061375448
1	0x3c89dd7f	0.01682925
2	0xbd3b343c	-0.04570411
3	0xbb1f4bd0	-0.0024306662
4	0x3caa5799	0.020793723
5	0x3bb0b39f	0.0053925063
6	0xbcae7d5a	-0.021300007
7	0x3781f475	1.5491833e-05
8	0xbc64be4f	-0.013961389
9	0x3cadce93	0.021216666
10	0x3c8cc2fc	0.01718282
11	0x3c59ec85	0.01330102
12	0xbd0528b9	-0.03250954
13	0x3c87250e	0.016497161
14	0xbc9f5810	-0.019451171
15	0xbb914347	-0.004433069
16	0x3cf699ae	0.030102577
17	0x3c672219	0.014107251
18	0xbc73da51	-0.014883594
19	0xbcd4f60d	-0.025996232
20	0xbbd818b6	-0.0065947426
21	0x3cd3cc03	0.025854116
22	0xbb7c6e7d	-0.0038518005
23	0x3be5ad1f	0.007009163
24	0x3cecda72	0.028912757
25	0xbc678eab	-0.014133136
26	0xbcf769ef	-0.03020188
27	0x3cd5d099	0.026100444
28	0xbd18b333	-0.037280273
29	0x3c5d33c8	0.013501115
30	0x3c3799cc	0.011206102
31	0xbd0779f0	-0.033075273
32	0x3c6ff1ef	0.014645084
33	0x3cf83f1c	0.03030353
34	0x3cafd2a7	0.021462752
35	0xbce17880	-0.02752328
36	0x3cc5eda2	0.024161164
37	0x3b2f2e68	0.002673054
38	0xb914392d	-0.0001413568
39	0xbc6f63d3	-0.014611202
40	0xbcfdf8e1	-0.031002464
41	0xbca8b4d6	-0.020594042
42	0x3b9092e1	0.0044120406
43	0x3cc7dab4	0.024396278
44	0xbcd58b4d	-0.0260674
45	0xbc9c756d	-0.019098962
46	0x3cc9c122	0.024628226
47	0xbcd0f4e9	-0.025507407
48	0x3cc03b16	0.023465674
49	0xbce089a0	-0.027409375
50	0x3cf05f55	0.029342333
51	0xbc791721	-0.015203268
52	0xbbf4f415	-0.007475386
53	0xbc6ffd08	-0.01464773
54	0xbce2b8f8	-0.02767609
55	0xbcdea966	-0.027180385
56	0x3b5c0452	0.003357191
57	0x3cc8c26c	0.02450677
58	0xbc310fef	-0.0108070215
59	0x3be84371	0.0070881178
60	0xbc92a74a	-0.017902035
61	0x3bf99526	0.007616657
62	0x3d058e62	0.03260649
63	0x3d01bcfc	0.03167437
64	0x3c974fdf	0.018470703
65	0xbbd6a381	-0.006550253
66	0xbb9d03e6	-0.0047917245
67	0xbc1c4a02	-0.009539129
68	0xbcbe8f5a	-0.023261715
69	0xbd18a70f	-0.037268694
70	0x3b7b2d95	0.003832673
71	0x3beef1d7	0.007292013
72	0xbb81574a	-0.0039471732
73	0xbbcceb13	-0.006253609
74	0x3c63e370	0.013909206
75	0xbca11bec	-0.019666635
76	0xbc905948	-0.017620698
77	0x3cc586b6	0.024112087
78	0xbc1160dc	-0.008873191
79	0x3cce93ef	0.025217025
80	0x3a0f372d	0.0005463239
81	0xbd0ec645	-0.034857053
82	0xbcfb3d11	-0.030668767
83	0xbc48f2ac	-0.012264889
84	0xbd012c37	-0.031536307
85	0xbba9b62c	-0.0051791873
86	0xbca47f1a	-0.020080138
87	0x3c81b914	0.015835322
88	0xbd09571b	-0.033530336
89	0xbcb90458	-0.02258508
90	0xbb979690	-0.0046261027
91	0xbcee5147	-0.02909149
92	0xbceb9d6e	-0.028761592
93	0x3cfd68f1	0.030933829
94	0x3c6a6d15	0.014308234
95	0xbcec0fc1	-0.028816106
96	0x3a8f6613	0.0010940455
97	0xbc84e71f	-0.016223488
98	0x3c248e42	0.0100436825
99	0x3cbb4359	0.022859262
100	0x3cf349ae	0.02969822
101	0xbba8c11d	-0.005149974
102	0x3b98a801	0.0046586995
103	0x3cef5351	0.029214533
104	0xbc777ba0	-0.015105158
105	0x3bb3b8fa	0.0054846974
106	0x3cdfd6fb	0.02732419
107	0x3c61e349	0.013787099
108	0x3d12ac0f	0.03580862
109	0xbc1d0fa7	-0.009586251
110	0x3b0f65c0	0.0021880716
111	0xbabf1c1e	-0.0014580523
112	0xbba93b10	-0.0051645115
113	0xbb0841cf	-0.0020791178
114	0x3cbbfb9d	0.022947127
115	0xbd07639c	-0.03305398
116	0xbcdfdeb3	-0.027327871
117	0x3bfac5c2	0.007652969
118	0x3c9a0826	0.018802714
119	0xbcca69c3	-0.024708634
120	0x3cf5b004	0.029991157
121	0x3cf7d85b	0.030254534
122	0x3bc3e90c	0.005978709
123	0x3b56d11e	0.0032778452
124	0x3c3952d7	0.011311254
125	0xbc290c98	-0.010317944
126	0xbbac0f2b	-0.0052508316
127	0xbcdb6faa	-0.026786644
128	0xbbecf1fd	-0.0072309957
129	0xbc895c77	-0.016767723
130	0x3a4abf68	0.000773421
131	0x3b089498	0.0020840522
132	0x3cf771f4	0.030205704
133	0xbcb9c437	-0.02267657
134	0x3c5a5269	0.013325312
135	0x3c85f62a	0.016352732
136	0x3b3f56ed	0.00291961
137	0x3c542e70	0.012950525
138	0xbccbc8cb	-0.024876019
139	0xbcf2a5cc	-0.029620074
140	0x3c8bc856	0.017063301
141	0x3c2b365a	0.01044997
142	0xbc2ce597	-0.010552785
143	0x3c54fc86	0.012999659
144	0x3ba7eec8	0.0051249005
145	0x3c667256	0.014065346
146	0x3b6c2576	0.003603307
147	0xbd00b811	-0.03142554
148	0xbb5d315f	-0.0033751351
149	0xbc8dc60c	-0.01730635
150	0x3cc00120	0.023438036
151	0xbcbef30d	-0.023309255
152	0xbd03d9ea	-0.03219024
153	0x3b655ea7	0.0034999044
154	0x3b9b4f9b	0.0047397143
155	0xbd19c836	-0.03754445
156	0x3d0260c8	0.03183058
157	0x3cacf4ae	0.021112766
158	0x3b84db07	0.0040544304
159	0xbcdd65eb	-0.027026137
160	0x3c98a6b3	0.018634176
161	0xbc984b53	-0.018590605
162	0xbd021c3e	-0.031765215
163	0x3bc6cb2d	0.006066701
164	0x3b90afce	0.004415489
165	0xbb56566f	-0.0032705327
166	0xbab99118	-0.0014157621
167	0xbc319251	-0.010838107
168	0x36fdd6fb	7.5650146e-06
169	0xbd01e0dd	-0.031708587
170	0xbc6c91fe	-0.014439104
171	0xbb03fee7	-0.0020140947
172	0x3c340b2f	0.0109889945
173	0x3caf3e26	0.02139194
174	0xbc04f990	-0.008116141
175	0x3cddf511	0.027094396
176	0x3c8a5c6f	0.016889779
177	0xbbd8c5df	-0.006615385
178	0x3d0b2dbf	0.033979174
179	0x3c4b5728	0.012410916
180	0xbcd826f3	-0.02638576
181	0xbbb552f3	-0.00553357
182	0xbb676d00	-0.0035312772
183	0x3cc44164	0.023956962
184	0x3b0d5f84	0.0021571824
185	0x3ca62131	0.020279499
186	0x3c7b1545	0.015324895
187	0xbc175800	-0.009237289
188	0x3c3bec07	0.0114698475
189	0x3c6c1d4d	0.014411283
190	0xbc12f3bb	-0.008969243
191	0x3c525a0e	0.0128388535
192	0xbbf031b0	-0.007330142
193	0x3ba5bc00	0.0050578117
194	0x3c89bac9	0.016812699
195	0x3c546df1	0.012965665
196	0x3bd3fc58	0.0064692907
197	0x3cbb28d5	0.022846619
198	0xbd09535f	-0.033526774
199	0xbc594567	-0.013261176
200	0x3d1e7288	0.038683444
201	0x3cd32fee	0.02577969
202	0x3cc20388	0.023683324
203	0x3ccf071a	0.025271941
204	0x3b44b353	0.0030014112
205	0xbc083a62	-0.008314701
206	0x3b8f154f	0.004366554
207	0x3cf7c3fd	0.030244822
208	0xbbb30f34	-0.005464459
209	0x3c8d8acb	0.017278096
210	0xbcdb4e75	-0.02677081
211	0xbcf4ad73	-0.029867863
212	0xbcdb5c23	-0.026777333
213	0xbc712f2b	-0.014720718
214	0xbc3498fd	-0.011022803
215	0x3ca0cf43	0.01963008
216	0xbc2d5b7d	-0.010580895
217	0x3c99dbf0	0.018781632
218	0x3bafe197	0.0053674686
219	0x3c988cf6	0.018621903
220	0x3c731909	0.014837512
221	0x3ceed494	0.0291541
222	0x3c00a31b	0.007851387
223	0x3c3d598a	0.011556992
224	0xbd02ab7a	-0.031901814
225	0xbc57dd87	-0.013175375
226	0x3c19fb0c	0.009398233
227	0xbc7d17dd	-0.015447584
228	0xbcb2e2c4	-0.021836646
229	0x3c358d8e	0.011081113
230	0x3d0408a3	0.0322348
231	0x3ce64524	0.02810914
232	0xbc8ea215	-0.017411271
233	0x3c63f5c4	0.013913576
234	0x3c874970	0.01651451
235	0xbc9d41c3	-0.019196397
236	0xbc481158	-0.012211166
237	0x3c0ed70c	0.008718263
238	0x3d144f1f	0.03620827
239	0x3bf0dd84	0.0073506255
240	0x3bc456a2	0.0059917727
241	0x3cf614a4	0.03003914
242	0x3a89372c	0.0010468713
243	0x3aaa94d4	0.0013014325
244	0x3d0e9824	0.03481306
245	0x3d1800f9	0.037110303
246	0xbb81db24	-0.003962891
247	0x3d15ae01	0.036542896
248	0x3d3b88e4	0.045784846
249	0xbc049346	-0.008091753
250	0xbcf1d65d	-0.029521162
251	0xbc928763	-0.017886823
252	0x3d034653	0.03204949
253	0x3c9e51ef	0.019326178
254	0xbc83497c	-0.016026251
255	0xbc27b42d	-0.010235828

base.3.bias f4 [32]
0	0x383ee8d0	4.5516354e-05
1	0xb6a74149	-4.984588e-06
2	0x36023c23	1.9406514e-06
3	0x3838d6c3	4.406903e-05
4	0xb7f173a3	-2.8783286e-05
5	0x389c1183	7.4419215e-05
6	0xb881f6c6	-6.1971645e-05
7	0xb6c8b1c7	-5.9811605e-06
8	0x372c9008	1.0285534e-05
9	0xb800c626	-3.070212e-05
10	0xb8926801	-6.981195e-05
11	0x37d3a039	2.522777e-05
12	0x37d0d6cf	2.489556e-05
13	0xb8f0b134	-0.000114770985
14	0xb8483d2c	-4.7740687e-05
15	0xb66323e0	-3.3846518e-06
16	0xb74fc40b	-1.2383806e-05
17	0x3792ac70	1.7484854e-05
18	0xb7bec29b	-2.2740385e-05
19	0xb72f261f	-1.0439689e-05
20	0xb8bf5fbe	-9.125423e-05
21	0x363bc0d3	2.797741e-06
22	0xb811966a	-3.4710778e-05
23	0xb8889810	-6.513309e-05
24	0xb6c6d303	-5.925425e-06
25	0xb78209f6	-1.5501846e-05
26	0xb7f13f3d	-2.8758886e-05
27	0x384a576f	4.8241982e-05
28	0xb69193d4	-4.338546e-06
29	0x36f46078	7.282997e-06
30	0xb83f9e4a	-4.5685367e-05
31	0x37c84617	2.3874496e-05

base.4.weight f4 [32]
0	0x3f7da7f2	0.9908439
1	0x3f80e8f1	1.0071088
2	0x3f7ea0bf	0.9946403
3	0x3f8047aa	1.002187
4	0x3f7f71ce	0.9978303
5	0x3f80ed9f	1.0072516
6	0x3f8087b8	1.0041418
7	0x3f7f5fb2	0.99755394
8	0x3f7dc13b	0.9912297
9	0x3f80612b	1.0029653
10	0x3f80a987	1.0051736
11	0x3f805fd3	1.0029243
12	0x3f809cfb	1.0047907
13	0x3f7eb1c3	0.9948999
14	0x3f7ebf3f	0.9951057
15	0x3f7f81e3	0.99807566
16	0x3f7dc8ae	0.9913434
17	0x3f7f1159	0.99635845
18	0x3f8057c1	1.002678
19	0x3f7dc40a	0.99127257
20	0x3f7d7240	0.99002457
21	0x3f806c65	1.0033079
22	0x3f803037	1.0014714
23	0x3f805c1b	1.0028108
24	0x3f7c2fae	0.98510253
25	0x3f804084	1.0019689
26	0x3f800091	1.0000173
27	0x3f80d072	1.0063612
28	0x3f8018fd	1.0007626
29	0x3f7fb6bf	0.99888223
30	0x3f7d399d	0.98916036
31	0x3f7f2e05	0.99679595

base.4.bias f4 [32]
0	0xbb953acd	-0.0045541287
1	0xbb207414	-0.002448325
2	0xbb6cb829	-0.003612051
3	0xbb57ec26	-0.0032947152
4	0xbc055fd6	-0.008140525
5	0x3c12d02d	0.008960766
6	0x3aa277d9	0.0012395337
7	0x3a3ed984	0.0007280337
8	0x3bb72daa	0.0055901604
9	0xbc4e4a06	-0.012590891
10	0x3b4c7a80	0.0031200945
11	0xbc06e27d	-0.00823271
12	0x3bd346e5	0.0064476603
13	0xbb815d7f	-0.003947913
14	0xbae0c0e6	-0.0017147332
15	0xbc070c45	-0.008242671
16	0xbc0ccdce	-0.00859399
17	0xba911170	-0.0011067819
18	0x3b590d69	0.0033119565
19	0xba5c8e92	-0.00084135786
20	0xbb8e7767	-0.00434773
21	0xbb68c9b6	-0.003552062
22	0xbbe5adf4	-0.007009262
23	0xbb22e28a	-0.0024854266
24	0xbbbeec17	-0.005826484
25	0xbbb2e86e	-0.0054598367
26	0x3bfe82bd	0.00776705
27	0xbb738954	-0.0037160711
28	0xba850477	-0.0010148425
29	0xba0c381f	-0.0005348939
30	0xbad7343e	-0.0016418768
31	0x3a500bf7	0.0007936353

base.4.running_mean f4 [32]
0	0x3bfb9554	0.0076777134
1	0x3e255be2	0.16148332
2	0x3ddb76f6	0.107160494
3	0xbd983da4	-0.07433632
4	0xbc4da741	-0.0125520835
5	0xbb37386c	-0.0027957214
6	0xbba8c7a8	-0.005150754
7	0x3cfb6abe	0.030690547
8	0x3d8a10b9	0.06741471
9	0x3c96b22c	0.018395506
10	0x3e0931b3	0.13397865
11	0xbca870b6	-0.020561557
12	0xbd9e4efd	-0.077299096
13	0x3d15ef61	0.036605243
14	0xbe021f40	-0.12707233
15	0x3e2f48b6	0.17117581
16	0x3e35906c	0.17730874
17	0x3e1ad669	0.15120853
18	0x3c64d50b	0.013966809
19	0xbd95471c	-0.07288954
20	0xbe0b53c2	-0.1360617
21	0xbcc72b61	-0.024312677
22	0x3d4e1fd8	0.050323337
23	0x3dbdbea6	0.09264879
24	0x3dd6f962	0.10496785
25	0x3d1fdafd	0.039027203
26	0xbdd79fce	-0.10528527
27	0xbde64b43	-0.11244824
28	0xbd7fb45a	-0.062427856
29	0x3df12f63	0.117766164
30	0xbe02ee09	-0.12786116
31	0x3d8e7794	0.069564015

base.4.running_var f4 [32]
0	0x3db2a27a	0.08722396
1	0x3d1ab4a9	0.037769947
2	0x3d3e7fe1	0.046508674
3	0x3d9afe2b	0.0756801
4	0x3d87e4cf	0.06635439
5	0x3dd0e6db	0.10200282
6	0x3d3ae135	0.04562493
7	0x3d6e1f8a	0.058135547
8	0x3dec8ac2	0.115499035
9	0x3d0cc5dd	0.034368385
10	0x3d393626	0.045217656
11	0x3d9cecbb	0.0766234
12	0x3d50872f	0.05091017
13	0x3d2db569	0.042409334
14	0x3db37c0a	0.08763893
15	0x3ddb0778	0.10694784
16	0x3dec6b6e	0.11543928
17	0x3d567442	0.052356966
18	0x3d942641	0.07233859
19	0x3e0f51eb	0.13996093
20	0x3e0d668b	0.13808648
21	0x3d8a3ae6	0.06749515
22	0x3d5a11ae	0.053239517
23	0x3db658af	0.08903634
24	0x3d73d289	0.059526954
25	0x3db1043a	0.08643384
26	0x3db0fc76	0.08641903
27	0x3d20f34f	0.039294537
28	0x3d82eb16	0.06392495
29	0x3d8ed710	0.06974614
30	0x3e01e536	0.12685093
31	0x3dcf4f3a	0.10122533

base.6.weight f4 [32, 32, 5, 5]
0	0x3cdc4478	0.026888117
1	0x3c999e18	0.018752143
2	0xbb1a1c11	-0.0023515264
3	0xbc03fe5b	-0.008056249
4	0xbcc60480	-0.024172068
5	0xbc276e8c	-0.0102192275
6	0x3ce70d70	0.02820465
7	0x3d0c57d6	0.034263454
8	0x3cb70d1e	0.022345122
9	0x3cb23222	0.02175242
10	0xbc682af6	-0.014170399
11	0x3be29f54	0.006915966
12	0xbcaffb6c	-0.021482192
13	0x3986291c	0.000255891
14	0xbc411f6f	-0.0117872795
15	0xbcaa0aa7	-0.020757033
16	0x3d057803	0.032585155
17	0x3b1f4655	0.0024303396
18	0x3cc3cfb3	0.02390275
19	0xbb8bb6aa	-0.0042637186
20	0x3c9fedc9	0.019522564
21	0x3bc28a82	0.0059369216
22	0xbc98a1b8	-0.018631801
23	0xbd013df4	-0.031553224
24	0xbd1c9f6b	-0.03823797
25	0xbcc2fa3b	-0.02380096
26	0xbad2612f	-0.0016050691
27	0x3c6b0d7a	0.014346475
28	0x3c73bdb0	0.014876768
29	0xbc92b191	-0.017906936
30	0x3c3a34c2	0.0113651175
31	0x3b870332	0.004120254
32	0xbc54d0e8	-0.01298926
33	0xbc100af5	-0.008791675
34	0x3c8075c5	0.015681157
35	0x3ca7abf3	0.020467734
36	0x3b785e54	0.003789802
37	0xbd254f3b	-0.040358763
38	0xbc54e98a	-0.012995133
39	0xbba803bf	-0.0051273997
40	0xbc869815	-0.01642994
41	0x3cdd0ec0	0.026984572
42	0xbd09abe8	-0.03361121
43	0xbcbfef53	-0.023429548
44	0x3ccff665	0.025386045
45	0x3c681432	0.014164971
46	0x3cc6aa26	0.024251055
47	0xbc907aed	-0.01763674
48	0x3c75b3aa	0.0149964485
49	0x3c51d2a1	0.0128065655
50	0xbc1f65e8	-0.009728886
51	0x3ce22180	0.027603865
52	0x3c597eda	0.013274873
53	0xbb35f0d0	-0.0027761944
54	0x3ce80b39	0.028325664
55	0xbc996273	-0.018723702
56	0xbd17ef70	-0.03709358
57	0x3ca96b17	0.020680947
58	0xbcba664f	-0.022753863
59	0x3c3ee231	0.011650608
60	0xbca82377	-0.020524723
61	0xbc43dc3b	-0.0119543625
62	0xbba151cd	-0.0049230815
63	0xbc558bf2	-0.013033854
64	0x3cc839e0	0.02444166
65	0x3c21026b	0.009827237
66	0x3ae7db79	0.0017689309
67	0x3c29a8e5	0.010355209
68	0xbc68672a	-0.0141847525
69	0xbb8910d7	-0.0041829157
70	0xb9ee92a5	-0.00045504156
71	0xbc5e48f5	-0.013567199
72	0xbc2943b9	-0.010331088
73	0xbca6942b	-0.020334324
74	0x3c53babd	0.01292294
75	0xbc9faa59	-0.019490408
76	0xbcfdd353	-0.030984556
77	0xbc4b109c	-0.012394097
78	0x3c0fbe43	0.008773389
79	0xbd0bfb01	-0.034174923
80	0xbcdc3014	-0.026878394
81	0x3c902c01	0.017599108
82	0xbca917fb	-0.020641318
83	0x3d0f3de8	0.034971148
84	0x3b73bd45	0.003719167
85	0x3c824b2d	0.015904987
86	0xbcad6c34	-0.02116976
87	0x3bf8d131	0.007593297
88	0xbc0e43ea	-0.008683184
89	0x3c76f929	0.015074053
90	0xbb0e6e0e	-0.0021733078
91	0x3c28c458	0.010300718
92	0xbd20eca6	-0.039288186
93	0x3aad8348	0.0013237977
94	0x3bf0918b	0.007341569
95	0x3c4ce226	0.01250509
96	0xbb509566	-0.003182733
97	0xbc0efb4e	-0.008726908
98	0xbc84afae	-0.016197052
99	0x3b07c795	0.0020718325
100	0xbc243aef	-0.0100238165
101	0x3cf2eb55	0.02965323
102	0xbd3bb612	-0.045827933
103	0x3cf164a8	0.029466942
104	0xbcd5b65a	-0.026087929
105	0xbb9a23fd	-0.004703997
106	0x3b834933	0.0040065288
107	0x3c4109d5	0.011782129
108	0x3cf65f8c	0.030074857
109	0xbb91bd39	-0.004447606
110	0xbca82f76	-0.020530444
111	0xbcb4a5d1	-0.022051724
112	0x3aa45766	0.0012538254
113	0xbc85dfc5	-0.016342053
114	0xbc935d23	-0.017988747
115	0xbc9622f0	-0.018327206
116	0x3b220b9a	0.0024726153
117	0x3b8f415e	0.004371806
118	0x3c8d7ebb	0.017272344
119	0xb9e6ff23	-0.0004405911
120	0x3b9375d9	0.0045001325
121	0x3c22f0f4	0.009945143
122	0x3b8d060a	0.0043036984
123	0x39f799d4	0.00047226122
124	0x3c1e0808	0.0096454695
125	0xbc58584b	-0.013204644
126	0x3c0e6047	0.0086899465
127	0x3d1cb3be	0.038257353
128	0xbc956e7e	-0.018241163
129	0x3c179579	0.009251946
130	0xbc1531dd	-0.009106127
131	0x3c8c35b6	0.017115455
132	0x3d560ccf	0.05225831
133	0xbbb689b9	-0.005570617
134	0xbce87123	-0.02837426
135	0x3b13e596	0.0022567264
136	0x3c366980	0.011133552
137	0x3d270da6	0.0407845
138	0x3d0f765d	0.03502499
139	0xbb9d116b	-0.004793336
140	0x3c18b883	0.009321335
141	0x3b84befb	0.004051087
142	0xbb1ddf7f	-0.0024089513
143	0x3c9dddbf	0.019270776
144	0x3cd484d0	0.025942236
145	0x3aff8351	0.0019494091
146	0x3cc603d3	0.024171745
147	0xbd02bb4a	-0.031916894
148	0xba9c9cc8	-0.001194858
149	0x3b596d04	0.003317655
150	0x3cdaa58d	0.026690269
151	0xbbbb4d82	-0.0057160268
152	0x3cae098f	0.021244792
153	0x3c3fa675	0.011697401
154	0xbcb1360f	-0.021632222
155	0x3c76e16f	0.015068396
156	0x3a9f1fef	0.0012140254
157	0xbd2dcc5c	-0.04243122
158	0xbc9f1987	-0.019421352
159	0xbd16f0ab	-0.036850613
160	0x3c40bf3a	0.011764342
161	0x39e1e083	0.00043082619
162	0x3b60e7ee	0.0034317928
163	0xbba7962f	-0.005114339
164	0xbbce5a93	-0.0062974184
165	0xbc5913ed	-0.01324938
166	0x3c7a614b	0.0152819855
167	0x3bffd88c	0.007807797
168	0x3c344a17	0.0110039925
169	0x3ce7f336	0.028314214
170	0x3cbcb93c	0.023037545
171	0x3ccce9ad	0.025013769
172	0xbd1bbc93	-0.038021635
173	0x3a387e42	0.0007037857
174	0x3c787218	0.015163921
175	0xbce616ae	-0.028086986
176	0x3c2eb17d	0.010662434
177	0x3bd65ea9	0.006542046
178	0xbcb5606e	-0.022140708
179	0x3d31626f	0.043306764
180	0xbca5db2f	-0.020246116
181	0xbc8f92cc	-0.017526053
182	0x3c0ec59a	0.008714104
183	0xbc632cd4	-0.013865668
184	0xbc4a3525	-0.012341772
185	0xbbc49c6b	-0.006000092
186	0x3c8081b0	0.01568684
187	0x3c9aa879	0.018879162
188	0xbc71ade7	-0.014750934
189	0x3d0e9f53	0.034819912
190	0xbd11ed2c	-0.035626575
191	0xbc9ed5bd	-0.019389028
192	0x3c9a4ee0	0.018836439
193	0x3d1323db	0.035922866
194	0xbcdd330b	-0.027001878
195	0x3c78bd70	0.015181884
196	0x3c08c6ec	0.008348208
197	0xbc0d0a01	-0.008608342
198	0x3ca005e5	0.01953406
199	0x3c96652a	0.018358786
200	0xbc94f766	-0.018184375
201	0xbcae544c	-0.02128043
202	0x3b597735	0.0033182625
203	0xbb7bf103	-0.0038443215
204	0xbca7bd51	-0.020476015
205	0xbc8c08ee	-0.017094102
206	0xbbae7b71	-0.005324774
207	0x3ce5c2a4	0.028046913
208	0x3c989180	0.018624067
209	0x3d19ad45	0.03751876
210	0x3c6f1249	0.014591762
211	0x3d03b3ff	0.03215408
212	0xbc589a5a	-0.013220394
213	0xbc1979c2	-0.009367408
214	0xbb522b84	-0.0032069394
215	0xbc56ca8c	-0.013109814
216	0xbc70175d	-0.014654008
217	0xbc99c8af	-0.018772451
218	0xbb8bd7ed	-0.0042676837
219	0x3d1f72bc	0.03892778
220	0xbc4e299a	-0.012583161
221	0xbc4aa3ec	-0.012368184
222	0x3c9e8817	0.019352002
223	0x3cc1e0e7	0.023666812
224	0x3d1315b4	0.03590937
225	0xbc0955a4	-0.008382235
226	0x3cf88c04	0.030340202
227	0xbce77f7a	-0.028259028
228	0xbcdb41e0	-0.02676481
229	0xbb151b9e	-0.0022752057
230	0xbca65453	-0.02030388
231	0x3b5355a9	0.0032247102
232	0xbc98e429	-0.018663483
233	0x3d09d685	0.033651847
234	0x3cadb0ad	0.02120241
235	0xbc2ad445	-0.010426586
236	0x3d0a0690	0.033697665
237	0x3c9066eb	0.0176272
238	0x3c8a51c9	0.016884701
239	0x3ceed4f7	0.029154284
240	0x3c88e785	0.01671196
241	0xbcb072ca	-0.02153911
242	0xbc08b18f	-0.0083431145
243	0x3cd6bad5	0.026212135
244	0x3d11a55c	0.03555809
245	0x3cad7c70	0.0211775
246	0x3b17b2b4	0.0023147287
247	0xbcbacc54	-0.02280251
248	0x3ced5e20	0.028975546
249	0x3c314e4f	0.010821893
250	0x3c98dacc	0.018659018
251	0x3b57e18f	0.003294084
252	0xbc8c252a	-0.017107565
253	0xbb829f2c	-0.00398626
254	0xbd094b25	-0.03351893
255	0xb9d401f7	-0.00040437255

base.6.bias f4 [32]
0	0x37d19846	2.498565e-05
1	0x379b1295	1.8486093e-05
2	0x38ab2c9e	8.162226e-05
3	0x369c76fd	4.6630144e-06
4	0xb81d72b3	-3.753854e-05
5	0x37fb517d	2.9959478e-05
6	0x36f0f964	7.1815903e-06
7	0x3682ac0e	3.8943317e-06
8	0x379685d1	1.7943707e-05
9	0xb659dcbc	-3.2464004e-06
10	0x3757b611	1.2857389e-05
11	0xb7015ebd	-7.711057e-06
12	0x3795ddf5	1.7865541e-05
13	0xb7b9ff4d	-2.2172602e-05
14	0xb6e54942	-6.83326e-06
15	0xb758707f	-1.2900796e-05
16	0xb7892250	-1.634765e-05
17	0xb6be869a	-5.678111e-06
18	0x38102d27	3.4374327e-05
19	0xb8a3d77d	-7.8125835e-05
20	0xb7a0322e	-1.9096853e-05
21	0xb660894e	-3.3458523e-06
22	0xb7ae673e	-2.0790492e-05
23	0xb833bb43	-4.2851327e-05
24	0xb65e74ef	-3.3148642e-06
25	0xb7089874	-8.141727e-06
26	0x37f8b2df	2.9647197e-05
27	0xb5f81d89	-1.8486036e-06
28	0xb5256d4d	-6.1626343e-07
29	0x384cf051	4.8861202e-05
30	0xb767872c	-1.3800145e-05
31	0xb7f459b6	-2.9128842e-05

base.7.weight f4 [32]
0	0x3f85fe1b	1.0468172
1	0x3f83e9c9	1.030572
2	0x3f8626f5	1.0480639
3	0x3f86a057	1.0517682
4	0x3f8658d3	1.0495857
5	0x3f83a8d1	1.0285894
6	0x3f846f96	1.0346553
7	0x3f852f31	1.0405027
8	0x3f865445	1.0494467
9	0x3f856e59	1.04243
10	0x3f85bc29	1.0448047
11	0x3f83932a	1.0279286
12	0x3f8630f6	1.0483692
13	0x3f87fd13	1.0624107
14	0x3f85d302	1.045502
15	0x3f87b9fa	1.060363
16	0x3f836350	1.0264683
17	0x3f839b72	1.0281813
18	0x3f86ffdd	1.0546833
19	0x3f854ef7	1.0414723
20	0x3f853347	1.0406274
21	0x3f85f804	1.0466313
22	0x3f866441	1.0499345
23	0x3f857dd6	1.0429027
24	0x3f88323d	1.0640332
25	0x3f84affa	1.0366204
26	0x3f891d47	1.071206
27	0x3f869456	1.0514019
28	0x3f84c22d	1.0371758
29	0x3f85469e	1.0412176
30	0x3f8782bd	1.0586773
31	0x3f855cbd	1.0418926

base.7.bias f4 [32]
0	0x3cab5cd7	0.020918293
1	0x3cc39465	0.023874471
2	0x3c81b5f9	0.015833842
3	0x3cdcdfcb	0.026962182
4	0x3c8f18f3	0.017467951
5	0x3c69f0f8	0.014278643
6	0x3c69c9d2	0.014269309
7	0x3cb7ddc7	0.022444619
8	0x3cb08bc1	0.021551015
9	0x3cae2800	0.021259308
10	0x3ceb1d19	0.028700398
11	0x3cade4c8	0.021227255
12	0x3cc79e8d	0.024367595
13	0x3cc08072	0.023498747
14	0x3c8f659b	0.017504504
15	0x3d291ee4	0.041289225
16	0x3c5ee925	0.013605391
17	0x3cc582af	0.024110166
18	0x3d3794ec	0.044819757
19	0x3c86f183	0.016472584
20	0x3c953de7	0.018217994
21	0x3cee0fa4	0.029060192
22	0x3cbec757	0.023288412
23	0x3c4e6610	0.012597576
24	0x3cf07805	0.029354105
25	0x3c9a0bac	0.018804394
26	0x3cac3558	0.02102153
27	0x3c51b1bf	0.012798726
28	0x3b9e870c	0.004837876
29	0x3c31582e	0.010824246
30	0x3d1aa610	0.037756026
31	0x3cb7cc8c	0.022436403

base.7.running_mean f4 [32]
0	0xbbed7df6	-0.0072476817
1	0x3e61005c	0.21972793
2	0xbcfb418a	-0.0306709
3	0x3eaa5c0e	0.33273357
4	0x3e1080b7	0.14111601
5	0xbd8973d3	-0.06711545
6	0x3e2c2063	0.1680923
7	0xbe07d7a6	-0.13265857
8	0x3e191fea	0.1495358
9	0x3dc759bb	0.097339116
10	0x3e3cc491	0.18434359
11	0xbdaa7375	-0.08322803
12	0x3e73a21f	0.23792313
13	0x3e9e28bd	0.30890456
14	0x3e0e836c	0.13917321
15	0x3ef86eef	0.48522136
16	0xbe93a5fe	-0.2883758
17	0x3db4d42e	0.088295326
18	0x3e10d356	0.14143118
19	0xbc9ee7b0	-0.019397587
20	0x3e02d336	0.12775883
21	0x3ea64b7c	0.32479465
22	0x3d328d76	0.04359194
23	0x3d95cacc	0.07314071
24	0x3e9b0e86	0.30284518
25	0x3df4094d	0.119158365
26	0x3e206380	0.15662956
27	0x3e5dbe0e	0.21654531
28	0xbdbb1aa2	-0.09135939
29	0x3e2bee94	0.16790229
30	0x3d99ce47	0.075100474
31	0xbd61d6e3	-0.055136573

base.7.running_var f4 [32]
0	0x3d6f784e	0.05846434
1	0x3de61f03	0.11236384
2	0x3dd0e9cc	0.10200843
3	0x3e28bf58	0.16479242
4	0x3ddaa57a	0.106760934
5	0x3d92d052	0.0716864
6	0x3d87ad85	0.06624893
7	0x3d837db3	0.064204596
8	0x3df02649	0.11726052
9	0x3dba66bd	0.09101627
10	0x3d8d23fd	0.0689163
11	0x3e347626	0.17623195
12	0x3d90728e	0.070530996
13	0x3e31f46d	0.17378397
14	0x3dbeef12	0.09322943
15	0x3e99c6bf	0.30034444
16	0x3e2e6500	0.17030716
17	0x3e2fc48b	0.17164819
18	0x3d9e7f8b	0.07739171
19	0x3e353f33	0.1769989
20	0x3e19d1ed	0.15021487
21	0x3dd18a99	0.102315135
22	0x3ddeed21	0.108850725
23	0x3e60bc6b	0.21946876
24	0x3db5e11c	0.08880827
25	0x3d9f858f	0.07789146
26	0x3d9eb49f	0.077492945
27	0x3dbff520	0.09372926
28	0x3dd11041	0.10208178
29	0x3e49d5c1	0.19710447
30	0x3e1cda39	0.1531762
31	0x3e07caa7	0.132609

head.0.weight f4 [24, 1024]
0	0x3c903982	0.017605547
1	0x3c83267b	0.01600956
2	0x3c7429d9	0.014902555
3	0x3c4a934d	0.012364221
4	0x3b1908ae	0.002335112
5	0xbabc5228	-0.0014367746
6	0x3b5f0eef	0.0034036
7	0xbc8de720	-0.017322123
8	0x3bbd8b43	0.0057844236
9	0xbcd2b084	-0.025718935
10	0x3ae10071	0.0017166269
11	0x3b2c42ad	0.002628486
12	0x3c7a1764	0.015264366
13	0x3c7d5a3e	0.01546341
14	0x3c9b0d6f	0.018927304
15	0x3c92c105	0.017914305
16	0x3d1a2fec	0.037643358
17	0x3cd6f0f0	0.026237935
18	0xbc150e27	-0.009097612
19	0x3b970dba	0.0046097906
20	0x3ba687d2	0.005082109
21	0x3d05ea79	0.032694314
22	0xba110658	-0.00055322563
23	0x3cdb0fc3	0.026740914
24	0xbce8f939	-0.028439151
25	0xbc2b27c9	-0.010446497
26	0xbd0cae27	-0.034345772
27	0x3b695af7	0.0035607198
28	0x3bb28d69	0.0054489863
29	0x3d042094	0.03225763
30	0x3cba78d0	0.022762686
31	0xbb98a7f4	-0.0046586934
32	0x3a25eb30	0.0006329296
33	0xba8074cf	-0.0009800437
34	0xbaaad84f	-0.0013034436
35	0xbbcbbd79	-0.0062176553
36	0xbc483688	-0.0122200325
37	0x3b985a6b	0.0046494505
38	0x3b9a0c18	0.0047011487
39	0x3cff3c21	0.031156601
40	0x3d170a0e	0.036874823
41	0xbbb9cf8b	-0.005670493
42	0x3cfda659	0.03096311
43	0x3b8ccf0a	0.004297142
44	0x3bb76c2b	0.0055976114
45	0x3b51957f	0.0031979976
46	0x3b11aae1	0.0022227096
47	0x3aca4795	0.001543271
48	0x3cfcdd21	0.030867161
49	0x3c93df2f	0.018050758
50	0xbc5b28ed	-0.013376457
51	0x3cd3fead	0.025878275
52	0x3cb1cf6f	0.021705357
53	0xbc96cf34	-0.018409349
54	0xbbbc0341	-0.0057376926
55	0xbad1ea5a	-0.0016015277
56	0x3c972cd2	0.01845399
57	0xbd179ae0	-0.037012935
58	0xbcd56bf9	-0.026052462
59	0x3cd19f29	0.025588589
60	0x3cf32212	0.029679332
61	0x3cc32c5e	0.023824867
62	0xbc6648c5	-0.014055436
63	0xbc997b77	-0.01873563
64	0x3a217a1e	0.00061598595
65	0xbd29f5c8	-0.04149416
66	0xbc09d09f	-0.008411556
67	0xbd12315c	-0.035691604
68	0xbcead940	-0.028668046
69	0xbd220cf2	-0.039563127
70	0x3c3af5bd	0.011411128
71	0x3cb2daef	0.021832911
72	0x3be5f722	0.007017986
73	0xbcc7d1bd	-0.024392003
74	0xbcae28cb	-0.021259686
75	0xbc86c11a	-0.0164495
76	0xbd25aaeb	-0.040446203
77	0xbce8f10f	-0.028435258
78	0xbbe0859c	-0.006851865
79	0xbd2da34b	-0.042392056
80	0x0000609a	3.4654e-41
81	0x0000835b	4.7121e-41
82	0x393aa049	0.00017798053
83	0xbad1672d	-0.0015976183
84	0xbb1e3ac8	-0.0024143923
85	0xbbb90a48	-0.0056469776
86	0x3cd5556e	0.026041713
87	0x3b926f0e	0.004468805
88	0x3b5370b5	0.0032263224
89	0xbc52f5d7	-0.012875996
90	0xbcbce73c	-0.02305948
91	0xbb13e2e6	-0.0022565662
92	0x3ad4db03	0.0016239587
93	0xb8919874	-6.9425354e-05
94	0xb8fc9930	-0.0001204483
95	0xb908aa76	-0.00013033472
96	0x3ace258f	0.0015727746
97	0x3ac974cf	0.0015369895
98	0x3b0f0b80	0.0021826923
99	0xbab17931	-0.0013540146
100	0xbb77961c	-0.003777868
101	0xba66a3ed	-0.00087982306
102	0x3b89c22d	0.0042040558
103	0x3d27c916	0.040963255
104	0x3d40818d	0.04699855
105	0x3cb58f48	0.022163048
106	0xbb0a82dd	-0.002113513
107	0xbc45cca2	-0.012072714
108	0xbbfcf33a	-0.0077194246
109	0x3962d3c4	0.00021631928
110	0x3ad9749d	0.001659054
111	0x3ac04c77	0.0014671226
112	0xbb17a317	-0.002313798
113	0xbb6133c8	-0.003436314
114	0xbaee7972	-0.0018194153
115	0xbaa9c660	-0.0012952797
116	0xbc818a94	-0.01581315
117	0x3b75bb94	0.0037495838
118	0xbcd60e9b	-0.026130011
119	0xbc91b1d8	-0.017784998
120	0x3b99612e	0.004680774
121	0xbcd32c8a	-0.025778074
122	0xbc36871b	-0.01114061
123	0xbba7c2bc	-0.0051196497
124	0x3b378d89	0.0028007946
125	0x38b9c120	8.85746e-05
126	0xba051404	-0.000507653
127	0x3989ceee	0.0002628485
128	0xbb28a39a	-0.002573228
129	0xbb275578	-0.002553312
130	0xb95e9cbf	-0.00021229962
131	0xbac6f119	-0.0015178054
132	0xbc88401b	-0.01663213
133	0x3c8cd021	0.017189087
134	0x3c3092a4	0.010777149
135	0x3b28b434	0.0025742175
136	0x3bdb7790	0.0066976026
137	0x3d0dfa86	0.034662746
138	0xbc4cfc9e	-0.0125114005
139	0x3c9a5863	0.018840974
140	0x39dc2900	0.00041992217
141	0x3a2b3a5d	0.0006531829
142	0x38a7db22	8.003997e-05
143	0xbb179ba8	-0.002313355
144	0xbd13bbfb	-0.036067944
145	0x3aca2c46	0.0015424571
146	0xbd153909	-0.036431346
147	0xbd28f552	-0.04124958
148	0xbc5948eb	-0.013262014
149	0xbc908c41	-0.017645003
150	0xbcb58e37	-0.02216254
151	0x3ce870c5	0.028374085
152	0x3b145cc8	0.002263831
153	0x3c36b3e6	0.01115129
154	0x3a39c4bb	0.0007086505
155	0xbc61318f	-0.013744726
156	0xbc5e38eb	-0.013563375
157	0xbc12268c	-0.008920323
158	0xbd510a19	-0.05103502
159	0xbd20e14b	-0.039277356
160	0x3ce87a32	0.02837858
161	0x3c09032c	0.008362573
162	0x3d5cf342	0.053942926
163	0x3d58a41d	0.052890886
164	0x3d1c0085	0.038086433
165	0x3d1bce86	0.038038753
166	0x3caaaba1	0.020833792
167	0x3c5f9b2d	0.013647837
168	0x3c0c7c65	0.00857458
169	0x3c4e4f2b	0.012592117
170	0x3ceeb22f	0.029137699
171	0xbb9cf802	-0.004790307
172	0x3d317bb5	0.043330867
173	0x3cf736be	0.03017747
174	0xba83d03a	-0.0010056563
175	0x3d5f7a83	0.054560196
176	0x3ac0f7ef	0.0014722327
177	0x3aa9d0d0	0.0012955908
178	0xba881503	-0.0010382239
179	0xbb35f013	-0.0027761504
180	0xbad429c1	-0.001618676
181	0x3cc6c2df	0.024262844
182	0x3c1ce1d0	0.009575322
183	0xbc0d8763	-0.008638236
184	0xbc3cfa5f	-0.0115343025
185	0xbcce9695	-0.025218287
186	0xbcce0928	-0.02515085
187	0x3be41d34	0.006961489
188	0xb9d7d077	-0.00041163314
189	0x3a912e9d	0.0011076514
190	0x3b0e8cce	0.0021751407
191	0x3b298b1d	0.0025870271
192	0xba174840	-0.0005770959
193	0xba12a3c5	-0.00055938616
194	0x39339e68	0.00017129781
195	0xbb1a3f4f	-0.002353627
196	0xbb405cfc	-0.0029352298
197	0xbacd6e5d	-0.001567315
198	0x3c8f411e	0.017487105
199	0x3ce0b9c2	0.027432326
200	0xbd4b5ffe	-0.049652092
201	0x3ce09c64	0.027418323
202	0x3c8da13f	0.017288802
203	0x39a3ec29	0.00031265736
204	0xbb858ccc	-0.004075622
205	0x39f315b8	0.00046364754
206	0x3ad0d23a	0.0015931793
207	0xb923b802	-0.0001561344
208	0xbbc2ce71	-0.00594502
209	0x3c41f346	0.011837786
210	0xbc5c41fa	-0.013443464
211	0x3b767ce3	0.003761106
212	0x3cafbe80	0.021453142
213	0x3d1e465d	0.038641322
214	0x3b0d5519	0.0021565615
215	0x3c0398a1	0.008031995
216	0xbb605260	-0.0034228787
217	0x3b8ea3b0	0.004353009
218	0x3cae68b2	0.021290157
219	0x3c5dbbcb	0.013533543
220	0xbce925db	-0.028460434
221	0xbcd7c349	-0.026338236
222	0xbcc8dfe7	-0.024520827
223	0x3ba09d9b	0.0049016005
224	0x3a4b0f3b	0.0007746105
225	0xbd0a3c8e	-0.033749156
226	0xbcbcd3cf	-0.023050217
227	0x3c921b3f	0.017835258
228	0xbbce4e62	-0.006295965
229	0x3d12d855	0.03585084
230	0x3cea258c	0.028582357
231	0x3d1ab96d	0.037774492
232	0x3cfcaea2	0.03084499
233	0xbb7dcadd	-0.0038725652
234	0xbba9873c	-0.005173592
235	0xbbcb1a2d	-0.0061981888
236	0xbbdca841	-0.0067339246
237	0x3c7fc851	0.015611724
238	0xbc96e67e	-0.018420454
239	0xbd18abca	-0.037273206
240	0x3b8547ca	0.004067396
241	0x3b68fd9d	0.0035551556
242	0xbb43712b	-0.0029822092
243	0xbb6fe929	-0.003660748
244	0x3bcf6a3d	0.0063298033
245	0x3aa4ef40	0.0012583509
246	0x3c1d87bb	0.00961488
247	0xbcb505a4	-0.022097416
248	0xbcd594dc	-0.026071958
249	0x3b4dfcbf	0.0031431166
250	0xbc8b985e	-0.017040428
251	0xbcf43949	-0.029812472
252	0x3c076125	0.008262907
253	0x38d3ba51	0.00010095968
254	0x3b2af8be	0.0026088203
255	0x3ba4dab7	0.0050309557

head.0.bias f4 [24]
0	0x3cd156a3	0.025554007
1	0x3c51ee34	0.01281314
2	0x3bae4fb1	0.0053195585
3	0xbc8fdf51	-0.01756254
4	0xbca1e7a4	-0.019763775
5	0xbc3af986	-0.01141203
6	0xbbc1f229	-0.0059187603
7	0xbba5263d	-0.0050399587
8	0x3d04556d	0.03230803
9	0x3b95cc2a	0.0045714574
10	0x3cbba559	0.022905992
11	0x3ccaec1b	0.024770787
12	0x3af26da4	0.001849581
13	0x3cc9e173	0.024643635
14	0xbc25afa3	-0.010112676
15	0x39ba6bf2	0.0003555711
16	0xbb658777	-0.003502337
17	0x3d026c99	0.031841848
18	0x3caf6150	0.021408707
19	0x3c732587	0.01484049
20	0x390fe25a	0.00013721865
21	0xbc8fd818	-0.017559096
22	0x3c1937b0	0.009351656
23	0xbc1e9837	-0.0096798455

head.2.weight f4 [2, 24]
0	0xbe1f878b	-0.1557905
1	0x3e87032e	0.26369613
2	0xbc67c0a8	-0.014145054
3	0x3dd38132	0.103273764
4	0xbd5ad933	-0.053429794
5	0xbdea21ef	-0.114322536
6	0x3c12974f	0.008947208
7	0x3c96896e	0.018376078
8	0xbe530faf	-0.20611452
9	0x3e51f89c	0.20504993
10	0xbe017554	-0.12642413
11	0xbe7eb183	-0.24872403
12	0xbd29914e	-0.04139834
13	0x3e586a48	0.21134293
14	0xbdf234ec	-0.118265
15	0x3e54f6c2	0.20797256
16	0x3dd85903	0.10563853
17	0x3e4a5f78	0.19762981
18	0x3e265471	0.1624315
19	0x3e6eff1b	0.23339503
20	0x3d8cb9df	0.068713896
21	0x3e1db9b8	0.15402877
22	0xbda682ec	-0.0813044
23	0x3e24895c	0.16068023
24	0x3e1253f5	0.1428984
25	0xbe0e3c34	-0.13890153
26	0x3def5920	0.11686921
27	0xbdeeee27	-0.11666518
28	0x3e2eda5b	0.17075484
29	0xbe82a2d0	-0.2551484
30	0xbe3c0bb2	-0.18363836
31	0xbe0f4fcf	-0.13995288
32	0x3e4c06b2	0.19924429
33	0xbe696f99	-0.22796477
34	0x3e22ec88	0.15910542
35	0x3e5999bf	0.21250056
36	0x3d29914e	0.04139834
37	0x3c1752e9	0.009236076
38	0x3e16edfe	0.14739224
39	0x3da72129	0.08160622
40	0xbd86e786	-0.06587128
41	0x3b0aac7d	0.002115994
42	0xbe6b834c	-0.22999305
43	0x3cb759a2	0.022381607
44	0x3e2bf6c1	0.16793348
45	0xbd2c9676	-0.04213568
46	0x3e5e8d14	0.21733505
47	0xbd52172e	-0.051291637

head.2.bias f4 [2]
0	0x3e0d1c95	0.13780434
1	0xbd0b4b80	-0.03400755
