models/AC-RM-2 Q_LR=0.001 P_LR=5e-06 BATCH_SIZE=128 GAMMA=0.99 MEMORY_SIZE=150000_policy_3762.pt (torch, 319744 bytes, 22 tensors)

base.0.weight f4 [32, 2, 5, 5]
00000000: 06cd fd3d 0b6a f9bd ebcb a9bc 08be e33d
00000010: ef7c b43d 755f c73d 788f f83c 35c5 be3d
00000020: 82fc c3bc d391 edbd 529b 833d ee07 0e3d
00000030: 85fb 77bd 84f9 a1bd 22b3 3abd ff7c 83bd
00000040: b113 98bd dec8 d23d 971a 063d dac3 ecbc
00000050: d0eb cf3d 4427 c3bd b621 adbc 2add b13d
00000060: 3b70 263d 5902 a83d 9f12 523c 63c9 17bd
00000070: daa6 01bd c696 d63d 51a5 803b 24cc 323c
00000080: 4a9b 633d 9c69 d0bd c116 f03d e669 22bb
00000090: cf49 5e3d ec68 9d3d e929 25bd 94af 36bd
000000a0: 89ba e23d f6bc 043e 2cae 08bd e2ef f23d
000000b0: a341 80bd 6a94 ad3c 2699 e5bd fc26 8a3d
000000c0: fe89 6f3d 9dbc 6dbd 6772 b13d 09c3 0dbd
000000d0: e39c d23b 5225 013e 9b5b 6cbc 6fea 2dbc
000000e0: d516 683c c813 dcbd 783c fd3c 06fa a9bc
000000f0: cbad 993d d03d 8f3c 0af2 77bd 7f5f 953d
00000100: 78c6 303d 19be a43d 3bd3 fabd b40d 0bbe
00000110: 3a99 f63d baff 68bd f14a fb3d 80c4 523d
00000120: 9ffd e63d 97d1 9a3c 28da e73d b34e ba3b
00000130: af84 96bd ebfc bebd c128 dcbd 5eb0 27bc
00000140: 8322 e33d 1043 073e d493 b13d 9520 a63d
00000150: e563 7fbc 3cde 553d 3719 da3d 9a45 13bd
00000160: d39d b13d 1733 6a3d a63e c7bd 3570 6abd
00000170: cdc9 263c 9b0b 12be efb4 a03d 15c3 cbbd
00000180: 4209 873d 01e9 74bd da33 82bd 4cda 523c
00000190: 7602 a3bc 000f c9bd ba62 0bbd 2f16 e6bc
000001a0: 6b3d 833b 504e fa3d e918 f9bd 0ebf 003d
000001b0: 2668 e63c 7d6e e63b 5092 d63d ce40 c9bd
000001c0: 68f3 02be afb8 813d 4e60 90bd aa4e 033b
000001d0: 39c4 dbbd ffbb d5bd 06bc aa3c 09de 28bd
000001e0: e1a6 c33d 0047 fabd 14a6 2ebd df55 ebbb
000001f0: daa3 afbd 09df 533d 90d2 603d 3bc3 bb3c
00000200: 7692 21bd e646 0cbe de5f 503d 5081 fdbd
00000210: fef9 9b3d 24b6 413d e935 863d 463a fabd
00000220: 6c9d 0cbe 511e 5dbc 71d4 fa3c 5dc9 ddbd
00000230: 507a 8bbc 56bc 4b3c e690 c83d d949 bc3d
00000240: 3b8c 45bd ca5b 9fbc 7ab8 0fbe 03f1 4d3b
00000250: 8f74 183e dc83 0a3e 6a93 85bd 5c65 debd
00000260: 3f90 5abd c536 43bd dfbc debd 2b18 00be
00000270: fce7 c9bc 054d 9cbc e430 82bc a0df fd3d
00000280: 75b7 243c f466 b0bd c0b0 19bd ae3a c53d
00000290: c582 ee3d 3c42 043a fde4 863d abb8 bd3d
000002a0: a7ac a3bd 66d6 ffbd 9d93 f93d fde8 8cbc
000002b0: 423d 703d 3dd4 fe3d b4cd e13d 43c8 f3bd
000002c0: 4e5d 773d 46fc b8bd c712 f23d 232d ba3c
000002d0: 8ba7 94bd 5abb f63c 9337 9e3d 456a 07be
000002e0: f6f9 11be 7e29 e4ba e302 003e 5b83 dbbd
000002f0: 405d cf3c dbc1 5d3d fe14 a33d 769e ba3d
00000300: ef79 c13b 0ad1 f43d 31da 06bd 99b1 033e
00000310: 72b6 04be 29fb 293d f882 c0bc 3f85 4fbd
00000320: 66c6 043e fa72 dcbd 1268 8b3d 9da3 81bb
00000330: 742a e6bc 2609 ca3c 791e febd 1200 8ebd
00000340: 74d0 6c3d 8dfa 723d 9950 a9bc 7455 96bd
00000350: 257d 7bbd d41f e5bc 996a 03be 6671 aa3d
00000360: e449 4a3c fcc3 b0bc 47ba e2bd 81d7 2c3d
00000370: 9b3c 0a3e 40f1 86bd 664c 273d e32a 803d
00000380: c930 e4bc aa93 e7bd ae13 c53d 4e57 afbd
00000390: c8df 903d 799d d8bd addf 0c3d 343e 0abe
000003a0: 905d 8bbd 7f8f 40bd 0161 a3bd 3aac 883c
000003b0: b203 87bd 0977 b73d 6716 3ebd 5312 c53d
000003c0: e499 07be 77a0 41bd 37a7 e8bd 417f 8e3d
000003d0: 4c30 f83d 9503 013e 02ce a33d 235c bf3d
000003e0: 16de a63d 6149 ed3c 3124 c53d a30d 813d
000003f0: 4b0c 993c d45d 6a3d 5dbb b63b 9e87 073e
0.12392621 -0.12178429 -0.020727118 0.1112023 0.08812892 0.09735004 0.030341849 0.09314958
-0.023924116 -0.116000794 0.064261094 0.03467553 -0.060542602 -0.079089195 -0.04558099 -0.064203255
-0.07425631 0.102922186 0.0327402 -0.028901983 0.101523995 -0.09528974 -0.021134239 0.08684762
0.040634375 0.08203573 0.012821822 -0.03705729 -0.031653263 0.104779765 0.0039259573 0.010912929
0.055568017 -0.101763934 0.1172309 -0.0024782359 0.054269608 0.07686028 -0.04032317 -0.044601038
0.11070735 0.12962708 -0.03336923 0.1186216 -0.06262519 0.021188933 -0.11210851 0.06745717
0.05848121 -0.058041204 0.08664399 -0.03460983 0.0064273938 0.12611893 -0.014426137 -0.010614975
0.0141656 -0.107459605 0.030912623 -0.020749103 0.075038515 0.01748553 -0.06053356 0.07293605
0.043158025 0.08044071 -0.1224732 -0.13579446 0.120409444 -0.056884505 0.12270153 0.05145693
0.11278843 0.018898768 0.11320907 0.005685651 -0.07349526 -0.09325584 -0.10749961 -0.01023492
0.11090567 0.13209176 0.08670774 0.08111683 -0.015587782 0.052213892 0.106493406 -0.03595505
0.08672681 0.05717763 -0.09728746 -0.057235915 0.010179949 -0.1426224 0.0784701 -0.09949318
0.06593563 -0.059792522 -0.06357546 0.012869429 -0.019898634 -0.09817314 -0.0340297 -0.02808675
0.0040051243 0.12221968 -0.12162954 0.031432204 0.028125834 0.007032214 0.10477126 -0.09826814
-0.12788165 0.06334054 -0.07049619 0.00200359 -0.10730786 -0.10436248 0.02084161 -0.041227374
0.09553314 -0.122205734 -0.042638853 -0.0071818675 -0.08576174 0.051726375 0.054888308 0.022920242
-0.039446317 -0.1369892 0.050872676 -0.1237818 0.076160416 0.047292843 0.06553251 -0.12218146
-0.13731927 -0.0134959975 0.030618878 -0.108294226 -0.017026097 0.0124350395 0.09793262 0.09193773
-0.048229437 -0.019452948 -0.14035216 0.0031424172 0.14888214 0.13526863 -0.065222576 -0.108591765
-0.05336022 -0.047659654 -0.10875868 -0.1250922 -0.024646752 -0.019079695 -0.015892453 0.12396169
0.010053505 -0.08613387 -0.037522078 0.09630333 0.11646036 0.000504527 0.06586645 0.09263738
-0.07991915 -0.12492065 0.12186358 -0.017200941 0.05865217 0.12442825 0.11025563 -0.11903431
0.060391717 -0.09032492 0.11819988 0.022726601 -0.07258519 0.030118633 0.07725444 -0.13224132
-0.14255509 -0.0017407385 0.12501101 -0.107184134 0.02531302 0.054139953 0.07962988 0.09112255
0.005904428 0.119539335 -0.032922927 0.12860717 -0.12960222 0.04149929 -0.02349995 -0.050664183
0.12966308 -0.107641175 0.06806959 -0.003956272 -0.028096415 0.024662565 -0.12408156 -0.06933607
0.057815984 0.059320975 -0.020668315 -0.07340518 -0.061398644 -0.027969278 -0.12833633 0.0832241
0.012346718 -0.021577828 -0.11070686 0.042197708 0.13499682 -0.065889835 0.040844344 0.0625818
-0.027855294 -0.113074616 0.09622894 -0.08561574 0.07073933 -0.105769105 0.034393 -0.13500291
-0.06804955 -0.04701185 -0.079774864 0.016683687 -0.06592502 0.08958251 -0.046408083 0.09622636
-0.13242298 -0.04727217 -0.11360019 0.069578655 0.12118587 0.12599023 0.07998277 0.093437456
0.08147828 0.028965654 0.096260436 0.06301429 0.01868262 0.057218388 0.0055765347 0.13235328

base.0.bias f4 [32]
00000000: c827 a3b9 00e8 ccb8 51f9 a339 9d9d 4839
00000010: a0f8 4c38 e216 b1b9 cfc8 5139 cc04 a539
00000020: bade e839 48be 02b9 7038 98b9 633b c8b8
00000030: 0b86 2939 065c 9fb7 6dc1 0836 73c8 d238
00000040: 4787 5739 a778 deb8 6298 8f3a d8ac 003a
00000050: 8bae ad39 fc32 53b9 5a2a 5339 238d 3738
00000060: 7914 be39 e322 4838 3ac9 ae39 2322 37b8
00000070: 42d6 8e39 67f9 3b3a ec91 6b39 a205 0eb9
-0.00031119422 -9.7706914e-05 0.00031275538 0.00019132202 4.886894e-05 -0.0003377712 0.000200066 0.00031474826
0.00044416433 -0.00012468651 -0.00029033748 -9.547805e-05 0.00016167031 -1.8997129e-05 2.0378168e-06 0.00010050917
0.00020554393 -0.00010608258 0.0010955448 0.0004908568 0.00033127176 -0.00020141521 0.00020138305 4.3762044e-05
0.00036254877 4.7716207e-05 0.00033337792 -4.3662392e-05 0.00027243985 0.0007170648 0.00022465707 -0.00013544274

base.1.weight f4 [32]
00000000: 3699 7f3f 5a0c 803f 4e48 7f3f c8ed 803f
00000010: a7c7 7d3f f40f 823f 9a6e 803f cf22 7f3f
00000020: 15f4 7c3f 0642 803f c7b1 803f 0bef 7e3f
00000030: e065 7d3f dff7 803f 04d7 7e3f 00fb 7c3f
00000040: a9d2 7e3f 6bf7 7f3f 2430 813f 1be8 813f
00000050: b52a 7f3f bd65 7d3f c143 7e3f 3995 7e3f
00000060: c834 803f 0648 803f 284c 7c3f a420 803f
00000070: 454e 7e3f bc83 833f 5495 7f3f 3b86 7c3f
0.99843156 1.0003769 0.99719703 1.0072565 0.9913277 1.0161119 1.0033753 0.9966249
0.9880994 1.0020149 1.0054253 0.995835 0.98983574 1.0075644 0.9954684 0.98820496
0.9954019 0.99986905 1.0092816 1.0148958 0.9967454 0.98983365 0.99322134 0.99446446
1.0016108 1.002198 0.98553705 1.0009961 0.9933818 1.0274577 0.9983723 0.9864232

base.1.bias f4 [32]
00000000: 4274 8f3a 8712 563a 1fe6 81bb 776b 123c
00000010: add3 783b 5fa0 bc3b 7bde 833b fb0e d13a
00000020: 1ce2 b3bb 8aee 303a c30a fab9 0e0a ceba
00000030: 0194 c3ba a3ca 483b d2a5 7d3b 138c abbb
00000040: 6c94 43ba 4bbd ab3b 309e 533b eb81 773c
00000050: 6541 cdb9 12e7 83bb ff31 b6ba 6aa6 81bb
00000060: 8330 5b3b 5fcb 803a 2af4 f0bb eda8 9cba
00000070: 4e2c 87b9 9d45 0c3c 8043 16bb 4c10 ecbb
0.0010944682 0.0008166213 -0.0039642 0.008936754 0.0037967965 0.0057564224 0.0040243245 0.0015949899
-0.005489601 0.0006749412 -0.00047691734 -0.0015719549 -0.0014921428 0.003063836 0.0038703573 -0.005235204
-0.0007460776 0.0052410713 0.0032290332 0.015106658 -0.0003914937 -0.0040253485 -0.0013900398 -0.0039566057
0.0033445663 0.0009826234 -0.0073533254 -0.0011952199 -0.00025782216 0.008561519 -0.0022928417 -0.007204091

base.1.running_mean f4 [32]
00000000: cccf 3c3f 20f3 0b3f 75d1 21bf 1bbf a03d
00000010: cd52 3fbe 4eb7 9b3c bf07 653e 0a45 4ebe
00000020: 4abb 87be f5e2 673e a2ea 183e ab7a 063e
00000030: 99d8 813e f837 253d f326 da3e 34ea 3c3f
00000040: 5143 673c 20a6 4e3f 9f83 113e 7a79 633d
00000050: 4c9c 03be acd2 9c3e 2b10 c9be 5af7 89bd
00000060: 8b0a 9cbc 6a63 e6be fece 78be 8650 80be
00000070: bec0 10bf 711a 8a3d 2149 473f 62bb 05bf
0.7375457 0.54667854 -0.6321023 0.078489505 -0.1868393 0.019008305 0.22366236 -0.20143524
-0.26510078 0.22645171 0.14933255 0.13132732 0.25360563 0.04033658 0.4260784 0.73794866
0.014115171 0.80722237 0.14210366 0.05553577 -0.12852591 0.3062948 -0.39270148 -0.06736632
-0.019047996 -0.44997722 -0.24297711 -0.25061435 -0.565441 0.067433245 0.7784596 -0.5223905

base.1.running_var f4 [32]
00000000: 92b4 bf3b 5963 633b c0e5 bb3b d91f 323b
00000010: 9cb5 093b ef22 9b39 6487 c83a 8bd1 803b
00000020: be51 383b 9667 343a ede4 633a de57 803a
00000030: b33f d13a 389e cc3a e63f 213b d348 023c
00000040: cdc5 143a 2898 d03b e14f 333a 0b01 d739
00000050: aadc 343a 0a8a 263b 152b 863b d011 723a
00000060: 5063 023b 2f32 5f3b 3de3 a43a d0d8 233b
00000070: 454a c93b 27d6 5a3a 706a 0b3c acc1 2a3b
0.005850383 0.0034696667 0.0057341754 0.0027179627 0.0021012789 0.0002958993 0.0015299139 0.0039312295
0.0028124894 0.00068818906 0.00086934754 0.0009791811 0.0015964418 0.0015611118 0.0024604737 0.007951933
0.00056752266 0.0063657947 0.0006840211 0.00041008773 0.00068993366 0.0025411868 0.0040944912 0.00092342217
0.001989562 0.0034057011 0.0012579929 0.0025001056 0.006142887 0.0008347951 0.008509263 0.002605538

base.3.weight f4 [32, 32, 5, 5]
00000000: 9660 703c 3c42 643b b11f 6139 6593 62bc
00000010: de74 073d 3ee5 f43c ecfe e8bc 19a4 533c
00000020: 4f10 613b 5154 193d 7b7e aabc 03b4 b9bc
00000030: 2955 d7bb 99ed 99bc 761e b2bc 4480 30bc
00000040: 8d4c 1aba ec62 b43b ea20 efbc 12e1 48bc
00000050: 648b 20bc c3dc b83c 7b85 0b3d 6ece 4d3c
00000060: a5aa 163d 0386 9e3c 0f8c 0b3a 286f ae3c
00000070: 10ef e73c b0fb 943b ba91 0f3d b7f8 053c
00000080: c992 05bc dbbc 13bd 7e62 e4bc 6aec d53c
00000090: 97e0 33bc 455c 79bc 0298 bb3b 1d39 d03c
000000a0: 989e 59bc de9d 553b ef27 98bc bc19 3e3c
000000b0: deca be3c 8d40 9dbc 090a 193c 8735 a1bc
000000c0: f3d4 183d bece df3c 6b7a a0bc 33df 11bd
000000d0: 649b a43c 9ed4 ab3c 1ddf dd3b 6502 98bb
000000e0: 548c df3c 9f46 fc3c bcf6 be3c cc01 d83c
000000f0: 1c8e 0cbd 5ecd 41bc 5d93 8fbc 5997 b53c
00000100: a27d 243c 995b 8cbc d0ba afbc 1793 7ebc
00000110: ba6e adbc 1d7c 47bc b42f 893c 0f7f 0cbb
00000120: 8814 bf3b f499 e8bb 29d4 fd3c 5bb8 e83c
00000130: e9eb 15ba 6c68 8ebc 4341 b7bb c7a5 2a3c
00000140: e8e3 bc3c 9e39 f33c 53aa debc 6cc7 0cbc
00000150: 8f3f e33c 3dec 453c ebd8 ed3c 3bbc 9f3c
00000160: f00f 663c 76b6 06bc 440a 013d aee2 26bb
00000170: 00ca dd3c f018 48bc 35a1 afbc bfc9 34bc
00000180: 9064 993c c39a 073d 1ca6 4c3b 33e4 0a3c
00000190: 5c9c c2bc a415 39bb b836 11bc 9dad 9fbc
000001a0: 01c3 de3c 4433 14bc 167b 023c bd9d fbbc
000001b0: e1a2 84bc c5f2 783c a2f3 13bc d8d6 0c3d
000001c0: e4f0 c4bc 62f3 d1bc 9878 86bc b389 a9bb
000001d0: 3c49 a33b 5409 aa3c e0b4 873c 28f9 15bc
000001e0: 5faa 223c e2a1 a63c 0e42 9cbc 8c29 0dbd
000001f0: 65e7 cb3c 1452 45ba a3c9 203b 3573 053d
00000200: e23c e23c 4c38 b03c 3fcb 2a3d 589f 8dbc
00000210: 4a7c 51bb 00fe 91bc 268d ecbb 31ba 293c
00000220: d444 063d ace2 b6bb e4d4 353c 7b6e 37bc
00000230: 694a adbc ee72 fa3c 47aa 133d be17 62bc
00000240: 3fd8 e63c 05e8 073d 5264 3b3c 80d8 eb3b
00000250: e390 0e3d d09e da3c 1901 a93c 7263 063d
00000260: 25e3 f5bc 2995 4f3b e783 7dbc a2b3 6fbc
00000270: f889 a63c 69c7 9c3c 5652 053c a40e 6fbc
00000280: 95f3 37bc b69d 25bd 869b 703a c9f1 1c3d
00000290: 87dd 82bc 8f72 cebc dc11 24bc d42e d0bc
000002a0: 439a 203c 6b6f 903c f59d 63bc 3b3c 41bc
000002b0: 6a63 04bd 683a 253a 1947 d53c 5f58 b0bc
000002c0: dba8 5dbb adee 00bd 4ff7 513c eb46 afbb
000002d0: 7ba9 5f3c 4c91 603a fecd 24bc 2aa1 45bc
000002e0: f451 893c 2ed3 fd3b 7283 bbbc 27a9 0abc
000002f0: d379 02bd 4176 b8bc 3590 173d 75a2 b53a
00000300: 1af8 9a3c 8b19 c13c 12c3 953c 00ad e4bc
00000310: ea2a 94bb 7f63 ff3c ce95 79bc aa11 653c
00000320: 291c 8bbc f3e4 5dbc f78a d3bc 45a7 89bc
00000330: eb08 133c 8fcf f03b a9f0 b0bc b930 eb3c
00000340: 8c09 06bd 8a70 bf3c 2703 f93c 58f7 253d
00000350: c1dd 973c e5ab ba3b 68d3 db3c f8c2 17bc
00000360: 9411 ce3c 2d7d 753c de5f c83c 3822 a53b
00000370: b952 66bb e797 793c 9566 ac3c 2032 023d
00000380: 6967 cebc f929 4e3c 01fb b23c b916 b8bc
00000390: 39ea cfbb d678 b3bc 6497 463a e2db 1ebd
000003a0: c27f cebc a011 f4bc 5aab cebc 8852 01bd
000003b0: ee76 403b 025b aabc 23c0 853c 01cb 60bc
000003c0: 068d ddbc 15fa cbbc 33e4 b2bc 3050 593c
000003d0: 1456 613c 3c56 213a 8b23 043b af39 1d3d
000003e0: a25f d7bb e1d8 a9bc 033f bf3c 9391 663c
000003f0: 9ddc f838 b984 72bc a114 82bc 3cf2 30bb
0.014671465 0.0034829518 0.00021469478 -0.013829087 0.033070438 0.029894467 -0.028441869 0.012917542
0.0034341996 0.037433926 -0.020812264 -0.022668844 -0.006571431 -0.018790053 -0.02174304 -0.010772768
-0.0005886041 0.0055049565 -0.0291905 -0.012260692 -0.009798858 0.022566205 0.034062844 0.012561424
0.036783833 0.019351011 0.00053232996 0.021293238 0.028312236 0.004546605 0.035051085 0.008176974
-0.008152672 -0.03606878 -0.027878996 0.026113708 -0.010978839 -0.015219753 0.005724908 0.025417859
-0.013282441 0.0032595317 -0.01857373 0.011602815 0.023290094 -0.01919582 0.0093407715 -0.019678844
0.03731246 0.027320262 -0.019589623 -0.03561325 0.020093627 0.020975407 0.006770982 -0.0046389573
0.027288593 0.030795394 0.023311011 0.026368044 -0.034315214 -0.0118287485 -0.017526323 0.022166895
0.010039719 -0.01713352 -0.021451384 -0.015537999 -0.021170963 -0.012175587 0.01674638 -0.0021438038
0.005831305 -0.007098431 0.030984955 0.02840822 -0.0005719052 -0.017383777 -0.0055924966 0.010415501
0.023057893 0.02969056 -0.027180826 -0.008592468 0.027740268 0.012080249 0.029034099 0.019498935
0.014041886 -0.008222213 0.03150393 -0.0025464701 0.02707386 -0.012212977 -0.021439174 -0.011034428
0.01872471 0.033106577 0.0031226939 0.0084772585 -0.023756199 -0.0028241659 -0.008863144 -0.019491965
0.027192594 -0.009045426 0.007963916 -0.030714864 -0.016190948 0.0151945995 -0.009030255 0.03438458
-0.024040647 -0.02562875 -0.016414925 -0.0051738857 0.0049830955 0.020756401 0.01656574 -0.009153642
0.009928315 0.020340864 -0.019074466 -0.03446345 0.024890611 -0.0007527184 0.0024534247 0.032580573
0.027616922 0.02151122 0.041697737 -0.017287895 -0.0031964951 -0.017821312 -0.0072189746 0.010359333
0.032780483 -0.0055812206 0.01109812 -0.011195774 -0.021153646 0.03057238 0.03605106 -0.013799606
0.028179286 0.033180255 0.011437492 0.0071974397 0.034806143 0.026687056 0.020630406 0.032809682
-0.030015538 0.00316746 -0.0154733425 -0.01463023 0.02032946 0.019138055 0.008137306 -0.014590893
-0.011227508 -0.040433608 0.0009178448 0.03831652 -0.015974773 -0.02520111 -0.010014024 -0.025412954
0.009802404 0.017631253 -0.01389264 -0.011794145 -0.03232137 0.00063029537 0.026034879 -0.021526514
-0.003382257 -0.03147762 0.012815311 -0.0053490303 0.013651247 0.0008566573 -0.010058878 -0.01206235
0.016762711 0.007746122 -0.022889826 -0.008463181 -0.031854462 -0.022517325 0.03700276 0.001385762
0.018917132 0.02357175 0.018281493 -0.027914524 -0.0045217173 0.031175373 -0.01523347 0.013981262
-0.016981201 -0.013543355 -0.0258231 -0.016803393 0.008974294 0.0073489617 -0.02159913 0.028709756
-0.03272395 0.023369092 0.030397011 0.04051909 0.018538358 0.005696761 0.026834205 -0.009262793
0.025154866 0.0149834575 0.024459776 0.0050394796 -0.0035144521 0.01523397 0.021045009 0.031786084
-0.025195794 0.012583249 0.021848204 -0.022471773 -0.00634506 -0.021908205 0.00075756595 -0.038783915
-0.025207404 -0.02979356 -0.025228191 -0.03157285 0.0029367763 -0.020795349 0.01632697 -0.013720275
-0.027044784 -0.024899522 -0.02183733 0.013263747 0.013753433 0.00061545125 0.0020162787 0.03838509
-0.0065726796 -0.020733299 0.023345476 0.014072794 0.00011866654 -0.014802151 -0.015878977 -0.0026999852

base.3.bias f4 [32]
00000000: 68e2 c138 440b 5e37 17a8 4f38 420d 0cb7
00000010: 8ea0 92b7 a62e b2b8 4d13 65b6 bd74 18b8
00000020: c4e4 83b7 8d8f 3d38 da09 1bb9 c42d af36
00000030: 6309 ab35 4849 8db7 e6f0 16b9 395d fcb6
00000040: 2900 fcb8 d928 15b7 172c 0938 871b bd37
00000050: bb68 fcb7 8158 e7b8 dfaa a437 ae00 1938
00000060: 2a6c bc36 7667 7337 d0b1 8e38 90c7 8fb8
00000070: f698 2139 21d0 3ab6 d1dc c3b8 db14 b536
9.2451286e-05 1.3234854e-05 4.950919e-05 -8.347737e-06 -1.747932e-05 -8.4963904e-05 -3.4134894e-06 -3.6348345e-05
-1.5722944e-05 4.5194804e-05 -0.00014785622 5.2207342e-06 1.2743225e-06 -1.6842634e-05 -0.00014394856 -7.521038e-06
-0.00012016326 -8.890603e-06 3.2704407e-05 2.2543374e-05 -3.008951e-05 -0.000110314235 1.9629892e-05 3.6478676e-05
5.6154286e-06 1.4508018e-05 6.804208e-05 -6.855943e-05 0.00015411139 -2.7837307e-06 -9.339455e-05 5.3966482e-06

base.4.weight f4 [32]
00000000: c611 803f 46ce 7a3f 9e88 803f 6204 7f3f
00000010: 1b1c 813f f865 813f d945 7e3f 307e 803f
00000020: a9db 7d3f 11b1 7e3f 8e5d 823f 9e27 803f
00000030: 0282 7d3f 61fa 7e3f 915b 803f 3d59 7d3f
00000040: e69f 823f 4fe8 7e3f b67e 7f3f 274e 7e3f
00000050: 34a0 7e3f 4877 7e3f 51e7 7d3f bbb2 7e3f
00000060: 85b3 7f3f 152b 803f f0ec 7f3f 2808 803f
00000070: 14a1 803f 4d43 7c3f 8183 7e3f 299f 7f3f
1.0005424 0.97971 1.0041692 0.9961606 1.0086702 1.0109243 0.9932533 1.0038509
0.991633 0.9948893 1.0184801 1.001209 0.990265 0.996008 1.0027944 0.9896429
1.0205047 0.99573225 0.9980272 0.99338 0.994632 0.9940076 0.99181086 0.9949147
0.998833 1.0013148 0.9997091 1.0002489 1.0049157 0.9854019 0.9941941 0.99852234

base.4.bias f4 [32]
00000000: bd69 dbbb 1822 89bc 70f5 893b 0c07 d53a
00000010: 9f77 df3b 7f3c 713b 8896 97bb 3818 e63a
00000020: b857 4f3b dcd4 8fbb 0b39 273b c5f8 bfba
00000030: c758 39bc bad3 29bc b693 2c3b 821a b1bb
00000040: 6889 ba3b bd11 08bc 925c 97bb 94a8 8eb7
00000050: a2eb 63bb 1802 763b 4ec7 c5ba 7c98 93ba
00000060: 661b 9bbb 9c9a 14bb f7a1 a3bb 272f 813a
00000070: d04c 8ebb 23c3 3abb f30d 9b3a ac56 023c
-0.0066959546 -0.01673989 0.0042101666 0.001625271 0.00681968 0.003680974 -0.004626099 0.0017554825
0.0031637978 -0.0043893885 0.0025516178 -0.0014646283 -0.01131267 -0.010365421 0.002633316 -0.0054047713
0.0056926496 -0.00830501 -0.0046191895 -1.700622e-05 -0.00347779 0.003753787 -0.0015089305 -0.0011260654
-0.0047334908 -0.0022675162 -0.004993673 0.0009855971 -0.004342653 -0.0028497658 0.0011829719 0.0079552345

base.4.running_mean f4 [32]
00000000: 90c6 ee3d ba53 c23c bdf4 8f3b 97af 023c
00000010: 15c6 0abd a85e 9c3b 42ce b83c b835 cbbd
00000020: c3a3 4ebe 7de8 48bd bbbc 17be dbf3 fdbc
00000030: 1830 ad3d e6b4 003e f445 093d 5f0d 363d
00000040: fd86 143c fea5 0fbe 1407 803d 0dd4 8639
00000050: fbe6 a5bd 9e0a 453c f600 bfbd 4a72 07be
00000060: eaaa cabd 64f5 9ebd 55ab b6bd 4894 553e
00000070: e181 f8bd 5525 85bc 6b17 7fbd 9b8a 6ebd
0.116589665 0.023721565 0.0043931887 0.007976434 -0.033880312 0.004772026 0.022559289 -0.099223554
-0.20179658 -0.049049843 -0.14818089 -0.031000068 0.08456439 0.12569007 0.033513978 0.044446345
0.009065387 -0.14028165 0.0625135 0.00025716462 -0.08100697 0.012026457 -0.09326355 -0.13227192
-0.098958805 -0.07761648 -0.08919398 0.20857346 -0.121341474 -0.016253153 -0.062278192 -0.058237653

base.4.running_var f4 [32]
00000000: f644 a63c df2a dd3d 2277 4e3d cdd2 343d
00000010: 40a0 473d 87c1 483c 5dde db3d d61e e03c
00000020: fbc5 163e d14c 093e 9c00 803c d982 113d
00000030: 5740 3c3e 717f 613d 15a1 053d 14a1 143e
00000040: 0646 183d 3c44 1c3e cd93 8f3d 2582 e53c
00000050: 2ab0 e13d d366 1b3d 532a bd3d c3ae 033e
00000060: c9bc b63d de69 8b3d 8443 753d 7459 313d
00000070: 63e3 f53c 37f4 043e 8fa2 b93d e5da 483d
0.020296555 0.10799193 0.050406583 0.044146348 0.04873681 0.012253172 0.10735772 0.027358454
0.14723961 0.1340821 0.01562529 0.035525177 0.18383919 0.05505318 0.032624323 0.14514571
0.037176155 0.15260404 0.07010613 0.02801616 0.11019929 0.037939858 0.09236588 0.12859635
0.08922727 0.06807302 0.05987884 0.0432982 0.030015653 0.12983786 0.09064209 0.04903688

base.6.weight f4 [32, 32, 5, 5]
00000000: c5ee 3dbc 1b48 b43c c6b3 febc 5bf7 543c
00000010: 8594 833c 1318 0abd e6f0 7e3c 923f 83bc
00000020: 0642 603a feae 08bc d6ea f23c 0ce7 3e3c
00000030: c468 6ebc dadd cebc ee01 dbbc b592 babc
00000040: c75d 0fbd 5f66 b2bc b602 97bc 48b8 ef3b
00000050: 8abf 3fbc 1925 86bc 822b 83bb cdcf e83c
00000060: 6421 583c 0c3b c13c 0528 a8bc 04b7 843c
00000070: 6212 18bd 56c0 8cbc 7668 003d f899 343c
00000080: 9bce 9c3c 5cb5 603c 3ed1 053d 6c82 f63c
00000090: 6dfc 903b 170b 8c3c b665 15bc 6276 aa3c
000000a0: 5325 35bc aea4 1b3c ec75 a1bc 21b7 ac3b
000000b0: d99e c23c 9086 a33c 864e c3bc 03ad 003c
000000c0: 3d4c 66bc c1f8 1bbc fc38 b5bc 2cc4 97bc
000000d0: 4a1d 41bc 712d 073d 3a54 893c 2608 72bc
000000e0: bda4 a03c 7470 14bd 9a11 1ebc 517c 1ebc
000000f0: c8f6 783b a77d e63a e1fe 10bd 835b b7bc
00000100: 5333 a63c 69b8 34bc bf16 a1bc 771a 50bc
00000110: 7747 0f39 6ca9 6a3b a670 bf3c 243f 1b3d
00000120: 4e1b e63c b086 5c3b 4e5f 993c 908d 9cbc
00000130: 5d88 a3bc a4d3 e1bc c5e8 753b afaa b1bc
00000140: df48 d53c ddf3 c0bb 6d69 3abc 28fa a03b
00000150: c267 a539 768e b93c 7d48 0f3d 777d a7b9
00000160: 19b2 be3c 1c9b a2bc edb5 30bc c59a 07bd
00000170: fca0 f7bc 1ab9 81bb 7649 04bc 8be6 113d
00000180: 573b ce3c ddd3 c33c 288f aa3c 4f75 bc3c
00000190: b2f1 bdbb 2d34 993c 472f 1fbc 2e85 2a3a
000001a0: e262 f73b d2e8 8cbc 81a3 e33b 6e62 c9bc
000001b0: 7613 903c d574 2fbb 8bbb 3e3d f8e1 a03c
000001c0: 7621 553c 1fa1 95bb b65f 5ebc 2992 2c3d
000001d0: 1cc7 e13c 38d8 17bc 65f7 eb3c a6f9 d63c
000001e0: 548d f13c 8cd2 f73c c7e3 8abb 0afc 2bbb
000001f0: 5436 bdbc 0438 1dbd da5f 663a 9aef d63c
00000200: b9b9 183d 9b65 0d3a 4c15 173c 643e 51bc
00000210: ffdf 0a3d 44db 923c 2122 6ebb e7fc 193c
00000220: 6c46 eb3c 6dfc f73c dc99 1d3d 282d 5cbc
00000230: ac25 85ba b287 4abc ef13 c5bc f050 653c
00000240: 97f9 213c 88c4 263c 3e45 b4bc babe 813b
00000250: c839 cbbc 366b 2b3d 9cb2 b53c 3451 3fbc
00000260: 1abe 93bc a1e0 263b c8ba 94bb d0b0 2cbc
00000270: 71f0 8bbc 8138 59bc 6196 25bc df12 483c
00000280: c387 0abd 0e58 163c 455a 813c ec08 17bc
00000290: 7519 1cbb 6a00 9ebc 51fd 143d deaf ddbc
000002a0: 3c03 cb3c 3273 a2bc da1d 94bb 45fd 833c
000002b0: 7163 44bc f2db cb3c 315f 073c e3be 193c
000002c0: 6c88 f6bc 4626 1ebc 2f32 f7bb 2c09 1dbb
000002d0: bf50 24bd 9d6c 513a 787d a43b f80c c7bc
000002e0: 8ab1 25bd 6345 95bb eb33 273a 1a52 c3bc
000002f0: 4609 8dbc 11de 9dbc ace1 c93c b8c6 1fbd
00000300: c768 363b 4b8e 22bc 49ab 233b c620 78bb
00000310: 3f1f 043d 157d b5bc 9aae f9bc b157 953c
00000320: 60de e03c d905 933b 5716 8fbb 9cc0 e4bc
00000330: 02ad 9f3c cf09 9d3b ed43 f0bc 3335 f5bc
00000340: 8aa8 ab3c da80 e7bc 91a4 d33b c07c 64bc
00000350: b1b6 613c cba0 973c b4be 9dbc 09de aebc
00000360: c39e 0c3d da63 d43c 20c8 54bc 7e62 403c
00000370: 1799 dbbc 0172 8e3c c27b c33c 4bb3 5abb
00000380: 36be ab3c 7f67 afbc 6342 bfbc 3497 62bc
00000390: 9364 4a3c ca12 b7bc 046c 86bb da26 f3bb
000003a0: b31b 14bd b9e8 ad3c 3e24 0a3d 6dee 9b3c
000003b0: d991 0dbc 2c4c 203c 5476 19bd 868e 2d3c
000003c0: e0e0 293d 8b37 70bc cd40 80bc b30d bfbc
000003d0: 8ad9 0fbc 951d b23b 5a93 963c 36ee 8fbc
000003e0: 1c3c bd3c e35d b13b e2e7 693c a7d2 75bc
000003f0: 1258 833b fe10 ee3c 3cc8 653c 5b5a fd3b
-0.011592572 0.022007039 -0.031091582 0.012998427 0.01606203 -0.033714365 0.015560364 -0.016021524
0.000855476 -0.008342503 0.029652994 0.011651766 -0.014551345 -0.025252271 -0.026734319 -0.022775033
-0.035001542 -0.02177733 -0.01843391 0.007315669 -0.011703381 -0.016375111 -0.0040029893 0.0284194
0.013191555 0.023587726 -0.020526895 0.01620055 -0.037126906 -0.017181557 0.03134962 0.011023037
0.019141486 0.013715114 0.032670252 0.030091487 0.0044246227 0.017095132 -0.009118488 0.020808402
-0.011056262 0.009499712 -0.01970955 0.005270854 0.023757385 0.019961625 -0.023841154 0.007853749
-0.014056263 -0.009519757 -0.022121899 -0.01852616 -0.011786768 0.03300232 0.016763795 -0.014772451
0.019609803 -0.036240056 -0.009647751 -0.009673194 0.003798889 0.0017585055 -0.03539932 -0.022382503
0.020288145 -0.011030295 -0.019664166 -0.012701622 0.00013664165 0.003580655 0.023369145 0.037902012
0.028089192 0.0033649616 0.018722203 -0.019110471 -0.019962484 -0.027566738 0.0037522775 -0.021687834
0.026035724 -0.005888446 -0.0113776745 0.0049126334 0.00031548558 0.022650938 0.03498124 -0.000319462
0.023278283 -0.019849353 -0.010785562 -0.033106584 -0.03022813 -0.0039588334 -0.008074155 0.035620254
0.02517478 0.023904735 0.020820215 0.023005156 -0.0057966346 0.018701637 -0.009715862 0.00065048307
0.0075496295 -0.017200861 0.0069469814 -0.024583068 0.017587405 -0.0026772518 0.046565574 0.019639
0.013008466 -0.0045663263 -0.013572624 0.042131577 0.027560763 -0.009267859 0.02880449 0.026242089
0.029486336 0.030251764 -0.004238579 -0.0026242756 -0.023097195 -0.0383835 0.00087880867 0.026237298
0.037286494 0.00053938635 0.009221386 -0.012771223 0.033905026 0.01792682 -0.003633626 0.0093986755
0.028720103 0.030271733 0.03847681 -0.0134385 -0.0010158322 -0.012361454 -0.024057357 0.013996348
0.009886167 0.010178693 -0.022005673 0.003959504 -0.024807826 0.04185029 0.022179894 -0.011677075
-0.018034983 0.002546348 -0.0045388676 -0.010540202 -0.017082425 -0.0132581005 -0.010106654 0.0122115305
-0.03382088 0.009176267 0.015790114 -0.009218436 -0.0023818885 -0.019287307 0.036374394 -0.0270614
0.024781816 -0.01983032 -0.00452016 0.01611198 -0.011986599 0.024885152 0.0082624415 0.00938389
-0.030094348 -0.00965268 -0.007543824 -0.0023961766 -0.040116068 0.0007988902 0.00501984 -0.024298176
-0.040452518 -0.0045553907 0.0006378281 -0.02384286 -0.017216336 -0.019270929 0.024643742 -0.039007872
0.0027833448 -0.009921621 0.002497392 -0.0037861331 0.03225636 -0.02215437 -0.030478764 0.018230291
0.027449787 0.004486781 -0.004366677 -0.027923875 0.019491676 0.004792429 -0.029329265 -0.029932594
0.02095439 -0.028259683 0.006458827 -0.013945758 0.013776467 0.01850929 -0.019255973 -0.021346109
0.034331094 0.02592652 -0.012987167 0.011742232 -0.026806397 0.017388346 0.023862723 -0.0033371027
0.020964723 -0.021411655 -0.023347085 -0.013829995 0.01235308 -0.022347827 -0.004102232 -0.007420403
-0.03615923 0.021229135 0.03372597 0.019034589 -0.00864073 0.009783786 -0.037466362 0.010593062
0.041474223 -0.01466168 -0.0156559 -0.023321962 -0.008779893 0.0054356554 0.01838081 -0.017569643
0.023099951 0.0054128035 0.014276477 -0.015003837 0.0040083015 0.029060837 0.01402479 0.0077317185

base.6.bias f4 [32]
00000000: 244a c037 caf3 1db7 333c 5ab7 24ea 8eb8
00000010: 2ee4 44b8 e281 2db5 d391 0e35 d7ac 3437
00000020: 2535 13b8 4781 7537 308a 0337 b6e3 f336
00000030: f74a a937 e02b ca36 ee9b 7236 dd2e 4035
00000040: 818f 1b38 669f 3735 cc1a 8936 58d0 9cb7
00000050: 78b5 bd37 b2ab 8037 8fda d535 456d 8137
00000060: 5ea1 3037 2ead 0138 23ae c1b6 7a6d 3937
00000070: bcf3 ce37 1665 52b6 2036 2536 8465 e8b6
2.2922708e-05 -9.414691e-06 -1.3007829e-05 -6.8147e-05 -4.694255e-05 -6.4636527e-07 5.3111324e-07 1.07690785e-05
-3.5097026e-05 1.4633238e-05 7.840383e-06 7.2684734e-06 2.0181278e-05 6.025177e-06 3.6151573e-06 7.159377e-07
3.708853e-05 6.840477e-07 4.0860377e-06 -1.8693667e-05 2.2615059e-05 1.5338741e-05 1.5933346e-06 1.5428881e-05
1.0527989e-05 3.0917283e-05 -5.7721204e-06 1.1052349e-05 2.4670611e-05 -3.1351278e-06 2.461842e-06 -6.9259568e-06

base.7.weight f4 [32]
00000000: 8556 853f 8b52 843f 1f14 883f d056 863f
00000010: 0d9f 833f 81b4 833f 5cd8 843f ecaa 833f
00000020: 8e52 873f 6b6f 873f 6fd1 843f ed78 833f
00000030: 6238 833f fae4 843f 1342 853f 5160 863f
00000040: 530e 853f 008c 873f 250b 853f 3591 843f
00000050: c8b7 833f f5ff 853f 8e88 833f 96ef 873f
00000060: 93fb 863f e13c 863f 6438 863f b8a1 833f
00000070: b3dc 873f ddb6 853f 11d1 833f 3cf5 853f
1.0417029 1.033769 1.063114 1.0495243 1.0282913 1.028946 1.0378528 1.0286536
1.0572069 1.0580877 1.0376414 1.0271279 1.0251582 1.0382378 1.0410789 1.0498143
1.0394996 1.05896 1.0394026 1.0356814 1.029046 1.0468737 1.0276048 1.0619991
1.0545524 1.0487329 1.0485959 1.0283728 1.0614227 1.044643 1.0298177 1.0465465

base.7.bias f4 [32]
00000000: 1678 4a3c dbf8 1c3c 3139 ca3c 0a9d c03c
00000010: bf0a 323c 6340 bd3c a301 ae3c 211a 953c
00000020: 7c46 f83c b311 d23c 4a2f 623c 25ad 9e3c
00000030: 26b6 353c f671 153c 9e74 003d fdc7 d83c
00000040: 5405 423c 084a a23c 3237 a93c e2e7 833c
00000050: 9be4 803c 8d8a 713c 8093 a43c 3003 d53c
00000060: 41d3 153d 3bd1 833c ab07 043d 7d27 d13b
00000070: 164e 7c3c 7cc9 dc3c b5d7 113c 9c32 b43c
0.012357732 0.009580816 0.024685474 0.023512382 0.01086682 0.023101991 0.021241015 0.018200936
0.030307047 0.025643205 0.01380522 0.019369671 0.011090791 0.009121409 0.031361215 0.02646255
0.011842091 0.019810691 0.020656202 0.016101781 0.015734008 0.014742506 0.020089865 0.026002496
0.03657842 0.01609098 0.032233875 0.006382881 0.0153994765 0.026951544 0.008901526 0.021996789

base.7.running_mean f4 [32]
00000000: 83d7 843d 7ddf d03e 9987 373e d7f6 babd
00000010: d126 84bd e5b3 b23d a15c 243d b2a2 023e
00000020: 4a22 7e3e 4a68 b83c a9a9 bfbd 7569 5e3c
00000030: 08a6 883e c49b 2abe 4894 513e 31ff 103d
00000040: b5dc 1b3e 4032 593e 42d4 1e3e 1d49 d13c
00000050: 31ad 1bbe cc2c 653d a8d9 a03e 688e 933e
00000060: a41c 6d3e fd39 44be 0769 323e ca72 e9bc
00000070: c297 2bbe adb3 023e 5d57 553d 4355 e53c
0.06486418 0.40795508 0.1792282 -0.09129112 -0.06452716 0.087257184 0.0401274 0.12757376
0.24817768 0.022510666 -0.09358532 0.013574948 0.26689172 -0.16660982 0.20466721 0.03539962
0.15220912 0.21210575 0.15510657 0.025547558 -0.15202786 0.055950925 0.3141606 0.28819585
0.23155457 -0.19162746 0.17422877 -0.028497119 -0.1675711 0.12763853 0.05208527 0.027994758

base.7.running_var f4 [32]
00000000: 1ca1 af3d 881d 033e d626 2d3d f2b5 093d
00000010: 8449 133d af9f 4f3d 1852 f83d 58f7 993d
00000020: 5b87 4a3d 4880 fb3c f354 ab3d 03ce c13d
00000030: d384 383e d099 803d 8797 b33d 1752 a33d
00000040: f60b 3b3d dc50 033d 2a65 113e 6b77 193d
00000050: fd85 6b3d 4fb9 473d c2a5 8f3d 64e2 0b3e
00000060: 0b79 0f3d 5ffc 853d c40e d73c 8139 383d
00000070: cc5b 363d e5f6 1c3d 7b23 e83d a586 633d
0.08575651 0.12804234 0.042273365 0.033620782 0.03595878 0.050689396 0.12125033 0.0751788
0.04944549 0.030700818 0.08365812 0.09463122 0.18019418 0.062793374 0.08769136 0.07974642
0.045665704 0.032059535 0.14198747 0.0374674 0.057500828 0.04876071 0.07014038 0.1366058
0.035027545 0.065422766 0.026252158 0.044976715 0.044521138 0.038321394 0.11334892 0.05554833

head.0.weight f4 [24, 1024]
00000000: d9a0 e23c b173 e33c 610f 0f3d 57f5 dc3c
00000010: 2815 d93c 80c8 ba3b d792 113d 6647 edbc
00000020: 8fa5 30bc 0049 0a3d 9a09 7d3c 30e4 513c
00000030: b09e 8a3c 1cc6 e23c 0a99 e23c 08df 423d
00000040: 9d20 0000 b3b5 0000 da88 72ba 6cfa f3ba
00000050: 814e 50bb 430e de3c 2b59 973c 5c9e 2bbd
00000060: 55c1 c53c 1c06 053d 69a2 033b 8f77 6eb8
00000070: dd1c 8137 9a3a 0000 9a3a 0000 9a3a 0000
00000080: 5056 0080 5056 0080 2a38 0000 0199 20ba
00000090: dba4 d6ba 0241 e9bb 07cc c5ba 2eb9 d63c
000000a0: a7fe 21bb 614a 553c c41a c03b b7e6 1f3a
000000b0: 5056 0080 5056 0080 5056 0080 5056 0080
000000c0: 1608 423d 8632 7e3c 7908 993b 545d 0e3c
000000d0: 185a 303d 8914 4fbc 4313 acbc c763 023d
000000e0: 0a1e 603c b437 573c 7e8e de3b bf7a 393c
000000f0: ea0a d13c ee8e 893c 26c5 e33c 251e 563d
00000100: 8bb3 e83c 0259 1d3d f63b 1b3d 1564 103d
00000110: a456 973c f5dd cc3c 124f 663b 846a 6d3c
00000120: cda0 07bd 58e3 a2bc a3c1 093d cb8a a53c
00000130: 2a1b 163d 8dc2 283d b988 303d 1901 853c
00000140: 8cf9 9d3c 1875 973c b2b5 903c f8ee 563c
00000150: dd9e f0ba 4d0e 68bc 35cb da3b 1cc6 e93c
00000160: 74d6 f33b 625c 50bc b53d d03b 495d 913c
00000170: 2ab1 9b3c ae92 9b3c 77b9 9b3c 77b9 9b3c
00000180: 6857 e9b9 6857 e9b9 de86 32ba c429 e2ba
00000190: 6efb 803b 6ac2 d2bc 4c0f 8b3c 41ee 5a3d
000001a0: fe81 043d 1a56 be3c f90a 90bc 6ce8 2dbc
000001b0: 1a2c e9b9 6857 e9b9 6857 e9b9 6857 e9b9
000001c0: 6533 fdba c91a aa3b a654 41bc 188a 79bc
000001d0: c6e9 1f3c 811f e93c bdca 263d dd3b bebb
000001e0: 702e 79bb 12d5 ff3b 3652 ffbc efdc 0fbd
000001f0: 80f9 08bc 3e3d 39bc 972c eabc c32a 1ebd
00000200: 09e9 ed3a cf2f ea3a 0574 e53a 144f c439
00000210: 2a0e 0fba 6ed2 9a3a 593a 9d3c 2a3e b63b
00000220: ba63 163b 3af9 cabc 4b18 04bb ad91 dc3b
00000230: a6b1 e93a 09e9 ed3a 09e9 ed3a 09e9 ed3a
00000240: 71e0 943a b43a 8ebb a898 793b 0c8f 223c
00000250: be20 35bc d375 03bd 2f6d cc3b b3fa d8bc
00000260: dc68 0d3c 9fc2 143d 798d 71bc edf0 9cbb
00000270: 4d3c 7bbb bb69 a13c 4f3e 983b ae88 40b9
00000280: c667 3fbb 6287 acbc d3ee 42bc 6544 25bd
00000290: 6629 26bd 8e83 b73b a13c f83b de45 1f3d
000002a0: 703d 60bc c486 81bc ad03 013c 2e86 e7bc
000002b0: 1663 f63b 3d8d cabc d768 0abd 8566 c4bc
000002c0: 4eee 51ba c8a1 8aba 58e2 43bb 91b7 b7bb
000002d0: 02d9 dc3b d165 8b3b 5093 26bc 8560 213b
000002e0: abb3 5f3b 0fe8 9c3c 1c98 ea3c a64b 18bc
000002f0: f14c 9fba 790e 68ba 2631 67ba 87b2 67ba
00000300: 9ff1 343c add3 303c ab5c 153c bb9e d73b
00000310: 7a7a b63b d9a7 2e3c d135 f53c 6fb6 193c
00000320: fa41 8ebc c100 113d 2342 bd3b d281 283c
00000330: b36d 313c 4b7b 333c 4b7b 333c 4b7b 333c
00000340: 3d95 e03c 897b 543c 4ba9 b23c 634d dbbb
00000350: 9116 133d a250 a6bc c257 21bd 7905 853c
00000360: f08d 3f3c 10c7 48bc 9107 123c 331e 163d
00000370: f942 bd3c 226b 073d e296 bf3c d252 5ebc
00000380: 85b2 20ba d1fa 30ba 2429 13bb 15a1 41bb
00000390: adea d838 52a8 513b 247b 4a3c 3f84 a53b
000003a0: 1c65 1bbc 1ccf f73c 1201 8e3b 4d80 4838
000003b0: 8f60 31ba acc6 1aba acc6 1aba acc6 1aba
000003c0: a42a b2bc 92d9 f8bc e216 06bd a3e3 ddbc
000003d0: 96a8 7a3b 0851 803c c414 7cba b9ed 973c
000003e0: 35c8 aa3c d5fc 76bc 4f4e 5bbb e44a eb3b
000003f0: 0803 38bc dc36 c7bc 3fdd 12ba 0168 acbb
0.027664589 0.027765127 0.034926776 0.026972456 0.026499346 0.005700171 0.035540428 -0.02896471
-0.01078166 0.033761024 0.015444184 0.012810752 0.016921371 0.027682357 0.027660865 0.04757598
1.17e-41 6.5181e-41 -0.000925196 -0.001861406 -0.0031785073 0.02710641 0.018475136 -0.04189907
0.02414004 0.03247653 0.0020085818 -5.685497e-05 1.5391439e-05 2.1022e-41 2.1022e-41 2.1022e-41
-3.0963e-41 -3.0963e-41 2.0148e-41 -0.0006126315 -0.0016376035 -0.0071183452 -0.0015090712 0.026211347
-0.0024718435 0.013018222 0.0058625657 0.0006099748 -3.0963e-41 -3.0963e-41 -3.0963e-41 -3.0963e-41
0.047370993 0.015514975 0.0046701995 0.008689243 0.04305467 -0.012639173 -0.021005278 0.031833436
0.013679037 0.013135839 0.0067918887 0.011320769 0.0255179 0.016791787 0.027803969 0.05227484
0.028405925 0.038414963 0.03789898 0.035251696 0.01847393 0.025008181 0.0035142344 0.014490727
-0.033112336 -0.019883797 0.033631932 0.020207783 0.036647 0.041201163 0.04309914 0.016235875
0.019284032 0.018488452 0.017664764 0.013118498 -0.0018357892 -0.014163566 0.006677056 0.028536849
0.0074413363 -0.012717338 0.0063550123 0.017744677 0.019005377 0.01899084 0.019009335 0.019009335
-0.00044506346 -0.00044506346 -0.0006810258 -0.0017254879 0.0039362228 -0.02572747 0.016975068 0.053449873
0.032350533 0.023234416 -0.017583357 -0.010614496 -0.0004447408 -0.00044506346 -0.00044506346 -0.00044506346
-0.0019317685 0.0051911813 -0.011799967 -0.015230678 0.009760326 0.028457405 0.04072069 -0.005805476
-0.0038022064 0.0078073824 -0.03116713 -0.035122808 -0.008360267 -0.011306105 -0.028585715 -0.038615
0.0018151115 0.0017867031 0.001750589 0.0003744295 -0.00054571277 0.001181198 0.019192861 0.0055616098
0.0022947625 -0.024777044 -0.0020156081 0.006731233 0.0017829433 0.0018151115 0.0018151115 0.0018151115
0.0011358393 -0.004340494 0.0038085375 0.0099218 -0.01105517 -0.032094788 0.0062386016 -0.02648673
0.008630957 0.036318418 -0.014743202 -0.004789463 -0.0038335503 0.019703737 0.0046460996 -0.00018361464
-0.002920614 -0.02106065 -0.01189776 -0.04034843 -0.040566824 0.0056003993 0.007575587 0.03888499
-0.013686523 -0.015811332 0.0078744115 -0.028262224 0.007519136 -0.02472555 -0.03379139 -0.023974666
-0.00080082275 -0.0010576779 -0.002988955 -0.0056065996 0.0067397365 0.004254081 -0.010166958 0.002462418
0.003413419 0.019153623 0.028636985 -0.00929538 -0.0012153668 -0.0008852254 -0.00088192744 -0.00088385533
0.011043935 0.010792655 0.009116332 0.0065802014 0.0055687996 0.010660135 0.029932888 0.009381874
-0.017365444 0.03540111 0.0057757064 0.010284858 0.010829377 0.010954688 0.010954688 0.010954688
0.027414912 0.012968906 0.02180924 -0.006692575 0.035910193 -0.02030212 -0.039390333 0.016237961
0.011691555 -0.012254491 0.008912937 0.036649894 0.023103224 0.033061154 0.023387376 -0.013569551
-0.0006130117 -0.0006751242 -0.0022454942 -0.0029545475 0.000103433944 0.0031991196 0.012358461 0.0050511654
-0.009484556 0.030250125 0.0043336237 4.7803205e-05 -0.00067664025 -0.0005904238 -0.0005904238 -0.0005904238
-0.021748848 -0.030377183 -0.032736667 -0.027086085 0.0038247458 0.015663639 -0.00096161314 0.018545972
0.02084742 -0.015074928 -0.0033463424 0.0071805585 -0.011231191 -0.024318151 -0.0005602426 -0.0052614217

head.0.bias f4 [24]
00000000: 91ed 84bc 47a0 f73c 8521 0d3d bbd1 533c
00000010: 78a5 75bc ea92 a1bc 3f2d ba3c a7d5 593a
00000020: df4f 61bb 6330 083b 76b1 9fbb 8ed3 b63a
00000030: 2f9f 043c 5683 7b3b 1030 1dbc 0631 093d
00000040: 47e7 073d 5722 ce3b 864e aabc fafb dd3b
00000050: 54c5 0fbc fbb9 0c3c aaa2 00bc 5cad 053d
-0.016226562 0.030227793 0.034455795 0.012928422 -0.014993064 -0.019723374 0.022726653 0.000830973
-0.0034379882 0.0020780794 -0.00487345 0.0013948546 0.008094593 0.0038377843 -0.0095939785 0.033494018
0.033179548 0.0062907147 -0.020789396 0.0067744227 -0.008775074 0.008589263 -0.007851282 0.03263603

head.2.weight f4 [2, 24]
00000000: 37c7 df3d 65c5 073e d7fb 233d d63c 64bd
00000010: ae32 3f3e 2cbc 993d 375e b53d 6a5a 27bd
00000020: 1759 5dbe 75c5 7ebe 4a12 4c3c 2825 7ebe
00000030: 2ecf 16be 04ce 383d 8535 1ebc b340 323e
00000040: 6f54 513e 6c31 0d3e a42e 50be a8f2 603e
00000050: 3b10 5dbe 6652 633c cbb5 ad3c a502 143e
00000060: ada7 2bbe ed08 b5bd b7b8 523e 66a7 e83d
00000070: de84 19be 6471 73be 713a 87bc 7287 593e
00000080: bd54 833c a379 f13d fa52 80be 6dff 613d
00000090: 6f0c 7cbe 245a 5d3e 6ed1 3c3e 0522 bcbd
000000a0: 7f56 22be 459d 8ebd fba2 5e3e ef42 1dbe
000000b0: e99d c73d c51f 283e 8437 fc3d c169 2abe
0.10926669 0.13258894 0.040035095 -0.05572208 0.18671677 0.07506594 0.08855861 -0.04085771
-0.21616016 -0.24880011 0.012455532 -0.24818861 -0.1472747 0.045118347 -0.009656315 0.17407493
0.20442365 0.13788384 -0.20330292 0.21967566 -0.21588223 0.013874626 0.02120485 0.14454134
-0.16763182 -0.08839593 0.20578276 0.11360054 -0.14992091 -0.23773724 -0.01650736 0.21243075
0.016031617 0.117907785 -0.25063306 0.055175234 -0.24614118 0.21616417 0.18439266 -0.09186176
-0.15853308 -0.069635905 0.2174186 -0.15357564 0.09746916 0.16418369 0.12315276 -0.16641904

head.2.bias f4 [2]
00000000: 4cef ab3c b7ed 803c
0.02098813 0.015738351
