models/AC-RM-2 Q_LR=0.001 P_LR=5e-06 BATCH_SIZE=128 GAMMA=0.99 MEMORY_SIZE=150000 BETA=0.05_policy_3472.pt (torch, 319747 bytes, 22 tensors)

base.0.weight f4 [32, 2, 5, 5]
00000000: 3a88 b23d c050 01bc 9824 f53d 02ec b63d
00000010: bd5c c4bd 735d 33bc c702 a93d 6456 12be
00000020: 153c 02be fbb1 6bbd 5d58 dc3d 9e9e 853d
00000030: 4775 08be e34d 74bd f18f 54bd 7853 9d3c
00000040: 2e17 c43b d17b ce3d 2907 c2bd 3b31 82bd
00000050: ea89 923b 8b31 95bc f930 50bd 5407 c7bd
00000060: d311 24bb 54bb a5bc 492a f93d 8a45 023e
00000070: e4a0 863d 7e8b bf3d 0e98 f9bc 6e25 9a3d
00000080: c713 debd 5c65 89bd f420 fabd 31c0 9a3d
00000090: 9913 97bd 42d1 c43b fa41 f1bd 2ebd 813d
000000a0: 86ef 253d 995c 813d 2ce1 f73d 4a99 723d
000000b0: 42d5 833b 3fa7 693d 7df5 a2bc a080 b33c
000000c0: aa2a 9cbc f407 f1bd 9cb4 78bd 2237 52bd
000000d0: eb03 ebbd 9bb3 fe3d fa83 75bd c30d 9bbd
000000e0: a150 9e3c d20d 283c ce56 5cbc f0f8 b43d
000000f0: 7241 af3c 21a5 a63d 0e5a 02be 9943 36bd
00000100: e916 fabd 0fc3 853c 5a34 adbd c8a2 b53c
00000110: 04e1 823d e652 ea3d e006 bbbb 193e a5bd
00000120: fb35 16be 8aaf 913d 94ec ffbd 1395 01bd
00000130: d06d bfbc d6e1 30bc 0c81 b0bd dba6 16be
00000140: d248 953d ef81 103e 259d 933d d639 d23d
00000150: b1a0 b13d 06c1 853d 9597 9bbc 3a93 343b
00000160: 1646 983c a33e 873d ebb4 3a3c 4f30 993b
00000170: c580 debc bb3c 4cbd f334 4dbd cff1 f8bd
00000180: 84b7 d13d a7af f63d 0019 653d 3e82 b53d
00000190: 2a53 4dbd d948 073d 7d12 84bd 9dd4 84bb
000001a0: 7474 483d 8506 0b3d ddd8 723d a58c ccbc
000001b0: 510d 76bc 280b f8bc ee69 9d3d 4a5d 053b
000001c0: 71fa 263d 4dce febd b3bc eb3d 0053 053e
000001d0: 6087 923d 69ec d23d 2c86 d53d b3e8 e53d
000001e0: 5633 a2bd 1232 583d 4176 053d ed60 893d
000001f0: 3f2a f33d 3ff1 03bd d487 833d cb8c ba3d
00000200: 9869 0cbd 79ff 3cbc 3fe7 45bd 36b7 23bd
00000210: e24c 9cbd 7f3a ccbd 7a9f f6bd 0f3a 673a
00000220: 1ef9 943d cd2a 663d 2b9b 19bd 93f1 7a3c
00000230: 5da5 24bd 6b18 e5bc e8f8 28bd 8203 28bd
00000240: 0742 573d 0365 7c3d 0c6f 62bd abd1 e13d
00000250: 7bcf 863d 9744 e73d 2a8e d63c 2a50 cf3d
00000260: e5de f23c a49d bf3d 0491 84bd c024 fe3d
00000270: 936b ae3c 2133 013e ab11 06bd 2c56 c3bd
00000280: f765 e3bd 9b84 0abd a7bd 23bd 6b54 a93d
00000290: 42c9 de3d 4983 f63c 6bee aabd 4fd4 ca3d
000002a0: 10b0 eebd 2bbe f2bd 8a6a b3bd cda2 ca3d
000002b0: cfc0 54bd 7013 a03d ce45 ad3d 699c 01bd
000002c0: 0e14 023e 9780 17bd bbab 6fbc 3242 0b3d
000002d0: 8979 9fbd c954 ed3d adc5 c7bc 51b3 3f3d
000002e0: a46d d83c 5e70 b9bd 244c 863d 4a4c fabc
000002f0: d620 02be f473 96bd cb3a d83d e460 06bd
00000300: 4d4a 38bd ff18 d5bd fa03 cabd 50be 07be
00000310: 0836 033e 7885 a8bd 417c 12bd 0b5b b2bd
00000320: 8e5c 05bd b06b 063e b094 e2bd 7bfd bd3d
00000330: 2168 f13d 86cf b63c c6d0 0dbd e16b 09be
00000340: 764f 1d3d d59b 833d 5c22 8fbd 423c 78bc
00000350: 2245 a13d da5f 88bc f793 95bd 7ba2 b5bd
00000360: 4c67 383d eab3 603d 0a32 0abe 5731 d9bc
00000370: 7899 9e3d 6204 80bd b899 3a3d 2d9f be3d
00000380: 436c d6bd 2595 dcbd de14 0ebe 2f71 183d
00000390: f650 00bd 7d4a 11bd a40b f93d 3341 e5bd
000003a0: 8d5e 093e 4f49 f7bd 4e46 11be c106 8fbd
000003b0: fbd6 9b3d fb09 b43d 16a3 5abd 387b f13d
000003c0: eabc 11be 8940 01bc 6a36 553d 53f0 9d3d
000003d0: 8ee8 b6bd 94eb b4bb 0d23 a4bd 4044 e33d
000003e0: 4605 8abd 153b b2bd a2e4 03be f302 0c3e
000003f0: 89ec ba3c b0e0 9cbd b0f2 663d f944 2abc
0.087173894 -0.007892787 0.1196987 0.08931734 -0.09588001 -0.010947573 0.08252483 -0.14290768
-0.12718232 -0.057542782 0.107590415 0.065243945 -0.13325988 -0.05964459 -0.051895086 0.01920484
0.0059842085 0.1008221 -0.09474022 -0.06357046 0.004472007 -0.0182121 -0.050827954 -0.097181946
-0.0025035038 -0.020230927 0.121662684 0.1272184 0.06573656 0.09352778 -0.030468013 0.075266704
-0.10843616 -0.06708786 -0.122133166 0.07556189 -0.07376785 0.006006391 -0.11780162 0.06334911
0.04051163 0.0631649 0.12103495 0.05922822 0.004023225 0.057044264 -0.019892449 0.02191192
-0.019063313 -0.11769095 -0.060719118 -0.05132211 -0.11475357 0.12436601 -0.059940316 -0.07570984
0.019325556 0.010257201 -0.01344843 0.088365436 0.021393511 0.081369646 -0.12729666 -0.04449806
-0.12211401 0.016328363 -0.08457251 0.022172347 0.063905746 0.11441593 -0.0057076067 -0.08068485
-0.1466903 0.071135595 -0.124962956 -0.03163631 -0.023367792 -0.010796031 -0.08618364 -0.14712088
0.0728928 0.14112066 0.07207707 0.102649376 0.086732276 0.06530957 -0.018993178 0.0027553574
0.018588107 0.06603744 0.011395673 0.0046749483 -0.027161011 -0.049862605 -0.050099324 -0.12155496
0.10240081 0.12045222 0.055932045 0.08862732 -0.05012814 0.033028457 -0.06448839 -0.004053666
0.048939183 0.033941764 0.05928885 -0.024969408 -0.015017823 -0.030278757 0.0768622 0.0020349794
0.040766183 -0.124416925 0.11510601 0.13019943 0.07154727 0.10298998 0.10425982 0.112260245
-0.07919948 0.052782126 0.03258348 0.0670794 0.11873292 -0.032212492 0.064223915 0.091088854
-0.03428039 -0.011535519 -0.048316237 -0.039969645 -0.07631852 -0.09972095 -0.120421365 0.0008820602
0.07274078 0.05619316 -0.037501495 0.015316385 -0.040196765 -0.027965745 -0.041253 -0.04101897
0.052553203 0.06161977 -0.055281684 0.11026319 0.065825425 0.11292379 0.026190836 0.10122712
0.0296473 0.093562394 -0.06472972 0.12409353 0.02129153 0.1261716 -0.032731693 -0.0953792
-0.111034326 -0.03381787 -0.03997579 0.082680546 0.10878231 0.030091899 -0.08346256 0.09903776
-0.11654675 -0.11852678 -0.08760555 0.09894333 -0.05194169 0.078162074 0.0846058 -0.031643305
0.12702963 -0.036987867 -0.014628346 0.033998676 -0.07786853 0.11588437 -0.024386251 0.04680187
0.026419468 -0.090546355 0.065574914 -0.030553956 -0.12707838 -0.07346335 0.10558089 -0.032807246
-0.044992734 -0.10405158 -0.0986404 -0.13256192 0.1281358 -0.08228582 -0.03576303 -0.08708771
-0.03255897 0.13127017 -0.11063516 0.09276863 0.11787439 0.022315752 -0.03462293 -0.13420059
0.038405858 0.06426207 -0.069889754 -0.015151085 0.07874514 -0.016647268 -0.07303613 -0.08868881
0.045020387 0.05485908 -0.13495651 -0.026512785 0.077441156 -0.06250836 0.045556754 0.09307704
-0.10469868 -0.107706346 -0.13875148 0.037217315 -0.03132721 -0.03547143 0.121604234 -0.111940764
0.13414975 -0.120745294 -0.14186975 -0.0698371 0.07609364 0.08790966 -0.053378187 0.1179108
-0.14232221 -0.007888922 0.052053846 0.07711854 -0.08931075 -0.005521247 -0.08014498 0.11097002
-0.06739287 -0.08702675 -0.12880185 0.13673 0.022817867 -0.07660043 0.05638379 -0.010392421

base.0.bias f4 [32]
00000000: decc fdb7 e763 9d39 fea5 2639 83dd 0f39
00000010: fdd8 eab7 24f0 a738 6de4 66b9 449f 293a
00000020: fd8e 3737 baf5 ca39 9e55 40b9 2f9d cab8
00000030: e96c 54b7 2a72 8a39 b73b 99b9 e843 81b9
00000040: e278 a5b9 514f 4cb9 bdb6 5539 1d2c c438
00000050: 78ef 083a 91fa 4b39 b1e1 95b9 be27 aa37
00000060: 0cb2 ed39 fd7d a9b9 68b1 e337 bb90 beb8
00000070: fcfa f3b8 e27a 3939 d50a a139 2fbf 45b7
-3.0255349e-05 0.00030019807 0.0001589283 0.00013720062 -2.7996017e-05 8.00791e-05 -0.00022019605 0.0006470571
1.0940942e-05 0.00038711523 -0.00018342442 -9.661388e-05 -1.2661542e-05 0.0002640647 -0.00029226925 -0.00024655391
-0.00031561317 -0.00019484504 0.00020381338 9.354225e-05 0.0005223672 0.00019452932 -0.00028587648 2.0284086e-05
0.00045336818 -0.0003232806 2.714312e-05 -9.086864e-05 -0.000116338924 0.00017688752 0.00030716383 -1.1786628e-05

base.1.weight f4 [32]
00000000: b1f0 7c3f 8219 813f 2bd3 7e3f adfa 7f3f
00000010: 6a00 7d3f 4355 7d3f f82c 803f d8e6 803f
00000020: b882 7d3f fa9f 813f f6f9 7e3f 73c6 7f3f
00000030: 310a 7b3f 4c1f 7d3f 2fd5 813f f6fc 7d3f
00000040: 85ae 803f 3e9f 833f 44a5 7e3f 357b 7f3f
00000050: d2e4 7e3f eecd 7d3f 1ed7 803f 6335 7c3f
00000060: d4df 7e3f f3d5 7c3f 88f0 7e3f d020 7c3f
00000070: 2db1 803f f81c 7e3f eb42 823f f225 813f
0.98804766 1.0085909 0.99540967 0.99991876 0.98828757 0.98958224 1.0013723 1.0070448
0.99027586 1.0126946 0.9960016 0.99912184 0.98062426 0.9887588 1.0143183 0.9921411
1.0053259 1.0282972 0.99470925 0.99797374 0.995679 0.9914235 1.0065649 0.9851896
0.99560285 0.9876396 0.9958577 0.9848757 1.005407 0.9926295 1.0176672 1.0089705

base.1.bias f4 [32]
00000000: 2a0a dbbb fc31 d13b 3908 ad3b 5a2c 623b
00000010: aae1 8039 03d5 f038 d8c9 103b 9754 dcbb
00000020: 1455 acbb c7bd 4f3c d319 ca3b 3806 483b
00000030: bb16 4cbc a364 56bb a85c ce3b ace7 273b
00000040: 24a3 c73b 92ce 1e3a bf6a 3cbc ecff e43b
00000050: 66e2 a3bb 0204 a33a 34b3 96ba 6555 e7bb
00000060: 502d 3abb 35de 19bc 8655 053b 5019 7fbc
00000070: 0aca 203c dea7 a1bb 2b8e a63b edd3 143b
-0.0066845613 0.0063841324 0.005280521 0.00345113 0.00024582195 0.00011483768 0.0022092965 -0.006723951
-0.0052591655 0.012679524 0.0061676293 0.0030521285 -0.012456591 -0.0032713793 0.0062976666 0.0025620265
0.006092446 0.0006058003 -0.01150006 0.006988516 -0.005001354 0.0012437108 -0.0011497498 -0.0070597404
-0.0028408356 -0.009391357 0.0020345165 -0.01557 0.009813795 -0.0049333414 0.0050828657 0.0022709325

base.1.running_mean f4 [32]
00000000: bdf0 f1bc 36e7 17bd e0fa 483f 374a 4bbe
00000010: f9f2 00bf f3d1 33bf 3be6 52be 1c7b 1e3e
00000020: 5ca0 973f 7221 a43d e6a5 9e3e 4252 b1bd
00000030: 3d53 80bf 1867 2abe 0f1e 853c 8ea2 893e
00000040: 17d1 053e 82f8 533e b369 aabe 38d2 da3e
00000050: 3f1b 153e 07c2 443f d4a0 83bd 950b 81be
00000060: aecc f4be be2d 06be f354 843e f451 dfbe
00000070: f1c9 7e3d 4e37 2e3f f09a acbd 05e1 023e
-0.029533738 -0.037085734 0.78507805 -0.1985253 -0.50370747 -0.7024223 -0.20595638 0.1547665
1.1845813 0.08014192 0.30985945 -0.086582676 -1.0025402 -0.1664089 0.016249685 0.26881832
0.13068043 0.20700267 -0.33283767 0.4273851 0.14561175 0.7685856 -0.0642716 -0.2520415
-0.47812408 -0.13103387 0.2584606 -0.43617213 0.062204305 0.6805314 -0.084279895 0.1278115

base.1.running_var f4 [32]
00000000: c38f 893b f77b e039 de8c 283c 2878 3c3b
00000010: 72a2 4f3b 8c21 b53b 8846 003b e6a2 2b3a
00000020: b808 633c 648c a839 9cd8 313b ce12 e83a
00000030: 4c81 3e3c 81c1 883a e2b1 da38 a19a 233b
00000040: 3221 193a a207 7f3a 81dc 203b 73d8 063b
00000050: fe84 153a 6532 063c 59ea fc39 b978 f33a
00000060: 8bcf 403b 66d9 663a 1bed e83a 83c4 7c3b
00000070: 758f 553a c415 a13b 6479 a63a b9b5 e23a
0.004198046 0.0004281697 0.010287492 0.0028758142 0.0031682518 0.0055276807 0.001957329 0.0006547406
0.013857059 0.00032148056 0.0027137166 0.00177058 0.011627506 0.0010433645 0.00010428183 0.0024963992
0.00058414333 0.00097286154 0.0024545493 0.002057579 0.00057037163 0.008190726 0.00048239788 0.0018575407
0.002942058 0.00088061986 0.0017770858 0.0038569279 0.0008146682 0.0049159247 0.0012700972 0.0017296589

base.3.weight f4 [32, 32, 5, 5]
00000000: 0d16 d2bb 73a8 833c e8c3 32bd 6000 b1ba
00000010: 178b b43c 1431 ae3b 8c5b b0bc 9a8d b23a
00000020: c28e 5abc 2a66 ae3c bd16 963c 2278 693c
00000030: ee68 05bd d632 8a3c 19d5 95bc 76a2 59bb
00000040: dfa0 003d b9c9 743c e8af 71bc 2875 cabc
00000050: e714 c3bb baef e93c 9610 86bb aa06 db3b
00000060: c390 f43c 347b 55bc d9f6 f4bc da68 d93c
00000070: 5933 19bd e381 5e3c c406 403c dc85 02bd
00000080: 0b26 783c 80d1 f53c aa7c a73c e84c e2bc
00000090: 4a1a bd3c 56ea 593b ab1b be3a 1950 73bc
000000a0: 7788 f7bc 857d acbc a38f b73b f063 cc3c
000000b0: 4416 d9bc 9de9 94bc 88aa c03c fe09 d0bc
000000c0: be80 cf3c 3e82 d2bc 4a9c e63c ed8c 80bc
000000d0: 81e9 0abc 7979 7cbc 5cec e4bc 6ab3 e9bc
000000e0: 6a3c 3a3b a996 bc3c 1c4b 3ebc 3dd5 e53b
000000f0: 536d 9abc bb1f f73b 9052 053d c751 023d
00000100: 8493 943c 417e ddbb 6a11 9cbb 4cf2 17bc
00000110: a88d bfbc f693 1abd 5f11 723b 6f5e e73b
00000120: d446 80bb 6a2d debb 02fb 5a3c 2266 aabc
00000130: 203e 92bc 74f6 d33c 6496 0dbc 967e ca3c
00000140: 0aca 1b3a ba3c 0fbd 8b5d edbc db42 46bc
00000150: f07b 00bd 2664 91bb 017c 9ebc 3bce 8c3c
00000160: bf1c 07bd 2587 b1bc 73a4 85bb 1cbf e8bc
00000170: 3eb5 e4bc 3a2d 023d 32c8 713c c069 e6bc
00000180: 01fe db3a 1593 7dbc b3fe 323c d1f6 b73c
00000190: 87ed f43c 2419 86bb 3085 9c3b 77ea f03c
000001a0: 2e45 6fbc 1466 ce3b cecb e33c 5550 6b3c
000001b0: 67a2 123d 346a 14bc 3289 733b e659 beba
000001c0: f2ac 8ebb 7ebf 82b9 8325 b83c d78a 01bd
000001d0: 7c69 e5bc 87a4 0e3c 95a7 aa3c 2e68 d0bc
000001e0: 3791 f73c 5442 fc3c 5b8d ed3b e692 ad3b
000001f0: aa89 393c 1b84 2abc bce9 9cbb 6409 d1bc
00000200: 9fc3 c6bb d397 77bc c6cd 763a 427c 1d3b
00000210: 9162 013d 7061 b4bc 24d1 813c 8e83 803c
00000220: 9496 4b3b 689c 743c fdf7 c6bc 6f66 e9bc
00000230: 19db 8a3c 2a5f 3c3c 329a 18bc e432 5f3c
00000240: bb62 f33b c1b1 603c 48cc 8b3b b05b fabc
00000250: d0c8 14bb 5bed 88bc d478 c83c 6f6d c1bc
00000260: c69f 0abd c3ee 9e3b a6e7 df3b 2672 17bd
00000270: 23ad 003d 39eb a43c 69cf ae3b cbcc cebc
00000280: 57bd 9a3c 1800 9cbc 7e98 05bd 4581 d13b
00000290: be12 b13b 0fc4 98bb 7ac2 90ba 8dd2 3cbc
000002a0: 40d7 4aba 36b9 00bd 9025 78bc 51a6 09bb
000002b0: b147 303c 528e aa3c 2ce8 07bc 10f1 d83c
000002c0: 4b10 823c a53c 02bc 9a63 0e3d 8f57 523c
000002d0: 1b57 debc 938c cbbb 0aa1 96bb fbfd cb3c
000002e0: ee88 523b 5ac6 9c3c 2a73 7f3c d7af 09bc
000002f0: 0df1 2a3c 8452 863c 9fdb 30bc c1d2 5a3c
00000300: 45b9 08bc 7713 733b 8a7f 953c b12f 353c
00000310: 7da3 f33b 7757 d23c 5330 08bd 2294 47bc
00000320: b4dc 153d 8c7a d33c 09a0 b83c 8f05 bf3c
00000330: 0ddd 0d3b 860a 19bc f4c2 523b 5590 f13c
00000340: 5e28 f7bb e698 873c 741f e6bc 3572 eabc
00000350: 3282 ecbc edc6 90bc c0dd 3bbc a56e 9a3c
00000360: 1e56 33bc 2831 983c a5b6 733b 068d 8c3c
00000370: 3669 703c 2f17 ef3c 460b 223c a8ef 493c
00000380: 8f52 06bd af97 7cbc edfb 013c afe4 5abc
00000390: 0726 b1bc e909 313c d8e4 003d 13fd d53c
000003a0: 2b82 73bc 948d 623c e8f7 863c a5e4 9fbc
000003b0: 0854 6abc 32f7 173c 0189 0f3d b43a ae3b
000003c0: 3dc3 b83b 4b3a ee3c 10d5 fd3a e7dd d338
000003d0: 80ae 0f3d 98cf 133d a425 b7bb 3e92 103d
000003e0: 83bd 353d 85ee 23bc f528 ebbc fc25 8ebc
000003f0: 8cfc e53c d7fd ae3c ca1a 68bc 260f 2cbc
-0.00641132 0.016071534 -0.043643862 -0.001350414 0.02203898 0.005315909 -0.021528028 0.0013622523
-0.0133397 0.02128895 0.01832139 0.014249833 -0.032570772 0.016869944 -0.01829009 -0.0033208407
0.03140342 0.014940673 -0.014751412 -0.024714068 -0.0059534195 0.028556693 -0.0040913327 0.006684144
0.029854184 -0.013029862 -0.029902862 0.026539255 -0.037402485 0.013580772 0.011720363 -0.03186594
0.015145789 0.030007124 0.020445187 -0.027624562 0.023083825 0.0033251247 0.0014504095 -0.01485064
-0.030216439 -0.021055946 0.0056018396 0.024949998 -0.026499875 -0.018177802 0.023518816 -0.02539539
0.025329944 -0.02569687 0.028150696 -0.015692199 -0.008478523 -0.015409821 -0.027944736 -0.028527934
0.0028417357 0.02302106 -0.011614587 0.0070139454 -0.018850958 0.0075416244 0.03254944 0.03181627
0.018136747 -0.0067594354 -0.004762818 -0.009274077 -0.023382977 -0.037738763 0.0036936624 0.007060818
-0.0039146934 -0.006780316 0.013365509 -0.020800654 -0.01785189 0.025874354 -0.008641813 0.024718564
0.0005942887 -0.034970023 -0.028975269 -0.0121009005 -0.031368196 -0.0044369875 -0.019346239 0.017188182
-0.0329864 -0.021670887 -0.0040784418 -0.02841144 -0.027918454 0.031781413 0.014757203 -0.028126597
0.0016784073 -0.015476962 0.010924983 0.022456558 0.029898418 -0.0040923525 0.0047766194 0.029408677
-0.014603896 0.0062987898 0.027807143 0.014362414 0.03579941 -0.009058524 0.0037160632 -0.0014522641
-0.004354113 -0.00024938205 0.022478824 -0.03162655 -0.0280044 0.008706219 0.020831862 -0.025440302
0.030220611 0.030793346 0.007249517 0.0052970527 0.011324326 -0.010407473 -0.0047886055 -0.025517173
-0.0060658003 -0.015111881 0.0009414818 0.0024030362 0.03158814 -0.022019118 0.015846796 0.01568773
0.0031065093 0.014929868 -0.024288172 -0.028491227 0.016950177 0.011497298 -0.009314107 0.013622973
0.007427541 0.013714255 0.0042662956 -0.030561298 -0.0022702701 -0.016714742 0.024471678 -0.023611752
-0.033843778 0.00485024 0.0068330346 -0.036974095 0.031415116 0.020131694 0.005334784 -0.025244137
0.018889112 -0.019043013 -0.03261613 0.006393584 0.0054038456 -0.004662044 -0.0011044287 -0.011524809
-0.0007737763 -0.03142663 -0.015145674 -0.0021003673 0.01075928 0.020819817 -0.0082951 0.026482135
0.01587691 -0.007949029 0.034762956 0.012838258 -0.027141144 -0.006211826 -0.004596834 0.02490138
0.0032125073 0.01913755 0.015591422 -0.00840374 0.010433448 0.016396768 -0.010794549 0.013355912
-0.008344953 0.003709046 0.018249292 0.011058734 0.007435261 0.025676472 -0.03324921 -0.012181314
0.036587432 0.02581527 0.022537248 0.02331808 0.002164665 -0.009340888 0.0032159658 0.029487768
-0.007542654 0.0165524 -0.02809117 -0.028618911 -0.028870676 -0.01767298 -0.011466444 0.018851588
-0.010945825 0.018578127 0.0037187722 0.017157089 0.014673522 0.02918586 0.009890383 0.012325205
-0.032793578 -0.015417024 0.007933599 -0.0133601865 -0.021624578 0.010805585 0.031468242 0.026121652
-0.014862577 0.0138277 0.016475633 -0.019518206 -0.014302261 0.009275245 0.035042766 0.0053170566
0.0056385086 0.02908053 0.0019365866 0.000101025966 0.035078526 0.03608665 -0.005589204 0.035295717
0.044370186 -0.010005598 -0.028706053 -0.017352097 0.028074525 0.021361275 -0.014166543 -0.010501659

base.3.bias f4 [32]
00000000: 0e4a 50b7 df37 c0b7 9749 c9b7 1bcc f437
00000010: 8529 72b7 b4d2 af37 52f9 c636 af00 25b7
00000020: 3c56 fdb7 11af 9137 5565 fb37 5a3c 0cb8
00000030: c35e 8838 ad40 1d37 6711 db37 ef60 a336
00000040: 16f9 db36 afb5 a8b6 4849 d4b6 f5f0 8bb8
00000050: bd64 8435 51f2 1637 4221 1938 98e3 a836
00000060: 0a0f 1138 e60c d636 23f4 a037 dbdd 0338
00000070: 091f 2d38 58a5 07b8 180a 04b8 7495 7a36
-1.2415008e-05 -2.29142e-05 -2.3995335e-05 2.918211e-05 -1.4433991e-05 2.0959742e-05 5.9298845e-06 -9.834926e-06
-3.0200106e-05 1.7366869e-05 2.9968718e-05 -3.3434808e-05 6.502636e-05 9.372988e-06 2.6114938e-05 4.869063e-06
6.555706e-06 -5.027941e-06 -6.3266234e-06 -6.672918e-05 9.864085e-07 8.997115e-06 3.6509016e-05 5.0332856e-06
3.45847e-05 6.3791986e-06 1.9187171e-05 3.1439453e-05 4.1275318e-05 -3.2340497e-05 -3.1480653e-05 3.7339896e-06

base.4.weight f4 [32]
00000000: 5fd6 7d3f ea06 813f 9701 7f3f 6e63 803f
00000010: a557 7f3f 3cdd 803f 1153 803f 4f6e 7f3f
00000020: 325d 7e3f 9c46 803f cc8f 803f 9a39 803f
00000030: 308a 803f c188 7e3f 65fe 7e3f 7654 7f3f
00000040: 6248 7e3f c9fa 7e3f 0e60 803f 309a 7d3f
00000050: 825e 7e3f 773d 803f c718 803f 8b6f 803f
00000060: df8f 7c3f d842 803f fc13 803f fe4e 803f
00000070: a219 803f ba9a 7f3f b91e 7d3f 2e60 7f3f
0.9915523 1.0080235 0.996118 1.0030344 0.9974311 1.0067515 1.002535 0.9977769
0.99360955 1.0021548 1.0043883 1.0017579 1.0042171 0.9942742 0.99606925 0.9973825
0.993292 0.9960142 1.0029314 0.99063396 0.9936296 1.0018758 1.0007561 1.003404
0.9865703 1.0020399 1.0006099 1.0024107 1.0007823 0.9984547 0.98875004 0.99756134

base.4.bias f4 [32]
00000000: 47f1 8ebb e155 2cba 4a1e 40bb 50f7 2bbb
00000010: aeb2 a0bb 71b4 083c 0139 9f3a 02c0 9d3a
00000020: 65e4 973b bd01 3cbc 961c 103b f778 08bc
00000030: 3832 dd3b 1eff 65bb 6234 3cbb b75c febb
00000040: ad75 0abc ef02 ceba c64a 113b 4c87 e8ba
00000050: 49ab a8bb 3fca 6cbb fa27 b5bb 3659 1ebb
00000060: 975b c0bb 99b2 2abb a472 223c 92dc 80bb
00000070: 7280 7cb9 4096 14bb 8a11 e6b9 6fc6 fd3a
-0.0043622586 -0.0006574076 -0.0029314929 -0.002623994 -0.004904113 0.008343802 0.0012147726 0.0012035372
0.004635381 -0.011475024 0.0021989695 -0.0083296215 0.0067503713 -0.0035094689 -0.0028717746 -0.0077625173
-0.008450908 -0.0015717427 0.0022169813 -0.0017740517 -0.005147372 -0.003613129 -0.005528447 -0.002416206
-0.0058702934 -0.0026046394 0.009915028 -0.003932544 -0.00024080442 -0.0022672564 -0.00043882086 0.0019361506

base.4.running_mean f4 [32]
00000000: 8e02 6f3c b424 1f3e ac32 ce3d d403 e7bb
00000010: 3627 833b 82e0 8bbc bb78 6d3c dc70 8d3c
00000020: b5fb 973d b296 0f3b 581f 0f3e 34b5 48bd
00000030: 271c 92bd d537 da3c b2f1 f1bd 11e2 073e
00000040: e630 493e d928 053e 8db6 ab3c 87ab 31be
00000050: d426 98bd 4e97 42bd be41 b23d 86ee 853d
00000060: 132a ee3d 7702 023c 6754 cebd 75ad dfbd
00000070: de7d a2bd 5229 013e 4dbb cbbd 10bd 8b3d
0.014588011 0.15541345 0.10068259 -0.007050017 0.004002477 -0.017074827 0.014494116 0.01726573
0.07421056 0.002190989 0.139768 -0.049000934 -0.07134276 0.02663795 -0.11813678 0.13269831
0.1964756 0.13003863 0.02096107 -0.17350589 -0.07429281 -0.047507577 0.087039456 0.06539635
0.11629119 0.007935158 -0.10074692 -0.10921756 -0.079341635 0.12613419 -0.09947834 0.0682317

base.4.running_var f4 [32]
00000000: ccc5 b63d 5910 353d 8d49 8b3d efb3 8b3d
00000010: 8612 9a3d 0b06 c13d b3e0 173d 7add aa3d
00000020: eacd 4d3d 613b 1a3d ef1f fe3c 271f 8b3d
00000030: 49e4 7f3d b3d2 093d 14b3 803d b810 073e
00000040: 6807 8b3d e24c dd3c 753f 2e3d 778f 6d3d
00000050: aea0 4f3d 194f c23d 24f1 983d f6ca 733d
00000060: 7e68 023d 7e24 6c3d b8c4 e23d 757c 403d
00000070: 840d 683d 7c26 313d 540c c83d fa5a f83d
0.089244455 0.044205043 0.06801138 0.06821429 0.07523064 0.09424981 0.037079524 0.083430246
0.050245203 0.037654284 0.031021086 0.06793051 0.06247357 0.033648204 0.062841564 0.13189971
0.06788522 0.0270142 0.042540986 0.057998147 0.050690345 0.09487743 0.07467869 0.05951973
0.031837933 0.05765199 0.110726774 0.04699369 0.056653515 0.043249592 0.097679764 0.121267274

base.6.weight f4 [32, 32, 5, 5]
00000000: 7b63 d33c 7750 a73c ae7b 59bb 3340 b2bb
00000010: f704 c3bc f8b9 35bc 41e0 f03c 37c5 073d
00000020: 5f7c bb3c 4229 b73c f1f5 70bc d0e8 ea3b
00000030: b4bc b8bc f798 b3b9 38dd 3dbc f1f7 b5bc
00000040: 09a9 0d3d e251 063b e0da c23c f071 abbb
00000050: 8141 a03c 6c31 723b 2e32 95bc a8dc 01bd
00000060: 91bc 14bd 987b c0bc c2bd 8cb9 021c 5c3c
00000070: b998 733c 41d2 9dbc a7d9 6e3c 2b49 323b
00000080: c51d 2fbc 0bd5 3abc b408 823c eeff c23c
00000090: 7070 283b 7a7c 1cbd 4325 82bc c050 9cbb
000000a0: 5d81 79bc 3ab5 cc3c 1c7a 04bd 3ad5 d3bc
000000b0: eda8 da3c 3c3d 813c 46f5 c13c b00a 95bc
000000c0: 14a5 6a3c 5142 7e3c 3401 21bc 03fc e83c
000000d0: 9d07 543c 5875 6fbb 20ef e83c f620 98bc
000000e0: 026c 13bd 6d30 aa3c 11e6 c4bc 69cc 4a3c
000000f0: da25 9ebc 5f72 36bc 2e91 63bb f161 6bbc
00000100: caf8 d13c dbf4 463c 52a2 413a 0bf7 333c
00000110: 67b7 81bc 0171 29bb 0d55 5d39 6ca7 41bc
00000120: 9a14 13bc 1fc0 9ebc b960 613c 3e03 82bc
00000130: 6112 febc 8794 40bc ee1c 1b3c cd89 fdbc
00000140: e8a3 d1bc e42e 983c 203c a2bc 05b1 123d
00000150: 4089 be3b 424e 8f3c eed7 afbc d4eb 153c
00000160: ae1f ffbb b516 8e3c 9e95 98ba 77a5 493c
00000170: f5db 16bd fa21 03b9 2ab8 0b3c 0cfc 473c
00000180: f928 82ba 0d5e e0bb 6b0a 8cbc 6b67 7d3b
00000190: fbde 26bc 42dc f53c af6e 40bd 1b7b f63c
000001a0: 7e63 c8bc 0ea4 a4bb bd2a 9c3b e727 493c
000001b0: 5b9b 003d 3868 2ebb 683d abbc e491 b1bc
000001c0: 4ec3 163b 0d7c 77bc 96c6 8bbc 4920 98bc
000001d0: 15d5 1e3b 63c4 d63b 02ec 973c 86e3 e33a
000001e0: 853f 9d3b 4380 1b3c 5203 e73b d32d 223a
000001f0: 3c1a 2b3c 15f6 4bbc 46aa f03b 1cc1 1a3d
00000200: 0603 80bc 6a9a 103c 6f1a 0bbc c55b 6c3c
00000210: ca03 5d3d 59f3 a1bb 7e47 e4bc ddbb 513b
00000220: 928b 053c 6e1b 273d c9f5 0f3d c051 92bb
00000230: ddeb 193c 626d 673b 28da 85b9 867d 953c
00000240: ebd9 ea3c 0e23 d23a 964b d23c aee9 ebbc
00000250: 9ec5 f03a cfd0 d43b 95fc da3c d2c0 69bb
00000260: f5e7 b93c be2c 633c d3e7 99bc 835e 843c
00000270: c819 3d3b 97bf 26bd 7a8a 84bc 4d6d 08bd
00000280: 10e6 543c 3482 323b a223 903b ce10 d9ba
00000290: 3167 97bb dae1 40bc 6f19 5e3c a05b eb3b
000002a0: 1bf5 3f3c 1ab2 ef3c 08f9 c83c 6ee3 b53c
000002b0: 8069 19bd b24c 05ba 0918 8b3c b09c dcbc
000002c0: 684a 0e3c bb5a ea3b 0155 d7bc 5894 2f3d
000002d0: bcf1 97bc 68c5 96bc 0fad 153c 1501 69bc
000002e0: 83e8 43bc 4ae1 a3bb a1f7 813c 5ac5 a23c
000002f0: addb 67bc e0e8 0e3d 8131 13bd 7e3c b5bc
00000300: d2f6 943c 93c3 183d 6040 d1bc d851 7b3c
00000310: bd1c f63b 1f13 16bc b6ed af3c b2aa 923c
00000320: 452f 8bbc 6f0f b5bc 9dec 573b 0520 e5bb
00000330: fc15 9cbc b5b5 95bc 844f b8bb 7c68 df3c
00000340: 7283 653c f006 103d d698 513c 7ba3 053d
00000350: a046 7bbc ca29 5abc 3710 b4bb 16e2 72bc
00000360: 1c6f 4abc ce25 a6bc 0b58 adbb a37f 183d
00000370: 9233 63bc 350e 3abc 055f 973c 1dcf a83c
00000380: fa86 123d 9c21 c3bb dea5 fb3c 13b8 e3bc
00000390: db70 d7bc ce96 0dbb d80d 9bbc 467b 563b
000003a0: 17ff 8cbc 547f ff3c 9124 ad3c 4750 0bbc
000003b0: 2a0b 0b3d 5cba 993c 5e72 743c 4031 ef3c
000003c0: c569 983c c26b a7bc 62d4 2ebc 5806 d93c
000003d0: 05d2 0d3d b22d b23c 72d2 9d39 0bba a9bc
000003e0: 9308 ec3c a0e4 473c a5b4 8a3c fc21 b83b
000003f0: d676 a1bc 2158 56bb e38a 04bd e07c 24bb
0.025804272 0.02042411 -0.003318529 -0.005439782 -0.023806078 -0.011091702 0.029403808 0.033147063
0.022886453 0.02235854 -0.0147070745 0.0071688667 -0.022550918 -0.00034255508 -0.011588387 -0.022212954
0.034585033 0.0020495583 0.023786008 -0.0052320883 0.019562485 0.0036955727 -0.018212404 -0.031704575
-0.036312643 -0.023496434 -0.0002684426 0.013434412 0.014867955 -0.019265296 0.01457826 0.0027204256
-0.01068825 -0.011403332 0.01587329 0.023803677 0.0025701784 -0.038204648 -0.015886908 -0.0047703683
-0.0152285965 0.02498876 -0.032343015 -0.02585851 0.026691878 0.01577627 0.023676526 -0.018193573
0.014321584 0.015518741 -0.009826947 0.028440481 0.012941268 -0.0036538448 0.028434336 -0.018570404
-0.035991676 0.020775044 -0.024035485 0.012377837 -0.019305158 -0.011135667 -0.0034723985 -0.014366613
0.025631327 0.012143339 0.00073865533 0.010984193 -0.015834523 -0.002585471 0.00021107886 -0.011819702
-0.00897708 -0.01937872 0.013755971 -0.015870687 -0.031014623 -0.011754162 0.009467347 -0.030949498
-0.025590852 0.018577047 -0.01980406 0.03581335 0.0058147013 0.01749337 -0.021465268 0.009150464
-0.007785759 0.017344812 -0.0011641269 0.012307516 -0.03683086 -0.00012505791 0.008527795 0.012206089
-0.0009930424 -0.006847149 -0.017094811 0.0038666378 -0.010184999 0.030012254 -0.046980556 0.030087998
-0.024461504 -0.0050244397 0.004765837 0.01227758 0.03139816 -0.0026612412 -0.020903304 -0.021676011
0.0023004594 -0.01510526 -0.017062467 -0.018570082 0.0024235894 0.006554173 0.018545154 0.0017386533
0.004798832 0.009491029 0.0070499564 0.0006186638 0.0104432665 -0.012448807 0.007344517 0.03778182
-0.015626442 0.008825878 -0.008490189 0.014426176 0.05395869 -0.0049423394 -0.027866121 0.0032002844
0.008150952 0.040797643 0.03514651 -0.0044653118 0.009394613 0.0035313 -0.00025530276 0.01824833
0.028668365 0.0016032176 0.025670808 -0.02879795 0.0018369441 0.0064946185 0.026731769 -0.0035667908
0.022693614 0.013865648 -0.0187873 0.016158348 0.0028854478 -0.040710058 -0.016179312 -0.033307362
0.012994304 0.0027238252 0.004398779 -0.0016560794 -0.0046204557 -0.011772597 0.0135558685 0.0071825534
0.011716153 0.02925973 0.02453281 0.022203173 -0.03745413 -0.0005084976 0.016979234 -0.026930183
0.008684732 0.007151929 -0.02628565 0.04286608 -0.018547885 -0.018404678 0.009135499 -0.014221449
-0.011957291 -0.005001222 0.015865149 0.019869495 -0.014151496 0.034890056 -0.035935882 -0.022123571
0.0181841 0.03729589 -0.025543392 0.015339337 0.00751075 -0.009159832 0.021475654 0.01790366
-0.016990313 -0.022102086 0.003294743 -0.0069923424 -0.019053452 -0.018275121 -0.0056247134 0.027271502
0.01400839 0.035162866 0.012792787 0.03262661 -0.0153366625 -0.013315627 -0.005495097 -0.014824411
-0.012355592 -0.020281699 -0.0052900366 0.0372311 -0.013867276 -0.011355926 0.018477926 0.020606572
0.035773255 -0.0059549343 0.03071874 -0.027797734 -0.02629893 -0.002160478 -0.0189275 0.0032727285
-0.01721148 0.031188644 0.0211356 -0.008503026 0.033946194 0.01876562 0.014919845 0.029198289
0.018605122 -0.020437125 -0.010670753 0.026492283 0.03462412 0.021750305 0.00030102168 -0.020718595
0.028812682 0.012200505 0.016931841 0.0056192856 -0.019709986 -0.0032706338 -0.032359015 -0.0025098845

base.6.bias f4 [32]
00000000: 211d 0237 6408 1636 0f0c 7437 ab46 53b6
00000010: 5024 2fb8 2e11 2a37 cbfb 01b7 b88b 2a37
00000020: b801 29b7 d88b afb6 6b3a 3738 e703 b3b5
00000030: c598 13b7 0202 0238 cde7 a9b6 6d0f 97b7
00000040: 2b2c 4337 0cac cdb6 9155 2fb6 077e c2b7
00000050: fd9e 8cb5 039e 91b6 2165 28b7 4f07 31b7
00000060: 2fbf b5b5 ed0f a6b7 a7f3 0837 a813 98b7
00000070: 425f 2cb6 5305 6bb7 cad8 24b7 4ae9 b636
7.755386e-06 2.2356626e-06 1.4546341e-05 -3.1482584e-06 -4.175707e-05 1.013679e-05 -7.747624e-06 1.016532e-05
-1.0073585e-05 -5.2316864e-06 4.3685006e-05 -1.3337675e-06 -8.797452e-06 3.0996285e-05 -5.0635776e-06 -1.8007786e-05
1.1633189e-05 -6.129505e-06 -2.6126838e-06 -2.3185288e-05 -1.0477085e-06 -4.3397317e-06 -1.0037126e-05 -1.0551724e-05
-1.3541193e-06 -1.9796158e-05 8.162961e-06 -1.8128965e-05 -2.5685445e-06 -1.4008331e-05 -9.825637e-06 5.451181e-06

base.7.weight f4 [32]
00000000: 77b2 853f 1f30 833f eae0 853f e63e 863f
00000010: 3d14 863f 649c 833f 4d7a 843f 9338 853f
00000020: 80fe 853f 0d2f 853f b587 853f 5ba8 833f
00000030: d111 863f 8d73 873f 269b 853f 7a44 873f
00000040: 9d6e 833f 9aaf 833f 3f85 863f ae41 853f
00000050: 91b4 843f 7693 853f 3e1d 863f 278a 853f
00000060: 8b4c 873f 68b2 843f 919e 883f 5e6b 863f
00000070: 2fb0 843f c813 853f 55f7 863f f538 853f
1.0445088 1.024906 1.0459263 1.0487945 1.0474926 1.0282102 1.0349823 1.040789
1.0468292 1.0404984 1.043204 1.0285753 1.0474187 1.0582138 1.0437973 1.0567772
1.0268131 1.0287964 1.0509413 1.0410669 1.0367604 1.0435627 1.0477674 1.0432786
1.0570234 1.0366945 1.0673391 1.0501516 1.0366267 1.0396662 1.054423 1.0408007

base.7.bias f4 [32]
00000000: acc4 a03c 6b2e ae3c 5d53 813c 0cb2 d13c
00000010: d9ef 8d3c 34d6 5a3c 14ad 753c b22c bd3c
00000020: 052e b53c f853 af3c 9255 eb3c 94f5 a73c
00000030: 18d2 bb3c 7084 b83c b068 7f3c ea1c 153d
00000040: 0d28 583c f025 c13c 220f 333d ac14 853c
00000050: 7364 8e3c ae19 ec3c 01f4 ae3c c836 4b3c
00000060: 8f8f e63c a8f0 933c ce7c bf3c 0cd4 3b3c
00000070: cb2c 733b c56b 2e3c 6197 133d 70cd a93c
0.01962503 0.021262368 0.015786821 0.025597595 0.017326282 0.013356734 0.014994878 0.023092601
0.02211667 0.021402344 0.028727327 0.020502843 0.022927329 0.022524089 0.015588924 0.036404528
0.013193143 0.02357766 0.043715604 0.016245209 0.017381882 0.028820839 0.021356585 0.012403198
0.028144626 0.01805909 0.023374941 0.01146413 0.0037105556 0.010645811 0.036033038 0.020727843

base.7.running_mean f4 [32]
00000000: 32fb fe3d 05c9 503e 3de5 d8bd e30f cf3e
00000010: d36f 4b3e 3552 66bc ee2a 833e 07e0 33bd
00000020: 40eb ae3d 05dc 083e d6da db3d eefc 48bd
00000030: 37f9 983e 6f78 613e b96a 613e d2ee af3e
00000040: 1d19 9abe 1635 0b3e 4d90 413e 8fa2 d23c
00000050: d017 f5b9 956e 803e 4827 5ebd a91e 513d
00000060: be6c 8f3e 0a28 6c3e d52e 5c3e 2c50 003e
00000070: f9cf ca3d 58f8 2d3e 1538 3e3d ee55 29be
0.124502555 0.20389183 -0.10590599 0.40441808 0.19866876 -0.014057686 0.2561869 -0.04391482
0.08540964 0.13365181 0.10735099 -0.049069338 0.29877636 0.22018598 0.22013368 0.34361893
-0.30097285 0.1359447 0.18902703 0.02571228 -0.00046747783 0.25084367 -0.05423668 0.05105463
0.2801265 0.23062149 0.2150224 0.12530583 0.09902949 0.16989267 0.046440203 -0.16536686

base.7.running_var f4 [32]
00000000: 1e9b 1d3d a791 7b3d e4fc c43d 6227 703e
00000010: 5983 2b3d 7826 7c3d 5488 e73d 9988 b33d
00000020: aeeb 573d fe17 233e fe75 a63d 3366 9a3d
00000030: e9fa 8a3d 355f c53d c8d1 1f3e de2b 0d3e
00000040: fb35 8a3e 3341 093e 4e06 da3d 844e 9c3d
00000050: 284b 193e 97fb 9f3d 3db1 8e3d a742 853d
00000060: f142 173e 2b7e f33d cada 823d 97b4 8e3d
00000070: ecf5 c13d d972 ed3d 0deb 7b3d 6058 3e3e
0.03847801 0.0614182 0.096185476 0.23452523 0.04187331 0.061560124 0.113052994 0.08766288
0.052714996 0.15927121 0.08127974 0.07539024 0.067861386 0.096373 0.15607369 0.13786265
0.2699431 0.13403778 0.10645734 0.07632163 0.14970076 0.07811659 0.06967399 0.065068536
0.1477163 0.11889299 0.06389387 0.069680385 0.09470734 0.11594171 0.06150346 0.185884

head.0.weight f4 [24, 1024]
00000000: e862 853c 4946 743c ab77 583c 743d 413c
00000010: 517d 693b da50 97b9 0278 953b 9d99 a3bc
00000020: 1d59 c93b 98da d1bc eb36 6c3b 9251 953b
00000030: 42e6 603c 5a8a 7b3c abae 8c3c c392 893c
00000040: 0783 0f3d 30b9 c03c 0949 46bc e962 793b
00000050: e360 983b 78de 053d 2019 23bb c83e be3c
00000060: 03bc e8bc 802b 0cbc 1df5 0bbd a2a2 ca3b
00000070: 7342 993b c8d2 f03c 2ba0 ae3c 8d7b 06bc
00000080: 6ff2 2a3b e6c7 81ba 3bce c7ba e9d7 67bb
00000090: 5c21 0abc 6ebf f93b e176 b13b b37e d73c
000000a0: 6b06 123d 2da0 d4bb d46a 103d 7560 533b
000000b0: 7e27 3f3b 9575 2b3b 3664 333b b4f9 303b
000000c0: 884e 033d a5f2 a13c 7e1e 66bc cea0 de3c
000000d0: dbfe d13c 525b 7dbc 4aa5 c2bb 54e5 c0bb
000000e0: c245 8e3c 4b3c 1cbd d602 afbc e1e4 e23c
000000f0: ee6c e03c f54f c93c 23dc 80bc 20d1 a6bc
00000100: 8e64 3e3b e0aa 20bd fe10 f2bb ebf7 07bd
00000110: 0179 cdbc 9744 19bd 247a 213c e415 ad3c
00000120: 28d3 ce3b e5d0 b5bc aa6d 9fbc 6334 66bc
00000130: dfcc 23bd 4eb1 ddbc 5bcb 90bb 1c1c 24bd
00000140: e70b 0080 6868 6594 876c 8332 a832 26b2
00000150: a5f7 f8af 0326 8ebb bdcb e73c e763 223b
00000160: b5df de3a e570 59bc b58d a9bc 80d4 16bb
00000170: bb7d 5f3a c0d4 eeb8 d8aa 0db9 e70b 0080
00000180: 6acd 7b3c ea0c cb3b 4fca 58bc c8a0 673a
00000190: e8e1 8d3c beb7 0cbb e658 9a3b c430 1c3d
000001a0: 3dfd 383d 62d1 ab3c 1be2 09bb 20f5 53bc
000001b0: 799b 26bc c2e7 23bb f2b7 6fbc 0df7 8abc
000001c0: 0bcd 6cbb 441f a7bb bdb2 6fbb 8c98 21bb
000001d0: 218d 76bc f0b2 a23b 117b ecbc fea1 8abc
000001e0: 698d 963b 528e d3bc eb02 1bbc ca91 afba
000001f0: 7583 a53a f95e 10bb 8657 e4ba 71d7 f8ba
00000200: e0f9 803a 93f0 813a e8b7 4f3a 35aa 123b
00000210: a194 88bc 4665 a03c 30b6 1d3c 0257 cb39
00000220: 14b2 bf3b 6055 083d 47db 4bbc 700b 9e3c
00000230: 5998 0d3a b560 a33a a8a8 a13a e0f9 803a
00000240: aac1 0abd cf7b 723b acf0 0cbd c3bd 22bd
00000250: e1c5 36bc b3df 81bc a4cc b1bc ef3c e73c
00000260: f36c 483b 7a0f 673c 3f62 a63b c657 6ebc
00000270: 8e33 52bc 2c5e f2bb e35c 48bd 8b83 16bd
00000280: 6506 e43c 56ba fe3b c069 5b3d 5057 563d
00000290: cc43 153d d899 143d a84e 993c 0f35 293c
000002a0: 7848 0f3c 15f9 4d3c 884e 043d be6c f9bb
000002b0: ea30 333d 0a85 f43c 937f 0ebb 5474 5d3d
000002c0: 3105 3ab0 3105 3ab0 25df ceb3 5e02 2eb5
000002d0: e893 2c3b 3455 d63c d8a1 e63b 084b 36bc
000002e0: c46d 11bc 6408 ccbc 81ea c6bc f34f c73b
000002f0: ed46 afb9 1008 1339 2c45 36b9 2b89 3d39
00000300: f50b d29c 048d 9a1b a872 d51c cdbb b7b4
00000310: 8df7 8a34 4412 36ba ecce b43c c5ab f73c
00000320: a984 4cbd 3002 be3c fd77 9f3c 32e2 bb39
00000330: 6782 f2b9 ef8b 223a 26a3 3fb9 483d d79c
00000340: d5d0 c5bb f49b 363c a830 69bc 92f0 d53b
00000350: 97ac b53c 505a 1e3d c525 673b 3ebe a03b
00000360: 38b7 9cbb befb 6d3b b088 ad3c 570b 413c
00000370: 9b1c dbbc 038f e1bc 6fd6 d2bc ff45 a23b
00000380: 51f6 f43a 1bf2 06bd 13a5 b3bc 4b54 983c
00000390: e91f 92bb a651 0b3d 23b2 f83c 0d8b 1c3d
000003a0: 17b5 0a3d 407c bbbb 1706 8bbb 096f b6bb
000003b0: b601 ecbb b7c7 863c b276 90bc 5d40 15bd
000003c0: 8736 e33a 2a68 a538 d344 19bb 63ae 93bb
000003d0: 3382 103c ea51 8e3a 8b0b 083c 2c94 b3bc
000003e0: 2e1e cfbc 09ab e03a 8fba 81bc 2b55 f3bc
000003f0: afc0 023c 098b f9ba c6fe 6d3a 17df f03a
0.016282514 0.014909335 0.013212125 0.011794437 0.0035627673 -0.00028861203 0.004561425 -0.01997071
0.0061446563 -0.025616929 0.0036043476 0.004556843 0.013726773 0.01535281 0.017173132 0.016793614
0.035037067 0.023525804 -0.012102374 0.003805334 0.0046502217 0.032682866 -0.0024886802 0.023223296
-0.028409963 -0.008555293 -0.034169305 0.006183938 0.004677111 0.029397383 0.021316608 -0.008208168
0.0026084443 -0.0009901493 -0.0015243957 -0.0035376495 -0.008430805 0.007621697 0.005415783 0.026305532
0.035650652 -0.006488821 0.03525813 0.0032253538 0.0029167826 0.0026162614 0.0027372963 0.0027004303
0.032057315 0.019769022 -0.014045356 0.027176287 0.02563422 -0.015463667 -0.005940114 -0.005886713
0.017367247 -0.038143437 -0.021363657 0.027697029 0.027395692 0.02457426 -0.01572997 -0.02036339
0.0029051634 -0.03922546 -0.0073872795 -0.033195417 -0.025082113 -0.037418928 0.009855781 0.021128602
0.006311793 -0.022194335 -0.019461472 -0.014050576 -0.039990302 -0.027062085 -0.004418773 -0.04006587
-4.27e-42 -1.1582136e-26 1.529976e-08 -9.67399e-09 -4.52869e-10 -0.0043380274 0.028295392 0.0024778785
0.0017003926 -0.013271545 -0.020697454 -0.0023014843 0.000852551 -0.00011388352 -0.00013510452 -4.27e-42
0.015368799 0.006196608 -0.013231828 0.0008835909 0.017319635 -0.0021471824 0.0047103046 0.038132444
0.04516338 0.020973865 -0.002103931 -0.01293686 -0.0101689035 -0.0025009965 -0.014631258 -0.016963506
-0.0036132957 -0.0051001627 -0.0036575042 -0.0024657575 -0.015048296 0.0049651787 -0.028867276 -0.016922947
0.004594494 -0.0258247 -0.009461145 -0.0013394889 0.0012627678 -0.0022029264 -0.0017421104 -0.0018985105
0.0009840094 0.0009913616 0.00079238275 0.0022379283 -0.016672434 0.019579541 0.009625956 0.00038784003
0.005850086 0.033284545 -0.0124424165 0.019292563 0.0005401425 0.0012464734 0.0012333589 0.0009840094
-0.0338761 0.0037000065 -0.03440921 -0.039731752 -0.011155576 -0.015853738 -0.021704026 0.028227298
0.0030582517 0.014102811 0.00507763 -0.014547294 -0.012829674 -0.00739648 -0.04891671 -0.036746543
0.02783508 0.007773678 0.053567648 0.05232936 0.03644161 0.03627953 0.018714264 0.010327592
0.008745305 0.012571593 0.032301456 -0.00761184 0.04374782 0.029848594 -0.002174352 0.054066017
-6.7673783e-10 -6.7673783e-10 -9.633212e-08 -6.4823496e-07 0.0026333276 0.026163675 0.0070383362 -0.011126287
-0.008876268 -0.024906345 -0.024281742 0.0060825287 -0.00033431445 0.00014022016 -0.00017382641 0.00018075544
-1.3899725e-21 2.5568292e-22 1.4124796e-21 -3.422305e-07 2.588462e-07 -0.0006945471 0.022071324 0.030233273
-0.049931202 0.023194402 0.019466395 0.00035835948 -0.00046254994 0.00062006613 -0.00018275957 -1.4243347e-21
-0.0060368576 0.011145581 -0.014232792 0.0065289224 0.022177024 0.038660347 0.0035270315 0.004905491
-0.0047825836 0.003631338 0.021183342 0.011782489 -0.026747039 -0.027534014 -0.025737016 0.004952192
0.0018689131 -0.032945734 -0.0219293 0.018594882 -0.0044593704 0.034013413 0.03035838 0.038218547
0.033864107 -0.005721599 -0.0042426693 -0.0055674356 -0.0072023524 0.016452653 -0.017634723 -0.036438335
0.0017334976 7.887215e-05 -0.002338697 -0.0045068725 0.008820104 0.0010858153 0.008303533 -0.02192124
-0.025282945 0.0017140816 -0.015836028 -0.029703697 0.00798051 -0.0019038628 0.0009078797 0.0018377033

head.0.bias f4 [24]
00000000: 2b59 cc3c bb68 5b3c d299 9a3b 417e 8fbc
00000010: 4b14 a7bc 2ef7 37bc b153 bfbb e3cc 9cbb
00000020: 7dbc 013d a9fb a13b de9f b63c 1f36 c53c
00000030: 3dea 833a fda4 cd3c 1fd0 33bc ab77 6539
00000040: 9f4e 54bb b1c8 043d 352d b23c 9f2c 783c
00000050: 7346 1fba eafa 8cbc d509 0f3c 29f3 16bc
0.024944862 0.013391669 0.004718044 -0.017516257 -0.020395419 -0.011228366 -0.005838834 -0.0047851666
0.031673897 0.0049433303 0.022293027 0.024073659 0.0010064315 0.025103087 -0.010974913 0.00021883722
-0.0032395495 0.032417957 0.021750072 0.015147357 -0.00060758664 -0.017209489 0.0087303715 -0.009213247

head.2.weight f4 [2, 24]
00000000: 2bd5 1bbe d43f 853e 5868 21bc 5b16 cb3d
00000010: 5ce6 4abd d8d8 f2bd a98e a13b 7a29 5b3c
00000020: aabf 4ebe a0b3 4d3e ffcd fcbd 1022 79be
00000030: aa5b 13bd c0f9 523e 0ff1 e8bd cee7 503e
00000040: f800 cf3d d979 463e 485c 223e ab22 6a3e
00000050: cd41 953d 5e2e 193e f7b5 9dbd 6fbd 203e
00000060: 45a1 0e3e 09b0 0abe cf94 e63d a384 e6bd
00000070: e2e1 2a3e 247e 80be 84f9 37be 7538 0abe
00000080: 55b6 473e 7e2b 65be 72df 1f3e 4009 543e
00000090: aa5b 133d f025 6f3c 204d 123e 4a5e af3d
000000a0: 5e14 7bbd 360f c33b d98d 67be c6a6 de3c
000000b0: 38c7 273e dd53 1abd c329 5a3e 8bcf 42bd
-0.15218036 0.2602526 -0.009851538 0.09916373 -0.049536094 -0.11857766 0.0049303365 0.013376588
-0.20190302 0.20088053 -0.12343978 -0.243294 -0.03597609 0.20603085 -0.11374103 0.20400926
0.10107607 0.19382419 0.15855515 0.22864787 0.07287941 0.14959094 -0.07700723 0.15697263
0.13928707 -0.13543715 0.11258852 -0.11255767 0.1668773 -0.25096238 -0.17966276 -0.13498099
0.19503148 -0.22379872 0.15612581 0.20706654 0.03597609 0.014596447 0.14287233 0.08562906
-0.06129872 0.005952741 -0.22612704 0.027179133 0.1638459 -0.037677635 0.21304993 -0.04756121

head.2.bias f4 [2]
00000000: 53c6 0d3e afdb 0dbd
0.13845186 -0.034633335
