models/AC-RM-2 Q_LR=0.001 P_LR=5e-06 BATCH_SIZE=128 GAMMA=0.99 MEMORY_SIZE=150000 BETA=0.05_policy_3485.pt (torch, 319747 bytes, 22 tensors)

base.0.weight f4 [32, 2, 5, 5]
0	0x3db20fba	0.08694406
1	0xbbfa0ed0	-0.0076311603
2	0x3df5a91c	0.11995146
3	0x3db71c86	0.08940987
4	0xbdc4c969	-0.096087284
5	0xbc34a784	-0.011026267
6	0x3da9671c	0.0827162
7	0xbe124e49	-0.14287676
8	0xbe024ef5	-0.12725432
9	0xbd6c9b9e	-0.057765596
10	0x3ddc2cb5	0.10750715
11	0x3d858c3a	0.06520887
12	0xbe088f8b	-0.13336007
13	0xbd7525e6	-0.059850596
14	0xbd556b0e	-0.05210405
15	0x3c9ad5e0	0.018900812
16	0x3bb1579c	0.005412055
17	0x3dcd8b5b	0.100363456
18	0xbdc28ffb	-0.09500118
19	0xbd81cb7f	-0.06337642
20	0x3b8492e0	0.004045829
21	0xbc995edb	-0.018721988
22	0xbd520fb6	-0.051284514
23	0xbdc7b0e1	-0.09750534
24	0xbb19186a	-0.00233605
25	0xbca775cb	-0.02044191
26	0x3df98aa4	0.12184647
27	0x3e0292d2	0.1275132
28	0x3d86dcd9	0.06585092
29	0x3dbf4687	0.09339624
30	0xbcf94797	-0.030429645
31	0x3d9a5805	0.0753632
32	0xbdddc310	-0.10828221
33	0xbd89683a	-0.06709333
34	0xbdfa361a	-0.1221735
35	0x3d9ad70b	0.075605474
36	0xbd975ccf	-0.07390749
37	0x3bc53b89	0.00601906
38	0xbdf18344	-0.11792615
39	0x3d81bb62	0.063345686
40	0x3d24b2fa	0.040209748
41	0x3d7fe677	0.062475648
42	0x3df73c3a	0.12072034
43	0x3d724696	0.059149347
44	0x3b8ec169	0.0043565524
45	0x3d67c10e	0.056580596
46	0xbca8856f	-0.020571439
47	0x3cb0a6a1	0.02156383
48	0xbc9d3c05	-0.019193659
49	0xbdf052fc	-0.11734578
50	0xbd79405b	-0.06085239
51	0xbd520bc7	-0.051280763
52	0xbdea9e8a	-0.1145602
53	0x3dfe3995	0.12413327
54	0xbd78b8e3	-0.060723197
55	0xbd9b8d84	-0.07595351
56	0x3c9d4011	0.019195588
57	0x3c24949a	0.010045195
58	0xbc65465d	-0.013993827
59	0x3db30b03	0.08742335
60	0x3cacea8a	0.02110793
61	0x3da677cb	0.081283174
62	0xbe02855a	-0.12746182
63	0xbd378c50	-0.044811547
64	0xbdfbda07	-0.12297445
65	0x3c7fb695	0.015607496
66	0xbdadc371	-0.08484543
67	0x3cb50085	0.022094974
68	0x3d828475	0.063729204
69	0x3de90bc0	0.11379194
70	0xbbd33fd3	-0.0064468174
71	0xbda57336	-0.08078615
72	0xbe164708	-0.14675534
73	0x3d917b05	0.07103542
74	0xbe00a8da	-0.12564412
75	0xbd01fc26	-0.031734608
76	0xbcbe6c42	-0.02324498
77	0xbc2aa94d	-0.010416341
78	0xbdb0a665	-0.08625487
79	0xbe17bb03	-0.14817433
80	0x3d94de75	0.07268993
81	0x3e106acb	0.14103238
82	0x3d936a05	0.07197956
83	0x3dd15eb8	0.10223144
84	0x3daf58db	0.0856187
85	0x3d8550dd	0.06509564
86	0xbc9bc4c7	-0.01901473
87	0x3b313828	0.0027041528
88	0x3c9739e3	0.01846022
89	0x3d850fcf	0.06497156
90	0x3c2f90ed	0.010715705
91	0x3b918808	0.004441265
92	0xbcde82c7	-0.027161969
93	0xbd4c897f	-0.049935814
94	0xbd50293e	-0.05082058
95	0xbdfa7688	-0.12229639
96	0x3dd158a7	0.10221987
97	0x3df6b65d	0.12046502
98	0x3d65523a	0.05598662
99	0x3db3d361	0.08780552
100	0xbd4cf40e	-0.050037436
101	0x3d0752af	0.033037838
102	0xbd852c41	-0.065025814
103	0xbb954e39	-0.004556444
104	0x3d46a03c	0.048492655
105	0x3d0b7652	0.034048386
106	0x3d7231ec	0.05912964
107	0xbcd03aa1	-0.025418581
108	0xbc7cf908	-0.015440233
109	0xbcfbd3d3	-0.030740654
110	0x3d9dbfe2	0.07702614
111	0x3ade0edd	0.0016941685
112	0x3d2486d9	0.040167663
113	0xbdffe93d	-0.124956585
114	0x3dea48f9	0.114397
115	0x3e056aa3	0.1302896
116	0x3d915c4f	0.070976846
117	0x3dd16756	0.10224788
118	0x3dd40d35	0.103540815
119	0x3de43e8d	0.11144743
120	0xbda1f56c	-0.07908139
121	0x3d569e06	0.052396797
122	0x3d034991	0.03205258
123	0x3d884afe	0.066549286
124	0x3df1d993	0.11809077
125	0xbd048230	-0.03235072
126	0x3d82a8a2	0.063798204
127	0x3db94e82	0.09048177
128	0xbd0e6f2c	-0.03477399
129	0xbc49ac49	-0.012309142
130	0xbd467f20	-0.04846108
131	0xbd24cbdf	-0.04023349
132	0xbd9d311d	-0.07675383
133	0xbdcd0967	-0.10011559
134	0xbdf8392c	-0.1212028
135	0x3a4f1169	0.00078990177
136	0x3d94463f	0.07239961
137	0x3d63a0b2	0.055573173
138	0xbd1c134b	-0.038104337
139	0x3c69cbfe	0.014269827
140	0xbd2552df	-0.040362235
141	0xbce7930b	-0.028268358
142	0xbd2bcf90	-0.041945994
143	0xbd2ad700	-0.041708946
144	0x3d531568	0.051534086
145	0x3d7bcbd4	0.061473683
146	0xbd62d8a5	-0.05538239
147	0x3de0a950	0.10969794
148	0x3d85b08a	0.06527813
149	0x3de53a9a	0.11192818
150	0x3cd47a63	0.025937265
151	0x3dce32c4	0.100682765
152	0x3cf06688	0.029345766
153	0x3dbed939	0.09318776
154	0xbd84cad9	-0.064840026
155	0x3dfdd504	0.12394145
156	0x3caa355d	0.020777399
157	0x3e0072b5	0.12543757
158	0xbd091da8	-0.033475548
159	0xbdc412ed	-0.09573922
160	0xbde43e4e	-0.11144696
161	0xbd0d1f62	-0.034453757
162	0xbd2791b4	-0.040910438
163	0x3da74c7f	0.08168887
164	0x3dddbf24	0.10827473
165	0x3cf7bfe9	0.030242877
166	0xbdaa5168	-0.08316308
167	0x3dcb0781	0.09913541
168	0xbdeecd66	-0.116602704
169	0xbdf30233	-0.11865654
170	0xbdb2ed30	-0.08736646
171	0x3dcb3aac	0.099233
172	0xbd538a55	-0.051645596
173	0x3da0c4f3	0.07850065
174	0x3dad880e	0.08473216
175	0xbd022b61	-0.03177965
176	0x3e01b0a1	0.12665035
177	0xbd19565e	-0.03743588
178	0xbc764e11	-0.015033261
179	0x3d0ac8c1	0.03388286
180	0xbd9fc983	-0.07802107
181	0x3dec9a4a	0.11552866
182	0xbcce95a8	-0.025217846
183	0x3d3ca4a5	0.046055455
184	0x3cd60081	0.026123287
185	0xbdba35f6	-0.090923235
186	0x3d84f9de	0.06492971
187	0xbd019b33	-0.03164215
188	0xbe031ac9	-0.12803186
189	0xbd975719	-0.073896594
190	0x3dd88e01	0.1057396
191	0xbd050c1e	-0.03248226
192	0xbd37df9c	-0.044890985
193	0xbdd5212f	-0.1040672
194	0xbdca1c76	-0.0986871
195	0xbe0776d7	-0.13228928
196	0x3e039ef9	0.12853612
197	0xbda7ee74	-0.08199778
198	0xbd112c27	-0.035442498
199	0xbdb20939	-0.08693165
200	0xbd06204f	-0.032745656
201	0x3e06d487	0.1316701
202	0xbde0fe9c	-0.10986063
203	0x3dbf22c2	0.093328014
204	0x3df1f38e	0.118140325
205	0x3cb7dd99	0.022444533
206	0xbd0b732d	-0.034045387
207	0xbe08a180	-0.13342857
208	0x3d1f0e48	0.03883198
209	0x3d833657	0.06406849
210	0xbd8ede47	-0.0697599
211	0xbc6e96ef	-0.014562353
212	0x3da2b28d	0.07944212
213	0xbc854eb8	-0.016272888
214	0xbd9640d8	-0.07336587
215	0xbdb44c17	-0.088035755
216	0x3d3b3ac8	0.045710355
217	0x3d62db8d	0.05538516
218	0xbe09e82c	-0.13467473
219	0xbcda3746	-0.026637685
220	0x3d9fcc5e	0.07802652
221	0xbd7e273f	-0.062049147
222	0x3d3bb045	0.0458224
223	0x3dbef3e8	0.09323865
224	0xbdd6b33f	-0.10483407
225	0xbddc41c5	-0.10754732
226	0xbe0d8dcd	-0.13823624
227	0x3d1c4375	0.03815027
228	0xbcfbaccc	-0.030722044
229	0xbd10daa1	-0.03536475
230	0x3df9f0c6	0.12204127
231	0xbde3c91d	-0.11122344
232	0x3e0a4e94	0.13506538
233	0xbdf63817	-0.12022417
234	0xbe118434	-0.14210588
235	0xbd8dfefe	-0.069334015
236	0x3d9d4fc4	0.0768123
237	0x3db5bdfa	0.08874126
238	0xbd58bedb	-0.05291639
239	0x3df0b8ca	0.11753996
240	0xbe10bc3c	-0.14134306
241	0xbbe7b434	-0.0070710424
242	0x3d57c997	0.052682485
243	0x3d9e8126	0.07739477
244	0xbdb77d5e	-0.08959459
245	0xbb994cf2	-0.004678362
246	0xbda2dd9e	-0.079524264
247	0x3de3e741	0.111280926
248	0xbd89b68d	-0.06724272
249	0xbdb2eaab	-0.087361656
250	0xbe044b41	-0.12919332
251	0x3e0b89a3	0.13626723
252	0x3cb91182	0.022591356
253	0xbd9cbfff	-0.07653808
254	0x3d688d4c	0.056775376
255	0xbc33a1eb	-0.010963897

base.0.bias f4 [32]
0	0xb77b2688	-1.4969737e-05
1	0x3970e37d	0.0002297293
2	0xb94cdbe0	-0.00019536866
3	0x3900965f	0.00012263049
4	0x38a5d89e	7.908161e-05
5	0xb99fbc94	-0.00030467345
6	0x391dd068	0.00015050324
7	0x39361333	0.00017364025
8	0xb75b3d0c	-1.3067631e-05
9	0x399ad428	0.00029531238
10	0xb6ef557d	-7.132707e-06
11	0x3762ad83	1.3511049e-05
12	0xb6252084	-2.4605843e-06
13	0x374a998a	1.2075887e-05
14	0x383672ed	4.3499214e-05
15	0x38cbadbb	9.712154e-05
16	0x38e68da0	0.00010993634
17	0xb9b7a977	-0.0003503074
18	0xb976df02	-0.00023543465
19	0x38f661dc	0.00011748422
20	0x3a0ef4e8	0.0005453364
21	0xb795b58e	-1.7846727e-05
22	0xb7ba392c	-2.219955e-05
23	0x39b81ea9	0.00035118058
24	0xb939ccaa	-0.00017719218
25	0x39f747a3	0.00047164885
26	0xb99319ba	-0.00028057193
27	0xb9de891a	-0.00042445288
28	0x395fa9f5	0.00021330251
29	0x37bea286	2.2725446e-05
30	0xb9841ba9	-0.0002519761
31	0x3a12d0de	0.00056005816

base.1.weight f4 [32]
0	0x3f7cf990	0.988183
1	0x3f81301c	1.0092807
2	0x3f7ecbdf	0.9952983
3	0x3f7fd514	0.99934506
4	0x3f7d16f0	0.98863125
5	0x3f7d2e1b	0.98898476
6	0x3f803ad8	1.0017958
7	0x3f80e65a	1.0070298
8	0x3f7d72fb	0.9900357
9	0x3f819156	1.0122478
10	0x3f7f05be	0.99618137
11	0x3f7fbc6f	0.998969
12	0x3f7ae2e6	0.9800247
13	0x3f7d1d55	0.9887288
14	0x3f81c8c8	1.0139399
15	0x3f7e2aef	0.9928426
16	0x3f80ae61	1.0053216
17	0x3f839e89	1.0282756
18	0x3f7eb6e7	0.99497837
19	0x3f7f90db	0.99830407
20	0x3f7ee91e	0.9957446
21	0x3f7dcdb5	0.9914201
22	0x3f80b843	1.0056232
23	0x3f7c43af	0.98540777
24	0x3f7ee0a5	0.9956153
25	0x3f7cb3d0	0.9871187
26	0x3f7ed7dd	0.9954813
27	0x3f7c4550	0.9854326
28	0x3f80bd4c	1.0057769
29	0x3f7e19d7	0.9925818
30	0x3f824eb7	1.0180272
31	0x3f813167	1.0093201

base.1.bias f4 [32]
0	0xbbd5add1	-0.0065209647
1	0x3bdd5f11	0.0067557176
2	0x3ba84caa	0.005136092
3	0x3b5859db	0.0033012542
4	0x39cad418	0.00038686465
5	0x385e1b21	5.295419e-05
6	0x3b156372	0.002279487
7	0xbbd53827	-0.006506938
8	0xbbac04b4	-0.005249584
9	0x3c522f81	0.012828709
10	0x3bc465bd	0.0059935735
11	0x3b38d36e	0.0028202194
12	0xbc46fcce	-0.012145234
13	0xbb7ab3c9	-0.0038254133
14	0x3bc1c00f	0.0059127877
15	0x3b3b2248	0.0028554369
16	0x3bc2e3bc	0.005947558
17	0x3a18bff2	0.0005826942
18	0xbc3e5c9c	-0.0116187595
19	0x3be1ec9e	0.006894662
20	0xbba7cac3	-0.0051206066
21	0x3a666da6	0.00087901426
22	0xbaa25260	-0.0012384169
23	0xbbe1c2e2	-0.006889687
24	0xbb35d15f	-0.0027743203
25	0xbc1e36bf	-0.009656607
26	0x3b08ac07	0.002085449
27	0xbc773b83	-0.015089872
28	0x3c222296	0.009895941
29	0xbbade773	-0.005307132
30	0x3b9b257a	0.004734692
31	0x3b35ebce	0.0027758959

base.1.running_mean f4 [32]
0	0xbd10bdfd	-0.035337437
1	0xbd56c6b9	-0.05243561
2	0x3f437800	0.7635498
3	0xbe572dd0	-0.2101357
4	0xbef86e04	-0.48521435
5	0xbf361653	-0.71127814
6	0xbe5501a3	-0.20801406
7	0x3e2b5862	0.16732934
8	0x3f9b4841	1.2131425
9	0x3dd7d213	0.10538115
10	0x3e9e49ea	0.30915767
11	0xbd856017	-0.06512468
12	0xbf8195f0	-1.0123882
13	0xbe244a9d	-0.16044088
14	0x3c09e1e0	0.008415669
15	0x3e81b0ec	0.25330293
16	0x3e0a4321	0.1350217
17	0x3e52e25d	0.20594163
18	0xbea657e7	-0.3248894
19	0x3ed714cc	0.42008054
20	0x3e0ed422	0.1394811
21	0x3f42ab63	0.76042765
22	0xbd2747f5	-0.040840108
23	0xbe6cde39	-0.23131646
24	0xbef4d122	-0.47815806
25	0xbe05c0a1	-0.13061763
26	0x3e91fd6b	0.28513655
27	0xbee05cae	-0.4382071
28	0x3d3c5762	0.045981772
29	0x3f2cd36e	0.67510116
30	0xbdb00148	-0.085939944
31	0x3de6f82c	0.11277804

base.1.running_var f4 [32]
0	0x3b855488	0.004068915
1	0x39e46d3d	0.00043568938
2	0x3c1f9ceb	0.009742002
3	0x3b365d84	0.0027826736
4	0x3b4ae145	0.0030957025
5	0x3bb16d41	0.0054146354
6	0x3b01daa5	0.001981416
7	0x3a431798	0.00074421754
8	0x3c735b39	0.014853292
9	0x39c87104	0.00038231176
10	0x3b3098eb	0.0026946615
11	0x3ae61485	0.0017553723
12	0x3c3fdbb9	0.011710101
13	0x3a6a3cfa	0.0008935478
14	0x38e76f4d	0.0001103567
15	0x3b1bff9a	0.0023803473
16	0x3a1bf48c	0.0005949221
17	0x3a744ce9	0.0009319322
18	0x3b1bb1bb	0.0023757059
19	0x3af625b0	0.0018779542
20	0x3a0be4e8	0.0005336539
21	0x3c0ac157	0.008468947
22	0x39fe5816	0.00048512284
23	0x3af23d8b	0.0018481476
24	0x3b4790b7	0.0030451247
25	0x3a46726a	0.00075701496
26	0x3af4cecf	0.0018677356
27	0x3b713adf	0.0036808772
28	0x3a40a8e8	0.0007349388
29	0x3b9fb576	0.0048739268
30	0x3a96f06e	0.0011515745
31	0x3ade38a0	0.0016954131

base.3.weight f4 [32, 32, 5, 5]
0	0xbbd4a4f0	-0.0064893886
1	0x3c80d591	0.015726836
2	0xbd312e9d	-0.043257345
3	0xba9452ea	-0.0011316214
4	0x3cb5cb32	0.022191618
5	0x3ba99e97	0.005176376
6	0xbcb2ec46	-0.02184118
7	0x3ae76780	0.0017654747
8	0xbc563123	-0.013073239
9	0x3cb3a04c	0.021927021
10	0x3c96e5ab	0.018420061
11	0x3c62209e	0.013801722
12	0xbd039cac	-0.032131836
13	0x3c8d24f7	0.01722954
14	0xbc8f9a07	-0.0175295
15	0xbb3ef172	-0.0029135612
16	0x3d01409e	0.031555764
17	0x3c780ff3	0.015140521
18	0xbc68cd25	-0.0142090665
19	0xbcc1b626	-0.023646425
20	0xbbaaf5c1	-0.0052172844
21	0x3ce80059	0.028320478
22	0xbb86fbee	-0.004119388
23	0x3bf385ef	0.0074317376
24	0x3cfc260c	0.03077986
25	0xbc5fa1da	-0.013649428
26	0xbcf8a8a4	-0.030353852
27	0x3cd75f6b	0.026290616
28	0xbd17d39a	-0.037067033
29	0x3c658049	0.014007636
30	0x3c36fa7a	0.011168117
31	0xbd03256f	-0.03201812
32	0x3c797018	0.015224479
33	0x3cf88aff	0.030339716
34	0x3cabce0f	0.02097228
35	0xbce57b15	-0.028012792
36	0x3cbd3a73	0.02309916
37	0x3b72e0ea	0.0037060329
38	0x3b091f31	0.0020923133
39	0xbc72c5ce	-0.014817668
40	0xbcfa26b6	-0.030536037
41	0xbcaed39d	-0.02134114
42	0x3badc3b9	0.005302873
43	0x3ccab3da	0.024743963
44	0xbcd6df55	-0.02622954
45	0xbca037ef	-0.019557921
46	0x3cbe629c	0.02324038
47	0xbcc89912	-0.024487052
48	0x3ccf823d	0.025330657
49	0xbcd687d9	-0.026187824
50	0x3ce99281	0.028512241
51	0xbc7d6e70	-0.015468225
52	0xbc0ef34b	-0.008724998
53	0xbc813298	-0.015771195
54	0xbceae364	-0.028672881
55	0xbce66eff	-0.028129099
56	0x3b48cbc3	0.003063903
57	0x3cba144e	0.02271476
58	0xbc43c519	-0.011948847
59	0x3bce27f7	0.0062913853
60	0xbc9995ea	-0.018748242
61	0x3bf88610	0.007584341
62	0x3d02cb70	0.031932294
63	0x3cfee3af	0.031114427
64	0x3c8d8e40	0.017279744
65	0xbbd43f0c	-0.0064772423
66	0xbb941324	-0.0045188833
67	0xbc17a643	-0.0092559485
68	0xbcbf1af4	-0.023328282
69	0xbd1abe30	-0.037779033
70	0x3b83136b	0.0040001175
71	0x3bf1ae25	0.007375496
72	0xbb7c0c8f	-0.0038459634
73	0xbbd7479e	-0.0065698167
74	0x3c5cbaf0	0.013472304
75	0xbcab9b86	-0.020948183
76	0xbc957f55	-0.018249193
77	0x3cd71b5d	0.026258165
78	0xbc0a4ac3	-0.008440676
79	0x3cd1256e	0.025530543
80	0x39e68900	0.00043971092
81	0xbd10f338	-0.0353882
82	0xbcea675b	-0.028613737
83	0xbc450120	-0.012024194
84	0xbcf9fa2c	-0.030514799
85	0xbb87c302	-0.00414312
86	0xbc9ce48b	-0.019151947
87	0x3c917d7b	0.017760029
88	0xbd057005	-0.032577533
89	0xbca756ba	-0.020427097
90	0xbb6dc4c4	-0.0036280612
91	0xbce6f9e0	-0.028195322
92	0xbce03d88	-0.02737309
93	0x3d0400dd	0.032227386
94	0x3c828962	0.01593465
95	0xbce78cd4	-0.028265394
96	0x3a6a88ae	0.00089467585
97	0xbc81b3bc	-0.015832774
98	0x3c34b588	0.011029609
99	0x3cbd1281	0.023080112
100	0x3cf3add6	0.029745977
101	0xbb9533ba	-0.0045532854
102	0x3ba34f12	0.004983791
103	0x3cee610a	0.029099006
104	0xbc649c15	-0.0139532285
105	0x3bc7e667	0.006100464
106	0x3cdf7af7	0.027280314
107	0x3c6dd477	0.014515988
108	0x3d113444	0.035450235
109	0xbc07cb63	-0.008288237
110	0x3b828f45	0.003984364
111	0xbaec04ec	-0.0018006838
112	0xbb81c365	-0.0039600604
113	0xb96063fa	-0.00021399549
114	0x3cc2fe53	0.023802912
115	0xbcff853b	-0.031191459
116	0xbce681f4	-0.028138138
117	0x3c162934	0.009165097
118	0x3cac6354	0.021043457
119	0xbcc557aa	-0.024089653
120	0x3cf958b1	0.0304378
121	0x3cf86861	0.03032321
122	0x3bf0970a	0.007342224
123	0x3bb3846b	0.005478432
124	0x3c4678e5	0.012113784
125	0xbc2d9902	-0.010595562
126	0xbbab45bc	-0.005226819
127	0xbcd0743b	-0.025446048
128	0xbbbfeb89	-0.0058569354
129	0xbc76e02f	-0.015068098
130	0x3a5e6793	0.00084840617
131	0x3b01483c	0.0019726893
132	0x3d019ae7	0.031641867
133	0xbcb2ff15	-0.021850148
134	0x3c836795	0.016040603
135	0x3c82254c	0.015886925
136	0x3b523bc9	0.0032079092
137	0x3c78921e	0.015171556
138	0xbcc2fd2b	-0.02380236
139	0xbce1f3b5	-0.027582029
140	0x3c8a18e8	0.01685758
141	0x3c379d81	0.011206985
142	0xbc15c442	-0.00914103
143	0x3c6547d4	0.013994176
144	0x3c045db3	0.00807898
145	0x3c5bece7	0.013423181
146	0x3b8cd5d1	0.00429795
147	0xbcf8ee76	-0.030387145
148	0xbb11fa6d	-0.002227451
149	0xbc8532e5	-0.01625962
150	0x3cc6dfda	0.024276663
151	0xbcc4ad1b	-0.024008324
152	0xbd09c8c8	-0.033638746
153	0x3ba0f7d8	0.004912358
154	0x3bdd0efc	0.006746171
155	0xbd17e195	-0.037080366
156	0x3cfd795f	0.030941663
157	0x3ca4a299	0.020097064
158	0x3bb6e311	0.0055812676
159	0xbccec544	-0.025240548
160	0x3c982dfa	0.01857661
161	0xbc9f1505	-0.019419203
162	0xbd053722	-0.032523282
163	0x3bdc69d9	0.006726485
164	0x3ba99ab7	0.005175914
165	0xbb99d5e7	-0.0046946886
166	0xbad47607	-0.0016209491
167	0xbc3acf05	-0.011401896
168	0xb993128d	-0.00028051846
169	0xbd00cc13	-0.03144462
170	0xbc7aa0f3	-0.015297162
171	0xbb154623	-0.00227774
172	0x3c2f1a22	0.010687383
173	0x3ca923ad	0.020646894
174	0xbc0a3395	-0.00843515
175	0x3cd5307f	0.026024101
176	0x3c808ffe	0.01569366
177	0xbbfdb8e9	-0.0077429903
178	0x3d10afb0	0.0353238
179	0x3c48f5dc	0.012265649
180	0xbce02c41	-0.027364852
181	0xbbce32ed	-0.006292692
182	0xbb8cf675	-0.004301841
183	0x3cd034d0	0.025415808
184	0x3b29ff3e	0.002593949
185	0x3c9d95d2	0.019236479
186	0x3c84ee00	0.016226768
187	0xbc05a9ce	-0.00815816
188	0x3c339ea5	0.010963117
189	0x3c84a0f9	0.016190039
190	0xbc328105	-0.0108950185
191	0x3c5d1143	0.013492885
192	0xbc035666	-0.008016204
193	0x3b86ae1c	0.004110111
194	0x3c92b184	0.017906912
195	0x3c3e7b7b	0.01162612
196	0x3bf266f7	0.0073975283
197	0x3cce25a4	0.025164433
198	0xbd081c5c	-0.03323017
199	0xbc3ff7d9	-0.011716806
200	0x3d16f7a6	0.03685727
201	0x3cd640e5	0.026153991
202	0x3cb8b2bf	0.02254617
203	0x3cbf482d	0.023349846
204	0x3af2f25d	0.0018535365
205	0xbc148fbf	-0.009067475
206	0x3b667e8b	0.003517064
207	0x3cf0be5d	0.029387647
208	0xbbf99ceb	-0.007617583
209	0x3c80a2b1	0.015702577
210	0xbcdfd615	-0.027323762
211	0xbce65483	-0.02811647
212	0xbceb760a	-0.028742809
213	0xbc8ee954	-0.017445244
214	0xbc349085	-0.011020784
215	0x3c9a7f1c	0.018859439
216	0xbc333a6c	-0.010939222
217	0x3c956be6	0.018239927
218	0x3b612d55	0.0034359295
219	0x3c890a4a	0.016728539
220	0x3c735ac0	0.014853179
221	0x3cf21017	0.029548688
222	0x3c219ab5	0.009863545
223	0x3c450046	0.012023991
224	0xbd06f533	-0.032948684
225	0xbc7b4ff6	-0.015338888
226	0x3bf44316	0.0074542863
227	0xbc58ba23	-0.013227972
228	0xbcb172e2	-0.021661226
229	0x3c304603	0.01075888
230	0x3d006cde	0.031353824
231	0x3cd29957	0.025707884
232	0xbc6d2f0c	-0.014476549
233	0x3c64afe1	0.013957948
234	0x3c88eaf9	0.016713606
235	0xbc9f97ed	-0.019481624
236	0xbc6f7a2c	-0.01461653
237	0x3c1bb70e	0.009504093
238	0x3d0eb53d	0.03484081
239	0x3bbee3be	0.005825489
240	0x3bbb6aec	0.005719533
241	0x3cf07b9c	0.029355817
242	0x3b399f03	0.0028323538
243	0x39c0e562	0.00036791997
244	0x3d12301d	0.035690416
245	0x3d148a09	0.036264453
246	0xbbc07942	-0.00587383
247	0x3d10562c	0.03523843
248	0x3d3567bb	0.04428838
249	0xbc20fde8	-0.009826161
250	0xbceab8b0	-0.028652519
251	0xbc8fa978	-0.017536864
252	0x3ce76450	0.028246075
253	0x3caee650	0.021350056
254	0xbc6d867a	-0.014497394
255	0xbc2e5682	-0.010640742

base.3.bias f4 [32]
0	0xb80be7fe	-3.3356242e-05
1	0xb85f61e5	-5.3258515e-05
2	0x3781f4d5	1.5492007e-05
3	0xb69e95da	-4.726212e-06
4	0xb797a004	-1.8075116e-05
5	0x38543407	5.0593193e-05
6	0xb86bb234	-5.619433e-05
7	0x37d4f4b8	2.5386325e-05
8	0x380970d7	3.2768436e-05
9	0xb74944a2	-1.1996513e-05
10	0x378ddb20	1.6910548e-05
11	0xb863d68f	-5.432084e-05
12	0x388788a2	6.4627515e-05
13	0x38101b75	3.4357847e-05
14	0x36349c8f	2.691322e-06
15	0x36e20873	6.7363085e-06
16	0xb7fa7090	-2.9854738e-05
17	0x37b8a086	2.2009259e-05
18	0x387611db	5.86676e-05
19	0xb82effa2	-4.172291e-05
20	0xb81e54c3	-3.7749076e-05
21	0x38cfb002	9.903313e-05
22	0x37c307e9	2.3249495e-05
23	0xb80efb9d	-3.408977e-05
24	0xb807c52c	-3.237014e-05
25	0x38987ff7	7.27176e-05
26	0x38828ec5	6.225476e-05
27	0x38f68958	0.00011755776
28	0x38cea1cc	9.8529825e-05
29	0xb6e044c6	-6.6837265e-06
30	0x388a56d0	6.596523e-05
31	0xb787c948	-1.6186983e-05

base.4.weight f4 [32]
0	0x3f7dc169	0.99123245
1	0x3f8108c8	1.0080805
2	0x3f7f00de	0.996107
3	0x3f807151	1.0034581
4	0x3f7f535e	0.99736583
5	0x3f80db35	1.0066897
6	0x3f804f78	1.0024252
7	0x3f7f6a8b	0.99771947
8	0x3f7e91cd	0.99441224
9	0x3f804a66	1.0022705
10	0x3f809670	1.004591
11	0x3f801f10	1.000948
12	0x3f80848e	1.0040452
13	0x3f7e9fe4	0.99462724
14	0x3f7ec824	0.9952414
15	0x3f7f4e9b	0.9972932
16	0x3f7e6a24	0.9938071
17	0x3f7eeb1a	0.99577487
18	0x3f805229	1.0025073
19	0x3f7da80f	0.9908456
20	0x3f7e29bf	0.9928245
21	0x3f8053ba	1.0025551
22	0x3f80191e	1.0007665
23	0x3f806614	1.0031152
24	0x3f7c7e63	0.9863035
25	0x3f804379	1.0020591
26	0x3f802795	1.001208
27	0x3f806437	1.0030583
28	0x3f8001b1	1.0000516
29	0x3f7fb84a	0.9989058
30	0x3f7d6156	0.9897665
31	0x3f7f4879	0.9971996

base.4.bias f4 [32]
0	0xbb948316	-0.004532228
1	0xba54ebc4	-0.000812229
2	0xbb369df5	-0.0027865146
3	0xbb0e8d21	-0.00217516
4	0xbba41f0c	-0.005008584
5	0x3bff1c82	0.007785381
6	0x3aad3aac	0.0013216338
7	0x3a80f51f	0.0009838677
8	0x3b980f03	0.0046404614
9	0xbc42141f	-0.011845618
10	0x3b131ecd	0.0022448779
11	0xbc06e17c	-0.008232471
12	0x3bdc4ae3	0.0067227944
13	0xbb6b9037	-0.0035944113
14	0xbb423bf3	-0.0029637783
15	0xbbfaefae	-0.0076579666
16	0xbc069630	-0.008214518
17	0xbada0f25	-0.0016636594
18	0x3b2aa4b5	0.0026038114
19	0xbad30f23	-0.0016102534
20	0xbbb0aebb	-0.0053919232
21	0xbb7434b9	-0.003726287
22	0xbba2b956	-0.0049659414
23	0xbb22b4a9	-0.002482692
24	0xbbb260a3	-0.005443649
25	0xbb08de13	-0.002088432
26	0x3c24990f	0.010046258
27	0xbb78ebd2	-0.0037982357
28	0xba6021f0	-0.0008549979
29	0xbb09b642	-0.0021013175
30	0x397614be	0.00023468115
31	0x3ad512c7	0.0016256206

base.4.running_mean f4 [32]
0	0x3d2beda4	0.04197468
1	0x3e322817	0.17398106
2	0x3da02b1d	0.07820723
3	0xbc9955dd	-0.0187177
4	0xbc08f236	-0.008358529
5	0xbc26300d	-0.010143292
6	0x3bb9f29b	0.005674673
7	0x3cae399b	0.021267703
8	0x3dc58e3a	0.09646268
9	0xbb2d4c3c	-0.0026443144
10	0x3e1c6792	0.15273884
11	0xbd3b59de	-0.04574
12	0xbdbdb058	-0.092621505
13	0x3c728c5c	0.014803972
14	0xbdf76e0d	-0.120815374
15	0x3dea51cc	0.11441383
16	0x3e50bcf7	0.20384584
17	0x3e07634d	0.13221474
18	0x3ca4d278	0.02011989
19	0xbe10848c	-0.14113063
20	0xbdb6f2fb	-0.089330636
21	0xbcd77449	-0.026300566
22	0x3d740704	0.059577003
23	0x3dad8f63	0.084746145
24	0x3dd55962	0.10417439
25	0xbc8a81a7	-0.016907526
26	0xbdecc2ca	-0.115605906
27	0xbdc8ec79	-0.098107286
28	0xbddb73e6	-0.10715465
29	0x3e104432	0.14088514
30	0xbdae0840	-0.08497667
31	0x3d6520fe	0.055939667

base.4.running_var f4 [32]
0	0x3db3ef25	0.087858476
1	0x3d4b00dd	0.04956137
2	0x3d9b6687	0.07587915
3	0x3d601467	0.054706957
4	0x3d97b835	0.074081816
5	0x3db5b24b	0.08871897
6	0x3d376307	0.044772174
7	0x3e02a4cf	0.12758182
8	0x3d7356fe	0.059409134
9	0x3d05b77e	0.032645695
10	0x3cacd0fa	0.021095742
11	0x3d801d9c	0.062556475
12	0x3d79ab3a	0.06095431
13	0x3d95818c	0.073001
14	0x3dce716d	0.10080228
15	0x3e121a6a	0.14267889
16	0x3d6393d9	0.05556092
17	0x3d0e9e97	0.03481921
18	0x3d21a0c2	0.03945995
19	0x3d89b986	0.06724839
20	0x3da8b021	0.08236719
21	0x3d130717	0.035895433
22	0x3d41ed8f	0.047345694
23	0x3da83fbd	0.08215282
24	0x3d05a56b	0.032628458
25	0x3d39844b	0.04529218
26	0x3deea6f7	0.1165294
27	0x3cd95e2f	0.026534168
28	0x3d8f761b	0.07004949
29	0x3d332d26	0.04374423
30	0x3d7a5ec6	0.06112554
31	0x3e147c5a	0.14500561

base.6.weight f4 [32, 32, 5, 5]
0	0x3cd40591	0.02588156
1	0x3c9ee7d8	0.019397661
2	0xbb7f6559	-0.003897032
3	0xbbca6a07	-0.00617719
4	0xbcc9093f	-0.024540542
5	0xbc3422c0	-0.010994613
6	0x3cea3cf2	0.028593514
7	0x3d04fff2	0.03247065
8	0x3cbaeb0a	0.022817153
9	0x3cb3d4e2	0.021952096
10	0xbc6953cc	-0.01424117
11	0x3bd60c18	0.0065322034
12	0xbcbdd053	-0.023170626
13	0xb983a6f4	-0.00025110657
14	0xbc40b55f	-0.011761992
15	0xbcb507e8	-0.022098497
16	0x3d0b5b58	0.03402266
17	0x3aa9278f	0.0012905466
18	0x3cc11997	0.023571773
19	0xbbb809a6	-0.0056163846
20	0x3c9ff89f	0.019527731
21	0x3ba29560	0.0049616545
22	0xbc97416b	-0.01846381
23	0xbcffdb80	-0.031232595
24	0xbd15df99	-0.036590192
25	0xbcc16c6c	-0.02361127
26	0xba8552e6	-0.00101718
27	0x3c57dda3	0.013175401
28	0x3c6ae91a	0.014337802
29	0xbc9fe139	-0.019516574
30	0x3c64f2f2	0.013973938
31	0x3b29ca60	0.0025907978
32	0xbc37912c	-0.011204045
33	0xbc48bd2e	-0.012252135
34	0x3c823651	0.01589504
35	0x3cbc4f95	0.022987166
36	0x3b17209e	0.0023060213
37	0xbd1c75df	-0.038198348
38	0xbc87863d	-0.016543502
39	0xbb96809e	-0.004592969
40	0xbc845f63	-0.016158765
41	0x3ccc2dfa	0.024924267
42	0xbd08100c	-0.03321843
43	0xbcd40aac	-0.025883995
44	0x3cd67f0c	0.026183628
45	0x3c7eda06	0.0155549105
46	0x3cbfd346	0.023416173
47	0xbc91b0d1	-0.017784508
48	0x3c65ca75	0.01402532
49	0x3c81360c	0.015772842
50	0xbc1c1df6	-0.009528628
51	0x3ce71f94	0.0282133
52	0x3c47a253	0.012184697
53	0xbb8b22df	-0.0042461003
54	0x3ce3414f	0.027741103
55	0xbc973b60	-0.01846093
56	0xbd156410	-0.03647238
57	0x3ca63e54	0.020293392
58	0xbcc76f49	-0.024345057
59	0x3c3bd0e5	0.011463379
60	0xbc9f8912	-0.01947454
61	0xbc3b023c	-0.011414107
62	0xbb8b4388	-0.0042499937
63	0xbc724f20	-0.014789373
64	0x3ccaa49d	0.024736697
65	0x3c401022	0.011722596
66	0x391e7ec1	0.00015115274
67	0x3c294c2a	0.0103331
68	0xbc819b8c	-0.01582124
69	0xbb5c2d41	-0.003359631
70	0x3a07080a	0.0005151039
71	0xbc51d0f6	-0.012806168
72	0xbc1545b3	-0.009110856
73	0xbc9e0866	-0.019291114
74	0x3c5d15ab	0.013493936
75	0xbc8aaea0	-0.01692897
76	0xbcfe6d30	-0.031057924
77	0xbc3ea79b	-0.01163664
78	0x3c11acf5	0.008891334
79	0xbd00d032	-0.03144855
80	0xbcd825b9	-0.026385175
81	0x3c987846	0.018612038
82	0xbc9f8220	-0.019471228
83	0x3d102ac5	0.03519704
84	0x3bb12ffa	0.0054073306
85	0x3c883c00	0.016630173
86	0xbcae66c3	-0.021289235
87	0x3c17d5d9	0.009267294
88	0xbc0c2d8a	-0.008555779
89	0x3c896662	0.016772453
90	0xbaef971b	-0.0018279286
91	0x3c4af6ed	0.012387973
92	0xbd1a0757	-0.037604656
93	0x399361b1	0.0002811081
94	0x3becf4b2	0.0072313184
95	0x3c3fa6a7	0.011697448
96	0xba89d500	-0.001051575
97	0xbbe82d4a	-0.007085477
98	0xbc890bc1	-0.016729238
99	0x3b1e39ea	0.0024143406
100	0xbc272d65	-0.010203694
101	0x3cf3d7e1	0.029766025
102	0xbd3fd906	-0.04683783
103	0x3ceed78f	0.02915552
104	0xbccd7241	-0.025078895
105	0xbb9396a8	-0.0045040436
106	0x3b8f3af2	0.0043710405
107	0x3c47c64f	0.012193277
108	0x3cf95b31	0.030438991
109	0xbb695f11	-0.0035609643
110	0xbca9eda8	-0.020743206
111	0xbcb6864a	-0.02228083
112	0x3b166919	0.0022950827
113	0xbc81244d	-0.01576438
114	0xbc9198dd	-0.017773086
115	0xbc99e908	-0.018787876
116	0x3b083e80	0.0020789206
117	0x3bc0dcd0	0.005885698
118	0x3c95c861	0.018284025
119	0x3a96e2ac	0.0011511645
120	0x3ba7a814	0.005116472
121	0x3c134f51	0.0089910785
122	0x3bc73880	0.0060797334
123	0x3a0fe9e3	0.0005489869
124	0x3c3294e0	0.010899752
125	0xbc569cdb	-0.013098921
126	0x3bea4c2d	0.007150194
127	0x3d1bda05	0.038049717
128	0xbc80ae27	-0.015708042
129	0x3c1162a2	0.008873614
130	0xbc035207	-0.008015162
131	0x3c6d08ce	0.014467431
132	0x3d5a3ae6	0.053278826
133	0xbb8814e3	-0.0041528805
134	0xbcde3bf5	-0.0271282
135	0x3b62f07f	0.003462821
136	0x3c07c357	0.008286319
137	0x3d27006c	0.040771887
138	0x3d1290a4	0.03578247
139	0xbb8062b3	-0.003918016
140	0x3c133110	0.008983865
141	0x3b6ec210	0.0036431588
142	0xba7214ac	-0.0009234648
143	0x3c984a21	0.018590035
144	0x3ce4af99	0.027915763
145	0x3a8410da	0.0010075823
146	0x3ccfbc8a	0.025358457
147	0xbceb5311	-0.028726133
148	0x3aa9d8ce	0.001295829
149	0x3bbf679e	0.0058412096
150	0x3cddfe9a	0.027098943
151	0xbb8157a1	-0.0039472138
152	0x3cb3a7c3	0.021930581
153	0x3c59331f	0.013256817
154	0xbc9c6b35	-0.019094089
155	0x3c84f155	0.016228357
156	0x3b265e42	0.0025385772
157	0xbd27ea8a	-0.04099516
158	0xbc8b144e	-0.016977455
159	0xbd0c83db	-0.034305435
160	0x3c571b97	0.0131291365
161	0x3b11cedc	0.0022248542
162	0x3b7110d3	0.003678371
163	0xbb252e10	-0.0025204457
164	0xbbb31274	-0.0054648463
165	0xbc460e9f	-0.012088447
166	0x3c518c50	0.012789801
167	0x3beeb67b	0.007284937
168	0x3c385a7a	0.01125204
169	0x3ced4c18	0.028966948
170	0x3cc49626	0.023997378
171	0x3cb593c2	0.022165183
172	0xbd1d93db	-0.038471084
173	0xba5cc564	-0.00084217475
174	0x3c887dd1	0.016661556
175	0xbcdf56ed	-0.02726313
176	0x3c0a39dd	0.008436647
177	0x3bc576f2	0.0060261423
178	0xbcd62968	-0.02614279
179	0x3d2f485d	0.04279362
180	0xbc9d6b1d	-0.019216115
181	0xbc99cbce	-0.01877394
182	0x3c05570c	0.008138429
183	0xbc74ede7	-0.014949298
184	0xbc4a7b87	-0.012358553
185	0xbbab57eb	-0.0052289865
186	0x3c76e1f0	0.015068516
187	0x3c9b4ad6	0.018956583
188	0xbc74addb	-0.0149340285
189	0x3d0f21c7	0.034944322
190	0xbd14f358	-0.036364883
191	0xbcb5c46f	-0.022188393
192	0x3c8cb5cc	0.017176531
193	0x3d16c424	0.036808148
194	0xbcd00660	-0.025393665
195	0x3c78e54e	0.015191389
196	0x3bfbe79c	0.007687522
197	0xbc1d68a3	-0.009607467
198	0x3ca9a0a8	0.02070649
199	0x3c92172e	0.017833319
200	0xbc915108	-0.017738834
201	0xbcb5fdcf	-0.022215752
202	0x3b3c5eb9	0.0028742983
203	0xbbf10234	-0.007354999
204	0xbc9bf0cc	-0.01903572
205	0xbc9861e1	-0.01860136
206	0xbbb8db19	-0.005641353
207	0x3cddceb9	0.027076112
208	0x3c73170c	0.014837038
209	0x3d11484a	0.03546933
210	0x3c4f89a3	0.0126670925
211	0x3d056849	0.032570157
212	0xbc786f0b	-0.015163193
213	0xbc54cffa	-0.012989039
214	0xbb9e5fc6	-0.0048331944
215	0xbc6fd55f	-0.014638274
216	0xbc5408d0	-0.012941554
217	0xbcab92d5	-0.020944038
218	0xbb98b23d	-0.0046599195
219	0x3d19e015	0.037567217
220	0xbc5d7f3b	-0.013519104
221	0xbc3d6192	-0.011558907
222	0x3c91f4b7	0.017816884
223	0x3cb2751f	0.021784363
224	0x3d13b016	0.0360566
225	0xbbdada03	-0.006678821
226	0x3cfba890	0.030720025
227	0xbce730a3	-0.028221434
228	0xbce0ba44	-0.027432568
229	0xbb2e2fb6	-0.002657873
230	0xbc9bd72d	-0.019023502
231	0x3b2f1a29	0.0026718474
232	0xbc939260	-0.018014133
233	0x3cfde9e0	0.03099531
234	0x3ca97c32	0.020689104
235	0xbc0a8918	-0.008455537
236	0x3d096572	0.03354401
237	0x3c92e618	0.017931983
238	0x3c7336b9	0.01484459
239	0x3cea51ed	0.028603518
240	0x3c989d55	0.01862971
241	0xbcaec1c7	-0.021332635
242	0xbc275d39	-0.010215097
243	0x3ccf6dbc	0.02532088
244	0x3d0b49e5	0.03400602
245	0x3cacb0ad	0.02108034
246	0xb7950ed8	-1.7769096e-05
247	0xbcb0858c	-0.021548055
248	0x3ceecd11	0.029150518
249	0x3c45d1f9	0.012073987
250	0x3c929314	0.017892398
251	0x3b9c1f93	0.004764506
252	0xbc9bb85f	-0.019008813
253	0xbb59c151	-0.0033226798
254	0xbd06fa33	-0.032953452
255	0xbb23effd	-0.002501487

base.6.bias f4 [32]
0	0x378909f5	1.633631e-05
1	0xb61198f7	-2.169572e-06
2	0xb8393354	-4.415524e-05
3	0xb6e55165	-6.8342074e-06
4	0xb8e04eba	-0.00010695816
5	0x36af081c	5.2163505e-06
6	0xb7575823	-1.283552e-05
7	0x36dd2cf1	6.591545e-06
8	0xb7b87ae1	-2.199173e-05
9	0x37d65484	2.5550144e-05
10	0xb6901419	-4.293874e-06
11	0xb76ed6f2	-1.4235951e-05
12	0x3526e67f	6.2175235e-07
13	0xb7aaa45c	-2.0342115e-05
14	0x37a7e0fa	2.0012714e-05
15	0x35daf510	1.6313588e-06
16	0x379befb8	1.8589068e-05
17	0xb5bfd0ea	-1.4291411e-06
18	0xb775a84d	-1.4642324e-05
19	0xb64b655b	-3.0308354e-06
20	0xb5830f29	-9.764673e-07
21	0xb6aeedb6	-5.2132773e-06
22	0x37c34f49	2.3282731e-05
23	0x3747324e	1.1873037e-05
24	0x37c3aeb2	2.332716e-05
25	0x372ce0c2	1.0304329e-05
26	0xb7215a43	-9.6173635e-06
27	0xb8833fb9	-6.258436e-05
28	0x38016edc	3.0859243e-05
29	0xb72afa9c	-1.0191139e-05
30	0x37ff822d	3.0458987e-05
31	0xb843eea2	-4.6713867e-05

base.7.weight f4 [32]
0	0x3f85a2aa	1.0440266
1	0x3f83351c	1.0250583
2	0x3f85edab	1.0463156
3	0x3f864903	1.0491031
4	0x3f861b2d	1.0477043
5	0x3f8384e6	1.0274932
6	0x3f848c61	1.035534
7	0x3f853659	1.040721
8	0x3f85f834	1.046637
9	0x3f85517c	1.0415492
10	0x3f857e59	1.0429183
11	0x3f83c78b	1.0295271
12	0x3f860e1c	1.0473056
13	0x3f877c8b	1.0584882
14	0x3f85afc7	1.0444268
15	0x3f874da5	1.057057
16	0x3f83600b	1.0263685
17	0x3f83e3b9	1.030387
18	0x3f869cac	1.0516562
19	0x3f855025	1.0415083
20	0x3f84bd97	1.0370358
21	0x3f85a268	1.0440187
22	0x3f8622f3	1.0479416
23	0x3f8574d2	1.0426276
24	0x3f876309	1.0577098
25	0x3f84d156	1.0376384
26	0x3f88a3cf	1.067499
27	0x3f866a93	1.0501274
28	0x3f84b755	1.0368448
29	0x3f851def	1.039976
30	0x3f870a79	1.0550071
31	0x3f8534a3	1.0406688

base.7.bias f4 [32]
0	0x3ca26cd0	0.019827276
1	0x3cb231d6	0.02175228
2	0x3c81acab	0.015829405
3	0x3cd2a991	0.025715621
4	0x3c8e0f33	0.017341232
5	0x3c5dec7d	0.013545153
6	0x3c743a45	0.014906471
7	0x3cbd290b	0.02309086
8	0x3cb4f255	0.02208821
9	0x3caeaba2	0.021322075
10	0x3ced4ecd	0.02896824
11	0x3ca6d967	0.020367337
12	0x3cbc4b7c	0.022985213
13	0x3cbaec9c	0.022817902
14	0x3c7e7ee0	0.015533179
15	0x3d156a94	0.036478594
16	0x3c56570d	0.013082278
17	0x3cc77918	0.024349734
18	0x3d33fd5f	0.043942805
19	0x3c8154b5	0.015787462
20	0x3c8f8154	0.017517723
21	0x3cec771a	0.028865386
22	0x3cade2b2	0.02122626
23	0x3c4aeaaf	0.0123850545
24	0x3ce6a5dd	0.028155262
25	0x3c96cdc3	0.018408662
26	0x3cc3c98f	0.023899822
27	0x3c408c8f	0.011752262
28	0x3b7dedd0	0.0038746484
29	0x3c30a675	0.010781874
30	0x3d15c60f	0.036565837
31	0x3caaea23	0.020863598

base.7.running_mean f4 [32]
0	0xbc7af095	-0.015316148
1	0x3e8399de	0.2570333
2	0xbe1c4a58	-0.15262735
3	0x3eb2dd6b	0.34934554
4	0x3e5bb8ef	0.21457265
5	0x3bb23a3a	0.00543907
6	0x3e15e12e	0.1463668
7	0xbe20241f	-0.15638779
8	0x3d987a5d	0.07445214
9	0x3e24222a	0.16028658
10	0x3d99f9f8	0.07518381
11	0xbd59368d	-0.05303054
12	0x3e9f85f5	0.3115689
13	0x3e526686	0.20546922
14	0x3e40cb08	0.1882745
15	0x3ea67c1a	0.32516557
16	0xbe672efd	-0.22576518
17	0x3dbccb09	0.092184134
18	0x3e2b9989	0.16757788
19	0x3dc5e6f5	0.09663192
20	0x3c25c230	0.010117099
21	0x3e8a52ce	0.270163
22	0x3ce6de7f	0.028182266
23	0x3d86c16c	0.06579861
24	0x3e6cb0ba	0.23114291
25	0x3e0e659c	0.13905948
26	0x3e1ebec4	0.15502459
27	0x3e1c9d95	0.15294488
28	0x3d597f9d	0.053100217
29	0x3d8b5995	0.06804196
30	0x3d807776	0.06272785
31	0xbd68b9ef	-0.056817945

base.7.running_var f4 [32]
0	0x3db9a281	0.09064198
1	0x3db49e11	0.08819211
2	0x3ddf7802	0.109115615
3	0x3d7acfd0	0.06123334
4	0x3d5e0538	0.054204196
5	0x3d633b94	0.05547674
6	0x3e0213e0	0.12702894
7	0x3db5bcbc	0.08873889
8	0x3d64cd6d	0.05585997
9	0x3d6cab55	0.057780582
10	0x3db282b6	0.087163374
11	0x3dd23f87	0.10266023
12	0x3dfde4b1	0.12397135
13	0x3d322a47	0.04349735
14	0x3d7a2f45	0.061080236
15	0x3d9acf26	0.07559042
16	0x3e158042	0.14599708
17	0x3dd5024f	0.10400831
18	0x3df44db6	0.11928885
19	0x3ddbcf88	0.10732943
20	0x3dc9a06e	0.09845053
21	0x3da4f119	0.08053798
22	0x3d9abef9	0.075559564
23	0x3e3bc861	0.18338157
24	0x3d4756e4	0.04866685
25	0x3df045e4	0.117320806
26	0x3d6a47ef	0.057197507
27	0x3d80ebc9	0.062949724
28	0x3e8a797f	0.2704582
29	0x3e16a489	0.14711203
30	0x3d01d1aa	0.03169409
31	0x3df0abf2	0.11751546

head.0.weight f4 [24, 1024]
0	0x3c875622	0.016520564
1	0x3c7832bf	0.015148818
2	0x3c5c6b06	0.013453251
3	0x3c4536cc	0.01203699
4	0x3b79ea8c	0.0038134186
5	0xb80ae3af	-3.311381e-05
6	0x3b8eb8d4	0.0043555293
7	0xbca0cda5	-0.019629309
8	0x3bd8eb40	0.006619841
9	0xbcd10fc5	-0.025520215
10	0x3b5504d9	0.003250411
11	0x3b930005	0.0044860863
12	0x3c6353c5	0.013874953
13	0x3c7cee12	0.01543762
14	0x3c8ea5ca	0.017413039
15	0x3c8b84e8	0.017031148
16	0x3d114c90	0.035473406
17	0x3cc457e6	0.023967694
18	0xbc3ec483	-0.011643532
19	0x3b8b7b1e	0.00425662
20	0x3ba717b4	0.005099261
21	0x3d03f2ff	0.03221416
22	0xbb428b72	-0.0029685167
23	0x3cba9e93	0.022780692
24	0xbced704b	-0.02898421
25	0xbc11b30c	-0.008892786
26	0xbd0d5d28	-0.03451267
27	0x3bcafede	0.0061949333
28	0x3b97163c	0.004610805
29	0x3cf09a97	0.02937059
30	0x3caf59e0	0.02140516
31	0xbbfdfdbe	-0.0077511957
32	0x3b0bb9bd	0.0021320425
33	0xbab7a481	-0.0014010818
34	0xbafc6485	-0.0019256031
35	0xbb7fbc81	-0.003902227
36	0xbc0ea531	-0.008706377
37	0x3becc009	0.007225041
38	0x3b95620d	0.0045588077
39	0x3cd78103	0.026306635
40	0x3d158336	0.036502086
41	0xbbe018a2	-0.006838874
42	0x3d118702	0.035529144
43	0x3b4f60af	0.0031643321
44	0x3b2ad4f8	0.002606688
45	0x3b17d484	0.002316744
46	0x3b14039d	0.0022585161
47	0x3b11a3eb	0.0022222947
48	0x3cff70a4	0.03118164
49	0x3c9b150e	0.018930938
50	0xbc723d7d	-0.014785168
51	0x3cd79544	0.026316293
52	0x3ccb0591	0.024782928
53	0xbc812bd3	-0.015767967
54	0xbbcdb9c2	-0.0062782476
55	0xbbbb0eb2	-0.005708539
56	0x3c924330	0.017854303
57	0xbd1999fa	-0.03750036
58	0xbcb25946	-0.021771085
59	0x3cde9e60	0.027175128
60	0x3cdb225e	0.026749786
61	0x3cc59b79	0.024121987
62	0xbc8601df	-0.016358314
63	0xbcacc364	-0.021089263
64	0x3b3719ad	0.0027938888
65	0xbd2118a4	-0.03933014
66	0xbbf5a8a1	-0.007496909
67	0xbd0866b6	-0.033301078
68	0xbcce58ec	-0.025188886
69	0xbd19cab4	-0.03754683
70	0x3c1bf959	0.009519898
71	0x3cac2393	0.021013057
72	0x3be7d51e	0.007074966
73	0xbcbe882d	-0.023258293
74	0xbca4200b	-0.02003481
75	0xbc684200	-0.014175892
76	0xbd244c4a	-0.040111817
77	0xbcde7c44	-0.027158864
78	0xbb94649d	-0.0045285956
79	0xbd2489b4	-0.040170386
80	0x0000132a	6.875e-42
81	0x8000807f	-4.6096e-41
82	0x80005bd6	-3.2945e-41
83	0x80001998	-9.181e-42
84	0x00007b70	4.4281e-41
85	0xbb7bb7ef	-0.0038409194
86	0x3ce0142b	0.027353367
87	0x3b461a4b	0.0030228074
88	0x3b04af51	0.0020246098
89	0xbc511cd0	-0.012763217
90	0xbcb0b103	-0.02156878
91	0xbb14ecc7	-0.0022724138
92	0x3a5dcf27	0.0008461349
93	0xb8d2398b	-0.000100242985
94	0xb90c8ea1	-0.00013404574
95	0x0000132a	6.875e-42
96	0x35b0c269	1.3169603e-06
97	0x310c1fda	2.0390787e-09
98	0xb4a597f0	-3.0844194e-07
99	0x2e74484b	5.5543386e-11
100	0x3697276b	4.5047395e-06
101	0xbaf6991d	-0.0018813942
102	0x3b804780	0.0039147735
103	0x3d1ba530	0.037999332
104	0x3d3b1c25	0.045681138
105	0x3ca9c5e6	0.020724248
106	0xbacb4c8e	-0.0015510486
107	0xbc53b580	-0.012921691
108	0xbc261b3d	-0.01013833
109	0xbb238232	-0.0024949429
110	0xbbfa0981	-0.0076305275
111	0xb674e972	-3.6494716e-06
112	0xbb343c6e	-0.002750184
113	0xbb8ab7cd	-0.0042333365
114	0xbb372058	-0.0027942862
115	0xbad27122	-0.0016055445
116	0xbc67f0c1	-0.014156521
117	0x3b97e029	0.0046348763
118	0xbcef185f	-0.029186426
119	0xbc8e2783	-0.017352825
120	0x3b91cf12	0.0044497335
121	0xbcd32eea	-0.025779206
122	0xbc0ce7d7	-0.008600197
123	0xbab61b2b	-0.0013893595
124	0x3ae6aa49	0.0017598356
125	0xbac8fc07	-0.0015333899
126	0xba89bf3c	-0.0010509263
127	0xba884684	-0.0010396992
128	0x3a1dd809	0.00060212665
129	0x3a1fc17a	0.0006094199
130	0x39d7fde1	0.0004119715
131	0x3af208d9	0.0018465772
132	0xbc8a9e07	-0.016921056
133	0x3c9ba6b9	0.019000398
134	0x3c11bfc7	0.008895821
135	0x3ab07a79	0.0013464234
136	0x3bc04ad6	0.005868296
137	0x3d0b9850	0.034080803
138	0xbc4853c1	-0.012227
139	0x3c99cd32	0.018774603
140	0x39872374	0.0002577562
141	0x3a3a1659	0.0007098667
142	0x3a5e5bda	0.0008482315
143	0x3a1dd809	0.00060212665
144	0xbd0b15f6	-0.03395649
145	0x3b6ce5cf	0.0036147719
146	0xbd0d44eb	-0.034489553
147	0xbd231139	-0.039811347
148	0xbc381d75	-0.011237492
149	0xbc863566	-0.016382884
150	0xbcadc296	-0.02121095
151	0x3ce2e27a	0.027695883
152	0x3b69caf5	0.003567395
153	0x3c60a110	0.013710275
154	0x3b9da788	0.004811231
155	0xbc713578	-0.014722221
156	0xbc539208	-0.0129132345
157	0xbbf54edb	-0.007486207
158	0xbd48b128	-0.048997074
159	0xbd16d758	-0.03682646
160	0x3cdffba0	0.027341664
161	0x3beebcf0	0.0072857067
162	0x3d595d13	0.053067278
163	0x3d544b08	0.051829368
164	0x3d133c04	0.035945907
165	0x3d12b499	0.035816763
166	0x3c95cbdf	0.01828569
167	0x3c33303a	0.010936791
168	0x3c117e59	0.008880221
169	0x3c52dd8b	0.012870203
170	0x3d041414	0.03224571
171	0xbc02da59	-0.007986628
172	0x3d314424	0.043277875
173	0x3cf3d5ec	0.029765092
174	0xbb2e4c14	-0.002659564
175	0x3d5b6786	0.053565525
176	0x80004af1	-2.6884e-41
177	0x80004af1	-2.6884e-41
178	0x8000b168	-6.3641e-41
179	0x80008f53	-5.1415e-41
180	0x380712be	3.2203963e-05
181	0x3cd6149f	0.02613288
182	0x3bf1a977	0.007374938
183	0xbc409a45	-0.011755531
184	0xbc1a16e4	-0.009404872
185	0xbcc70e7f	-0.024298904
186	0xbcc5a1b6	-0.024124961
187	0x3bc3ba3f	0.00597313
188	0xb9aefa2b	-0.00033374256
189	0x3912e6fd	0.00014009695
190	0xb933533c	-0.00017101777
191	0x39072151	0.00012887015
192	0x800075d4	-4.2269e-41
193	0x8000a767	-6.0053e-41
194	0x8000983b	-5.461e-41
195	0x0000ae38	6.2498e-41
196	0x00003dfc	2.2236e-41
197	0xb8d41c87	-0.000101142614
198	0x3cb5ed30	0.022207826
199	0x3cf4fd6c	0.029905997
200	0xbd50a0f3	-0.050934743
201	0x3cbfc37d	0.023408646
202	0x3ca3d9fc	0.020001404
203	0x39bb3be6	0.00035712047
204	0xb9f12a02	-0.000459984
205	0x3a2243f0	0.0006189933
206	0xb93d98da	-0.00018081386
207	0x800068b4	-3.756e-41
208	0xbbb62c4c	-0.00555948
209	0x3c3e54ec	0.011616927
210	0xbc61522b	-0.0137525005
211	0x3be56fd6	0.0070018573
212	0x3cb9761c	0.022639327
213	0x3d22939e	0.03969156
214	0x3b2c5311	0.0026294629
215	0x3ba7427f	0.0051043625
216	0xbba71c79	-0.0050998298
217	0x3b77a618	0.0037788209
218	0x3cae87b9	0.021304952
219	0x3c3fe8ec	0.011713248
220	0xbcd91d3e	-0.026503202
221	0xbcdecc6d	-0.027197087
222	0xbccf475f	-0.025302587
223	0x3bb1b73b	0.005423454
224	0x3aecde47	0.0018071615
225	0xbd072ad8	-0.032999843
226	0xbcb41b85	-0.021985779
227	0x3c97cb00	0.018529415
228	0xbb941a0b	-0.004519706
229	0x3d0aed70	0.033917844
230	0x3cf7a29f	0.030228911
231	0x3d1c1671	0.03810734
232	0x3d0c9101	0.034317974
233	0xbbd71c33	-0.006564641
234	0xbb8cb2c9	-0.004293774
235	0xbbb2b9e5	-0.0054542893
236	0xbbee029e	-0.0072634956
237	0x3c86b2fa	0.016442765
238	0xbc90ede1	-0.017691555
239	0xbd157853	-0.036491703
240	0x3af58bd0	0.0018733684
241	0x39b5742c	0.00034609565
242	0xbaf71f33	-0.0018853903
243	0xbb7eb7ff	-0.0038866994
244	0x3c0f409e	0.008743433
245	0x39ba08bb	0.0003548319
246	0x3c0b0751	0.008485631
247	0xbcb2ea49	-0.021840231
248	0xbcd0b9ce	-0.025479224
249	0x3a2df24c	0.00066355313
250	0xbc6f9a5b	-0.014624204
251	0xbcf6e8b8	-0.030140266
252	0x3c03bb95	0.0080403285
253	0xbad3df0a	-0.0016164493
254	0x3a7c36f0	0.00096212234
255	0x3b087d6a	0.0020826706

head.0.bias f4 [24]
0	0x3ccc7e4f	0.024962572
1	0x3c5acaba	0.013353998
2	0x3b9b28f7	0.004735108
3	0xbc8fae57	-0.017539186
4	0xbca6e3c2	-0.020372275
5	0xbc386ac1	-0.011255921
6	0xbbc034f7	-0.005865689
7	0xbb9e0739	-0.0048226384
8	0x3d01ce7b	0.031691056
9	0x3ba0dfd0	0.004909493
10	0x3cb6c4e5	0.022310684
11	0x3cc55e93	0.024092948
12	0x3a85489e	0.0010168736
13	0x3ccd505f	0.025062738
14	0xbc3373fa	-0.010952944
15	0x39415614	0.00018437981
16	0xbb56868a	-0.0032734
17	0x3d04a5e3	0.032384764
18	0x3cb1ed14	0.021719493
19	0x3c77ad14	0.015116949
20	0xba054563	-0.0005083887
21	0xbc8d320c	-0.017235778
22	0x3c0f5e0d	0.008750451
23	0xbc173225	-0.009228264

head.2.weight f4 [2, 24]
0	0xbe1c4fa0	-0.1526475
1	0x3e858556	0.2607829
2	0xbc27d442	-0.010243477
3	0x3dcc4105	0.09973339
4	0xbd4c3884	-0.049858585
5	0xbdf2165b	-0.1182067
6	0x3ba9a82e	0.0051775193
7	0x3c655a5e	0.013998596
8	0xbe4f2f9d	-0.20233007
9	0x3e4e4dc8	0.20146859
10	0xbdfdb05b	-0.12387153
11	0xbe79b3e2	-0.24385026
12	0xbd1511a6	-0.036393784
13	0x3e538c1b	0.20658915
14	0xbde9e880	-0.11421299
15	0x3e51003c	0.20410246
16	0x3dd0438b	0.10169133
17	0x3e46cfb4	0.1941517
18	0x3e22c9b0	0.1589725
19	0x3e6a9973	0.22910099
20	0x3d941961	0.07231403
21	0x3e199c46	0.1500102
22	0xbd9e757a	-0.077372506
23	0x3e21483f	0.15750216
24	0x3e0f1bc3	0.13975434
25	0xbe0b3bcc	-0.1359703
26	0x3de76157	0.11297863
27	0xbde7af1c	-0.11312696
28	0x3e2b35e1	0.16719772
29	0xbe80add9	-0.25132635
30	0xbe3838ed	-0.17990465
31	0xbe0ada8e	-0.13559934
32	0x3e482653	0.1954587
33	0xbe65c58c	-0.2243864
34	0x3e205064	0.15655667
35	0x3e549b3f	0.20762347
36	0x3d1511a6	0.036393784
37	0x3c65e720	0.014032155
38	0x3e12c89b	0.14334337
39	0x3daf2980	0.08552837
40	0xbd7d9af5	-0.061915357
41	0x3bb83493	0.0056215017
42	0xbe67faed	-0.22654314
43	0x3cdae35f	0.026719747
44	0x3e28582e	0.16439888
45	0xbd1c0e48	-0.038099557
46	0x3e5a894b	0.21341436
47	0xbd44fdfb	-0.048093777

head.2.bias f4 [2]
0	0x3e0dbf7f	0.13842581
1	0xbd0dc335	-0.034609992
