models/AC-RM-2 Q_LR=0.001 P_LR=5e-06 BATCH_SIZE=128 GAMMA=0.99 MEMORY_SIZE=150000 BETA=0.05_policy_3369.pt (torch, 319747 bytes, 22 tensors)

base.0.weight f4 [32, 2, 5, 5]
0.08475875 -0.008293947 0.11986248 0.088844426 -0.09706294 -0.012528255 0.08336676 -0.14159946
-0.12696667 -0.058667805 0.10635845 0.06565052 -0.1325881 -0.060023036 -0.0533174 0.019327676
0.006104238 0.10039638 -0.096159086 -0.06585452 0.0048516756 -0.018030811 -0.051174972 -0.09819234
-0.00480837 -0.02229544 0.12099274 0.12616526 0.06412665 0.09220297 -0.031724706 0.07564873
-0.108641 -0.06857147 -0.1241251 0.07450209 -0.073690265 0.0054120566 -0.11978125 0.06087382
0.04034392 0.06274836 0.119572766 0.056716178 0.0012940947 0.057217732 -0.02022196 0.02068856
-0.020916793 -0.12009006 -0.060167607 -0.05109762 -0.116730854 0.12217568 -0.060012955 -0.07503009
0.019619618 0.009189541 -0.014372614 0.088340074 0.0221709 0.08151194 -0.12861386 -0.046031583
-0.12242383 0.01671273 -0.08493976 0.020446004 0.06270387 0.113549784 -0.0057964493 -0.08137949
-0.14819764 0.07030386 -0.1256775 -0.031443827 -0.024789996 -0.013933007 -0.0896807 -0.14636788
0.07330457 0.14015365 0.0702405 0.10056112 0.08744676 0.065748185 -0.020047124 0.00071471115
0.015889838 0.06669009 0.011414435 0.0029700226 -0.029749824 -0.051945627 -0.04983379 -0.12197691
0.100812234 0.11833924 0.053947795 0.08885936 -0.048844796 0.032498196 -0.06601623 -0.005472287
0.049110163 0.035207946 0.058421455 -0.026142638 -0.016244652 -0.030543033 0.07815278 0.00046014995
0.039554134 -0.12652971 0.11541574 0.13170585 0.07103965 0.10171068 0.10271538 0.11211643
-0.07765475 0.053090014 0.031587128 0.06600593 0.11959339 -0.02979814 0.06595046 0.0899826
-0.035668317 -0.012271963 -0.046053316 -0.03966671 -0.077595614 -0.101006255 -0.121868424 0.0032866548
0.07387376 0.055033315 -0.039157525 0.01359809 -0.037532587 -0.02507399 -0.042966716 -0.042843282
0.050582893 0.06444419 -0.051034052 0.10948661 0.06481119 0.110993385 0.02745112 0.102445796
0.030863723 0.094158664 -0.06351068 0.12531456 0.023035789 0.1271379 -0.032811854 -0.09513274
-0.109755315 -0.032100637 -0.039596103 0.08243294 0.10960361 0.030651422 -0.083465025 0.09830009
-0.11835014 -0.118114606 -0.087428145 0.09823155 -0.053520046 0.07592852 0.084526986 -0.031411614
0.12842426 -0.034459054 -0.0125748785 0.03518773 -0.07756982 0.11694234 -0.022764968 0.0481297
0.027165728 -0.08996102 0.06666518 -0.029699763 -0.12617649 -0.072680965 0.105683826 -0.033391073
-0.04566991 -0.10388006 -0.097864956 -0.1328493 0.12691976 -0.083840765 -0.03667287 -0.08672313
-0.032477368 0.13219324 -0.110881925 0.091384485 0.116532944 0.024201911 -0.033574067 -0.13406496
0.037575763 0.06340395 -0.067931406 -0.014024876 0.078697965 -0.017471593 -0.073879175 -0.087440476
0.04578491 0.0546427 -0.13644473 -0.027131954 0.077932425 -0.0622582 0.045032848 0.09104461
-0.10614003 -0.10844681 -0.13764408 0.03725071 -0.031217711 -0.035739098 0.12257486 -0.110826366
0.13470344 -0.120473996 -0.14189437 -0.06903791 0.07719611 0.08846977 -0.05310835 0.11789044
-0.14180775 -0.007321857 0.052378647 0.076720074 -0.08942773 -0.005571912 -0.08015866 0.11092898
-0.06854167 -0.088000886 -0.13011445 0.13593188 0.022408811 -0.07621343 0.056631286 -0.011261617
00000000: ff95 ad3d 56e3 07bc 767a f53d 11f4 b53d
00000010: efc8 c6bd 4f43 4dbc 31bc aa3d 73ff 10be
00000020: 8d03 02be a74d 70bd 76d2 d93d c873 863d
00000030: 2dc5 07be b7da 75bd 5963 5abd 1355 9e3c
00000040: 0f06 c83b 9e9c cd3d 0eef c4bd bcde 86bd
00000050: cefa 9e3b 5ab5 93bc d99c 51bd 1119 c9bd
00000060: 888f 9dbb eda4 b6bc 0bcb f73d 7731 013e
00000070: d554 833d e9d4 bc3d c4f1 01bd b9ed 9a3d
00000080: 2c7f debd 336f 8cbd 4d35 febd 8d94 983d
00000090: ecea 96bd 9f57 b13b df4f f5bd d456 793d
000000a0: ab3f 253d 3682 803d 91e2 f43d 394f 683d
000000b0: 9d9e a93a 245d 6a3d 86a8 a5bc 0e7b a93c
000000c0: b259 abbc c7f1 f5bd 4f72 76bd bd4b 51bd
000000d0: 9610 efbd 3e37 fa3d 25d0 75bd 60a9 99bd
000000e0: 52b9 a03c bb8f 163c 1d7b 6bbc a4eb b43d
000000f0: bf9f b53c bbef a63d 5ab3 03be 9d8b 3cbd
00000100: 58b9 fabd 23e9 883c e6f4 adbd 617e a73c
00000110: e36a 803d ca8c e83d 24f0 bdbb 4aaa a6bd
00000120: 1fc1 17be 78fb 8f3d 9ab1 00be 3ecb 00bd
00000130: 6414 cbbc 4447 64bc 84aa b7bd 76e1 15be
00000140: b520 963d 7084 0f3e 40da 8f3d fdf2 cd3d
00000150: 4917 b33d fca6 863d de39 a4bc 745b 3b3a
00000160: 682b 823c d094 883d 9c03 3b3c b6a4 423b
00000170: e7b5 f3bc f0c4 54bd 841e 4cbd 08cf f9bd
00000180: a576 ce3d d85b f23d 5df8 5c3d e5fb b53d
00000190: 7b11 48bd d41c 053d 8433 87bd df50 b3bb
000001a0: bd27 493d 3536 103d 564b 6f3d 1629 d6bc
000001b0: 8113 85bc 6235 fabc 910e a03d 4840 f139
000001c0: 8403 223d 0191 01be 165f ec3d e6dd 063e
000001d0: 3c7d 913d b04d d03d 715c d23d 4d9d e53d
000001e0: 7409 9fbd ea74 593d 8161 013d 1e2e 873d
000001f0: 61ed f43d 3b1b f4bc 0911 873d cc48 b83d
00000200: f118 12bd 5810 49bc 67a2 3cbd 8f79 22bd
00000210: 73ea 9ebd 5edc cebd 2796 f9bd eb64 573b
00000220: 204b 973d 9d6a 613d a463 20bd 86ca 5e3c
00000230: c5bb 19bd f867 cdbc defd 2fbd 707c 2fbd
00000240: 0230 4f3d 51fb 833d 1509 51bd 843a e03d
00000250: bbbb 843d 8050 e33d 2ce1 e03c 1acf d13d
00000260: ebd5 fc3c 42d6 c03d e311 82bd 7652 003e
00000270: 8db5 bc3c 7030 023e b965 06bd f4d4 c2bd
00000280: 65c7 e0bd f57b 03bd 862f 22bd 9ad2 a83d
00000290: dc77 e03d b118 fb3c b6ef aabd 8f51 c93d
000002a0: 8f61 f2bd 12e6 f1bd 870d b3bd 9f2d c93d
000002b0: d637 5bbd 6980 9b3d 7c1c ad3d 77a9 00bd
000002c0: a681 033e f024 0dbd dd06 4ebc 0221 103d
000002d0: eddc 9ebd 777f ef3d 997d babc a623 453d
000002e0: a98a de3c 7c3d b8bd c187 883d eb4c f3bc
000002f0: 6934 01be c2d9 94bd c370 d83d 14c5 08bd
00000300: 5f10 3bbd 12bf d4bd 6c6d c8bd a609 08be
00000310: 41f7 013e b5b4 abbd 4b36 16bd e59b b1bd
00000320: fd06 05bd aa5d 073e 1016 e3bd ca27 bb3d
00000330: d3a8 ee3d 1643 c63c f684 09bd 5348 09be
00000340: 0be9 193d eed9 813d 9f1f 8bbd 98c8 65bc
00000350: 662c a13d 9620 8fbc f74d 97bd fe13 b3bd
00000360: f588 3b3d 06d1 5f3d 2bb8 0bbe d543 debc
00000370: 099b 9f3d 7402 7fbd 5d74 383d 9975 ba3d
00000380: f25f d9bd 5c19 debd 92f2 0cbe 3394 183d
00000390: 49bc ffbc 2963 12bd 8708 fb3d eff8 e2bd
000003a0: b3ef 093e 12bb f6bd c24c 11be bf63 8dbd
000003b0: fe18 9e3d a42f b53d 2488 59bd 8b70 f13d
000003c0: 0d36 11be 30ec efbb fe8a 563d 6a1f 9d3d
000003d0: e325 b7bd 9694 b6bb 392a a4bd bc2e e33d
000003e0: 935f 8cbd cf39 b4bd b93c 05be ba31 0b3e
000003f0: af92 b73c c915 9cbd 35f6 673d a582 38bc

base.0.bias f4 [32]
2.5968042e-05 -0.00030596557 8.733681e-05 -0.00010716033 -0.00011188759 -2.453175e-05 0.00029838184 -0.0004569011
-3.1317442e-05 -0.00016625477 -1.4300931e-05 2.0722107e-05 2.1118773e-05 -0.0003623893 -0.0003556902 0.0001038361
0.0004281059 0.0003823045 -4.6435394e-05 0.0002804515 2.4553328e-06 9.467156e-06 8.315498e-05 3.3184165e-06
0.00010198507 0.00028840586 -0.0001323258 8.471568e-05 3.0584364e-05 0.00018110346 0.0002208076 0.00017035937
00000000: f2d5 d937 016a a0b9 9828 b738 44bb e0b8
00000010: 31a5 eab8 88c9 cdb7 2270 9c39 3a8c efb9
00000020: d95a 03b8 ad54 2eb9 08ee 6fb7 63d4 ad37
00000030: 3828 b137 12ff bdb9 ee7b bab9 95c2 d938
00000040: 6773 e039 0b70 c839 a0c3 42b8 9009 9339
00000050: 4cc6 2436 20d5 1e37 7d63 ae38 f6b1 5e36
00000060: d1e0 d538 2e35 9739 f0c0 0ab9 62a9 b138
00000070: b647 0038 97e6 3d39 9788 6739 7fa2 3239

base.1.weight f4 [32]
0.99069434 1.0078093 0.99554384 1.0001749 0.99072295 0.9903284 1.0006641 1.0064232
0.9915976 1.011341 0.9960459 0.99961984 0.9836691 0.98993194 1.0119025 0.99127054
1.0050224 1.0253359 0.99604136 0.9987205 0.995322 0.9915244 1.0040267 0.98762476
0.9985956 0.98876506 0.99370867 0.98677915 1.0040821 0.99151033 1.0162653 1.0075622
00000000: 259e 7d3f e5ff 803f f6db 7e3f bb05 803f
00000010: 05a0 7d3f 2986 7d3f c315 803f 7ad2 803f
00000020: 57d9 7d3f 9f73 813f ddfc 7e3f 16e7 7f3f
00000030: bdd1 7b3f 2e6c 7d3f 0586 813f e8c3 7d3f
00000040: 93a4 803f 353e 833f 91fc 7e3f 26ac 7f3f
00000050: 6ccd 7e3f 8bd4 7d3f f283 803f fad4 7c3f
00000060: f6a3 7f3f b51f 7d3f b163 7e3f 8f9d 7c3f
00000070: c385 803f 9fd3 7d3f fb14 823f ccf7 803f

base.1.bias f4 [32]
-0.004135502 0.007696908 0.004696471 0.003214985 0.00046955922 0.00033139467 0.002157788 -0.0049437587
-0.0034708814 0.010198357 0.0049742735 0.0032714978 -0.009138332 -0.001852704 0.006312367 -0.00066008646
0.005193729 -0.00072256103 -0.009870377 0.00656392 -0.004534186 0.0006702187 0.0010341529 -0.005412848
1.513771e-05 -0.00916348 0.0011557245 -0.012348735 0.010113481 -0.004658264 0.004918476 0.0016715049
00000000: 1b83 87bb 5836 fc3b dbe4 993b 7fb2 523b
00000010: 2c2f f639 0abf ad39 ad69 0d3b 41ff a1bb
00000020: ba77 63bb 0217 273c 3bff a23b a066 563b
00000030: f1b8 15bc 6ed6 f2ba f9d7 ce3b a709 2dba
00000040: 2830 aa3b 406a 3dba 5db7 21bc 2716 d73b
00000050: 8293 94bb 9eb1 2f3a 6a8c 873a 435e b1bb
00000060: f8f7 7d37 6c22 16bc ae7b 973a 5952 4abc
00000070: 04b3 253c 5aa4 98bb 2b2b a13b 6616 db3a

base.1.running_mean f4 [32]
-0.072385356 -0.07827415 0.777703 -0.17833637 -0.50210065 -0.7037384 -0.18977264 0.17286141
1.1523477 0.1293085 0.32601455 -0.092950165 -0.98266864 -0.18451078 -0.008292632 0.26637238
0.12827025 0.2268742 -0.29410237 0.39338654 0.15914327 0.76436985 -0.047457643 -0.24581227
-0.49868435 -0.12137841 0.29595602 -0.44575784 0.047748838 0.71154445 -0.054669917 0.116011105
00000000: c63e 94bd 334e a0bd 8b17 473f cf9d 36be
00000010: ab89 00bf 3328 34bf c253 42be 9502 313e
00000020: 2180 933f 7369 043e 61eb a63e a85c bebd
00000030: 2c90 7bbf 65f0 3cbe d2dd 07bc f661 883e
00000040: 4759 033e b651 683e 9694 96be f669 c93e
00000050: 74f6 223e bead 433f f262 42bd 36b6 7bbe
00000060: 8e53 ffbe 3e95 f8bd 8c87 973e 5f3a e4be
00000070: 4994 433d c727 363f 90ed 5fbd 3b97 ed3d

base.1.running_var f4 [32]
0.004483756 0.00043919354 0.010250761 0.0028179463 0.0030799266 0.0055596284 0.0018970966 0.0008293277
0.013211839 0.0004546291 0.0028506208 0.0017485068 0.011001336 0.0011397181 0.00011239599 0.0023726006
0.0005649869 0.0010907139 0.0022105048 0.0017936262 0.0005665817 0.008368213 0.00053966395 0.0019290209
0.0031232887 0.00084359344 0.002046354 0.0039027168 0.00072135363 0.00512773 0.0012755687 0.0017678274
00000000: 79ec 923b 8f43 e639 cff2 273c 4bad 383b
00000010: 98d8 493b 8b2d b63b 00a8 f83a 3d67 593a
00000020: 7876 583c 495b ee39 7bd1 3a3b 272e e53a
00000030: f33e 343c 9862 953a 23b6 eb38 a27d 1b3b
00000040: a11b 143a 49f6 8e3a 1ede 103b 1c18 eb3a
00000050: a786 143a d41a 093c 3c78 0d3a 33d7 fc3a
00000060: 17b0 4c3b 9924 5d3a 201c 063b b9c4 7f3b
00000070: 3919 3d3a 8406 a83b fc30 a73a 72b6 e73a

base.3.weight f4 [32, 32, 5, 5]
-0.0075028483 0.014377133 -0.042337123 -0.0018148131 0.022797218 0.004454534 -0.023056803 0.0026195352
-0.013947252 0.021654552 0.017972594 0.013307517 -0.03231813 0.01618742 -0.018604646 -0.0012391357
0.030772705 0.014979646 -0.014846263 -0.02540267 -0.0053697587 0.02730621 -0.004595647 0.005584497
0.029341199 -0.010789289 -0.030128652 0.023439925 -0.037265703 0.013021371 0.014784802 -0.032293357
0.011496496 0.029383825 0.018220732 -0.02524901 0.02543995 0.0034560729 0.0014074224 -0.015046137
-0.028727584 -0.021937456 0.0025217875 0.025182042 -0.02661185 -0.019075777 0.024373723 -0.022030216
0.024944523 -0.027556641 0.027703803 -0.015427539 -0.008441439 -0.015230128 -0.028570939 -0.028967304
0.0029535552 0.022997187 -0.010963401 0.0062752822 -0.019757317 0.0069120554 0.032446977 0.033240687
0.018450389 -0.006306424 -0.0044102883 -0.00896975 -0.022769056 -0.037472606 0.0045036455 0.007958353
-0.0036767367 -0.00644305 0.013845667 -0.02280155 -0.01958726 0.026412264 -0.010149542 0.024434684
-0.0008671418 -0.03626399 -0.028635655 -0.013517175 -0.03153293 -0.0036759637 -0.019409953 0.01768534
-0.0339497 -0.022138681 -0.002877373 -0.027866395 -0.02732555 0.03141694 0.01409096 -0.028181216
9.552362e-05 -0.016312785 0.008720572 0.020617792 0.031070502 -0.00396067 0.0051054982 0.028166266
-0.012329808 0.007444047 0.027995493 0.014773008 0.03458166 -0.0071967407 0.0053392267 -0.000916923
-0.0038158041 7.940831e-05 0.022074902 -0.029804684 -0.027409522 0.009331224 0.021489643 -0.026732393
0.03204973 0.030617986 0.0065856827 0.005224352 0.009790628 -0.010792167 -0.0052986518 -0.025645174
-0.0073164394 -0.014491203 0.00045265772 0.0017890492 0.03162884 -0.023711445 0.016941667 0.017273398
0.004087202 0.016462907 -0.024622746 -0.028060222 0.01844274 0.013125908 -0.007967341 0.013405892
0.0072231926 0.01497537 0.0054359147 -0.030012343 -0.0029636745 -0.018021028 0.024703382 -0.024105567
-0.036465097 0.0035260932 0.0077028847 -0.037337862 0.03109955 0.01812376 0.0040255976 -0.024203846
0.018809719 -0.019887144 -0.03497267 0.005824201 0.0062432364 -0.005568929 -0.0010735637 -0.012788256
-0.0013979909 -0.030990763 -0.014853491 -0.0017522569 0.0103061125 0.020150267 -0.008656455 0.024830157
0.014747058 -0.007920048 0.034533147 0.012396842 -0.029166408 -0.007482283 -0.0050395723 0.024098706
0.0032132769 0.018661244 0.01376993 -0.008410879 0.008586003 0.015551279 -0.012648871 0.012710323
-0.008629067 0.0020095012 0.017582715 0.008362885 0.0066765663 0.024178963 -0.035016168 -0.013764161
0.03607298 0.026172485 0.024549933 0.024105301 0.0015649492 -0.009323501 0.0028025948 0.029801102
-0.0078954445 0.0154618295 -0.025913557 -0.027877903 -0.029528778 -0.017739335 -0.012323172 0.017214753
-0.012192565 0.017352989 0.0032552448 0.016994432 0.014564419 0.030542929 0.009695122 0.011352742
-0.03334035 -0.017814336 0.005643628 -0.013088475 -0.023485824 0.012213367 0.029256932 0.023547195
-0.015164837 0.011550722 0.016052555 -0.021710023 -0.017205134 0.009288248 0.033539705 0.003919211
0.004747227 0.028401094 0.0029387104 -0.0021110056 0.03458912 0.03440441 -0.006996608 0.035722136
0.042513512 -0.0110744005 -0.029246474 -0.017097883 0.028223965 0.02168911 -0.015329381 -0.010310202
00000000: 74da f5bb 118e 6b3c b169 2dbd 06df edba
00000010: 3bc1 ba3c 57f7 913b 9fe1 bcbc 82ac 2b3b
00000020: 0483 64bc e364 b13c 433b 933c c607 5a3c
00000030: 0460 04bd 7b9b 843c c568 98bc 7f6a a2ba
00000040: 0a17 fc3c 306d 753c be3d 73bc 4319 d0bc
00000050: cdf4 afbb 46b1 df3c 1597 96bb 28fe b63b
00000060: f45c f03c 8fc5 30bc 5dd0 f6bc 1605 c03c
00000070: eca3 18bd 9757 553c f43b 723c 0a46 04bd
00000080: cd5b 3c3c 59b6 f03c a543 953c 03d7 cebc
00000090: 7167 d03c 487f 623b 4279 b83a 1384 76bc
000000a0: 1c56 ebbc 2eb6 b3bc 9344 253b 924a ce3c
000000b0: 1801 dabc ce44 9cbc 67ab c73c b678 b4bc
000000c0: 7558 cc3c 77be e1bc 16f3 e23c cac3 7cbc
000000d0: f64d 0abc c987 79bc 9a0d eabc d74c edbc
000000e0: 6f90 413b 9964 bc3c d69f 33bc e2a0 cd3b
000000f0: 19da a1bc 867e e23b 1fe7 043d 6327 083d
00000100: 4525 973c 1ea6 cebb 2e84 90bb dcf5 12bc
00000110: 2c86 babc e07c 19bd 5193 933b c063 023c
00000120: 68f5 70bb 3920 d3bb f0d8 623c 51ca babc
00000130: 7675 a0bc 885e d83c 444a 26bc 3f2b c83c
00000140: e750 63ba 8d89 14bd 5295 eabc 2477 5dbc
00000150: ac28 01bd 70e8 70bb 9f01 9fbc d9e0 903c
00000160: d70e 0bbd 2e5c b5bc 4f92 3cbb 1148 e4bc
00000170: d5d9 dfbc 0daf 003d c5dd 663c 4bdc e6bc
00000180: da53 c838 64a2 85bc bbe0 0e3c a5e6 a83c
00000190: 9187 fe3c 82c8 81bb 064c a73b f1bc e63c
000001a0: f702 4abc 31ed f33b ce56 e53c 7d0a 723c
000001b0: 80a5 0d3d a3d2 ebbb aef4 ae3b a95d 70ba
000001c0: 9212 7abb 0388 a638 6dd6 b43c f428 f4bc
000001d0: ef89 e0bc fde1 183c 0c0b b03c e4fd dabc
000001e0: 9446 033d 92d2 fa3c b6cc d73b 0a31 ab3b
000001f0: df68 203c a1d1 30bc 50a0 adbb d415 d2bc
00000200: bebe efbb 836c 6dbc b152 ed39 887e ea3a
00000210: 3e8d 013d 813e c2bc 40c9 8a3c f180 8d3c
00000220: efed 853b 38dd 863c a4b5 c9bc 8dde e5bc
00000230: 3b15 973c 0c0e 573c 7389 02bc 63a4 5b3c
00000240: 88b0 ec3b 415b 753c c21f b23b 72dc f5bc
00000250: 353a 42bb d6a0 93bc bf5e ca3c 0a79 c5bc
00000260: 6d5c 15bd 0716 673b 7b68 fc3b 96ef 18bd
00000270: 7cc4 fe3c 4878 943c 29e9 833b 2547 c6bc
00000280: d716 9a3c 5dea a2bc 813f 0fbd f0d8 be3b
00000290: 1094 cc3b 907b b6bb d2b6 8cba d585 51bc
000002a0: ca3c b7ba 57e0 fdbc 0f5c 73bc fcab e5ba
000002b0: f8da 283c 2c12 a53c ced3 0dbc 9d68 cb3c
000002c0: a59d 713c 17c3 01bc a172 0d3d 201c 4b3c
000002d0: 64ee eebc f02d f5bb ff22 a5bb a66a c53c
000002e0: d795 523b 77df 983c 469b 613c c9cd 09bc
000002f0: 4fac 0c3c cbca 7e3c 363d 4fbc f53e 503c
00000300: ee60 0dbc d6b1 033b a009 903c 7b04 093c
00000310: 19c7 da3b f612 c63c 1d6d 0fbd 1383 61bc
00000320: 43c1 133d ae67 d63c f11c c93c 7b78 c53c
00000330: fb1e cd3a 99c1 18bc bdab 373b 7121 f43c
00000340: e55b 01bc 9d53 7d3c ab48 d4bc 3360 e4bc
00000350: 56e6 f1bc 1552 91bc 21e7 49bc f405 8d3c
00000360: 53c3 47bc db27 8e3c f255 553b e837 8b3c
00000370: 9a9f 6e3c 2a35 fa3c 4ad8 1e3c da00 3a3c
00000380: e48f 08bd 5fef 91bc 2fee b83b 0b71 56bc
00000390: 5865 c0bc 931a 483c 3cac ef3c 0ce6 c03c
000003a0: f075 78bc 3d3f 3d3c a680 833c 38d9 b1bc
000003b0: c8f1 8cbc bc2d 183c ee60 093d ba6c 803b
000003c0: a08e 9b3b 69a9 e83c 6197 403b cc58 0abb
000003d0: 52ad 0d3d a3eb 0c3d cd43 e5bb 6051 123d
000003e0: a622 2e3d 6771 35bc 4d96 efbc dc10 8cbc
000003f0: f235 e73c 5cad b13c 1628 7bbc 1fec 28bc

base.3.bias f4 [32]
4.20941e-06 -6.0380344e-06 -8.6781216e-07 1.0999904e-06 1.0112162e-06 -5.5397168e-06 5.0842096e-05 -2.1461788e-07
-2.8983454e-06 -1.5820575e-05 -2.3067323e-05 -4.8589386e-06 5.8703245e-06 -7.1964596e-06 -1.00834e-05 1.0220099e-05
2.3765747e-06 1.8307259e-05 -3.0266074e-06 1.6218894e-05 1.6683345e-05 -1.6865166e-05 -6.077191e-06 1.6638987e-05
1.0083543e-05 -1.3411903e-06 -1.1204147e-05 -6.4089916e-05 -1.2811017e-05 2.6501946e-05 1.3174253e-05 1.8740153e-05
00000000: 8e3e 8d36 529a cab6 99f3 68b5 62a3 9335
00000010: 20b9 8735 cee1 b9b6 493f 5538 b771 66b4
00000020: 3281 42b6 6db6 84b7 b380 c1b7 f709 a3b6
00000030: b4f9 c436 1e79 f1b6 e02b 29b7 fe76 2b37
00000040: 3e7d 1f36 8a92 9937 b81c 4bb6 cf0d 8837
00000050: 36f3 8b37 ab79 8db7 acea cbb6 f493 8b37
00000060: 7d2c 2937 f302 b4b5 72f9 3bb7 0368 86b8
00000070: e6ee 56b7 7f50 de37 fc06 5d37 2c34 9d37

base.4.weight f4 [32]
0.99190116 1.0060554 0.9954408 1.0059791 0.998843 1.006393 1.0017419 0.9974644
0.9945558 0.99972 1.0046079 1.0006996 1.004155 0.99389493 0.99629223 0.9996359
0.9958955 0.99645203 1.0014699 0.9912791 0.99362326 1.0028114 1.0004829 1.0033425
0.98557293 1.0010957 1.001393 1.0023246 1.0014389 0.9992841 0.9900044 0.99795735
00000000: 3ced 7d3f 6cc6 803f 35d5 7e3f ecc3 803f
00000010: 2db4 7f3f 7cd1 803f 1439 803f d459 7f3f
00000020: 359b 7e3f a6ed 7f3f fe96 803f ed16 803f
00000030: 2788 803f e66f 7e3f 020d 7f3f 23e8 7f3f
00000040: 02f3 7e3f 7b17 7f3f 2a30 803f 78c4 7d3f
00000050: 185e 7e3f 205c 803f d30f 803f 876d 803f
00000060: 824e 7c3f e723 803f a52d 803f 2c4c 803f
00000070: 262f 803f 15d1 7f3f ee70 7d3f 227a 7f3f

base.4.bias f4 [32]
-0.004157958 -0.0021092175 -0.0034313009 -0.0021810713 -0.0020076046 0.0097095985 0.0034127547 0.0011245835
0.0042556818 -0.009715192 0.0021129355 -0.00588124 0.006773163 -0.0032595724 -0.002406883 -0.007758177
-0.0068932893 0.00012386679 0.0020202997 -0.0014844094 -0.0044313674 -0.0023660685 -0.004815614 -0.0024775106
-0.006009876 -0.0013887937 0.010066068 -0.0043024286 -0.00045239725 -0.0018901166 0.0022853834 0.0015188808
00000000: 7b3f 88bb cc3a 0abb addf 60bb 4ef0 0ebb
00000010: 0492 03bb 0215 1f3c 86a8 5f3b c366 933a
00000020: 3f73 8b3b 782c 1fbc 2d79 0a3b 6bb7 c0bb
00000030: 69f1 dd3b 8d9e 55bb ccbc 1dbb 4e38 febb
00000040: 1ae1 e1bb 3de2 0139 0167 043b 8490 c2ba
00000050: 0135 91bb 0b10 1bbb 4ccc 9dbb bb5d 22bb
00000060: 7eee c4bb 2f08 b6ba 26ec 243c 63fb 8cbb
00000070: bb2f edb9 cabd f7ba 5fc6 153b 2f15 c73a

base.4.running_mean f4 [32]
0.03936985 0.15176566 0.04089289 -0.0148072075 -0.01869084 -0.0005882617 -0.006979755 0.017081391
0.07696867 0.0035957776 0.16316871 -0.036720194 -0.08106202 -0.003102657 -0.09502031 0.17077492
0.19719914 0.13955761 0.0060608685 -0.14158155 -0.08861379 -0.060364634 0.09019924 0.07857978
0.121151365 0.016123338 -0.10339859 -0.1325618 -0.12235299 0.10632125 -0.101866774 0.08418392
00000000: 4842 213d 7568 1b3e 4e7f 273d ee99 72bc
00000010: 881d 99bc 9335 1aba 6eb6 e4bb 46ee 8b3c
00000020: c0a1 9d3d 23a7 6b3b b315 273e ea67 16bd
00000030: d803 a6bd f255 4bbb 029a c2bd 9fdf 2e3e
00000040: 92ee 493e 31e8 0e3e 409a c63b c1fa 10be
00000050: 267b b5bd e840 77bd 61ba b83d 70ee a03d
00000060: 351e f83d 1715 843c a4c2 d3bd 48be 07be
00000070: 3494 fabd f5be d93d 879f d0bd 9e68 ac3d

base.4.running_var f4 [32]
0.07010881 0.038204357 0.0983674 0.07977291 0.048994526 0.04612496 0.03348732 0.12640966
0.09192226 0.016386488 0.025974728 0.0660941 0.051921356 0.10006044 0.06829668 0.07297729
0.052926823 0.052172408 0.05227706 0.052831933 0.07821989 0.03758628 0.06386305 0.05987196
0.03538553 0.047383737 0.097703286 0.049070086 0.088390745 0.046395846 0.064969115 0.124216475
00000000: 3595 8f3d 2c7c 1c3d d974 c93d fb5f a33d
00000010: 7cae 483d 87ed 3c3d 002a 093d 8971 013e
00000020: bd41 bc3d f53c 863c f4c8 d43c 585c 873d
00000030: 7dab 543d 7dec cc3d 21df 8b3d 1e75 953d
00000040: ccc9 583d bcb2 553d 7820 563d 4c66 583d
00000050: c031 a03d 12f4 193d a1ca 823d 4d3c 753d
00000060: 6bf0 103d 7315 423d a918 c83d b7fd 483d
00000070: 3506 b53d 9209 3e3d 870e 853d 3565 fe3d

base.6.weight f4 [32, 32, 5, 5]
0.025512232 0.018440787 -0.004513739 -0.0073909867 -0.023967938 -0.010587375 0.027589425 0.03196187
0.022480017 0.021559376 -0.013943071 0.005885177 -0.022879647 -0.00026084683 -0.01227513 -0.021196216
0.033199973 0.0008878896 0.022462968 -0.0074784677 0.019196225 0.0043520653 -0.018963223 -0.03405573
-0.035231672 -0.026004557 -0.0010525702 0.012205086 0.011655669 -0.022246381 0.013105546 0.0031093946
-0.011151808 -0.013575981 0.012095845 0.022886373 0.0025814134 -0.037924234 -0.017601332 -0.007583849
-0.017235234 0.024985295 -0.03363808 -0.02601507 0.024919495 0.014649011 0.022295572 -0.01803232
0.01354968 0.014460208 -0.011793748 0.027167052 0.011253914 -0.007122463 0.026381653 -0.020495204
-0.03715186 0.019313117 -0.025963204 0.010682671 -0.020840844 -0.012259869 -0.004509695 -0.0154043855
0.02445289 0.009409308 -0.0011892536 0.01088391 -0.017512944 -0.0036308314 -0.0009950942 -0.010818822
-0.006672377 -0.0188574 0.013117007 -0.016375594 -0.029230667 -0.012059461 0.009040889 -0.031116085
-0.025976442 0.01986791 -0.02101418 0.036103077 0.0063184937 0.016651502 -0.020423383 0.008856573
-0.008376048 0.0176461 -0.0030445773 0.012977971 -0.03850896 -0.002245008 0.0066913036 0.010824385
-0.00016681461 -0.008142893 -0.018640878 0.00049242354 -0.013387178 0.03147806 -0.04687617 0.027330313
-0.028520737 -0.0063594924 0.0053962977 0.011968043 0.030353565 -0.0047487915 -0.02131669 -0.021292416
0.0023185366 -0.016137118 -0.01970234 -0.021081174 0.0033296747 0.006417134 0.01711954 0.00053819537
0.0049599567 0.009479133 0.009487651 0.00088745286 0.008734154 -0.012070534 0.009094992 0.037719376
-0.018091192 0.011158466 -0.0077026165 0.015378793 0.051979467 -0.005434856 -0.03037805 0.0056092595
0.008655857 0.040432513 0.034179643 -0.0056028417 0.00999727 0.0047006793 -0.0006605402 0.0162505
0.02766197 0.003573299 0.02672908 -0.027942719 0.00038812635 0.0074468027 0.026428629 -0.0036884916
0.021667885 0.014038886 -0.018305846 0.015226658 0.0030275795 -0.040994916 -0.014392712 -0.030521229
0.011352311 0.0022282144 0.0039247586 -0.000552476 -0.0034202007 -0.014769803 0.010293991 0.0070035076
0.009322851 0.028890882 0.021765513 0.020852484 -0.036628056 -0.0016921866 0.018274406 -0.025775077
0.0076658465 0.0045826184 -0.028142221 0.03997863 -0.017028019 -0.01802164 0.0073758336 -0.016201762
-0.014618299 -0.0029109658 0.015812999 0.01837526 -0.015753035 0.034220327 -0.036147766 -0.020583281
0.017809475 0.03551553 -0.023222104 0.016121492 0.0073282276 -0.011530276 0.020378571 0.019806102
-0.015967086 -0.023166167 0.0047124755 -0.0078990385 -0.01987906 -0.016207462 -0.007931621 0.026429031
0.011988296 0.034759793 0.014858985 0.030076941 -0.015751468 -0.015100183 -0.005085832 -0.0130972145
-0.014831488 -0.019572563 -0.0066975197 0.03718362 -0.012723301 -0.0133322235 0.01749931 0.020931493
0.037782516 -0.0072987755 0.03106669 -0.028298838 -0.028741552 -0.004734108 -0.019346401 0.002725378
-0.018502796 0.028468356 0.018620541 -0.008146411 0.033113427 0.018279348 0.01320282 0.027459115
0.018452018 -0.022382066 -0.011262667 0.024652524 0.033364583 0.019934919 -0.0029590605 -0.019716017
0.027376957 0.014029683 0.015571464 0.0069912435 -0.019644413 0.0004922905 -0.030600084 -0.005113224
00000000: 07ff d03c 2211 973c fde7 93bb 1730 f2bb
00000010: 6958 c4bc ab76 2dbc 3803 e23c 73ea 023d
00000020: 0328 b83c 4a9d b03c 7a71 64bc 71d8 c03b
00000030: 196e bbbc 45c2 88b9 a01d 49bc b0a3 adbc
00000040: b2fc 073d 43c1 683a 4204 b83c ef0d f5bb
00000050: 6741 9d3c c59b 8e3b c358 9bbc 057e 0bbd
00000060: 164f 10bd 8207 d5bc 65f6 89ba d7f7 473c
00000070: 6bf7 3e3c 0b3e b6bc a5b8 563c fcc6 4b3b
00000080: 13b6 36bc cb6d 5ebc a72d 463c 347c bb3c
00000090: ee2c 293b 7156 1bbd ab30 90bc f081 f8bb
000000a0: e830 8dbc f6ad cc3c 15c8 09bd 8e1d d5bc
000000b0: f823 cc3c 6802 703c 34a5 b63c 84b8 93bc
000000c0: 7aff 5d3c 82ea 6c3c 903a 41bc 708d de3c
000000d0: 5662 383c 8d63 e9bb 561e d83c 8fe5 a7bc
000000e0: 8c2c 18bd 8b36 9e3c c9b0 d4bc 5f06 2f3c
000000f0: 6bba aabc 9edd 48bc 10c6 93bb ad62 7cbc
00000100: 6d51 c83c 8029 1a3c bbe0 9bba 6d52 323c
00000110: 4e77 8fbc 3ef3 6dbb d26d 82ba 6e41 31bc
00000120: f5a3 dabb d67a 9abc b7e8 563c 1c26 86bc
00000130: 2775 efbc 0c95 45bc 3d20 143c 29e7 febc
00000140: 8ccc d4bc 07c2 a23c ee25 acbc d2e0 133d
00000150: 5e0b cf3b bb68 883c f04e a7bc 291b 113c
00000160: b13b 09bc 8e8e 903c 8887 47bb 8ea1 543c
00000170: 92bb 1dbd fc20 13bb b942 db3b c358 313c
00000180: f5ea 2eb9 c569 05bc c1b4 98bc fc15 013a
00000190: e555 5bbc 23ef 003d 3a01 40bd d2e3 df3c
000001a0: 52a4 e9bc 4a63 d0bb 6dd3 b03b 9c15 443c
000001b0: 0aa8 f83c c09b 9bbb 57a0 aebc 6f6d aebc
000001c0: 97f2 173b fd31 84bc cd66 a1bc 6db2 acbc
000001d0: ac36 5a3b d246 d23b 473e 8c3c ae15 0d3a
000001e0: 2287 a23b 5e4e 1b3c 1872 1b3c f4a3 683a
000001f0: b219 0f3c 7dc3 45bc 2903 153c a27f 1a3d
00000200: fb33 94bc 00d2 363c 3b66 fcbb 55f7 7b3c
00000210: 6ce8 543d e016 b2bb 63db f8bc e1cd b73b
00000220: 4cd1 0d3c 909c 253d f4ff 0b3d 0b98 b7bb
00000230: 97cb 233c 2808 9a3b 1a28 2dba c51f 853c
00000240: 5b9b e23c 022e 6a3b f2f6 da3c 21e8 e4bc
00000250: 707d cb39 4f04 f43b da80 d83c 9fba 71bb
00000260: d980 b13c 5b03 663c 24f6 95bc 3c79 793c
00000270: 5b6a 463b 49ea 27bd 69cf 6bbc a807 fabc
00000280: 0bff 393c 3c07 123b 439b 803b 09d4 10ba
00000290: 7225 60bb 0bfd 71bc 21a8 283c ae7d e53b
000002a0: dfbe 183c 92ac ec3c 974d b23c d4d2 aa3c
000002b0: 4d07 16bd 5ccc ddba 35b4 953c 4126 d3bc
000002c0: c831 fb3b ca29 963b 848a e6bc a2c0 233d
000002d0: 587e 8bbc 1ea2 93bc fab0 f13b 8fb9 84bc
000002e0: 9781 6fbc e7c5 3ebb 438a 813c b787 963c
000002f0: 820c 81bc 9d2a 0c3d ae0f 14bd 459e a8bc
00000300: 2de5 913c bb78 113d 483c bebc 3811 843c
00000310: a121 f03b 7ce9 3cbc f6f0 a63c 6840 a23c
00000320: 68cd 82bc f9c6 bdbc 1c6b 9a3b f86a 01bc
00000330: 69d9 a2bc 83c5 84bc a1f3 01bc b281 d83c
00000340: 8f6a 443c 4960 0e3d 1a73 733c eb63 f63c
00000350: 3909 81bc c266 77bc 0da7 a6bb b395 56bc
00000360: c5ff 72bc a456 a0bc de76 dbbb da4d 183d
00000370: 6475 50bc 666f 5abc b75a 8f3c 8678 ab3c
00000380: d7c1 1a3d 912a efbb 927f fe3c f7d2 e7bc
00000390: 6773 ebbc 9420 9bbb 587c 9ebc 419c 323b
000003a0: 2d93 97bc 7836 e93c 1b8a 983c 8678 05bc
000003b0: f2a1 073d 92be 953c a450 583c f0f1 e03c
000003c0: b028 973c 985a b7bc 0d87 38bc 17f4 c93c
000003d0: 4da9 083d 8e4e a33c ccec 41bb 7c83 a1bc
000003e0: a445 e03c c1dc 653c 741f 7f3c cd16 e53b
000003f0: 52ed a0bc 0e0d 013a 07ad fabc d58c a7bb

base.6.bias f4 [32]
-6.41554e-06 -1.1691399e-06 5.3793456e-06 1.812179e-05 7.86178e-06 -1.5971233e-05 -7.80831e-07 3.070803e-06
1.6290194e-05 8.105726e-06 6.8189943e-06 7.516819e-07 1.0727948e-05 1.6600047e-06 4.2222823e-06 5.2294704e-06
1.9048488e-05 -6.4006294e-06 3.7722423e-06 -4.285502e-06 3.2933706e-06 -1.0031417e-05 -1.941165e-05 1.7443144e-05
-4.957083e-06 3.1194306e-06 -5.356459e-06 -2.8156885e-05 -3.2168502e-06 -1.7266393e-05 -1.8607146e-06 -3.2004038e-05
00000000: 1245 d7b6 57eb 9cb5 3a80 b436 3f04 9837
00000010: 17e6 0337 f6f9 85b7 4c9a 51b5 fe13 4e36
00000020: eda6 8837 d4fd 0737 b7ce e436 30c7 4935
00000030: 30fc 3337 54cd de35 21ad 8d36 cf78 af36
00000040: 51ca 9f37 fdc4 d6b6 a126 7d36 2fcc 8fb6
00000050: ad03 5d36 9c4c 28b7 33d6 a2b7 de52 9237
00000060: 0555 a6b6 6957 5136 a2bb b3b6 7332 ecb7
00000070: 11e1 57b6 4cd7 90b7 abbd f9b5 133c 06b8

base.7.weight f4 [32]
1.0448009 1.021549 1.0437198 1.0423979 1.0446066 1.028521 1.0335974 1.0390244
1.0459185 1.0357122 1.041675 1.0273722 1.0461289 1.0531536 1.0402604 1.0497837
1.0259644 1.0279284 1.0435799 1.0372694 1.0347408 1.0368984 1.044166 1.0423414
1.0497885 1.0352318 1.0622708 1.0456077 1.0349964 1.0381522 1.0486085 1.0392096
00000000: 09bc 853f 1ec2 823f 9c98 853f 4b6d 853f
00000010: abb5 853f 93a6 833f eb4c 843f c0fe 843f
00000020: a8e0 853f 3892 843f 9b55 853f ef80 833f
00000030: 8de7 853f bdcd 863f 4127 853f 505f 863f
00000040: cd52 833f 2893 833f 0794 853f 3ec5 843f
00000050: 6372 843f 16b9 843f 3ba7 853f 716b 853f
00000060: 785f 863f 7a82 843f 7df8 873f 79d6 853f
00000070: c37a 843f 2ce2 843f ce38 863f d204 853f

base.7.bias f4 [32]
0.020055905 0.019426208 0.015479342 0.021878207 0.017066317 0.013713035 0.013692267 0.02249884
0.021806097 0.021593992 0.027131764 0.019942826 0.02152251 0.022287367 0.014407229 0.03408083
0.012610161 0.020618204 0.038027894 0.015929714 0.0161045 0.024432285 0.02058424 0.012251246
0.02747136 0.01784915 0.019334693 0.010530713 0.002576484 0.010352373 0.034236312 0.020426432
00000000: 484c a43c b623 9f3c 119d 7d3c ed39 b33c
00000010: a9ce 8b3c a3ac 603c 8855 603c 7d4f b83c
00000020: b3a2 b23c e2e5 b03c 6f43 de3c 235f a33c
00000030: fa4f b03c ff93 b63c 4c0c 6c3c 5798 0b3d
00000040: d99a 4e3c 82e7 a83c 23c3 1b3d 087f 823c
00000050: 96ed 833c 3726 c83c 48a0 a83c 73b9 483c
00000060: 9e0b e13c 6138 923c ca63 9e3c 0389 2c3c
00000070: 3bda 283b 009d 293c 603b 0c3d 5555 a73c

base.7.running_mean f4 [32]
-0.007313341 0.21121332 -0.02583017 0.25077268 0.27043727 0.025785659 0.14133734 0.037795264
0.043057755 0.07757738 0.27386472 -0.28386462 0.29577503 0.25051868 0.25513196 0.32725582
-0.2027446 0.025809508 0.16085656 -0.13229801 0.05698694 0.310823 -0.07041093 -0.07963972
0.26990667 0.07838748 0.11060108 0.10041178 -0.017018218 0.080221385 0.1053958 -0.16957545
00000000: c0a4 efbb 4e48 583e cb99 d3bc 4765 803e
00000010: c176 8a3e 723c d33c bcba 103e 35cf 1a3d
00000020: 545d 303d e4e0 9e3d ff37 8c3e b456 91be
00000030: d36f 973e fc43 803e a8a0 823e 138e a73e
00000040: 489c 4fbe 766e d33c 95b7 243e 2179 07be
00000050: 236b 693d 3124 9f3e 9b33 90bd 261a a3bd
00000060: 3531 8a3e 9d89 a03d d282 e23d b1a4 cd3d
00000070: ca69 8bbc 1c4b a43d c1d9 d73d 30a5 2dbe

base.7.running_var f4 [32]
0.025360394 0.04405672 0.094289705 0.04742462 0.08313741 0.15406057 0.07773547 0.088403344
0.059929926 0.05912998 0.13073573 0.12432535 0.049005706 0.044785228 0.15302211 0.13106467
0.13950577 0.050484948 0.08719396 0.11844297 0.06995644 0.10795858 0.062528886 0.06830005
0.08362306 0.07543921 0.06250139 0.05350759 0.105074905 0.14785437 0.09962712 0.071324304
00000000: 9ac0 cf3c d274 343d f61a c13d 5140 423d
00000010: f243 aa3d 0ec2 1d3e c633 9f3d d00c b53d
00000020: 1579 753d 4732 723d 96df 053e 4a9e fe3d
00000030: 35ba 483d b770 373d d4b1 1c3e d135 063e
00000040: 9ada 0e3e 4ec9 4e3d bf92 b23d 3a92 f23d
00000050: 5245 8f3d 6319 dd3d 250f 803d e6e0 8b3d
00000060: 9142 ab3d df7f 9a3d bb00 803d c62a 5b3d
00000070: 8331 d73d 2367 173e 4e09 cc3d 7a12 923d

head.0.weight f4 [24, 1024]
0.014870221 0.013708925 0.012345315 0.009653703 0.0033427402 0.00021084066 0.0035904145 -0.017639538
0.002879869 -0.02629469 0.0043138806 0.0035272085 0.013684486 0.01496287 0.01566554 0.015386223
0.035333052 0.023792548 -0.012176021 0.004079816 0.0050821495 0.03341321 -0.005421118 0.020522393
-0.027632406 -0.009821227 -0.032816608 0.0071100853 0.0066587054 0.030933423 0.022026185 -0.007968238
0.00029030308 -0.0031960483 -0.004252978 -0.005971958 -0.007884885 0.010323437 0.008032871 0.024346918
0.034988064 -0.007910729 0.03543022 0.0008656009 0.0004526843 -0.0007254471 0.0002264029 0.000229318
0.030243242 0.017728502 -0.01667293 0.025391148 0.025721924 -0.013324988 -0.0056683365 -0.0075527774
0.021810528 -0.036801934 -0.020432303 0.024166275 0.02549301 0.02329606 -0.017695686 -0.02261659
0.004639046 -0.037525073 -0.0058953213 -0.03227008 -0.024056587 -0.03532682 0.01102892 0.019760799
0.0019543923 -0.021241177 -0.01809329 -0.012657503 -0.038199816 -0.025561526 -0.0028997348 -0.038379814
0.00055547827 -0.0019170154 -0.0028675806 -0.0013698126 -0.0027453038 -0.0015190318 0.030436303 0.0028642346
0.0027910087 -0.013560125 -0.021161767 -0.002698105 -0.003136908 -0.0014641914 2.989e-42 5.3188e-41
0.02065382 0.008741621 -0.014521759 0.00027279914 0.020131584 0.0010924432 0.0068591433 0.03766842
0.041301597 0.01831604 -0.0013458505 -0.011637056 -0.00909368 -0.00124662 -0.01657899 -0.021516412
-0.0023813196 -0.0039010602 -0.0035583915 -0.00028105525 -0.013874193 0.008916908 -0.028621294 -0.0156099405
0.0056853364 -0.02642406 -0.008930037 0.00015285755 0.0027968604 -0.0018105523 4.7594262e-06 -0.0007479315
0.0007818488 -0.000316601 0.0046854774 0.0074293027 -0.025062475 0.02303157 0.009966312 0.0030231208
0.0024727513 0.030542575 -0.013138091 0.030728769 0.0037066482 -0.0019282048 0.0003965324 0.0003965324
-0.031328406 0.0062938468 -0.032203916 -0.037152562 -0.009393827 -0.014767011 -0.022832368 0.032166306
0.0040567564 0.01735469 0.006141114 -0.013688768 -0.010914097 -0.0052755396 -0.046639338 -0.03420872
0.027127843 0.0068030553 0.052859038 0.051954433 0.035014983 0.035334382 0.018064283 0.009968187
0.015708987 0.011229334 0.03250129 -0.008250253 0.043818332 0.029552989 -0.0028625838 0.053401455
0.0004795987 -0.001907434 -0.005119249 -0.0028739604 0.0052121556 0.028750377 0.010206359 -0.010653151
-0.011023392 -0.02578895 -0.025463676 0.0066519044 -0.00022745809 0.0006226409 -0.0009869584 0.0001944664
0.001620624 0.0014666243 0.0011769166 0.00063691137 -0.0015510145 -0.00071807107 0.025418265 0.031197079
-0.04770452 0.020561997 0.017186081 0.00065215986 0.0052331276 0.0043297643 0.0014726106 0.0012273127
-0.004431004 0.012721859 -0.012764964 0.0072525414 0.023518266 0.041123465 0.005671675 0.0031698903
-0.0037332177 0.0031142714 0.02120872 0.011610392 -0.02437296 -0.026023718 -0.0242374 0.0065733464
0.0033237122 -0.0316401 -0.020643158 0.019711483 -0.0039928 0.03526756 0.032409064 0.03526711
0.03242347 -0.0011523982 -0.0019705794 -0.0039423 -0.0055129253 0.018219449 -0.01623389 -0.035038255
0.00027343523 -0.00740782 -0.012387497 -0.0060440246 0.012225338 0.0010388903 0.011394149 -0.019306868
-0.026326342 -0.0016678832 -0.015089693 -0.0283797 0.019235006 -0.009256483 4.8352183e-10 3.5503e-41
00000000: 3aa2 733c 669b 603c 0144 4a3c 912a 1e3c
00000010: e011 5b3b 1c15 5d39 294d 6b3b cb80 90bc
00000020: 2fbc 3c3b f667 d7bc 745b 8d3b bd28 673b
00000030: e534 603c d326 753c 0555 803c 7f16 7c3c
00000040: 64b9 103d 97e8 c23c ef7d 47bc faaf 853b
00000050: 2988 a63b 4adc 083d a2a3 b1bb 941e a83c
00000060: 5b5d e2bc 36e9 20bc b56a 06bd b8fb e83b
00000070: 4531 da3b 1768 fd3c 4270 b43c 368d 02bc
00000080: d233 9839 cb74 51bb 915c 8bbb 6ab0 c3bb
00000090: 9b2f 01bc a223 293c 4e9c 033c 3073 c73c
000000a0: a54f 0f3d 019c 01bc 471f 113d 7ee9 623a
000000b0: 4256 ed39 ee2b 3eba 9166 6d39 1575 7039
000000c0: adc0 f73c 5d3b 913c ab95 88bc 1901 d03c
000000d0: c9b6 d23c 0d51 5abc 74bd b9bb 4a7d f7bb
000000e0: feab b23c a0bd 16bd a561 a7bc 5af8 c53c
000000f0: b8d6 d03c 61d7 be3c 8bf6 90bc 6d46 b9bc
00000100: 2303 983b e4b3 19bd 8a2d c1bb a22d 04bd
00000110: 5212 c5bc dbb2 10bd a5b2 343c 66e1 a13c
00000120: 4315 003b fa01 aebc 6138 94bc 6a61 4fbc
00000130: 6977 1cbd 6866 d1bc 7a09 3ebb 2734 1dbd
00000140: 849d 113a 5d44 fbba 05ee 3bbb 498b b3ba
00000150: 8eea 33bb 401a c7ba 8e55 f93c e2b5 3b3b
00000160: 5be9 363b 492b 5ebc 715b adbc b1d2 30bb
00000170: 9594 4dbb 1cea bfba 5508 0000 4494 0000
00000180: 3332 a93c 0439 0f3c acec 6dbc 7b06 8f39
00000190: feea a43c 5030 8f3a aac2 e03b 334a 1a3d
000001a0: dd2b 293d 850b 963c 4067 b0ba 5aa9 3ebc
000001b0: a9fd 14bc a065 a3ba a9d0 87bc 3043 b0bc
000001c0: ea0f 1cbb eea8 7fbb e733 69bb 995a 93b9
000001d0: 9550 63bc 3918 123c 3477 eabc d6c0 7fbc
000001e0: 0f4c ba3b 4577 d8bc 4a4f 12bc 6348 2039
000001f0: 884b 373b 0e50 edba 29b3 9f36 d510 44ba
00000200: fcf4 4c3a 78fd a5b9 a288 993b 8271 f33b
00000210: d24f cdbc b4ac bc3c be49 233c 8d1f 463b
00000220: e20d 223b 6c34 fa3c 2641 57bc e6ba fb3c
00000230: 3deb 723b d1bb fcba aee5 cf39 aee5 cf39
00000240: 3752 00bd 9d3c ce3b 41e8 03bd 492d 18bd
00000250: 91e8 19bc 55f1 71bc f20a bbbc d1c0 033d
00000260: 8aee 843b 6c2b 8e3c 663b c93b db46 60bc
00000270: 0ad1 32bc 6fde acbb e408 3fbd 711e 0cbd
00000280: 363b de3c 2aec de3b b882 583d 2cce 543d
00000290: df6b 0f3d c9ba 103d 8cfb 933c 9b51 233c
000002a0: 22b0 803c 3efb 373c 1320 053d 122c 07bc
000002b0: da7a 333d 1c19 f23c 309a 3bbb 7cbb 5a3d
000002c0: a672 fb39 dd02 faba 60bf a7bb 0e59 3cbb
000002d0: bbca aa3b e985 eb3c 9338 273c 8e8a 2ebc
000002e0: 759b 34bc 5943 d3bc 3399 d0bc 38f8 d93b
000002f0: d181 6eb9 b938 233a d45c 81ba ade9 4b39
00000300: 1e6b d43a bf3b c03a c542 9a3a 66f6 263a
00000310: 694b cbba ef3c 3cba f739 d03c 0491 ff3c
00000320: d165 43bd a271 a83c d3c9 8c3c b5f5 2a3a
00000330: a87a ab3b b2e0 8d3b 9d04 c13a c8dd a03a
00000340: f531 91bb 586f 503c 2424 51bc baa6 ed3b
00000350: 61a9 c03c 1471 283d 75d9 b93b efbd 4f3b
00000360: 00a9 74bb ce18 4c3b e9bd ad3c 8339 3e3c
00000370: cda9 c7bc b12f d5bc 838d c6bc 3a65 d73b
00000380: a3d2 593b 0d99 01bd d71b a9bc fa79 a13c
00000390: 09d6 82bb b874 103d 5ebf 043d 3f74 103d
000003a0: 79ce 043d 110c 97ba d624 01bb 692e 81bb
000003b0: c5a5 b4bb f440 953c effc 84bc 4684 0fbd
000003c0: db5b 8f39 4cbd f2bb eef4 4abc f40c c6bb
000003d0: c94c 483c 602b 883a 86ae 3a3c 7029 9ebc
000003e0: 57aa d7bc e09c daba c23a 77bc 8b7c e8bc
000003f0: bb92 9d3c 81a8 17bc d3e8 0430 f862 0000

head.0.bias f4 [24]
0.025109904 0.012850671 0.00484857 -0.017669342 -0.020217082 -0.011530546 -0.006100345 -0.005230749
0.031831753 0.004504269 0.02245789 0.024205051 0.0011364189 0.024945598 -0.01084179 -7.5208416e-05
-0.0036056007 0.032161787 0.021441257 0.014917398 -0.00055669446 -0.017441506 0.008938527 -0.009549991
00000000: 49b3 cd3c 9f8b 523c c1e0 9e3b 4cbf 90bc
00000010: 4b9e a5bc 9dea 3cbc 67e5 c7bb b466 abbb
00000020: 0362 023d 8c98 933b 9cf9 b73c ac49 c63c
00000030: e4f3 943a b65a cc3c c3a1 31bc 36b9 9db8
00000040: f14b 6cbb 14bc 033d 93a5 af3c 1a68 743c
00000050: 22ef 11ba 7de1 8ebc e672 123c 9177 1cbc

head.2.weight f4 [2, 24]
-0.14759092 0.25362405 -0.0059352918 0.092817806 -0.045301314 -0.12441925 0.0013613877 0.007537852
-0.19687025 0.19573167 -0.11960631 -0.23846418 -0.030613508 0.19944762 -0.10946012 0.19913812
0.09499464 0.18800065 0.15294702 0.22236735 0.07714507 0.14431994 -0.07279806 0.15054244
0.13469632 -0.12879393 0.10868448 -0.106214024 0.16265646 -0.24517776 -0.17613287 -0.12917031
0.18999769 -0.21865274 0.15229337 0.2022328 0.030613508 0.021218993 0.13859625 0.09055854
-0.05521035 0.011807497 -0.22052799 0.033501737 0.15965948 -0.032391466 0.20885625 -0.0411125
00000000: 1322 17be 03db 813e d67c c2bb 4317 be3d
00000010: df8d 39bd 85cf febd 9770 b23a 1600 f73b
00000020: 5b98 49be e26d 483e 27f4 f4bd f42f 74be
00000030: 2ec9 fabc ff3b 4c3e a12c e0bd ddea 4b3e
00000040: 8d8c c23d 3e83 403e 259e 1c3e 44b4 633e
00000050: 3cfe 9d3d 9bc8 133e 2617 95bd cc27 1a3e
00000060: d5ed 093e 8ee2 03be f895 de3d bd86 d9bd
00000070: 6a8f 263e e10f 7bbe 2d5c 34be 3945 04be
00000080: c18e 423e 81e6 5fbe cbf2 1b3e 1d16 4f3e
00000090: 2ec9 fa3c 74d3 ad3c 2dec 0d3e c176 b93d
000000a0: 3f24 62bd 3b74 413c 17d2 61be 1e39 093d
000000b0: c67d 233e eaac 04bd 6ade 553e 9565 28bd

head.2.bias f4 [2]
0.13828534 -0.034445688
00000000: ac9a 0d3e ec16 0dbd
