models/AC-RM Q_LR=0.0001 P_LR=5e-06 BATCH_SIZE=32 GAMMA=0.9_q.pt (torch, 737040 bytes, 22 tensors)

base.0.weight f4 [64, 2, 5, 5]
00000000: 11e3 82bd c3c4 773d 2253 55bd 9fe3 ebbd
00000010: 54ff 40bc 52c2 9c3d 063d 873d 1283 9b3d
00000020: e4ab 11be 8c09 1bbe bf9f 23bd cd42 99bd
00000030: 47bd 4bbe 54ea 2fbe 084a f5bd 4d63 123d
00000040: 1d9d d23c bb73 0cbe 61cc 14bd 7f2d 6ebb
00000050: 150c 983d 36f9 80bb b1c9 4cbe 835c d1bd
00000060: a8e8 30bd 9077 f53c f20a f3bd 5b43 aa3c
00000070: b0fb 943d 05f2 7d3b 205e a7bd 9f3e 593d
00000080: d678 e23d 1235 c7bc 5103 0c3e 7ce3 e4bd
00000090: 8344 173e b125 fa3d bb23 343e 9022 f33d
000000a0: 09ff 413c fc98 383e 359a d43c b8da 2c3e
000000b0: 593a ae3a c96b 28bd db96 1f3e b467 b63d
000000c0: 684c 683e 1977 f53c 1737 d63c 2eb8 e43d
000000d0: 8c65 443d 5b75 08be 4d9f 20be d983 343d
000000e0: d88f efbd 45a3 bf3c 5e66 b5bd a3b6 8b3d
000000f0: 0a09 afbc f3dd 8b3c d07b 99bd 4578 4fbd
00000100: 0d56 a53d e11f 143d 292a 02be 80e4 d33d
00000110: 7c71 acbd be3f f5bd 9fb6 15be 17f0 efbc
00000120: 3685 873d bc16 29bd 6dd7 0fbd 42a9 033e
00000130: 1503 d7bc ec55 0a3d f9fb f6bd 5ac2 a1bd
00000140: 795c f93d 54a4 283e 7de0 7b3d 4994 d53c
00000150: e56b 913c 5938 be3d 0e90 2a3d 0f67 123d
00000160: ff81 cabb e8b5 6b3d ddf0 b33d 259f dc3d
00000170: ba01 a3bc 8bb7 15bd 721b edbc 4a00 593d
00000180: 1dc3 26bc 5363 cb3d 2f26 d03d ea1f d3bd
00000190: 5099 0cbe 8624 253c 4991 09be f425 23bc
000001a0: 039d 0d3e dae6 aebd 2605 c23d 9eea eebd
000001b0: 4bb0 163d 7a58 c6bd b046 a9bd f880 fdbc
000001c0: 14bf 603c 3488 03be 2d10 e3bc 5e0e 80bd
000001d0: a3fb 6c3c 4d6a 4a3d 597b 463c 7d53 083e
000001e0: 9298 fa3c 11c0 12be f89c abbd eb7c 3a3c
000001f0: ec80 063e 84b7 fabd ec26 f4bd 70b8 ff3d
00000200: b6d8 273e e3dd 2b3e 93d8 c23c e83f 0dbd
00000210: 2284 f33d abcc 4f3d fdbe ed3d 6316 3bbe
00000220: a786 28be a8c7 84bd edc7 a23d 702a 273e
00000230: 456e 883d 1ecf 953d f8dc cbbd 6aae 23bd
00000240: 2c85 b63d de02 3dbd f20a 02be 5863 233e
00000250: 0e2d bcbb 4c8e 603d 7b68 b6bd 9434 4abd
00000260: 15aa 513c ff1f a13d df39 5e3d e308 793d
00000270: 78d1 2abb 826b a6bd 360f 633d 494c 8bbd
00000280: 40a4 003e 5ca7 353d 5470 95bd 8c06 efbc
00000290: 6b17 dc3c e6d3 fd3d b208 373e 1877 a7bd
000002a0: d1e1 ee3d f4f5 143e a344 183e 8320 143e
000002b0: 39ce 383c 4020 183d b0d9 f93c 9bfe b53d
000002c0: d58f c73c 4cde b3bd 0c48 ffbd 04be f03c
000002d0: 9668 943d a6c5 a23c 31ac b7bd 72e7 51be
000002e0: cf52 83bd d3f2 303e f2f1 c43d ac30 80bc
000002f0: ac5b 43be 0de3 adbd 7f5d 043e 4f1d 8ebd
00000300: 3afd c5bd dbbd 4abe 9a51 8cbd 8e9e 753d
00000310: 4615 57bd f06f 18be cbf3 37bc 3595 e73d
00000320: 444c f2bd 8a68 e0bd 2872 42bd c10c e1bd
00000330: ef46 45bd 08de 8d39 55a1 82bd 73e5 113d
00000340: a050 2bbd fd8b 093b a852 c4bd 4db5 6f3d
00000350: c9f5 80bd 0c99 44be f616 6ebd b355 2ebe
00000360: 2b56 0cbe 7b35 edbd 6014 00be 0a53 d23d
00000370: bd49 0fbe b39f 45be 5942 2bbd cc00 32bd
00000380: 2376 32bd d07e 89bd de34 563d 85d4 103e
00000390: 68bf 28bd 388f 773d 6b5c 3d3e 8962 573d
000003a0: e4ee 9f3d 6c88 2a3e 7bd0 b0bd b8f0 333d
000003b0: 04a2 153e 573c 93bd fdf0 013e c422 0e3e
000003c0: c7e1 993d 2775 3e3e 2ada 143e cb4e e93d
000003d0: 1301 a1bd 6d22 853d fd1e 333e d31b ed3d
000003e0: bffd 223e 415b 743a 228b 753d 289e bd3d
000003f0: 5ab3 54bd a57e 10be 435e 3dbe 4dac 3cbd
-0.06390966 0.06049038 -0.052081235 -0.11518025 -0.011779625 0.07654251 0.06603436 0.07593359
-0.14225727 -0.1514036 -0.039947268 -0.07483444 -0.19896422 -0.17179233 -0.11977011 0.03573923
0.025709683 -0.13716023 -0.036327723 -0.0036343036 0.074241795 -0.0039359583 -0.19998814 -0.10222723
-0.04319063 0.029964238 -0.11867322 0.02078407 0.07274568 0.0038748991 -0.0817225 0.053038236
0.11058204 -0.024317298 0.1367314 -0.11176202 0.14772229 0.1221422 0.17591755 0.11871827
0.01184059 0.18027109 0.025952438 0.1688031 0.0013292535 -0.041118417 0.1558489 0.089064986
0.22685397 0.029964017 0.026149316 0.11167942 0.047948405 -0.13326018 -0.15685768 0.044071052
-0.11697358 0.023393283 -0.088574156 0.068219446 -0.021366615 0.017073607 -0.074943185 -0.050651807
0.080730535 0.036163215 -0.12711395 0.10346317 -0.08420083 -0.119750485 -0.14620446 -0.029289288
0.06617205 -0.041281447 -0.035117555 0.12857535 -0.026246587 0.033773348 -0.12059779 -0.07898398
0.12175841 0.16468936 0.061493386 0.026071684 0.017751643 0.09288091 0.041641288 0.035742816
-0.0061800475 0.057546526 0.087861754 0.10772542 -0.019898284 -0.036551993 -0.028943751 0.05297879
-0.010178355 0.09931054 0.10163533 -0.103088215 -0.13730359 0.010079509 -0.13434328 -0.009957779
0.13829426 -0.08540125 0.09473638 -0.116658434 0.03678922 -0.09684844 -0.08265436 -0.030945286
0.013717432 -0.12844926 -0.027717674 -0.0625274 0.014464292 0.049417783 0.012114369 0.13313098
0.03059033 -0.1433108 -0.08379549 0.011382322 0.13135117 -0.12242034 -0.11921486 0.124863505
0.16391262 0.16783862 0.023784911 -0.034484774 0.11890437 0.050732296 0.11608694 -0.18270259
-0.16457616 -0.06483394 0.07948289 0.16324782 0.06661657 0.07314895 -0.09954256 -0.039961256
0.08912119 -0.046145312 -0.12699488 0.15955865 -0.0057426756 0.054823205 -0.08906647 -0.04936655
0.012796898 0.07867431 0.05425441 0.06079949 -0.0026064795 -0.08125974 0.05543443 -0.068016596
0.12562656 0.04434906 -0.072968155 -0.029177926 0.026866635 0.12393932 0.17874411 -0.08177012
0.11664165 0.14546949 0.14869933 0.14465527 0.011279636 0.03714013 0.03049931 0.08886453
0.024360577 -0.08782634 -0.12464914 0.029387482 0.07246511 0.019869637 -0.0896839 -0.20498446
-0.06412279 0.1728013 0.0961646 -0.015648209 -0.19077939 -0.08490572 0.12926291 -0.06939184
-0.0966744 -0.19798987 -0.06851502 0.059965663 -0.052510522 -0.14886451 -0.011227558 0.11307756
-0.11830953 -0.10957439 -0.04747215 -0.10988761 -0.04816335 0.00027059042 -0.06378428 0.03561921
-0.041824937 0.002098798 -0.09586078 0.05852251 -0.0629688 -0.19199008 -0.058127366 -0.17024879
-0.13704745 -0.11582466 -0.12507772 0.10269745 -0.13992973 -0.19299202 -0.04181132 -0.04345779
-0.043569695 -0.06713641 0.05229651 0.1414357 -0.041198164 0.06043932 0.18492286 0.052584205
0.07809237 0.16653603 -0.086335145 0.04393074 0.14612585 -0.07189243 0.12689586 0.1388045
0.07513767 0.18599378 0.14536348 0.11391982 -0.07861533 0.06500707 0.1749229 0.11577573
0.15917109 0.0009321459 0.05994714 0.092586815 -0.051928855 -0.14110811 -0.18492989 -0.046062756

base.0.bias f4 [64]
00000000: 4fed 90bd f538 6fbd 4406 2ebd cfe9 0d3e
00000010: b718 0c3d 8b50 e23d bb95 c1bc 1de3 2cbd
00000020: a67b 60bc eb6e 193e ef50 613c 1d39 ecbd
00000030: 599a df3d de40 3d3d 1223 aebd 587d c93d
00000040: 4b94 1a3e 83ba d73c 86a2 4dbd f5b1 d13d
00000050: f183 f13d 203c a23d 6341 8d3d 7d52 e63a
00000060: 7f83 0a3d 7c73 6dbd 108b 79bd 8467 9bbd
00000070: e6f0 473d 2def c6bd 4f4c aabd 2c31 bfbd
00000080: 88be 8f3d fe2e 9bbd 7773 01be 7700 cdbd
00000090: d298 bb3c 1a25 11bd f31c acbd 81e7 bcbd
000000a0: d224 283d ecf2 fabc e2d2 883d 7c48 1a3e
000000b0: f88c 42bc 6e23 c93c 43bf bfbd 8420 37bd
000000c0: a688 b63d 6ee9 4fbc 91ca febc 2978 4cbd
000000d0: cb49 023e 0586 f83d 6a34 fd3c 5abf bfbc
000000e0: 985f f43d d117 10be dc25 86bd d225 0fbd
000000f0: d812 14be 173e fcbc 51b0 b63d e497 113e
-0.07076513 -0.058403928 -0.042486444 0.13858722 0.034203257 0.110505186 -0.023630967 -0.04220878
-0.013701355 0.14983718 0.013752206 -0.11534331 0.10918111 0.04620444 -0.08502783 0.098383605
0.15095632 0.026334053 -0.050203823 0.10239021 0.11792744 0.07921624 0.06897237 0.0017572191
0.03381681 -0.057971463 -0.060923636 -0.075881034 0.048813723 -0.09713588 -0.08315336 -0.09335551
0.07018763 -0.075773224 -0.12641703 -0.10009854 0.022900019 -0.035435773 -0.08403959 -0.09223843
0.04105074 -0.030633412 0.06680848 0.15066713 -0.01187443 0.024553027 -0.09362652 -0.044708744
0.08912782 -0.012689931 -0.03110245 -0.04991928 0.12723462 0.12134937 0.030908782 -0.023406673
0.119322956 -0.14071585 -0.0655019 -0.034948178 -0.14460313 -0.030791325 0.089203484 0.14218098

base.1.weight f4 [64]
00000000: f41d aa3f f193 8d3f c603 8a3f 0bc9 963f
00000010: fcc9 a23f c397 973f 2fc3 953f 424f 9b3f
00000020: e3dd 933f 296f ac3f 38d5 9e3f 10db 9a3f
00000030: 96d6 a03f e7d6 983f cb78 853f 73d6 963f
00000040: b0ba 8d3f d5d9 9a3f 6c6b b43f 0ce2 843f
00000050: ce7f 8e3f 3509 873f 207d 8c3f ec86 8b3f
00000060: c289 9a3f 8a76 973f fb55 8e3f 8466 8a3f
00000070: 35e1 9c3f 48ba 813f 2839 9a3f 4c89 7c3f
00000080: 385d 8a3f 2e91 8e3f 3732 893f 251c 8d3f
00000090: c2b8 843f 709f 943f 873d 953f 7253 e13f
000000a0: 5044 873f d2d1 8d3f efd5 893f 5f2e a93f
000000b0: adca 8e3f 6dae 853f 0ec9 9a3f 340f 843f
000000c0: 4226 8d3f faca 8e3f 1ed3 923f b51a 923f
000000d0: 4fd4 963f fc33 8f3f edd2 943f 1c77 913f
000000e0: 2118 bd3f cbba 8c3f 74f8 893f 4770 883f
000000f0: c289 783f 74da 933f 62f9 9b3f 7a17 aa3f
1.3290391 1.1060773 1.0782402 1.1780103 1.2717891 1.1843189 1.170019 1.2133563
1.155209 1.3471423 1.2408819 1.2098103 1.2565486 1.1940583 1.0427488 1.1784195
1.1072598 1.2097727 1.4095283 1.0381484 1.1132753 1.0549685 1.0975685 1.090055
1.207329 1.183305 1.1119989 1.0812535 1.2256228 1.0134974 1.2048693 0.98647
1.0809698 1.1138055 1.0718449 1.1024214 1.0368884 1.1611156 1.1659402 1.760359
1.0567722 1.1079657 1.0768412 1.3217276 1.1155602 1.0443856 1.2092607 1.031714
1.10273 1.1155694 1.1470678 1.14144 1.1783541 1.1187739 1.162687 1.1364474
1.4772989 1.0994505 1.0778947 1.0659264 0.970852 1.1551042 1.218548 1.3288414

base.1.bias f4 [64]
00000000: 9c69 493b 5aa9 1e3c ef02 13bc 56f3 263d
00000010: db08 ecbc 6371 c2bc a796 303d c22f d9bc
00000020: 906c 3f3d c581 fa3c 923e f83a 398e 2b3c
00000030: 0388 4639 ac02 55bc 9b05 d3bc 14f3 95bb
00000040: 3440 c03c 24b3 6a3d 8dff 1a3d 2c7e 87bb
00000050: 39d8 51bc da09 1f3c 22ea 8e3c 3e6f b0bc
00000060: 6ab2 abb9 0a8a 6f3c 49fb 4cbc e68a f1bc
00000070: 9f04 783c 193c eeba cc8f 3b3d 30a7 23bd
00000080: 998f 1fbc db9f 6eb9 0f1f 42bd 3072 d7bc
00000090: 5c50 02bd 3e47 57bc b032 393c f125 763c
000000a0: 585f 9cbb a90f 913c edc4 05bd 46ae 903d
000000b0: f56f ae39 6c5c 90bc ad0d 193d 7f9d 25bd
000000c0: 6d06 703c 21ad 24bd 42d7 d13b 79ef 97bc
000000d0: 9e80 1d3c 1661 f13c 77d6 923c 4419 adb8
000000e0: 22f3 bc3c 5fcb e7bc bd6a af3b 32b6 783c
000000f0: 9037 e9bc 15a5 b4bc 8f1b 1a3d b4f6 c43c
0.0030733114 0.009683931 -0.008972867 0.040759407 -0.028812816 -0.023735708 0.043112423 -0.02651203
0.046734393 0.030579457 0.0018939546 0.01047092 0.0001893342 -0.013001125 -0.025759509 -0.0045760963
0.023468114 0.057299748 0.03784137 -0.004134914 -0.012807899 0.009706939 0.017445628 -0.02153742
-0.0003274859 0.014620313 -0.012511083 -0.029485177 0.0151378205 -0.001817587 0.045791432 -0.039954364
-0.009738826 -0.00022757 -0.0473929 -0.026299566 -0.031814918 -0.013139544 0.011303589 0.015023694
-0.004772108 0.017707663 -0.032658506 0.0706449 0.0003327128 -0.017622195 0.037366558 -0.040433403
0.0146499695 -0.04020417 0.0064038346 -0.018546807 0.009613184 0.02946524 0.01792453 -8.253989e-05
0.023065154 -0.028295217 0.0053533004 0.0151801575 -0.028468877 -0.022051373 0.03762394 0.024043418

base.1.running_mean f4 [64]
00000000: d2b7 3a3d 3844 f5bc 7094 043d d7d2 203b
00000010: 0a31 c33c eaec be3d 646c 92bd 4f66 5e3c
00000020: 943e abbd 40c8 503d ddb1 f93c 85d0 eb3c
00000030: 8f1c 1cbc 294f 4a3d 53de a53d 0647 85bc
00000040: a765 c5bc 3e5c 8abd 65ca f9bc 88f9 b03d
00000050: dbc2 73bd 7635 c3bd b34e 32bd c053 913c
00000060: b7a6 c63c 8b96 a6bc 3661 163b 76ec 953c
00000070: f452 333c 0377 05bd 8633 1cbd aa7a 8c3d
00000080: 80d0 88bb 4806 0c3c 7112 8d3d 30a9 dd3a
00000090: 8f37 c43d 0216 ab3d 005d 48bd 310d 943c
000000a0: 7a18 833d 2806 f53c 0b39 413d c2e6 563d
000000b0: 90b0 953a a09e 7e3c adf2 4ebd b211 e73d
000000c0: 1dff 95bd f5bb 983d c8c4 da3c 3d1a 223d
000000d0: 5f28 8f3c 86d1 90bd fb35 46bc 9808 60bc
000000e0: b079 95ba 82ef 553c 0138 09bd 2fb5 27bd
000000f0: eb08 0e3e ead4 59bc f322 dcbd 4e92 3b3d
0.04558546 -0.029939756 0.032368124 0.0024539733 0.023827095 0.093225315 -0.0714958 0.013574197
-0.08361545 0.050972223 0.03048032 0.028785953 -0.009528293 0.0493919 0.080990456 -0.016269218
-0.024096323 -0.06755875 -0.030492017 0.08641344 -0.059512 -0.09531681 -0.043532085 0.01774013
0.024249418 -0.020335456 0.0022946126 0.01830123 0.010945071 -0.0325842 -0.038135074 0.06859334
-0.0041752458 0.008546419 0.06888283 0.0016911384 0.095809095 0.08353807 -0.048916817 0.018072696
0.06401153 0.029910162 0.04717354 0.05246616 0.0011420418 0.015540749 -0.050524402 0.11282672
-0.073240496 0.07457725 0.02670516 0.039575804 0.017475305 -0.070712134 -0.012097831 -0.013673924
-0.0011404064 0.013057591 -0.033500675 -0.040944275 0.1387059 -0.013295392 -0.107488535 0.045793824

base.1.running_var f4 [64]
00000000: 9b83 663f c46f 663f e576 663f ba7b 663f
00000010: 3670 663f 76a3 663f 228d 663f 1c6b 663f
00000020: 629c 663f 4c76 663f ce73 663f a67b 663f
00000030: c06a 663f e57d 663f 979d 663f 446e 663f
00000040: 3980 663f 5b9a 663f fe6e 663f 3a8d 663f
00000050: dc8e 663f 99c2 663f 198c 663f 6673 663f
00000060: e477 663f d96f 663f 7774 663f 3f73 663f
00000070: f96f 663f 4574 663f c371 663f 199c 663f
00000080: a270 663f e16c 663f 4b98 663f d56d 663f
00000090: 12ad 663f b498 663f 7173 663f b86c 663f
000000a0: 048c 663f c77d 663f 4179 663f 2475 663f
000000b0: ec73 663f f780 663f 7e78 663f c6dc 663f
000000c0: ef96 663f 1d8d 663f 587b 663f 7475 663f
000000d0: cf71 663f 51b6 663f 6b74 663f 126e 663f
000000e0: 8f6f 663f 108a 663f 5d72 663f 7279 663f
000000f0: ca0c 673f 6d72 663f f6ca 663f 8576 663f
0.90044564 0.9001429 0.9002517 0.9003254 0.9001497 0.9009317 0.900591 0.90007186
0.9008237 0.90024257 0.90020454 0.9003242 0.9000664 0.9003585 0.90084213 0.90012
0.900394 0.9007928 0.9001311 0.90059245 0.90061736 0.9014068 0.9005752 0.90019834
0.9002669 0.90014416 0.9002146 0.900196 0.90014607 0.90021163 0.90017337 0.90081936
0.90015614 0.90009886 0.9007613 0.9001134 0.90107834 0.90076756 0.900199 0.9000964
0.90057397 0.9003567 0.9002877 0.9002249 0.9002063 0.90040535 0.90027606 0.90180624
0.90074056 0.9005907 0.9003196 0.9002297 0.9001741 0.9012194 0.9002139 0.90011704
0.90013975 0.90054417 0.90018255 0.9002906 0.9025389 0.9001835 0.90153444 0.90024596

base.3.weight f4 [64, 64, 5, 5]
00000000: a35e e0ba 430c 89bc 8552 4cbc 0ac0 01bb
00000010: 06a3 5ebc 4706 8c3c c5f1 4dbc 036f 59bb
00000020: 842c ddbc 3b6e c4bc d5fb b7bc 4b08 5f3c
00000030: 3fab 84bb 7676 3e3c 30b0 4dbc 8caa 0e3b
00000040: 2b23 d9bc 10ab f53b 7ee7 e1bc 6725 6d3b
00000050: a149 873c 766f 263c a2f8 e2bc 44e6 d63b
00000060: cee3 e9bc 306c c3bc 0b17 f13b c614 babc
00000070: c7e5 8e3a 062c b7bb fdaf 67bc 22e6 9b3c
00000080: 12af 62bc a6ac 3a3c 6917 5e3b 7ea1 793c
00000090: dc6d e8bb d7fb 89bc 314a ceba de04 b3bc
000000a0: d02a 923c 4a33 87bc dd9e 4f3c 2570 43bc
000000b0: d29e cdba 3de3 93bc e73f 0b3b 0b72 7abc
000000c0: 87da e4bb 12f4 433c 78a5 01bb 8e92 5e3c
000000d0: cd95 3d3a d02f f23b dfbf 2f3b 91a5 133b
000000e0: 89a0 2bbc 93ae ba3b 5971 02bc 5a1f c7bc
000000f0: 4bd9 a33c e57a 963b 20fc b53b 0195 5b3c
00000100: 1a20 d5ba c9b5 b53b a027 a03c 26fb 1ebc
00000110: 22ec 013c 50b9 9b3c a198 00bc ac2f a5bb
00000120: b782 93bb c85c 17bb 399d d13b 4a63 59bc
00000130: 435d c2bc bf9a 3ebc b9e0 523c ab5c 99bc
00000140: 6762 ecbb 152a 61bc 53bc e9bb dcbb 9d3c
00000150: e4e1 b5bc daf8 90bc 2869 4d3c 26d3 bcbc
00000160: 0c89 3cbc d6e6 4ebc 031f 0dbc c566 32bc
00000170: ee7f a5bc ecf2 a3bc 8485 953c 9a5f a23c
00000180: 8528 903c c707 693c c140 0d3b ca00 4f3a
00000190: 9a29 cc3b ccc0 92bb 779c 47bc 03a5 9bbb
000001a0: 18fa cebb ebae 3f3b 41f7 8d3c 4549 293c
000001b0: fe15 a3bc d8c3 f83b 34ae 643b 1474 63bc
000001c0: 2420 8abc 2e7b 1dbc b543 a5bc 9c58 ddbc
000001d0: 9637 5bbc 5b9c 823c 1a57 a93c 1983 10bc
000001e0: 1b36 debc c376 6bba 2117 25bc a7cf 193c
000001f0: eca1 213c 7ee4 1cbc eaba 693c 4a3b 633c
00000200: 77b1 a03c 83ca e3bc 8225 d03b 2308 bc3b
00000210: ae30 1837 0bc0 bdbc 36b7 5dbc 7c7b f4bb
00000220: fc84 423c 4e81 933c 2b42 443c 7b8d f1bc
00000230: 7b3c 43bc 38ac 02bc 9c50 383c 2504 853c
00000240: 1321 f2bb 5328 043c 8553 60bc 5457 75bc
00000250: 1d1b 843c e2dc b9bc ad62 3fbc c945 9dbc
00000260: 0eaa 873c 6e7d e4bb 4d13 b63c 6529 afbc
00000270: e200 41ba 314f 96bc 2f57 1abc aaa4 be3c
00000280: 92e1 d03b 12f5 953c 5d3a 333b f07f 1dbc
00000290: a794 683b d175 d1bc a7af 20bc 0529 ab3c
000002a0: 3cba 263b 538b d93b e3b5 80ba c018 3ebc
000002b0: f5fe 9dbc 45ca adbc cfd9 5bbc 58bb b5bb
000002c0: d137 093c b69a 903c a166 38ba a8d9 483c
000002d0: a9fc 04bc 85a9 45bc 624c 213c c0bb a63c
000002e0: 6e47 a2bc 2d19 203c 7c3b 38bb a145 a5bc
000002f0: 9c1c 23bb 119c 4cbb 8b20 223c 6138 bd3b
00000300: 3e8c d9bb ce08 e0bc 7bb7 813c 0c2c 11bc
00000310: cb30 083c 24bf e2bb cd2e 193c 4e67 ddbc
00000320: 850b c63b 8f60 7f3c dfa3 0ebc dd77 4d3b
00000330: 1232 15bc d729 c3bc feaa 793c e507 81bc
00000340: eff9 f4b9 6d3a 8d3b 45c7 583c 5852 d43b
00000350: 3335 d1bc 0ffb 973c 9862 3abc 7cb2 98bc
00000360: 1209 0a3c a9e1 92bc 5ada 483c 6d37 a5bc
00000370: ec03 e8bc b660 f03b 4220 a0bc 64cf 773b
00000380: 5ff2 7a3b ed1d 38bc 0579 9bbc bdc3 1fbc
00000390: 9df9 bcbc 036f af3c e94c d7bb 0818 69bb
000003a0: 29ba 54bc b760 acba 2b54 86bc 2420 36bc
000003b0: 7deb 80bc 1638 87bc 3362 dbbb 4dff 7f3c
000003c0: de0d 82bc c4cb 0e39 3673 923c 8f75 60bc
000003d0: 5d53 00bb e5c2 b9bc 20b8 d9bc 04a4 ff3b
000003e0: 45d8 a2bc 65ee 6d3c 2df8 9cbc 1ebf 3e3c
000003f0: 40ea f5bb 26b0 cebb a04e f03a d9cf d9bb
-0.0017118048 -0.01672948 -0.012470846 -0.0019798302 -0.0135886725 0.017092837 -0.012569849 -0.003317774
-0.026998766 -0.023978343 -0.02245895 0.013612817 -0.0040487344 0.011624923 -0.012554213 0.0021769134
-0.026506027 0.007497199 -0.027576204 0.0036185624 0.016514601 0.01015841 -0.027706448 0.0065582115
-0.028551009 -0.023855299 0.0073574833 -0.022714984 0.0010902219 -0.005589965 -0.01414108 0.019030634
-0.013835685 0.011393702 0.0033888465 0.015236257 -0.0070931744 -0.01684372 -0.0015738663 -0.021852907
0.01784268 -0.016503949 0.012672153 -0.011928593 -0.0015687591 -0.018052692 0.0021247806 -0.015285979
-0.0069840583 0.011960046 -0.0019782465 0.013584746 0.00072321 0.0073909536 0.0026817245 0.0022529105
-0.010475286 0.0056970804 -0.0079615945 -0.024306942 0.020001074 0.004592287 0.0055537373 0.0134022245
-0.0016260177 0.005545352 0.019550145 -0.009703433 0.007929834 0.019009262 -0.00784889 -0.0050410833
-0.0045016664 -0.0023096073 0.006396916 -0.013268301 -0.023726111 -0.011633574 0.012870961 -0.018720945
-0.007213879 -0.013742943 -0.0071330457 0.019254617 -0.02220244 -0.017696787 0.012537278 -0.023049902
-0.011507284 -0.012628278 -0.008613351 -0.01088876 -0.020202603 -0.020013295 0.018252142 0.019820977
0.017597446 0.014223046 0.002155349 0.0007896541 0.006230545 -0.0044785496 -0.0121833 -0.0047498955
-0.0063164346 0.0029248546 0.017329814 0.01033241 -0.019907948 0.007591706 0.0034893872 -0.013882656
-0.016861029 -0.009611888 -0.020173887 -0.027019791 -0.013379952 0.015943697 0.020671416 -0.008820319
-0.027125409 -0.00089822354 -0.010076315 0.009387887 0.009865265 -0.009575961 0.014265755 0.013869116
0.019615872 -0.027806526 0.0063521275 0.0057382747 9.07124e-06 -0.023162862 -0.01353245 -0.0074610095
0.011872526 0.018005993 0.011978666 -0.029486408 -0.011916275 -0.00797563 0.0112496875 0.016237328
-0.0073891967 0.008066255 -0.013691788 -0.014974434 0.01612621 -0.022688333 -0.011681241 -0.019198315
0.01656058 -0.00697296 0.022226 -0.021382043 -0.0007362497 -0.018348308 -0.0094202 0.023271877
0.0063745463 0.018305335 0.002734802 -0.009613022 0.0035488994 -0.025568875 -0.009807504 0.020893583
0.0025440594 0.006638923 -0.0009819831 -0.011602581 -0.019286612 -0.021214614 -0.013418629 -0.0055460148
0.008375124 0.017651897 -0.0007034336 0.012258925 -0.0081168795 -0.012064342 0.009844871 0.020353198
-0.019809451 0.009771627 -0.0028111627 -0.020174803 -0.0024888879 -0.0031220953 0.009895454 0.005774543
-0.0066390326 -0.027347948 0.01583456 -0.008860599 0.008312414 -0.0069197584 0.009349537 -0.027026799
0.0060438537 0.015586986 -0.008706062 0.0031351962 -0.009106176 -0.023823662 0.015238522 -0.015750835
-0.00046725522 0.0043099434 0.013231103 0.0064795427 -0.025538063 0.018552331 -0.011376046 -0.018639795
0.008425014 -0.017929869 0.01225909 -0.02016803 -0.028322183 0.0073357476 -0.019546632 0.0037812823
0.0038291437 -0.011237604 -0.018978605 -0.0097512575 -0.023068244 0.02141524 -0.0065704477 -0.0035567302
-0.012983837 -0.0013151382 -0.016397556 -0.011116061 -0.01573729 -0.016506236 -0.006695056 0.015624833
-0.015875753 0.00013618084 0.017877202 -0.013699903 -0.0019580938 -0.02267594 -0.026577055 0.0078015346
-0.019878516 0.01452217 -0.019161308 0.011642246 -0.0075047314 -0.0063076196 0.0018333979 -0.006647092

base.3.bias f4 [64]
00000000: b0d7 76bc ae0f e93c d296 c83b 750e e3bc
00000010: 7acc 2abc bbc9 0539 9c49 863c 309a 083d
00000020: 6077 aa3b 9d2e 97bc eab6 b5bc 8cc2 a03b
00000030: 6568 403a e1bd 0f3c 24e6 a6bc 1f8a 7c3c
00000040: 5c09 093d a5ad f33a dd7c 0cbc 746b d43c
00000050: 5005 89b8 e92c b43c 74d9 bebc 57cd 6c3c
00000060: 4404 563c 09c6 cabc f143 113c d409 763c
00000070: 13ad 94ba 3cf7 d5bb 8c13 da3b 1f3b 8e3c
00000080: 52aa af3b 9139 8fbb 1ef8 c3bc eb28 24bc
00000090: 41df 783c 7d10 ec3c ebb2 dc3b 10bb aa3c
000000a0: 1918 7dbc e7f2 b4bc edfe 7ebc 92d2 39bc
000000b0: 9e48 0bbb 6a2d d63c 90b3 3f3d 7831 183d
000000c0: f78e 03bc 85b9 bbbc 5978 aabc 4c04 cebc
000000d0: 138b 1c3c fe51 4dbb 7039 5d3c afc3 003a
000000e0: c2d3 2ebc 34e7 893b 480e 4a3c 7689 b93b
000000f0: d62d 9bbc ceb5 953b 52e7 a63c f094 e2bb
-0.015066072 0.02844986 0.006121495 -0.027716855 -0.010424728 0.00012759019 0.016392522 0.03335017
0.005202219 -0.018454844 -0.022181947 0.0049060043 0.0007339775 0.008773298 -0.020373411 0.01541379
0.03345619 0.0018591179 -0.008574692 0.025930144 -6.5336586e-05 0.021994071 -0.02329705 0.014453254
0.01306254 -0.024752634 0.008866296 0.015016992 -0.0011343084 -0.006529717 0.006655162 0.017362176
0.00536088 -0.004370876 -0.023922022 -0.010019521 0.015189947 0.028816456 0.006735196 0.020841151
-0.01544764 -0.022088481 -0.015563709 -0.011341708 -0.0021253 0.026144702 0.046802104 0.037156552
-0.008029691 -0.022915611 -0.02080934 -0.025148533 0.009554642 -0.0031329389 0.013502464 0.00049119716
-0.010670604 0.0042084698 0.0123325065 0.0056621386 -0.018942755 0.004568792 0.020373974 -0.0069147274

base.4.weight f4 [64]
00000000: 9210 7f3f be7a 973f 7344 923f 6bd2 7f3f
00000010: f3be 7f3f 65ef 7d3f f973 7f3f 2670 993f
00000020: 0426 983f c87b 7f3f 65d8 7f3f 68a4 7f3f
00000030: e088 933f 54a2 953f 1adf 813f 8c5c 7f3f
00000040: ffb1 993f 0b45 a93f c5a8 963f 5f45 8d3f
00000050: b24d 9e3f 1073 993f d5d3 a43f 21c4 993f
00000060: 474a 903f e69c 7f3f 148a 9c3f c71b 983f
00000070: 5e1c 7e3f 8fc1 913f b706 a03f c266 7f3f
00000080: ce09 7f3f 088c 7f3f 65dd 7f3f ff78 843f
00000090: 7eee 7e3f 9248 9d3f 549d ad3f 5376 923f
000000a0: 009f 7f3f 0000 803f 487f 7e3f 038a 8a3f
000000b0: 41e9 7f3f 8cb7 9e3f 3e93 963f 70cc 973f
000000c0: 829f 7f3f ee0d 7f3f 0fe0 7f3f 16f4 7e3f
000000d0: 0279 933f fff5 7f3f b78d 9b3f b664 7f3f
000000e0: 750a 9a3f 7361 7f3f 466c 7e3f a581 7f3f
000000f0: 7baf 7f3f 20fd 7f3f 4a28 7f3f d487 7f3f
0.9963466 1.1834333 1.1427139 0.9993045 0.9990074 0.9919341 0.99786335 1.198735
1.1886601 0.9979825 0.99939567 0.9986024 1.1526146 1.1690164 1.014621 0.9975059
1.2007445 1.3224195 1.1770254 1.1036795 1.2367461 1.1988239 1.2877146 1.2012979
1.1272668 0.99848783 1.2229638 1.1883477 0.99262035 1.1387194 1.2502049 0.9976617
0.99624336 0.99823046 0.99947196 1.0349425 0.9958266 1.2287772 1.3563638 1.144236
0.9985199 1.0 0.99412966 1.0823368 0.9996529 1.2399764 1.1763685 1.1859264
0.99852765 0.9963063 0.9995126 0.99591196 1.1521304 0.99984735 1.2152623 0.9976305
1.2034441 0.9975807 0.9938396 0.99807197 0.99877137 0.99995613 0.9967085 0.9981663

base.4.bias f4 [64]
00000000: acbf 8ebb 2a39 323c c1ca a73c 5c92 7ebb
00000010: 136b 94ba 2a32 b5bb 2d50 63bb f548 a33c
00000020: 16c3 f33b eac7 12bb 8158 66ba 827e f4ba
00000030: fa19 013a d1e3 ce3b 9896 833a d7a3 93bb
00000040: 24e2 683c aa99 243c 241e 313c d8ee b43b
00000050: 057c 4d3c 4601 e63c 7ebf 99ba 5939 343c
00000060: 5c7c 4e3c 0570 7bbb 950d a83c 02e4 e83a
00000070: a069 19bb f07b 8e3a 9bf1 c53b fc6c 16bb
00000080: dae1 9bbb f8fb fdba 78e1 d0ba 7e27 6c3c
00000090: 79eb 96bb be70 f93b 4808 303c 6323 5e3c
000000a0: 35f5 d2ba 0000 0000 ab44 88bb c028 5d3c
000000b0: 2dd8 e0ba fb9d 623c 8745 d73c 430d 513c
000000c0: 98bc 86bb 033e 8ebb 2962 4cbb 00f9 2bbb
000000d0: ef57 7c3c 30e2 42ba f815 393c a05c 8cbb
000000e0: dc3c 1bbc 6fb3 32ba abc5 0bbb 8dbc 4ebb
000000f0: f6fb a9ba 0c8b 8abb 411e d7ba c410 b5ba
-0.004356345 0.010877887 0.020482423 -0.0038844561 -0.0011323415 -0.0055296617 -0.003468524 0.01993225
0.0074390275 -0.002239699 -0.0008786992 -0.0018653425 0.000492483 0.006313779 0.0010039387 -0.004505615
0.014214072 0.010046402 0.010810409 0.0055216365 0.012541776 0.02807678 -0.0011730043 0.011000001
0.012602892 -0.003836633 0.020514289 0.0017768147 -0.0023408905 0.0010870676 0.0060407645 -0.0022953143
-0.004757148 -0.0019377461 -0.0015936336 0.014413713 -0.0046057072 0.007612317 0.010744162 0.013558242
-0.0016094806 0.0 -0.0041585765 0.013498485 -0.0017154269 0.013831611 0.02627827 0.0127595095
-0.0041118376 -0.0043408885 -0.0031186438 -0.0026240945 0.015401824 -0.0007434217 0.011296742 -0.0042835027
-0.009474959 -0.0006816899 -0.0021327536 -0.003154549 -0.0012968767 -0.0042280015 -0.0016412215 -0.0013814201

base.4.running_mean f4 [64]
00000000: eb08 20bc 4fb2 ebbb cb36 c93b bf89 47bc
00000010: ab87 ae39 4b07 053a e7b0 1c3b f5ba 2f3b
00000020: 91fa 1c3c d377 c2bb 228f 85bc 61b8 023c
00000030: fbd8 e73b 57d5 79bb f1ae 23bc ad1d 53bc
00000040: 3cb0 b7b8 75a9 de3b 7753 16bb 9bb2 b73b
00000050: 9286 ef3b 6d75 5f3b 8fa9 57bc 6662 383b
00000060: 128e 783c 2195 9dbb 95f7 453c 66ef 823b
00000070: 2221 d0bb c8df b5bb 9314 463c a0a4 bc3c
00000080: 8b3d 16bc 0079 6f3c 777d a4bb 1705 c0bb
00000090: c879 9539 d37e 883a 00aa e23b e3a6 d53a
000000a0: 070a c4b8 53d9 afbc d696 263b a446 083a
000000b0: fd66 e6b9 4ab2 4e3c 465e a43a 9f76 cd3b
000000c0: f0f3 98bb 5851 aa3b 8349 85bc c2d1 ffbb
000000d0: 70d9 363c dd2d 6cbc cd58 a4bb 3d58 973c
000000e0: 53f3 683c 1953 14bc 1516 d6bb ed22 9038
000000f0: cdbf 50bb 7dd2 04bc f3e9 b438 b825 56bb
-0.009767751 -0.007192887 0.006140565 -0.012178837 0.00033288947 0.0005074634 0.0023909153 0.0026814316
0.009581224 -0.0059346943 -0.016303603 0.00797853 0.0070754266 -0.0038121545 -0.00999044 -0.012885493
-8.758946e-05 0.006795103 -0.0022937933 0.005606008 0.007309743 0.003409709 -0.0131629845 0.0028134822
0.015170591 -0.0048090373 0.012082954 0.0039958237 -0.006351606 -0.0055503584 0.012089866 0.023027718
-0.009169946 0.014616251 -0.0050198394 -0.0058599818 0.0002851023 0.0010413773 0.0069172382 0.0016300346
-9.347876e-05 -0.021465933 0.0025419495 0.00051985146 -0.0004394575 0.01261575 0.0012540303 0.0062702443
-0.0046677515 0.005197685 -0.016270405 -0.0078069875 0.01116024 -0.0144152315 -0.0050154687 0.018474692
0.014218169 -0.009053015 -0.006533394 6.8729605e-05 -0.0031852603 -0.008106825 8.626645e-05 -0.003267629

base.4.running_var f4 [64]
00000000: 0eeb 673f a60b 683f 4bc8 663f f3c2 683f
00000010: eb30 673f 5e30 683f 32e2 663f c920 683f
00000020: e158 683f a968 673f 42ac 693f cf51 673f
00000030: d037 683f ab7f 673f 6a44 683f 7716 693f
00000040: c0da 663f a9e4 683f be8f 673f 487c 673f
00000050: a790 683f 611d 693f caaa 673f 6f07 673f
00000060: 2c50 6c3f 0d91 673f 5f65 6a3f 37f2 683f
00000070: 9dec 673f 89fb 663f 910a 693f bbdd 6b3f
00000080: 5075 683f 9022 693f 4c86 673f 171d 6a3f
00000090: ac71 673f 455d 6a3f 5749 683f c985 673f
000000a0: 852e 683f 4c96 6b3f 6be3 673f 2fa6 693f
000000b0: 830b 683f ca13 683f 2972 683f 4de2 673f
000000c0: 9c91 673f e246 673f 25be 673f 7e0d 683f
000000d0: 0259 673f ae55 6b3f 9e45 683f f8c0 683f
000000e0: c493 6a3f bd75 673f 850a 683f c883 673f
000000f0: 79d2 673f 3cd2 683f 7498 683f 976d 673f
0.9059304 0.90642774 0.9014937 0.9092247 0.9030902 0.906988 0.90188897 0.90675026
0.9076062 0.90394074 0.9127847 0.90359205 0.90710163 0.9042918 0.9072939 0.91049904
0.90177536 0.9097391 0.9045371 0.90424013 0.9084572 0.91060454 0.9049498 0.9024572
0.9230983 0.90455705 0.9156093 0.9099459 0.9059542 0.9022756 0.9103175 0.9213521
0.90804005 0.91068363 0.90439296 0.9145064 0.90407825 0.9154857 0.9073691 0.90438515
0.90695983 0.9202621 0.9058139 0.912692 0.90642565 0.90655196 0.90799195 0.9057968
0.9045656 0.90342534 0.9052451 0.9064559 0.9037019 0.9192761 0.9073123 0.90919447
0.9163172 0.9041403 0.9064105 0.9043546 0.9055553 0.9094579 0.90857625 0.90401596

base.6.weight f4 [32, 64, 5, 5]
00000000: 43d2 3e3b a7ee ab3c 1244 783c 9ad6 913b
00000010: f228 83bb 0c9b 853c a05c d93b 2995 4fbc
00000020: 3abf c2bc 31d8 1e3c 5b98 abbc 2fa4 6e3c
00000030: afb6 293b 76b4 b3bc 03ec 923c 612b 4a3c
00000040: 62b9 af3c acae 5fbc 224f ee3a dfdb a13c
00000050: 258b 00bc b8cf e23c fd1f 66bb 547f 79b9
00000060: 6ba7 773c e454 81bd c25f 743d f516 f4bc
00000070: 5a9f e13d 0db5 d6bd 9621 32bd c808 5a3d
00000080: d9e2 15bd b0a0 cf3d dffe 36bd ec56 01bc
00000090: 99a1 7a3d c22b e7bd 216f 563d df36 ad3c
000000a0: 1c97 343d 7cb8 393d 5843 ffbd 20e4 813c
000000b0: 710f 623d 2a82 e33d 81a1 88bd 551c 8fbd
000000c0: 6d81 be3c 46ee e63c 9c9a 7bbd 5415 1c3d
000000d0: 5c7b 3bbd 213c 043e ee3e 12bd 7add bebc
000000e0: 06d3 0d3d b106 eebc 532f c13d 8835 8abc
000000f0: 6b81 083d 8691 143d 1c37 57bd 411b 453d
00000100: 761b fb3c 4fce 543c ca1e 7d3c e203 a2bd
00000110: 980e 133d a719 df3c 45ab 93bb 0e93 c2ba
00000120: d682 89bd 3735 933d 5cdb 81bd c559 c13c
00000130: 8045 123b 0a3d 60bc e746 9b3b 471a b63b
00000140: 0dd9 c63b 12e7 b63c c7b9 263c adb4 ab3b
00000150: ba11 383c 4dd3 4e3b 1a56 973a 401d c5bb
00000160: 1a32 a23a d343 78bc ca15 413c 1a0b 193b
00000170: e08b 6f3c 70b6 69bc 4d4e 653b 6541 8dbc
00000180: 3a97 b53b 553d 793c 9a3a 76ba c592 d63c
00000190: 60dc 673c 33ec 8ebc 5109 d6bb af6c 533b
000001a0: 204e 56bc 0337 923b 350b 14bc c343 63bc
000001b0: 4f78 a9bc f443 c0bc ea22 c9bb 806c 77bc
000001c0: 6599 c0bc fb2a a8bc dadd 843c e819 bc3c
000001d0: 82aa 83bc 19e7 4d3c fedf c5bc 2278 34bb
000001e0: 0b38 a63c 6de7 c63c 6d58 93bc b1af c1bb
000001f0: 37d3 d3bb b060 573c 1350 693c 87a2 90bc
00000200: 1093 9fbc 349f 073b c537 0d3c f610 19bc
00000210: e99a 9dbc 72b8 863c d6b5 5b3b 15df 9c3c
00000220: b874 7cbc 8d2c bc3c a354 27bb fa01 243c
00000230: 4e92 173c b4b1 9cbc 4da5 c93c 8ef1 863c
00000240: b3be b83c f7bd ff3a 42c6 853b 4fdc b9ba
00000250: f572 d83b 546a bf3c e7ab 5b3b cd2a 9bb9
00000260: 9f9b a1bc 44a7 943b 6de1 7abc 8044 b63b
00000270: a380 b03c 0026 f339 7d57 933c 6de7 9dbc
00000280: 8af2 0dbc c3b1 fa3b 50cc 9a3c 2607 8c3c
00000290: 6d54 673c 3aa2 cebb ceed b43b ba8b 3ebc
000002a0: 49c5 bfbb 3389 7bbc 79f1 753b ddff 46bc
000002b0: 0fc1 bb38 05b3 babc c9a0 733c 9a35 89bb
000002c0: ef59 a23b da11 44bc f9d2 f63c a7f6 9fbd
000002d0: bc7b 99bc bee4 163d 124c 803c 22a8 0b3d
000002e0: f912 4dbd 53c3 11bc d467 a73d cb95 0abd
000002f0: 7082 c0bc 9a79 0ebb 07a1 343d c84b a03d
00000300: 79c4 06be b87b ed3b 219b 853c d06d e73d
00000310: f70f 31bd 19ee 4dbc 6aea 213d 1a8b 09bd
00000320: 982d 9fbd dd41 92bd b5de 063e 86d9 1b3d
00000330: cb98 073e e961 7dbd d01f 87bd fd8d 3a3d
00000340: 698b 1c3d 38a2 a53d 6eeb 20be b7c8 273d
00000350: 8820 8b3c 827d 8ebc d089 a43d 6723 b1bd
00000360: 9d6b 993d 9443 c2bd ba8b 10bc 12ac 8c3d
00000370: f605 373e 8e80 2f3d 31e6 003d ea05 7c3c
00000380: 2e03 383d 1b14 ae3c 1e21 4bbb 7439 6abc
00000390: ae79 6a3c c7e7 ba3b 954e b5bc 032f 84bb
000003a0: 789d cc3c b8c1 fdbb dcc4 8e3a 97b6 b8bc
000003b0: 04c8 e5bb d271 9cbc ea23 b1bb 9f07 38bc
000003c0: 8999 713c 66de cf3c 26ae 63bc 21a0 7bbc
000003d0: 9719 d13c cf45 733c c428 443c 8333 adba
000003e0: cc67 bd3c b03b a8bc 6e1e b9bc c5f2 713c
000003f0: 7bd9 6bbc 67dc a6bc ef74 623c 039f bd3c
0.0029117025 0.020987822 0.015152948 0.0044506313 -0.004002684 0.016309284 0.006633356 -0.01266984
-0.023772825 0.009695099 -0.020946672 0.014565512 0.0025896241 -0.021936636 0.017934805 0.012339444
0.021450702 -0.013652485 0.0018181542 0.019758163 -0.007845675 0.027686939 -0.0035114281 -0.00023793924
0.015115599 -0.0631502 0.059661634 -0.029796103 0.11016722 -0.104837514 -0.04348906 0.05323103
-0.036593292 0.101380706 -0.044676658 -0.007894259 0.061189268 -0.11287643 0.052352075 0.021144329
0.04408942 0.045341954 -0.12464017 0.015855849 0.055190507 0.11108811 -0.066714294 -0.06987826
0.023255074 0.02818979 -0.061426744 0.038106278 -0.04577194 0.12913562 -0.035704546 -0.023298968
0.034625076 -0.029055925 0.094328545 -0.016871229 0.033326548 0.036271594 -0.05254279 0.048121694
0.030652743 0.012988641 0.015449235 -0.07910897 0.03590259 0.027233912 -0.004506501 -0.0014844851
-0.06714408 0.07187884 -0.063406676 0.023602376 0.0022319257 -0.013686428 0.004738677 0.0055573317
0.006068355 0.02232698 0.010176129 0.005240044 0.011234695 0.003155905 0.0011546046 -0.0060154498
0.001237455 -0.015152889 0.01178498 0.0023352564 0.014620751 -0.014264688 0.0034989298 -0.017243097
0.0055417093 0.015212377 -0.00093928876 0.026193032 0.014151663 -0.017446613 -0.0065318723 0.0032260825
-0.01308015 0.0044621243 -0.009035875 -0.013871136 -0.02068725 -0.023469903 -0.0061381953 -0.015101552
-0.023510644 -0.020528307 0.016219068 0.022961572 -0.016072515 0.012567305 -0.02415466 -0.0027537425
0.020290395 0.024280274 -0.0179865 -0.0059108366 -0.0064643878 0.013145611 0.014240283 -0.017655624
-0.019479305 0.0020694258 0.0086192535 -0.009342423 -0.019238906 0.016445372 0.003352513 0.019149343
-0.015408687 0.022970462 -0.0025532625 0.010010237 0.00925119 -0.019127704 0.024614954 0.016472604
0.02255187 0.001951157 0.004082472 -0.0014180037 0.006605501 0.02336613 0.003351921 -0.00029595793
-0.019727526 0.004536541 -0.015312535 0.005562365 0.021545714 0.00046376884 0.017986054 -0.019275391
-0.008663783 0.0076505854 0.018896252 0.017093252 0.01411925 -0.00630596 0.0055215126 -0.011629993
-0.0058523756 -0.015352535 0.0037527962 -0.0121459635 8.952815e-05 -0.022790441 0.014869877 -0.004187298
0.0049545686 -0.011967147 0.030129896 -0.07810717 -0.018735759 0.03683924 0.015661273 0.03409589
-0.05006692 -0.008896667 0.081741005 -0.03383426 -0.023499697 -0.002173996 0.04409888 0.07826954
-0.13160886 0.0072474144 0.016309323 0.11300242 -0.043228116 -0.012568974 0.039530195 -0.033579923
-0.07772368 -0.07141469 0.13170893 0.038049243 0.1324188 -0.061860953 -0.06597865 0.045545567
0.03821889 0.080875814 -0.1571481 0.0409629 0.016983286 -0.017393831 0.08034098 -0.086493306
0.07491229 -0.09485546 -0.008822376 0.06868757 0.17873368 0.04284721 0.031469528 0.015382269
0.044924907 0.021249821 -0.0030995081 -0.014295924 0.014311237 0.0057038995 -0.022132197 -0.0040339245
0.02497743 -0.0077440403 0.0010892409 -0.022548003 -0.007012369 -0.019097243 -0.0054058926 -0.011232286
0.014746078 0.025374603 -0.013896501 -0.015358002 0.025524898 0.014848187 0.01197261 -0.0013214204
0.023120783 -0.020536274 -0.022597518 0.014767353 -0.014395113 -0.020368768 0.013821824 0.023147112

base.6.bias f4 [32]
00000000: 0d8f 8a3c 8bcd 99bc d651 4f3d 588e 463c
00000010: 62cd ed3c 0891 293c 16a9 403c 77aa cb3c
00000020: 525f c73c 5001 603c 5e7e 053d 00f6 e1bb
00000030: 7016 dabc 6d96 b73c cea1 d2bc 5771 9abb
00000040: 8375 6dbc 5bd1 483c 5406 8c3d 4d87 213d
00000050: 1c6e f63c 3345 43bc c86a e73c 181e 2abc
00000060: 3876 edbc 66b3 563d c75e 7b3c 51f1 b33c
00000070: 46fd 0d3d a5d2 063d 1089 33bb e969 fe3b
0.016913915 -0.018774768 0.050615154 0.012118898 0.029028598 0.01034952 0.011759063 0.024861557
0.024337444 0.013672188 0.032591216 -0.0068957806 -0.026622027 0.022410596 -0.02571192 -0.004713218
-0.014493349 0.0122569455 0.068371445 0.039435674 0.030081801 -0.011918354 0.02824916 -0.0103831515
-0.028987035 0.05241718 0.015342421 0.021965655 0.03466537 0.03291573 -0.0027394928 0.0077640903

base.7.weight f4 [32]
00000000: 9172 943f 6bc3 7f3f 221f 803f 0399 933f
00000010: 8211 a23f 78c3 7f3f 61fb 7e3f 12c1 9a3f
00000020: c245 873f 1e7c 9a3f c33a 803f f50d 863f
00000030: f227 803f 8cd3 ac3f b93e 7e3f 46f1 9d3f
00000040: aeb9 853f af1f 9b3f 585c 913f c90b 9a3f
00000050: 244a 903f caf2 8e3f 745d 9c3f 6194 913f
00000060: d84b 7f3f 8591 973f e1a9 983f 99b2 893f
00000070: 4c6c 903f 5666 a33f 0d80 7f3f 4d88 913f
1.1597463 0.9990756 1.0009501 1.153107 1.2661593 0.99907637 0.99602324 1.209017
1.0568163 1.2069128 1.0017933 1.0473009 1.001219 1.3502059 0.9931446 1.2339256
1.044729 1.2119044 1.1356306 1.2034847 1.1272626 1.1167843 1.221602 1.1373407
0.99725103 1.1841284 1.1926843 1.0757629 1.128305 1.2765605 0.99804765 1.1369721

base.7.bias f4 [32]
00000000: 364b 0d3d 461d 84bb 5142 143d 2881 883c
00000010: a1ec b13c d0ce 0fbb 9815 b2bb 33cb 0b3d
00000020: c08b f3b9 9537 3f3a d21a 5b3d bc86 f2ba
00000030: 44ad a3bb 2f11 bb3c 9786 dfbb 8d2e 823c
00000040: 6f6f fbbb 23d7 b63c 0830 423d c0dd c73c
00000050: 84ef 133c ed93 373c a33b 203c 23d5 603c
00000060: 5b01 9ebb 589e 193d 5370 0e3d a86d b63c
00000070: c7e2 cd3c 878e 783c 57f8 86bb f1ad 553c
0.034495555 -0.00403181 0.036196057 0.016663149 0.021719279 -0.0021943338 -0.005434703 0.034129333
-0.00046452694 0.0007294354 0.053492375 -0.0018503289 -0.00499502 0.022835342 -0.0068214643 0.015891338
-0.007673196 0.022319382 0.047409087 0.02439773 0.009029273 0.011204702 0.0097798435 0.013722691
-0.004821939 0.037504524 0.03477509 0.022269085 0.02513255 0.0151707 -0.00411896 0.013041959

base.7.running_mean f4 [32]
00000000: 0072 1e3c 1cce 023c 49ea bf3c d4eb bcbb
00000010: 8019 023d 5015 d93b c067 6ebc 8352 493b
00000020: a84f 443c bf23 503a ea52 00bc f778 e4bb
00000030: 36db 0cbb 07fd 503c 2d6c 273b 9ae4 70bb
00000040: ebf3 eb3c 4dca e53c bbca 0e3c 45cb 87bc
00000050: 08ea 17bc 00c7 89b9 4e9c 853b f008 12bc
00000060: a353 12bc 3db1 d43b 6d39 5a3b 73db f23b
00000070: 9759 b2ba 38cc a7bb 7558 cc3b b39f cb38
0.009670734 0.007983711 0.023427146 -0.0057654176 0.0317626 0.006624855 -0.014551103 0.0030719347
0.011981882 0.0007939897 -0.007832268 -0.006972428 -0.0021492965 0.012755639 0.0025546656 -0.003675735
0.028802833 0.028050566 0.008715327 -0.016576419 -0.009272106 -0.00026278943 0.004077471 -0.008913264
-0.008931073 0.006490855 0.0033298389 0.0074114143 -0.0013607022 -0.0051207803 0.006236131 9.7095406e-05

base.7.running_var f4 [32]
00000000: 6f6d 6a3f f1b1 673f f7ae 673f 96db 663f
00000010: 2c6a 6b3f a0ff 693f b3cf 6a3f 1cfe 663f
00000020: 9cbe 673f e348 673f c34b 6c3f 87fa 6d3f
00000030: 412b 693f 83b5 6d3f 4dc1 673f bae1 673f
00000040: 029a 6c3f 0d37 6c3f b3a4 673f e0e8 6a3f
00000050: bed6 6a3f c197 683f 768d 6d3f 425d 673f
00000060: 462f 683f 8ded 683f d171 673f 0393 673f
00000070: c454 673f 5a4f 683f c8b0 683f 6abc 673f
0.9157323 0.9050589 0.9050135 0.9017881 0.9195888 0.9140568 0.91723174 0.9023149
0.9052522 0.9034559 0.92303103 0.929604 0.91081625 0.9285509 0.9052933 0.90578806
0.924225 0.922715 0.90485686 0.9176159 0.9173392 0.9085656 0.9279398 0.90376675
0.90697134 0.90987474 0.90408045 0.904587 0.9036372 0.9074608 0.90894747 0.9052187

head.0.weight f4 [24, 1024]
00000000: d2b2 69bc ce48 26bc aa47 f93b 94ba 293c
00000010: 517a d1bc 6f23 293c eec0 cd3d 4e91 f4bd
00000020: 464a 253d a03b 6e3d dbb6 f13c e80f 02bd
00000030: 5f3c b4bc c103 11bd 7647 963c 4e3c e4bb
00000040: f86d 02bd 93e2 ad3c 7d36 8e3c f8df 1abd
00000050: 948a d8bc b359 9d3d 0e90 8e3d 2608 7fbd
00000060: 06eb bd3c 3f99 403e 352c 5c3d 75b3 d9bc
00000070: 5b2c 383c 941f 57bc a467 aebc 3af6 57bc
00000080: 18d7 e83c ecd5 53bc 1c98 733c 52b9 b8bc
00000090: a621 ca3c 5010 b83c 449c d03c 9038 533b
000000a0: db82 17ba 0ede fd3c 82d3 fa3c d64a debc
000000b0: 6c66 cabc a4e9 b53c 50e5 2dbc f204 fabc
000000c0: 88a3 8b3c 54f1 b0bc dcfe 4dbc c460 303c
000000d0: a260 cabc 3e57 f2bc f67f 983c 4862 423b
000000e0: 11e0 eabc 7a76 7dbc 321b b8bc 822e d6bc
000000f0: e02f 8fba 2c0d 823c f00e 4abb ca64 c33c
00000100: 5fb6 363b 1d5a 58bb 194b 9bbc 1f4d e23c
00000110: 8c34 963c 1877 013d 8915 72ba ed84 89bc
00000120: 084a 4d3c 9144 2e3c b125 d63b ff74 253c
00000130: 979f 073d e4ff ba3c 3ead 9a3c a509 bc3c
00000140: 823c 323c fdb8 473c 86a5 9abc 2b5b dc3c
00000150: d5f1 8e3c f740 533d 0e4a 863c cac0 3f3d
00000160: ed63 4a3d c202 70bb 8b6d 88bc e222 1d3c
00000170: bdbf c03b ab93 193d 28ac 3e3c 2a37 12bc
00000180: a719 583c 83b2 9b3c f742 59bc 77f2 d63c
00000190: d3dc 9fbc a510 8a3d 5c22 6cbb 8afe a73d
000001a0: f690 dc3d ebf1 00be b7c6 433d 5d58 363c
000001b0: 103f 6c3c 809f 53bc f46a 7cbc 4bd9 113d
000001c0: e8e5 5c3c b36b 903c fdaf ef3c f16d 90bc
000001d0: b765 853c ac0f 8bbc 01d8 17bc 8c71 3a3e
000001e0: cc41 893c fb0e bfbd 17f6 39bd f686 413d
000001f0: ff3b 003d 58f7 153c 7ee5 c2bc 34b1 2b3c
00000200: 60df fdbc f30c babc 9bf8 ffbc 277c 413c
00000210: 339a 06bd 23a3 1dbd b740 a8bb 47d9 903e
00000220: 050e fbbd 8865 593d 2eb2 303d 7474 2abc
00000230: 0b98 0abd 1a3f fbbc efdc 98bc 70ae 36bc
00000240: 1ded 743c a53c 3f3c 3189 6bbc 9733 813c
00000250: 5095 7cba 3702 213c b0b6 233e 4948 7d3e
00000260: 57b4 f8bd 12df 073c bebc 0d3c 79db 28bc
00000270: dbc2 113c ede5 16bd 80d6 e6bc dfad dcbb
00000280: faa2 54bc 8ea0 60bc a172 ffbc 7cdc 8b3b
00000290: a27b 70bc 4e48 0c3c f29b 003c 917f 9b39
000002a0: 38e8 52bc a821 c4bc 40a7 20bc 6d0f 883c
000002b0: cd7e b03c a534 d8bc 7fb6 aa3c 5154 a2bc
000002c0: 3392 80bc 21f1 2e3b a888 ad3c cbd8 b23c
000002d0: 85c8 a2ba f038 123c 6f26 663c 7518 a5bc
000002e0: d1a9 88bc b52d 6c3c a347 6e3c 3278 453c
000002f0: 3370 e1b9 d95c a03a 2dda 873c af55 c5bc
00000300: 8561 00bc 09ae febc 9a8a ccbc 3cb8 ae3c
00000310: b0c7 0dbd 20b2 38bc 618c 1e3c eb3b d33c
00000320: bd56 69bc 7edf 06bd 20ff b3bc 9674 2abb
00000330: ac7a 803c 6035 083c 8eb9 72bc 774a a43c
00000340: 4baa ffbc e2b0 183c ea84 ca3c 6d7e c7bc
00000350: 84fa a23b 3cde 983c 9ca7 c0bc 9495 b4bb
00000360: 7ae7 f23a 7755 8bbc 193e 00bd d7dd a63c
00000370: 09ba 863c a25d a4bc 2ca5 393c 9de2 8cbc
00000380: beaa d5bb 61f3 5e3c 4de0 04bd 131b 3fbc
00000390: f243 f8bc 83f0 40bd 6649 9fba 2d31 323e
000003a0: f6f2 153d 6027 2b3e 8ac5 9a3c 3ce3 0b3c
000003b0: f836 583b 25e1 733c a201 81bb f3d4 52b9
000003c0: 1ca2 b4bc 1006 f2bc 05d8 64bc 39a8 14bd
000003d0: 3946 313c 8e00 8a3b 56c0 9a3d 9f51 5c3e
000003e0: 1480 45bd 58eb ba3d 2be6 29bd 8ca5 e7bc
000003f0: c143 30bb 99e3 f2bb 6164 2fbc 3f64 51bc
-0.0142638255 -0.010149194 0.00760742 0.010359425 -0.02557102 0.010323389 0.10046564 -0.11941777
0.040354036 0.05816233 0.029506138 -0.03175345 -0.022001443 -0.03540397 0.018344622 -0.0069651967
-0.031843156 0.021226203 0.017359966 -0.03781125 -0.026433267 0.076831244 0.0696107 -0.06226363
0.023183357 0.18808459 0.053753097 -0.02657483 0.011241044 -0.013130087 -0.021289654 -0.013181264
0.028422877 -0.012929421 0.014867809 -0.022549305 0.024674248 0.022468716 0.025465138 0.0032229759
-0.0005779692 0.030989673 0.030618433 -0.027135294 -0.024707042 0.022206135 -0.010613754 -0.030519936
0.017045751 -0.02159945 -0.01257297 0.010765258 -0.024704281 -0.029582616 0.018615704 0.002966063
-0.028671296 -0.015470142 -0.022473905 -0.026145224 -0.0010924302 0.015875421 -0.0030831657 0.02385177
0.0027879698 -0.0033012696 -0.018956708 0.027624665 0.018335603 0.031607717 -0.00092347764 -0.016787017
0.012529857 0.010636465 0.006535255 0.010098695 0.03311118 0.022827096 0.018881436 0.022953818
0.010878684 0.012190101 -0.018877756 0.026898941 0.017449299 0.051575627 0.016392734 0.046814717
0.049411703 -0.0036622738 -0.016653797 0.009590836 0.005882232 0.037494343 0.011637725 -0.008924285
0.01318971 0.01900602 -0.013260595 0.026238663 -0.019514477 0.06741456 -0.0036031222 0.08202846
0.107698366 -0.12592284 0.04779693 0.011129466 0.014419332 -0.012916446 -0.015406359 0.035607617
0.013482548 0.01762948 0.029258722 -0.01763055 0.016283853 -0.016975246 -0.009267808 0.18207377
0.016755007 -0.09329029 -0.045400705 0.04724785 0.031307217 0.00915321 -0.023791071 0.01047926
-0.030990303 -0.022711253 -0.031246474 0.011809385 -0.0328619 -0.038485657 -0.0051346677 0.2829077
-0.122585334 0.053075343 0.043138675 -0.010403741 -0.033836406 -0.030669738 -0.018660037 -0.011149988
0.01494911 0.011672174 -0.014375971 0.01577167 -0.00096352864 0.009827188 0.15987659 0.24734606
-0.12143772 0.00829293 0.008650957 -0.010306233 0.008896555 -0.036840368 -0.028178453 -0.0067345942
-0.01297831 -0.013710154 -0.031182589 0.004268227 -0.014677914 0.008562161 0.00784968 0.00029658948
-0.012872748 -0.02394183 -0.0098055005 0.016608918 0.021544838 -0.02639229 0.020838974 -0.019815596
-0.015694713 0.0026694017 0.021183327 0.02183189 -0.0012419379 0.008924708 0.014047249 -0.020153264
-0.016682537 0.014415194 0.014543447 0.012052583 -0.0004299894 0.0012234702 0.016583527 -0.024088709
-0.0078357505 -0.031088846 -0.024968434 0.021328084 -0.034614265 -0.011272937 0.009677024 0.025785407
-0.014241871 -0.032927983 -0.021972239 -0.0026009432 0.015683495 0.008313507 -0.0148147475 0.020055039
-0.031209132 0.009319516 0.024721581 -0.024352277 0.0049737114 0.018660657 -0.023517422 -0.005510995
0.001853212 -0.017008526 -0.03130922 0.020369453 0.01644613 -0.020064179 0.011330884 -0.017197901
-0.006520598 0.013607831 -0.032440472 -0.01166417 -0.030305836 -0.04710437 -0.0012152612 0.17401572
0.03660866 0.16714239 0.018893022 0.008538064 0.0032991748 0.014885222 -0.003936962 -0.0002010649
-0.022049956 -0.029543906 -0.013967519 -0.036293242 0.010819965 0.004211492 0.075562164 0.21515511
-0.048217848 0.091269195 -0.04147927 -0.028277181 -0.0026895853 -0.0074123857 -0.010705085 -0.012780248

head.0.bias f4 [24]
00000000: 2f0b 833d 7620 39bc 8f16 d93b 3de5 28bb
00000010: 8d97 a4bc 6b34 d73d dc6b a23a ab4a 723a
00000020: 3126 ef3c 830e 39bc cf4e a83d 6a5a cdbc
00000030: 5cd4 813c e70c ec3c ce9e 09bd 3793 43bc
00000040: 24da a1bc 737a a23b cf60 febc 6021 4cbc
00000050: f2de 04bd 1e2b 943b ffb0 733d 66b8 8ebc
0.063986175 -0.011299243 0.0066250036 -0.0025771402 -0.020091796 0.10508045 0.0012391764 0.0009242694
0.029193016 -0.011294964 0.082181565 -0.025067527 0.015848331 0.028814746 -0.033598714 -0.011936954
-0.019757338 0.0049584447 -0.031052021 -0.012459129 -0.03243918 0.0045217415 0.05949497 -0.017421912

head.2.weight f4 [2, 24]
00000000: d41d 23be 102f e33d dda4 1b3e c7df 6e3d
00000010: 0120 e53d 9cd1 f2bd 306a 313e d9d6 ffbd
00000020: 92a7 88be 47a6 41be 8273 57be 6a22 1fbe
00000030: 1a22 04bd 97a7 ed3d 6af1 1dbc 544b 383e
00000040: 8560 37be 4423 3dbe 480a acbd 7710 9bbd
00000050: c257 a33c 168e f03d deb9 67be 7d50 bebd
00000060: 45e3 e8bd 9e62 333d f410 61be 650f 98bd
00000070: b662 c23b 6bf6 12be 8de2 68bd 9dd6 9fbe
00000080: 0104 3fbe 249a 17bd d8ec 52be 806d 133d
00000090: d74f 3a3e 07a9 eb3d 51cd 803c 500f 01be
000000a0: 1145 153e 7f39 cd3d 4fdc 203e d8f0 a1bd
000000b0: 2691 073e 4354 043d adfa 25be 11aa 9ebd
-0.15929347 0.11092961 0.15199609 0.05831888 0.11187745 -0.11856386 0.17325664 -0.12492151
-0.26690346 -0.18911086 -0.21040156 -0.15540472 -0.032259084 0.11604231 -0.009640077 0.17997485
-0.17907913 -0.18470484 -0.084003985 -0.075715 0.019939307 0.11745851 -0.22629496 -0.09292696
-0.11371473 0.04379522 -0.21979123 -0.07424811 0.0059321774 -0.14351813 -0.05685668 -0.31218424
-0.18653871 -0.037012234 -0.20598161 0.0359931 0.18194519 0.11506849 0.015722902 -0.12603498
0.14577128 0.10020732 0.15709041 -0.079072654 0.13238963 0.03230692 -0.16208906 -0.07747281

head.2.bias f4 [2]
00000000: 065a 19be f1e7 153d
-0.14975747 0.03659815
