models/AC-RM-2 Q_LR=0.001 P_LR=5e-06 BATCH_SIZE=128 GAMMA=0.99 MEMORY_SIZE=150000 BETA=0.05_policy_4026.pt (torch, 319747 bytes, 22 tensors)

base.0.weight f4 [32, 2, 5, 5]
00000000: ea04 b53d 061b ddbb 7ee4 f73d 04af ba3d
00000010: 5538 c1bd bac5 27bc e665 aa3d abe2 11be
00000020: 6b09 01be feda 6abd df87 dd3d 332b 873d
00000030: 27c4 07be 7406 70bd 9304 55bd 7178 a83c
00000040: 8faa ce3b 335c ce3d 8840 bebd 30b6 7ebd
00000050: b233 d03b f5cc 8dbc bca9 4ebd ef33 c2bd
00000060: 904c deb9 659e a0bc 8a2c fb3d de36 043e
00000070: e02f 8b3d adb0 c33d 1136 f5bc cc9b 9c3d
00000080: 3835 dbbd 4cb4 86bd 141c f9bd d692 9b3d
00000090: a0b7 94bd 5d70 f53b aa4a eebd 5ec9 813d
000000a0: 19f9 2a3d b7ec 833d 0006 fa3d 6ccc 7a3d
000000b0: 7852 ab3b aea1 703d 0834 94bc 3856 bf3c
000000c0: 0717 88bc ca3f edbd b1df 7abd 1f7f 55bd
000000d0: 9a89 e8bd 86bd 003e c655 7cbd a401 9dbd
000000e0: d61f 933c ea03 2d3c 56e8 56bc b5d8 b13d
000000f0: 90a6 a83c c579 a33d fb8f 01be ce9e 2ebd
00000100: c0f4 fbbd e8be 7b3c 1b82 afbd 0cb3 c33c
00000110: e365 873d 4eb6 ea3d f0d7 c8bb 0bc5 a6bd
00000120: f430 15be fe16 943d 3f58 00be fc28 01bd
00000130: 9709 babc 2352 1ebc 412d adbd a9e6 18be
00000140: f9a2 943d 334a 103e 8bfa 933d 81b8 d33d
00000150: eec5 ad3d 46ab 853d 4868 9dbc 7485 613b
00000160: 1792 a93c 2161 843d cb5e 383c 5268 a13b
00000170: 9fff cebc 9b98 41bd fb2f 4dbd 2680 f8bd
00000180: a32c d23d eb2f f93d d38d 6c3d 485a b43d
00000190: 1049 5bbd 998e f43c 078b 81bd c2f0 42bb
000001a0: 2cab 4d3d c06e fb3c 7bb1 6d3d b30e c5bc
000001b0: 07bc 65bc e9fe f1bc 0169 973d f965 f439
000001c0: 1d5f 2a3d 7e68 fabd a057 ec3d 317f 023e
000001d0: dfd2 8f3d c87e d33d 5eae d63d a94a e43d
000001e0: d1d9 a6bd 5003 553d d2f5 083d 3c3d 8b3d
000001f0: f027 f03d 4a5d 12bd b7d3 703d a472 bb3d
00000200: 05e7 07bd 5d9c 32bc 71d7 52bd 036d 31bd
00000210: 0dda 99bd 98e1 c9bd 4cd8 f4bd 8906 f3ba
00000220: a26e 8d3d f27a 693d ad77 15bd 5ec2 863c
00000230: ad62 2fbd de36 fabc 1abe 23bd 77da 24bd
00000240: 219a 583d c372 733d 6a46 6abd 1487 e33d
00000250: 6ded 873d a7f5 e53d 60b4 d13c 8e25 cb3d
00000260: 2e23 da3c 16d7 bb3d 41b4 85bd af7a fc3d
00000270: 26ad a43c 8877 fe3d 2517 0dbd a12a c5bd
00000280: 75da e5bd ca9c 0ebd 590d 26bd 09e6 a63d
00000290: 3aa6 da3d 3674 fd3c 0823 a8bd 34a1 cd3d
000002a0: 17cf edbd 6c0c f2bd 601f b2bd 4248 cc3d
000002b0: ccf0 50bd 6d32 a23d a816 af3d aac5 fdbc
000002c0: bccb fe3d a897 2abd 6a9c 8dbc f89d 073d
000002d0: 85ef 9dbd 9075 eb3d b9ba e5bc f25b 353d
000002e0: aa4d cb3c 8e63 b9bd 7830 843d 25b4 05bd
000002f0: 35d2 03be 49fc 9bbd fa0a dc3d ad25 febc
00000300: fa32 36bd 0a2a d5bd 1fcb ccbd 1f7c 06be
00000310: e36a 043e 677c a7bd c46f 0fbd d3ac b2bd
00000320: cd4c 0dbd 9555 033e 24b8 e1bd eab9 c33d
00000330: 1607 f13d e63c a43c 35ee 17bd 919f 08be
00000340: 80f3 273d aa0f 853d 5439 92bd f395 8abc
00000350: 1a41 a33d ec06 60bc 6d47 92bd ded3 b2bd
00000360: 1ac8 383d b263 673d c35a 06be 6a9e c4bc
00000370: 4e27 a13d bfca 7fbd d2b5 3f3d 8f29 c53d
00000380: cad7 d1bd 918b dfbd ea0b 10be f96d 1a3d
00000390: 1af3 f1bc 2cc3 15bd fb53 f63d f18f e7bd
000003a0: 3742 0a3e 5996 f3bd d258 11be 09be 8fbd
000003b0: b8ed 9a3d 002f b63d 9b53 51bd 6a8e f23d
000003c0: 587d 10be 74c7 dfbb b86a 5c3d c5e5 a33d
000003d0: 6fc6 b3bd 0cc2 a1bb 4696 a2bd af41 e63d
000003e0: e752 85bd 0848 afbd 8003 02be 7609 0c3e
000003f0: cb74 bf3c 5802 9dbd 5f2a 683d 6872 0fbc
0.08838828 -0.006747606 0.12104128 0.09115413 -0.094345726 -0.010240013 0.08320217 -0.14246623
-0.12601249 -0.057337753 0.10816931 0.066000365 -0.1325842 -0.058599904 -0.052006315 0.020565243
0.0063069533 0.10076179 -0.09289652 -0.062185466 0.006353819 -0.017309645 -0.05045484 -0.09482562
-0.00042400183 -0.019606778 0.122643545 0.12911555 0.06796241 0.095551826 -0.029933007 0.076469034
-0.1070351 -0.06577358 -0.121635586 0.07596366 -0.07261586 0.0074902014 -0.11635335 0.06337236
0.041741464 0.06441634 0.12208176 0.06123011 0.005228337 0.05874794 -0.018091217 0.023356542
-0.016612543 -0.115844324 -0.061248485 -0.052123185 -0.113543704 0.12572297 -0.061605237 -0.076663285
0.017959516 0.010560015 -0.013116917 0.08683912 0.020587236 0.0798221 -0.1265258 -0.042631917
-0.12302542 0.01536534 -0.085697375 0.023889087 0.0661123 0.11460553 -0.0061292574 -0.08143052
-0.14569455 0.07230948 -0.12533663 -0.031533226 -0.02270965 -0.009663138 -0.08455897 -0.1493174
0.07257647 0.14090805 0.07225522 0.10337926 0.08485018 0.065268084 -0.019214764 0.003441182
0.020699544 0.06463838 0.011253069 0.004925766 -0.025268374 -0.047264677 -0.050094586 -0.121338174
0.1026242 0.12167343 0.05775244 0.08806282 -0.053536475 0.029853152 -0.063253455 -0.0029745554
0.05021207 0.030692458 0.058030587 -0.02405486 -0.01402188 -0.029540496 0.07393075 0.00046615282
0.041594613 -0.122269616 0.11540151 0.12743832 0.07022642 0.10326916 0.10482477 0.11147053
-0.08147014 0.052005112 0.033437558 0.06798789 0.117263675 -0.0357335 0.058795657 0.09152725
-0.0331793 -0.010901538 -0.051474992 -0.043316852 -0.07512293 -0.09857482 -0.11955318 -0.0018541376
0.06905867 0.057002015 -0.036491085 0.016450103 -0.042818714 -0.03054374 -0.039976217 -0.040247407
0.052881364 0.059435617 -0.05719606 0.111097485 0.06637082 0.11228495 0.025598705 0.09919272
0.026628103 0.09171884 -0.06528521 0.123280875 0.020102095 0.124251425 -0.0344459 -0.096272714
-0.11223308 -0.034817494 -0.040540073 0.081493445 0.106762365 0.030939203 -0.08209807 0.10040513
-0.11611765 -0.118187755 -0.086973906 0.099747196 -0.05101089 0.07919774 0.08549243 -0.030978043
0.12441203 -0.041648537 -0.017286498 0.033109635 -0.077117 0.11497033 -0.028043138 0.04427714
0.024817307 -0.09052192 0.06454557 -0.032642502 -0.12873156 -0.07616479 0.10744281 -0.031023825
-0.04448221 -0.10408409 -0.0999968 -0.13133286 0.12931399 -0.08178025 -0.035018697 -0.0872437
-0.03449707 0.12825616 -0.1102145 0.09556945 0.1176893 0.02004857 -0.037092406 -0.1334212
0.041003704 0.06497128 -0.07139841 -0.016917204 0.079714015 -0.013673525 -0.0714253 -0.08731817
0.045112707 0.05649156 -0.1312056 -0.024001319 0.07868825 -0.062449213 0.046804257 0.09627067
-0.102462366 -0.10915292 -0.14067045 0.037702534 -0.029534865 -0.036563084 0.12027737 -0.113067515
0.13501821 -0.11893911 -0.14194039 -0.07018668 0.075648725 0.08895683 -0.051105123 0.118435696
-0.14110315 -0.0068291966 0.053812712 0.080028094 -0.087780826 -0.0049364623 -0.07938819 0.11242997
-0.06509953 -0.08558661 -0.12696648 0.13675484 0.02337112 -0.07666463 0.056681033 -0.008755304

base.0.bias f4 [32]
00000000: 2b44 bf37 591e db39 c7f2 9e38 b00c a2b7
00000010: 1de5 0139 0e21 fcb6 e7b3 f5b8 22b2 073a
00000020: 02b7 4737 961a 05ba c175 a3b8 6f49 82b8
00000030: 7380 9a39 acb7 0139 e326 aab9 eeec e6b9
00000040: d303 2039 3ad4 1638 1386 2b39 512b 87b8
00000050: c4ad 8539 9287 8039 0406 07b9 ad77 89b7
00000060: 5ff5 e2b8 56cd 7539 090a f838 dc50 1e39
00000070: 8e0a 99b9 df45 34b9 90f9 cdb7 ec6b fa38
2.2800717e-05 0.00041793546 7.579248e-05 -1.9317813e-05 0.0001238775 -7.5140333e-06 -0.0001171602 0.0005176385
1.1903934e-05 -0.0005077509 -7.794379e-05 -6.212561e-05 0.0002946887 0.00012370822 -0.000324539 -0.00044045545
0.00015260214 3.596044e-05 0.00016357777 -6.44537e-05 0.00025497202 0.0002451507 -0.00012876844 -1.6387401e-05
-0.00010822224 0.00023441514 0.00011827431 0.00015098177 -0.00029190298 -0.00017192167 -2.4554116e-05 0.00011941031

base.1.weight f4 [32]
00000000: 55c7 7c3f e623 813f 1278 7e3f 5ef0 7f3f
00000010: 58bf 7c3f 2b4e 7d3f b980 803f b0ac 803f
00000020: 7271 7d3f a777 813f 03d8 7e3f 1710 803f
00000030: 0e63 7a3f 3ce1 7c3f 60eb 813f 4ca8 7d3f
00000040: ace6 803f 6fe0 833f 2894 7e3f f121 803f
00000050: 2d04 7f3f e650 7d3f 52a7 803f 5d93 7b3f
00000060: 217d 7e3f 36c0 7c3f 6323 7f3f 720d 7b3f
00000070: f1e6 803f b634 7e3f 4e8b 823f b75f 813f
0.98741657 1.008908 0.9940196 0.99976146 0.9872947 0.989474 1.0039283 1.00527
0.9900123 1.011464 0.9954836 1.000491 0.97807395 0.9878118 1.0149956 0.99084926
1.0070395 1.0302867 0.9944482 1.0010358 0.99615747 0.98951566 1.0051062 0.98271734
0.9940968 0.9873079 0.9966337 0.9806739 1.0070478 0.9929918 1.0198762 1.0107335

base.1.bias f4 [32]
00000000: 1943 12bc 06fc be3b cd3d b73b 367d 6b3b
00000010: db40 2d39 acd3 60ba 999b 333b e755 b0bb
00000020: 8994 b2bb 2e6a 843c 8145 cd3b 329a a83b
00000030: e120 77bc 9a45 76bb 225f ae3b 6a95 913b
00000040: 2609 d63b 8524 d1b9 44e9 37bc 5755 d73b
00000050: 5c33 98bb d847 fc3a 6332 05bb bbe8 30bc
00000060: 8064 9dbb 5650 10bc d3e3 693b 2d08 94bc
00000070: d6d1 2b3c 28a7 91bb 31d4 8a3b 0a93 613b
-0.00892713 0.0058283834 0.005592084 0.0035932786 0.00016522726 -0.00085764634 0.0027405976 -0.005381334
-0.0054498357 0.016163912 0.006264389 0.0051453346 -0.015083523 -0.0037578107 0.0053213993 0.0044428604
0.0065318523 -0.00039890796 -0.011225048 0.0065714526 -0.0046447944 0.0019247485 -0.0020324222 -0.010797675
-0.0048032403 -0.008808216 0.0035688772 -0.018070305 0.0104870405 -0.0044449754 0.004236721 0.0034419918

base.1.running_mean f4 [32]
00000000: b7ea e03c 2ec6 f6bc dab9 403f 17c9 6abe
00000010: 7464 f1be 01b3 2cbf 478f 3fbe a7cf 763e
00000020: e238 933f c3c7 113e 65d4 a43e 1ed4 e1bd
00000030: cd91 71bf ee7c 74bd 66ad a1bc 3989 873e
00000040: 8e43 093e d3ce 353e eb99 98be 6f07 a43e
00000050: 4a0b 053e 3840 5a3f 7fed cbbd 959c 88be
00000060: cf58 e6be c922 c2bd b7fd 473e 1da5 fcbe
00000070: c2b3 993d 6fbb 303f d83f 97bd 125f 693d
0.02745567 -0.030123796 0.75283587 -0.22928272 -0.47146952 -0.6746064 -0.18707 0.2410265
1.1501734 0.1423636 0.32193294 -0.11026786 -0.943631 -0.059689455 -0.019736003 0.2647188
0.13404676 0.17754678 -0.2980493 0.3203692 0.12992588 0.8525424 -0.09957408 -0.26681963
-0.4498963 -0.09479291 0.19530378 -0.4934472 0.07504989 0.69036 -0.07385224 0.05697543

base.1.running_var f4 [32]
00000000: 8315 753b 59be 133a 0650 203c 09b1 4f3b
00000010: 27c1 363b 2d94 a83b 1e15 f73a a3e8 9e3a
00000020: 8c68 5c3c 73d2 1e3a c7c8 2a3b 0464 e03a
00000030: 404a 243c 24a9 243a fbef 0c39 0163 193b
00000040: 8745 153a 8e62 203a 3798 023b daf5 a43a
00000050: 20f0 093a 297e 233c ac35 1a3a 6b26 023b
00000060: ce15 413b 42da 393a 6529 b53a be00 993b
00000070: a131 603a 73b1 9b3b d15e 823a 9ea7 ad3a
0.0037396855 0.0005635969 0.009784704 0.0031691215 0.0027886124 0.005144617 0.0018850898 0.0012123775
0.01345266 0.0006058581 0.0026059614 0.0017119651 0.010027468 0.00062813074 0.0001344084 0.0023404958
0.00056942593 0.00061182014 0.0019927153 0.0012585477 0.00052619167 0.009978809 0.00058826315 0.0019859325
0.002946246 0.0007089713 0.0013821541 0.004669278 0.0008552317 0.004751378 0.000994647 0.0013248806

base.3.weight f4 [32, 32, 5, 5]
00000000: 9f75 95bb 84a9 833c b192 3ebd b5b7 e8ba
00000010: 164e b63c 1425 d63b 0553 babc 5728 92ba
00000020: ce42 5ebc 700f b63c 8c83 973c 715f 453c
00000030: 6a0b 0bbd 51c1 8d3c d240 95bc 316a 73bb
00000040: 271a f03c 4948 583c de1f 75bc c9b9 ccbc
00000050: c992 a4bb 61df cb3c 9de4 a0bb dc6d ee3b
00000060: 6dc9 f73c 247a 71bc f56a f3bc e645 da3c
00000070: 2a0a 1fbd 2609 4f3c 7116 263c 8f15 06bd
00000080: 9005 823c 6700 ea3c aee7 a83c 5306 e7bc
00000090: 0bc0 c93c 954a 413b 766e 66ba 44c8 67bc
000000a0: fd32 05bd db03 a2bc 33af 903b 4d60 b13c
000000b0: 7b73 d7bc 6b64 9dbc 2be0 c53c 47c6 d1bc
000000c0: 1b4b b83c 3751 d9bc 3f2c e83c bcb0 7fbc
000000d0: d6b2 e7bb 38c5 6abc 0ef0 ebbc 73ef e5bc
000000e0: ea3b 4a3b 8157 cb3c 931e 29bc 07e9 bc3b
000000f0: 51d6 99bc afba f03b b352 073d b530 033d
00000100: c4e9 893c f057 b9bb a061 6fbb 9c09 0fbc
00000110: 35b4 b3bc 070c 16bd 0ea0 9e3b 02d8 0c3c
00000120: b60d 34bb ae2c 9fbb 67b4 6f3c 932b 96bc
00000130: adb6 98bc c756 c33c 4adc 08bc 2713 d93c
00000140: ed17 af3a 9238 13bd 2cc1 01bd e8e2 43bc
00000150: 38a1 f9bc 9cce 8abb 5589 a9bc 3077 7d3c
00000160: 2f8f 08bd 8109 b0bc 5b3b 70bb fd7c f2bc
00000170: 997b edbc 0572 fe3c 2b2e 7d3c 5ccd f3bc
00000180: 4bac e9b7 7f3e 90bc 1f3a 133c 12a2 b83c
00000190: ad56 ff3c 4c2f bcbb f07f d33b 1af2 e83c
000001a0: 87a9 66bc affe c53b 1662 de3c e63a 773c
000001b0: c780 0f3d 58c0 0ebc d2d1 213b d1b7 7dba
000001c0: e181 8fbb e3c5 1abb d470 c73c 750b 06bd
000001d0: 3119 ddbc a223 0a3c 8319 9a3c 64b5 bdbc
000001e0: e732 f13c 7e0c fb3c 7597 bf3b 7da7 683b
000001f0: 9544 3e3c b94d 18bc d4bd acbb 8552 d6bc
00000200: 6a20 01bc 3212 83bc e190 e23a 8a34 0d3b
00000210: 8717 fa3c 040b bcbc 447c 6a3c 0d0a 8f3c
00000220: 55c0 303b 6642 593c 8aa2 cdbc 2080 efbc
00000230: e348 893c 6842 1d3c b766 36bc 35dc 473c
00000240: 36bb 903b 0896 6e3c c4ed 5f3b 19d5 fabc
00000250: a0a1 3fbb 250a 86bc 86aa c23c 8e6a b5bc
00000260: 3283 f8bc 5d26 e23a d0e2 b43b df1f 18bd
00000270: eb03 083d 78e0 b43c b3c6 373b c632 dabc
00000280: 7d49 9c3c 7db1 96bc 5123 f8bc 417c 9f3b
00000290: 315e 853b d4e5 1ebb 0fd0 85ba 5bf9 1abc
000002a0: ffec 7dba 0ed7 02bd 6490 7abc fb3e 41bb
000002b0: b415 2a3c efbd a73c fad7 14bc 9d52 e73c
000002c0: 6eb4 863c 95df fdbb 0507 093d cd6b 4d3c
000002d0: c0d6 c8bc 0229 c1bb 4278 9ebb cd02 c53c
000002e0: 3aa9 3d3b 0e6e b03c 8d60 6c3c 726a 25bc
000002f0: 4c5a 363c 585b 773c 3754 f7bb ba7d 483c
00000300: 9e3d 08bc 674c d33b e79c 933c 83e1 5f3c
00000310: 15f3 c73b 1bc9 b53c d466 0cbd cd35 3ebc
00000320: f162 183d 69c7 c43c 7da4 b93c 7dcf ca3c
00000330: 46a3 d93a 5a5d 23bc 8093 843b ed18 f63c
00000340: d67c a4bb 369a 863c f513 dbbc e047 f3bc
00000350: 1271 d3bc 9b7c 71bc c548 39bc 747b 993c
00000360: 97b9 35bc 9933 983c dd7e a73b 3dc9 8d3c
00000370: 2131 783c 80cc f43c aa0a 0a3c c8d7 4f3c
00000380: 940d 00bd edd6 3abc 5e88 053c 6145 8abc
00000390: b8c0 aebc d400 3f3c e6dc 0a3d 58d7 d73c
000003a0: d493 9cbc e197 723c 6494 8b3c cfa3 8fbc
000003b0: caae 60bc 7af4 fa3b d153 143d fde2 0d3c
000003c0: 4dcb fa3b d9d9 ee3c 331e 213a 9029 8a3a
000003d0: e017 173d c381 153d 8646 a6bb be77 0f3d
000003e0: 436d 353d db3a 0fbc ccbb f3bc b13d 90bc
000003f0: e068 043d 815d 9f3c dd8a 7dbc 1c51 2abc
-0.0045611407 0.016072042 -0.046526615 -0.0017754944 0.022254031 0.006535182 -0.022744665 -0.0011150938
-0.013565732 0.022224158 0.018495344 0.012046681 -0.033946432 0.017304095 -0.018219385 -0.0037142152
0.029309345 0.013200828 -0.014961211 -0.024990933 -0.005022381 0.024886789 -0.0049100653 0.00727628
0.030247414 -0.014738593 -0.029714087 0.026644658 -0.038828053 0.0126364585 0.010137186 -0.032735404
0.015871793 0.028564645 0.020618286 -0.028201258 0.024627706 0.0029493917 -0.00087902637 -0.014146868
-0.03251933 -0.019777229 0.0044154166 0.021652365 -0.026300183 -0.019212922 0.024154743 -0.025607241
0.02249675 -0.026527984 0.02834141 -0.015606102 -0.0070708795 -0.014329247 -0.02880099 -0.02806828
0.0030858465 0.024821999 -0.010322231 0.0057650837 -0.018778952 0.007346473 0.033037852 0.032028873
0.016835101 -0.005656235 -0.0036526695 -0.008730318 -0.021936515 -0.036632564 0.0048408573 0.008596422
-0.0027473993 -0.004857621 0.014630414 -0.018331325 -0.018641794 0.02384509 -0.008353302 0.02649839
0.0013358571 -0.03594262 -0.031678364 -0.011955954 -0.030472383 -0.0042360555 -0.020695368 0.015470311
-0.033339676 -0.021488907 -0.0036656472 -0.029600615 -0.0289896 0.031060228 0.015452902 -0.029761009
-2.7855995e-05 -0.017607925 0.008986025 0.022538219 0.03116926 -0.005742943 0.0064544603 0.028435756
-0.014078504 0.0060423235 0.02714638 0.015089726 0.03503492 -0.0087128505 0.0024691713 -0.0009678575
-0.0043794964 -0.0023616485 0.024345793 -0.03272577 -0.026989551 0.008431347 0.018810993 -0.023157783
0.029443217 0.030645605 0.0058469125 0.0035500221 0.011613031 -0.009295874 -0.0052716527 -0.026162395
-0.007881263 -0.015999887 0.0017285609 0.0021546208 0.030528797 -0.022954471 0.014311854 0.017460847
0.0026970108 0.0132604595 -0.025101919 -0.0292359 0.016758388 0.009598352 -0.011132888 0.012198498
0.0044168485 0.014562137 0.003416882 -0.030619191 -0.0029240623 -0.01636226 0.023762953 -0.022145536
-0.030335996 0.0017253865 0.005520202 -0.03713977 0.03320686 0.022079691 0.0028042018 -0.026635539
0.01907801 -0.01839518 -0.030290278 0.004867107 0.0040700664 -0.0024245875 -0.0010209101 -0.009458865
-0.0009686499 -0.031943373 -0.0152932145 -0.0029487002 0.010381151 0.02047631 -0.009084696 0.028237635
0.016443457 -0.0077476003 0.03345396 0.012537909 -0.024516463 -0.005894781 -0.004836113 0.024049187
0.0028939978 0.021536853 0.014427316 -0.010096179 0.011129927 0.015097462 -0.007547881 0.012237007
-0.008315472 0.006448317 0.018019153 0.013664606 0.0061019757 0.022190621 -0.034277752 -0.011609507
0.037203733 0.024020867 0.022661442 0.024757141 0.0016604445 -0.009970987 0.0040459037 0.030041182
-0.0050197644 0.016430955 -0.026742915 -0.029697359 -0.025810752 -0.014739181 -0.0113088535 0.018735625
-0.011091611 0.018579291 0.005111559 0.017307872 0.015148432 0.02988267 0.008425394 0.012685724
-0.03126295 -0.011403781 0.008150188 -0.016878786 -0.02133213 0.011657912 0.03390207 0.026347801
-0.019113459 0.014806719 0.017038532 -0.017534165 -0.013713548 0.0076585384 0.036212746 0.008660075
0.00765363 0.029156612 0.00061461626 0.0010540951 0.036888003 0.036500704 -0.005074325 0.035026304
0.044293653 -0.00874206 -0.029752634 -0.017607542 0.03232658 0.019453766 -0.015475002 -0.010395315

base.3.bias f4 [32]
00000000: aa61 d0b6 1397 20b8 6521 3137 98d3 1037
00000010: 6596 0c38 9568 8138 26cc b5b8 6062 1db7
00000020: a2f0 1d37 2dd3 e736 8e75 9c38 70e1 bc38
00000030: 4187 72b7 a414 a138 f7df 5337 1f92 edb5
00000040: 6eda 8637 c294 4838 f920 88b8 57be e136
00000050: 870f 3038 cb38 42b8 0b0e 91b7 f753 91b6
00000060: c996 f1b6 7b4b b3b6 257d 0c37 119d 85b5
00000070: ec0d 2638 7012 5438 6944 35b8 2e6c 6ab7
-6.2102526e-06 -3.828767e-05 1.0557797e-05 8.632334e-06 3.3518667e-05 6.170679e-05 -8.668778e-05 -9.380834e-06
9.413956e-06 6.9089206e-06 7.460556e-05 9.0065296e-05 -1.4455815e-05 7.680923e-05 1.2628726e-05 -1.7700403e-06
1.6075759e-05 4.7822257e-05 -6.491127e-05 6.727681e-06 4.197613e-05 -4.6306097e-05 -1.7291886e-05 -4.3311115e-06
-7.1999134e-06 -5.343403e-06 8.373788e-06 -9.954985e-07 3.959045e-05 5.056191e-05 -4.3217475e-05 -1.3972674e-05

base.4.weight f4 [32]
00000000: f665 7d3f 22c2 803f d876 7e3f 6c35 803f
00000010: ed76 7f3f 98e8 803f 77a4 803f 8f24 7f3f
00000020: 96a8 7d3f f869 803f cae2 803f 7a6c 803f
00000030: 6ca5 803f 8134 7e3f 6dcd 7e3f 8e04 7f3f
00000040: 09c1 7d3f c92a 7f3f e580 803f 539a 7d3f
00000050: 6f63 7d3f eb7b 803f fb4d 803f b28b 803f
00000060: f4e5 7b3f ab8e 803f cddd 7f3f f9b0 803f
00000070: 2730 803f c2b6 7f3f fe1f 7d3f 84d6 7e3f
0.98983705 1.0059245 0.9940009 1.0016303 0.9979084 1.0070982 1.0050191 0.9966516
0.99085367 1.0032339 1.006921 1.0033104 1.0050483 0.99298865 0.99532205 0.99616325
0.99122673 0.9967466 1.0039335 0.99063605 0.9897985 1.0037817 1.0023798 1.0042632
0.98397756 1.0043539 0.99947816 1.0054008 1.0014695 0.9988824 0.9887694 0.99546075

base.4.bias f4 [32]
00000000: 38cd c2bb 2bea 49bb a25d 83bb b06a 60bb
00000010: 60dc ddbb d479 0b3c 47ad 3f3a dc83 1e3a
00000020: 374c 803b 7e3c 41bc c1cd 153b d0a8 f0bb
00000030: 54b5 c63b 0738 aabb a518 3cbb 0ce8 04bc
00000040: f534 0dbc 192f 01b8 0ced 893b 5a2e 7fba
00000050: e974 79bb 5c8e 46bb dcab a7bb 1fb3 adba
00000060: fffa e0bb 390c 9abb 990a 133c b363 9ebb
00000070: e55b b2b9 19ec 17ba 6e2e 28b9 c709 71ba
-0.005944874 -0.003080974 -0.0040089646 -0.0034243278 -0.0067706555 0.008512933 0.0007311892 0.000604687
0.0039153355 -0.011794208 0.0022858235 -0.007344343 0.0060640965 -0.0051946673 -0.0028701213 -0.008111965
-0.008618583 -3.079986e-05 0.0042091664 -0.0009734385 -0.0038064069 -0.0030297255 -0.005116923 -0.0013252235
-0.0068658586 -0.004701164 0.008974695 -0.0048336624 -0.00034019272 -0.0005795374 -0.00016039025 -0.00091948773

base.4.running_mean f4 [32]
00000000: 9407 223c 239d 313e da6b ef3d fd5a 52bd
00000010: a184 4d3c 9590 5cbc e97d 86bc f507 bf3c
00000020: 3fb1 a53d fb3d 45bc 95db 093e 08df 0bbd
00000030: f37f 72bd 4019 173c 0538 debd cc92 2d3e
00000040: d1f2 403e fa43 0f3e 705b ca3c a17f febd
00000050: df18 06be f574 adbb e801 333d 59bb 053e
00000060: eec1 023e 62a2 a93c 4068 d3bd 7023 a7bd
00000070: 42f6 aebd 7aff df3d 3923 11be ea70 193e
0.009889502 0.17345099 0.11690493 -0.051356304 0.012543828 -0.013462205 -0.01641746 0.023319224
0.08090448 -0.012038703 0.1346267 -0.034148246 -0.059204053 0.009222329 -0.10850529 0.1695053
0.18842627 0.13990775 0.024701804 -0.12426687 -0.13095425 -0.0052934834 0.04370299 0.13059749
0.12769291 0.020707313 -0.103226185 -0.08161056 -0.08543064 0.109374 -0.14173593 0.1498448

base.4.running_var f4 [32]
00000000: b986 fa3d f53f 5c3d fa3d b93d 388f ae3d
00000010: c8a9 7c3d 4808 b73d 5b21 df3c faa0 a93d
00000020: 7959 e03d e45f 543d f6cd a73c db15 663d
00000030: 0d1a 373d 4efe a83d 0e68 9a3d 58d8 ea3d
00000040: 5390 ac3d c6c0 293d 681f fe3c 59cc 753d
00000050: 591a fe3d f9d4 163d fb0e 713d afb2 833d
00000060: 629e 313d 0ef5 533d 3e23 cb3d 0e78 0e3d
00000070: 86ea 993d 05a3 a53d c062 213e 26b1 003e
0.122327276 0.05377193 0.09045024 0.085234106 0.061685354 0.089371264 0.027237585 0.08282657
0.109545656 0.05184926 0.020483952 0.056173187 0.04470258 0.0825163 0.07539378 0.114670455
0.08425965 0.04144361 0.031020835 0.060009334 0.12407369 0.0368242 0.058852177 0.064305656
0.043363936 0.051747374 0.09918831 0.03478246 0.07515435 0.08087734 0.15760326 0.12567577

base.6.weight f4 [32, 32, 5, 5]
00000000: e383 e33c d718 ab3c 2dc9 44bb fb1e e9bb
00000010: b666 cbbc 2cc3 1bbc bc0f f33c 12f1 0d3d
00000020: 2999 b63c d73f b13c 8b8f 65bc f3e3 f53b
00000030: 9d1f adbc e84d 92b8 c687 43bc a62b acbc
00000040: 19e5 0a3d 82ba 2a3b 5770 bb3c 58e0 a3bb
00000050: 07aa a23c 5e0e b63b 0dda 94bc b2d8 01bd
00000060: 5f1f 1bbd 9083 b9bc e909 81ba d225 6c3c
00000070: e0cb 8f3c 9ac2 95bc 65f1 373c ba21 9d3b
00000080: b0cd 4cbc 3558 0bbc 5bcd 813c 2097 a43c
00000090: faaa 963b 4b83 21bd b32a 5abc b2da abbb
000000a0: 6de7 7cbc b74b ea3c 1109 0bbd 6883 cfbc
000000b0: 57af cd3c 039b 6b3c 697d d63c ce95 92bc
000000c0: 1fbe 753c 81e6 4b3c 6cea 2bbc 2a7e e73c
000000d0: e0ad 563c d6e2 04bb 6932 e53c cb4b 9cbc
000000e0: 6360 15bd 90e0 a93c a4c3 b9bc d2cf 363c
000000f0: fc60 a9bc a847 3bbc e7d1 9ebb ca38 5ebc
00000100: 6e6a c53c c2eb 393c 1f63 de3a 0568 103c
00000110: 56e5 7dbc 7700 94bb 3955 d5ba 7e4d 56bc
00000120: 6a35 14bc 6313 a7bc 6d14 5c3c 7b89 9dbc
00000130: f976 00bd 7254 41bc 052b ee3b d562 0fbd
00000140: 2130 d1bc 798e 8d3c fd29 a5bc eec1 0c3d
00000150: 23d8 403b 8396 8d3c 28b6 adbc 930e 053c
00000160: 209a 1cbc 7511 6b3c 5e76 c3ba 29bb 323c
00000170: ea57 20bd 509b 9839 e48f f83b 1aba 553c
00000180: 0f1a 09bb c649 27bc 23e9 7abc 2b6d 483b
00000190: cb84 22bc e707 ee3c 517d 3dbd a43d 003d
000001a0: a9df cfbc a780 94bb 274b 803b 3e9b 383c
000001b0: a6ef f53c 2e55 a5bb c3c1 a3bc deb5 b0bc
000001c0: b9a7 3f3a b340 88bc d387 97bc b33c 91bc
000001d0: 9238 743b 03d2 973b 2d71 8a3c cea2 9cb9
000001e0: 94cf 2d3b 5949 3a3c 0aaf 983b 704d 11ba
000001f0: b7ca 173c edd5 5bbc f1f6 fe3b 3746 183d
00000200: 9f01 97bc b4d1 243c 2450 14bc 70c2 8b3c
00000210: d034 583d 5114 b4bb 7c5f e3bc bf0b 443b
00000220: 2390 393c 870e 293d 2209 0e3d 24d4 89bb
00000230: c144 203c 6b2e 913b 054e 5fba bf70 9a3c
00000240: 9f59 da3c aa21 bd39 0288 c53c 4eac 05bd
00000250: 4c98 e3ba 4732 4d3b f257 d13c 824b b9bb
00000260: ba8a ac3c f3a0 3b3c 9a57 b6bc d4d1 693c
00000270: 1583 943a 9946 31bd 3a8d a9bc 7423 1bbd
00000280: 4b67 3b3c 0203 8339 d07d 493b 6e30 c4bb
00000290: eb56 d9bb ad71 38bc 5f88 6f3c e79c f93b
000002a0: 9854 1d3c 87f2 e73c 72b2 c43c 0fb5 bf3c
000002b0: 6c70 19bd 7b96 67ba 69bc 7f3c 1f01 edbc
000002c0: 64c3 2b3c acc2 233c cc07 b0bc fdd6 2f3d
000002d0: b1dc a8bc 9e1a 91bc 6733 353c f266 68bc
000002e0: 8870 54bc 2ecf cdbb 7b8f 7c3c db86 a93c
000002f0: efcd 6fbc 5605 0b3d fd29 10bd c125 abbc
00000300: d99b 973c 3557 133d 715d dfbc 87cd 613c
00000310: 85cf f03b 86be 24bc 1838 9d3c 98df 8b3c
00000320: 82b3 a1bc 12ce adbc b1f2 983b b0df 9dbb
00000330: e100 a4bc 657c 94bc 5453 9ebb f063 ed3c
00000340: 9fc6 943c de75 1e3d 3c3d 693c 73b2 053d
00000350: e760 5fbc 5013 26bc 396a 5bbb f5b1 48bc
00000360: 4956 56bc f91e 9abc 5b1a a4bb b044 1f3d
00000370: a0bc 43bc 65d1 4bbc 8c71 983c 98e7 c23c
00000380: 90ff 133d e0a2 0fbc 4fbe 023d a555 dabc
00000390: 1a84 cdbc ff9d 5dbb db0f a8bc 1080 a83b
000003a0: 88a6 8bbc 83c3 133d 17ed ab3c af41 29bc
000003b0: 1a18 103d 51fc 973c d885 973c ccb8 f13c
000003c0: fae1 973c 7599 9fbc c5e5 19bc 25e7 d93c
000003d0: 495a 133d 3ea1 b63c 5b8f 0a3b dbe0 c3bc
000003e0: dd82 f13c ea39 363c a664 9f3c 6f54 9d3a
000003f0: 071a 94bc 3e03 b1bb dae4 0cbd ec14 b33a
0.02777285 0.020885868 -0.0030027137 -0.007114289 -0.02482925 -0.009506982 0.029670589 0.03465373
0.02228983 0.021636887 -0.014011274 0.0075039803 -0.021133238 -6.976334e-05 -0.011934226 -0.021016907
0.03390989 0.0026051109 0.022880716 -0.005001109 0.019856466 0.005555912 -0.018170381 -0.031700797
-0.037871715 -0.022645742 -0.0009844872 0.014413314 0.01755327 -0.01828127 0.011226987 0.0047952803
-0.012500212 -0.008504917 0.015844991 0.020091593 0.0045980187 -0.03943185 -0.013315844 -0.0052445764
-0.015436036 0.028600557 -0.033944193 -0.025331214 0.025108023 0.014380219 0.026182847 -0.017893698
0.014998942 0.012445093 -0.010492902 0.028258402 0.0131029785 -0.0020276806 0.027978139 -0.01907911
-0.036468875 0.020736963 -0.022676297 0.011157947 -0.020676129 -0.011430658 -0.0048467997 -0.013563344
0.024098601 0.011347713 0.0016966796 0.008813863 -0.0154965725 -0.004516657 -0.0016276009 -0.013079999
-0.009045938 -0.020394986 0.013432604 -0.019230595 -0.03136346 -0.0117999185 0.007268312 -0.035006363
-0.025535645 0.01727985 -0.020161623 0.034364633 0.0029425703 0.017283684 -0.021205023 0.008121151
-0.009558231 0.014347424 -0.0014912596 0.01090888 -0.03914634 0.00029107416 0.0075855125 0.013044858
-0.0020920073 -0.01021046 -0.015314373 0.0030582647 -0.009919356 0.029056503 -0.04626209 0.031308785
-0.025375204 -0.004531938 0.003915209 0.011267481 0.0300215 -0.0050455546 -0.019989854 -0.021571096
0.00073110644 -0.016632413 -0.018497383 -0.017729139 0.0037265164 0.0046331896 0.01689967 -0.00029875938
0.0026521431 0.0113700265 0.004659538 -0.000554285 0.00926464 -0.013417703 0.0077809026 0.037176337
-0.01843339 0.010059763 -0.00905231 0.017060488 0.05278474 -0.005495586 -0.027755491 0.0029914228
0.011325869 0.04127362 0.03467668 -0.0042061973 0.009782017 0.0044305823 -0.0008518401 0.01885259
0.026654063 0.0003607397 0.024112705 -0.032635026 -0.0017364114 0.0031310485 0.02555463 -0.005654753
0.021062244 0.0114519475 -0.022258569 0.014271218 0.0011330569 -0.043280218 -0.020697225 -0.037875608
0.011438201 0.00024988508 0.0030745156 -0.0059872186 -0.006632676 -0.011257571 0.014619916 0.007617581
0.009602688 0.028313888 0.02401087 0.023401765 -0.03746073 -0.0008834374 0.015608885 -0.028931199
0.0104835965 0.009995144 -0.021488093 0.04292964 -0.020613046 -0.017712887 0.011059619 -0.0141847
-0.012966283 -0.0062808013 0.015415068 0.020694187 -0.014636501 0.033940636 -0.035196293 -0.020892026
0.018506931 0.03597184 -0.027266236 0.013781912 0.007348957 -0.01005519 0.019191787 0.017074391
-0.019738916 -0.021216426 0.004667603 -0.0048179254 -0.02001995 -0.018125722 -0.004831711 0.028978318
0.018161116 0.038686626 0.014235791 0.032640886 -0.013633943 -0.01013644 -0.0033480062 -0.0122494595
-0.013082095 -0.018813597 -0.0050080246 0.038883865 -0.011946827 -0.01244006 0.01860883 0.023792073
0.036132395 -0.00876686 0.031919774 -0.026652167 -0.025087405 -0.0033816097 -0.020515373 0.0051422194
-0.017047182 0.036075126 0.020987077 -0.010330602 0.035179235 0.018552931 0.018496439 0.029507063
0.018540371 -0.019482354 -0.00939316 0.026599476 0.035974775 0.022293683 0.0021142575 -0.02391093
0.029481346 0.011122206 0.019457173 0.0012003313 -0.018078817 -0.005401998 -0.034397937 0.0013662851

base.6.bias f4 [32]
00000000: 61ef f337 9ce1 25b6 0792 48b7 d0fc 9db7
00000010: 7d53 5cb8 a87c 5e36 6057 08b8 cb4c a0b7
00000020: df98 fab6 ac27 0ab6 23a6 44b7 7439 5836
00000030: 7b59 0437 496c aa36 6dda 89b6 31cd 30b7
00000040: 2498 d437 db2c 48b7 b01a dcb5 ba0f 0eb7
00000050: f7c1 4f36 ae41 ab35 7048 4e36 b3da adb6
00000060: 786a c0b7 bdd4 d137 0e63 8e36 7c9e 0eb8
00000070: 909f cdb6 3969 5a37 5ff1 48b8 d89e 8e38
2.9079327e-05 -2.4718238e-06 -1.1954929e-05 -1.8833583e-05 -5.2529842e-05 3.3153137e-06 -3.25063e-05 -1.9109246e-05
-7.468377e-06 -2.0586695e-06 -1.1721192e-05 3.221995e-06 7.888647e-06 5.079001e-06 -4.1083463e-06 -1.0538192e-05
2.5343215e-05 -1.1931373e-05 -1.6399044e-06 -8.467521e-06 3.0958306e-06 1.2759608e-06 3.0738556e-06 -5.1812617e-06
-2.2937762e-05 2.5013805e-05 4.2434613e-06 -3.400304e-05 -6.1280516e-06 1.3018312e-05 -4.790851e-05 6.8006746e-05

base.7.weight f4 [32]
00000000: 7505 863f f1f7 833f c62f 863f a0cf 863f
00000010: 8c5b 863f 09d2 833f d04b 843f 7b4f 853f
00000020: 607a 863f f6e1 843f 51d6 853f 4fb7 833f
00000030: 683f 863f 4f34 883f 56ff 853f 77be 873f
00000040: e268 833f 8186 833f 0f68 873f 3f78 853f
00000050: b0ef 843f 5230 863f d8b7 863f 8484 853f
00000060: 634d 883f f8a8 843f 3855 893f 7a72 863f
00000070: 1bd8 843f 994f 853f 7f8f 873f 8361 853f
1.0470415 1.0310041 1.0483329 1.0532112 1.0496688 1.0298473 1.0335636 1.041488
1.0506096 1.0381458 1.0456029 1.0290316 1.04881 1.0640963 1.0468547 1.0605
1.0266383 1.0275422 1.0578631 1.0427321 1.0385647 1.0483496 1.0524855 1.0431066
1.0648617 1.0364065 1.0729132 1.0503685 1.037845 1.0414916 1.0590667 1.0420383

base.7.bias f4 [32]
00000000: 0928 ab3c 8a29 cd3c 8868 833c 3902 e43c
00000010: a87e 813c 7a85 733c 228f 6c3c 8297 b93c
00000020: bc0b b53c 0afb a63c 189a ea3c 33ef ac3c
00000030: 26d0 c53c bc1f cb3c 386c 823c 8512 2d3d
00000040: 1818 5e3c a874 bb3c 1683 3a3d 74cd 933c
00000050: d118 873c 36f4 f73c 421f c43c 0c4a 5d3c
00000060: b22d f53c c6e0 973c 32b6 ba3c e460 473c
00000070: 4eff ab3b 4670 263c e7b1 173d 9438 c03c
0.020893114 0.025044221 0.016041055 0.027833091 0.015807465 0.014863366 0.014438422 0.022655252
0.022100322 0.020383377 0.02863793 0.021110153 0.024147104 0.024795406 0.015920743 0.04225399
0.013555549 0.022882774 0.04553517 0.018042304 0.016491326 0.030267816 0.023940686 0.013506424
0.029929016 0.018539798 0.022791956 0.012169097 0.0052489405 0.010158604 0.037034895 0.023464479

base.7.running_mean f4 [32]
00000000: 19b4 3f3c 5e06 963e 3cee 0b3d fa4b 523e
00000010: 9ac5 d23e 518b b6bd 3e40 363e 0ec8 f0bd
00000020: 68b0 0f3e fc04 08bb bfc9 343e d084 3dbe
00000030: 656a 453e a1c2 4f3e 7fd1 5b3e a4d3 c83e
00000040: 74c8 82be 785f 713c 3e4c 7a3e 07a9 d6bd
00000050: 7474 133d 49d2 ae3e 01c4 1b3e fb9f 8f3d
00000060: 0b99 803e 41da 463e ce75 c23d affa 3e3e
00000070: 8a04 f5bd 4b92 353e 7a02 0f3e 6b68 18be
0.0117006535 0.29301733 0.034162745 0.20536795 0.41166383 -0.08913291 0.17797944 -0.117569074
0.14032137 -0.0020754924 0.17655085 -0.18507695 0.19278868 0.20289089 0.21466635 0.3922397
-0.2554356 0.014732234 0.24443147 -0.10481458 0.03599973 0.3414481 0.15211488 0.07012936
0.25116763 0.19419195 0.09495126 0.18650316 -0.119637564 0.17731588 0.13965788 -0.14883582

base.7.running_var f4 [32]
00000000: 2819 f73d 75c4 db3d e871 1d3e bc3a ea3d
00000010: 7a0c 913e c283 dc3d 49d9 163e 878e 2a3d
00000020: 61be a93d 36e1 503e bcba 063e f1f5 723e
00000030: 7170 4d3e 9ef2 093e f1f8 613e f727 363e
00000040: 9c35 773e 9ffb c83d 0662 183e deca 153e
00000050: a491 363e 2cf0 3e3e 148c ea3c 4807 523e
00000060: ad93 f43d 601b a33d 130f c83d 6a44 8a3d
00000070: 8843 103e 588e d13d 94a3 063e 19bc d23d
0.12065345 0.107308306 0.15375483 0.11436984 0.2832983 0.10767318 0.14731325 0.04163983
0.08288265 0.20398411 0.13157171 0.23726632 0.20062424 0.13471457 0.2206762 0.17788683
0.24141544 0.09813618 0.14881143 0.14628169 0.17828995 0.18646306 0.028631248 0.2051059
0.119422294 0.07964206 0.097685 0.0675133 0.14088261 0.10232228 0.13148338 0.10289783

head.0.weight f4 [24, 1024]
00000000: fb6f 9a3c 00ed 8b3c 68ee 773c 11bf 563c
00000010: 8234 2e3b d4c4 73ba bd7d b03b 4197 8dbc
00000020: 0c8f 0f3b 2e42 cdbc 5d3e 813a ca47 533b
00000030: dcca 893c 2fac 8c3c 2497 aa3c 04aa a13c
00000040: 4d4c 1e3d c9cc dc3c 977e 0bbc 3ed3 a63b
00000050: 42c6 a03b 37cb 053d 8fc4 da3a d778 c83c
00000060: a58c fabc 98c8 1cbc fc2b 04bd 0460 963b
00000070: 8a14 cb3b e0d4 083d a9f1 c73c d59d 39bb
00000080: 3701 f838 8da2 5bba 8b0c a8ba a7f6 b7bb
00000090: 0423 5ebc a73b 973b ff85 ae3b c614 ff3c
000000a0: f8ab 133d 8ad1 bebb 8562 053d 45ad db3b
000000b0: 6e87 d23b 11fd 413b 8375 af3a e28c 1c3a
000000c0: f344 f03c 69e1 843c 013d 6ebc 9248 d03c
000000d0: e32f b73c 46f6 96bc 7cc1 debb b0d0 adba
000000e0: f306 903c 9af9 19bd 495a cabc 0e39 e03c
000000f0: 5304 043d 16a5 c03c e4b2 6cbc f341 a5bc
00000100: 1123 0eba bd54 30bd 8386 25bc 6031 15bd
00000110: 5825 efbc eb4d 24bd 9726 4d3c 5eb8 b53c
00000120: d9ce da3b f419 c6bc 3425 a1bc 712a 82bc
00000130: 418b 28bd 8cb5 efbc 8d53 01bc fa66 31bd
00000140: a0ec 229f 8013 c6b5 d5da 25b8 0dad 14ba
00000150: d513 88bb 248c dbbb dd93 d83c 1b81 933b
00000160: 1a30 533b bd39 72bc 544f b0bc 6f71 2cba
00000170: 33f5 043b 3c5e bdb9 649d 5eb9 c092 c9b0
00000180: 99f2 1e3a 02ab 043a 574f a43a 953e c0ba
00000190: d498 9ebb f847 b8ba a2db 9a3b c7db 263d
000001a0: 8762 423d 3903 c13c 3b64 94ba 2daa 25bc
000001b0: 6078 d9bb 4a5a 6cb9 d465 8e3a 1ca6 663a
000001c0: fea9 7fbb 8fd8 aabb 0b27 66bb 29ba 15bb
000001d0: 0cf3 84bc 2e31 4a3b eb16 e3bc d220 84bc
000001e0: 6fac 983b f61d e1bc 7795 3bbc b7bd aebb
000001f0: e825 233b b7b2 b2ba e383 02bb b922 92ba
00000200: 34c0 fb96 6e02 3bb7 d4bd 0bb8 9737 70ba
00000210: bf26 88bc 47d2 8a3c c3a1 2c3c 85a6 553b
00000220: 2b2a db3b c070 0e3d 1321 2abc d6cf b43c
00000230: 212d c23a 6110 9c39 27cc fbb8 3d48 0000
00000240: 1349 11bd 402c b23a 2049 15bd 299b 27bd
00000250: 79e4 58bc 12d7 96bc 5538 b9bc 3996 ea3c
00000260: a457 043b 5c65 1c3c bffd 2a3b afea 1fbc
00000270: fc25 34bc 49b3 01bc 91e9 4ebd 3b19 1fbd
00000280: da9c f53c d9a3 243c 0794 633d 86d5 5f3d
00000290: d677 243d 2ff3 1f3d 6e2a aa3c b415 443c
000002a0: 71a1 b23b a2d9 613c cd26 ff3c ad76 faba
000002b0: db69 363d a0d1 023d 95a5 3d3a 9e0e 663d
000002c0: 8602 303a fd08 353a 0537 b3ba 13cc 5cbb
000002d0: 37f2 39bb bcf8 cd3c 30e1 ed3b b8f4 24bc
000002e0: 7e9d 44bc 559c c6bc 939d cdbc 5536 083c
000002f0: 914d 8cba 6959 4c39 6bc3 553a 7f39 9a3a
00000300: 0374 29ba b4de 38ba 1239 dcb9 1910 38bb
00000310: 6dc7 59bb 3124 9439 f2c1 8c3c 9045 da3c
00000320: d393 48bd 91f9 e33c b91e 823c 0d1a b13a
00000330: 0805 82bb 61cd 01b6 67e1 bf38 1964 24b9
00000340: 0d7c efbb d65f 283c b492 73bc 2ae2 063b
00000350: c127 a33c b7d7 1f3d 2c07 563b ebbe e33b
00000360: 50f1 8cbb 38f7 8e3b a903 a03c 495c 5b3c
00000370: 0259 e7bc 9bea dcbc d00b d3bc 0da6 7f3b
00000380: 2dd1 e3b8 8ce3 0dbd 51fc c3bc dbe4 8a3c
00000390: 0a6e ddbb 65fa 123d f872 e73c fd36 1f3d
000003a0: 6459 f23c b4bc 6fbb f52f b2bb 9c17 e5bb
000003b0: 81bc 00bc fa89 6e3c 38a6 9cbc 6ded 1bbd
000003c0: 3e25 103b 4d58 0b3b 3496 91bb c52f b9bb
000003d0: 4966 bd3b ff78 b73a f4d7 283c 55c0 c1bc
000003e0: b3ec d7bc cfa8 a93b edbc 88bc a861 eebc
000003f0: 06bf 003c 1d23 6cba be6d 4b39 0484 2d3b
0.018852225 0.017080784 0.015132524 0.013107077 0.002658159 -0.0009299044 0.005386083 -0.017284038
0.002190533 -0.025055971 0.0009860505 0.0032238835 0.016820364 0.017171947 0.020824023 0.01973439
0.038646985 0.026953118 -0.008514068 0.0050911 0.0049064467 0.032664504 0.0016690659 0.024471683
-0.030584643 -0.00956931 -0.03226851 0.0045890827 0.006197517 0.03340614 0.024407225 -0.0028322835
0.00011825788 -0.0008378409 -0.0012821121 -0.00561412 -0.013558153 0.0046152654 0.005326032 0.031137835
0.036052674 -0.005823319 0.03256466 0.006704005 0.006424836 0.0029600302 0.0013386462 0.0005971921
0.029329753 0.016220765 -0.014540912 0.02542523 0.022361701 -0.01842798 -0.0067979675 -0.0013261046
0.017581439 -0.037591554 -0.024701254 0.027370956 0.032230686 0.02351622 -0.014446948 -0.020173049
-0.00054220954 -0.043049563 -0.010102871 -0.03642404 -0.029192612 -0.04011337 0.012521408 0.02218264
0.00667749 -0.024182297 -0.01967106 -0.015889378 -0.041148428 -0.029261373 -0.007893455 -0.043311097
-3.4500566e-20 -1.4757825e-06 -3.954287e-05 -0.00056715385 -0.004152755 -0.0067000557 0.026437694 0.0045014746
0.0032224716 -0.014784274 -0.021522202 -0.0006578182 0.0020287752 -0.000361191 -0.00021230202 -1.4666384e-09
0.00060633715 0.00050608825 0.0012535852 -0.0014667088 -0.004839996 -0.0014059534 0.0047258893 0.04073694
0.047457244 0.023561107 -0.0011321375 -0.010111374 -0.0066366643 -0.00022540349 0.0010864087 0.0008798556
-0.0039011235 -0.005213804 -0.0035118486 -0.0022846556 -0.016229175 0.0030852067 -0.02772089 -0.016128931
0.0046592276 -0.027480107 -0.011449209 -0.0053326744 0.002489442 -0.0013633583 -0.0019915036 -0.0011149264
-4.0672534e-25 -1.1146634e-05 -3.3316974e-05 -0.0009163557 -0.016620038 0.016945971 0.010536614 0.0032600474
0.0066883764 0.034775496 -0.010383862 0.02207176 0.0014814475 0.00029766842 -0.00012006639 2.5914e-41
-0.03547008 0.001359351 -0.03644669 -0.040919457 -0.013238066 -0.0184131 -0.022609869 0.028636085
0.002019384 0.00954565 0.0026091186 -0.009760543 -0.010995384 -0.00791628 -0.050515715 -0.03884242
0.02998202 0.01004883 0.05556109 0.05464699 0.040153347 0.039050277 0.020772185 0.011968065
0.005451374 0.013784798 0.031146431 -0.0019108854 0.044534545 0.031938195 0.00072344515 0.056166284
0.0006714243 0.00069059414 -0.0013673013 -0.0033690974 -0.002837313 0.02514302 0.0072595105 -0.010068111
-0.01200044 -0.024244467 -0.025099551 0.008313735 -0.0010704269 0.00019488264 0.0008154425 0.0011766403
-0.00064641255 -0.00070522283 -0.0004200419 -0.0028085767 -0.003323044 0.00028255724 0.017182324 0.026644498
-0.0489691 0.027828963 0.01588379 0.0013511792 -0.003967885 -1.9342044e-06 9.149574e-05 -0.00015677548
-0.007308489 0.010276755 -0.01486652 0.0020581582 0.019916417 0.03902408 0.0032658083 0.0069502494
-0.0043012276 0.004362967 0.019532995 0.013388702 -0.028240684 -0.026967337 -0.025762469 0.0039008886
-0.000108631655 -0.034640834 -0.023924025 0.01695483 -0.0067575024 0.035883326 0.028253064 0.0388708
0.02958364 -0.0036580982 -0.005437846 -0.00699134 -0.007857443 0.014559263 -0.019122228 -0.038068224
0.0021994854 0.0021262348 -0.0044429544 -0.0056514465 0.0057800156 0.0013997852 0.0103053935 -0.023651281
-0.026357984 0.0051775943 -0.01669165 -0.0290993 0.007858044 -0.0009007918 0.00019400471 0.0026476393

head.0.bias f4 [24]
00000000: 08de d13c f26a 513c a56b b33b 273d 90bc
00000010: ef7f a0bc e17f 3bbc 3b89 c6bb 9c65 a8bb
00000020: f7b9 043d d4f7 953b a46d bc3c 51b8 cb3c
00000030: 1378 033b 53e1 c93c 49e0 23bc 6cd9 9f39
00000040: 68b3 67bb dadf 013d 93b7 ae3c 568a 753c
00000050: d43a d739 b441 90bc 86f2 1a3c 9beb 1fbc
0.025618568 0.012781845 0.0054754787 -0.017607285 -0.019592253 -0.011444063 -0.0060588396 -0.005139066
0.032403912 0.0045766626 0.0230015 0.024868162 0.0020060583 0.024643576 -0.010002204 0.00030488835
-0.0035354737 0.031707622 0.02132777 0.014986595 0.00041051826 -0.017609455 0.009457236 -0.009760763

head.2.weight f4 [2, 24]
00000000: 7ad5 20be a0ad 873e 5516 79bc b0da d53d
00000010: 7633 5ebd 3dee e8bd a297 233c a5ac 9c3c
00000020: d543 54be 5d49 533e 7b6b 02be 8888 7fbe
00000030: 0742 2ebd 8396 593e 6b5b f2bd 9a45 563e
00000040: 2cdf db3d 3992 4b3e ec3f 273e fddf 703e
00000050: 4b7d 893d c5ce 1e3e 1f7e a7bd f4b0 253e
00000060: 0ea2 133e be93 0fbe 4080 f13d 1047 f1bd
00000070: b0ae 2f3e 7ceb 82be d215 3dbe 1210 10be
00000080: f83a 4d3e d9bf 6abe 19e2 233e 5271 5a3e
00000090: 0742 2e3d dd2e 043c a500 173e 6075 a43d
000000a0: 7d70 8abd 89fc 733a 386d 6cbe b020 a83c
000000b0: b78a 2d3e e8f3 30bd 0d09 5f3e e7bf 56bd
-0.15706435 0.26499653 -0.015203078 0.10442102 -0.054248296 -0.11373565 0.009984883 0.019125292
-0.20729001 0.20633455 -0.12736313 -0.24954426 -0.042543437 0.21248822 -0.11833843 0.20924988
0.10735926 0.19879998 0.16332978 0.23522945 0.06713351 0.15508564 -0.081783526 0.16180784
0.14417288 -0.14021203 0.1179204 -0.11781132 0.17156482 -0.25570285 -0.18465355 -0.1406863
0.20042026 -0.22924747 0.16004218 0.21332291 0.042543437 0.008067814 0.1474634 0.080302
-0.06759737 0.0009307345 -0.23088539 0.0205234 0.16947447 -0.043201357 0.21780796 -0.052429106

head.2.bias f4 [2]
00000000: 65fd 0c3e 3fd8 0abd
0.13768537 -0.033897635
