models/AC-RM Q_LR=0.001 P_LR=5e-06 BATCH_SIZE=128 GAMMA=0.99 MEMORY_SIZE=100000_policy.pt (torch, 737030 bytes, 22 tensors)

base.0.weight f4 [64, 2, 5, 5]
000000 97 49 9d bd 66 90 79 3d 5e 38 c5 bd c9 f7 cd bc
       -0.07680052 0.060928725 -0.09629892 -0.025142567
000010 57 d2 ab bd 9d cb e3 3d f5 2e ac 3d 52 85 7b 3d
       -0.083897285 0.111228205 0.08407394 0.06140644
000020 f0 11 98 bd bc 72 97 3b 58 c4 cb 3d 7c 4b bf bd
       -0.07425296 0.0046218317 0.09949559 -0.093405694
000030 a3 5e 4d 3c ec 35 f5 3c 1e 4a cb bd bf d6 e9 bc
       0.01253477 0.029932939 -0.09926246 -0.028544782
000040 a3 5f b3 3b 70 84 98 bd cf 9b cc bd e6 fd e6 3d
       0.0054740473 -0.074471354 -0.09990656 0.11278896
000050 84 8e 10 3e 73 f9 e3 bd c0 bd 8b 3d ca 15 e4 3d
       0.14116865 -0.11131563 0.06823301 0.111369684
000060 85 2c 7f bb 95 26 b5 3d 66 0d 46 ba 4f 3c 0c be
       -0.0038936448 0.088452496 -0.0007555097 -0.13694881
000070 12 24 ff 3d b1 74 d0 3d 0e cc 1f 3d 2d dc 76 3d
       0.12458052 0.10178507 0.03901296 0.06026857
000080 c4 d3 65 3c fe bd a6 bd c4 d2 f4 3d 8c d5 7a 3c
       0.01402754 -0.08141707 0.11954263 0.015309703
000090 a2 77 a8 bd f6 65 3b bc 34 8f f4 bd d4 e9 56 3d
       -0.08225943 -0.011437884 -0.11941376 0.05246909
0000a0 41 ff 9e bd 01 62 d1 3d f4 dd 8c bd 94 70 e3 bc
       -0.077635296 0.10223771 -0.06878272 -0.027763642
0000b0 7d 88 94 bb 35 30 bc bd 98 40 f3 3d 75 ea 46 3d
       -0.0045328722 -0.09188882 0.11877555 0.04856344
0000c0 43 eb a8 bd 9d 1d 31 3d a9 21 90 3d 59 e8 7a 3d
       -0.082479976 0.043241132 0.0703767 0.06125674
0000d0 bf d8 5a 3d 1b 90 5b 3d 1c c4 0a 3e 87 23 0c be
       0.05342936 0.053604227 0.13551372 -0.13685428
0000e0 17 8f 9e 3c cc a0 de bc 2f f6 52 3d f9 a0 ab bd
       0.01935534 -0.027176283 0.05150431 -0.083803125
0000f0 a1 6c 41 bd 18 fa 8d 3d 17 0e 0b be ea 16 b2 bc
       -0.047222737 0.06932467 -0.13579594 -0.021739442
000100 dc 65 ae bb 04 02 10 be f4 00 9f 3d 93 35 d6 3d
       -0.005322201 -0.14063269 0.07763854 0.10459437
000110 b3 f9 1c bb f4 6c 30 bc d8 d2 35 bd 46 b1 03 be
       -0.0023952543 -0.010768164 -0.04439053 -0.12860593
000120 e7 0a f8 3c 4d 0e d6 3d 00 1e fc 3d 76 43 de 3d
       0.030278636 0.104519464 0.123104095 0.10852711
000130 6a 59 bd 3d fc 2a ff 3d 5a ac 2f 3c 0f 6a ed bd
       0.0924557 0.124593705 0.010722244 -0.11592495
000140 31 c4 02 3e 11 c7 f2 3d e2 7e 03 3e 11 34 f2 3c
       0.12770154 0.11854375 0.1284137 0.029565843
000150 3f f1 97 3d 63 e8 d2 3a 7b 30 bf 3d f8 bc 8f 3d
       0.07419061 0.0016090985 0.09335419 0.07018465
000160 fb 7e 0e 3d 26 6d cf bd 6a a1 84 bd 47 39 d5 3d
       0.034789067 -0.1012824 -0.064761 0.104113154
000170 b4 0d ae bd 96 d9 8d bb 6c ca fe bd c5 b3 05 be
       -0.084987074 -0.004328917 -0.12440953 -0.13056858
000180 a4 e5 8b bd e0 5e 92 3d 54 c0 0f 3e 9f 00 fa bd
       -0.0683091 0.07147002 0.14038211 -0.1220715
000190 cd 6d fc 3d 6a 6f 57 bd d8 66 07 be 51 b7 63 bc
       0.1232563 -0.052596487 -0.13222826 -0.0138986865
0001a0 47 4e 0a 3d 57 89 f6 bc fa 72 81 bd 78 3f 06 3e
       0.033766057 -0.030094786 -0.06320758 0.13110149
0001b0 56 b4 e3 bd 96 85 f0 bd 9c f8 7b 3d 13 c9 ed bd
       -0.11118381 -0.117442295 0.06151639 -0.116106175
0001c0 52 90 43 bd d0 f5 12 bd ea e9 68 bd e4 c8 50 bd
       -0.047745056 -0.035878956 -0.056863703 -0.050972834
0001d0 89 7d 94 3d 82 e6 ae 3c 5f 35 ab 3c 2d d3 e5 bd
       0.072505064 0.021350149 0.020899473 -0.11221919
0001e0 89 15 04 be 80 6f 5f bd a9 77 cd bd 14 11 79 bd
       -0.1289884 -0.054549694 -0.10032589 -0.060807303
0001f0 77 68 e4 3d 82 68 2c bd 73 b2 b3 3d 4f b1 f1 3c
       0.111527376 -0.042091854 0.08774271 0.029503493
000200 7f b1 94 3d 8f 64 45 3c de 4c ae bd f6 35 c1 3d
       0.07260417 0.012047901 -0.08510755 0.0943412
000210 b6 95 4d 3c 70 96 c5 bd d1 0e bf bd 25 f5 a2 bd
       0.012547901 -0.09647834 -0.09328998 -0.07956914
000220 95 ab 87 3c a0 12 9d bd ee 19 ac bc fa 93 83 3d
       0.016561309 -0.07669568 -0.021008458 0.06424709
000230 3c c7 a8 3d 9b 3f db 3d 10 d9 f6 3c 4a 52 25 3d
       0.08241126 0.10705491 0.0301328 0.04036168
000240 52 9c 9a 3d 40 1c 84 3d 54 ff f9 bc 62 4e 28 3d
       0.07549347 0.06450701 -0.030517258 0.041090377
000250 d7 8d cb 3c cb a1 b8 3c 7a d3 0f be 0c 84 32 3d
       0.024847908 0.022538086 -0.14045516 0.04358296
000260 d9 d1 9e bd 5c 98 c1 3d be d7 35 bd 7a f0 cd bd
       -0.07754869 0.09452888 -0.0443952 -0.10055633
000270 b3 99 c0 3d f0 53 09 3e 8e d1 92 bd 1f ec 36 bd
       0.09404316 0.13410926 -0.07168876 -0.044658776
000280 b4 5f 3a bc 04 cc fe 3d b7 62 b5 bd f6 5d db bb
       -0.011375356 0.12441257 -0.08856719 -0.0066945506
000290 47 52 c6 3a 64 58 09 be 0e d8 94 3c cf ee 87 bd
       0.0015130722 -0.13412625 0.01816943 -0.06637346
0002a0 25 c3 8c bc f5 72 0d 3e 08 fa 0e be b0 29 b4 3d
       -0.017182896 0.13813384 -0.13962567 0.08797014
0002b0 98 93 9e bb 72 cc d3 bd 4b 56 09 3d 07 03 b4 bd
       -0.004839372 -0.10341729 0.03352956 -0.0878964
0002c0 60 5b c9 bd a3 03 a0 bd 22 10 80 3d f3 5f 02 be
       -0.098318815 -0.07813194 0.06253077 -0.12731914
0002d0 80 7b ec bd 4c a9 32 3d 27 79 e3 bd b6 41 57 3d
       -0.11546993 0.043618485 -0.11107092 0.0525529
0002e0 d0 45 02 be 1a 2a de bc 11 af 58 bd 04 3f ed 3d
       -0.12721944 -0.027119685 -0.05290133 0.11584285
0002f0 4b 67 a0 bd 6f e7 fd 3d aa 92 37 bd 02 d8 ba 3c
       -0.078322016 0.12397658 -0.044817604 0.022808079
000300 c2 7f ab 3d 2f d9 6c bd e8 98 d3 3d 00 64 bc bc
       0.08373977 -0.05782431 0.10331899 -0.022996902
000310 23 42 04 3e e3 2f 7b bc 40 29 96 bd 36 1a 71 bd
       0.12915854 -0.015331241 -0.073320866 -0.058862887
000320 18 64 28 bd 2e e2 0c 3e 4e dc e0 3d 80 67 59 3c
       -0.04111108 0.13758156 0.1097952 0.013269305
000330 cc b1 0c 3e 9d 03 b9 bc 7b c7 96 bd e1 6b ed 3b
       0.13739699 -0.02258473 -0.07362267 0.007245526
000340 b2 02 d5 bd f9 44 8a bd ec 7d d8 bd c9 78 4f bd
       -0.10400905 -0.06751437 -0.10570893 -0.0506523
000350 e3 5c e9 3d 1c 15 0a be 88 a1 f5 bd ef 21 a3 3d
       0.1139467 -0.13484615 -0.119937 0.07965457
000360 7a 09 a7 3d f0 4a dc bc 29 a0 b5 3c db 01 c1 bd
       0.081561044 -0.026891202 0.022171097 -0.09424182
000370 66 4a f6 bd c1 f7 c1 bc 6a 21 e3 bd 76 61 a7 bd
       -0.12025909 -0.023677709 -0.110903576 -0.08172886
000380 b8 03 1d 3d aa aa f4 bd a2 cc b7 3d 4f 21 86 3c
       0.038333625 -0.11946614 0.089745775 0.016373305
000390 e8 08 db 3d 1c fb f6 3d 75 97 04 3e 45 f2 bf bd
       0.10695058 0.12059614 0.12948401 -0.09372381
0003a0 37 13 2b 3d 3c 55 cc bd bb d5 1d bd 14 98 ea bc
       0.04176637 -0.09977195 -0.038533907 -0.02863697
0003b0 bd 81 f6 bd 48 71 e5 3d c6 d4 6b bd e1 7d 0f be
       -0.12036464 0.11203247 -0.057575963 -0.14012863
0003c0 2b 1b 30 bc aa e7 e5 3d ea 51 0e 3e c4 84 ae 3d
       -0.010748665 0.11225827 0.13898435 0.08521417
0003d0 93 60 e3 bd 17 9b fd 3a d8 73 8a bc 5c 15 c6 3d
       -0.111024044 0.0019348589 -0.016900942 0.09672043
0003e0 be 96 64 bc 16 17 95 bd ec b1 07 3d 9f fb cc 3c
       -0.013951955 -0.07279794 0.033128664 0.025022326
0003f0 db 86 9f bd 03 96 bc 3d df 62 d8 bd 48 fd 44 bd
       -0.077893935 0.092083 -0.10565733 -0.04809311

base.0.bias f4 [64]
000000 2f 21 eb 3d 8b 92 43 bd 32 e0 4b 3d 0d e5 b7 3d
       0.11480939 -0.047747176 0.049774356 0.08979235
000010 54 01 cc bd 1f a7 86 3d c4 ad 97 3d 63 cc 93 bd
       -0.09961191 0.065748446 0.0740619 -0.07216718
000020 c0 29 89 3d 01 96 e5 3c 8a 19 89 3c fe ea 9e bd
       0.06697416 0.028025629 0.01673581 -0.07759665
000030 01 29 e4 3d cf 42 a5 3c 7f b1 0a be 2c 73 1c 3d
       0.111406334 0.020173458 -0.13544272 0.038195774
000040 2a 0f bf 3d a7 68 da bd 85 a3 90 bc f5 25 0f 3e
       0.09329064 -0.10664492 -0.017656097 0.13979323
000050 98 ee a5 bd a8 80 0e 3e d1 28 08 be 84 8d c1 bc
       -0.08102149 0.13916266 -0.1329682 -0.02362705
000060 47 fc 7b 3d fe 41 c0 bd 4c fc b9 bd 08 02 d9 bd
       0.061519887 -0.09387587 -0.09081325 -0.105960906
000070 e3 4f 01 3e 2a ba 70 bd 7b 9d 57 3d 97 a2 9b bb
       0.1262813 -0.05877129 0.05264042 -0.004749607
000080 0a 00 80 3d 03 90 60 bd 6f 3d 0e 3e 20 16 05 3e
       0.062500075 -0.05482484 0.13890623 0.12996721
000090 9b 76 b5 bc 5b 00 e4 3d 36 b1 0f 3e 6e f7 aa 3d
       -0.022151282 0.1113288 0.14032444 0.08347975
0000a0 ab da 03 3e 36 a5 fa bc 2a 0f 10 3d 42 a1 d6 bd
       0.12876384 -0.030596357 0.03517071 -0.10479976
0000b0 69 4e c3 3d 3d 71 4d 3d 0b a0 da 3c 57 4d 02 3e
       0.0953644 0.05015682 0.026687643 0.12724815
0000c0 d8 7a 96 3d 54 13 11 bd cf e8 04 bd 37 ea 0c be
       0.07347649 -0.035418823 -0.032448586 -0.13761221
0000d0 4d c6 f4 3d 50 71 0f 3e f5 a6 10 3e 9e 35 d9 3d
       0.11951885 0.14008069 0.14126189 0.1060593
0000e0 17 38 a4 bd 3b eb 01 bd 5c d2 38 bd 3f b4 82 bb
       -0.08018511 -0.031718474 -0.04512249 -0.003988772
0000f0 08 0a 46 3c d6 c9 31 3d 05 a1 7d bc bb 22 95 3d
       0.012087353 0.043405376 -0.015480285 0.07282015

base.1.weight f4 [64]
000000 c3 f9 7f 3f c4 f9 7f 3f c2 f9 7f 3f cc f9 7f 3f
       0.9999048 0.9999049 0.99990475 0.99990535
000010 ca f9 7f 3f c8 f9 7f 3f bf f9 7f 3f c4 f9 7f 3f
       0.9999052 0.9999051 0.9999046 0.9999049
000020 a4 f9 7f 3f cd f9 7f 3f d5 f9 7f 3f d8 f9 7f 3f
       0.99990296 0.9999054 0.9999059 0.99990606
000030 d1 f9 7f 3f c7 f9 7f 3f d6 f9 7f 3f cd f9 7f 3f
       0.99990565 0.99990505 0.99990594 0.9999054
000040 be f9 7f 3f be f9 7f 3f c7 f9 7f 3f c9 f9 7f 3f
       0.9999045 0.9999045 0.99990505 0.99990517
000050 c6 f9 7f 3f ca f9 7f 3f b9 f9 7f 3f ca f9 7f 3f
       0.999905 0.9999052 0.9999042 0.9999052
000060 c7 f9 7f 3f b8 f9 7f 3f cc f9 7f 3f 11 fa 7f 3f
       0.99990505 0.99990416 0.99990535 0.99990946
000070 dc f9 7f 3f c9 f9 7f 3f c9 f9 7f 3f e9 f9 7f 3f
       0.9999063 0.99990517 0.99990517 0.9999071
000080 c7 f9 7f 3f d1 f9 7f 3f c8 f9 7f 3f bb f9 7f 3f
       0.99990505 0.99990565 0.9999051 0.99990433
000090 c4 f9 7f 3f c6 f9 7f 3f c6 f9 7f 3f af f9 7f 3f
       0.9999049 0.999905 0.999905 0.9999036
0000a0 cd f9 7f 3f b2 f9 7f 3f c7 f9 7f 3f d4 f9 7f 3f
       0.9999054 0.9999038 0.99990505 0.9999058
0000b0 d9 f9 7f 3f ee f9 7f 3f c1 f9 7f 3f fb f9 7f 3f
       0.9999061 0.9999074 0.9999047 0.99990815
0000c0 e5 f9 7f 3f c0 f9 7f 3f c4 f9 7f 3f be f9 7f 3f
       0.99990684 0.99990463 0.9999049 0.9999045
0000d0 d2 f9 7f 3f ba f9 7f 3f c1 f9 7f 3f c4 f9 7f 3f
       0.9999057 0.9999043 0.9999047 0.9999049
0000e0 c7 f9 7f 3f c1 f9 7f 3f c5 f9 7f 3f da f9 7f 3f
       0.99990505 0.9999047 0.99990493 0.9999062
0000f0 c4 f9 7f 3f ae f9 7f 3f e6 f9 7f 3f c4 f9 7f 3f
       0.9999049 0.99990356 0.9999069 0.9999049

base.1.bias f4 [64]
000000 64 a6 1a 38 3b 19 78 b8 d3 ce c0 b8 c6 1a df 37
       3.6871425e-05 -5.9151305e-05 -9.1937975e-05 2.6596139e-05
000010 83 a8 9f b8 0d b5 7a 38 62 bb 9b 38 22 b9 1a b8
       -7.6130986e-05 5.977326e-05 7.425879e-05 -3.688888e-05
000020 29 51 2d b8 7c 64 a5 38 08 5e 47 b8 29 25 bd 38
       -4.1322e-05 7.88653e-05 -4.753287e-05 9.019144e-05
000030 9a 70 a9 38 40 58 c1 38 f8 e1 8a b8 36 7b a0 b8
       8.079522e-05 9.219395e-05 -6.622443e-05 -7.652344e-05
000040 78 40 41 38 d9 e6 f6 35 ea bb a2 b8 07 92 8b b8
       4.6074827e-05 1.8395614e-06 -7.759764e-05 -6.655236e-05
000050 c3 03 e4 b7 cb ed 97 38 60 49 a5 b6 c2 a0 3d 38
       -2.718147e-05 7.2445335e-05 -4.925925e-06 4.521083e-05
000060 ea c9 86 38 46 93 96 38 76 68 83 b8 bb b9 f5 37
       6.427227e-05 7.179989e-05 -6.266024e-05 2.9292763e-05
000070 5b 32 b4 38 65 67 8f b8 10 70 b5 38 33 a8 a7 38
       8.592448e-05 -6.83803e-05 8.651626e-05 7.99451e-05
000080 31 10 7a b8 82 36 93 38 3b ce 64 b8 0d e4 9b 37
       -5.9619724e-05 7.019659e-05 -5.4551503e-05 1.8583634e-05
000090 af 41 72 b8 2b 89 be b8 a8 fb 67 38 af d3 47 38
       -5.775847e-05 -9.0854555e-05 5.5309065e-05 4.7642443e-05
0000a0 79 ae 1a 37 49 5d 9b 38 4e 2e ab b7 fd f4 a5 38
       9.219738e-06 7.408352e-05 -2.040635e-05 7.913446e-05
0000b0 e1 f2 b8 b8 28 de b7 38 cd e2 4f 38 e5 aa af b8
       -8.8190434e-05 8.7675e-05 4.956387e-05 -8.376482e-05
0000c0 eb 97 59 38 00 43 c2 38 40 81 aa b8 06 db a3 b8
       5.1878316e-05 9.2631206e-05 -8.1303064e-05 -7.813242e-05
0000d0 83 c2 5f 38 90 f0 b8 b8 3f e2 9b 38 91 cc 9b 38
       5.3348496e-05 -8.818612e-05 7.4331176e-05 7.4290794e-05
0000e0 cb 29 8d b8 ce 4c a4 b8 b6 93 b1 b8 e1 47 5d b8
       -6.7311885e-05 -7.8344354e-05 -8.467531e-05 -5.275745e-05
0000f0 01 07 b4 b8 44 e2 b0 b8 58 92 32 b8 5e 74 b4 38
       -8.5843734e-05 -8.434479e-05 -4.25748e-05 8.604744e-05

base.1.running_mean f4 [64]
000000 9a df 90 3e ba 7c 1c 3f af bf 95 be 26 95 1a bf
       0.28295594 0.6112782 -0.29247805 -0.6038383
000010 ad 6c c8 be 9c 9e 8f 3e a3 45 e3 3e 4f 8b 50 3f
       -0.39145413 0.28050697 0.44389066 0.8146257
000020 aa 2c 33 be 95 08 18 3f e4 d5 7b bf 06 58 f0 be
       -0.17497507 0.59388095 -0.98373246 -0.46942157
000030 4a 9b a0 3e a8 bd 78 3f cc b0 3d bf 04 01 50 be
       0.31368476 0.9716439 -0.74097896 -0.20312887
000040 50 ac 09 3f 39 f6 0f 3e 78 13 8b 3e 50 07 1d bf
       0.53778553 0.1405877 0.2716329 -0.61339283
000050 3f 64 b8 3c dc 64 16 3f 32 e6 78 3e 8f 0d 17 bf
       0.022508739 0.5874765 0.24306563 -0.59005064
000060 cc de c6 3d 0b 7b 94 be 56 9d 81 bc 17 11 e0 be
       0.09710464 -0.29000124 -0.015822094 -0.4376304
000070 a3 8b 1f bf 35 a4 19 bf a6 2d 99 be dd 44 0f bf
       -0.62322444 -0.60016185 -0.2991764 -0.5596445
000080 37 35 09 3f 9e 52 b6 be 48 f6 47 3f 73 0e 80 3e
       0.53596824 -0.35609907 0.7811017 0.25011024
000090 af cd 17 3f a2 20 d3 3e f0 45 e5 3d c6 f8 4a bf
       0.59298223 0.41235834 0.1119498 -0.7928585
0000a0 11 10 1e 3f a1 40 97 be a4 62 ae 3e 8e fc 51 bf
       0.61743265 -0.29541495 0.34059632 -0.8202599
0000b0 b0 a7 bb bf f5 89 07 be c6 34 cf 3d ca f2 e8 be
       -1.4660549 -0.1323622 0.101174876 -0.45497733
0000c0 aa 3b ff bd d0 82 c5 3e 7c e5 7b 3f aa c5 3b bf
       -0.12462552 0.38576365 0.9839704 -0.73348486
0000d0 24 48 2a bd da 73 2f bf 6e a2 f7 3e d3 41 2b 3f
       -0.041572705 -0.6853615 0.48366112 0.66897315
0000e0 6b 2a db 3d d3 83 d1 3e ec 1d 2b 3f c6 ea f5 bd
       0.1070145 0.40920886 0.6684253 -0.1200767
0000f0 3a 7a a7 3f 4a 82 36 bf f1 6d 3c bf e1 c8 68 3f
       1.3084176 -0.71292555 -0.7360526 0.90931517

base.1.running_var f4 [64]
000000 e3 a6 9d 3c ac 8c c3 3c 84 da a2 3c 44 48 bd 3c
       0.019244617 0.023870789 0.019879587 0.023105748
000010 25 fb b2 3c 0b 5c a0 3c 6c dd a3 3c 02 ad e3 3c
       0.02184827 0.01957514 0.020003043 0.027792457
000020 40 46 b4 3c e2 b4 c1 3c a1 75 fb 3c 22 65 af 3c
       0.022006154 0.023645822 0.030695738 0.021410529
000030 20 2a 9f 3c e8 56 ea 3c d6 91 b9 3c fc 5a b7 3c
       0.019429266 0.028605893 0.022652548 0.022382252
000040 ca 91 ab 3c 6f 68 a7 3c 2d 78 a7 3c 26 0a c8 3c
       0.020943541 0.02043554 0.020443046 0.024418902
000050 4d 6d a3 3c 6d 78 ab 3c 0c 99 aa 3c 4c 80 b2 3c
       0.01994958 0.020931447 0.020824932 0.021789692
000060 03 9d 99 3c ce df ae 3c 85 05 9f 3c 7a 14 ab 3c
       0.018751627 0.021346953 0.019411812 0.020883787
000070 ab 4b cd 3c c8 97 b2 3c 0c 8e ad 3c 94 2b ae 3c
       0.025060495 0.02180089 0.021185897 0.021261014
000080 09 37 b0 3c b5 f8 a6 3c a1 7c c4 3c 3a d6 9b 3c
       0.021510618 0.020382265 0.023985209 0.01902305
000090 82 42 cf 3c 28 f0 a2 3c 38 3d a5 3c 22 00 f3 3c
       0.025300268 0.019889906 0.020170793 0.02966315
0000a0 7f 19 ac 3c 15 b4 ba 3c fb 64 9f 3c 57 f1 c5 3c
       0.021008251 0.022790948 0.01945733 0.024162931
0000b0 9d 52 3d 3d 6c 2b a2 3c 4c 8b a7 3c f5 5d c1 3c
       0.046221364 0.019796096 0.020452164 0.023604373
0000c0 a8 77 9f 3c 81 b2 b6 3c 43 a4 02 3d e7 e1 ad 3c
       0.019466236 0.022301914 0.031894933 0.021225883
0000d0 7b 1a a4 3c 60 2b d4 3c 5b 2f ad 3c 34 cf ba 3c
       0.020032158 0.025899589 0.021140745 0.02280388
0000e0 57 6b a1 3c cb e9 ae 3c d4 9c c9 3c d3 8c a1 3c
       0.019704504 0.021351716 0.024610914 0.01972047
0000f0 e4 7b 26 3d 54 86 cf 3c b1 f7 cc 3c 83 18 e7 3c
       0.040645495 0.025332607 0.025020452 0.02820993

base.3.weight f4 [64, 64, 5, 5]
000000 e0 9e c3 bc 51 2d 76 3c 31 e7 95 3c 98 f0 2c 3c
       -0.023879468 0.015025453 0.018298717 0.010555409
000010 f7 78 1b bc c6 7f 44 b9 05 ef f5 3a 01 4e 51 3c
       -0.0094892895 -0.00018739616 0.001876325 0.012774945
000020 d3 57 ba 3c e5 dc 04 bc da 91 5b 3c 2c 1a 49 3b
       0.022746956 -0.008109306 0.013401473 0.0030685766
000030 a2 f8 d5 bb 89 b4 71 3c d3 8f 22 bb cb 0e 62 3b
       -0.0065298835 0.014752516 -0.0024804964 0.003449368
000040 1c a2 95 3c fb 3e 83 3c 24 f4 c7 3c 1c 6e c5 3c
       0.018265776 0.016021242 0.024408408 0.024100356
000050 c6 cb a1 3c 68 58 8d bc 11 9e c1 bb ba 57 83 3c
       0.019750487 -0.01725407 -0.0059087356 0.016033042
000060 c0 5a be 3c 85 05 2c bc e2 28 0c bb c1 26 a3 bc
       0.023236632 -0.010499363 -0.0021386673 -0.01991594
000070 46 75 16 3c 59 a9 0b bb 70 e9 09 3c 0c 07 94 3c
       0.009183234 -0.0021310656 0.008417472 0.018069766
000080 2f d7 cc bc 38 9e a9 bc 97 1d 29 3c db 19 0e bc
       -0.025004951 -0.020705327 0.010321996 -0.008673157
000090 7b 06 c6 bc b6 28 6d 3c 2b b1 c0 3c e2 a7 5b bb
       -0.024173012 0.014475038 0.02352198 -0.0033516814
0000a0 f7 f2 14 3c f9 66 de bb e1 e5 4a bc cc 69 b7 bc
       0.00909113 -0.0067871776 -0.012383909 -0.022389315
0000b0 c1 3e aa bc 52 a0 70 3c 53 6e 3e bc c5 30 bf bb
       -0.020781877 0.014686661 -0.011622983 -0.005834671
0000c0 f0 ef b0 bc b1 c7 3a bc c8 c2 80 3b 5c b6 bc 3c
       -0.021598786 -0.011400149 0.0039294697 0.023036174
0000d0 4b 64 b5 3a 3f 98 34 bc 43 38 0c bb c7 2b 38 bc
       0.0013839094 -0.011022626 -0.002139584 -0.011240906
0000e0 c2 a1 9f 3b 71 b4 89 3c 8b 68 8d 3c f1 b3 56 3c
       0.004871578 0.016809674 0.017261764 0.013104425
0000f0 69 c5 53 3c 3a 07 a5 bb 90 57 42 bc f9 b6 62 3c
       0.012925484 -0.005036262 -0.011861697 0.013837569
000100 2b 3f 66 3c 03 dc 99 bc eb c0 be 3c aa 59 c7 3c
       0.014053146 -0.018781668 0.02328535 0.024334747
000110 c6 19 69 bc af 5e 7f 3c 4f 92 b2 bc 59 ed 34 bc
       -0.014227336 0.015586539 -0.021798281 -0.011042916
000120 18 5c 9e bc 3d 9e 1d ba bb e9 2e bc f3 2f 66 3a
       -0.019331023 -0.0006012654 -0.010675843 0.00087809487
000130 4c e7 a0 bc 32 a5 64 3c 56 18 3f 3c 14 76 3e 3c
       -0.019641541 0.013955401 0.011663517 0.011624832
000140 06 e8 8d bc e8 53 06 bb 26 00 24 3c 90 85 5f bb
       -0.017322551 -0.002049679 0.010009801 -0.003410671
000150 4a 8c f6 3b 1d ae a0 3c d5 5e 8b bc 0a 61 a3 bc
       0.007524048 0.019614274 -0.017012993 -0.019943733
000160 1a 9b 3e bb 49 18 44 bc 69 30 83 3b 0d 73 9a 3c
       -0.0029084147 -0.011968681 0.0040035737 0.018853689
000170 fa 1f 4d ba 7d a3 7a bc 40 77 ea ba b5 12 b2 bb
       -0.0007824894 -0.015297768 -0.0017888322 -0.005434359
000180 33 af dc bb 5a aa 81 bb ec e9 0d ba b0 be aa bc
       -0.0067347526 -0.003957075 -0.000541358 -0.02084288
000190 68 3a 14 bb 58 ce 8e 3c 71 13 17 3c 04 33 13 3c
       -0.002261782 0.017432377 0.009220944 0.008984331
0001a0 54 c2 15 3b 94 d2 9c bc 2e 42 9f 3c e1 17 58 3c
       0.0022851424 -0.01914338 0.019440737 0.013189287
0001b0 f3 d3 28 bb 3b 28 81 bc 44 93 74 3b 3f 10 8a 3b
       -0.0025761097 -0.015766254 0.0037319222 0.0042133625
0001c0 e9 b5 05 3c b0 58 24 3a 95 1e 15 bc 4a 7e 7b bc
       0.008161047 0.0006269319 -0.00910153 -0.015349934
0001d0 20 27 bf 3c e1 44 89 3c 30 ff ca bc 76 5b 1b bc
       0.023334086 0.016756477 -0.024779886 -0.009482255
0001e0 56 1d 48 bc bd 0b ee bb e3 9b 27 bb 22 8a 30 bb
       -0.0122140255 -0.007264583 -0.0025575093 -0.0026937802
0001f0 91 3f ce bb 88 a7 a3 3c 03 ed 69 bc e8 6d 9b 3c
       -0.006294199 0.019977346 -0.014277699 0.018973306
000200 50 40 2d 3c 65 4c 86 3a 96 4c 7c bc cf 66 2a ba
       0.010574415 0.0010246156 -0.015399119 -0.0006500305
000210 2a 80 4d bc b1 9b c6 3b 23 6e 0a 3c fa f6 91 bb
       -0.012542764 0.0060610403 0.00844911 -0.0044544907
000220 60 e5 8d 3b b2 78 9e bc 03 92 6f bb 85 50 90 3c
       0.004330322 -0.019344661 -0.0036555536 0.01761652
000230 73 4c 7a bb b8 d9 90 3c 4a 1d c4 3c 50 29 a4 3c
       -0.003819254 0.017681941 0.023939747 0.02003923
000240 82 6f 4e 3c 12 f3 b0 bc 28 74 b8 bc 45 3e 2f bc
       0.012599828 -0.02160028 -0.022516325 -0.010695999
000250 6a c2 9e 3c fa 70 5d bc 76 02 97 bc 9c 73 89 3b
       0.019379813 -0.013515705 -0.01843379 0.00419469
000260 9e 91 a9 3b cf 44 62 3c 77 35 93 3c 21 5d 8e 3b
       0.0051748296 0.013810351 0.01796983 0.004344598
000270 57 c0 c1 bc 2e ce 66 3c ac 91 83 bc b3 5b b7 bc
       -0.023651285 0.014087243 -0.016060673 -0.022382593
000280 19 7f c5 3c da e8 cb bb 3b 4e 1e 3c 92 a7 84 3c
       0.024108456 -0.0062228264 0.009662206 0.016193185
000290 40 f6 b9 3c 4f 07 28 3c 11 c2 a3 bb 2d 45 92 3c
       0.022700429 0.010255649 -0.0049974998 0.017855251
0002a0 02 49 7b bc 05 8d 99 bb 8e 84 c8 bc 95 93 b3 bc
       -0.015337231 -0.0046860003 -0.02447727 -0.021920959
0002b0 45 c7 a6 bc 6d 3a 56 3b ff 68 a4 3c 50 66 5d 3a
       -0.020358691 0.0032688633 0.020069597 0.00084457267
0002c0 6a 5b 05 bc 04 36 82 ba 44 aa 38 3c 37 74 01 ba
       -0.008139471 -0.0009934311 0.011271063 -0.0004938277
0002d0 84 7e ce 3b da 83 95 3c 44 f2 98 3c ff d8 5a bc
       0.006301703 0.018251348 0.018670209 -0.0133574
0002e0 1a 4f 48 3c 1d 99 3c bc 72 fd 9e bc 36 fa 8c bc
       0.0122258905 -0.011511114 -0.019407962 -0.017209154
0002f0 ad 40 9c 3c 1b 85 29 bc 4b 76 df 3a 3f ff b4 bc
       0.019073809 -0.010346676 0.0017048804 -0.022094367
000300 ec 2d 42 bb 49 a3 54 3b b2 d7 94 bb fa 9d ab 3c
       -0.0029629422 0.0032445958 -0.0045423144 0.020949353
000310 90 11 bc 3c 45 5a bd bc 9c 4b 1b 3c bd 63 97 bc
       0.022957593 -0.023114333 0.009478476 -0.018480176
000320 f8 80 5a ba fe 2b da 3b 11 0f b9 3c df 20 9a 3c
       -0.0008335258 0.0066580763 0.022590192 0.018814502
000330 4d be a7 3c b3 fc bb 3c f5 33 72 3c 16 b1 cb 3c
       0.020476485 0.022947645 0.014782895 0.024864715
000340 54 0a 06 bb 88 fe a1 3c 0d 75 c2 bc 40 af 00 bb
       -0.0020452933 0.01977469 -0.023737455 -0.0019635707
000350 f5 92 f3 bb ba b1 32 bc 00 ee ab 3a 1c 0b 60 3b
       -0.00743329 -0.010906631 0.0013117194 0.003418631
000360 b4 40 7b bc c4 6d 8f bb 78 b3 be 3c 4b 38 6e 3c
       -0.015335251 -0.0043770988 0.023278937 0.0145397885
000370 5e f5 d4 3b 9b 38 ae 3c 4c f7 78 bc f5 26 32 bc
       0.0064989766 0.021267226 -0.015195679 -0.010873546
000380 f5 d5 65 3c 92 bf 97 bc bc 39 cc 3b f3 c3 a4 3b
       0.014028062 -0.018523965 0.0062324684 0.005028242
000390 24 e7 ae bc 69 1d 31 3c 8e 07 6a bc 52 8c ef 3b
       -0.02135045 0.010810235 -0.014284028 0.0073104287
0003a0 42 7f 06 3c e5 e5 25 3c 1f 10 d5 bb bd 73 c2 bc
       0.008209052 0.010125612 -0.006502166 -0.023736829
0003b0 6c 16 7b 3c 55 b8 6c 3c 73 0a 7b 3c 30 6d aa 3c
       0.01532517 0.014448245 0.0153223155 0.020804018
0003c0 6e 03 5d 3c 80 b5 9e bc 0f c4 c4 bb b7 bd 8b bc
       0.013489587 -0.019373655 -0.0060048173 -0.017058237
0003d0 51 da aa 3b c5 c9 38 bc 10 3f 5d bc 73 0e 69 bc
       0.0052140136 -0.011278574 -0.013503805 -0.014224636
0003e0 1b f0 ae bc ac 30 a9 3c b2 3d 65 3c 1b c2 82 bc
       -0.021354726 0.020653091 0.01399176 -0.015961697
0003f0 26 7d 1c 3c 9a 6f 8c bc a4 30 8e 3c e7 f0 34 bc
       0.009551322 -0.01714306 0.017357178 -0.011043764

base.3.bias f4 [64]
000000 e2 ca b4 3c e0 00 84 bc bd 1e b0 ba 06 4b 8e bc
       0.022069398 -0.016113698 -0.0013436895 -0.017369758
000010 b9 eb 00 3c 23 48 d3 bb be 69 cb bb 57 30 f2 3b
       0.007868701 -0.0064478084 -0.006207674 0.0073910165
000020 e2 00 70 3c 5d 22 9d bc 0b 57 c2 3c 0c 00 ad bc
       0.014648648 -0.019181425 0.023723146 -0.021118186
000030 52 16 41 b8 ad 86 48 bc 33 06 b8 3c 04 5a eb bb
       -4.6035573e-05 -0.01223914 0.022463894 -0.0071823616
000040 2f 15 66 bc 05 25 17 bb 69 61 af 3b 7c b0 af bc
       -0.0140431365 -0.0023062837 0.0053521884 -0.021446459
000050 10 50 37 3c 46 65 9d bc a4 d1 5d 3c a2 2e 58 bc
       0.011188522 -0.01921333 0.013538752 -0.013194712
000060 0f 7a 16 bb f8 66 84 3c 58 70 58 3b c1 76 72 bc
       -0.0022960936 0.01616238 0.0033025946 -0.014798821
000070 fc 3c 42 3c b1 73 8a 3c 01 fd 0c 3c d5 4f a8 bc
       0.01185536 0.01690087 0.008605243 -0.02054588
000080 b5 7f 82 bc c8 60 1f 3c 64 12 f5 bb 03 f7 2a 3c
       -0.015930036 0.009727664 -0.007478999 0.010434869
000090 1c 87 cd bb 3f fc 81 bb 4e 35 c1 bc 4f ab aa bc
       -0.00627221 -0.0039668377 -0.023584988 -0.02083364
0000a0 fe d3 b2 bb 0e b9 b2 3b a3 6e a5 bb 6e 0a 64 bc
       -0.0054574003 0.005454189 -0.0050485893 -0.013918502
0000b0 cb c8 c9 3b 33 0b c2 3a 50 13 ca bc ed 86 81 3c
       0.0061579696 0.0014804363 -0.024667412 0.015811408
0000c0 89 b3 4f 3c 2c 78 03 bc c5 f6 5f bc 0b 8d 11 bc
       0.012677082 -0.008024257 -0.013669674 -0.008883725
0000d0 bc 66 ef ba 39 b9 0c 3c b7 36 7b 3c 34 2e 33 3c
       -0.001826487 0.008589082 0.015332869 0.010936309
0000e0 d8 f1 4e bc 43 0e 44 bc 02 fb b1 bc 9d 5f 84 3c
       -0.012630902 -0.011966291 -0.021726135 0.016158873
0000f0 e6 9d a7 3c c2 ce 87 3b 18 5b ee b7 8b cf 62 3c
       0.020461034 0.0041445205 -2.841423e-05 0.013843427

base.4.weight f4 [64]
000000 c4 f9 7f 3f b6 f9 7f 3f bb f9 7f 3f c3 f9 7f 3f
       0.9999049 0.99990404 0.99990433 0.9999048
000010 bc f9 7f 3f b4 f9 7f 3f b9 f9 7f 3f d8 f9 7f 3f
       0.9999044 0.9999039 0.9999042 0.99990606
000020 c8 f9 7f 3f d2 f9 7f 3f c5 f9 7f 3f bd f9 7f 3f
       0.9999051 0.9999057 0.99990493 0.99990445
000030 c5 f9 7f 3f c7 f9 7f 3f c4 f9 7f 3f b9 f9 7f 3f
       0.99990493 0.99990505 0.9999049 0.9999042
000040 c7 f9 7f 3f b9 f9 7f 3f bd f9 7f 3f e8 f9 7f 3f
       0.99990505 0.9999042 0.99990445 0.999907
000050 cd f9 7f 3f bd f9 7f 3f ca f9 7f 3f d6 f9 7f 3f
       0.9999054 0.99990445 0.9999052 0.99990594
000060 e4 f9 7f 3f ad f9 7f 3f cf f9 7f 3f c1 f9 7f 3f
       0.9999068 0.9999035 0.9999055 0.9999047
000070 cd f9 7f 3f de f9 7f 3f cd f9 7f 3f dc f9 7f 3f
       0.9999054 0.9999064 0.9999054 0.9999063
000080 d5 f9 7f 3f c8 f9 7f 3f b3 f9 7f 3f c6 f9 7f 3f
       0.9999059 0.9999051 0.99990386 0.999905
000090 c1 f9 7f 3f de f9 7f 3f d4 f9 7f 3f bb f9 7f 3f
       0.9999047 0.9999064 0.9999058 0.99990433
0000a0 d3 f9 7f 3f d2 f9 7f 3f bb f9 7f 3f c0 f9 7f 3f
       0.99990577 0.9999057 0.99990433 0.99990463
0000b0 e4 f9 7f 3f ab f9 7f 3f d3 f9 7f 3f c0 f9 7f 3f
       0.9999068 0.9999034 0.99990577 0.99990463
0000c0 ce f9 7f 3f db f9 7f 3f aa f9 7f 3f d4 f9 7f 3f
       0.99990547 0.99990624 0.9999033 0.9999058
0000d0 c9 f9 7f 3f c6 f9 7f 3f c3 f9 7f 3f e8 f9 7f 3f
       0.99990517 0.999905 0.9999048 0.999907
0000e0 c5 f9 7f 3f b9 f9 7f 3f c1 f9 7f 3f c8 f9 7f 3f
       0.99990493 0.9999042 0.9999047 0.9999051
0000f0 c0 f9 7f 3f e4 f9 7f 3f c4 f9 7f 3f d4 f9 7f 3f
       0.99990463 0.9999068 0.9999049 0.9999058

base.4.bias f4 [64]
000000 3d 8e e2 b7 33 0d b2 b8 4b 08 89 38 2a 79 ae b8
       -2.7007534e-05 -8.49016e-05 6.534214e-05 -8.319535e-05
000010 5f d0 0b 38 5b 34 99 38 f9 24 b8 b7 42 c0 7a b8
       3.3334243e-05 7.3053605e-05 -2.1951726e-05 -5.97837e-05
000020 23 26 86 b8 c1 2a 8c 38 f1 ed 87 38 9e e7 01 38
       -6.3967214e-05 6.683684e-05 6.481622e-05 3.0971707e-05
000030 6e d0 9b b8 79 f1 b0 38 ff b9 bc 38 f4 6f b0 38
       -7.429799e-05 8.437312e-05 8.999183e-05 8.413187e-05
000040 7e c8 b6 37 40 5f bc 38 be 6e 2c 38 a5 8d ad 38
       2.1789452e-05 8.98228e-05 4.1111132e-05 8.275666e-05
000050 a8 8c 7f 38 9d 22 99 b8 67 17 2d b8 69 ac a0 38
       6.0927734e-05 -7.302056e-05 -4.126821e-05 7.6615084e-05
000060 f0 71 79 b8 04 ab a8 b6 7a 4e 13 37 43 ef bd b8
       -5.947234e-05 -5.026699e-06 8.7801545e-06 -9.056788e-05
000070 30 81 ae b8 1b ec 83 b8 94 78 b2 b8 4d be ae 38
       -8.3210296e-05 -6.290545e-05 -8.510161e-05 8.332413e-05
000080 36 72 ad 38 33 46 59 38 2a ca aa b8 bb 63 e0 37
       8.270556e-05 5.180221e-05 -8.143888e-05 2.6749321e-05
000090 cf ef 97 b8 4c dc 64 38 77 a8 4b b5 63 41 98 38
       -7.244909e-05 5.4564603e-05 -7.586854e-07 7.260104e-05
0000a0 58 57 4f b8 d9 cd 9a b7 3a f8 ba 38 36 e5 de 37
       -4.943399e-05 -1.8454086e-05 8.915407e-05 2.6571197e-05
0000b0 2e ce 9c 38 a4 a8 bc b8 ff 43 8f b7 fa 78 a3 37
       7.4770636e-05 -8.99595e-05 -1.7078592e-05 1.9487448e-05
0000c0 28 77 9c b8 d1 7c bf 38 2d 62 94 38 f9 c0 56 b8
       -7.460854e-05 9.1308386e-05 7.0754766e-05 -5.1201296e-05
0000d0 9c 69 64 b8 b1 a4 70 b8 4a 5f b0 38 fa bb 88 b8
       -5.4457792e-05 -5.737384e-05 8.410083e-05 -6.519999e-05
0000e0 6c a7 ba 38 14 38 bb b8 d3 32 a2 38 44 fa 98 b8
       8.900356e-05 -8.9273e-05 7.734229e-05 -7.2945404e-05
0000f0 a4 f2 c3 38 22 79 c4 b8 7c 18 d1 b7 ed dd 51 b8
       9.34352e-05 -9.368571e-05 -2.4926143e-05 -5.0036168e-05

base.4.running_mean f4 [64]
000000 5c e5 1b be 38 08 9e bd 4d 5d 09 bd 6e db 04 be
       -0.15224212 -0.07716411 -0.033536244 -0.12974331
000010 5b 80 d1 bb 4f af fd 3c 1e 51 54 3b 72 74 aa bc
       -0.006393475 0.030967383 0.0032396982 -0.020807479
000020 a5 a2 4e 3d 4d f3 12 bd 8e c5 17 be d6 fb 61 bd
       0.05044808 -0.03587656 -0.14821455 -0.05517181
000030 77 e9 46 bd 10 92 09 bd 64 59 77 bd 19 fe 02 3e
       -0.048562493 -0.03358656 -0.060387984 0.12792243
000040 0d 38 ca bd 17 86 e0 bd f0 d0 36 3d d4 3f fc 3d
       -0.09873972 -0.109630756 0.044632852 0.12316862
000050 51 0c a8 3d 07 32 13 be 4d 4d f3 bd ba af 2f 3e
       0.08205474 -0.14374553 -0.11879978 0.17156878
000060 86 17 4f 3e b8 be 82 bc b6 a2 8e bc 5c ea 2c be
       0.20223817 -0.015960082 -0.017411571 -0.16886276
000070 dd 39 a6 bd f2 56 2d 3e 41 7f 55 3d b9 8c 02 3d
       -0.08116505 0.16927698 0.052123312 0.031872485
000080 18 27 e1 3d 2e 07 e4 bc ea 5f 5a bd 01 fe f8 3c
       0.10993785 -0.027835455 -0.053314127 0.030394556
000090 10 44 d3 bb 4b a0 f5 bd f5 d9 4c 3d 89 0b 51 bc
       -0.0064473227 -0.11993464 0.050012548 -0.012759098
0000a0 fa 76 b3 bd 3b 67 1b be 25 a0 91 bc 61 00 32 bc
       -0.08762927 -0.15176098 -0.017776558 -0.010864348
0000b0 8e c7 05 3d c8 58 f3 bd 2e ce 99 bd cc 8d fd 3d
       0.032661013 -0.11882168 -0.07510029 0.12380561
0000c0 6d 74 3c 3d 24 0b 2a 3d 79 e8 ad bc 74 31 34 bd
       0.04600947 0.04151453 -0.021229016 -0.043992475
0000d0 fd 4f 74 3d 4d 1f 98 3d ca fd 37 be fa 0e c2 3d
       0.059646595 0.07427845 -0.17967907 0.09475513
0000e0 b8 77 4c 3e a9 27 aa 3d fc ac 53 be c0 ca 0c 3d
       0.19967544 0.08308346 -0.20671457 0.034373045
0000f0 a8 c3 07 bd 70 9a 23 bd 97 ed bc bd 7e 1c 64 3d
       -0.033145577 -0.039942205 -0.09225004 0.055691235

base.4.running_var f4 [64]
000000 94 7c a3 3d f8 60 bb 3d e9 93 89 3d e6 5c 97 3d
       0.07982746 0.09149355 0.06717665 0.07390766
000010 67 42 98 3d af eb 47 3e 89 96 88 3d ff 91 aa 3d
       0.0743454 0.195235 0.06669337 0.08328628
000020 5c 58 a4 3d 12 22 86 3d bc c1 8f 3d e2 87 58 3d
       0.08024666 0.06549467 0.07019374 0.052863963
000030 5a 3a 71 3d 6f 5b 76 3d d4 fc 63 3e 22 13 7c 3e
       0.05889354 0.06014579 0.22264415 0.24616674
000040 23 31 6b 3d 81 94 39 3d 5c 5b 43 3d 8e de 1c 3e
       0.057419907 0.04530764 0.04769455 0.15319273
000050 8b bc a8 3d 48 dd d5 3d ac f1 e9 3d 34 6c 89 3d
       0.08239087 0.10442597 0.114230484 0.06710091
000060 23 68 8c 3e 8a 03 99 3d 0b be 46 3d da 34 05 3e
       0.274232 0.07471378 0.048521083 0.13008443
000070 79 0a 40 3d d7 a2 87 3d db 69 fe 3d 3f 8b 32 3d
       0.046884988 0.06622856 0.12422534 0.043589827
000080 63 6c bd 3d 20 1e 7a 3d 8f 21 a6 3d 34 91 ca 3d
       0.09249189 0.061063886 0.081118695 0.098909765
000090 f7 16 88 3d d8 f7 a9 3d ee e8 7f 3d 7a 94 1c 3d
       0.06645005 0.082992256 0.062478 0.038227536
0000a0 f2 da cf 3d 3a ce a3 3d 4e a6 1f 3d 3c 98 57 3d
       0.101491824 0.07998319 0.03897696 0.052635416
0000b0 ed e5 89 3d 97 ca 6e 3d 47 f0 45 3d 70 dc ba 3d
       0.06733308 0.058298673 0.04832485 0.09124076
0000c0 39 94 9a 3d d2 92 91 3d d4 0c 89 3d 15 5a be 3d
       0.075478025 0.07108082 0.066919 0.092945255
0000d0 36 4c 3c 3d d2 30 de 3d 18 e8 34 3e 93 15 eb 3d
       0.045971118 0.108491555 0.17666662 0.11478724
0000e0 24 23 39 3e f0 75 7d 3d a6 7c 72 3d 03 00 ed 3d
       0.18079811 0.061880052 0.059200905 0.11572268
0000f0 6c 16 b7 3d 67 c7 00 3e e2 69 12 3e 84 93 1e 3e
       0.089398235 0.12576066 0.14298204 0.1548596

base.6.weight f4 [32, 64, 5, 5]
000000 91 18 22 bb 01 5e b9 bc 96 8f ad bc c7 eb 3a 3c
       -0.002473388 -0.022627832 -0.021186631 0.011408753
000010 d4 68 03 bc 17 f7 6d bb de f9 51 bc 8b 79 71 bc
       -0.008020598 -0.0036310607 -0.012815921 -0.014738451
000020 4e d6 8e 3c f5 73 b4 bc 32 00 0c 3c eb 60 98 bc
       0.017436173 -0.022027949 0.008544968 -0.018600902
000030 50 8f 7a 3c 22 e5 7a bb 7a f2 04 3c da d2 98 bc
       0.015292957 -0.0038283546 0.008114452 -0.01865523
000040 bc f9 5d ba a7 7e 67 bb 1c 37 93 3c 4c 33 c7 3b
       -0.0008467694 -0.0035323293 0.017970614 0.006079113
000050 0b df 6e 3c 37 e4 b8 ba 46 5f e7 3b 35 c5 44 3b
       0.014579545 -0.0014106099 0.007060918 0.003002477
000060 04 68 b5 bc bd c0 86 3c 9f a0 93 bc 6e fd b6 3c
       -0.022144325 0.016449327 -0.018020926 0.022337642
000070 cf 81 b9 3b d1 bd 72 3c 25 2c 41 3a e4 d2 91 bc
       0.0056612263 0.014815764 0.0007368944 -0.017800756
000080 54 b8 85 3c 89 57 4e 3c 18 5b b4 3c 7c f1 a3 3c
       0.016323246 0.012594112 0.022016093 0.02001261
000090 ee ea 2e bc ea 61 22 3c 38 45 79 3c fd fe 85 3c
       -0.010676129 0.00991104 0.015214257 0.01635694
0000a0 84 9b 15 3b 81 97 c1 bc ce 19 b1 3b b2 de 34 3c
       0.002282829 -0.023631813 0.0054046875 0.011039423
0000b0 f2 d4 ed bb 18 6b 95 3c 4a a0 69 3c 73 7c 40 3c
       -0.007258051 0.018239543 0.014259407 0.011748421
0000c0 95 b2 1e 3b 8a 2e 8d 3c 39 9b 7e bc af 23 a3 3c
       0.002421533 0.017234106 -0.015539938 0.019914476
0000d0 e3 7c 2f bc 0a fb 25 3c 82 27 c0 3b 5a 39 8b bb
       -0.010710928 0.010130653 0.0058640847 -0.00424878
0000e0 57 06 75 bc a4 d5 07 bc b7 98 64 bc f3 28 8b 3c
       -0.014955125 -0.008290682 -0.013952426 0.0169873
0000f0 fe a3 7b bc e8 36 34 3c 55 bb 30 bc 5d d0 c6 bc
       -0.015358923 0.010999419 -0.010786851 -0.024269277
000100 f9 28 aa bc ef a3 60 3a 60 8b 95 3c df f3 8d 3c
       -0.02077149 0.000856935 0.018254936 0.0173282
000110 56 65 c4 bc 98 98 19 3c fa 06 c9 bc dd 5c 5d 3c
       -0.023974102 0.00937476 -0.02453946 0.01351091
000120 79 eb 24 bc 8e 3b c9 bc f6 8e a9 ba 87 a2 bf bc
       -0.010065907 -0.02456453 -0.0012936282 -0.023392929
000130 51 c2 0c 3a 02 b8 69 3c d2 d3 93 bc 9d 18 92 bc
       0.00053695316 0.014265062 -0.01804534 -0.017834002
000140 5e 6a bd 3b 25 de 6e bb aa dd 47 3c 4a 97 78 bc
       0.005780502 -0.0036448326 0.012198845 -0.015172789
000150 f8 2e 80 bc b4 bf c6 bc be e7 4f bc 2d 41 c9 bc
       -0.015647396 -0.024261333 -0.012689529 -0.024567211
000160 21 fb 33 bc f8 2e 55 bc 6d cd 80 bc 6d c3 02 3c
       -0.010985167 -0.0130116865 -0.015722955 0.007981163
000170 bf c2 bf bc 9c 47 12 3b cf 58 a3 3a e3 8b 85 3a
       -0.023408292 0.0022320515 0.001246238 0.0010188784
000180 9b d2 5b 3c 3a ec a5 3c 57 da 8b bc 72 f0 45 bc
       0.0134169115 0.020254243 -0.017071886 -0.012081252
000190 b3 7e 9d bc d8 b8 c8 3c a0 81 3c bc 89 d7 4b 3c
       -0.019225454 0.024502203 -0.011505514 0.012441524
0001a0 ed 3c 09 3c 4c f9 f9 3b d1 94 ae bc 1f 70 1d bc
       0.008376342 0.0076285955 -0.021311196 -0.009609251
0001b0 aa 44 1b bb 7f 5a eb 3b 19 66 55 bc 29 ea 08 bc
       -0.002369205 0.007182419 -0.01302483 -0.008356609
0001c0 da 9c 27 bc b7 8c 33 bc da af a7 bc fb 01 97 bb
       -0.010230267 -0.010958842 -0.020469595 -0.0046083904
0001d0 65 b6 fd 3b b9 1a d4 bb 78 3b c2 bc 13 a1 2c bc
       0.0077426904 -0.006472912 -0.023709998 -0.01053645
0001e0 b4 b6 7f bc 36 b1 54 3c 78 26 fa bb f6 aa fb 3b
       -0.015607525 0.0129817035 -0.0076339804 0.0076802922
0001f0 88 68 7a bb 14 ed 96 bb a0 74 aa bc fd ba 05 3b
       -0.0038209278 -0.0046058986 -0.020807564 0.0020405643
000200 bc 30 54 3c c5 ba 43 3b 6e 0d 38 bc 7f d4 f7 3b
       0.012951072 0.0029865962 -0.011233671 0.0075631733
000210 43 74 6b bc 4e 4b a8 3c f8 d3 91 3c 7e a6 3f 3c
       -0.014370981 0.02054372 0.01780127 0.01169741
000220 a7 01 be 3b 22 34 84 3c ba 3c b6 bc 3a b6 48 3c
       0.005798537 0.01613814 -0.022245754 0.012250477
000230 23 27 90 bc 8d 49 36 bc 9e 82 53 bb 17 42 97 3c
       -0.017596787 -0.011125934 -0.0032273899 0.018464131
000240 2a 80 a9 3c e7 01 ad bc 85 04 8c ba 2f 92 fc bb
       0.020690996 -0.021119071 -0.0010682499 -0.007707856
000250 2b f6 81 3c 56 4e b8 3a c7 d8 8b 3c e0 cd 31 bc
       0.015864452 0.0014061432 0.01707114 -0.010852307
000260 34 a0 95 3c 76 91 75 3c 86 94 bd bc 28 8d 25 bc
       0.018264867 0.014988294 -0.02314211 -0.010104455
000270 d2 eb 03 3c 2d 2f 21 bc 24 c1 9e 3c f5 8b c5 3c
       0.008051829 -0.009837908 0.019379206 0.024114588
000280 ef 5a 91 bc 9c 41 4e 3c 8d 79 e5 ba f7 9d be 3c
       -0.017743556 0.012588885 -0.0017507538 0.023268683
000290 0e dc 9d bc d4 b5 87 3b 48 a7 28 3c 30 ef 43 3c
       -0.01926997 0.0041415486 0.010293789 0.011958882
0002a0 e2 63 c8 bc e8 0d cf 3b 5c 37 5b 3c d7 55 e4 3b
       -0.02446169 0.0063187964 0.013379898 0.0069682407
0002b0 25 a7 57 3b 7b cf 9f bc ec 65 63 3c 07 23 ba 3c
       0.0032906022 -0.019508114 0.013879281 0.02272178
0002c0 1d 41 04 bc 5b 20 ce bb b1 e6 bf bc eb e1 99 bc
       -0.008072165 -0.006290478 -0.023425432 -0.018784484
0002d0 0f ef 04 3c 57 49 4d bc 09 37 25 bc 01 b0 15 3c
       0.008113637 -0.012529693 -0.010083922 0.009136201
0002e0 2f 06 1a 3c f1 e2 74 bb 9d 4b 35 b8 ec 75 28 3c
       0.009400888 -0.0037366713 -4.3224183e-05 0.010282021
0002f0 3b 65 8b 3b 82 de 97 bb b1 d4 9f 3c af e6 d1 3b
       0.004254011 -0.0046346793 0.019510599 0.0064056735
000300 5f 42 22 bc 85 22 a2 bc d1 57 85 bc 90 35 c7 3c
       -0.009903519 -0.01979185 -0.016277226 0.024317533
000310 61 f1 5c 3c 3d e0 b3 3c b3 f1 3b bc 9f 60 17 3c
       0.013485284 0.021957511 -0.0114712 0.009239345
000320 0b 0f 5e 3c 6c 61 09 3c 2a a6 b1 3c bd 6a ab 3c
       0.013553391 0.008385044 0.021685679 0.02092492
000330 e0 b4 64 3c ce 49 c9 bb 54 ca 8e bc e8 12 da bb
       0.01395914 -0.0061428314 -0.017430462 -0.006655086
000340 f6 45 b4 3c 7b aa bb 3c 1f a4 b5 bb 33 fb 83 bb
       0.022006016 0.02290844 -0.0055432464 -0.004027748
000350 85 a8 9a 3b d2 f2 f4 3b 16 b1 a3 bc 81 a9 c6 bc
       0.004719796 0.0074752355 -0.019981902 -0.024250748
000360 fc 68 81 3b bf a7 4f 3b 12 18 bd 3c 2a 2e 9c bb
       0.0039492827 0.0031685678 0.023082767 -0.0047662454
000370 3f 7e be bb f2 4f 17 bc 82 62 bb ba 41 c3 af 3b
       -0.0058133896 -0.009235369 -0.0014296325 0.0053638523
000380 c5 3a 72 bc 84 03 52 3c 83 60 93 bc 50 86 bb 3b
       -0.01478452 0.012818221 -0.017990356 0.0057227984
000390 e0 41 be 3a 9e b2 a0 3a ba 49 48 bb 07 65 6d bc
       0.0014515482 0.0012260263 -0.0030561523 -0.014489419
0003a0 1d de 96 bc f9 15 a7 bb 22 6f a2 3c 87 83 b3 3c
       -0.018416459 -0.005099055 0.019828383 0.021913303
0003b0 81 bd c6 3b c4 3d b9 3c 18 fa 0f 3c a9 88 ba 3c
       0.006065071 0.02261246 0.008787654 0.022770243
0003c0 ca 2c 03 3c 43 1d 03 3c bf 48 24 3b 7c 8a a8 3c
       0.008006284 0.008002582 0.0025067774 0.020573847
0003d0 6b 9f aa 3c 24 f3 c0 3a 31 2b 08 ba a2 ba c8 bc
       0.02082797 0.0014720899 -0.00051944243 -0.024503056
0003e0 d9 f4 45 bb 74 18 76 bc 53 b6 00 3b 54 14 e8 bb
       -0.0030205755 -0.0150204785 0.0019639924 -0.0070825014
0003f0 05 9f b2 3c 80 11 31 bc 41 5a 93 3c 1f 4a 04 3c
       0.021804342 -0.010807395 0.017987372 0.0080743125

base.6.bias f4 [32]
000000 df 8b 31 3c 74 f7 ca 3c 04 d1 a8 3c fe c5 1f bc
       0.0108365705 0.024776198 0.020607479 -0.009751795
000010 b0 88 b8 bc 84 2d 46 3c 9d 6f b6 3c 9c a3 81 bc
       -0.022526115 0.012095813 0.022270018 -0.015825085
000020 ef 95 80 bc 7d d6 d2 b9 c9 3b be 3c 2b ed e0 bb
       -0.015696494 -0.00040214128 0.023221867 -0.00686421
000030 0d 45 a3 bc 5a 06 1e 3c 7c 45 50 bc a4 69 22 3c
       -0.019930387 0.009645069 -0.012711879 0.009912882
000040 ed 70 83 bc ee 46 35 3c 29 f0 77 3c 9f 02 c1 3b
       -0.016045058 0.011064274 0.015132942 0.005890205
000050 a9 b3 9c bc d0 49 b1 39 b8 41 07 3b ba 4d 54 bb
       -0.019128637 0.00033815065 0.0020638537 -0.0032394961
000060 5b 1f 7f 3c ae 00 84 bc 16 62 af 3c a2 95 94 3c
       0.015571441 -0.016113605 0.021409076 0.018137757
000070 eb 81 dc 3b df 3d 06 3c d7 53 01 3c 56 c0 c0 bc
       0.0067293546 0.008193462 0.007893524 -0.023529213

base.7.weight f4 [32]
000000 ba f9 7f 3f ec f9 7f 3f c9 f9 7f 3f b3 f9 7f 3f
       0.9999043 0.99990726 0.99990517 0.99990386
000010 c0 f9 7f 3f b8 f9 7f 3f b4 f9 7f 3f cd f9 7f 3f
       0.99990463 0.99990416 0.9999039 0.9999054
000020 d0 f9 7f 3f cb f9 7f 3f c9 f9 7f 3f d1 f9 7f 3f
       0.9999056 0.9999053 0.99990517 0.99990565
000030 ce f9 7f 3f d0 f9 7f 3f d6 f9 7f 3f da f9 7f 3f
       0.99990547 0.9999056 0.99990594 0.9999062
000040 bd f9 7f 3f c0 f9 7f 3f c8 f9 7f 3f ed f9 7f 3f
       0.99990445 0.99990463 0.9999051 0.9999073
000050 cc f9 7f 3f bd f9 7f 3f c1 f9 7f 3f e3 f9 7f 3f
       0.99990535 0.99990445 0.9999047 0.9999067
000060 c7 f9 7f 3f bc f9 7f 3f cc f9 7f 3f c4 f9 7f 3f
       0.99990505 0.9999044 0.99990535 0.9999049
000070 c0 f9 7f 3f c8 f9 7f 3f b1 f9 7f 3f cd f9 7f 3f
       0.99990463 0.9999051 0.99990374 0.9999054

base.7.bias f4 [32]
000000 17 05 c6 b8 c9 bc 81 37 45 95 c9 b8 95 2d 62 35
       -9.442324e-05 1.5465908e-05 -9.6122305e-05 8.425789e-07
000010 07 f9 78 38 c8 3b 39 37 40 0c bf b7 28 c8 b8 b8
       5.9359732e-05 1.1040778e-05 -2.2774679e-05 -8.811086e-05
000020 79 dd 28 37 0a 1c a9 b8 30 6b c0 38 73 92 c5 38
       1.0065146e-05 -8.063771e-05 9.175239e-05 9.42097e-05
000030 9b b6 b5 b8 e6 ff 19 b8 6d d2 45 b8 be 1d 8b b8
       -8.6647655e-05 -3.6716367e-05 -4.7164434e-05 -6.6335764e-05
000040 b6 b7 8d 38 77 d3 21 38 af 95 af 38 e9 0c af 38
       6.757623e-05 3.8582333e-05 8.372531e-05 8.347055e-05
000050 a0 52 a7 b8 2f 63 9b b8 7a 78 8c b8 b3 06 0d b8
       -7.978571e-05 -7.40945e-05 -6.698161e-05 -3.362326e-05
000060 e3 6f c4 38 ad f0 c5 b8 30 2c b0 b8 bb 4d 83 b6
       9.366849e-05 -9.4385214e-05 -8.4005645e-05 -3.9131533e-06
000070 e8 b9 b6 b8 d9 0f 97 38 b2 dc 42 b8 c2 60 fc b7
       -8.713064e-05 7.203193e-05 -4.6458743e-05 -3.0085797e-05

base.7.running_mean f4 [32]
000000 43 e6 08 3d ad bc bc 3d 53 0f 15 3e 76 cc ea 3d
       0.03342272 0.092156745 0.14556627 0.11464779
000010 70 3f 62 bd 5e aa 90 3e 09 d7 01 3e 12 e4 40 3e
       -0.05523628 0.2825498 0.12679686 0.18837002
000020 25 0e 25 be 57 dd 1c 3c a7 f9 82 bd a8 fc 5c bc
       -0.16118677 0.009574256 -0.06395274 -0.013487972
000030 0f 1f b0 3c 41 53 01 bc b7 08 a8 3d a6 10 65 3e
       0.021499185 -0.007893384 0.08204787 0.22369632
000040 67 1b 11 3d 9c 83 06 3e 1a a4 99 bd 20 14 6d 3e
       0.035426524 0.13136142 -0.07502003 0.23152208
000050 29 21 19 be 37 93 e9 3c 88 7b df bd 51 96 f0 3d
       -0.14954056 0.02851258 -0.109122336 0.117474206
000060 7e ed 8a be 9d cb 2e bd df ae b8 be ed 23 b5 3c
       -0.27134317 -0.04267465 -0.36070916 0.022111857
000070 62 6f 4b be a6 da 36 3e 59 54 22 3e 1b 72 47 be
       -0.19866708 0.17856845 0.15852489 -0.19477122

base.7.running_var f4 [32]
000000 c3 6f fe 3d 1a 79 c8 3d 95 6a 85 3d d1 41 0e 3e
       0.124236606 0.09788723 0.065144695 0.13892294
000010 d6 39 e4 3d 4b 6d 1c 3e 97 04 13 3e 26 b5 bb 3d
       0.11143844 0.15276067 0.1435722 0.09165411
000020 4a 62 9e 3d 21 73 d9 3d b8 42 c8 3d 46 24 1b 3e
       0.07733591 0.10617662 0.097783506 0.15150556
000030 af dd ae 3d 35 78 c8 3d 99 dc b7 3d 5f d1 cf 3d
       0.085383765 0.09788553 0.089776225 0.10147356
000040 7b 6e 34 3e a2 98 b6 3d d5 65 14 3e 05 95 da 3d
       0.1762027 0.08915831 0.14491971 0.106729545
000050 e4 b8 83 3e 79 9e 25 3e 61 15 02 3e 81 21 eb 3d
       0.25726998 0.16173734 0.12703468 0.11481
000060 cf 7a 6c 3e 3d 64 aa 3d 9c 6e 63 3e 8b 6a be 3d
       0.23093723 0.083199 0.22210163 0.09297665
000070 3d c7 ad 3d 2d 90 a0 3d 91 f9 05 3e f8 7a da 3d
       0.08485267 0.07839999 0.13083483 0.10667986
