models/AC-RM-2 Q_LR=0.001 P_LR=5e-06 BATCH_SIZE=128 GAMMA=0.99 MEMORY_SIZE=150000_policy_3539.pt (torch, 319744 bytes, 22 tensors)

base.0.weight f4 [32, 2, 5, 5]
00000000: 9265 003e c26b f6bd 5b68 99bc aff4 e83d
00000010: 3c6e b73d a63f cc3d 6c30 053d 7885 c63d
00000020: 574f a9bc da81 e9bd 4c9e 863d 6113 133d
00000030: 9906 6ebd f187 9cbd f17e 31bd dced 81bd
00000040: 8c25 96bd 3c6f d93d 7836 113d f6ac dcbc
00000050: 9526 d03d 4a1d c2bd e08f 9fbc 5ae8 b43d
00000060: 6ef6 2c3d 1e5e ae3d 8e89 6d3c f66c 10bd
00000070: 10f2 f8bc 713e d63d bca4 f43b 5161 5b3c
00000080: d5d7 703d 8f35 ccbd 5f5f f03d c092 a4b9
00000090: b9d0 643d fc97 a13d 7952 1dbd d73c 35bd
000000a0: cbaf e63d a0d5 053e b6e9 00bd 1117 f73d
000000b0: e9e7 7fbd 5aa8 b53c 6dcf e4bd 5393 8b3d
000000c0: 1469 743d 23b7 6dbd fedf b83d a5d8 02bd
000000d0: e180 0f3c a3d9 023e 969a 49bc 9ffd dbbb
000000e0: 4673 8a3c 333b d7bd 2698 053d 90e9 95bc
000000f0: 715b 9d3d bc7d a13c 6ad0 6fbd 75a8 973d
00000100: b93f 323d 1046 a63d d82b f9bd fb4a 0abe
00000110: 7a59 f43d 7dc3 74bd c7f7 fb3d f998 563d
00000120: 9577 e83d 0f4f 903c de21 e43d f776 b83b
00000130: 18ec 92bd f9d4 b9bd 1aad d4bd 6cf9 0cbc
00000140: 04e6 e43d 1a40 093e 67d4 b63d 2744 ad3d
00000150: fd0c 5fbc 9966 553d f265 dd3d 3582 0abd
00000160: cdc1 b63d 9944 6b3d 1616 c9bd 3169 6abd
00000170: e04e 393c 995b 11be 3546 9c3d 3bc4 ccbd
00000180: 1276 873d 25bf 6fbd a781 80bd 812a 463c
00000190: 5d90 a3bc 63df c6bd 09f2 04bd 0dea f1bc
000001a0: 641c 203b efba f73d dd1b f9bd a899 053d
000001b0: 55bb da3c 551a b13b 803f d33d 941e cbbd
000001c0: 2871 02be 8336 7e3d e6a9 93bd e3c7 d539
000001d0: 189b dcbd 5d66 d4bd dc4a a03c 5c02 30bd
000001e0: 61be bf3d 5eb6 fbbd a77d 2dbd 6922 10bc
000001f0: f149 b3bd 8be0 533d 7aa5 653d 639e c83c
00000200: ac05 28bd 0bab 0dbe e9fe 4b3d 27be fdbd
00000210: f4b9 9d3d 0e89 393d 6ad6 823d 8782 fdbd
00000220: b302 0dbe a43c 53bc 12e8 e83c a594 e1bd
00000230: f194 98bc eab1 4b3c cbca c93d 21b2 b73d
00000240: 8fc7 4ebd 9f95 aebc ef4d 10be f27e 4b3b
00000250: 06e3 153e c530 083e 39b1 88bd 79f5 e2bd
00000260: dc20 5bbd 9a4a 4abd 76f6 e1bd 1b9b 01be
00000270: 1e11 dbbc ece1 9dbc 77a3 8cbc 0cf2 fa3d
00000280: 6a97 123c 4cca b3bd a229 19bd 9836 c43d
00000290: 9408 ec3d 7625 01ba 68e1 833d 6624 be3d
000002a0: 3e7b a4bd 49dc 01be 6edf f73d 8a2b 98bc
000002b0: f705 713d c4d7 fe3d a31e de3d 46bb f5bd
000002c0: fb51 6c3d 1f3e bbbd c0f2 ee3d b0e4 c33c
000002d0: 27b5 96bd 6f78 e13c 550b 9c3d 84b4 08be
000002e0: 8cd7 10be 3c6e 28bb 5576 fb3d 21d6 dcbd
000002f0: e1bb cd3c 5cf1 623d 8d2f a13d 0e59 b63d
00000300: b822 b23b a8d3 f53d e0d9 01bd 7ecf 023e
00000310: 7eb1 06be 4873 283d a197 babc b292 49bd
00000320: f37e 043e f923 debd 011e 8a3d 3d7b 98bb
00000330: bad4 debc d7f1 c63c fd66 00be 1913 8ebd
00000340: 1cc0 6c3d fc4b 753d 3b4a aebc 5e30 99bd
00000350: bd10 7cbd c184 e4bc 2d4c 03be 12d1 a83d
00000360: f095 343c b4b7 b4bc a8de e2bd 7b4d 2c3d
00000370: 738b 093e cb29 8abd 9c00 223d dbdf 7d3d
00000380: 2b9a e7bc 5d01 e8bd ee1c c43d 067e afbd
00000390: cf98 8f3d 337b d8bd 49ac 0c3d 47fb 0abe
000003a0: b264 8bbd 824e 42bd 2586 a3bd b4c7 863c
000003b0: d518 89bd 49ea b63d 8958 3fbd 7ce6 c43d
000003c0: 8b14 08be cb32 46bd eb05 eabd df75 8d3d
000003d0: 6b8e f73d a873 003e d62a a13d 8e24 bd3d
000003e0: f0e2 a43d 6667 e73c de08 c53d a70f 813d
000003f0: e8d8 993c 0087 703d 2550 0f3c dbbc 063e
0.12538746 -0.12032272 -0.018726518 0.11374795 0.089565724 0.099730775 0.03251688 0.09693426
-0.020667715 -0.1140172 0.065731615 0.035907153 -0.05811176 -0.07643116 -0.04333395 -0.06344196
-0.0733138 0.106169194 0.035452336 -0.026937943 0.10163609 -0.09478243 -0.019477785 0.0883338
0.0422272 0.08514045 0.014498128 -0.035260163 -0.030388862 0.104611285 0.007465927 0.013389901
0.058799583 -0.09971153 0.117369406 -0.00031389855 0.055863116 0.07890317 -0.03840873 -0.044247475
0.112639986 0.13069773 -0.031472884 0.120649464 -0.062477026 0.022175003 -0.11172376 0.06815209
0.059670523 -0.05803598 0.09027098 -0.03194489 0.0087587545 0.12778334 -0.012304923 -0.0067135836
0.01690067 -0.10509338 0.032615803 -0.018299848 0.07683457 0.019713275 -0.05854837 0.074051775
0.043517802 0.08118832 -0.12166566 -0.13505165 0.11931129 -0.059756745 0.12303119 0.05239198
0.113509335 0.017615823 0.11139272 0.005629416 -0.071739376 -0.090738244 -0.10384579 -0.008604389
0.111766845 0.13403359 0.08927231 0.08460265 -0.0136139365 0.052099798 0.1081046 -0.03381558
0.08923683 0.057438467 -0.09818666 -0.057229225 0.011310309 -0.14195098 0.076305784 -0.099983655
0.06614317 -0.0585319 -0.06274729 0.012095095 -0.019966299 -0.097105764 -0.032457385 -0.02953055
0.0024430985 0.12096202 -0.121635176 0.03261724 0.026700655 0.0054047504 0.10314846 -0.09917942
-0.12738478 0.062063705 -0.0721014 0.00040775453 -0.10771769 -0.10371087 0.019566946 -0.042971
0.09362484 -0.12290643 -0.04235616 -0.0087972665 -0.087543376 0.051727813 0.056066014 0.024489587
-0.041021034 -0.13834779 0.04980365 -0.12389784 0.07701483 0.04529672 0.063885525 -0.12378412
-0.13770561 -0.012892876 0.028430972 -0.1101468 -0.018625708 0.012432555 0.09853133 0.08969522
-0.050483283 -0.02131158 -0.1409223 0.0031051007 0.14637384 0.13299854 -0.066744275 -0.110819764
-0.053498134 -0.04938755 -0.11033337 -0.12656824 -0.02674156 -0.019272767 -0.01716779 0.12253198
0.008947233 -0.087788194 -0.03739322 0.095807254 0.11525074 -0.00049265416 0.06439477 0.09284286
-0.08031319 -0.12681688 0.12103163 -0.018575449 0.05884358 0.12443498 0.10845687 -0.1199861
0.05769537 -0.09142708 0.11667395 0.023912758 -0.07358771 0.027523248 0.07619349 -0.13350111
-0.14144725 -0.002570047 0.122784294 -0.10783029 0.025114002 0.05540596 0.07870398 0.089037046
0.0054362677 0.12003261 -0.031701922 0.12774464 -0.13153645 0.041125566 -0.02277738 -0.049212165
0.12939052 -0.10846705 0.06744004 -0.004653363 -0.027201045 0.02428524 -0.12539287 -0.06937236
0.057800397 0.059886917 -0.02127563 -0.074799284 -0.0615394 -0.027895333 -0.12822028 0.08243002
0.011022076 -0.022060253 -0.110776246 0.04206608 0.13432102 -0.067462526 0.039551362 0.061981063
-0.028271755 -0.11328385 0.095758304 -0.08568959 0.07011568 -0.105703734 0.03434399 -0.13572417
-0.068063155 -0.047438152 -0.079845704 0.016452648 -0.066941895 0.08931405 -0.046715293 0.09614274
-0.13289087 -0.048388284 -0.1142691 0.06907248 0.12087711 0.1254412 0.078694984 0.09235488
0.080510974 0.028247546 0.09620832 0.063018136 0.018780187 0.058722496 0.008747135 0.1315798

base.0.bias f4 [32]
00000000: 1645 deb9 fcb9 5739 2f9a c239 3d15 d539
00000010: ec7b 56b9 0b00 e2b8 23fa 5f39 4727 423a
00000020: 5057 03b9 f934 093a 342e e2b8 f895 ef38
00000030: ddc0 eeb9 9d64 0bb9 99fc 14b9 4c27 9b39
00000040: 4cc1 113a a841 a338 fd76 3f38 6fac 083a
00000050: 5058 f538 e658 1b36 8864 10b9 a422 b9b9
00000060: d50c 0639 f0a4 27ba 2e1b 8d38 ae4e 0a39
00000070: 5951 20b6 83d4 70b9 c1e6 7db7 0ef4 2239
-0.00042394613 0.00020573282 0.0003711744 0.0004064235 -0.00020454795 -0.00010776528 0.0002136012 0.00074063655
-0.0001252566 0.0005234029 -0.00010785126 0.00011424342 -0.00045538592 -0.00013293554 -0.0001420848 0.00029593182
0.00055601145 7.784675e-05 4.5648765e-05 0.0005213683 0.0001169896 2.3148546e-06 -0.00013770361 -0.0003531176
0.00012784016 -0.0006395122 6.7284665e-05 0.00013190016 -2.3889208e-06 -0.0002296735 -1.5133702e-05 0.00015540441

base.1.weight f4 [32]
00000000: 57b0 7f3f 9cc2 7f3f e044 7f3f 7a9b 803f
00000010: 5376 7e3f c1da 813f b358 803f 2f54 7f3f
00000020: b63b 7d3f ca5a 7f3f bfa1 803f 1908 7f3f
00000030: dac7 7d3f ebbb 803f 5e00 7f3f f308 7d3f
00000040: 59cb 7e3f 89ed 7f3f 4d99 803f c76d 813f
00000050: d414 7f3f 64ad 7d3f f2c4 7e3f c3cf 7e3f
00000060: 9183 803f 6138 803f 94f3 7c3f 003e 803f
00000070: c0de 7e3f 90c6 823f 3ce2 7f3f 6791 7c3f
0.9987845 0.99906325 0.9971447 1.0047448 0.993993 1.0144883 1.0027069 0.9973783
0.98919237 0.9974791 1.0049361 0.9962173 0.99133074 1.0057348 0.99609935 0.9884178
0.99529034 0.99971825 1.0046784 1.0111626 0.99641156 0.990927 0.99519265 0.9953577
1.0040151 1.0017205 0.9880917 1.0018921 0.9955864 1.0216846 0.9995458 0.98659366

base.1.bias f4 [32]
00000000: 1196 ef3a 0e31 463a 9e35 d9ba badd 043c
00000010: 3437 a53b aab2 943b 6836 513b 57ff 013b
00000020: 7d1a 44bb 70fb 76b9 929e 6eb8 eaa3 27bb
00000030: eba8 0bbb fcad 6c3b 3cca 843b 11c2 a4bb
00000040: e558 e439 efdb a63b 0367 603b 3d83 1c3c
00000050: b220 81ba 4006 47bb 390c 5cba 3b8e 40bb
00000060: 1d01 123b 1205 b03a 1823 d5bb 3185 f6b8
00000070: dedd 403b f364 e63b df41 a4ba 6cc3 03bc
0.0018278976 0.00075604103 -0.0016571765 0.008109504 0.005041981 0.0045379 0.0031923298 0.0019836032
-0.0029923015 -0.00023554056 -5.6891302e-05 -0.0025579878 -0.00213104 0.0036114445 0.0040524285 -0.0050280173
0.0004355378 0.005092136 0.0034241087 0.009552774 -0.0009851663 -0.0030368716 -0.00083941553 -0.002938165
0.0022278496 0.0013429245 -0.0065044276 -0.00011755003 0.0029429118 0.007031077 -0.0012531838 -0.008042198

base.1.running_mean f4 [32]
00000000: 5015 523f 944a 1a3f cbf2 2bbf 2ece 1b3d
00000010: d3a5 57be 84ae de3c faac 563e da2e 7cbe
00000020: 5488 83be e6c2 ab3e 09c2 293e bae9 f73d
00000030: 5acc 603e d56d c43d 0253 d73e 5c92 473f
00000040: ff36 c03c 3366 673f 9cd7 653e 731f 0f3e
00000050: 2ea7 16be 75a7 953e d923 c1be d474 96bd
00000060: fc26 0abe 3ea5 e7be 329c 58be da13 8ebe
00000070: 344d 08bf 12b4 143e 5493 3f3f 27de 06bf
0.8206377 0.6027005 -0.6716735 0.038038425 -0.2105935 0.027182825 0.20964423 -0.24627247
-0.25689948 0.33547133 0.16577925 0.12105127 0.21952954 0.09591261 0.42055517 0.779577
0.023463724 0.9039032 0.2244553 0.1397684 -0.14712211 0.29229322 -0.37722662 -0.07346502
-0.13491434 -0.45243257 -0.21153334 -0.2774952 -0.532428 0.14521816 0.7483418 -0.5268273

base.1.running_var f4 [32]
00000000: 6f17 ed3b 157b 893b 6152 be3b 66ca 253b
00000010: 9099 0a3b f4ff 8d39 f117 d63a 1e76 7a3b
00000020: 0c72 2f3b 360f ab3a 90a2 5b3a 1cd4 7c3a
00000030: b300 b83a 3f5c fe3a 6947 213b be0e 103c
00000040: 18c2 163a 2652 013c 2790 893a 0819 063a
00000050: 34fc 3e3a 631b 223b 7363 803b efcc 713a
00000060: b43a 013b d172 523b e439 973a d1bd 463b
00000070: f76e b63b 792b 913a 896a 073c 5250 363b
0.0072354595 0.0041955807 0.00580816 0.002529764 0.002114866 0.00027084316 0.0016334039 0.0038217376
0.0026770858 0.0013050798 0.0008378411 0.0009644644 0.0014038294 0.0019406154 0.0024609214 0.008792577
0.0005750968 0.007893121 0.0010495231 0.0005115424 0.0007285506 0.0024735562 0.0039181053 0.0009223958
0.0019718828 0.0032111893 0.0011537638 0.0030325542 0.0055674273 0.0011075578 0.008265146 0.002781887

base.3.weight f4 [32, 32, 5, 5]
00000000: d2b8 6b3c ac36 273b c6b2 7739 ba05 5ebc
00000010: 4201 083d a668 063d 0300 f0bc 9826 473c
00000020: 43cf 633b 0fd1 183d a82d a7bc d774 c0bc
00000030: b918 debb 3740 92bc b2fd b8bc fd8c 1ebc
00000040: 4ecd a7ba 35fa a93b 4aca ddbc 526f 3fbc
00000050: 60d0 0dbc 7fd5 ad3c 9270 073d 87eb 553c
00000060: 2951 173d 9566 b13c eec1 693b 1e3e c93c
00000070: be6c f03c 86ae ea3b f93e 133d d71c 123c
00000080: 7c36 cebb 716b 0fbd 0f7b cfbc 8cf9 d83c
00000090: 6182 07bc abdb 63bc a842 d53b 0b31 d53c
000000a0: 32fe 50bc 65ea 8d3b b6a1 91bc 8188 423c
000000b0: 83ac c93c 5eb4 92bc a188 173c f065 9bbc
000000c0: 8bae 113d 1d6e e13c 6b2f a9bc 5f33 0ebd
000000d0: 2e30 a23c 62af a93c 1c6d e93b ba14 a2bb
000000e0: 89ba e83c 55e9 fb3c 2798 bb3c d57a d73c
000000f0: e7e9 0bbd 080f 3bbc 9c72 8cbc 5970 b13c
00000100: 1f99 203c 94b6 8bbc 1331 b0bc 0e02 6dbc
00000110: 76f1 b5bc c6ff 52bc e721 903c 476b d1ba
00000120: 77a6 f83b 28c0 fabb 0f9b fa3c c5dc c53c
00000130: fe09 6ebb 6a46 9fbc a2ab 27bc 8333 223c
00000140: b90a 913c b952 dc3c 2d9d ecbc 9c7d 60bc
00000150: db84 db3c b60c e83b 29bc dc3c 272d 8f3c
00000160: de4f 2c3c b89e 18bc 2a91 ee3c bcfe a0bb
00000170: 76f7 d13c 981f 7bbc c2ad b7bc b536 4abc
00000180: 8f32 913c 0f27 043d 3c65 463a 0849 f33b
00000190: 84d8 cfbc 3a39 cdba 2788 1abc 8182 a4bc
000001a0: 2858 e63c 97a6 1fbc b595 193c f362 00bd
000001b0: a15c 8dbc 97dc 7e3c aa0b 1bbc 08fd 103d
000001c0: 9839 c5bc ec7e dcbc 0a39 83bc 9b9d c0bb
000001d0: 7d23 b23b 981d ab3c 518b 7d3c 760b 16bc
000001e0: 439c 273c c525 ab3c 44c1 93bc 9726 11bd
000001f0: b37b c43c b8f8 83ba a485 1d3b a47b 023d
00000200: 259b c83c a137 a63c 4390 2c3d f270 8dbc
00000210: 52f7 b5bb 290f afbc d378 02bc 0865 043c
00000220: 1b74 073d 6927 edbb 3ed4 1c3c 0ecc 4ebc
00000230: 9ab6 b6bc 8827 f93c c639 0c3d 1081 7dbc
00000240: 5d5f ee3c 5538 093d a837 4a3c 6e84 c33b
00000250: 6fcc 073d a291 d33c 19de be3c 7f85 063d
00000260: 629a dcbc 2298 733b c7ef 76bc 1690 4fbc
00000270: ee82 ad3c 5c1d b73c 3564 163c 16c3 65bc
00000280: 3a1b 2abc 45fe 27bd a820 ba3a d714 243d
00000290: e123 82bc c546 ccbc 49d6 2ebc 0b7e c2bc
000002a0: 9368 403c c36a 9f3c b378 63bc 49f8 29bc
000002b0: d256 02bd e12d 283b d999 dc3c 2fa0 afbc
000002c0: 7d69 7fbb 5eb2 01bd d6c8 573c 6a7b a9bb
000002d0: ba7c 6a3c e2e7 a739 3033 31bc a0ff 43bc
000002e0: 4b49 8a3c c5b8 0e3c c53c bfbc 7c09 29bc
000002f0: b04f 01bd e031 b7bc 1d33 1b3d 0891 aa3a
00000300: 7e98 8d3c ce5a c83c b95a 9c3c a75a dbbc
00000310: 49b4 80bb d255 f23c 83a6 79bc 3e91 6d3c
00000320: dacd 74bc dff0 63bc 48ad cebc 5a7f 83bc
00000330: 79f8 143c 41dd 283c 22b6 b0bc 59c7 e53c
00000340: d513 07bd 8c1e be3c 3ff0 023d c337 253d
00000350: 11d3 983c 288e d03b 1806 e13c d26f 16bc
00000360: 7b6c d33c d618 6c3c c1f7 c43c 82d1 bb3b
00000370: 3482 56bb d65a 873c daa8 a73c d137 003d
00000380: e477 c9bc b230 823c 05c7 cd3c 15d5 a7bc
00000390: c33f b6bb b368 9cbc 8c3a 853b fb9f 10bd
000003a0: bd56 bcbc 875a ebbc 0ce9 aabc 7830 00bd
000003b0: 57bc d13b 2c0d a2bc 16ca 8b3c ef34 32bc
000003c0: 431f e3bc 5006 b8bc d3b3 aebc 82d9 683c
000003d0: cae8 793c 980f 5b3b f782 6d3b a9bc 1f3d
000003e0: 8257 e7bb cfdc a4bc ecae cc3c 82a2 3f3c
000003f0: 09e8 87ba 31cb 8bbc fbbe 89bc bf0f 12ba
0.014387326 0.0025514765 0.00023622354 -0.01355117 0.033204325 0.032814644 -0.02929688 0.012155198
0.0034760989 0.03730875 -0.020407513 -0.023493214 -0.0067778495 -0.017852886 -0.022581909 -0.009677169
-0.0012802274 0.0051872977 -0.027073998 -0.011684256 -0.0086556375 0.021219967 0.03306634 0.013056642
0.036942635 0.02165536 0.003566857 0.024565753 0.029348727 0.007161918 0.035948727 0.008918009
-0.006293116 -0.035014573 -0.025327234 0.02648618 -0.008270831 -0.013907353 0.00650819 0.026024362
-0.012755917 0.0043309205 -0.017777305 0.011873365 0.024618393 -0.017908271 0.009248883 -0.018969506
0.035566848 0.027518326 -0.020652493 -0.03471696 0.019798364 0.020713512 0.0071236026 -0.0049463185
0.02840926 0.03075091 0.0228997 0.026303688 -0.034158614 -0.011417158 -0.017144494 0.021660017
0.009802132 -0.017054833 -0.021507775 -0.014465822 -0.022209864 -0.012878364 0.01759429 -0.0015977406
0.0075882035 -0.0076523013 0.030591516 0.024153123 -0.0036321874 -0.019442756 -0.010233792 0.009899977
0.017705308 0.026894914 -0.028883541 -0.013701823 0.026796749 0.0070815934 0.02694519 0.017477585
0.010517089 -0.009315185 0.029121954 -0.004913179 0.025630694 -0.015327357 -0.022421721 -0.012342145
0.017724304 0.03226381 0.00075681857 0.0074244775 -0.025371797 -0.0015657314 -0.009431875 -0.02008176
0.028118208 -0.009744308 0.009374072 -0.031344365 -0.017256083 0.015555522 -0.00946323 0.03539756
-0.024075314 -0.02691599 -0.01601841 -0.005878163 0.0054363594 0.020888135 0.01547511 -0.009158006
0.010230127 0.020892033 -0.018036492 -0.035437193 0.023984766 -0.0010068631 0.0024035955 0.031856194
0.024488041 0.020290198 0.042129766 -0.01726577 -0.0055531645 -0.021369534 -0.007963377 0.008080728
0.03306971 -0.007237364 0.009572087 -0.012621893 -0.022303868 0.030414358 0.034234785 -0.015472665
0.029098207 0.033500988 0.012342371 0.0059667146 0.033153947 0.02582628 0.023299264 0.032842156
-0.026929084 0.0037169536 -0.015071816 -0.01266863 0.021180596 0.022352867 0.009179165 -0.014023563
-0.010382468 -0.041013975 0.0014200406 0.040058937 -0.015886249 -0.02493609 -0.010671207 -0.023741743
0.011743682 0.019460088 -0.013883757 -0.010374137 -0.03182108 0.0025662112 0.026928829 -0.021438686
-0.0038972788 -0.031664245 0.013170442 -0.005172183 0.014311964 0.00032025488 -0.010815427 -0.011962801
0.016880652 0.008711045 -0.023344407 -0.010317203 -0.031570137 -0.02236265 0.037890542 0.0013013193
0.017284628 0.024457362 0.019086229 -0.026776625 -0.0039277417 0.029581938 -0.015237453 0.0144999605
-0.014941657 -0.013912409 -0.025229111 -0.016051937 0.009092444 0.010306657 -0.021571223 0.028049158
-0.032977898 0.023207925 0.031967398 0.04033638 0.018655332 0.0063646026 0.027468726 -0.0091819335
0.025808563 0.014410218 0.02404392 0.0057317624 -0.0032731416 0.016522806 0.020466257 0.03130323
-0.024593301 0.01589236 0.025119314 -0.020487348 -0.0055618 -0.019092893 0.004065817 -0.03530882
-0.022990579 -0.02872969 -0.020863079 -0.031296223 0.0064006257 -0.019781671 0.017064136 -0.010876878
-0.027724868 -0.022463948 -0.021325981 0.014212014 0.015253255 0.0033426043 0.0036241391 0.03899828
-0.0070599923 -0.020124821 0.024985753 0.01169646 -0.0010368834 -0.017064663 -0.0168147 -0.00055718044

base.3.bias f4 [32]
00000000: 860e 01b9 84aa 0538 a9f2 ba38 8c80 73b8
00000010: 396f 46b7 9d56 4237 418e 7538 1ec5 2739
00000020: f9e6 0236 ef07 b138 5435 2739 674e ebb8
00000030: e030 1eb8 7905 22b8 b36f 15b8 71c7 1736
00000040: 6d04 3637 a874 1b39 64ed 46b8 6103 8f38
00000050: fe7c f5b8 9430 7b37 3372 d9b6 4bcf a8b6
00000060: 0849 4e36 55ba 7835 077a 0038 2e83 b136
00000070: cf85 b737 4fa7 e137 0cbd 30b8 9515 7338
-0.00012307809 3.1868476e-05 8.91437e-05 -5.8055433e-05 -1.1827616e-05 1.1583467e-05 5.8545036e-05 0.00015999793
1.9505953e-06 8.4414954e-05 0.00015946227 -0.00011220277 -3.7715654e-05 -3.8628907e-05 -3.5628396e-05 2.2616844e-06
1.0849076e-05 0.0001482541 -4.7427966e-05 6.819401e-05 -0.00011705792 1.4972076e-05 -6.4803985e-06 -5.0309222e-06
3.0738902e-06 9.265835e-07 3.0631225e-05 5.2902824e-06 2.187761e-05 2.69e-05 -4.2137734e-05 5.7955815e-05

base.4.weight f4 [32]
00000000: 69a1 7f3f 56a7 7b3f 0c6d 803f c8d7 7e3f
00000010: b351 813f fc71 813f 89aa 7e3f ab50 803f
00000020: 24d1 7d3f 5500 7f3f 8917 823f 8251 7f3f
00000030: 09d4 7d3f a4ff 7e3f 6c82 803f c606 7e3f
00000040: b620 823f 044b 7f3f 5c9c 7f3f d77d 7e3f
00000050: ff3f 7f3f e027 7e3f 0415 7e3f ab29 7f3f
00000060: 9c44 7f3f 602e 803f 0896 7f3f 9a0b 803f
00000070: 347d 803f 85e0 7c3f 7ac6 7e3f bb72 7f3f
0.9985567 0.9830221 1.0033278 0.99548006 1.0103058 1.011291 0.99478966 1.0024618
0.9914725 0.9960988 1.0163432 0.99733746 0.99151665 0.99608827 1.0039802 0.99229085
1.0166233 0.9972384 0.9984796 0.99410766 0.99707025 0.99279594 0.9925082 0.99672955
0.99714065 1.0014153 0.99838305 1.000354 1.0038209 0.9878009 0.995216 0.9978444

base.4.bias f4 [32]
00000000: 79ac dfbb 806e 70bc 365f 7c3b 957c b73a
00000010: 7a3e df3b e104 7f3b 8737 87bb 2d69 543b
00000020: 913d 173b 46ac b2bb a66d 213a 7f50 08bb
00000030: d5a8 20bc c449 15bc 2316 363b c3ac 8bbb
00000040: 23ed 8e3b 7418 35bb 8198 3bbb 6350 ae39
00000050: a923 53bb 5313 3d3b 9b7a 8bba 58ee 3139
00000060: 06d3 cfbb 06ca e3ba af42 94bb 4c6c cd3a
00000070: 7d6d 6fbb d00c 1cbb d4ad 0d3a 6b85 083c
-0.0068259803 -0.014674783 0.0038508899 0.001399892 0.0068128677 0.003891282 -0.0041264924 0.0032411322
0.0023077468 -0.0054526655 0.00061580015 -0.0020799933 -0.009805878 -0.009111825 0.002778419 -0.004262538
0.004361765 -0.0027632983 -0.0028624835 0.0003324776 -0.00322173 0.002885063 -0.0010641398 0.00016968825
-0.0063422946 -0.0017378933 -0.004524551 0.0015672534 -0.0036533766 -0.0023811348 0.00054046256 0.008332591

base.4.running_mean f4 [32]
00000000: a682 163e 8eb5 f1bc ff22 22bc 5cf4 2cbc
00000010: 30c5 21bd 4ff6 54ba 62cf 4d3d f7ec 02be
00000020: d0d4 5dbe 473a 06bd 8e39 2fbe 360d 90bd
00000030: c9f1 b23d 6ed7 073e f41e c63c 7bbb 633d
00000040: da0c 8d3c fe89 19be 3b6d f03d af4c ccbc
00000050: 4e08 0ebe 9984 f13c 23be e1bd a8da ebbd
00000060: e1ca a9bd 3d38 4ebd a92d b0bd da22 603e
00000070: 6b1a 3cbe a6f8 a5bc af41 1dbd 8982 4ebd
0.14698276 -0.029505517 -0.009896039 -0.010556307 -0.039494693 -0.0008123861 0.050246604 -0.12785707
-0.21663213 -0.03277042 -0.17111799 -0.0703377 0.08737523 0.13265774 0.024184681 0.055598717
0.017218042 -0.14994046 0.11739584 -0.02493891 -0.13870355 0.029482173 -0.11022594 -0.11516315
-0.08290649 -0.0503466 -0.08602459 0.21888295 -0.18369453 -0.020260166 -0.03839272 -0.050417457

base.4.running_var f4 [32]
00000000: 1a4b a33c e08e bf3d 9171 113d a3df 8b3d
00000010: b0eb 0d3d cb11 a13c bac1 be3d 5989 263d
00000020: a610 4c3e 4ba5 e63d 9bb3 ce3c 3314 503d
00000030: 1773 213e 4bc0 4d3d e99e b33c 8c05 ac3d
00000040: 4fa0 253d 1bf1 d23d c6ec 883d 5ae5 413d
00000050: 3006 1f3d 1148 153d 7adb bd3d 60b0 e83d
00000060: 8f48 b03d 8fe2 7e3d 0548 953d 6cc7 593d
00000070: f47c 353d 00d9 0a3e 8565 a13d 2926 9b3d
0.019933272 0.09353423 0.035508696 0.06829765 0.034648597 0.019661805 0.09314294 0.04065833
0.19928226 0.11261996 0.025232127 0.050800513 0.1576656 0.050232213 0.02192636 0.083994955
0.040436085 0.102998935 0.06685786 0.047337867 0.03882426 0.03644568 0.092703775 0.11361766
0.086075895 0.06222778 0.07289127 0.0531687 0.044308618 0.13559341 0.078806914 0.07575638

base.6.weight f4 [32, 32, 5, 5]
00000000: f74f 0abc c650 c63c ef41 e7bc 3ed9 743c
00000010: a510 8a3c ed15 05bd 01da 853c 6220 46bc
00000020: e237 bb3a f5c8 0dbc 227b f43c 1a9b 3d3c
00000030: fa20 49bc 7dd5 c7bc 721c e3bc 9f06 c2bc
00000040: 3c85 10bd f752 b3bc 1f02 9dbc ded5 da3b
00000050: 1a7b 52bc f3f3 8abc 1671 90bb 2501 d83c
00000060: 2235 483c 862f cc3c d77c babc 2102 9b3c
00000070: 6a3e 18bd 67b9 a0bc f34a ff3c 838e 173c
00000080: 99c8 ac3c 141f 4d3c c604 ff3c 5318 f53c
00000090: 7d40 453b e3ce 9c3c cada 24bc d73f 9f3c
000000a0: 0cc5 4dbc 60d3 083c ce58 9dbc 044b 963b
000000b0: 80bd bc3c db45 9e3c 87f7 c7bc 536f f23b
000000c0: 03f1 6cbc 803a 34bc 5b5d c3bc b617 85bc
000000d0: 5057 42bc fabb 023d 304b 8a3c e7df 84bc
000000e0: 18b0 b33c ff02 16bd f667 23bc e745 2bbc
000000f0: 5721 1d3b 297f 673b 2c38 13bd ad49 b8bc
00000100: 830c 9d3c d780 40bc 843e a0bc 75c6 49bc
00000110: 4482 cfb9 c9b6 3b3b 19a4 bb3c d720 0f3d
00000120: 0e2a de3c 2a9b 123b 54e9 843c f7d9 a2bc
00000130: fb0f b6bc de61 e7bc c57b 613a b716 b1bc
00000140: 5360 cd3c d2fd 1bbc 6db8 54bc 9b81 bd3a
00000150: 08a4 df39 7319 b23c 5fd6 043d 32af ccba
00000160: f1b6 a23c 0c45 9fbc 03bc 30bc c6e5 0dbd
00000170: 9b00 f2bc a608 adbb 8600 fdbb 6a09 113d
00000180: db8a d33c 4f66 bf3c de26 a23c 7a9b be3c
00000190: d1f7 9cbb 92b5 a73c 3c3d 05bc 02f0 84bb
000001a0: e05c fd3b 99a8 8bbc fcd1 bd3b 27a1 c0bc
000001b0: fdf4 743c 77e3 45bb 9d7c 3e3d d8ed a03c
000001c0: 815b 703c 6bfd c2bb 494f 57bc 61c9 273d
000001d0: 076c d93c 2c10 1fbc a3b6 e63c 26b0 d53c
000001e0: cd27 e13c d65a ef3c 5dbf 9dbb c1e0 2cbb
000001f0: 06fc bfbc cc12 18bd 0c3a c439 eb12 e63c
00000200: 1e6f 1c3d 6394 133a 4370 353c b257 57bc
00000210: 4e05 113d da45 963c 2594 a5bb 4b2d 3d3c
00000220: 33ce ec3c e239 053d 6466 203d 0e04 69bc
00000230: 8e12 7c3b 33cc 5fbc dcac b0bc 2c8e 6c3c
00000240: 3b07 353c c613 453c adfb acbc bcd0 9b3b
00000250: 70c2 c7bc e336 2b3d be83 a13c f590 47bc
00000260: ab65 a3bc 872b 003b cfe7 f0bb 4b6a 3bbc
00000270: d631 96bc 7bf3 70bc 51e2 24bc 1990 0f3c
00000280: 907d 0dbd 3212 0f3c 03db 623c c83c 0cbc
00000290: 7a14 b6bb e5cd 9ebc ed2e 163d 68e9 e9bc
000002a0: 3015 d03c 1b57 aebc a9da 8bbb 7dae 873c
000002b0: 0c4f 4bbc 9fab de3c fd6b bc3b 2e53 533c
000002c0: 0872 dabc 78c9 0ebc 2698 93bb 9cfa 1a39
000002d0: 600d 1ebd 4b5c a23a 4736 f53b 86c3 bebc
000002e0: 5fd0 1cbd bff6 4cbb 4744 ae36 35e3 b2bc
000002f0: dc4f 91bc ab95 95bc 2177 c93c ed2c 21bd
00000300: df07 773b 113e 44bc e56f a83b c1ae acbb
00000310: d5a0 ea3c 9e43 b7bc 088b 08bd aa60 953c
00000320: 2c4d e03c 5406 ba3a 39ce ffbb 97a9 f4bc
00000330: 07b1 9a3c 600e 9d3b 150d f4bc 8c3e 02bd
00000340: c8e9 a33c 851b edbc d6f7 eb3b 5334 5dbc
00000350: e8d3 523c 4f68 913c aebc a1bc 687a a5bc
00000360: fb22 0d3d 2d6e dc3c e8be 71bc c5de 2e3c
00000370: f0ea cfbc 0fcb 8f3c 0342 d03c 6614 61bb
00000380: 87ff b03c 06cf aebc 1788 bfbc ab2a 46bc
00000390: 1720 3b3c 0e56 bebc 0197 0fbb 7b55 22bc
000003a0: 6eb8 11bd 574d ad3c 530a 033d a8aa aa3c
000003b0: 9aa3 36bc 2f4a 203c a36c 1dbd 271d 0e3c
000003c0: 844a 293d d69a 83bc 5b84 88bc 1fab cbbc
000003d0: 6e57 16bc 4ff9 933b 0165 8a3c ebcc 95bc
000003e0: 9158 a23c 2f6f 9f3b 9581 4d3c 18e5 8fbc
000003f0: dc4e 503b eb63 c93c 1150 4b3c 25e6 ff3b
-0.008441917 0.024208438 -0.028229682 0.014944373 0.01685364 -0.032491613 0.016339304 -0.012092682
0.0014283622 -0.008653869 0.02984387 0.011572624 -0.012275929 -0.024393791 -0.027723525 -0.023684798
-0.035283312 -0.021890147 -0.01916605 0.006678327 -0.0128467325 -0.016962027 -0.004408012 0.026367733
0.012219699 0.024925005 -0.022764606 0.018921914 -0.037168898 -0.019619657 0.031163668 0.009250286
0.021091746 0.012519617 0.031130206 0.029918825 0.0030098252 0.01914162 -0.010061929 0.01943962
-0.012559187 0.008351177 -0.019207384 0.0045865793 0.02303958 0.019320419 -0.024410022 0.007398525
-0.014461759 -0.011000276 -0.023848226 -0.016246658 -0.011861637 0.03191755 0.016881555 -0.016220046
0.021934554 -0.03662395 -0.009973517 -0.010453678 0.002397617 0.0035323596 -0.03594224 -0.022496069
0.019171005 -0.011749468 -0.01956106 -0.012315382 -0.00039579172 0.0028642884 0.022905396 0.034943428
0.027119663 0.0022370317 0.01622454 -0.019879324 -0.022224417 -0.028244909 0.0008601512 -0.021617277
0.025070345 -0.009520965 -0.012983424 0.0014458181 0.00042656087 0.02174065 0.032431003 -0.0015616177
0.019862624 -0.019442104 -0.010787013 -0.034642957 -0.029541304 -0.005280572 -0.0077210097 0.03540937
0.025823047 0.023364214 0.019793924 0.023267496 -0.004790284 0.020472322 -0.008132275 -0.0040569315
0.007732019 -0.017048167 0.0057928544 -0.023514343 0.014950988 -0.0030195394 0.04650556 0.019644663
0.014670254 -0.00595062 -0.013141462 0.040963534 0.02654077 -0.0097084455 0.02816326 0.02608497
0.027484799 0.029218119 -0.004814072 -0.002637908 -0.023435604 -0.0371273 0.00037427281 0.028085193
0.038191907 0.00056297163 0.011074129 -0.013143467 0.03540545 0.018343855 -0.0050530606 0.011546443
0.028906917 0.032525904 0.039160147 -0.014222158 0.0038463208 -0.013659525 -0.0215668 0.014438193
0.011049087 0.01202864 -0.021116102 0.0047551077 -0.024384707 0.04180039 0.01971614 -0.012180557
-0.01994594 0.0019557194 -0.0073518525 -0.011438916 -0.01833431 -0.014706488 -0.010063724 0.008762383
-0.034543574 0.008732365 0.013846162 -0.008559413 -0.00555664 -0.019385288 0.036665846 -0.02855368
0.025400728 -0.02128177 -0.0042680097 0.016562695 -0.012408983 0.027181445 0.005750178 0.01289825
-0.026665702 -0.008715026 -0.0045042215 0.00014779944 -0.038586974 0.0012387125 0.007483277 -0.023286592
-0.038284656 -0.0031275002 5.1935526e-06 -0.021836856 -0.017738275 -0.018259844 0.024592938 -0.039349485
0.00376939 -0.011977688 0.005140292 -0.0052698557 0.028641144 -0.02237111 -0.033335716 0.01823457
0.027380548 0.001419256 -0.007806566 -0.029866023 0.018883241 0.0047929734 -0.029791394 -0.03179793
0.020008937 -0.028943786 0.007201175 -0.013501245 0.012867905 0.017749934 -0.01974329 -0.02019997
0.034457188 0.026908005 -0.014754988 0.01067323 -0.025380582 0.01755288 0.025422102 -0.0034344434
0.02160622 -0.02133895 -0.023380322 -0.012095134 0.011421225 -0.023234393 -0.0021910074 -0.009908075
-0.035576276 0.021155043 0.031992268 0.020833328 -0.011147404 0.009783312 -0.038433682 0.008673943
0.04133083 -0.016065042 -0.016664675 -0.02486187 -0.009176118 0.004515804 0.016893866 -0.018286189
0.019817622 0.004865549 0.012543102 -0.017565295 0.0031785285 0.024583777 0.012409226 0.007809418

base.6.bias f4 [32]
00000000: 3781 8b38 1b0e 8f37 b7f4 9b38 64cc 0eb9
00000010: ac01 81b8 0444 9fb7 68c9 9bb4 0385 94b7
00000020: 5c5e 9b38 2a67 a336 a2b3 0d38 bc32 9737
00000030: ab1e 1e38 4d0b 24b8 25f2 9a38 1cab 2c37
00000040: 9339 2939 8616 2ab8 a24a 5e37 5cab 2db8
00000050: 2c65 6038 db8b 22b8 1b94 9037 c120 afb8
00000060: 98b2 c3b6 78ec de36 b5a4 4236 2fb1 10b7
00000070: 5422 9bb8 118b 3a38 8ddf 42b8 3bc4 26b8
6.652105e-05 1.7053497e-05 7.436558e-05 -0.00013618317 -6.151511e-05 -1.898595e-05 -2.9017542e-07 -1.7704913e-05
7.408552e-05 4.8697884e-06 3.3784316e-05 1.8024228e-05 3.7698697e-05 -3.911117e-05 7.388395e-05 1.0291838e-05
0.00016138544 -4.0552135e-05 1.3249608e-05 -4.1406005e-05 5.3499985e-05 -3.875406e-05 1.7235105e-05 -8.350751e-05
-5.832244e-06 6.643644e-06 2.9004125e-06 -8.624323e-06 -7.39737e-05 4.447537e-05 -4.6461402e-05 -3.9760238e-05

base.7.weight f4 [32]
00000000: 28de 843f 5d3d 843f b832 873f 58b4 853f
00000010: 781e 833f b04a 833f 27b0 843f f418 833f
00000020: 45d1 863f 6ef1 863f 8add 843f e766 833f
00000030: 1359 833f 9b60 843f 06f6 843f 8be3 853f
00000040: 067a 843f 5658 873f 7683 843f de48 843f
00000050: 6ff3 823f 29bc 853f 2d9e 833f 3070 873f
00000060: c223 863f 69d5 853f 51a8 853f 8c3b 833f
00000070: c089 873f edfe 843f bad0 833f 4e2c 853f
1.0380297 1.0331227 1.0562353 1.0445662 1.0243673 1.0257168 1.0366257 1.024199
1.0532614 1.0542428 1.0380108 1.0265778 1.0261558 1.0341982 1.038758 1.0460066
1.0349739 1.0573833 1.0352619 1.0334737 1.023054 1.0448047 1.0282646 1.0581112
1.0479662 1.0455753 1.0441991 1.0252547 1.0588913 1.0390297 1.0298073 1.0404146

base.7.bias f4 [32]
00000000: bd24 433c bdf9 0d3c 80b0 c43c 8968 af3c
00000010: ead1 1b3c ba89 9e3c ba8a b73c 8314 8d3c
00000020: 73b8 f33c 42e8 d53c 95f7 5c3c 6654 9e3c
00000030: e5a4 1a3c 6935 093c a836 ef3c 9084 e93c
00000040: 99f8 483c 9a0f 9e3c 76d5 9f3c 8e0b 6c3c
00000050: a9c6 523c 95c4 643c b0f3 943c ded5 c63c
00000060: b82a 0a3d 5684 803c 756a ec3c 0541 c73b
00000070: 8ba6 613c e89a c33c d4b2 003c fe58 a13c
0.011910615 0.008665499 0.024009943 0.021412151 0.009510497 0.019352783 0.022405017 0.017221695
0.029751038 0.026111726 0.0134867625 0.019327354 0.009438728 0.00837455 0.029200867 0.028505594
0.012266302 0.019294549 0.019510966 0.014407052 0.012864747 0.013962884 0.018182606 0.024271902
0.033732146 0.015688103 0.028859356 0.006080749 0.013772617 0.023877576 0.007855136 0.019695755

base.7.running_mean f4 [32]
00000000: 969a e5bd 7a71 983e efc2 513d c25c 1a3d
00000010: 106a 94bc 8b8f ef3d edff bd3c 51a2 153e
00000020: 9551 033e 8e98 313d 1471 fdbd 9a5a 643d
00000030: f2cd fc3d b457 f3bd 4864 053e d420 88bd
00000040: c57d d63c 0e9e ad3d 3a21 00bd 4139 b5bd
00000050: 7775 47bd 070e 943e 155d 9a3e fc76 603e
00000060: 9992 fc3d 5296 5ebd d85b 003e c944 8fbc
00000070: 48be 80be a3e4 203e 2b49 3e3c 6e1b 6d3d
-0.112111256 0.29774076 0.051211294 0.037686117 -0.01811698 0.116973005 0.023193324 0.146127
0.1282409 0.043358378 -0.123750836 0.055750467 0.123439685 -0.118819624 0.13026536 -0.066468865
0.026183018 0.08477412 -0.031281687 -0.08848811 -0.048696008 0.28916952 0.3014914 0.21920389
0.12332649 -0.054342575 0.12535036 -0.017488854 -0.25145173 0.15712218 0.011614124 0.057887487

base.7.running_var f4 [32]
00000000: 847b 213d 0ed3 013e 02e8 183d 1aab 323d
00000010: 76ab 3d3d 3c52 af3d 9337 813d 5c4c 0c3e
00000020: 1d77 413d 68e0 9f3d 7bb0 903d 66dc c03d
00000030: e8c8 893d 1be4 793d dc90 d33d a05e d03d
00000040: 90a9 253d 8a17 c63d 88ee fc3d fec3 283d
00000050: 934d af3d 1f27 6f3d 1c81 8a3d d9c4 fe3d
00000060: ce74 3d3d c87d 2d3d 5d90 023d 52a6 3d3d
00000070: 66d5 863d e81b 363d 4d78 2a3d ddb6 9c3d
0.039424434 0.12678167 0.037330635 0.043620206 0.046306096 0.08560607 0.06309428 0.13701004
0.047232736 0.07806474 0.07064911 0.09417038 0.06727773 0.061008554 0.10330364 0.10174298
0.04044491 0.096724585 0.12350184 0.041202538 0.08559718 0.05838692 0.06762907 0.124398895
0.04625397 0.042356282 0.031875957 0.046301194 0.06583671 0.044460207 0.041618634 0.07652066

head.0.weight f4 [24, 1024]
00000000: c5bb cb3c 5462 cc3c fd91 033d 8874 ce3c
00000010: d54c cb3c a239 cc3b 3fa2 0b3d a397 e6bc
00000020: 085a fcbb a5bc 093d fe04 483c fd8d 3e3c
00000030: bd19 673c 21e1 cb3c edb3 cb3c 1895 373d
00000040: ad61 0080 ad61 0080 dfe2 24b7 3c2b a1ba
00000050: a0aa 58bb 27c2 e93c 8364 8b3c 677c 29bd
00000060: 0be3 ce3c 2415 0a3d 3ba4 1a3a 7d3a 3d3b
00000070: b21a a5b7 ad61 0080 ad61 0080 ad61 0080
00000080: bfe8 83b9 bfe8 83b9 bfe8 83b9 c896 4bb9
00000090: c6a9 2ebb d002 e6bb 1f4c 2dbb 27fb d53c
000000a0: 5290 483a a40b 6f3c 0069 c33b 5046 833b
000000b0: bce8 83b9 bfe8 83b9 bfe8 83b9 bfe8 83b9
000000c0: e9ae 393d dc9b 5c3c f7ee 2d3b 09eb 0e3c
000000d0: 770d 3a3d 231c 46bc 20b7 b4bc 74e5 f43c
000000e0: 8161 6f3c d8f4 343c 7352 f73b a822 2d3c
000000f0: db79 c13c a9be 703c 05c3 d23c 8fce 4d3d
00000100: 3223 d63c 3035 143d 9a9b 123d 46d4 0a3d
00000110: 3ad8 8a3c dd98 d13c bca7 813b 6637 823c
00000120: 7d5e f1bc a2c5 8dbc 8dae f63c 7524 8d3c
00000130: 4bee 0c3d 68a5 1f3d 0272 273d 893c 643c
00000140: 14e5 883c a1a7 883c 8d13 8f3c e714 5e3c
00000150: 5da5 abba de80 55bc e0f1 093c c6ee cb3c
00000160: a432 e23b 7551 51bc da40 483b a306 823c
00000170: d05d 883c 4d71 863c 4898 863c 4898 863c
00000180: 8977 8a39 8977 8a39 8a77 8a39 8fd6 8039
00000190: f41d bc3b 2b72 e9bc a01c 7c3c aa02 493d
000001a0: 0ca3 de3c f0e4 cd3c bfff 86bc 2079 55bc
000001b0: 2d5d 8a39 8977 8a39 8977 8a39 8977 8a39
000001c0: c39d 843a f36c 053c 0475 19bc 08a1 52bc
000001d0: cb73 383c ba0e f03c a42f 1d3d 9473 88bb
000001e0: 7cdf 78bb c963 2a3c 7b5e f7bc 609c 00bd
000001f0: 24fb b3bb 9cdd 06bc 3b2e d1bc c5b9 11bd
00000200: 7fdd 963a 8f9a 963a 33fa 9e3a dedc 943a
00000210: 18a4 b9ba a522 a838 cea4 9a3c a19f 093b
00000220: 8966 edba f1c3 ccbc 13af 073b 2763 9d3b
00000230: 6122 923a 7fdd 963a 7fdd 963a 7fdd 963a
00000240: d4cf 593b de5d 0fbb f524 d63b 3478 4e3c
00000250: 3a83 0cbc 8ddf 06bd 8149 843b 1589 d8bc
00000260: 68d7 2d3c d37b 093d bfe4 45bc f584 47bb
00000270: b9ed e3ba 500b b43c 43be e13b 174f 063b
00000280: b9e7 f939 eeff 93bc 2df6 11bc 4956 19bd
00000290: 9e72 16bd eb54 ec3b f3c5 b23b b24e 1b3d
000002a0: cb10 5bbc 3ae9 4dbc 35cb fa3b 65c5 dabc
000002b0: d495 343c bc86 b0bc b289 fbbc b550 aabc
000002c0: e3a6 1ab9 fd39 ca36 1113 19b7 378c a8bb
000002d0: fe13 eb3b c5f7 873b aa76 26bc f2c9 cb39
000002e0: 20f5 533b 4c6c a73c 1407 f13c 46ec 06bc
000002f0: d327 a3b9 79eb 90b9 fba4 e5b8 2f41 59b9
00000300: 3eb6 383c 2f61 3a3c db15 373c 6813 213c
00000310: f874 dd3b 955e 1d3c fd01 f93c 5593 113c
00000320: 17d4 71bc b49d 083d ddd3 fc3a 9529 2b3c
00000330: 5f2d 353c d23d 373c d23d 373c d23d 373c
00000340: 4865 de3c c111 4f3c 8f35 bc3c fce7 91bb
00000350: 94db 1c3d 60ff 96bc c54f 27bd 9468 813c
00000360: f246 423c 03e8 7bbc 0cc7 143c a88b 0a3d
00000370: 99b9 ba3c f071 063d 7939 bd3c 4e2f 66bc
00000380: 5fe3 beba 3d64 d2ba d8ab daba 1dae f3b9
00000390: 04dd 993a 1c58 3b3b 144f 283c 2279 d43a
000003a0: 091d cbbb d639 c63c ad7a 903b 58a6 d1b9
000003b0: 1989 d5ba 14f3 b6ba 14f3 b6ba 14f3 b6ba
000003c0: 1983 a0bc 52ac e7bc bd03 00bd bf7d ccbc
000003d0: f88f 9f3b 6f18 813c 8023 3abb 3de4 9b3c
000003e0: 9fc7 b23c fb7c 77bc e133 89ba 5455 123c
000003f0: 2696 14bc 99cf b5bc f39c d23a 9957 4bbb
0.024869809 0.02494923 0.032121647 0.02520205 0.02481691 0.0062324563 0.034090277 -0.028148478
-0.0077011622 0.03362717 0.0122082215 0.011630532 0.014105258 0.024887623 0.024866069 0.04481992
-3.504e-41 -3.504e-41 -9.827984e-06 -0.001229621 -0.0033060685 0.028534962 0.017015701 -0.041378405
0.025254747 0.033711568 0.0005899106 0.0028873973 -1.9681964e-05 -3.504e-41 -3.504e-41 -3.504e-41
-0.00025159676 -0.00025159676 -0.00025159676 -0.00019415759 -0.0026651486 -0.0070193782 -0.0026443077 0.026120735
0.00076509 0.014590178 0.0059634447 0.0040061846 -0.00025159668 -0.00025159676 -0.00025159676 -0.00025159676
0.045332823 0.013464894 0.002654014 0.008723029 0.045422997 -0.012091669 -0.022059977 0.029894568
0.014610649 0.011044703 0.0075476705 0.010567345 0.023617676 0.014693894 0.025727758 0.050245818
0.02613983 0.036183536 0.035792924 0.033893846 0.016948808 0.025585586 0.003956763 0.015895557
-0.029464 -0.017306153 0.03011253 0.017229298 0.03440694 0.038976103 0.04088021 0.013930448
0.016710795 0.016681494 0.017465377 0.013554788 -0.0013095547 -0.013031213 0.008419484 0.02489413
0.0069030095 -0.0127757685 0.0030556233 0.015872305 0.016646296 0.016411448 0.016430035 0.016430035
0.00026410472 0.00026410472 0.00026410475 0.0002457392 0.0057408754 -0.028496822 0.015387684 0.049074806
0.027177356 0.02513358 -0.016479371 -0.013029367 0.00026390832 0.00026410472 0.00026410472 0.00026410472
0.0010117817 0.008143651 -0.009366278 -0.012855776 0.011258076 0.029303897 0.03837551 -0.0041641686
-0.0037975004 0.010399767 -0.030196419 -0.03139913 -0.005492585 -0.008231547 -0.02553474 -0.035577554
0.0011510103 0.0011490154 0.0012129009 0.0011357327 -0.0014163284 8.017317e-05 0.018877413 0.0020999687
-0.0018112223 -0.024995776 0.0020703718 0.0048030796 0.0011149162 0.0011510103 0.0011510103 0.0011510103
0.0033235447 -0.0021876018 0.0065351673 0.012601901 -0.008576209 -0.03292804 0.0040370827 -0.026432553
0.010610439 0.033565354 -0.012078463 -0.0030444239 -0.0017389572 0.02197805 0.006889136 0.0020493919
0.00047665628 -0.018066373 -0.008908791 -0.037435804 -0.0367304 0.0072122714 0.0054557263 0.037916847
-0.013370703 -0.012567813 0.0076536187 -0.026705453 0.01102205 -0.021548621 -0.030705307 -0.020790437
-0.00014748755 6.02682e-06 -9.12395e-06 -0.005143668 0.007174014 0.0041494095 -0.010160128 0.00038869638
0.003234215 0.020437382 0.02942232 -0.008235043 -0.00031119454 -0.0002764126 -0.00010950301 -0.00020719015
0.011273919 0.011375709 0.011174644 0.009831287 0.0067583285 0.00960507 0.030396456 0.008885224
-0.014760039 0.033353522 0.0019289214 0.010446926 0.011058181 0.011184173 0.011184173 0.011184173
0.027147904 0.01263851 0.022974757 -0.0044527035 0.038295344 -0.01843232 -0.04084756 0.015796937
0.011857735 -0.01537514 0.00908066 0.033824593 0.022793578 0.032823503 0.023098694 -0.014049364
-0.0014563611 -0.0016051602 -0.0016683294 -0.00046478296 0.0011738841 0.0028586453 0.01027276 0.0016210417
-0.0061985296 0.0241975 0.0044091553 -0.00039987522 -0.0016291469 -0.0013957941 -0.0013957941 -0.0013957941
-0.019593762 -0.02828041 -0.031253565 -0.024962304 0.0048694573 0.015758721 -0.0028402507 0.01902973
0.021823702 -0.015105481 -0.0010467732 0.008931477 -0.009069001 -0.022193717 0.0016068503 -0.0031027554

head.0.bias f4 [24]
00000000: d683 85bc 42be f73c c0da 0c3d 3c9b 493c
00000010: df49 78bc 2d0b a4bc f0d1 b93c cf62 0e3a
00000020: ea4c 76bb 5c43 db3a 0331 9fbb b718 9b3a
00000030: 0c8d 033c 6f41 653b 4c80 22bc 756b 083d
00000040: 3192 073d 56c2 ca3b 220b aebc d7ce de3b
00000050: c33f 15bc 888d 053c f93d 06bc 1227 043d
-0.016298216 0.03024209 0.034388304 0.012305077 -0.015154331 -0.02002486 0.022683114 0.0005431594
-0.0037582465 0.0016728449 -0.0048581376 0.0011832927 0.008029234 0.0034981628 -0.009918284 0.033305604
0.033098403 0.0061877174 -0.021245543 0.0067995596 -0.00910944 0.008151419 -0.008193486 0.032263823

head.2.weight f4 [2, 24]
00000000: c4ec d03d f2cc 003e 93c8 353d 7d89 4ebd
00000010: 74dd 383e f27f 8e3d 95ff a83d 08e9 15bd
00000020: ee10 58be e449 78be 8b99 f23b df8f 77be
00000030: fc5a 1cbe 2ef9 4e3d ed3e 8dbb 21be 2b3e
00000040: ef4f 4c3e 6599 063e 9835 49be 32bd 5a3e
00000050: b1cf 57be 0c32 9f3c 5e95 dd3c fbf9 0c3e
00000060: 0a3d 24be d312 a7bd a34c 4e3e d7d1 dd3d
00000070: 552e 13be 9bd9 6dbe 6d52 2bbc b330 553e
00000080: 2dae 313c cf7a e43d 6781 7bbe 9d91 473d
00000090: e58e 76be 7bd8 573e 285e 373e 4b17 afbd
000000a0: 9750 1dbe c867 81bd 76aa 573e 120b 17be
000000b0: af16 bd3d 6175 223e 2f4a f03d cf61 23be
0.102014095 0.1257818 0.044380736 -0.050424088 0.18053228 0.069579974 0.082518734 -0.03659919
-0.21100208 -0.24246937 0.0074035577 -0.24175976 -0.15269083 0.050530605 -0.00431048 0.16771747
0.19952367 0.13144453 -0.1964935 0.21361235 -0.21075322 0.019433044 0.027048763 0.13767235
-0.1603891 -0.08157887 0.20146422 0.108310394 -0.14373143 -0.23227541 -0.010456664 0.20819359
0.010844749 0.111562364 -0.24561082 0.048722852 -0.24077947 0.21078674 0.17907012 -0.08549365
-0.15362774 -0.06318623 0.2106112 -0.14750317 0.09232842 0.15865089 0.117328994 -0.1595528

head.2.bias f4 [2]
00000000: 2ea3 ac3c a147 803c
0.021073904 0.015659155
