models/AC-RM-2 Q_LR=0.001 P_LR=5e-06 BATCH_SIZE=128 GAMMA=0.99 MEMORY_SIZE=150000 BETA=0.05_policy_3462.pt (torch, 319747 bytes, 22 tensors)

base.0.weight f4 [32, 2, 5, 5]
0.086456366 -0.007785177 0.119685255 0.08920809 -0.09612459 -0.011821063 0.08266465 -0.142889
-0.12739153 -0.057802506 0.10688012 0.06520744 -0.13328208 -0.059930637 -0.052207418 0.018443808
0.0054214583 0.10040053 -0.09543796 -0.064176254 0.0038045573 -0.018715886 -0.051190432 -0.097698554
-0.003118559 -0.020951936 0.12170611 0.12705378 0.06545631 0.09320609 -0.031362694 0.07525082
-0.108613886 -0.067473695 -0.122427456 0.07476776 -0.0739061 0.0058444324 -0.11826546 0.06296804
0.039690528 0.06252122 0.12046619 0.058379903 0.0034014552 0.056329962 -0.020492025 0.02144298
-0.019731825 -0.11836915 -0.06084136 -0.051429983 -0.11530963 0.12360294 -0.060404953 -0.075851336
0.01916129 0.00972464 -0.0143563915 0.087793395 0.021277586 0.081210464 -0.12783645 -0.04541034
-0.12285092 0.015829185 -0.08504236 0.021355443 0.06311907 0.11343958 -0.006239392 -0.08120916
-0.14747408 0.07038388 -0.12583458 -0.031756513 -0.023440005 -0.011463759 -0.08712262 -0.14757091
0.0727757 0.1409989 0.07148018 0.10160997 0.08620293 0.06520203 -0.019056542 0.0022034259
0.017519442 0.06533009 0.010922121 0.004258238 -0.028023645 -0.05074476 -0.05098133 -0.12206658
0.101936236 0.11962419 0.05507149 0.087847516 -0.049946345 0.033300895 -0.064819254 -0.0043540103
0.04875388 0.034078054 0.059228066 -0.02525844 -0.0153092 -0.030404156 0.076959796 0.00202982
0.04056918 -0.12471641 0.114945985 0.13043882 0.07147042 0.10278244 0.10402225 0.112159245
-0.078936525 0.052813537 0.032428402 0.06694642 0.11884126 -0.03198106 0.06486072 0.090815
-0.034587167 -0.011813075 -0.048197914 -0.039842084 -0.076624654 -0.100023225 -0.12072426 0.00097439287
0.07292182 0.056002956 -0.037741836 0.01481216 -0.039963078 -0.027188316 -0.041501537 -0.04128713
0.052211814 0.061902963 -0.054542683 0.11016672 0.06570884 0.112576246 0.026237568 0.102046095
0.030375063 0.09415272 -0.06444245 0.12429538 0.022467857 0.12693684 -0.03230122 -0.09522022
-0.11066212 -0.032646544 -0.03927054 0.083120964 0.10898829 0.030536607 -0.08264294 0.09952286
-0.11604402 -0.11868958 -0.087341204 0.0994399 -0.051867533 0.0782223 0.08423162 -0.031547766
0.12787078 -0.0360485 -0.013772137 0.034380388 -0.0776082 0.116842486 -0.023388907 0.047602374
0.026742712 -0.090112716 0.06650738 -0.029634537 -0.12635921 -0.0730818 0.10634042 -0.032012913
-0.044392798 -0.103277825 -0.09857787 -0.13207214 0.1286007 -0.08215229 -0.03557831 -0.08729283
-0.03255777 0.1310488 -0.11090429 0.09259127 0.11768508 0.022469373 -0.034560297 -0.13442564
0.038321536 0.06432012 -0.06983979 -0.015103675 0.07844948 -0.016762737 -0.07296889 -0.08882149
0.04506117 0.054614555 -0.13501894 -0.026237408 0.07724417 -0.06254721 0.045318898 0.09294319
-0.10432914 -0.10803942 -0.13902397 0.037003838 -0.031418983 -0.035601746 0.12141289 -0.111966655
0.13401216 -0.120811254 -0.14182241 -0.07014239 0.076054215 0.08772379 -0.053504765 0.11792413
-0.1427134 -0.007961834 0.05195305 0.07705879 -0.089157425 -0.0058725374 -0.08030099 0.11088175
-0.06751398 -0.08679973 -0.12923339 0.13636461 0.022653855 -0.076519884 0.056568623 -0.010975229
00000000: 0910 b13d cc1a ffbb 8b1d f53d bbb2 b63d
00000010: f8dc c4bd 22ad 41bc 164c a93d 7e51 12be
00000020: ed72 02be 52c2 6cbd f7e3 da3d 7a8b 853d
00000030: 197b 08be d479 75bd 72d7 55bd 7817 973c
00000040: 7da6 b13b cb9e cd3d fa74 c3bd d76e 83bd
00000050: e155 793b 0f52 99bc 0fad 51bd 2e16 c8bd
00000060: bd60 4cbb 65a3 abbc 0e41 f93d 631a 023e
00000070: f50d 863d d6e2 be3d 2b76 00bd 1a1d 9a3d
00000080: f570 debd a62f 8abd 3fbb fabd d71f 993d
00000090: 155c 97bd a782 bf3b 2935 f2bd 63f5 803d
000000a0: 8992 223d 200b 803d fab6 f63d c41f 6f3d
000000b0: f3ea 5e3b 3fba 663d e4de a7bc 30a9 af3c
000000c0: a3a4 a1bc 866b f2bd ca34 79bd 3fa8 52bd
000000d0: 7527 ecbd 8a23 fd3d 2f6b 77bd f257 9bbd
000000e0: 23f8 9c3c 1954 1f3c 1237 6bbc 06cd b33d
000000f0: 554e ae3c ac51 a63d 8fe7 02be 3100 3abd
00000100: 4399 fbbd 35ac 813c b02a aebd 9cf1 ae3c
00000110: 9244 813d 0353 e83d d073 ccbb fd50 a6bd
00000120: 7203 17be 6c25 903d c8da 00be 1e13 02bd
00000130: 4105 c0bc 7dd2 3bbc 586d b2bd d41c 17be
00000140: 6d0b 953d 0462 103e 3364 923d e318 d03d
00000150: 298b b03d a488 853d 771c 9cbc 5a67 103b
00000160: ef84 8f3c c8cb 853d b2f2 323c b088 8b3b
00000170: d891 e5bc bdd9 4fbd cdd1 50bd 0bfe f9bd
00000180: f2c3 d03d 87fd f43d a592 613d 66e9 b33d
00000190: 8a94 4cbd 8566 083d f5bf 84bd 16ac 8ebb
000001a0: 26b2 473d 6e95 0b3d 2199 723d caea cebc
000001b0: 70d3 7abc 2312 f9bc 199d 9d3d bb06 053b
000001c0: de2b 263d 516b ffbd cd68 eb3d c191 053e
000001d0: 155f 923d 9a7f d23d 9e09 d53d bfb3 e53d
000001e0: 79a9 a1bd 0253 583d a5d3 043d 341b 893d
000001f0: 0c63 f33d 92fe 02bd b2d5 843d 37fd b93d
00000200: 46ab 0dbd a18b 41bc 2d6b 45bd 7431 23bd
00000210: 63ed 9cbd fad8 ccbd 483e f7bd 666e 7f3a
00000220: 0958 953d 5b63 653d 2f97 1abd b4ae 723c
00000230: 53b0 23bd 08ba debc 84fd 29bd b21c 29bd
00000240: 0edc 553d f68d 7d3d 2668 5fbd 179f e13d
00000250: 5b92 863d 608e e63d 2bf0 d63c 8bfd d03d
00000260: 20d5 f83c 24d3 c03d 67fa 83bd 948e fe3d
00000270: 830e b83c bbfb 013e 494e 04bd d202 c3bd
00000280: d2a2 e2bd 62b8 05bd 25da 20bd 533b aa3d
00000290: 4135 df3d e827 fa3c b440 a9bd a4d2 cb3d
000002a0: 7da8 edbd 8613 f3bd f2df b2bd 25a7 cb3d
000002b0: 0d73 54bd 0333 a03d a181 ac3d 3b38 01bd
000002c0: 8ff0 023e 98a7 13bd 88a4 61bc 73d2 0c3d
000002d0: 0cf1 9ebd 1d4b ef3d 189a bfbc b5fa 423d
000002e0: 8813 db3c 048d b8bd 0535 883d 21c4 f2bc
000002f0: 4f64 01be e9ab 95bd 02c9 d93d f91f 03bd
00000300: 39d5 35bd 5383 d3bd 32e3 c9bd eb3d 07be
00000310: e7af 033e 763f a8bd 90ba 11bd 95c6 b2bd
00000320: 4c5b 05bd a831 063e ca21 e3bd 7ea0 bd3d
00000330: e004 f13d b111 b83c 198f 0dbd e0a6 09be
00000340: 0bf7 1c3d 44ba 833d 2a08 8fbd 6875 77bc
00000350: 1faa a03d 0252 89bc b770 95bd 0be8 b5bd
00000360: 1092 383d 83b3 5f3d 6842 0abe d5ef d6bc
00000370: 3132 9e3d c018 80bd 4fa0 393d 0059 be3d
00000380: 84aa d5bd c543 ddbd 4d5c 0ebe 5691 173d
00000390: 31b1 00bd 23d3 11bd 52a7 f83d c64e e5bd
000003a0: 7c3a 093e e46b f7bd e539 11be d0a6 8fbd
000003b0: 50c2 9b3d 88a8 b33d d027 5bbd 3582 f13d
000003c0: 7623 12be 5a72 02bc b9cc 543d 00d1 9d3d
000003d0: 2b98 b6bd 6a6e c0bb d874 a4bd f915 e33d
000003e0: c544 8abd 0fc4 b1bd c255 04be 2aa3 0b3e
000003f0: 9494 b93c 75b6 9cbd 80b4 673d 72d1 33bc

base.0.bias f4 [32]
8.117165e-05 -0.000288781 9.348478e-05 1.3670681e-05 -0.00051798805 5.4691877e-06 -4.7437923e-05 0.00013693604
-6.231775e-05 0.0002411496 0.00021383572 -9.5206655e-05 5.239905e-05 3.4031716e-05 0.0003197397 -6.324739e-05
-0.00014705582 -6.3158695e-05 0.00010826197 4.6975983e-05 0.000102262355 5.10031e-05 -0.00012722744 -5.293216e-05
1.6008767e-05 -0.00011428077 0.00017468099 -3.589012e-05 0.0002585531 0.00010983667 3.0039424e-05 0.00016428385
00000000: b33a aa38 8867 97b9 420d c438 215b 6537
00000010: 97c9 07ba f783 b736 15f8 46b8 7d96 0f39
00000020: 96b0 82b8 1add 7c39 1739 6039 afa9 c7b8
00000030: 0dc7 5b38 47bd 0e38 bca2 a739 afa3 84b8
00000040: ff32 1ab9 1174 84b8 b40a e338 1408 4538
00000050: af75 d638 29ec 5538 5b68 05b9 7903 5eb8
00000060: 914a 8637 05aa efb8 922a 3739 b988 16b8
00000070: 698e 8739 1d58 e638 2cfd fb37 9c43 2c39

base.1.weight f4 [32]
0.9886281 1.0090986 0.99526733 0.99982023 0.9887782 0.9888294 1.0015193 1.006893
0.9904162 1.0125711 0.9952026 0.9990318 0.9808277 0.9884231 1.0144418 0.992348
1.0054368 1.0281266 0.9950553 0.9978215 0.99598205 0.9911523 1.0061663 0.9849726
0.99603176 0.98764116 0.9957322 0.98583937 1.0047965 0.9919243 1.0175391 1.0087811
00000000: bb16 7d3f 252a 813f d7c9 7e3f 38f4 7f3f
00000010: 9120 7d3f ec23 7d3f c931 803f dfe1 803f
00000020: eb8b 7d3f ee9b 813f 99c5 7e3f 8cc0 7f3f
00000030: 8617 7b3f 4c09 7d3f 3bd9 813f 850a 7e3f
00000040: 27b2 803f a799 833f f2bb 7e3f 3b71 7f3f
00000050: aef8 7e3f 28bc 7d3f 0fca 803f 2a27 7c3f
00000060: f0fb 7e3f 0dd6 7c3f 4ee8 7e3f f85f 7c3f
00000070: 2c9d 803f c0ee 7d3f b93e 823f bd1f 813f

base.1.bias f4 [32]
-0.0063073332 0.0063891546 0.0050440896 0.0034896138 0.00028468296 3.2139036e-05 0.0023899914 -0.007002729
-0.005229399 0.012278494 0.0059783654 0.003072189 -0.011585837 -0.0035464738 0.0060458826 0.002230376
0.005859664 0.0005646698 -0.011134756 0.0067429827 -0.00465518 0.00094271376 -0.0010425423 -0.007415339
-0.002320102 -0.009481029 0.002217526 -0.013990449 0.009868296 -0.0049761576 0.005848262 0.0022114832
00000000: bfad cebb 1d5c d13b e448 a53b 01b2 643b
00000010: 8041 9539 07cd 0638 67a1 1c3b 2677 e5bb
00000020: 615b abbb bd2b 493c 2ae6 c33b c756 493b
00000030: 86d2 3dbc f56b 68bb 8a1c c63b 802b 123b
00000040: 6d02 c03b 5906 143a 8d6e 36bc 3df4 dc3b
00000050: 7b8a 98bb 7320 773a eaa5 88ba 5ffc f2bb
00000060: da0c 18bb 5156 1bbc ea53 113b 3238 65bc
00000070: a2ae 213c 090f a3bb c7a2 bf3b 88ee 103b

base.1.running_mean f4 [32]
-0.050149158 -0.06512792 0.7826093 -0.17472516 -0.50843626 -0.7009262 -0.19229214 0.17188857
1.1868852 0.08811633 0.3389913 -0.074260935 -1.0105752 -0.15479065 0.0053723287 0.26342753
0.12969783 0.20063889 -0.32762533 0.43120188 0.13128065 0.77694863 -0.0470621 -0.27982843
-0.4700544 -0.13375221 0.2624956 -0.44344497 0.06871477 0.68702966 -0.06336716 0.114279464
00000000: 3469 4dbd c961 85bd 1559 483f 27eb 32be
00000010: e128 02bf e66f 33bf 3be8 44be 8f03 303e
00000020: dbeb 973f 5676 b43d 4590 ad3e 1e16 98bd
00000030: 875a 81bf 7181 1ebe 5c0a b03b f9df 863e
00000040: 82cf 043e 4874 4d3e 82be a7be 7ec6 dc3e
00000050: 6f6e 063e 1be6 463f 30c4 40bd ac45 8fbe
00000060: f8aa f0be 57f6 08be d365 863e 380b e3be
00000070: 54ba 8c3d 2de1 2f3f a4c6 81bd 5a0b ea3d

base.1.running_var f4 [32]
0.0040114457 0.00041049454 0.010252846 0.0028321848 0.00326058 0.0055697057 0.0019033299 0.00075633865
0.014222616 0.0003589414 0.0029767107 0.0017623121 0.011736951 0.0009229715 0.0001096085 0.002452943
0.00056198577 0.0007816307 0.0022937644 0.0020063804 0.00058025477 0.008231295 0.0004724257 0.001974377
0.0029068007 0.0008186394 0.0018068904 0.004043539 0.00082320295 0.005074204 0.0012005118 0.0016143976
00000000: 7272 833b a537 d739 8efb 273c 2d9c 393b
00000010: 74af 553b 1482 b63b 2779 f93a 0745 463a
00000020: fa05 693c 4d30 bc39 eb14 433b 62fd e63a
00000030: 574c 403c 92f3 713a 9edd e538 8ec1 203b
00000040: 3a52 133a 59e6 4c3a fb52 163b 7a7d 033b
00000050: 3d1c 183a 8edc 063c e7af f739 8d64 013b
00000060: 0680 3e3b f699 563a 2ed5 ec3a aa7f 843b
00000070: 37cc 573a 8245 a63b 7e5a 9d3a 329a d33a

base.3.weight f4 [32, 32, 5, 5]
-0.006689906 0.015848724 -0.042982157 -0.0012255784 0.022117794 0.005467826 -0.021993803 0.0017042987
-0.013045746 0.021386582 0.01855335 0.013889525 -0.032303434 0.016973123 -0.017926004 -0.0028392728
0.03146801 0.015199712 -0.014836214 -0.024315655 -0.006109151 0.028464038 -0.0039998195 0.0065831435
0.03046623 -0.0125036845 -0.029939255 0.026267096 -0.03755253 0.014231448 0.012261189 -0.03251365
0.014799369 0.030090412 0.020776726 -0.027701627 0.023056833 0.0037110473 0.0018365524 -0.014288271
-0.03021955 -0.021340128 0.005429704 0.024771346 -0.026392702 -0.018550726 0.023243345 -0.025025146
0.024812857 -0.025540438 0.028267605 -0.01543936 -0.00887384 -0.015632235 -0.028765807 -0.028439753
0.003081661 0.022521999 -0.011637575 0.0062712566 -0.018741697 0.0076628276 0.03215261 0.031427898
0.017239742 -0.0065150904 -0.0045129247 -0.009122501 -0.023210647 -0.037703343 0.0040304977 0.0073870523
-0.0036125304 -0.00654962 0.013462005 -0.020860549 -0.018141018 0.026367372 -0.008669796 0.02455707
0.00069666054 -0.035315298 -0.028681282 -0.012209379 -0.03137569 -0.004057132 -0.019154575 0.017950175
-0.03294401 -0.021208502 -0.0035997084 -0.027931927 -0.027108977 0.031871423 0.015217156 -0.028534953
0.00095555396 -0.016190214 0.01035354 0.022375708 0.030305315 -0.0049989815 0.0051771123 0.0288406
-0.013884917 0.006759792 0.026979802 0.014884143 0.035201546 -0.008328654 0.004509919 -0.0017797407
-0.003769183 -0.00023179494 0.023215372 -0.030883318 -0.028113024 0.0092541035 0.0209467 -0.024707282
0.030044084 0.030508082 0.007191914 0.0052601937 0.011351194 -0.010776787 -0.0049147676 -0.025513241
-0.0057654516 -0.015007754 0.0005966255 0.0022215084 0.031749286 -0.022082793 0.015964566 0.015916392
0.0034880126 0.015570853 -0.023829566 -0.028128274 0.01725975 0.011624269 -0.0090844575 0.013706982
0.007576498 0.013662803 0.004105278 -0.03069722 -0.0023858885 -0.016702203 0.023743901 -0.023772672
-0.03395304 0.0049886554 0.007324887 -0.037690666 0.03136546 0.020260587 0.005589782 -0.024807984
0.018497838 -0.01940162 -0.03270346 0.00689123 0.005878032 -0.0051512364 -0.0012777988 -0.011556092
-0.00025690813 -0.030897392 -0.015342272 -0.0022403542 0.010607955 0.02063192 -0.008449717 0.026077673
0.015894506 -0.007961955 0.035469946 0.012659406 -0.027595013 -0.0062384116 -0.0045485096 0.025419177
0.0033465852 0.018955989 0.01563216 -0.0081854705 0.010575854 0.016700398 -0.011033169 0.013070821
-0.008066859 0.0038035363 0.01845409 0.010810333 0.00693859 0.025756218 -0.033553105 -0.01215065
0.037248775 0.026050635 0.022529814 0.023592088 0.0017854567 -0.009069025 0.0034904967 0.029283743
-0.007711683 0.015818743 -0.02798303 -0.028101077 -0.028645687 -0.017589102 -0.011576931 0.018675271
-0.01115091 0.018149251 0.003298357 0.016570702 0.014680572 0.029305203 0.009644488 0.012374891
-0.03297639 -0.015662525 0.008016515 -0.013424383 -0.021730218 0.010516307 0.031883206 0.026071826
-0.0146887675 0.013648407 0.016289163 -0.019361801 -0.014631843 0.009473664 0.035209153 0.0055709244
0.0059878738 0.029341022 0.0024542005 -0.00025539615 0.035835862 0.03601494 -0.005821439 0.035194512
0.04386868 -0.010085289 -0.029488781 -0.017360026 0.027766898 0.022020042 -0.014391151 -0.011359895
00000000: 0037 dbbb 2fd5 813c 0f0e 30bd 96a3 a0ba
00000010: 6030 b53c 732b b33b 592c b4bc c662 df3a
00000020: d3bd 55bc ea32 af3c 32fd 973c e490 633c
00000030: 9b50 04bd 380b 8b3c 8ed9 92bc 1813 3abb
00000040: 9ae4 003d 3608 793c 9713 73bc a031 c7bc
00000050: 462f c8bb 6a2d e93c eb10 83bb 69b7 d73b
00000060: 5194 f93c 41dc 4cbc 2b43 f5bc 182e d73c
00000070: afd0 19bd 052b 693c 27e3 483c 082d 05bd
00000080: 0d79 723c 2b80 f63c f433 aa3c 86ee e2bc
00000090: afe1 bc3c 0b35 733b 79b8 f03a 5a19 6abc
000000a0: fd8e f7bc 7ed1 aebc a9eb b13b 47ed ca3c
000000b0: 8235 d8bc b1f7 97bc d468 be3c 8901 cdbc
000000c0: 5544 cb3c 2e3a d1bc 7791 e73c 5ff5 7cbc
000000d0: 9563 11bc 2c0f 80bc 45a6 ebbc 7cfa e8bc
000000e0: b1f5 493b 0e80 b83c 87ab 3ebc 1d7f cd3b
000000f0: 3088 99bc 7518 fb3b 75b2 033d 8aba 003d
00000100: 5c3a 8d3c 8a7c d5bb 28e1 93bb 8b76 15bc
00000110: 4124 bebc d26e 1abd 4412 843b 160f f23b
00000120: 34c0 6cbb 329e d6bb be8f 5c3c bee3 aabc
00000130: 799c 94bc 6300 d83c c30b 0ebc e92b c93c
00000140: 19a0 363a c6a6 10bd 02f5 eabc d909 48bc
00000150: cc83 00bd b1f1 84bb 0eea 9cbc 3f0c 933c
00000160: 4cf0 06bd 74bd adbc 16e9 6bbb 7fd1 e4bc
00000170: a513 debc 9c8b 023d 6151 793c 22c2 e9bc
00000180: 247e 7a3a 57a1 84bc e5a1 293c 434d b73c
00000190: da42 f83c 7fce a3bb c4a4 a93b 1f43 ec3c
000001a0: 907d 63bc 3f81 dd3b bf04 dd3c 9fdc 733c
000001b0: 7f2f 103d e874 08bc f1c7 933b 3046 e9ba
000001c0: 6604 77bb fb0d 73b9 2a2e be3c 03ff fcbc
000001d0: 494d e6bc 869e 173c 6a98 ab3c ed66 cabc
000001e0: 031f f63c 16ec f93c 26aa eb3b b45d ac3b
000001f0: 5cfa 393c 1f91 30bc 0f0c a1bb 2501 d1bc
00000200: 1dec bcbb 15e3 75bc dc66 1c3a ba96 113b
00000210: 8a0b 023d f9e6 b4bc 1fc8 823c 1863 823c
00000220: 2497 643b e41c 7f3c 3936 c3bc 446d e6bc
00000230: 5264 8d3c b873 3e3c fad6 14bc 4093 603c
00000240: 4644 f83b f3d9 5f3c 9185 863b bc78 fbbc
00000250: 915c 1cbb 0fd3 88bc 9282 c23c e8be c2bc
00000260: 5812 0bbd e077 a33b 9b05 f03b 8761 1abd
00000270: 1279 003d 88f9 a53c 7d2a b73b 1d3a cbbc
00000280: c788 973c 25f0 9ebc 10f4 05bd d4cf e13b
00000290: 829c c03b b4cb a8bb d07b a7ba c355 3dbc
000002a0: a0b1 86b9 871c fdbc 275e 7bbc e8d2 12bb
000002b0: fdcc 2d3c 4604 a93c af70 0abc d8a0 d53c
000002c0: 3235 823c dc72 02bc ef48 113d 6669 4f3c
000002d0: f00e e2bc 976b ccbb aa0b 95bb e13b d03c
000002e0: 6252 5b3b 9749 9b3c 040f 803c 5a1c 06bc
000002f0: 5946 2d3c 46cf 883c 77c4 34bc ff26 563c
00000300: dc2a 04bc c044 793b 082d 973c d31d 313c
00000310: 1d5d e33b b4fe d23c fb6e 09bd 8513 47bc
00000320: 2c92 183d 2468 d53c 7290 b83c 3244 c13c
00000330: fc05 ea3a 3f96 14bc d1c0 643b 76e4 ef3c
00000340: 49b2 fcbb 4f96 813c ab3c e5bc 3b34 e6bc
00000350: 5caa eabc 0517 90bc 2bad 3dbc e2fc 983c
00000360: 4eb2 36bc bdad 943c 3f29 583b 48bf 873c
00000370: c886 703c 7711 f03c ea03 1e3c 0ec0 4a3c
00000380: 4012 07bd b24e 80bc b357 033c f1f1 5bbc
00000390: 9203 b2bc 974c 2c3c f797 023d 9594 d53c
000003a0: 28a9 70bc 919d 5f3c da70 853c a49c 9ebc
000003b0: 66ba 6fbc 6d37 1b3c 7937 103d 4d8c b63b
000003c0: ed35 c43b 955c f03c a7d6 203b b1e6 85b9
000003d0: a0c8 123d 6784 133d c5c1 bebb 1f28 103d
000003e0: a5af 333d c53c 25bc 7592 f1bc 9d36 8ebc
000003f0: 6877 e33c 6063 b43c ddc8 6bbc da1e 3abc

base.3.bias f4 [32]
-7.8278266e-05 -1.99462e-05 4.264146e-06 5.7517525e-05 2.365433e-05 -3.5019886e-05 3.770225e-05 5.9372716e-05
-8.701784e-05 1.9120143e-05 0.000103188526 2.5672056e-05 -6.6879904e-05 3.2461146e-05 -3.8283157e-05 -5.9411635e-05
2.383772e-05 -3.0761996e-05 -3.265967e-05 4.0353756e-05 2.3772169e-05 1.4196819e-05 -8.454309e-05 -8.471859e-06
1.7216655e-05 -1.3817892e-05 -0.00010084098 -4.6324136e-08 -4.8794947e-05 -1.1444191e-06 1.7963464e-05 -2.806211e-05
00000000: 5329 a4b8 2352 a7b7 bc14 8f36 f93e 7138
00000010: 496d c637 51e2 12b8 7c22 1e38 f806 7938
00000020: 597d b6b8 3264 a037 eb66 d838 525a d737
00000030: e041 8cb8 e426 0838 3a92 20b8 c230 79b8
00000040: 1df7 c737 7106 01b8 0efc 08b8 8441 2938
00000050: 586a c737 e02e 6e37 ba4c b1b8 5b22 0eb7
00000060: 7c6c 9037 65d3 67b7 977a d3b8 edf5 46b3
00000070: 2da9 4cb8 f199 99b5 3fb0 9637 ec66 ebb7

base.4.weight f4 [32]
0.991552 1.0076418 0.9962973 1.0033238 0.99755526 1.0061536 1.0024713 0.99744993
0.99401736 1.0023134 1.0044948 1.0016481 1.0040567 0.99383277 0.99645174 0.99780136
0.99389714 0.9956634 1.0028898 0.9909602 0.9934965 1.002366 1.0004342 1.0033531
0.9865962 1.0019815 1.0008641 1.0023099 1.0008111 0.9987502 0.98866564 0.9972653
00000000: 5ad6 7d3f 68fa 803f 570d 7f3f ea6c 803f
00000010: c85f 7f3f a4c9 803f fb50 803f e158 7f3f
00000020: ec77 7e3f ce4b 803f 4993 803f 0136 803f
00000030: ee84 803f d36b 7e3f 7617 7f3f e96f 7f3f
00000040: 0b70 7e3f cce3 7e3f b15e 803f 91af 7d3f
00000050: c955 7e3f 874d 803f 3a0e 803f e06d 803f
00000060: 9291 7c3f ee40 803f 511c 803f b14b 803f
00000070: 941a 803f 18ae 7f3f 3119 7d3f c74c 7f3f

base.4.bias f4 [32]
-0.0042896196 -0.0006001064 -0.0025681346 -0.0023848915 -0.004503571 0.008202029 0.0013853824 0.0007552734
0.004486937 -0.011326076 0.0022596011 -0.007398496 0.006582223 -0.0035714044 -0.0025698505 -0.0075684856
-0.008017704 -0.0012616541 0.0027433038 -0.0014580691 -0.0056173056 -0.0028128894 -0.004978775 -0.0023735191
-0.0060708923 -0.0018243913 0.010187055 -0.0042363764 -0.00059003656 -0.0021616397 -0.0003586869 0.0023795841
00000000: f08f 8cbb 7550 1dba 264e 28bb d74b 1cbb
00000010: b192 93bb ce61 063c b895 b53a 8afd 453a
00000020: 2807 933b 0291 39bc d115 143b 156f f2bb
00000030: b0af d73b 390e 6abb f06a 28bb 0f01 f8bb
00000040: b05c 03bc 165e a5ba 00c9 333b ae1c bfba
00000050: 6011 b8bb 7458 38bb fe24 a3bb 0b8d 1bbb
00000060: 56ee c6bb 6a20 efba 9be7 263c 4dd1 8abb
00000070: afac 1aba 4caa 0dbb 240e bcb9 ccf2 1b3b

base.4.running_mean f4 [32]
0.028302843 0.16225798 0.085316055 -0.029705057 -0.009059294 -0.029939732 0.021512527 0.016462704
0.103038095 -0.0057933065 0.14320296 -0.06349602 -0.05458 0.011894511 -0.10405436 0.13929833
0.21048343 0.106442876 0.009654316 -0.13173626 -0.10854261 -0.07832081 0.054458003 0.07177476
0.12155041 0.019154653 -0.101326786 -0.12049746 -0.07604789 0.115877435 -0.10350492 0.060511734
00000000: 5ddb e73c f526 263e 2fba ae3d 0558 f3bc
00000010: 6f6d 14bc 2b44 f5bc 0a3b b03c cbdc 863c
00000020: a305 d33d c7d5 bdbb cca3 123e 340a 82bd
00000030: 478f 5fbd 32e1 423c 741a d5bd 39a4 0e3e
00000040: f888 573e b9fe d93d 232d 1e3c dfe5 06be
00000050: 974b debd a966 a0bd 5b0f 5f3d a5fe 923d
00000060: 6cef f83d 38ea 9c3c 6b84 cfbd 5fc7 f6bd
00000070: ffbe 9bbd 2651 ed3d 63fa d3bd 27db 773d

base.4.running_var f4 [32]
0.08775233 0.041548185 0.076621205 0.05887324 0.057229463 0.08116511 0.03000524 0.10282326
0.03805557 0.055143286 0.03607193 0.069566816 0.050209023 0.04214877 0.050753772 0.13923897
0.05482914 0.034222722 0.047323216 0.05407205 0.071343444 0.0962078 0.06261509 0.05092138
0.03118086 0.05021441 0.11879368 0.03959175 0.05745405 0.045798287 0.11001903 0.13043326
00000000: 7eb7 b33d 6e2e 2a3d 94eb 9c3d 1125 713d
00000010: 7169 6a3d e539 a63d 8dcd f53c 0095 d23d
00000020: 28e0 1b3d eddd 613d 29c0 133d 0c79 8e3d
00000030: faa7 4d3d 30a4 2c3d 30e3 4f3d a994 0e3e
00000040: 8594 603d 202d 0c3d fdd5 413d a77a 5d3d
00000050: 831c 923d 9808 c53d 573c 803d f092 503d
00000060: 016f ff3c a0ad 4d3d 1a4a f33d f52a 223d
00000070: f054 6b3d fc96 3b3d a851 e13d 4c90 053e

base.6.weight f4 [32, 32, 5, 5]
0.025898967 0.01935852 -0.0037548079 -0.0067111123 -0.02364293 -0.01090977 0.028428396 0.032793656
0.022324018 0.021979805 -0.014513199 0.0061397366 -0.02269853 -0.00031808543 -0.012055101 -0.0220742
0.03324977 0.0020238436 0.023513755 -0.00611587 0.019218871 0.0038898971 -0.018817397 -0.03176662
-0.03657127 -0.02404218 -0.00017495648 0.012541765 0.013249156 -0.019664621 0.014508141 0.0029446862
-0.01172308 -0.012076547 0.015247845 0.023867492 0.002470173 -0.03923041 -0.016151419 -0.005204435
-0.015753493 0.024886115 -0.033402648 -0.02575978 0.026259318 0.015231302 0.022862148 -0.01870488
0.013659756 0.015280236 -0.01017043 0.02824214 0.012537758 -0.0045734644 0.026857818 -0.018848954
-0.036155257 0.020506373 -0.025051182 0.011632149 -0.019565348 -0.0111762555 -0.0038894222 -0.015397249
0.02496214 0.0110741295 0.00037873103 0.0097168945 -0.01685047 -0.0027632508 -0.000281037 -0.011987355
-0.008889935 -0.019259114 0.013650237 -0.015760707 -0.031047065 -0.0132993385 0.009353241 -0.031390727
-0.025603576 0.018467937 -0.020979833 0.03558183 0.0059380713 0.017192379 -0.021507459 0.008378824
-0.008205604 0.017349318 -0.0015203711 0.011805839 -0.03764966 -0.0007936299 0.007577705 0.011703141
-0.0014121459 -0.007479668 -0.017843809 0.002642739 -0.010963681 0.03014175 -0.04729208 0.029361513
-0.025336327 -0.0055380748 0.004567696 0.012032093 0.03040486 -0.0035675378 -0.021324756 -0.021760866
0.0018655388 -0.01617431 -0.018203828 -0.018926522 0.0024749793 0.005943939 0.017304957 0.00073831744
0.004737213 0.009166507 0.0063228267 0.00047698227 0.0096388515 -0.012737635 0.0064931256 0.03754277
-0.016175278 0.010112288 -0.008270315 0.013483147 0.053752962 -0.0049513923 -0.027769886 0.00376192
0.0072454074 0.041180506 0.035136253 -0.0039107446 0.009402752 0.003176283 -0.00044699677 0.018386807
0.02780388 0.0016674411 0.025604857 -0.027942639 0.0019301669 0.0058045136 0.026928335 -0.0035209134
0.022269012 0.012071997 -0.01948397 0.01593862 0.0026205706 -0.041284725 -0.017315352 -0.033900615
0.01248838 0.002298202 0.003754206 -0.0029927348 -0.005163171 -0.012922215 0.012693643 0.0058849137
0.010062485 0.02899015 0.023524214 0.021848971 -0.03867426 -0.0017350772 0.016057761 -0.026876453
0.008171639 0.006291785 -0.026649328 0.041628573 -0.018604921 -0.019112539 0.008524629 -0.014551967
-0.013329228 -0.0050386777 0.015170259 0.019104112 -0.014449457 0.033683896 -0.03649707 -0.022236235
0.017540006 0.036875866 -0.025214922 0.015073426 0.0074579273 -0.009494988 0.02147194 0.01844499
-0.01719343 -0.022091849 0.0030316135 -0.00663807 -0.0198983 -0.018484881 -0.005689929 0.027150823
0.014404242 0.03461508 0.012569554 0.032500684 -0.015326801 -0.012989823 -0.005685854 -0.014566721
-0.013424486 -0.020313533 -0.005993711 0.037087306 -0.013876237 -0.011545309 0.017982103 0.02056079
0.03600572 -0.0066026947 0.031545687 -0.028270496 -0.02675999 -0.003199688 -0.019270804 0.0035764705
-0.017721893 0.030332243 0.020327168 -0.008759867 0.034233 0.018341107 0.014010192 0.028503105
0.018247014 -0.020830253 -0.010519168 0.024735272 0.033850167 0.021161234 -0.00015029107 -0.022057738
0.028204335 0.0120525 0.017534932 0.0054208846 -0.01984968 -0.0039783055 -0.032010134 -0.0021012018
00000000: 122a d43c c295 9e3c 3913 76bb e4e8 dbbb
00000010: d1ae c1bc e4be 32bc abe2 e83c a452 063d
00000020: dce0 b63c fe0e b43c c5c8 6dbc d82f c93b
00000030: 45f2 b9bc b4c4 a6b9 c282 45bc f4d4 b4bc
00000040: e930 083d 76a2 043b eb9f c03c a367 c8bb
00000050: e570 9d3c a5ed 7e3b f126 9abc b71d 02bd
00000060: c2cb 15bd 1bf4 c4bc 8674 37b9 fa7b 4d3c
00000070: fd12 593c b317 a1bc 8eb3 6d3c a3fb 403b
00000080: 2912 40bc b6dc 45bc 19d2 793c c285 c33c
00000090: a0e2 213b 11b0 20bd fb4f 84bc f789 aabb
000000a0: 780d 81bc f7dd cb3c 37d1 08bd 2d06 d3bc
000000b0: c81d d73c b68c 793c 6649 bb3c fa3a 99bc
000000c0: 2bcd 5f3c f459 7a3c e0a1 26bc 0f5c e73c
000000d0: 2b6b 4d3c 00dd 95bb ed04 dc3c 1f69 9abc
000000e0: 8917 14bd fbfc a73c 2338 cdbc c594 3e3c
000000f0: 8247 a0bc 9d1c 37bc ade5 7ebb be44 7cbc
00000100: 677d cc3c 4470 353c 6b90 c639 9c33 1f3c
00000110: ff09 8abc a817 35bb 2658 93b9 9c66 44bc
00000120: 17a7 11bc 4ac5 9dbc 3ea5 5f3c 991c 81bc
00000130: 6a56 febc 78e5 59bc 563e 193c 9093 00bd
00000140: 97be d1bc 124a 973c e6dd abbc 41be 113d
00000150: 2794 c23b 08d7 8c3c 6930 b0bc 5647 093c
00000160: cc70 06bc 2820 8e3c 3047 c7ba 476d 413c
00000170: 8836 1abd 9a0b 50ba 664e f83b 88be 3f3c
00000180: c117 b9ba 0118 f5bb 2e2d 92bc ce31 2d3b
00000190: 03a1 33bc d5eb f63c 57b5 41bd 8e87 f03c
000001a0: 218e cfbc bd78 b5bb 9cac 953b 4122 453c
000001b0: 9d13 f93c 5acd 69bb 41b1 aebc d843 b2bc
000001c0: 1885 f43a fd7f 84bc 3220 95bc cb0b 9bbc
000001d0: 4333 223b 60c5 c23b 20c3 8d3c a58b 413a
000001e0: 9f3a 9b3b 1e2f 163c b72f cf3b 7a13 fa39
000001f0: 46ec 1d3c 83b1 50bc 49c4 d43b 73c6 193d
00000200: 0482 84bc 03ae 253c 3780 07bc 6be8 5c3c
00000210: 112c 5c3d 4a3f a2bb ac7d e3bc 8b8a 763b
00000220: e26a ed3b e4ac 283d 08eb 0f3d b425 80bb
00000230: 000e 1a3c 3029 503b e45a eab9 ee9f 963c
00000240: f6c4 e33c 0a8e da3a 47c1 d13c f6e7 e4bc
00000250: a7fd fc3a ca33 be3b d098 dc3c 20bf 66bb
00000260: 816d b63c a0c9 453c d99c 9fbc b591 823c
00000270: e1bd 2b3b 2c1a 29bd edd8 8dbc 5fdb 0abd
00000280: 109c 4c3c 6e9d 163b 2009 763b c221 44bb
00000290: d12f a9bb b3b7 53bc fff8 4f3c 3cd6 c03b
000002a0: 1fdd 243c c07c ed3c dab5 c03c 9dfc b23c
000002b0: e768 1ebd 886b e3ba 918b 833c 022c dcbc
000002c0: 57e2 053c 512b ce3b b14f dabc b982 2a3d
000002d0: 5969 98bc e691 9cbc e3aa 0b3c 606b 6ebc
000002e0: d662 5abc 7e1b a5bb ae8c 783c 3a80 9c3c
000002f0: 6abd 6cbc 20f8 093d f47d 15bd c428 b6bc
00000300: 0fb0 8f3c 260b 173d 868f cebc 88f6 763c
00000310: a161 f43b de90 1bbc ece5 af3c f319 973c
00000320: 3cd9 8cbc f7f9 b4bc 09ae 463b 2b84 d9bb
00000330: c201 a3bc 9b6d 97bc 9572 babb 676b de3c
00000340: c5ff 6b3c 8bc8 0d3d 88f0 4d3c 701f 053d
00000350: 431d 7bbc 44d3 54bc 6650 babb 42a9 6ebc
00000360: 60f2 5bbc 9168 a6bc e466 c4bb dce8 173d
00000370: 2859 63bc 8928 3dbc 344f 933c 1a6f a83c
00000380: bc7a 133d 6b5b d8bb 0d36 013d 8797 e7bc
00000390: c437 dbbc dbb1 51bb cedd 9dbc 3863 6a3b
000003a0: 812d 91bc 537b f83c 2985 a63c 8c85 0fbc
000003b0: e737 0c3d 1740 963c 018b 653c 587f e93c
000003c0: c37a 953c 35a4 aabc 9758 2cbc a0a1 ca3c
000003d0: 79a6 0a3d 535a ad3c 7497 1db9 6eb2 b4bc
000003e0: c70c e73c d977 453c 6ba5 8f3c ada1 b13b
000003f0: cc9b a2bc 725c 82bb 0f1d 03bd 51b4 09bb

base.6.bias f4 [32]
8.13682e-06 -6.395069e-05 -4.89284e-05 5.14305e-06 3.958738e-06 2.6315009e-05 2.7297281e-05 2.3274717e-05
-2.2703673e-05 9.417114e-07 -4.278208e-05 1.5067673e-05 -2.0539064e-05 5.160329e-05 1.3959466e-06 -1.1621005e-06
-4.906129e-05 3.3623118e-07 2.491137e-05 -4.950317e-05 -3.0292329e-06 -3.923849e-05 -2.6535243e-05 6.201042e-05
-2.9594492e-05 1.49202015e-05 3.13291e-05 7.0721544e-05 3.0475969e-05 3.9591767e-05 1.0104816e-05 0.00014031137
00000000: 6083 0837 441d 86b8 7838 4db8 7792 ac36
00000010: 4dd5 8436 0dbf dc37 77fc e437 133e c337
00000020: c473 beb7 eac9 7c35 e970 33b8 2acb 7c37
00000030: 4e4b acb7 9c70 5838 5c5c bb35 78f9 9bb5
00000040: 29c7 4db8 4383 b434 c2f8 d037 a0a1 4fb8
00000050: d349 4bb6 0294 24b8 0098 deb7 970b 8238
00000060: b041 f8b7 c751 7a37 5d67 0338 5750 9438
00000070: a5a6 ff37 560f 2638 db87 2937 8c20 1339

base.7.weight f4 [32]
1.0446143 1.0246549 1.0455308 1.0474156 1.047185 1.0277889 1.0350944 1.0402299
1.0470887 1.0398022 1.0428329 1.0284404 1.0471563 1.0577319 1.0437071 1.0563327
1.026773 1.0278423 1.0506632 1.0410645 1.0372697 1.0429671 1.0471714 1.0432501
1.0561485 1.0370347 1.0668644 1.0507252 1.0366588 1.0395745 1.0541143 1.040335
00000000: ecb5 853f e427 833f f4d3 853f b711 863f
00000010: 280a 863f 968e 833f f97d 843f 4126 853f
00000020: 0107 863f 3d18 853f 8c7b 853f efa3 833f
00000030: 3809 863f c263 873f 3298 853f e935 873f
00000040: 4c6d 833f 5690 833f 227c 863f 9a41 853f
00000050: 41c5 843f f27f 853f b609 863f 3889 853f
00000060: e02f 873f 8ebd 843f 038f 883f 2a7e 863f
00000070: 3cb1 843f c710 853f 38ed 863f b329 853f

base.7.bias f4 [32]
0.019988226 0.021007026 0.015545687 0.025206486 0.017123593 0.0134081775 0.014393642 0.022635574
0.02279241 0.022205671 0.028104274 0.020994227 0.0231908 0.022412358 0.015335562 0.03682779
0.013396216 0.02314938 0.04323582 0.01652489 0.017764378 0.028588014 0.021188024 0.012627798
0.02781674 0.018437825 0.02293508 0.0118437875 0.0034730597 0.010676771 0.035486832 0.020830505
00000000: 59be a33c ed16 ac3c 56b3 7e3c d57d ce3c
00000010: c746 8c3c f9ad 5b3c 4fd3 6b3c 3d6e b93c
00000020: 26b7 ba3c abe8 b53c ef3a e63c 16fc ab3c
00000030: a2fa bd3c 1f9a b73c 0242 7b3c bdd8 163d
00000040: cd7b 5b3c c5a3 bd3c 0b18 313d 355f 873c
00000050: 9a86 913c 6931 ea3c 8292 ad3c d3e4 4e3c
00000060: efdf e33c ec0a 973c 59e2 bb3c 720c 423c
00000070: 469c 633b a0ed 2e3c a45a 113d bca4 aa3c

base.7.running_mean f4 [32]
0.0006826567 0.2512223 -0.077723436 0.24413018 0.22342302 0.027148105 0.18902 -0.09570687
0.12863769 0.11062805 0.15311328 -0.31182614 0.26745436 0.17912184 0.15833941 0.32507482
-0.16875091 0.030826138 0.19477712 -0.102684684 0.06406435 0.349628 -0.0596168 0.030022956
0.2416013 0.07015379 0.14022712 0.1746221 -0.017097063 0.023326205 0.06420359 -0.09706984
00000000: 51f4 323a 36a0 803e 772d 9fbd 43fd 793e
00000010: 01c9 643e b465 de3c 758e 413e f701 c4bd
00000020: 99b9 033e f690 e23d bac9 1c3e ada7 9fbe
00000030: c7ef 883e b76b 373e ba23 223e 3570 a63e
00000040: 0acd 2cbe 1987 fc3c a773 473e 594c d2bd
00000050: 2c34 833d 7102 b33e bf30 74bd b4f2 f53c
00000060: 5566 773e caac 8f3d b397 0f3e 23d0 323e
00000070: 240f 8cbc 9916 bf3c 2c7d 833d 8dcc c6bd

base.7.running_var f4 [32]
0.09202008 0.095020406 0.08317799 0.10554856 0.04532209 0.09195751 0.08910338 0.054471124
0.05698216 0.12647936 0.13611755 0.30791253 0.1205981 0.049407538 0.050542504 0.103438474
0.09742723 0.06484071 0.11810795 0.10826699 0.10567277 0.14420329 0.039390184 0.15738982
0.049777765 0.09827525 0.059946906 0.03744467 0.08712127 0.124640845 0.05675126 0.067172326
00000000: 0675 bc3d 0f9a c23d 3959 aa3d d829 d83d
00000010: a8a3 393d 3854 bc3d d57b b63d 1d1d 5f3d
00000020: 2066 693d ce83 013e 6662 0b3e b6a6 9d3e
00000030: 23fc f63d 8f5f 4a3d a805 4f3d 8dd7 d33d
00000040: ed87 c73d 35cb 843d 95e2 f13d 15bb dd3d
00000050: f76a d83d 07aa 133e 9a57 213d cc2a 213e
00000060: c5e3 4b3d 8944 c93d e38a 753d 955f 193d
00000070: a36c b23d b343 ff3d 0274 683d a591 893d

head.0.weight f4 [24, 1024]
0.016487204 0.015112948 0.013414342 0.011995439 0.0037569054 0.00014327906 0.0033428883 -0.019850044
0.0056030424 -0.0248992 0.004765616 0.0047933287 0.014550493 0.016055726 0.017340962 0.016998675
0.03535704 0.02384259 -0.011795286 0.004116769 0.005283113 0.032292277 -0.0036197114 0.022615168
-0.028206328 -0.009166311 -0.032976706 0.006822556 0.005397164 0.029902175 0.021844845 -0.00789998
0.0028251105 -0.0008097595 -0.0013493829 -0.0033829208 -0.00832532 0.007668654 0.0051722997 0.026255716
0.035340946 -0.005875374 0.03515661 0.0038820913 0.0030105065 0.0024003515 0.0029552302 0.002918009
0.031598907 0.01929199 -0.014574663 0.026711145 0.025029361 -0.015771821 -0.0058300723 -0.005974742
0.01790704 -0.037880994 -0.0209185 0.02710742 0.027265731 0.02446744 -0.015899094 -0.020998074
0.0033045458 -0.03883075 -0.0069890358 -0.032800063 -0.024685964 -0.03710846 0.010065009 0.021322746
0.0062506176 -0.021307666 -0.019196017 -0.013897018 -0.039608557 -0.026744384 -0.004045924 -0.039671246
-5.3333e-41 -9.632085e-05 0.00010836336 -0.001233994 -0.0028077103 -0.0047408734 0.027669605 0.0026155526
0.0015317483 -0.011865473 -0.020370683 -0.0030713514 0.0003103575 -8.759711e-05 6.760329e-09 -5.3333e-41
0.01679096 0.0064907814 -0.015339933 0.00051893736 0.018979024 -0.0023785525 0.0044652973 0.03800854
0.044665284 0.02146301 -0.002052297 -0.013347999 -0.01097416 -0.0031097305 -0.016166342 -0.01952654
-0.0040423553 -0.005533887 -0.004086724 -0.0028913307 -0.015305672 0.005036695 -0.028762268 -0.01742112
0.0051852935 -0.025934324 -0.00892604 -0.0010377498 0.0010960633 -0.0027803637 -0.0020335699 -0.002322306
0.000921885 0.0009292886 0.00072900427 0.00218405 -0.016850812 0.019923558 0.00974296 0.001239323
0.0056770765 0.033263005 -0.012613759 0.01991145 0.00038895293 0.0010198739 0.0011646209 0.000921885
-0.033425927 0.004153904 -0.03395909 -0.03928219 -0.01071921 -0.015419349 -0.021808188 0.029181039
0.0032745234 0.014929781 0.0052067963 -0.014660552 -0.0127814915 -0.0070310156 -0.048508804 -0.0362917
0.02727054 0.0072054244 0.053007834 0.051769346 0.03587941 0.035894744 0.018715383 0.010085501
0.009801152 0.012709532 0.032087334 -0.008029973 0.0433966 0.029369913 -0.0027442009 0.05350633
-6.0657e-41 -3.9653e-41 -5.8266218e-05 5.375224e-05 0.0034470903 0.025800249 0.007524116 -0.011466258
-0.009319794 -0.024490273 -0.024363574 0.0064350455 0.00022863597 0.00028500767 -2.8492848e-05 -3.3411424e-26
-7.420146e-05 6.8876047e-06 7.5154094e-05 -0.00010072544 0.00023765699 -0.0013213133 0.022707481 0.029228296
-0.050576463 0.023059249 0.019033037 0.0016728995 0.0001606405 0.00039950712 -0.00011739559 -7.5349926e-05
-0.0054189162 0.01176808 -0.013617001 0.007150171 0.022762023 0.038969442 0.0037302752 0.004709212
-0.004512647 0.004060194 0.021177195 0.012106722 -0.025881741 -0.027136143 -0.025173735 0.005574851
0.0020255356 -0.03279392 -0.021775892 0.018753733 -0.004305405 0.034209874 0.030483687 0.03815052
0.033870198 -0.0049854927 -0.0038479727 -0.0056079496 -0.0070300293 0.016701281 -0.017479718 -0.036287017
0.0013189754 -0.00037577853 -0.0028520776 -0.005072792 0.008908052 0.000599631 0.008536389 -0.021203691
-0.024912575 0.0009787063 -0.015256553 -0.03003891 0.0081972815 -0.0024798336 0.0006286808 0.0012519149
00000000: 2c10 873c 4c9c 773c d4c7 5b3c 8588 443c
00000010: 6a36 763b 2e3d 1639 5c14 5b3b 8f9c a2bc
00000020: ba99 b73b 68f9 cbbc e228 9c3b 5b11 9d3b
00000030: 3165 6e3c 4c87 833c a20e 8e3c ce40 8b3c
00000040: 8bd2 103d 8951 c33c 0441 41bc f6e5 863b
00000050: f71d ad3b e844 043d ae38 6dbb 7243 b93c
00000060: f510 e7bc 4b2e 16bc 9512 07bd bf8f df3b
00000070: b1da b03b 68f5 f43c f6f3 b23c eb6e 01bc
00000080: 7d25 393b 0a46 54ba c7dd b0ba feb3 5dbb
00000090: ec66 08bc 5549 fb3b 657c a93b 3a16 d73c
000000a0: abc1 103d 3686 c0bb 6100 103d af6a 7e3b
000000b0: eb4b 453b 374f 1d3b 89ac 413b 113c 3f3b
000000c0: db6d 013d 3c0a 9e3c 91ca 6ebc 55d1 da3c
000000d0: 600a cd3c e833 81bc 310a bfbb c5c7 c3bb
000000e0: c9b1 923c 1a29 1bbd 465d abbc 6110 de3c
000000f0: 625c df3c f16f c83c d13e 82bc 2704 acbc
00000100: 1491 583b fe0c 1fbd 4804 e5bb 5c59 06bd
00000110: 383a cabc 0aff 17bd b5e7 243c 0aad ae3c
00000120: fbd1 cc3b 6a8d aebc f740 9dbc 51b0 63bc
00000130: 953c 22bd 0a17 dbbc ac93 84bb 517e 22bd
00000140: ac94 0080 ddff c9b8 2341 e338 f8bd a1ba
00000150: 9001 38bb 5459 9bbb 5eab e23c b169 2b3b
00000160: f2c4 c83a 6767 42bc 6be0 a6bc ba48 49bb
00000170: 7bb7 a239 57b4 b7b8 7c48 e831 ac94 0080
00000180: 328d 893c 9fb0 d43b 5854 7bbc 4c09 083a
00000190: e679 9b3c 7de1 1bbb a151 923b d8ae 1b3d
000001a0: f2f2 363d 32d3 af3c d47f 06bb 91b1 5abc
000001b0: f7cc 33bc 9fcc 4bbb 476f 84bc 1ff6 9fbc
000001c0: bc75 84bb 9c55 b5bb ede9 85bb 7b7c 3dbb
000001d0: a4c4 7abc dc0a a53b d99e ebbc bdb6 8ebc
000001e0: 65e9 a93b 3874 d4bc 863e 12bc 1b05 88ba
000001f0: c8a9 8f3a c336 36bb a445 05bb d431 18bb
00000200: a8aa 713a 819b 733a a61a 3f3a 4722 0f3b
00000210: b70a 8abc bb36 a33c f0a0 1f3c c870 a23a
00000220: c506 ba3b ca3e 083d f1a9 4ebc 561d a33c
00000230: 61ec cb39 4aad 853a 31a6 983a a8aa 713a
00000240: a0e9 08bd 791d 883b b018 0bbd 5de6 20bd
00000250: a09f 2fbc 70a1 7cbc 16a7 b2bc 130d ef3c
00000260: 6399 563b 0a9c 743c c69d aa3b d032 70bc
00000270: 7669 51bc 6f64 e6bb 2bb1 46bd 9ba6 14bd
00000280: 7866 df3c 7b1b ec3b be1e 593d 180c 543d
00000290: 4af6 123d 5e06 133d 0151 993c a83d 253c
000002a0: 0395 203c a43b 503c 026e 033d 2690 03bc
000002b0: a2c0 313d 2c99 f03c 0dd8 33bb 7429 5b3d
000002c0: 16a9 0080 896e 0080 e062 74b8 0774 6138
000002d0: 94e8 613b 0b5b d33c dc8c f63b f9dc 3bbc
000002e0: 0db2 18bc d39f c8bc 1e96 c7bc 13dd d23b
000002f0: 00be 6f39 156d 9539 ed03 efb7 0372 2595
00000300: 9b9c 9bb8 131c e736 0c9c 9d38 8f3c d3b8
00000310: 9033 7939 eb2f adba 0a05 ba3c 2e70 ef3c
00000320: 4429 4fbd c0e6 bc3c 2ceb 9b3c 3145 db3a
00000330: 9b71 2839 f074 d139 4732 f6b8 2f05 9eb8
00000340: 2a91 b1bb e8ce 403c d719 5fbc fb4b ea3b
00000350: 6c77 ba3c 6c9e 1f3d a277 743b bc4f 9a3b
00000360: d4de 93bb 600b 853b cc7b ad3c 465b 463c
00000370: f205 d4bc 9e4c debc 2639 cebc 3dad b63b
00000380: d9be 043b eb52 06bd 5b63 b2bc 6ea1 993c
00000390: 5b14 8dbb a71f 0c3d edb8 f93c b843 1c3d
000003a0: 7abb 0a3d 585d a3bb 452e 7cbb e4c2 b7bb
000003b0: 295c e6bb 20d1 883c a031 8fbc b2a1 14bd
000003c0: 78e1 ac3a 2404 c5b9 ece9 3abb aa39 a6bb
000003d0: 14f3 113c 8e30 1d3a 36dc 0b3c 5db3 adbc
000003e0: 7515 ccbc ef47 803a 9ff6 79bc 2914 f6bc
000003f0: e44d 063c b484 22bb 0ece 243a 4b17 a43a

head.0.bias f4 [24]
0.025212068 0.0131340325 0.0049858587 -0.017754462 -0.020132333 -0.0114897555 -0.006191205 -0.005135596
0.031941555 0.004681002 0.022559853 0.024340058 0.0012781072 0.024858657 -0.010711076 -2.790029e-05
-0.003590319 0.03216196 0.021492327 0.0148899285 -0.00041612078 -0.01747062 0.008995783 -0.009584658
00000000: 8a89 ce3c 2030 573c 6a60 a33b ce71 91bc
00000010: 90ec a4bc 873f 3cbc 97df cabb 8048 a8bb
00000020: 26d5 023d 1763 993b 71cf b83c cd64 c73c
00000030: 2986 a73a 62a4 cb3c 827d 2fbc 6b0b eab7
00000040: 8f4b 6bbb 42bc 033d ad10 b03c e3f4 733c
00000050: c92a dab9 8c1e 8fbc 0c63 133c f808 1dbc

head.2.weight f4 [2, 24]
-0.1519372 0.25942028 -0.009729505 0.09845308 -0.049318362 -0.11937158 0.004195304 0.012773464
-0.2015703 0.20022838 -0.123298936 -0.24299847 -0.035505604 0.2052151 -0.11350238 0.20336723
0.100387305 0.19311525 0.15794834 0.22783734 0.07317373 0.14868309 -0.076718636 0.15607052
0.13904381 -0.13460493 0.11246799 -0.11184723 0.16666095 -0.25017428 -0.17893077 -0.13437994
0.19469866 -0.22314693 0.15598534 0.20677054 0.035505604 0.015416956 0.14263467 0.08627718
-0.06060936 0.0066643306 -0.22552104 0.027994627 0.16356139 -0.03676858 0.21276335 -0.046657003
00000000: 6d95 1bbe bcd2 843e 8068 1fbc c5a1 c93d
00000010: 0d02 4abd 1679 f4bd c378 893b cb47 513c
00000020: 7268 4ebe ab08 4d3e 2784 fcbd 97d4 78be
00000030: 536e 11bd e823 523e f073 e8bd 803f 503e
00000040: dc97 cd3d 01c0 453e 36bd 213e 314e 693e
00000050: 1cdc 953d 6140 183e a91e 9dbd f3d0 1f3e
00000060: 8061 0e3e e0d5 09be 9e55 e63d 2910 e5bd
00000070: 2ba9 2a3e d816 80be a139 37be e59a 09be
00000080: 165f 473e a180 64be 9fba 1f3e a8bb 533e
00000090: 536e 113d 6697 7c3c d30e 123e 17b2 b03d
000000a0: 8541 78bd 7560 da3b fdee 66be fd54 e53c
000000b0: a37c 273e a79a 16bd a3de 593e 6a1b 3fbd

head.2.bias f4 [2]
0.13819057 -0.034370005
00000000: d481 0d3e 90c7 0cbd
