models/AC-RM-2 Q_LR=0.001 P_LR=5e-06 BATCH_SIZE=128 GAMMA=0.99 MEMORY_SIZE=150000 BETA=0.05_policy_4016.pt (torch, 319747 bytes, 22 tensors)

base.0.weight f4 [32, 2, 5, 5]
000000 9a 6b b4 3d e7 c1 e1 bb 8b 63 f7 3d 32 f7 b9 3d
       0.08809586 -0.00688957 0.12079533 0.09080352
000010 d9 f2 c1 bd 96 dc 25 bc 8d 2b ab 3d 69 fd 11 be
       -0.09470148 -0.010123393 0.08357916 -0.14256825
000020 ff 1a 01 be 49 20 6a bd b6 05 de 3d d1 1c 88 3d
       -0.12607954 -0.057159696 0.10840933 0.06646121
000030 80 d2 07 be ea ce 6f bd 91 bb 53 bd 2a e9 a8 3c
       -0.13263893 -0.058546938 -0.05169255 0.020618994
000040 c6 c5 cf 3b fb e4 cd 3d 12 ae be bd c2 d1 7e bd
       0.006340715 0.1005344 -0.09310545 -0.06221176
000050 c5 5f cf 3b 70 91 8e bc a8 cc 4f bd d8 c1 c2 bd
       0.0063285553 -0.017403334 -0.050732285 -0.09509629
000060 a5 23 12 ba 82 fe a2 bc a2 a5 fa 3d 2e e5 03 3e
       -0.00055747695 -0.01989675 0.12238623 0.12880394
000070 7c 26 8a 3d f7 f4 c2 3d 85 5f f5 bc db c2 9c 3d
       0.067456216 0.095193796 -0.029952774 0.07654353
000080 f8 74 db bd 69 04 87 bd ea bf f8 bd 6d d3 9b 3d
       -0.107156694 -0.06592638 -0.1214598 0.07608686
000090 66 5f 94 bd b3 53 f2 3b eb 61 ee bd cf 7a 82 3d
       -0.07244758 0.0073952316 -0.1163977 0.0637108
0000a0 1e c1 2a 3d ac 9f 83 3d ad 73 f9 3d 52 a1 79 3d
       0.041688077 0.06426939 0.121802665 0.060944863
0000b0 5c 41 a9 3b 7a 27 70 3d 07 47 96 bc b0 87 bc 3c
       0.005165262 0.058631398 -0.018344415 0.02301392
0000c0 d2 b7 8a bc f8 7f ed bd 77 5c 7b bd 3f 79 55 bd
       -0.016933355 -0.11596674 -0.06136748 -0.052117582
0000d0 0d 16 e8 bd b4 ff 00 3e 47 48 7c bd 6e 31 9d bd
       -0.11332331 0.12597543 -0.061592367 -0.076754436
0000e0 2a 45 93 3c af 93 2e 3c cf 4b 55 bc 83 a7 b1 3d
       0.017977316 0.010655328 -0.013018562 0.086745284
0000f0 86 53 a8 3c 1e b5 a3 3d 32 57 01 be ea 7a 2d bd
       0.02054764 0.0799353 -0.12630919 -0.042353548
000100 75 e6 fb bd 6e dc 7d 3c fb 9c ae bd 14 49 c5 3c
       -0.122998156 0.015494449 -0.085260354 0.024082698
000110 4b bc 87 3d 88 69 eb 3d 31 eb c5 bb ac fb a5 bd
       0.06627711 0.11494738 -0.00604 -0.08104643
000120 a3 13 15 be 70 a0 94 3d 79 23 00 be 86 eb 01 bd
       -0.14558272 0.072571635 -0.12513532 -0.031718753
000130 0e f9 b9 bc 3d fc 1b bc 24 ad ac bd 93 e0 18 be
       -0.022701766 -0.0095205875 -0.084314615 -0.14929418
000140 b4 56 94 3d 98 52 10 3e 06 0e 94 3d 3f de d3 3d
       0.072431 0.14094007 0.07229237 0.103451245
000150 35 9c ad 3d f2 7e 85 3d a2 0a 9c bc a6 26 6c 3b
       0.0847706 0.065183535 -0.019048039 0.0036033778
000160 6d 96 ab 3c 05 6f 84 3d 73 0c 39 3c 01 76 ad 3b
       0.020945752 0.06466488 0.011294472 0.005293608
000170 4d 1d ce bc 89 02 41 bd de 09 4c bd 1d 85 f8 bd
       -0.025160456 -0.04712156 -0.049814098 -0.12134764
000180 04 ba d2 3d e7 51 f9 3d b8 76 6d 3d a8 ac b4 3d
       0.10289386 0.12173825 0.057974547 0.08821994
000190 04 22 5a bd a6 97 f5 3c 0c ea 82 bd 1b 5b 6d bb
       -0.053255096 0.029979538 -0.06392297 -0.0036217633
0001a0 02 5b 4c 3d 91 a5 fd 3c 5c e7 6d 3d 6b 71 ca bc
       0.04989148 0.030962737 0.05808197 -0.024712285
0001b0 c3 50 70 bc 23 74 f7 bc 72 f5 97 3d 4c 53 51 3a
       -0.014667693 -0.030206745 0.07419862 0.00079851295
0001c0 84 fd 28 3d f4 48 fb bd 66 7b eb 3d ab cb 02 3e
       0.041257396 -0.12269774 0.11498146 0.12773006
0001d0 4e 53 90 3d 30 88 d2 3d b0 be d5 3d 01 29 e3 3d
       0.07047139 0.10279882 0.104367614 0.11091805
0001e0 3d 2b a6 bd a6 89 56 3d 43 e5 07 3d 4b c5 8a 3d
       -0.08113716 0.052377366 0.033177625 0.06775912
0001f0 bd 62 ef 3d 3a 40 11 bd 0a 5b 71 3d 00 31 ba 3d
       0.11688755 -0.03546164 0.058924712 0.09091377
000200 c3 9a 0a bd 32 cc 3b bc f8 02 52 bd d5 cb 31 bd
       -0.033839 -0.011462258 -0.051272362 -0.04340728
000210 9b 3c 9b bd b2 40 cb bd 00 b5 f6 bd 9f e4 da ba
       -0.07579919 -0.09924449 -0.12046242 -0.0016700214
000220 7a 9e 8d 3d 5d 19 68 3d 99 1c 17 bd c4 8e 80 3c
       0.06914993 0.056664813 -0.036892507 0.015693076
000230 87 9e 2e bd 80 8d f8 bc 3b d1 25 bd 1c e5 26 bd
       -0.042631652 -0.03034091 -0.04048274 -0.04074584
000240 83 48 55 3d a1 36 74 3d 55 02 69 bd ac 10 e3 3d
       0.052071106 0.05962241 -0.05688699 0.11087164
000250 61 75 87 3d 89 6b e4 3d 62 bf d0 3c 11 eb ca 3d
       0.06614185 0.11153323 0.025481883 0.099081166
000260 b0 e5 de 3c 45 66 bc 3d 40 bf 85 bd 56 cd fb 3d
       0.027209133 0.09199194 -0.06530619 0.12295024
000270 b1 af a2 3c a1 54 ff 3d 1e c0 0c bd 9b f9 c5 bd
       0.019859167 0.124673136 -0.034362905 -0.09666749
000280 75 c4 e6 bd c2 9d 10 bd 57 b2 25 bd 59 a4 a6 3d
       -0.1126794 -0.0353067 -0.04045328 0.081368156
000290 5c af d9 3d 60 76 f9 3c 3a 85 a8 bd 05 4e ce 3d
       0.1062915 0.030451953 -0.08228536 0.10073475
0002a0 59 fb ec bd 75 f0 f1 bd 48 67 b2 bd 3d 45 cc 3d
       -0.11571378 -0.11813442 -0.087111056 0.09974144
0002b0 10 3a 50 bd 50 af a2 3d 94 71 af 3d 93 d8 fe bc
       -0.050836623 0.079435945 0.08566585 -0.03110913
0002c0 a5 26 ff 3d 4e 37 28 bd 0e 91 8a bc f5 d5 07 3d
       0.12458543 -0.041068368 -0.01691487 0.03316303
0002d0 2b c5 9e bd 24 5a eb 3d 39 77 e2 bc dd 27 36 3d
       -0.077524506 0.11491802 -0.02764474 0.04447161
0002e0 9c d7 c8 3c db 50 ba bd 75 9e 83 3d 32 87 05 bd
       0.024516873 -0.09097453 0.06426708 -0.032599635
0002f0 07 ec 03 be f6 b6 9c bd b6 2f db 3d 57 94 fe bc
       -0.12883006 -0.076520845 0.107024595 -0.031076593
000300 d4 f3 34 bd 83 17 d4 bd 7f 1b cc bd cb 93 06 be
       -0.044177845 -0.10356047 -0.09966182 -0.13142316
000310 9d 77 04 3e 24 2a a7 bd 71 4c 0e bd 48 1c b2 bd
       0.12936254 -0.081623346 -0.03474087 -0.086968005
000320 d9 4d 0b bd 13 9e 03 3e 06 c5 e1 bd 57 cc c3 3d
       -0.03400979 0.1285327 -0.11023907 0.09560459
000330 bc 07 f1 3d 5f 5c a5 3c b4 fc 16 bd 0c ba 08 be
       0.11769053 0.020185648 -0.03686209 -0.13352221
000340 81 84 27 3d 3a ca 84 3d 4f 14 92 bd 09 ec 88 bc
       0.04089785 0.06483884 -0.0713278 -0.016714113
000350 a6 19 a3 3d f5 0c 63 bc 5a 64 92 bd 3e e8 b2 bd
       0.079638764 -0.01385807 -0.07148047 -0.08735703
000360 6e 4d 39 3d 56 40 67 3d 92 78 06 be 94 a4 c5 bc
       0.04523986 0.05645784 -0.13131931 -0.024126329
000370 1b ff a0 3d f5 b6 7f bd c7 57 3f 3d f2 1d c5 3d
       0.078611575 -0.06243034 0.04671457 0.09624852
000380 90 23 d2 bd 1d c6 de bd 84 dd 0f be f9 87 1a 3d
       -0.10260689 -0.10877631 -0.14049345 0.03772733
000390 9e 54 ef bc ee d3 15 bd 00 6d f6 3d 27 48 e7 bd
       -0.029215153 -0.036579065 0.12032509 -0.11293059
0003a0 68 37 0a 3e 33 78 f3 bd cf 8d 11 be a8 ce 8f bd
       0.13497698 -0.118881606 -0.14214252 -0.070218384
0003b0 02 37 9b 3d 37 2e b6 3d 9a 63 51 bd 8e 62 f2 3d
       0.07578851 0.088955335 -0.051120378 0.11835204
0003c0 61 7a 10 be 84 94 dc bb 35 6d 5c 3d e2 ef a3 3d
       -0.14109184 -0.0067315716 0.053815085 0.080047384
0003d0 1d 35 b4 bd 73 a7 a1 bb 66 9b a2 bd 78 22 e6 3d
       -0.08799193 -0.0049332916 -0.07939796 0.11237043
0003e0 33 25 85 bd d8 cb af bd a5 49 02 be 8b 59 0c 3e
       -0.06501236 -0.08583802 -0.12723406 0.13706033
0003f0 44 2f c1 3c 29 49 9c bd c3 3b 6a 3d 49 72 12 bc
       0.023582108 -0.07631142 0.0571859 -0.0089383805

base.0.bias f4 [32]
000000 27 11 00 b8 d2 f0 ab 39 5f 1b 1d b8 56 a0 25 b9
       -3.0533552e-05 0.00032795087 -3.745721e-05 -0.00015795356
000010 57 7e 43 39 69 b9 be b8 51 5e 62 b9 e5 74 88 39
       0.00018643714 -9.094441e-05 -0.00021588175 0.00026027035
000020 78 67 1d 39 91 e8 52 b9 42 79 d8 b8 7f 1c a6 b8
       0.00015011232 -0.00020113798 -0.00010322269 -7.920805e-05
000030 98 2d aa b7 db 09 8f b8 b1 0a 8e b9 3e 2c 80 b9
       -2.028681e-05 -6.820607e-05 -0.00027092316 -0.00024447025
000040 30 08 60 39 fd d9 c5 39 24 df 68 39 c4 4a 2d b9
       0.00021365355 0.00037737182 0.0002220837 -0.00016526418
000050 84 61 4d b9 17 8c 46 b8 46 b6 ae 39 ce d6 bf 38
       -0.00019586651 -4.7337347e-05 0.0003332367 9.1476e-05
000060 d6 ca c0 38 ba dc 3b 39 d1 79 55 b9 46 1f 52 b8
       9.1930546e-05 0.00017915937 -0.00020358643 -5.0097027e-05
000070 5d d7 03 38 c7 bd 27 39 57 ea 00 38 e4 67 f0 39
       3.1433407e-05 0.00015997059 3.0735824e-05 0.00045853772

base.1.weight f4 [32]
000000 21 ab 7c 3f 35 2b 81 3f 7c 64 7e 3f 4a cc 7f 3f
       0.9869862 1.0091311 0.99372077 0.99921095
000010 f9 c3 7c 3f 34 3f 7d 3f 76 90 80 3f af b0 80 3f
       0.9873653 0.98924565 1.0044086 1.005392
000020 49 8f 7d 3f ec 75 81 3f 33 f3 7e 3f 81 1e 80 3f
       0.9904676 1.0114112 0.9958984 1.0009309
000030 69 5e 7a 3f 47 02 7d 3f f4 f2 81 3f 6f d2 7d 3f
       0.9780031 0.988316 1.0152268 0.9914922
000040 16 eb 80 3f ee d6 83 3f e4 81 7e 3f 0c 22 80 3f
       1.0071743 1.0299966 0.9941695 1.001039
000050 c6 0d 7f 3f f3 3f 7d 3f be 9d 80 3f 60 a2 7b 3f
       0.9963039 0.98925704 1.0048139 0.9829464
000060 42 6a 7e 3f bf ec 7c 3f d1 1d 7f 3f b6 0c 7b 3f
       0.99380887 0.98798746 0.9965487 0.9806627
000070 d8 e2 80 3f 14 4c 7e 3f e0 88 82 3f 07 53 81 3f
       1.0069227 0.99334836 1.0198021 1.0103463

base.1.bias f4 [32]
000000 6b 63 12 bc 9b 8b ba 3b ef 2c a6 3b fa cc 5b 3b
       -0.008934836 0.005692912 0.0050712745 0.0033538924
000010 94 b2 bf 38 75 c4 1e ba cc b0 45 3b b8 cd a7 bb
       9.1408525e-05 -0.0006056496 0.0030165194 -0.005120959
000020 46 33 ad bb 5a 53 80 3c e3 fc d7 3b d2 81 a8 3b
       -0.0052856533 0.015664745 0.0065914257 0.005142429
000030 43 a1 77 bc f1 96 68 bb 0d f7 a8 3b 00 fc 82 3b
       -0.015114131 -0.0035490359 0.005156404 0.003997326
000040 f9 17 e3 3b 3c cc 70 ba 0f 4f 36 bc 27 3d da 3b
       0.006930348 -0.0009185707 -0.0111272475 0.006660122
000050 7a d7 95 bb 7c 73 e4 3a 10 85 09 bb 51 83 31 bc
       -0.004572806 0.0017429437 -0.0020983852 -0.010834531
000060 6a c7 a8 bb 3e 99 07 bc 05 0f 82 3b d9 dd 95 bc
       -0.005150725 -0.008276282 0.0039690756 -0.018294262
000070 87 30 29 3c c6 de 85 bb 5e b2 a2 3b 8a df 74 3b
       0.010326511 -0.0040853946 0.0049651107 0.0037364685

base.1.running_mean f4 [32]
000000 46 fa c2 3c 5f a6 c8 bc bd f5 3d 3f 4e 7d 6a be
       0.02380098 -0.024493394 0.7420309 -0.22899362
000010 13 ea f0 be 16 a1 28 bf a6 fd 3d be 31 82 72 3e
       -0.47053584 -0.658708 -0.1855379 0.23682477
000020 53 13 93 3f c3 c7 1a 3e a8 0f a4 3e bf c0 e1 bd
       1.1490272 0.15115266 0.32043195 -0.110230915
000030 82 45 72 bf 4e 78 88 bd 54 08 66 bc ba 13 84 3e
       -0.9463731 -0.06663571 -0.0140400715 0.257963
000040 56 24 17 3e 85 0a 3d 3e 33 fa 9e be fb 35 a2 3e
       0.14759955 0.18461044 -0.31050262 0.3168181
000050 96 54 f7 3d c9 83 5b 3f c0 dd c9 bd de 9f 83 be
       0.1207668 0.85747963 -0.098567486 -0.25707906
000060 7a 4f ec be 94 12 e0 bd 26 50 55 3e e2 ec fd be
       -0.46154386 -0.109410435 0.20831355 -0.4959479
000070 2b e7 97 3d f8 ba 30 3f 46 0a a3 bd f4 d3 ac 3d
       0.07417139 0.6903529 -0.07960944 0.08438864

base.1.running_var f4 [32]
000000 f0 37 72 3b 65 39 11 3a 71 c6 1c 3c 0f 55 48 3b
       0.003695961 0.00055398635 0.0095687965 0.0030568277
000010 13 e8 38 3b 75 ed a2 3b c8 71 f5 3a 76 b6 8f 3a
       0.00282145 0.0049721547 0.0018725926 0.0010964412
000020 9f fe 5d 3c 75 8e 1f 3a c6 7e 32 3b 1b b6 e5 3a
       0.013549476 0.00060865964 0.0027236207 0.0017525585
000030 c3 ef 26 3c b2 b5 2d 3a 29 20 14 39 8e 07 19 3b
       0.010189 0.0006626501 0.0001412636 0.002335045
000040 aa 8e 19 3a f9 44 32 3a 20 38 05 3b 18 b2 9e 3a
       0.00058577454 0.0006800439 0.0020327643 0.001210752
000050 a9 76 12 3a 76 e5 21 3c c7 a6 1d 3a 8a 76 f7 3a
       0.000558714 0.009881368 0.00060139265 0.0018879932
000060 cd 78 44 3b d8 81 37 3a d9 46 c2 3a 32 a5 97 3b
       0.002997923 0.0007000244 0.001482214 0.004627847
000070 33 62 54 3a c5 71 a1 3b ff 96 87 3a 46 0d c2 3a
       0.0008101791 0.0049268925 0.0010344683 0.0014804981

base.3.weight f4 [32, 32, 5, 5]
000000 99 13 a2 bb b8 03 86 3c 6e 35 40 bd 7c d2 0c bb
       -0.004946184 0.016359195 -0.046925955 -0.0021487763
000010 85 55 b1 3c 1a 9a c9 3b 99 29 b6 bc a3 fc c4 ba
       0.021647224 0.0061524035 -0.022236632 -0.0015028905
000020 89 92 61 bc 0a 32 b3 3c f4 dd 95 3c d6 b5 44 3c
       -0.013767847 0.021874446 0.018294312 0.012006244
000030 61 51 0c bd d5 51 8e 3c b6 43 98 bc 19 53 73 bb
       -0.034257296 0.017373005 -0.018586975 -0.0037128387
000040 13 f2 f0 3c 4e b6 54 3c 94 31 6a bc c3 c5 ca bc
       0.029412305 0.012982918 -0.014294047 -0.024752503
000050 c0 ba a6 bb 63 e2 ce 3c 32 fe a5 bb ff 29 f5 3b
       -0.0050881803 0.025254434 -0.005065703 0.007481813
000060 67 09 f3 3c 18 7e 70 bc c6 55 f5 bc d9 65 d7 3c
       0.02966757 -0.014678501 -0.029948127 0.026293682
000070 73 25 1d bd fa bb 48 3c 04 c6 2a 3c 98 22 05 bd
       -0.038365792 0.012251848 0.010423187 -0.032503694
000080 b9 5b 7a 3c 7a ac ee 3c 19 e1 a8 3c 08 71 e7 bc
       0.015280657 0.029134978 0.020615147 -0.02825214
000090 d0 8f c9 3c 17 60 33 3b 93 41 88 ba 5a dd 6a bc
       0.024604708 0.0027370506 -0.0010395519 -0.014335001
0000a0 ff bf 03 bd 5d af 9f bc 87 ba 86 3b bd d5 b2 3c
       -0.032165524 -0.0194928 0.0041115913 0.021830434
0000b0 37 d4 d9 bc 60 eb 99 bc 61 fd c2 3c 9d 20 d2 bc
       -0.02659045 -0.018788993 0.023802461 -0.025650317
0000c0 75 50 be 3c 6d 97 d6 bc 01 c8 e9 3c ac 00 7e bc
       0.023231724 -0.026195252 0.028537752 -0.01550309
0000d0 67 33 e1 bb 28 cc 62 bc a6 9f e8 bc 74 66 e4 bc
       -0.0068725827 -0.01384262 -0.028396439 -0.027880885
0000e0 ab 12 55 3b 2f 9e ce 3c 58 c9 22 bc 64 a6 cd 3b
       0.0032512348 0.025221912 -0.009935699 0.006275939
0000f0 5e 28 98 bc 97 ec fa 3b f0 52 08 3d 6e 03 04 3d
       -0.018573936 0.0076575982 0.03328222 0.032229833
000100 0a 85 8d 3c 23 40 bb bb 33 c6 6e bb 29 3e 0e bc
       0.017275352 -0.005714433 -0.0036434054 -0.008681812
000110 b6 02 b4 bc 89 cc 15 bd 35 60 9a 3b 06 27 0b 3c
       -0.021973949 -0.036572013 0.004711176 0.008493191
000120 39 0b 36 bb 06 e5 a0 bb ca bc 6f 3c e0 5b 99 bc
       -0.0027777685 -0.004910114 0.014632413 -0.018720567
000130 a6 d9 95 bc fa 3c c0 3c 86 d2 0e bc 44 9d d4 3c
       -0.01829226 0.023466576 -0.008717185 0.025953896
000140 d7 65 8c 3a 71 17 12 bd 7b 2e 03 bd da 8d 47 bc
       0.0010711503 -0.035666887 -0.03202675 -0.012179816
000150 f9 18 fe bc ff 11 8e bb 3c ae a7 bc 0d 16 7b 3c
       -0.031017767 -0.0043356414 -0.020468824 0.015325082
000160 a0 7c 07 bd db a7 ae bc 36 1e 74 bb d1 ed f0 bc
       -0.033077836 -0.021320274 -0.0037249452 -0.029410275
000170 9c eb ec bc 9e d3 00 3d c1 db 80 3c b9 da f2 bc
       -0.028920941 0.031451814 0.015729787 -0.02964531
000180 c7 83 0c 3a 01 61 8a bc 3e 1a 1d 3c 0d 8d b8 3c
       0.00053602125 -0.016891958 0.009588776 0.022528196
000190 01 66 fb 3c 69 b1 b1 bb 0e 50 c0 3b 96 5f e8 3c
       0.030688288 -0.0054227603 0.0058689183 0.028365891
0001a0 b3 34 6e bc ab be b8 3b 7e bc df 3c 7a 24 6d 3c
       -0.014538932 0.005637964 0.02731156 0.014474029
0001b0 40 e4 0f 3d 88 e1 19 bc 43 75 12 3b f5 5f 88 ba
       0.035129786 -0.00939215 0.0022347725 -0.0010404574
0001c0 32 a3 94 bb eb 98 ff ba 17 3e c4 3c 9e c2 06 bd
       -0.004536056 -0.0019500529 0.023955388 -0.032900445
0001d0 cc d6 dd bc ec e6 08 3c 66 64 9d 3c 37 49 bf bc
       -0.027079962 0.008355837 0.019212913 -0.023350341
0001e0 05 3d f4 3c 27 cb fe 3c f8 0a c7 3b 3b 1f 74 3b
       0.029814253 0.03110273 0.0060743056 0.003725006
0001f0 c1 b1 46 3c 03 ed 1f bc b5 b0 9c bb 3a 88 da bc
       0.012127341 -0.009761098 -0.0047818073 -0.026676286
000200 f0 cb 05 bc b5 1a 8a bc 45 b5 bb 3a 57 fb 21 3b
       -0.008166298 -0.016858438 0.001432099 0.002471646
000210 df f3 f6 3c 60 8e bd bc 32 77 5a 3c f3 6d 8d 3c
       0.030145584 -0.023139179 0.013334082 0.017264342
000220 20 fd 45 3b a9 11 57 3c 29 24 cc bc c8 24 ee bc
       0.0030210689 0.013126769 -0.024919586 -0.029070273
000230 76 13 89 3c d6 4b 21 3c 4b a5 33 bc 80 c3 4b 3c
       0.016732913 0.009844741 -0.010964702 0.012436748
000240 11 7b 94 3b f2 22 6c 3c 0b 49 81 3b 8d 93 f6 bc
       0.004531272 0.0144126285 0.003945475 -0.030099655
000250 02 dd 15 bb b1 71 84 bc 27 8b be 3c 98 d2 b4 bc
       -0.0022867327 -0.016167494 0.023259712 -0.022073075
000260 e8 e1 f6 bc 01 18 05 3b c1 df 90 3b a4 3e 19 bd
       -0.030137017 0.0020308497 0.004421205 -0.037413254
000270 4e 77 07 3d 74 bb b7 3c cd ed 3f 3b 49 77 e3 bc
       0.033072762 0.022428252 0.0029286027 -0.02776684
000280 a4 73 98 3c 78 a0 96 bc 00 a8 f8 bc 9f 26 a3 3b
       0.01860983 -0.018387064 -0.030353546 0.004978969
000290 11 d0 52 3b 5a ef 43 bb 00 b7 bd ba 93 c3 1d bc
       0.0032167474 -0.0029897303 -0.0014474094 -0.009629148
0002a0 2c 0b 7d ba f3 0c 06 bd c2 5b 7a bc 2c cf 39 bb
       -0.0009652849 -0.032727193 -0.015280666 -0.0028352244
0002b0 2f 16 2b 3c 83 72 a8 3c fe ff 13 bc cb ac e0 3c
       0.010442301 0.020562416 -0.009033201 0.027426144
0002c0 86 af 8a 3c 53 ab f2 bb 1e 06 07 3d 64 b0 46 3c
       0.0169294 -0.0074056773 0.03296482 0.012127016
0002d0 74 48 cf bc 95 35 be bb f3 f0 94 bb 60 70 bf 3c
       -0.025303103 -0.0058047273 -0.004545325 0.023369014
0002e0 5c 72 1d 3b fb c2 ad 3c 8e b3 6a 3c 30 33 2c bc
       0.0024024462 0.021211138 0.014325036 -0.010510251
0002f0 5a 0e 3a 3c 94 46 72 3c 48 ea 03 bc 51 46 43 3c
       0.011355961 0.014787335 -0.0080514625 0.01191862
000300 ae 26 0a bc 34 3b d4 3b fd a3 8c 3c 01 b7 5a 3c
       -0.0084320735 0.006476784 0.01716804 0.013349296
000310 3e 29 d0 3b 0a 73 bb 3c 10 83 0c bd ac f9 4e bc
       0.0063525727 0.022882003 -0.03430468 -0.012632769
000320 3a df 18 3d 0c a5 c6 3c 7a 78 b8 3c 40 f1 ca 3c
       0.03732226 0.024248622 0.022518385 0.02477324
000330 ee 4e 02 3b 8a 6c 1e bc 41 28 86 3b a3 e2 f7 3c
       0.0019883472 -0.009669432 0.004094154 0.030259436
000340 9d 81 a5 bb 31 3b 8c 3c a8 b1 d9 bc ed 08 f5 bc
       -0.0050508515 0.017118068 -0.02657397 -0.029911483
000350 60 d2 d2 bc f9 e5 62 bc e1 e0 2b bc 9a 0e 9c 3c
       -0.02573508 -0.013848775 -0.010490627 0.019049931
000360 a5 ef 2f bc ae b7 98 3c 60 0d ad 3b 71 a7 91 3c
       -0.010738288 0.018642273 0.0052811354 0.017780038
000370 45 e9 76 3c 81 74 f6 3c 5e a5 11 3c a4 19 54 3c
       0.015070264 0.03008485 0.008889524 0.012945566
000380 0b 70 00 bd 41 d4 42 bc 86 c3 0d 3c 84 7f 88 bc
       -0.031356853 -0.011891426 0.008652573 -0.016662367
000390 77 c9 b1 bc af f3 40 3c e0 1a 08 3d 78 e3 dd 3c
       -0.021702511 0.011776849 0.033228755 0.027086005
0003a0 35 0b 9c bc d4 62 6c 3c 0b 6b 8b 3c 7e 2b 93 bc
       -0.019048313 0.014427859 0.017018816 -0.017965075
0003b0 cd 69 5a bc 11 e1 f9 3b a8 bf 13 3d 42 ff 08 3c
       -0.013330889 0.007625707 0.03607145 0.008361639
0003c0 90 a6 e9 3b 1e 27 f5 3c ad 7e ea 39 03 60 a9 3a
       0.0071304515 0.02992588 0.0004472634 0.001292229
0003d0 ca fb 14 3d 17 1e 15 3d 09 d5 a1 bb 68 6a 0f 3d
       0.036372937 0.03640565 -0.004938726 0.035013586
0003e0 9c 31 36 3d c9 3a 13 bc a2 d9 f2 bc 47 de 8c bc
       0.044480905 -0.008986183 -0.029644791 -0.017195834
0003f0 3d 7f 05 3d cb 62 a4 3c 76 13 85 bc 9b b5 27 bc
       0.032592047 0.02006664 -0.016244631 -0.010236169

base.3.bias f4 [32]
000000 ff b4 d1 b7 16 aa 2e b8 e5 50 50 b7 7f 04 44 37
       -2.4999024e-05 -4.1643238e-05 -1.2416601e-05 1.1683557e-05
000010 4b 62 e6 36 70 38 cb b5 f9 fc 03 33 5e be c8 38
       6.865977e-06 -1.5141104e-06 3.073089e-08 9.572202e-05
000020 b9 a5 53 b8 3f 19 a6 b8 b5 b7 84 b7 7d 42 2a 38
       -5.046066e-05 -7.920199e-05 -1.5821171e-05 4.059308e-05
000030 62 2f 97 37 5d 0a 9f b8 de 3c 0a 38 e1 4b ba 37
       1.8022667e-05 -7.583641e-05 3.295845e-05 2.2208262e-05
000040 4e a2 c6 b7 37 ec 04 b8 b0 5f 0d 37 7e 40 3b 37
       -2.3679018e-05 -3.1691245e-05 8.426534e-06 1.1161084e-05
000050 c0 d8 3b 38 45 e6 fe b7 46 3c 19 b7 38 7e 70 b8
       4.478614e-05 -3.0386387e-05 -9.133544e-06 -5.733801e-05
000060 75 85 2b 38 9d 6e a0 b7 54 49 52 37 de 3c c2 b7
       4.089387e-05 -1.9124995e-05 1.2534048e-05 -2.3154946e-05
000070 8c 84 7e 38 52 d4 cd b7 29 df 80 b8 3a 84 73 38
       6.0681763e-05 -2.4536774e-05 -6.1450824e-05 5.805886e-05

base.4.weight f4 [32]
000000 4b 66 7d 3f 43 c3 80 3f 94 91 7e 3f 73 28 80 3f
       0.9898421 1.0059589 0.99440885 1.0012344
000010 7e 78 7f 3f 99 dc 80 3f 2f a4 80 3f fc 29 7f 3f
       0.9979323 1.0067321 1.0050105 0.9967344
000020 85 e4 7d 3f 6b 6b 80 3f ab e2 80 3f 65 6a 80 3f
       0.9917682 1.0032781 1.0069174 1.0032469
000030 11 ac 80 3f ec 4a 7e 3f 0c ac 7e 3f eb 26 7f 3f
       1.005251 0.9933307 0.9948127 0.9966876
000040 04 ee 7d 3f fe 06 7f 3f 23 7b 80 3f a6 a6 7d 3f
       0.9919131 0.99620044 1.0037578 0.9908241
000050 a6 6e 7d 3f 59 7b 80 3f 46 4c 80 3f 0b 77 80 3f
       0.9899696 1.0037643 1.0023277 1.0036329
000060 02 c9 7b 3f 9c 78 80 3f b2 f0 7f 3f 43 c0 80 3f
       0.9835359 1.0036807 0.99976647 1.0058674
000070 02 2e 80 3f 42 dd 7f 3f db 1c 7d 3f bc f5 7e 3f
       1.001404 0.9994699 0.98872155 0.9959371

base.4.bias f4 [32]
000000 75 6d b7 bb 9c a3 32 bb c0 18 7a bb 6c f3 71 bb
       -0.005597765 -0.0027258163 -0.0038161725 -0.0036918772
000010 02 88 d3 bb e0 c9 08 3c eb 12 38 3a f3 59 35 39
       -0.0064554224 0.008348912 0.0007021862 0.00017295014
000020 30 88 87 3b e0 53 45 bc c7 ee 2c 3b 83 45 eb bb
       0.004136108 -0.012043923 0.002638744 -0.0071799173
000030 60 1a c6 3b 92 39 ab bb 2e 13 12 bb a9 7e fd bb
       0.0060456246 -0.005225369 -0.0022289264 -0.0077360463
000040 7d 2b 00 bc 38 69 db b9 b5 56 84 3b d2 b4 55 ba
       -0.007822868 -0.0004184933 0.0040386566 -0.00081522495
000050 77 f2 84 bb b6 4e 41 bb af c7 b9 bb f4 8e ec ba
       -0.0040572244 -0.0029496378 -0.005669556 -0.0018047974
000060 8c 0d e1 bb aa 88 8f bb e9 c2 19 3c ce 67 a6 bb
       -0.00686807 -0.0043803053 0.009384849 -0.0050782925
000070 5f be 53 ba af 43 9c b9 4e 8d e2 b9 ec f7 12 ba
       -0.0008077379 -0.00029805067 -0.0004321136 -0.0005606401

base.4.running_mean f4 [32]
000000 ec 37 79 3c a9 98 36 3e 74 83 f1 3d 95 50 60 bd
       0.015211087 0.17831673 0.11792651 -0.05476435
000010 bc c0 ed 3b 7d 63 e3 bc 4b 4d 52 bc dd 89 87 3c
       0.0072556417 -0.0277574 -0.012835811 0.01654523
000020 ff f4 b7 3d 88 63 8f bb 62 14 07 3e a3 9a e4 bc
       0.08982276 -0.0043758787 0.13191369 -0.027905768
000030 6b 65 71 bd 48 aa 80 3b 96 be fe bd e1 a2 2c 3e
       -0.05893461 0.003926549 -0.12438695 0.16859008
000040 b5 44 51 3e 4c 9e 0d 3e 06 ec 27 3d 6a e5 ed bd
       0.20436366 0.13829917 0.040996574 -0.11616023
000050 4d e1 f0 bd b8 bc 23 3b 9b 03 56 3d a2 ad 03 3e
       -0.11761723 0.0024984311 0.052249532 0.12859204
000060 ca 56 09 3e ef 94 53 3c 5e 37 ed bd c8 03 86 bd
       0.13412014 0.0129139265 -0.11582826 -0.0654369
000070 d2 05 cb bd bd c0 05 3e ba 1b 15 be 9e e0 3b 3e
       -0.099132195 0.13061805 -0.14561358 0.18347403

base.4.running_var f4 [32]
000000 83 23 cb 3d 70 fe 7e 3d 11 41 9d 3d 9e 23 93 3d
       0.09918883 0.06225437 0.07678426 0.07184528
000010 50 ae 97 3d 80 8a b8 3d 19 3a eb 3c 13 5a ab 3d
       0.07406294 0.09010792 0.028714227 0.0836679
000020 ac d1 b8 3d bf a6 1d 3d 0d 2f f8 3c 5f 3b 61 3d
       0.09024367 0.0384891 0.030295873 0.05498826
000030 94 16 0e 3d 24 e5 96 3d fd aa c2 3d 41 7a d5 3d
       0.0346895 0.07367924 0.0950527 0.10423709
000040 13 fa a4 3d 15 60 12 3d bb 4d e8 3c 5d b6 8c 3d
       0.0805551 0.035736162 0.028357377 0.068707205
000050 ac 91 e2 3d 61 ec 16 3d 02 97 44 3d 4d e4 84 3d
       0.11062941 0.036846522 0.047995575 0.064888574
000060 8e 31 39 3d 62 85 50 3d 24 e7 c3 3d f4 59 e1 3c
       0.045213275 0.050908454 0.09565571 0.027508713
000070 e4 77 8d 3d 9e 3c 84 3d 46 25 3a 3e 0f 40 f8 3d
       0.06907633 0.06456874 0.18178281 0.12121593

base.6.weight f4 [32, 32, 5, 5]
000000 3f 02 e5 3c ef e6 a4 3c dd 3e 24 bb 3d 8a fd bb
       0.027955173 0.020129649 -0.0025061883 -0.0077374266
000010 2f 8f c6 bc 72 6a 18 bc c2 20 ec 3c c2 65 10 3d
       -0.024238197 -0.009302722 0.028824214 0.035253294
000020 bf 50 b0 3c a2 58 b6 3c ed 62 60 bc 9b d0 e2 3b
       0.021522878 0.02225906 -0.013695461 0.0069218404
000030 8e cc a8 bc 4d b0 1a ba 68 02 38 bc 88 93 a8 bc
       -0.020605352 -0.00059009047 -0.011231042 -0.02057816
000040 94 b0 0a 3d 45 4a 49 3b b3 1a bb 3c 46 80 92 bb
       0.033859804 0.0030714434 0.02283988 -0.004470858
000050 a0 3a a3 3c 88 cc bd 3b 35 af 94 bc 23 11 01 bd
       0.019925416 0.0057922043 -0.018149951 -0.031510483
000060 9a e8 1a bd 04 b0 ba bc 96 53 b2 ba 35 ed 6e 3c
       -0.037819482 -0.022789009 -0.0013605233 0.014582922
000070 e2 1e 8d 3c dd 1f 98 bc b2 74 3a 3c 9b e4 9f 3b
       0.01722664 -0.018569881 0.011380361 0.004879547
000080 e3 e4 46 bc af 31 0c bc 8e 83 81 3c 47 82 a7 3c
       -0.012139532 -0.008556767 0.0158098 0.020447863
000090 1d dd 9c 3b e6 ae 1f bd 97 1e 5a bc 81 2d ac bb
       0.004787101 -0.038985156 -0.013312957 -0.005254448
0000a0 58 30 79 bc bd b6 ec 3c c1 a4 0a bd 7c 70 ca bc
       -0.01520928 0.02889573 -0.033848528 -0.02471184
0000b0 5d f5 ce 3c 6c 7c 74 3c 4a e4 d7 3c 42 b1 90 bc
       0.025263483 0.014922243 0.026353974 -0.017662648
0000c0 19 2b 79 3c e2 18 51 3c 69 df 28 bc 6d f6 e8 3c
       0.015208029 0.01276228 -0.010307171 0.028437817
0000d0 e7 04 57 3c 2f 80 14 bb 7d a6 e4 3c 84 34 9a bc
       0.013123727 -0.0022659411 0.027911419 -0.01882387
0000e0 6e 6c 14 bd 6b 45 aa 3c 80 05 ba bc e8 cf 37 3c
       -0.03623622 0.020785054 -0.0227077 0.011219002
0000f0 23 d5 a7 bc 59 a4 36 bc 55 68 9e bb 3f 94 5b bc
       -0.020487374 -0.011147582 -0.0048342147 -0.013402044
000100 b2 9a c5 3c d2 11 38 3c b1 dc 00 3b 05 71 12 3c
       0.024121616 0.011234717 0.0019662792 0.008938079
000110 db 71 77 bc 1b c5 8b bb 34 ea 9d ba f7 d4 55 bc
       -0.015102829 -0.00426544 -0.0012047947 -0.013051263
000120 cf 5d 1b bc 25 fc a5 bc 83 38 61 3c 9b 33 a3 bc
       -0.009482815 -0.020261833 0.013746384 -0.019922068
000130 4b fd fa bc a3 a1 37 bc 6d 62 f4 3b 60 3f 10 bd
       -0.030638358 -0.011207971 0.0074580223 -0.03521669
000140 12 6c d6 bc 2a ec 91 3c 73 8a 9e bc bf 78 0c 3d
       -0.026174579 0.017812807 -0.019353127 0.03429484
000150 61 7c 12 3b ac 41 8a 3c 73 c6 a9 bc 63 21 15 3c
       0.0022351968 0.016877018 -0.02072451 0.009102198
000160 32 5d 22 bc 56 e2 64 3c 18 b5 c7 ba f6 d3 30 3c
       -0.009909915 0.013969978 -0.0015236465 0.010792723
000170 c7 b1 1f bd f6 9e 10 b9 53 5e e4 3b 4e 22 5b 3c
       -0.0389879 -0.00013792128 0.006969252 0.013374878
000180 53 47 10 bb b5 e9 28 bc a5 a7 7d bc f1 24 2a 3b
       -0.0022015169 -0.010309626 -0.015481864 0.002596196
000190 a8 e1 28 bc bc 86 f2 3c ba c1 3c bd 30 9c 01 3d
       -0.010307707 0.029605262 -0.04608319 0.031643093
0001a0 d1 d3 d4 bc 4a c0 9b bb 9f 9c 90 3b b9 d2 39 3c
       -0.025979908 -0.0047531473 0.004413202 0.011341744
0001b0 60 f1 f8 3c c5 b3 b1 bb f2 f9 a4 bc 94 fb ac bc
       0.030388534 -0.0054230415 -0.020138714 -0.021116056
0001c0 45 d1 72 3a 06 b5 85 bc d6 bc 9a bc d0 45 93 bc
       0.0009262751 -0.01632167 -0.018888872 -0.017977625
0001d0 e2 bd 84 3b d9 fb 96 3b bc 26 8b 3c 4f 94 31 ba
       0.004050956 0.0046076593 0.016986243 -0.0006774114
0001e0 96 7f 45 3b 68 48 43 3c 37 8d 9b 3b be fa 83 b8
       0.0030135862 0.011919118 0.0047470587 -6.293271e-05
0001f0 89 28 12 3c da 68 59 bc 15 48 f9 3b ff 43 1a 3d
       0.008920797 -0.0132696275 0.00760747 0.037662502
000200 9a b4 97 bc 3e d7 20 3c 0e b1 15 bc b2 5f 8b 3c
       -0.018518735 0.009816943 -0.009136451 0.017013405
000210 8c 1d 59 3d ad b8 c8 bb 43 60 e5 bc 01 44 3d 3b
       0.053006694 -0.0061255307 -0.028000003 0.0028879645
000220 64 64 35 3c d3 54 2a 3d 87 99 0b 3d d4 5e 96 bb
       0.011071298 0.0415848 0.034081962 -0.004588941
000230 22 f9 22 3c 88 bc 95 3b 9f 40 75 ba ad 20 9a 3c
       0.009947093 0.004569594 -0.00093556376 0.01881441
000240 99 4d d9 3c 08 5c 04 3a 2a bc c5 3c bc 82 06 bd
       0.02652626 0.0005049114 0.024137575 -0.03283952
000250 5c f0 f1 ba 1f 60 3d 3b 0e 10 d2 3c 2c 9e c2 bb
       -0.0018458473 0.0028896404 0.025642421 -0.0059392657
000260 d1 7a b0 3c c2 7f 3d 3c f9 fd b5 bc 6e 9c 6a 3c
       0.021542938 0.011566104 -0.02221583 0.014319522
000270 6b ab 59 3a 5f 01 2f bd 76 51 a6 bc 03 0c 1b bd
       0.00083034363 -0.042725917 -0.020302515 -0.037853252
000280 98 76 3a 3c fd 53 cf b8 60 d0 68 3b 48 50 b8 bb
       0.011380814 -9.886173e-05 0.0035524592 -0.0056248046
000290 9c 3c dc bb e4 f5 3d bc d5 4c 6c 3c 38 d3 f2 3b
       -0.0067210924 -0.011594269 0.014422615 0.007410433
0002a0 47 d3 24 3c 52 b6 e8 3c f7 46 c1 3c 32 71 c2 3c
       0.010060138 0.02840725 0.023593409 0.023735616
0002b0 b4 ad 1a bd d2 8b 8c ba ff 72 7d 3c e9 f9 e8 bc
       -0.037763312 -0.0010722822 0.015469312 -0.028439479
0002c0 ab 12 2e 3c ff ab 15 3c a0 b5 af bc 3b 33 30 3d
       0.010624568 0.009135245 -0.02144891 0.043017607
0002d0 57 3e a3 bc 3b 4a 8c bc 11 67 2e 3c cc 3f 66 bc
       -0.019927187 -0.01712524 0.01064469 -0.014053296
0002e0 95 d5 51 bc 92 5a b5 bb d6 02 82 3c b4 f4 a6 3c
       -0.01280727 -0.0055344785 0.015870493 0.020380355
0002f0 4e e1 6e bc 5e 9c 0c 3d 62 07 11 bd 5f 0a a9 bc
       -0.014580084 0.03432881 -0.03540743 -0.020634828
000300 e0 db 95 3c a9 c7 13 3d a2 d4 d8 bc 2d 14 65 3c
       0.018293321 0.036079083 -0.026468579 0.013981861
000310 62 2e f9 3b e2 24 22 bc 74 1a a0 3c 31 bc 92 3c
       0.007604406 -0.009896489 0.019543864 0.017912002
000320 83 7f a0 bc 17 23 aa bc 38 0a 8c 3b 54 e3 9c bb
       -0.019592052 -0.020768685 0.004273679 -0.004787842
000330 23 fc a1 bc 74 0f 92 bc 4b 83 a5 bb 70 7d e8 3c
       -0.019773548 -0.017829634 -0.0050510517 0.028380126
000340 20 f2 91 3c f9 95 1f 3d 17 ee 70 3c 0c 5c 03 3d
       0.01781565 0.038961384 0.014705203 0.032070205
000350 d9 a2 64 bc 8f dc 30 bc 06 e3 3a bb 6c 68 3f bc
       -0.0139548415 -0.010794773 -0.0028516664 -0.011682611
000360 f3 4d 61 bc 2c 24 99 bc 59 15 ac bb 4b 82 23 3d
       -0.013751495 -0.018694006 -0.0052515683 0.03991918
000370 a3 7e 49 bc df 95 4f bc 40 34 9a 3c 4d af c2 3c
       -0.012298259 -0.012670009 0.018823743 0.02376523
000380 b7 5e 17 3d 30 ec 0c bc 8d b4 04 3d 07 2d d9 bc
       0.03695556 -0.008601233 0.03239875 -0.026510729
000390 7f 86 d3 bc 02 86 60 bb 73 20 a3 bc 34 b5 b1 3b
       -0.025820969 -0.0034259562 -0.019912934 0.0054232124
0003a0 ee 15 8b bc 5a 87 11 3d 17 96 ad 3c c2 d9 21 bc
       -0.01697823 0.035529472 0.021189732 -0.009878578
0003b0 2c b1 10 3d 01 43 97 3c b6 86 94 3c 5b 89 f3 3c
       0.035325214 0.018464567 0.018130641 0.029728582
0003c0 82 8f 99 3c cd cb a5 bc 14 93 14 bc 2f e6 d6 3c
       0.018745188 -0.020238781 -0.009068269 0.026232807
0003d0 c1 94 15 3d 27 61 b7 3c 3a 9d b1 3a d7 82 c2 bc
       0.036518816 0.022385193 0.0013550885 -0.02374403
0003e0 11 4a ef 3c 3b 6e 3e 3c b9 62 9e 3c bd 83 82 3a
       0.029210122 0.011622961 0.019334184 0.0009957474
0003f0 30 9a 92 bc 36 df aa bb cb 96 0d bd 3f 3d 6c 3a
       -0.017895788 -0.005214597 -0.034567636 0.0009011812

base.6.bias f4 [32]
000000 08 1f 33 b7 b3 cd eb b7 68 7e 6a 38 c7 6e 87 b7
       -1.0676456e-05 -2.810997e-05 5.5907673e-05 -1.6144839e-05
000010 72 e7 53 b7 be 34 27 38 c8 66 1d b6 30 9e 68 b8
       -1.2630468e-05 3.9865023e-05 -2.345465e-06 -5.5460434e-05
000020 16 5b e0 b6 ec 85 3a b6 61 f4 0c 38 a0 57 6d b8
       -6.686324e-06 -2.7794113e-06 3.3606197e-05 -5.658681e-05
000030 e0 40 8e b7 4e 0f 86 b8 43 1d 56 35 9c 8b 26 36
       -1.6957929e-05 -6.392469e-05 7.9763794e-07 2.481719e-06
000040 f3 7a 4e b7 02 82 3d 37 03 82 aa b7 26 70 1a 35
       -1.2307183e-05 1.1295548e-05 -2.032612e-05 5.753267e-07
000050 e3 44 93 37 15 bb a8 36 9e 5a c8 b8 15 3f d7 37
       1.7555843e-05 5.0285694e-06 -9.553622e-05 2.5659372e-05
000060 4c d6 07 b7 be 8a 14 b7 5d 7f e7 b6 50 15 26 b7
       -8.096522e-06 -8.853791e-06 -6.8991635e-06 -9.899333e-06
000070 76 bc 40 b6 c6 6d 8d 36 0c b2 92 b7 29 da 63 b8
       -2.8719928e-06 4.2149068e-06 -1.7487466e-05 -5.4324195e-05

base.7.weight f4 [32]
000000 81 12 86 3f 80 f8 83 3f 28 33 86 3f f2 c2 86 3f
       1.0474397 1.0310211 1.0484362 1.0528243
000010 3b 64 86 3f b4 c7 83 3f 24 2b 84 3f 17 4c 85 3f
       1.0499338 1.029532 1.0325665 1.0413846
000020 db 71 86 3f 1c e2 84 3f 84 e0 85 3f eb a3 83 3f
       1.0503496 1.0381503 1.0459142 1.0284399
000030 f8 4c 86 3f c0 42 88 3f 49 da 85 3f 2f a8 87 3f
       1.0492239 1.064537 1.045724 1.05982
000040 4f 70 83 3f 81 68 83 3f c4 5d 87 3f 0f 65 85 3f
       1.0268649 1.0266267 1.057549 1.0421466
000050 3a ee 84 3f c5 1d 86 3f 25 ab 86 3f 95 83 85 3f
       1.0385201 1.0477835 1.0520979 1.0430781
000060 65 55 88 3f be b6 84 3f 9a 2a 89 3f da 72 86 3f
       1.065106 1.0368268 1.0716126 1.05038
000070 f8 ce 84 3f a9 3f 85 3f 0d 87 87 3f d6 52 85 3f
       1.0375662 1.0410053 1.0588089 1.0415905

base.7.bias f4 [32]
000000 e3 d1 ab 3c 00 30 c7 3c d4 ec 81 3c 74 ad e6 3c
       0.020974105 0.02431488 0.015859999 0.02815888
000010 49 67 87 3c d4 d5 76 3c 83 5e 61 3c bc f3 b8 3c
       0.016528742 0.015065629 0.0137554435 0.02257716
000020 43 50 b5 3c 4e d0 a5 3c 4f a9 ea 3c 8d 27 ab 3c
       0.022132998 0.020240929 0.028645186 0.020892883
000030 c3 99 ca 3c c2 f5 cb 3c d6 f9 84 3c 65 be 28 3d
       0.024731522 0.02489746 0.016232412 0.0411972
000040 7a 34 5f 3c af c4 be 3c 4b bf 38 3d 1d d8 90 3c
       0.013623351 0.023287145 0.045104306 0.017681176
000050 4d 46 88 3c 1e ef f3 3c 37 7d c1 3c 23 e3 5d 3c
       0.016635085 0.029777106 0.023619277 0.013542923
000060 f2 c1 f5 3c 63 f3 99 3c 71 34 b1 3c 29 63 48 3c
       0.029999707 0.018792814 0.021631451 0.012230673
000070 8a c7 a7 3b bc 6a 2b 3c 79 91 19 3d 65 e6 be 3c
       0.0051202225 0.010462459 0.03749225 0.02330322

base.7.running_mean f4 [32]
000000 29 90 69 3d 6b d8 80 3e 46 86 ad 3d cc f4 84 3e
       0.057022247 0.25165114 0.08472876 0.25968015
000010 a7 03 d5 3e c0 ed 19 be 2a 98 0c 3e cc 69 c6 bd
       0.4160435 -0.150321 0.13729921 -0.09688148
000020 98 20 c5 3d a1 12 5e bd cc 98 58 3e da ca 5f be
       0.096253574 -0.054216985 0.21152037 -0.21854725
000030 cf 86 57 3e 4b b0 5c 3e d6 ac 86 3e 3e 86 e6 3e
       0.21047519 0.21551625 0.26303738 0.45024294
000040 e2 6a 9f be 40 04 83 3c d4 62 54 3e 0e a1 fb bd
       -0.31136233 0.015993237 0.20740825 -0.12286578
000050 29 79 8e 3c 5c c6 93 3e 4a a3 84 3d b9 9c b6 3c
       0.017391758 0.28862274 0.064764574 0.022291528
000060 77 55 6e 3e 29 55 2d 3e 40 99 d6 3d 53 fa 50 3e
       0.2327479 0.16927017 0.10478449 0.20407991
000070 5c cb cc bd bc 30 64 3e 30 0d e0 3d 20 60 38 be
       -0.09999725 0.22284216 0.10940015 -0.18005419

base.7.running_var f4 [32]
000000 c1 69 bc 3d b9 01 09 3e 3e 0a 6f 3e 79 66 f1 3d
       0.091998585 0.13379563 0.23343751 0.11787123
000010 4d 5f ad 3e eb f0 52 3e c4 68 db 3d 73 e7 bc 3d
       0.3386177 0.20599715 0.10713342 0.09223833
000020 64 25 15 3e 6b cb 86 3e 9a 8e 0c 3e c4 b6 74 3e
       0.14565045 0.2632707 0.13726273 0.23897845
000030 12 37 4c 3e 70 fd 1d 3e 76 c4 9a 3e 8a 65 93 3e
       0.19942883 0.1542871 0.30228013 0.28788406
000040 db 42 a3 3e 10 ed 0e 3e 6a 7e 16 3e 8c b4 78 3e
       0.31886944 0.1395762 0.1469666 0.24287623
000050 6b 74 08 3e 2b aa 26 3e 29 cf 85 3d a3 eb 7c 3e
       0.1332566 0.16275851 0.06533653 0.24699263
000060 83 ed 0d 3e 24 e2 94 3d 3b 4c b5 3d 48 54 8d 3d
       0.13860135 0.072696954 0.088524304 0.06900841
000070 8d e5 b6 3d 49 e6 36 3e 5a e0 25 3e a4 13 2b 3e
       0.08930502 0.17861284 0.16198865 0.16706711

head.0.weight f4 [24, 1024]
000000 63 38 9a 3c 91 b4 8b 3c fa 7b 77 3c e5 4a 56 3c
       0.018825715 0.017053874 0.015105242 0.01307938
000010 fc 86 3a 3b 3c 91 b9 ba 82 53 ae 3b d7 39 92 bc
       0.0028461805 -0.0014157663 0.0053200135 -0.017849846
000020 5d d4 41 3b 2a a7 ca bc 32 73 96 3a 05 d2 4d 3b
       0.0029576041 -0.024737913 0.0011478423 0.00314057
000030 48 92 89 3c cd 73 8c 3c 7b 60 aa 3c cc 72 a1 3c
       0.016793385 0.017145062 0.020797959 0.01970806
000040 84 a8 1d 3d 5c 81 db 3c ed 2c 0e bc 03 2a a5 3b
       0.038490787 0.026795082 -0.008677703 0.0050404086
000050 66 e1 ac 3b 39 cd 04 3d 84 ec 06 3b e6 2f cd 3c
       0.005275893 0.032422278 0.0020587752 0.025047254
000060 57 cd f6 bc e9 47 1e bc 2b 98 04 bd f1 b2 8e 3b
       -0.03012721 -0.009660699 -0.03237168 0.0043548276
000070 00 60 c5 3b 46 30 08 3d 63 a5 c6 3c 71 48 44 bb
       0.006023407 0.033249162 0.024248784 -0.0029950405
000080 8a 90 bb b9 7e fb b4 ba 44 91 eb ba d5 cf ca bb
       -0.0003577511 -0.0013807861 -0.001797237 -0.0061893263
000090 b5 fa 57 bc c9 94 93 3b 9b 26 bb 3b 51 d9 ff 3c
       -0.013182332 0.0045038206 0.0057113892 0.031231554
0000a0 f1 6c 14 3d 17 9f ac bb 13 4b 03 3d 23 16 dd 3b
       0.036236707 -0.0052679884 0.03205402 0.0067470237
0000b0 e8 1e d6 3b 37 d4 3a 3b e5 ca 89 3a a1 9b 4c 39
       0.006534446 0.0028507838 0.0010512738 0.00019512932
0000c0 db 87 e9 3c dd 15 7c 3c 23 60 7c bc 3a e9 c9 3c
       0.028507164 0.015386072 -0.01540378 0.024647344
0000d0 e4 e1 b2 3c 15 b2 92 bc 57 6e f3 bb 13 c3 a0 ba
       0.021836229 -0.017907182 -0.007428925 -0.0012265168
0000e0 be 69 90 3c a9 5d 15 bd a8 db ce bc 2c 62 db 3c
       0.017628547 -0.036466274 -0.025251225 0.02678021
0000f0 6a b1 00 3d 5e dd b9 3c 34 d5 7a bc 6a 5e ac bc
       0.031419195 0.022688564 -0.015309621 -0.021041114
000100 8f e2 56 b9 db f9 2e bd e4 05 20 bc 8a d5 13 bd
       -0.0002049303 -0.04271875 -0.009767029 -0.03609232
000110 5e 64 ec bc eb 8a 23 bd 61 06 43 3c 29 d4 ba 3c
       -0.028856453 -0.039927404 0.011903376 0.022806244
000120 a7 86 d5 3b 7a 1f c5 bc f5 ae 9e bc 80 6b 7f bc
       0.006516296 -0.02406286 -0.019370535 -0.015589595
000130 fe 2f 27 bd 48 fb ec bc e2 a2 f7 bb 1e 0c 30 bd
       -0.040817253 -0.028928414 -0.007557259 -0.042980306
000140 91 76 03 b9 bc d7 e3 b9 36 a4 a1 b9 a6 cf c6 ba
       -0.00012537303 -0.0004345755 -0.0003083066 -0.0015168085
000150 59 b8 44 bb 92 54 ce bb a9 ee d3 3c e3 96 9b 3b
       -0.0030017106 -0.0062967027 0.025870638 0.0047482117
000160 41 b2 57 3b b3 da 65 bc 7a ae b2 bc 33 53 8a ba
       0.0032912644 -0.014029193 -0.021811713 -0.001055336
000170 e1 33 09 3b b9 54 dd b9 b6 39 8a ba 9b 82 9f b9
       0.0020935463 -0.00042215528 -0.0010545764 -0.00030424152
000180 5b 97 27 3a 29 32 0b 3a 2e 5e b0 3a 55 6a d1 ba
       0.0006393098 0.00053099036 0.0013455802 -0.0015977124
000190 e9 ff 91 bb d2 5e c5 ba 02 86 ad 3b 6b 6b 26 3d
       -0.0044555557 -0.0015058166 0.005295516 0.040629786
0001a0 c3 da 40 3d 2b f2 bd 3c 38 00 c6 ba 31 f9 20 bc
       0.047083627 0.023186764 -0.0015106266 -0.009825037
0001b0 d2 d3 e0 bb 68 03 6b b9 78 05 98 3a c0 49 75 3a
       -0.0068611884 -0.00022412615 0.001159831 0.0009356998
0001c0 ab a9 8a bb 13 b1 b5 bb 43 ce 7b bb 7f 8f 2d bb
       -0.004231652 -0.0055447905 -0.0038422502 -0.0026483235
0001d0 5b 49 8a bc 7b b8 50 3b 00 70 e1 bc 64 fe 82 bc
       -0.016880682 0.003184824 -0.027519226 -0.015990444
0001e0 b5 14 8b 3b de b8 d7 bc 8a 93 35 bc 99 62 b2 bb
       0.004244412 -0.026333269 -0.011082539 -0.0054438827
0001f0 38 25 0c 3b c9 ec dd ba 4c 22 18 bb de 54 bd ba
       0.0021384489 -0.0016931529 -0.0023213802 -0.0014444848
000200 ff 16 35 ba e8 f8 2a bb 38 cf 42 ba 9e 2c 06 bb
       -0.0006908029 -0.00260883 -0.00074313907 -0.0020473371
000210 1e 3d 87 bc 7a 89 87 3c 37 ff 34 3c da 2d 52 3b
       -0.016508635 0.016545046 0.011047176 0.0032070787
000220 ed 8d e5 3b 7c 13 0d 3d 73 ad 2d bc f7 57 b8 3c
       0.0070054443 0.03444241 -0.010600436 0.022502882
000230 41 6b cf 3a 5e ff ee 39 96 b3 a0 ba bf 51 ec b3
       0.0015824811 0.0004558516 -0.0012260552 -1.1004476e-07
000240 af 27 13 bd 39 38 8e 3a 1d 2c 17 bd 1c 25 2a bd
       -0.035926517 0.0010850496 -0.036907304 -0.041539297
000250 19 d7 60 bc 12 62 96 bc da 61 b8 bc 65 84 e9 3c
       -0.013723158 -0.01835731 -0.022507597 0.028505513
000260 e4 4c 1a 3b ff dc 22 3c 14 44 3c 3b 3a ce 21 bc
       0.0023544366 0.009940385 0.00287271 -0.009875828
000270 83 61 37 bc 9b 8d 06 bc 0c 16 51 bd 91 08 21 bd
       -0.011192682 -0.008212472 -0.051046416 -0.03931481
000280 31 02 f2 3c 6f 5f 1d 3c 73 cb 61 3d bc 0c 5e 3d
       0.02954206 0.009605273 0.055125665 0.054211363
000290 6f f3 22 3d b3 18 1e 3d 9f c8 ad 3c 1c 1e 50 3c
       0.039782938 0.038597774 0.021213828 0.012702491
0002a0 b0 d5 bf 3b ce 51 60 3c 8b 0f fd 3c 91 5f 18 bb
       0.005854331 0.013691379 0.0308912 -0.0023250321
0002b0 34 9f 34 3d bf 04 01 3d e3 dc 91 39 23 46 64 3d
       0.04409714 0.031498667 0.0002782113 0.05573095
0002c0 0d 33 ba 3a 89 cb b6 3a 48 34 a9 ba e3 91 60 bb
       0.0014205888 0.0013946156 -0.0012909258 -0.0034266643
0002d0 5a 31 3f bb 01 3c d5 3c e5 0f 08 3c 1f 1f 25 bc
       -0.0029173703 0.026029589 0.008304571 -0.010078221
0002e0 e1 61 49 bc 39 9e c2 bc 8d 71 c7 bc 03 4b 0c 3c
       -0.012291403 -0.023757087 -0.024346137 0.008562806
0002f0 90 19 70 ba 9f e1 f0 39 c4 20 ce 3a 6b c9 0c 3b
       -0.00091590825 0.00045944468 0.0015726318 0.002148236
000300 0b a8 e1 b8 b8 b8 2e b9 32 cb fa 38 48 43 15 bb
       -0.000107601365 -0.00016662746 0.00011958777 -0.0022775698
000310 d9 ae 2c bb fb cd 41 39 e2 b6 90 3c cf 0e dc 3c
       -0.0026349335 0.00018482648 0.01766533 0.02686253
000320 83 5b 47 bd b3 9e e1 3c eb 67 80 3c b2 8a 01 3b
       -0.048671257 0.027541494 0.015674552 0.0019766507
000330 c7 7f 62 bb 4e 3b 0d 3a e6 ec 25 3a 64 39 c9 39
       -0.0034561025 0.000538756 0.0006329551 0.00038380467
000340 e0 ea de bb a2 cc 30 3c c1 59 6b bc 65 1f 27 3b
       -0.0068029016 0.010790976 -0.014364661 0.002550089
000350 6f 90 a1 3c 4d f2 1d 3d 4b 14 4f 3b 64 b6 dc 3b
       0.019722192 0.038561154 0.003159779 0.00673561
000360 d1 3c 79 bb e6 fd a0 3b c4 74 9f 3c c1 4f 69 3c
       -0.0038030634 0.0049130796 0.019464858 0.014240206
000370 ed 79 e2 bc 73 db d8 bc c3 fa ce bc 83 92 90 3b
       -0.02764603 -0.026471829 -0.025266057 0.004411997
000380 d8 34 50 b9 eb 46 0e bd fc bf c4 bc 33 2d 8a 3c
       -0.00019856112 -0.0347356 -0.024017327 0.016867256
000390 4a 4e de bb c9 e4 10 3d b2 95 ea 3c 58 91 1f 3d
       -0.006784235 0.035374437 0.028635833 0.03895697
0003a0 54 fe f2 3c 84 be 38 bb dd 82 a7 bb b4 5d e7 bb
       0.029662289 -0.0028189728 -0.0051120357 -0.007060731
0003b0 d8 3b 02 bc 6d 19 6d 3c 7b 68 9d bc 5b 51 1c bd
       -0.007948838 0.014471394 -0.01921486 -0.038163524
0003c0 06 47 f6 3a 50 8e ec 3a e4 e1 9c bb ee d1 b9 bb
       0.0018789477 0.0018047784 -0.0047876704 -0.0056707775
0003d0 99 ef aa 3b 7f 2a db 3a cf a5 2c 3c 05 39 b9 bc
       0.0052165505 0.0016721039 0.010537579 -0.022610197
0003e0 27 a7 dc bc c4 5d b7 3b da 67 87 bc 33 a6 f1 bc
       -0.026935173 0.0055958945 -0.016529012 -0.029498195
0003f0 f7 e7 fa 3b 8c b1 a2 ba 87 57 0c b9 21 9e 18 3b
       0.007657047 -0.0012412532 -0.00013384047 0.0023287612

head.0.bias f4 [24]
000000 1a d5 d1 3c c0 da 50 3c 59 36 b3 3b 28 7f 90 bc
       0.02561431 0.012747467 0.005469125 -0.017638758
000010 57 93 a0 bc 11 30 3b bc b9 4a c3 bb e6 6d aa bb
       -0.019601507 -0.011425034 -0.0059598354 -0.005201089
000020 86 b4 04 3d 2e 42 96 3b 06 62 bc 3c 33 ac cb 3c
       0.032398723 0.004585526 0.02299596 0.024862384
000030 03 48 03 3b a7 b8 c9 3c c3 01 24 bc d7 77 76 39
       0.0020031936 0.024624182 -0.010010186 0.00023505032
000040 c8 26 69 bb dd ef 01 3d 8a df ae 3c 66 c0 75 3c
       -0.0035576094 0.031722892 0.021346826 0.014999485
000050 2e 8d d4 39 1b 2d 90 bc 13 d6 1a 3c 99 ba 1f bc
       0.00040540978 -0.017599633 0.009450453 -0.009749078

head.2.weight f4 [2, 24]
000000 df 68 20 be b6 75 87 3e b1 6c 74 bc 38 f5 d4 3d
       -0.15665005 0.26456994 -0.014918492 0.10398334
000010 b3 3f 5d bd aa 6c e9 bd 0a 5c 1f 3c 0c de 98 3c
       -0.054015826 -0.11397679 0.009726534 0.018660568
000020 6e dd 53 be b0 07 53 3e 26 29 02 be 1a 39 7f be
       -0.20689937 0.20608401 -0.1271101 -0.24924126
000030 68 5b 2d bd cf 33 59 3e b9 c9 f1 bd 4b d9 55 3e
       -0.0423235 0.2121117 -0.11806054 0.20883672
000040 4b 33 db 3d e9 4e 4b 3e aa ce 26 3e 55 4f 70 3e
       0.10703143 0.1985432 0.16289774 0.23467763
000050 50 ff 89 3d 21 4d 1e 3e dd e7 a6 bd c0 65 25 3e
       0.0673815 0.1545911 -0.08149693 0.16152096
000060 66 35 13 3e 4d 23 0f be b7 eb f0 3d b1 61 f0 bd
       0.14375839 -0.1397831 0.11763709 -0.11737383
000070 02 72 2f 3e c5 cc 82 be 97 d3 3c be 59 97 0f be
       0.17133334 -0.25546852 -0.1844009 -0.14022578
000080 8a d4 4c 3e 50 7e 6a be db 9f 23 3e bf 21 5a 3e
       0.20002952 -0.22899747 0.15978949 0.21301936
000090 68 5b 2d 3d 40 6f 0a 3c f5 b7 16 3e 2d 51 a5 3d
       0.0423235 0.008449376 0.14718612 0.08072124
0000a0 fe c3 89 bd 5c 1f 9c 3a 54 fc 6b be d1 b0 ac 3c
       -0.06726836 0.0011911201 -0.23045474 0.021080406
0000b0 70 4b 2d 3e 38 ec 2e bd 7b be 5e 3e 4a 91 55 bd
       0.16923308 -0.042705745 0.2175235 -0.05214051

head.2.bias f4 [2]
000000 36 00 0d 3e 59 e1 0a bd
       0.13769612 -0.033906315
