models/AC-RM Q_LR=0.1 P_LR=5e-06 BATCH_SIZE=128 GAMMA=0.99 MEMORY_SIZE=100000_policy.pt (torch, 737030 bytes, 22 tensors)

base.0.weight f4 [64, 2, 5, 5]
0	0x3db6f4f2	0.08933438
1	0xbe0290fd	-0.12750621
2	0xbda178a2	-0.07884337
3	0xbe06ccfd	-0.13164134
4	0xbdab922a	-0.08377488
5	0x3d663c64	0.056209937
6	0xbe014ae0	-0.12626219
7	0xbd4cfbcf	-0.05004483
8	0x3c9bd4d9	0.019022392
9	0xbd6d984c	-0.05800657
10	0x3c065c22	0.008200677
11	0x3c3524a0	0.011056095
12	0x3d9ab703	0.07554438
13	0xbdafb99e	-0.085803255
14	0x3c2b8c59	0.010470473
15	0xbca392a1	-0.019967379
16	0xbe0a5e90	-0.13512635
17	0x3d10213d	0.03518795
18	0x3d3895da	0.045064785
19	0xb9dcf6e2	-0.00042145612
20	0x3de788e5	0.113054074
21	0x3d268007	0.04064944
22	0xbe092d2d	-0.1339614
23	0x3daaa36f	0.08331954
24	0x3dbc2a16	0.09187715
25	0x3d3bae76	0.045820676
26	0x3c12f45e	0.0089693945
27	0x3db5a9b7	0.08870261
28	0x3cc9a1e9	0.024613338
29	0xbd9833c8	-0.074317515
30	0xbd86b038	-0.0657658
31	0x3d91c85a	0.07118292
32	0xbd8d39e6	-0.06895809
33	0x3d91ea52	0.07124771
34	0x3df75a13	0.12077727
35	0x3ca70429	0.020387726
36	0xbe084a5e	-0.13309619
37	0xbd549b55	-0.05190595
38	0xbda02c7c	-0.07820985
39	0x3d5737f8	0.05254361
40	0x3dfba7c5	0.12287859
41	0xbd22854f	-0.039677914
42	0x3c436422	0.011925729
43	0x3d994ef6	0.07485764
44	0x3c76868c	0.015046727
45	0x3dd77dbc	0.10522029
46	0xbd370a2e	-0.044687442
47	0x3cd8e638	0.026476964
48	0xbdac01a4	-0.083987504
49	0xbceaf061	-0.028679075
50	0xbde9ca90	-0.11415589
51	0x3da06451	0.07831634
52	0x3d3dff98	0.04638633
53	0xbe0f76f2	-0.14010218
54	0xbb42e408	-0.0029737968
55	0xbcb91fb7	-0.02259813
56	0x3de3e599	0.11127777
57	0x3dd177d8	0.102279365
58	0xbe10a1ca	-0.14124218
59	0x3c83baea	0.016080339
60	0x3d34cb61	0.04413927
61	0x3d8c85b3	0.068614386
62	0xbe022810	-0.12710595
63	0x3d5c51b1	0.053788844
64	0xbd8bc366	-0.06824379
65	0xbd31accc	-0.043377683
66	0xbd46c658	-0.048529
67	0xbdd9cba4	-0.106345445
68	0xbd9e0278	-0.077153146
69	0xbdb6f686	-0.08933739
70	0x3c85d9d9	0.01633923
71	0xbdb19416	-0.08670823
72	0x3db090ab	0.08621343
73	0xbdc97cd8	-0.09838265
74	0x3e02a976	0.12759957
75	0xbdf8f0ab	-0.12155279
76	0xbd98aa43	-0.0745435
77	0x3d090266	0.033449553
78	0x3d27cbd7	0.04096588
79	0xbdce6462	-0.1007774
80	0x3cffec22	0.031240527
81	0xb9a68e85	-0.00031768173
82	0x3d2530c0	0.040329695
83	0x3e085918	0.13315237
84	0xbd4ebbfc	-0.050472245
85	0x3da7f6c6	0.08201365
86	0xbd2070a4	-0.039169922
87	0xbceda6e0	-0.029010236
88	0x3d3502a4	0.04419197
89	0xbd36565f	-0.044515964
90	0xbc08c6ee	-0.00834821
91	0x3dbc8d92	0.0920669
92	0xbce62e49	-0.028098242
93	0xbe0bcc1c	-0.1365208
94	0xbd7bf9a6	-0.06151738
95	0x3d6a65fc	0.057226166
96	0x3d851b3b	0.064993344
97	0xbb4aaca3	-0.0030925653
98	0xbc0414c9	-0.008061596
99	0x3d3bc7de	0.045844905
100	0xbd485a94	-0.048914507
101	0xbe0770eb	-0.13226669
102	0x3db53d7b	0.08849617
103	0xbe0c874b	-0.13723485
104	0x3d643608	0.05571559
105	0xbd5c6fbe	-0.053817503
106	0x3dd7345e	0.10508035
107	0xbd9c406b	-0.07629474
108	0xbbb43475	-0.0054994174
109	0xbceb749e	-0.02874213
110	0xbd64e4f4	-0.05588241
111	0x3d0e7b27	0.034785416
112	0x3d20366f	0.039114412
113	0xbd9f6cbc	-0.07784411
114	0xbdebe90f	-0.11519062
115	0x3db0132f	0.08597409
116	0x3dad78d5	0.084703125
117	0x3cd061c3	0.025437241
118	0x3c9dc6d1	0.019259842
119	0x3c9f78e5	0.019466827
120	0xbdab043a	-0.083504155
121	0xbd5c3587	-0.053761985
122	0x3cc16a46	0.023610245
123	0xbdebf986	-0.11522202
124	0xbdf765f5	-0.12079994
125	0xbe020ce9	-0.12700237
126	0xbdf874c2	-0.12131645
127	0xbe01329e	-0.12616965
128	0x3cb131b8	0.021630153
129	0x3d8eed70	0.06978881
130	0x3db1a306	0.086736724
131	0xbd766bf6	-0.060161553
132	0xbc7a3b4d	-0.0152729275
133	0x3d44c640	0.04804063
134	0xbd77864b	-0.060430806
135	0xbe060b84	-0.1309033
136	0x3dfc1e7a	0.123105004
137	0x3d9b3152	0.075777665
138	0x3dab2a4c	0.08357677
139	0xbdfb7221	-0.12277628
140	0xbd224098	-0.039612383
141	0xbdf23797	-0.11827009
142	0x3cd56995	0.026051322
143	0xbdab6ed1	-0.08370746
144	0xbe0758e9	-0.1321751
145	0xbe05e33a	-0.13074961
146	0x3ba935aa	0.005163868
147	0x3d4e0e9b	0.050306898
148	0xbd459837	-0.048240867
149	0x3d573400	0.052539825
150	0xbd18f0fd	-0.0373392
151	0x3daa5e74	0.08318797
152	0x3ca59575	0.020212868
153	0xbc8b139e	-0.016977128
154	0x3d860bfc	0.065452546
155	0xbd4f5ee1	-0.050627593
156	0x3d208015	0.03918465
157	0x3d1538ae	0.036431007
158	0x3d49cee9	0.04926959
159	0x3e0e748a	0.13911644
160	0x3d89a5b2	0.06721057
161	0xbdf73c21	-0.120720156
162	0x3e0582d3	0.13038187
163	0xbd20d21b	-0.039262872
164	0xbdb62fcd	-0.08895836
165	0x3df6c29f	0.1204884
166	0x3d687260	0.0567497
167	0xbd49c251	-0.04925758
168	0xbd57da86	-0.052698635
169	0x3c62b7c8	0.013837762
170	0x3b045e44	0.0020197788
171	0xbda6f2cb	-0.08151778
172	0xbb17b1c9	-0.002314674
173	0xbcb1bbd7	-0.021696014
174	0x3db3517c	0.08755776
175	0x3cf65f67	0.030074788
176	0xbd89158b	-0.06693562
177	0x3df56231	0.11981619
178	0xbd2fa430	-0.04288119
179	0x3d2553a1	0.040362958
180	0x3e047054	0.12933475
181	0x3d1172ac	0.03550975
182	0xbd3a61ef	-0.045503553
183	0xbd1bcb48	-0.03803566
184	0xbe0ef3b4	-0.13960153
185	0x3d3dc476	0.046329938
186	0x3e0b55ff	0.13607024
187	0xbd97ad02	-0.074060455
188	0x3d76fd2d	0.06030004
189	0x3dc27b3b	0.094961606
190	0x3d54face	0.051997
191	0x3d282a6a	0.041056074
192	0xbdd8d214	-0.10586944
193	0x3c38e762	0.011285635
194	0xbcd41ed5	-0.025893608
195	0x3db797de	0.08964513
196	0x3db7aa66	0.08968048
197	0xbdaf11f4	-0.08548346
198	0x3dd8f1d8	0.10593003
199	0xbd3a9e7f	-0.04556131
200	0x3d8f8bde	0.070090994
201	0xbdd0bb62	-0.101919904
202	0xbddf5514	-0.10904899
203	0xbe0b153a	-0.13582316
204	0xbc56e5eb	-0.01311634
205	0x3c0f9595	0.0087636905
206	0x3c573fc2	0.01313776
207	0xbd94213d	-0.07232902
208	0x3d56d84b	0.052452367
209	0xb9aebf3a	-0.0003333034
210	0xbd246ffd	-0.040145863
211	0x3e0a869d	0.13527913
212	0x3d58d622	0.052938588
213	0xbd913b37	-0.070913725
214	0x3e0345bd	0.12819572
215	0x3c203dac	0.009780329
216	0x3d89aab1	0.0672201
217	0x37567965	1.2783658e-05
218	0xbd3e2e4c	-0.04643087
219	0x3c73c69f	0.014878898
220	0x3dd2a03e	0.1028447
221	0x3d8c7963	0.0685909
222	0x3d0cf33d	0.034411658
223	0xbdddc2c0	-0.10828161
224	0xbe0a9987	-0.13535129
225	0x3c91106e	0.01770803
226	0xbbc21ee3	-0.005924092
227	0xbe0740dc	-0.13208336
228	0xbd4ad696	-0.04952105
229	0x3dc04143	0.09387448
230	0xbc40e46c	-0.01177321
231	0xbdb469ce	-0.08809243
232	0x3d1eaffa	0.038742043
233	0x3d94ee8e	0.07272063
234	0x3ce4863b	0.027896037
235	0xbd389d66	-0.04507198
236	0xbdb78b17	-0.08962076
237	0x3d2d4da5	0.042310376
238	0xbce4e1e0	-0.027939737
239	0x3e0c87ec	0.13723725
240	0x3d99d9ce	0.07512246
241	0xbe0f5cdb	-0.14000265
242	0x3ddca5d5	0.107738174
243	0xbd3c534b	-0.045977872
244	0x3ce1e57a	0.027575243
245	0xbcc78d41	-0.024359347
246	0x3cdb83c8	0.026796237
247	0xbc9bf4e7	-0.019037677
248	0xbdb0f024	-0.08639553
249	0x3b452da0	0.003008701
250	0x3d7e5486	0.062092327
251	0x3daaa75c	0.083327025
252	0xbcf3c767	-0.029758168
253	0xbe0a03e2	-0.13478044
254	0x3d90d6f4	0.07072249
255	0xbd4c8fa3	-0.04994167

base.0.bias f4 [64]
0	0xbd1ee4d0	-0.03879243
1	0x39148a5e	0.00014165926
2	0xbe05cf11	-0.13067271
3	0xbdadea64	-0.08491972
4	0x3d71b149	0.059006963
5	0xbe0f222f	-0.13977884
6	0xbc90c3e8	-0.01767154
7	0xbdbab382	-0.0911627
8	0x3c6e4459	0.014542663
9	0xbd4b62ea	-0.04965488
10	0xbd910bb6	-0.07082312
11	0xbde892a9	-0.11356098
12	0xbd475ce5	-0.048672576
13	0x3db4cee4	0.08828524
14	0x3cfc5e93	0.030806815
15	0xbdc397ae	-0.09550415
16	0x3cc8c5ff	0.024508474
17	0xbd52f7da	-0.0515059
18	0xbcd96975	-0.026539544
19	0x3d632c45	0.05546214
20	0x3e07019d	0.13184209
21	0x3e06ff40	0.13183308
22	0xbdba3a60	-0.090931654
23	0xbe07d9b9	-0.13266648
24	0xbde29b07	-0.11064725
25	0xbca11ddc	-0.019667558
26	0xbe08624c	-0.13318747
27	0x3df57f28	0.11987144
28	0xbbd133ce	-0.0063843494
29	0x3d987fc6	0.07446246
30	0x3cbfaaf9	0.023396956
31	0xbdac59cc	-0.08415565
32	0xbe0a277f	-0.13491629
33	0x3e09c3be	0.13453576
34	0x3cca9c92	0.024732862
35	0x3dea6a1d	0.11446021
36	0x3e0648b7	0.13113676
37	0xbddd8422	-0.10816218
38	0xbdd1a76f	-0.102370135
39	0x3d76ef9b	0.0602871
40	0xbc9019de	-0.01759046
41	0xbca389ef	-0.019963233
42	0xbd82d806	-0.063888595
43	0x3d21732b	0.039416473
44	0xbdd0509d	-0.10171626
45	0xbdd78631	-0.10523642
46	0xbdf0f624	-0.117656976
47	0xbd0503d8	-0.03247437
48	0xbd02d11c	-0.031937703
49	0x3dedfacb	0.116201006
50	0x3d92c2fc	0.071660966
51	0xbda3ef07	-0.08004575
52	0xba35386f	-0.00069130113
53	0xba9123a7	-0.0011073247
54	0x3bbf4f0f	0.005838282
55	0x3e01e1f8	0.12683856
56	0x3d56f2c2	0.052477606
57	0xbcddaf6a	-0.027061183
58	0xbcc33295	-0.02382783
59	0x3d7bb5ce	0.06145268
60	0x3d846b54	0.06465784
61	0xbdecb0d3	-0.11557164
62	0xbdbfb705	-0.0936108
63	0xbc2a4849	-0.010393211

base.1.weight f4 [64]
0	0x3f8004f7	1.0001515
1	0x3f7fe2db	0.9995553
2	0x3f7fe9a3	0.99965876
3	0x3f7fea09	0.99966484
4	0x3f7fdd3a	0.9994694
5	0x3f8009d2	1.0002997
6	0x3f7fef43	0.9997446
7	0x3f7fed5f	0.99971575
8	0x3f7fe24a	0.99954665
9	0x3f7fee58	0.9997306
10	0x3f7fceca	0.9992491
11	0x3f7fe3f9	0.99957234
12	0x3f7ff448	0.9998212
13	0x3f7fda7f	0.99942774
14	0x3f800531	1.0001584
15	0x3f80034f	1.000101
16	0x3f7fed68	0.9997163
17	0x3f7fde65	0.9994872
18	0x3f7fdf3a	0.9994999
19	0x3f8000f8	1.0000296
20	0x3f800279	1.0000755
21	0x3f7ff4e4	0.9998305
22	0x3f7fe428	0.99957514
23	0x3f7fe368	0.9995637
24	0x3f7fec6d	0.9997013
25	0x3f800662	1.0001948
26	0x3f7ff335	0.9998048
27	0x3f800613	1.0001854
28	0x3f7fd548	0.99934816
29	0x3f8000fe	1.0000303
30	0x3f7fd276	0.9993051
31	0x3f7feba4	0.99968934
32	0x3f7fe4f3	0.99958724
33	0x3f8010ec	1.0005164
34	0x3f800fd9	1.0004836
35	0x3f7fef90	0.9997492
36	0x3f7ff2a9	0.99979645
37	0x3f7fe57a	0.9995953
38	0x3f800081	1.0000154
39	0x3f7fe95a	0.9996544
40	0x3f800cfe	1.0003965
41	0x3f7fd3b8	0.9993243
42	0x3f800657	1.0001935
43	0x3f7fe303	0.9995577
44	0x3f7ff028	0.99975824
45	0x3f7ff363	0.99980754
46	0x3f800fc5	1.0004812
47	0x3f7ffeb9	0.9999805
48	0x3f7ff167	0.99977726
49	0x3f7fd999	0.999414
50	0x3f800308	1.0000925
51	0x3f7ffd8b	0.9999625
52	0x3f800dba	1.0004189
53	0x3f7fe12f	0.9995298
54	0x3f7fee39	0.99972874
55	0x3f7fe1b6	0.9995378
56	0x3f7fdadb	0.9994332
57	0x3f80024f	1.0000705
58	0x3f7ffb18	0.99992514
59	0x3f7fe609	0.9996038
60	0x3f800adb	1.0003313
61	0x3f7feeb7	0.99973625
62	0x3f800472	1.0001357
63	0x3f8000de	1.0000265

base.1.bias f4 [64]
0	0x39adb72b	0.00033133602
1	0xba1e7157	-0.00060441106
2	0xb9775a17	-0.00023589317
3	0xb99ac517	-0.00029520012
4	0xb9b6cde7	-0.00034867154
5	0x3a1a7d2a	0.00058932847
6	0x381f22e3	3.7941045e-05
7	0xb9b88475	-0.00035193903
8	0xb9e4a9ba	-0.00043614005
9	0xb9c13d78	-0.00036857626
10	0xb88e1212	-6.7744535e-05
11	0xb921c135	-0.00015426132
12	0xb87e79b9	-6.0671682e-05
13	0xb945c7dc	-0.00018861837
14	0xb9226693	-0.00015487736
15	0x389261fb	6.980073e-05
16	0x3a11db82	0.000556402
17	0x39e5deae	0.00043844193
18	0xba0f8f21	-0.0005476345
19	0x39c8c75a	0.000382955
20	0x39ce3a0d	0.00039334633
21	0x38975ea0	7.2178664e-05
22	0xba1d7213	-0.0006006073
23	0x39c2efc7	0.00037181212
24	0xb90151ef	-0.00012332921
25	0xb9aa8cfb	-0.00032529965
26	0x3942ea48	0.00018588558
27	0x39b6c4de	0.00034860423
28	0xb857b01c	-5.142401e-05
29	0xb93fe9bb	-0.00018302251
30	0xb8ea3cc8	-0.00011169311
31	0x3944c6e0	0.00018766103
32	0xb917813f	-0.0001444863
33	0x3a21c95e	0.00061716686
34	0x3a19fe25	0.00058743573
35	0x36d155cb	6.238673e-06
36	0xb96712b4	-0.00022036844
37	0x386f7df3	5.709934e-05
38	0x391e4d65	0.00015096886
39	0xb932f00c	-0.00017064827
40	0x39f5e408	0.00046899938
41	0xb9e5b947	-0.00043816326
42	0x39ec305c	0.00045049458
43	0xb9922e29	-0.00027881682
44	0xb941abb1	-0.00018469874
45	0xb9a5a6bd	-0.00031595482
46	0x39396a07	0.00017682473
47	0xb92035d6	-0.00015278845
48	0x39f7943b	0.00047221952
49	0xb9f040bd	-0.000458246
50	0x398981e8	0.00026227464
51	0x391b9e3c	0.00014840899
52	0xb8c47271	-9.367325e-05
53	0xb9e134fd	-0.00042954824
54	0x39a6cdf1	0.00031815426
55	0xb9cef94b	-0.0003947712
56	0xb9e4a22e	-0.00043608382
57	0xb814041a	-3.528977e-05
58	0x39c86979	0.00038225556
59	0x39380efb	0.00017553188
60	0xb9f59ce8	-0.00046846946
61	0x3a1f8234	0.00060847704
62	0x391dcb35	0.00015048387
63	0x39e0a9be	0.00042851077

base.1.running_mean f4 [64]
0	0xbe4b0812	-0.19827297
1	0xbee363f7	-0.44412205
2	0xbfa65e00	-1.2997437
3	0x3f28bc3e	0.65912235
4	0xbddef8cb	-0.10887297
5	0xbe6b2ee5	-0.22967108
6	0x3cee9887	0.029125465
7	0x3ecd1e2a	0.40062076
8	0xbe747f57	-0.23876701
9	0xbf9cd43f	-1.2252272
10	0x3f71d55e	0.944662
11	0x3dbb1680	0.09135151
12	0xbe78caaa	-0.2429606
13	0x3f4663f9	0.77496296
14	0xbeb20a54	-0.34773505
15	0xbf6fe663	-0.9371092
16	0x3f568a3d	0.83804685
17	0xbdba90c9	-0.09109647
18	0x3e543846	0.20724592
19	0x3dc4a39c	0.096015185
20	0x3ed91918	0.42401958
21	0x3e7b9784	0.24569517
22	0xbe8f77e6	-0.28021163
23	0x3e5fabb4	0.21842843
24	0x3d881458	0.06644505
25	0xbf86195b	-1.0476488
26	0xbea8d4f0	-0.32974958
27	0xbd09fabd	-0.03368639
28	0x3f138f9b	0.57641
29	0xbf806f5d	-1.0033985
30	0x3fc8470e	1.5646684
31	0x3e9fe30d	0.31227913
32	0xbdea9970	-0.11455047
33	0xbeedda50	-0.46455622
34	0xbf863515	-1.0484949
35	0xbf114085	-0.56739074
36	0xbd3609d4	-0.044442967
37	0xbf35e610	-0.7105417
38	0xbe227fa7	-0.15869008
39	0xbe4cad27	-0.19987927
40	0x3decc3d6	0.1156079
41	0x3ee84ca6	0.45370978
42	0x3c72ac40	0.014811575
43	0xbf317f97	-0.6933531
44	0xbd033d69	-0.032040987
45	0xbef2c962	-0.47419268
46	0x3d3d1e7e	0.046171658
47	0xbea5ce70	-0.32384062
48	0xbea640ae	-0.32471222
49	0x3f979397	1.1841916
50	0xbe9c2d14	-0.30503142
51	0xbcb5a9bd	-0.022175664
52	0xbfca7a9a	-1.5818665
53	0x3e76bb75	0.24094947
54	0x3f716e8b	0.943093
55	0xbeb25f0c	-0.3483814
56	0x3f0c22d8	0.5474067
57	0xbf31c8b7	-0.6944689
58	0x3d8b9636	0.0681576
59	0xbe5bac67	-0.21452485
60	0x3c881d0f	0.016615419
61	0x3f8ec40b	1.1153578
62	0xbce6b05f	-0.028160272
63	0xbefd8c47	-0.49521086

base.1.running_var f4 [64]
0	0x3a9fe090	0.0012197662
1	0x3b5d7de9	0.0033796972
2	0x3c57e3a7	0.013176835
3	0x3bc24022	0.0059280554
4	0x3a7c152e	0.0009616193
5	0x3a28849b	0.0006428451
6	0x3b079f41	0.0020694288
7	0x3b87b48e	0.004141397
8	0x3ae804cb	0.0017701624
9	0x3c7d68d3	0.015466887
10	0x3c80de81	0.015731098
11	0x3a88004e	0.0010376067
12	0x3a83d9f6	0.0010059464
13	0x3bcab9c9	0.006186698
14	0x3bab12a2	0.005220727
15	0x3bd45d10	0.0064808205
16	0x3c0bd609	0.008534917
17	0x3a84673a	0.0010101565
18	0x3a431c4c	0.0007442876
19	0x3acb91ba	0.0015531101
20	0x3b48f496	0.0030663363
21	0x3ac9b4d7	0.0015388977
22	0x3ac0c2b4	0.0014706464
23	0x3ad772ff	0.001643747
24	0x3a352ffc	0.0006911752
25	0x3c46cf28	0.012134351
26	0x3b19e4f5	0.0023482416
27	0x3b253f1f	0.0025214625
28	0x3b4a2347	0.003084378
29	0x3c596fe0	0.013271302
30	0x3cd17e07	0.02557279
31	0x3b0bf5b5	0.002135617
32	0x3ad7f08d	0.0016474888
33	0x3bc12216	0.005893956
34	0x3c6e7b39	0.014555746
35	0x3bc3f42f	0.0059800367
36	0x3ade0cf8	0.0016941121
37	0x3c0506fd	0.008119342
38	0x3a65efe8	0.00087714056
39	0x3b106024	0.002202996
40	0x3b14bb45	0.002269463
41	0x3b15b828	0.0022845361
42	0x3b5d2575	0.003374425
43	0x3be92824	0.007115381
44	0x3b72e723	0.0037064038
45	0x3b3e929e	0.002907909
46	0x3a59a0aa	0.0008301834
47	0x3acdf10e	0.0015712099
48	0x3acee401	0.0015784503
49	0x3c86b01e	0.016441401
50	0x3b6f7aa9	0.0036541617
51	0x3aac7171	0.0013156367
52	0x3cfa2d03	0.030539041
53	0x3ae87a72	0.0017736687
54	0x3c2616de	0.010137288
55	0x3b3e37ab	0.002902488
56	0x3b4eb900	0.0031543374
57	0x3bb764cd	0.005596733
58	0x3a7fb6bd	0.0009754708
59	0x3b28eab3	0.0025774657
60	0x3aaa4dfa	0.001299321
61	0x3c82d7cf	0.015972046
62	0x3a97abc6	0.0011571578
63	0x3b88d138	0.0041753314

base.3.weight f4 [64, 64, 5, 5]
0	0x3c048653	0.008088666
1	0xbc898c40	-0.01679051
2	0x3ca641f2	0.020295117
3	0x3cc41d30	0.023939699
4	0xbcb85a21	-0.022503914
5	0x3b18a34b	0.002329069
6	0xbbb0df4e	-0.0053977137
7	0x3bcfffee	0.006347648
8	0x3b548ed3	0.0032433763
9	0x3c465026	0.01210407
10	0x3bdbd126	0.006708282
11	0xbbdf46a0	-0.006813839
12	0x3c5b1715	0.013372202
13	0x3cbba3f6	0.022905331
14	0x3cca9397	0.02472858
15	0x39ab8c6d	0.00032720287
16	0xbc990640	-0.018679738
17	0xbcbd9109	-0.023140447
18	0xbcb21569	-0.021738725
19	0x3c8cb166	0.017174434
20	0xbc685df5	-0.014182557
21	0xbc4a6302	-0.012352707
22	0xbb838415	-0.004013548
23	0xbc462758	-0.012094341
24	0xbcb7d91f	-0.022442399
25	0xbc934fe8	-0.017982438
26	0xbb04c108	-0.0020256657
27	0x3c8d5269	0.01725121
28	0xbcbd45f8	-0.023104653
29	0xbc560e6b	-0.013064961
30	0x3c922976	0.017842036
31	0xbcc17338	-0.02361451
32	0x3cb84753	0.022494948
33	0x3a08f687	0.0005224724
34	0xbc87b639	-0.016566383
35	0xbc1fee43	-0.009761396
36	0x3c96aeff	0.018393992
37	0xbc8fe6d6	-0.017566126
38	0xbcca90bb	-0.024727216
39	0xbcabd5df	-0.020976005
40	0xbca5043e	-0.020143624
41	0xbc89f6c3	-0.016841298
42	0x3c144b39	0.009051138
43	0x3ad7d820	0.0016467609
44	0xbca47390	-0.020074636
45	0xbca15750	-0.019694954
46	0xbc87e069	-0.0165865
47	0xbcc21fb5	-0.02369676
48	0xbc96b553	-0.018397009
49	0xbab3e33f	-0.0013724341
50	0xbcb2cb09	-0.02182533
51	0x3b04f4b7	0.0020287463
52	0xbbc472e3	-0.005995141
53	0x3ca98304	0.020692356
54	0x3bc4c2a8	0.00600465
55	0xbb5e639e	-0.0033933888
56	0xbcbcf48f	-0.023065833
57	0xbbacc3db	-0.005272371
58	0xb9817e49	-0.00024698887
59	0xbc29454f	-0.010331466
60	0x3b7fee4e	0.0039051953
61	0xbbbb980d	-0.005724913
62	0x3cb26e1b	0.021781018
63	0xbae33a8c	-0.0017336174
64	0xbc80d3c4	-0.015725978
65	0xbcbb336f	-0.022851674
66	0xbcbd6c3a	-0.023122896
67	0xbb2e9455	-0.0026638706
68	0xbca2c120	-0.01986748
69	0x3967386d	0.00022050897
70	0xbc8a5bd7	-0.016889496
71	0xbc82a5f9	-0.015948283
72	0x3cbc0ed9	0.022956299
73	0x3b21ad00	0.0024669766
74	0xbca93ca2	-0.020658795
75	0x3ca7777b	0.020442715
76	0x3c94be97	0.018157287
77	0xbc13f500	-0.0090305805
78	0x3c9365e8	0.017992929
79	0xbbe099ff	-0.0068542953
80	0xbc641b26	-0.013922488
81	0xbc98f9fd	-0.018673891
82	0x3bce39a4	0.0062934924
83	0x3c75b01e	0.014995603
84	0x38e34327	0.000108367116
85	0x3cc5119f	0.024056254
86	0x3c81c9fb	0.015843382
87	0xbb4f622f	-0.0031644215
88	0x3c6c8da6	0.0144380685
89	0x3c984a1a	0.018590022
90	0x3cc04dae	0.02347454
91	0x3ca80e0d	0.020514512
92	0xbc9837eb	-0.018581351
93	0xbbc105d0	-0.0058905855
94	0xbb584e2e	-0.0033005583
95	0xba8bf955	-0.0010679165
96	0xbc157178	-0.009121291
97	0x3c84fa59	0.016232656
98	0xbbd8e129	-0.006618638
99	0xbbec76d1	-0.0072163125
100	0x3c9cba65	0.019131849
101	0x3ca8f747	0.020625724
102	0xbc121f4d	-0.0089185955
103	0xbb01b539	-0.0019791855
104	0xbba5f9f1	-0.0050651957
105	0x3cbd8217	0.02313332
106	0x3c8dc089	0.017303722
107	0xbc9fc0b3	-0.019501066
108	0x3c110b61	0.008852811
109	0x3c2f0f60	0.010684818
110	0xbc0bf74a	-0.008542845
111	0xbc1db6ae	-0.009626074
112	0xbbdad7ac	-0.006678542
113	0x3a4ea2e5	0.00078825495
114	0x3ade401e	0.0016956364
115	0x3c94768e	0.018122938
116	0x3c37dd0c	0.011222135
117	0x3cace7a8	0.021106556
118	0xbcad946d	-0.021188939
119	0x3cce3fb3	0.025176859
120	0xbcb495e5	-0.022044132
121	0x3c6646b6	0.014054945
122	0x3c8d14a8	0.017221764
123	0xbc497351	-0.01229556
124	0x3cb88734	0.022525407
125	0xbcc9279a	-0.024555016
126	0xbca9f499	-0.020746516
127	0xbc1e9a05	-0.009680276
128	0xbb971a93	-0.004611322
129	0x3bbc4b83	0.0057463064
130	0x3c8e8ff3	0.017402625
131	0x3c976cc3	0.018484479
132	0xbc7fa82b	-0.015604059
133	0x3c7f756b	0.0155919595
134	0xbc5a70cb	-0.013332556
135	0x3c6196dd	0.013768879
136	0x3c870d20	0.01648575
137	0xbcbe7559	-0.023249315
138	0x3cb3115e	0.021858867
139	0x3bb89c9a	0.0056339027
140	0x3cc56572	0.024096224
141	0xbc84adb0	-0.016196102
142	0xbc905b36	-0.017621618
143	0x3c3f7c21	0.0116873095
144	0x3ba99ef8	0.0051764213
145	0xbc84af9b	-0.016197016
146	0x3c9d970a	0.01923706
147	0x3b071bd8	0.0020615961
148	0x3ca29413	0.019845998
149	0x3bcf1d24	0.0063206125
150	0x3c8c8847	0.017154826
151	0x3ba2d554	0.0049692784
152	0x3c09e808	0.008417137
153	0xbc00cb4f	-0.007860973
154	0x39d6f548	0.0004100001
155	0xbc0cdb42	-0.008597197
156	0xbc8795a3	-0.016550845
157	0x39feb1b6	0.0004857906
158	0xbcafc24e	-0.021454956
159	0xbcb5f982	-0.022213701
160	0x3c45ac6d	0.012065035
161	0xbc3683b7	-0.011139802
162	0xba55c2a7	-0.00081543106
163	0x3ca41eac	0.020034157
164	0x3bf9779e	0.0076131364
165	0x3b1cdb5b	0.0023934457
166	0x3c8e4241	0.017365577
167	0xba87f4de	-0.0010372659
168	0xbc275d6e	-0.0102151465
169	0x3c470d9c	0.012149241
170	0xbc817b4e	-0.015805867
171	0xbbff9d27	-0.0078007164
172	0xbca72a87	-0.02040602
173	0xbc678af0	-0.014132246
174	0xbc8c9665	-0.017161557
175	0x3c9b3e2d	0.018950546
176	0xbb8e4a2c	-0.004342338
177	0x3a9074d0	0.0011021141
178	0xbca91432	-0.020639513
179	0x3c0627a9	0.008188167
180	0xbc671514	-0.0141041465
181	0x3c6214df	0.013798921
182	0xbbdc2fb3	-0.0067195534
183	0x3c934e79	0.017981755
184	0x3c298c91	0.010348455
185	0x3c733e62	0.014846416
186	0xbc36cf9b	-0.011157895
187	0x3c2145cf	0.009843304
188	0x3b13cdaf	0.0022553017
189	0xbcbc6a97	-0.023000045
190	0xbca95759	-0.020671533
191	0x3c9a5cf2	0.018843148
192	0x3c23b884	0.009992722
193	0x3c73349a	0.014844084
194	0xbc8fe517	-0.017565293
195	0x3ba23f63	0.004951404
196	0xb9017dc2	-0.00012349247
197	0x3c8fa491	0.017534526
198	0xbc754430	-0.01496987
199	0xbbe7713b	-0.0070630587
200	0x3be2d689	0.0069225472
201	0xbcc0c138	-0.023529634
202	0x3b5b3530	0.003344845
203	0x3b838850	0.0040140525
204	0x3c06d9d7	0.008230648
205	0x3c6284f2	0.013825642
206	0xbc195517	-0.009358666
207	0x3c02bdbe	0.007979808
208	0xbb34b813	-0.0027575537
209	0x3a8114d1	0.0009848123
210	0x3b59d149	0.0033236316
211	0x3cb89d3b	0.02253591
212	0x3bc3be53	0.005973616
213	0xbc83cfaa	-0.016090233
214	0xbbb2d653	-0.0054576783
215	0xbbe5cc55	-0.0070128837
216	0xbb3a8899	-0.0028462766
217	0xbc7c56af	-0.015401526
218	0xbca5e810	-0.020252258
219	0xbbbd79f7	-0.0057823616
220	0xbc593bae	-0.013258858
221	0xbc5b3523	-0.013379368
222	0xbc935033	-0.017982578
223	0xbcc15ad3	-0.023602879
224	0x3c0b5ac8	0.008505531
225	0x3cafe862	0.021473113
226	0x3c3661b5	0.011131694
227	0xbc7d96e3	-0.015477869
228	0xb6ff2c24	-7.604731e-06
229	0xbc5caca1	-0.013468892
230	0x3c045364	0.0080765225
231	0x3c370982	0.0111717
232	0xbcb47b7e	-0.022031542
233	0x3cc748bf	0.02432668
234	0x3c830e35	0.015997985
235	0x3c1b0216	0.009460947
236	0xb9faa791	-0.00047808563
237	0xbc85ed2a	-0.01634844
238	0x3c73e681	0.014886499
239	0xbc958e46	-0.018256318
240	0xbca9dbd0	-0.020734698
241	0x3b0bdeb1	0.0021342451
242	0xbb40f3ae	-0.002944212
243	0x3c133779	0.008985394
244	0x3bb6bd4f	0.0055767666
245	0xbc53fa6c	-0.012938123
246	0x3c9f90a7	0.019478155
247	0xbc96a02c	-0.018386923
248	0xbc9f838a	-0.019471902
249	0x3ccad9f5	0.024762133
250	0xbc5ec632	-0.013597058
251	0xbc249842	-0.010046067
252	0xbc774fa0	-0.015094668
253	0x3c616515	0.01375701
254	0xbb693cb3	-0.0035589158
255	0xbc3fda25	-0.011709725

base.3.bias f4 [64]
0	0x3c2d34c2	0.0105716605
1	0xbc1b6879	-0.009485357
2	0x3c8888a5	0.01666672
3	0xbbea7e70	-0.007156186
4	0xbc662ee2	-0.014049264
5	0x3aaae66b	0.0013038641
6	0x3c5a5cd9	0.013327801
7	0x3b4f1a8f	0.0031601524
8	0x3c96fd4f	0.018431334
9	0x3c53eb23	0.012934479
10	0x39835758	0.00025051343
11	0x381fc76e	3.8094287e-05
12	0xbc5b7949	-0.013395616
13	0x3c8ea61c	0.017413191
14	0xbc9e1816	-0.019298594
15	0x3c629bcf	0.013831093
16	0xbc884353	-0.016633665
17	0xbc1d2a19	-0.009592556
18	0x3a1b89a5	0.00059332914
19	0xbc562f80	-0.013072848
20	0xbcacb3df	-0.021081863
21	0x3cb4e5b8	0.022082195
22	0xbc90d171	-0.017677994
23	0xbc80297a	-0.015644778
24	0xbcabe09f	-0.020981131
25	0x3c06fc28	0.00823883
26	0x3c85665f	0.016284166
27	0xbc9e9bda	-0.019361425
28	0xbcb7a1b9	-0.022415983
29	0x3cc02755	0.023456255
30	0xbc1415de	-0.009038417
31	0xbc2f97c4	-0.010717336
32	0x3b951af6	0.004550333
33	0x3c33036d	0.01092611
34	0xba87aef1	-0.0010351819
35	0xbc894208	-0.016755119
36	0x3c9842df	0.018586574
37	0xbc5969aa	-0.013269821
38	0xbc306171	-0.010765419
39	0x3cb1fda7	0.021727396
40	0x3b3a16cf	0.0028394943
41	0x3c27ada0	0.0102342665
42	0xbb960efe	-0.004579424
43	0x3c67f2a8	0.014156975
44	0xba8d48c5	-0.0010779133
45	0xbc1d207c	-0.009590264
46	0xbc19926f	-0.009373291
47	0xbc978d1e	-0.018499907
48	0xbc084e92	-0.008319514
49	0xbca3224a	-0.019913811
50	0x3bfd2944	0.0077258665
51	0x3c2737a0	0.010206133
52	0xbcb48cb5	-0.02203975
53	0xbad130a1	-0.0015959927
54	0x3c5cf26c	0.013485532
55	0x3c79ab4d	0.015238595
56	0x3b38d6de	0.0028204243
57	0xbb28263e	-0.002565756
58	0xbc28149f	-0.010258823
59	0x3c3669e0	0.011133641
60	0x3c16bf1c	0.009200837
61	0x3cb4bb1d	0.022061879
62	0x3bfcb495	0.0077119567
63	0x3c74ccbb	0.01494139

base.4.weight f4 [64]
0	0x3f7ffeb2	0.9999801
1	0x3f80054e	1.0001619
2	0x3f7ffcdd	0.99995214
3	0x3f7fdf61	0.99950224
4	0x3f7fe4c5	0.9995845
5	0x3f7fdb6e	0.999442
6	0x3f7fdd69	0.9994722
7	0x3f7ff6d5	0.9998601
8	0x3f7ff8c2	0.9998895
9	0x3f7fd8e2	0.9994031
10	0x3f801245	1.0005575
11	0x3f7fec2a	0.9996973
12	0x3f7ff0c9	0.99976784
13	0x3f8004c0	1.000145
14	0x3f800bfb	1.0003656
15	0x3f7fd97a	0.9994122
16	0x3f7fe9fc	0.99966407
17	0x3f800646	1.0001915
18	0x3f7fe1c9	0.99953896
19	0x3f7fe202	0.99954236
20	0x3f7ff893	0.9998867
21	0x3f7fde2b	0.99948376
22	0x3f7ffd28	0.9999566
23	0x3f7fddea	0.9994799
24	0x3f7ffb58	0.99992895
25	0x3f7fe550	0.9995928
26	0x3f7fe6a4	0.99961305
27	0x3f7feea4	0.9997351
28	0x3f7ff2f3	0.99980086
29	0x3f7fd34b	0.9993178
30	0x3f800b86	1.0003517
31	0x3f7fedae	0.99972045
32	0x3f7fdd69	0.9994722
33	0x3f7fe963	0.99965495
34	0x3f7ff94a	0.9998976
35	0x3f7fd870	0.9993963
36	0x3f800515	1.0001551
37	0x3f7ff182	0.99977887
38	0x3f7fec8f	0.99970335
39	0x3f8001bb	1.0000528
40	0x3f7fee8b	0.9997336
41	0x3f7ff70d	0.99986345
42	0x3f7fd5c2	0.99935544
43	0x3f7fdd66	0.999472
44	0x3f8004fe	1.0001523
45	0x3f7fe7ed	0.99963266
46	0x3f8008d2	1.0002692
47	0x3f800b90	1.0003529
48	0x3f7fef7d	0.99974805
49	0x3f7fdf1f	0.9994983
50	0x3f800606	1.0001838
51	0x3f7fdf68	0.99950266
52	0x3f7fea73	0.99967116
53	0x3f7ffc79	0.9999462
54	0x3f7fe072	0.9995185
55	0x3f7fd88f	0.9993982
56	0x3f8010fb	1.0005182
57	0x3f7fee07	0.99972576
58	0x3f7fda32	0.99942315
59	0x3f7fe47d	0.9995802
60	0x3f800c5b	1.000377
61	0x3f7fe6a1	0.99961287
62	0x3f7fff69	0.999991
63	0x3f7ff2e5	0.9998

base.4.bias f4 [64]
0	0x3a2cff81	0.00065993523
1	0x39dcc602	0.00042109197
2	0x3930f77d	0.00016876865
3	0x39e86a9c	0.00044329918
4	0xb976fadc	-0.0002355384
5	0xba1818b1	-0.0005802019
6	0xba08f776	-0.0005224863
7	0x387528f8	5.8450707e-05
8	0xb8d31e69	-0.000100669284
9	0xb9c42263	-0.00037409653
10	0x3a175643	0.0005773047
11	0x38c5522f	9.409e-05
12	0xb9c8ac2d	-0.00038275254
13	0x39ce18cd	0.0003930986
14	0x39df25d8	0.0004256207
15	0xb99dbb16	-0.00030084763
16	0xb9b58ceb	-0.00034628002
17	0x39970a81	0.0002880879
18	0x39d394d4	0.00040355942
19	0x3a056670	0.0005088812
20	0xb8812968	-6.158912e-05
21	0x397b8cce	0.00023989679
22	0x3902f8d0	0.00012490456
23	0xb9a57ea8	-0.0003156562
24	0xba0a3efa	-0.00052736665
25	0xb9a17e0e	-0.0003080223
26	0x3a0e21f3	0.0005421929
27	0x3927fc6b	0.00016020394
28	0x3a1eb97f	0.0006054863
29	0xba059dba	-0.00050970505
30	0x37a5a92b	1.9748308e-05
31	0xb9f6f26a	-0.0004710139
32	0xb9bacf8f	-0.00035631328
33	0x396c47ab	0.00022533412
34	0xba0ddd8b	-0.00054117356
35	0xba2dcc6d	-0.0006629888
36	0x39ef9f50	0.0004570433
37	0x3936132a	0.00017364012
38	0x39a00246	0.00030519272
39	0x39d1c63f	0.0004001129
40	0xb979bb8e	-0.0002381636
41	0xb9f97793	-0.0004758207
42	0xb91ae641	-0.00014772361
43	0xb8ab4034	-8.165874e-05
44	0x3958188b	0.00020608508
45	0x38e4d700	0.00010911934
46	0x395c8875	0.00021031669
47	0x39bd1ef6	0.00036071957
48	0x39cb7675	0.00038807435
49	0x39ee602c	0.0004546655
50	0x3a126cac	0.00055856514
51	0xb85514cc	-5.0802526e-05
52	0x39f46aae	0.0004661879
53	0xb98b1cd1	-0.00026533616
54	0xba088e70	-0.0005209213
55	0xba136f10	-0.00056241546
56	0x3a114be9	0.00055426225
57	0x390f6269	0.00013674203
58	0xb9e59ba3	-0.00043794242
59	0x39dda7d0	0.00042277435
60	0x39f11e4e	0.0004598968
61	0x39b9446e	0.00035336934
62	0x395f0405	0.00021268435
63	0x3983385e	0.00025028264

base.4.running_mean f4 [64]
0	0x3e000e73	0.12505512
1	0xbdae5acb	-0.08513411
2	0xbdb7d71b	-0.08976575
3	0xbd8a4e53	-0.067532204
4	0xbe1b690a	-0.15176788
5	0x3e0f114e	0.13971445
6	0xbd4f4c5e	-0.05060994
7	0xbdafdf4e	-0.08587514
8	0xbcca94e0	-0.024729192
9	0xbe1027d0	-0.14077687
10	0x3d06918d	0.03285365
11	0xbcf5dce6	-0.03001256
12	0xbd2f7c6a	-0.04284326
13	0xbd8d7687	-0.06907373
14	0x3d661606	0.056173347
15	0x3d36b032	0.044601627
16	0xbddeee88	-0.1088534
17	0x3d90bfb6	0.07067816
18	0x3d9784f3	0.07398405
19	0xbe233761	-0.15939094
20	0xbc15aaf7	-0.0091349995
21	0xbd7aa5b0	-0.06119317
22	0xbd5d2725	-0.05399241
23	0x3d8c0f30	0.06838834
24	0x3d522374	0.051303342
25	0x3da0dbad	0.078544
26	0x3dc691c7	0.096957736
27	0xbc82432a	-0.015901167
28	0xbd46da18	-0.048547834
29	0xbdcc46e9	-0.099744625
30	0xbe040786	-0.12893495
31	0x3bb6569d	0.0055645243
32	0xbc32d12e	-0.01091413
33	0xbcfe59fc	-0.031048767
34	0xbc009623	-0.007848295
35	0xbe3e51e1	-0.18585922
36	0x3dbe65bc	0.09296748
37	0xbe2269c8	-0.15860665
38	0x3d3d8a01	0.04627419
39	0x3cb1b668	0.021693423
40	0x3c5c47b1	0.013444827
41	0x3ca59109	0.02021076
42	0xbe6863f3	-0.22694378
43	0xbdb9eb30	-0.090780616
44	0x3d91d306	0.07120328
45	0xbdeccb97	-0.11562269
46	0x3cd766c9	0.026294129
47	0x3df590f7	0.119905405
48	0x3bfd5be3	0.007731901
49	0xbe295c5b	-0.16539137
50	0x3da3270e	0.079664335
51	0x3e046eea	0.12932935
52	0xbd956399	-0.07294387
53	0x3e1709a3	0.1474977
54	0xbdb1f582	-0.08689405
55	0xbd40a90a	-0.04703621
56	0x3d11da92	0.035608836
57	0xbd514513	-0.051091265
58	0xbd9c56d0	-0.07633746
59	0xbcd02a18	-0.025410697
60	0x3e1ab3b8	0.1510762
61	0xbd29e4b2	-0.041477866
62	0xbc05eca4	-0.008174095
63	0x3debb0de	0.11508344

base.4.running_var f4 [64]
0	0x3d6e6283	0.058199417
1	0x3d8e3e7d	0.069455124
2	0x3d6869cf	0.056741532
3	0x3d869f36	0.06573336
4	0x3e3909f2	0.180702
5	0x3dd526bc	0.104077786
6	0x3dc51379	0.09622855
7	0x3d434c1b	0.04768
8	0x3e1ae0c1	0.151248
9	0x3e1e7b83	0.15476803
10	0x3dbd422e	0.092411384
11	0x3d47c3c0	0.048770666
12	0x3dc06ac1	0.09395362
13	0x3d595c2c	0.053066418
14	0x3dd28f79	0.102812715
15	0x3e1b50a9	0.15167488
16	0x3d76f483	0.06029178
17	0x3c9ad428	0.018899992
18	0x3d1d6524	0.038426533
19	0x3e255c03	0.16148381
20	0x3d8dee32	0.06930198
21	0x3e2393f3	0.15974407
22	0x3d636aec	0.05552189
23	0x3d452986	0.048135303
24	0x3e03bf54	0.12865955
25	0x3d989885	0.07450966
26	0x3e16450f	0.14674781
27	0x3dc4437e	0.095831856
28	0x3d8bada1	0.068202265
29	0x3e0e4852	0.13894776
30	0x3d365061	0.04451025
31	0x3d17d060	0.037063956
32	0x3d891ee5	0.06695346
33	0x3e051e9b	0.12999956
34	0x3d960bd9	0.073264785
35	0x3da5e4b0	0.08100259
36	0x3debc0d4	0.115113884
37	0x3e6eb942	0.23312858
38	0x3d8a0903	0.0674
39	0x3d13773a	0.036002375
40	0x3d92bffc	0.07165524
41	0x3d840c07	0.064476065
42	0x3e2de880	0.16983223
43	0x3e13ede5	0.14446218
44	0x3d2511ec	0.040300295
45	0x3d2678ba	0.040642478
46	0x3d2ff23b	0.04295562
47	0x3daa8b0a	0.08327301
48	0x3dabf144	0.08395627
49	0x3e18b097	0.14911114
50	0x3ddb80c9	0.10717923
51	0x3da622c0	0.08112097
52	0x3dcb6790	0.09931862
53	0x3d4ed6d0	0.05049783
54	0x3d1374bb	0.035999995
55	0x3d80e68c	0.06293973
56	0x3d8fb21e	0.07016395
57	0x3d5532b1	0.052050296
58	0x3e05720b	0.13031785
59	0x3e50cadc	0.20389885
60	0x3e68519f	0.22687386
61	0x3e04548e	0.1292288
62	0x3d3bd6d6	0.04585918
63	0x3d6dc0a2	0.058045037

base.6.weight f4 [32, 64, 5, 5]
0	0x3c970d21	0.018438878
1	0x3c5fdbea	0.013663271
2	0xba801060	-0.0009770505
3	0xbc2a0c8c	-0.010378968
4	0xba28bcef	-0.00064368447
5	0xbbf85ed2	-0.007579663
6	0xbbe835fb	-0.007086513
7	0xb8ced895	-9.863187e-05
8	0x3c550613	0.0130019365
9	0xbc6c9727	-0.014440334
10	0xbbf725b7	-0.0075423378
11	0x3bc88fe9	0.006120671
12	0x3c3d564f	0.011556222
13	0xbb3700f0	-0.0027924143
14	0xbc39859a	-0.011323357
15	0x3c9e57db	0.019329002
16	0x3cb93444	0.02260793
17	0xb9af0240	-0.00033380277
18	0x3c9fc787	0.019504322
19	0x3ca5284c	0.020160817
20	0x3bed10e8	0.0072346814
21	0xbcc0cecb	-0.023536107
22	0xbc4aa918	-0.012369417
23	0xbc827d40	-0.015928864
24	0x3c7c94f1	0.01541637
25	0xbca3b28f	-0.019982604
26	0x3c0699b8	0.00821536
27	0xbc4040a8	-0.011734165
28	0xbc540091	-0.012939588
29	0xbcc5b2ad	-0.02413305
30	0xbcc8b57d	-0.024500603
31	0xbca3787e	-0.019954916
32	0xbc31e6a0	-0.010858208
33	0xbc03e4d9	-0.008050167
34	0xbcab8b9c	-0.020940594
35	0x3cc70711	0.024295362
36	0x3c6823c8	0.014168687
37	0x3b8286b1	0.0039833416
38	0xbb7165ae	-0.0036834287
39	0x3c84abec	0.01619526
40	0x3c950bb9	0.018194066
41	0x3c12699e	0.008936314
42	0xbcc0f021	-0.023552002
43	0xbc9282b6	-0.017884593
44	0xbca9a66e	-0.020709243
45	0xba653d7e	-0.000874482
46	0x3c5c01a8	0.013428129
47	0xbc60d449	-0.013722488
48	0xbcb7cec7	-0.022437466
49	0xbcab8aa4	-0.020940132
50	0x3bf6a47c	0.0075269323
51	0x3be3020e	0.006927735
52	0xbb36100a	-0.0027780556
53	0x3b55c6d7	0.0032619738
54	0x3b535158	0.003224453
55	0xbbe4a673	-0.00697785
56	0x3b1fc7f8	0.0024380665
57	0x3c6c7f9f	0.014434724
58	0x3ca7e47b	0.02049469
59	0x3cbe6c50	0.023245007
60	0x3b172b40	0.002306655
61	0x3cb22087	0.021744026
62	0x3ca397ec	0.019969903
63	0xbb18f3ba	-0.0023338632
64	0x3bd2125c	0.00641088
65	0xbcc20883	-0.0236857
66	0x3a524396	0.00080209353
67	0x3c716763	0.014734122
68	0xbc7bc31c	-0.015366342
69	0xbc6b355f	-0.014355986
70	0x3ccdc914	0.025120296
71	0x3ca4cd7a	0.02011751
72	0xbc7e4ef0	-0.01552175
73	0xbcab3638	-0.020899877
74	0xbc79f19b	-0.015255357
75	0x3c718312	0.014740722
76	0x3cb48d57	0.022040052
77	0xbcbf2954	-0.023335136
78	0x3caaeca6	0.020864796
79	0x3c04ba11	0.008101002
80	0x3c595a79	0.013266199
81	0x3c90f50d	0.017694974
82	0xbc151855	-0.0091000395
83	0xb9b12ba3	-0.00033792583
84	0xbc212239	-0.0098348195
85	0xbc9b3097	-0.018944068
86	0xbc9e166e	-0.019297805
87	0xbcc5b78f	-0.02413538
88	0xbcac60bb	-0.021042218
89	0xbb8d5e21	-0.0043141996
90	0xbb845603	-0.0040385737
91	0xbc0750b5	-0.008258988
92	0xbc9dda2f	-0.019269077
93	0x3c1b5369	0.009480336
94	0xbc13857f	-0.009003996
95	0x3cbd8698	0.023135468
96	0x3b9e1d6c	0.0048252847
97	0xbb76a9e1	-0.0037637877
98	0x3cb0182d	0.021495903
99	0x3cb0dc6b	0.021589478
100	0xba9d73ed	-0.0012012698
101	0x3cb3e579	0.021960007
102	0xbacdc4fa	-0.0015698962
103	0x3c8bb810	0.017055541
104	0x3c92f8aa	0.017940838
105	0xbb74371b	-0.003726429
106	0xbc84f9f1	-0.016232463
107	0xbbe64e02	-0.007028342
108	0x3b931c2d	0.004489443
109	0xbb8a3eb8	-0.0042189024
110	0xbc4cefda	-0.012508357
111	0xbcbd4839	-0.023105728
112	0x3b4a0203	0.0030823953
113	0xbca3bc95	-0.019987384
114	0x3c9c42c9	0.019074814
115	0x3c0f83ca	0.008759448
116	0xbbb04fd4	-0.00538061
117	0x3c90e2df	0.017686306
118	0xbb676d83	-0.0035313077
119	0xbca62d60	-0.020285308
120	0x3c80e4ec	0.015734158
121	0x3caac7cf	0.02084723
122	0xbcabb6bb	-0.020961156
123	0x3cb914be	0.022592898
124	0xbc5677d5	-0.013090094
125	0x3c806a30	0.015675634
126	0xbbb84c47	-0.0056243273
127	0xba1439cb	-0.0005654364
128	0x3bfbec4d	0.0076880814
129	0x3c1faa89	0.009745249
130	0xbc8f12ac	-0.017464958
131	0x3c44d43f	0.012013494
132	0x3b063653	0.0020479157
133	0x3c4f3452	0.0126467515
134	0xbc862afd	-0.01637792
135	0x3cc68725	0.024234364
136	0xbbdd3ece	-0.0067518717
137	0xbc1b3dde	-0.0094751995
138	0x3bc98327	0.006149668
139	0x3b5cf95f	0.0033717973
140	0xbc165932	-0.009176539
141	0x3c1bea92	0.009516375
142	0x3bb6219e	0.0055582067
143	0xbc3bf511	-0.011472003
144	0xbb379697	-0.0028013343
145	0xbc7a9405	-0.01529408
146	0x3c86ac4a	0.016439576
147	0xbcc901c9	-0.024536984
148	0x3c2380c6	0.009979432
149	0xbcbaf337	-0.022821052
150	0x3c9ddfd8	0.019271776
151	0x3c6ea445	0.014565532
152	0x3c48f87d	0.0122662755
153	0xbc36604e	-0.011131359
154	0x3cc05f64	0.023482986
155	0xbcba2dd8	-0.022726938
156	0xbb82f9e2	-0.0039970735
157	0x3ab96c81	0.0014146717
158	0x3cb3dbd9	0.021955417
159	0xbc1365e8	-0.008996464
160	0x39b39373	0.000342514
161	0x3ca66fa6	0.02031691
162	0xbb5670bb	-0.0032721001
163	0x3b4db5a6	0.0031388788
164	0xbcb3c3a8	-0.021943882
165	0x3cc5bbe9	0.024137454
166	0xbc85d4be	-0.016336795
167	0x3c3f388a	0.011671195
168	0xbc34c2da	-0.011032784
169	0x3cbf4db6	0.023352485
170	0xbca25702	-0.01981688
171	0x3cc6032b	0.024171432
172	0xbbe66ce6	-0.0070320247
173	0x3c3bfc58	0.011473738
174	0x3c40350d	0.011731398
175	0x3ba65d61	0.0050770496
176	0xbcbee927	-0.023304535
177	0x3c86f245	0.016472945
178	0xbc81bc13	-0.015836751
179	0x3bafa88f	0.00536067
180	0xbc2e7dc3	-0.010650101
181	0xbbce2075	-0.0062904903
182	0xbc74dc51	-0.014945106
183	0xbc4e163b	-0.012578542
184	0x3c835c70	0.016035289
185	0xbcad762f	-0.021174518
186	0xbc27dda3	-0.010245713
187	0xba1c40b4	-0.0005960569
188	0x3ca0672d	0.019580448
189	0x3c6d4590	0.014481917
190	0x3a9a4ef6	0.00117728
191	0xbbf87f4b	-0.007583534
192	0xbc4a7c33	-0.012358713
193	0xbc9585ae	-0.01825222
194	0xbc219887	-0.0098630255
195	0x3c3c19c3	0.011480751
196	0xbc851568	-0.016245559
197	0xbc9ee2c9	-0.019395249
198	0x3c9b53fa	0.018960942
199	0x3b3d320a	0.0028868937
200	0xbc0bbe91	-0.008529321
201	0x3bdd5234	0.006754184
202	0xbccac320	-0.024751246
203	0x3c309cdd	0.010779587
204	0x3c8ea5f5	0.017413119
205	0xbbff53fb	-0.0077919937
206	0x3c563400	0.013073921
207	0xbc6ef66f	-0.014585122
208	0xbc6c88f8	-0.014436953
209	0xbc16a67a	-0.009194965
210	0xbc6e1406	-0.014531141
211	0x3cb05dd7	0.021529121
212	0x3c971818	0.018444106
213	0xbc4c5f09	-0.01247383
214	0x3b7eec5f	0.0038898212
215	0x3ab38a0b	0.0013697756
216	0xbcb6e666	-0.02232666
217	0xbc4b32f8	-0.012402289
218	0xbcadb537	-0.021204574
219	0xbb367b7c	-0.0027844599
220	0x3cc9ff0f	0.024657754
221	0x3cba2347	0.0227219
222	0xbb8c5ba5	-0.004283386
223	0xbca34454	-0.019930042
224	0xbc2d130e	-0.010563625
225	0xbc604ed0	-0.013690665
226	0xbca9415a	-0.020661045
227	0xbca78c84	-0.020452745
228	0xbc84ce00	-0.01621151
229	0xbb90dd8c	-0.0044209417
230	0xbc9c8054	-0.01910416
231	0x3ccc8a6d	0.02496835
232	0x3a484a14	0.0007640433
233	0xbc1e8b17	-0.009676716
234	0x3cc33554	0.02382914
235	0xbb917300	-0.004438758
236	0x3cb17303	0.021661287
237	0xbccb78d1	-0.024837883
238	0x3c42a836	0.011880925
239	0xbc9e3f9c	-0.01931744
240	0x3c8002ca	0.01562633
241	0x3bf00471	0.007324748
242	0xbb6ea9c2	-0.0036417102
243	0xbccc47e3	-0.024936622
244	0x3ad34829	0.0016119528
245	0x3ca24709	0.019809263
246	0x3b37d057	0.0028047764
247	0xbb84e175	-0.004055197
248	0xbc9439e6	-0.018094014
249	0x3c8c8701	0.017154219
250	0xbc69fc1d	-0.0142813
251	0x3c38aa3d	0.011271057
252	0xbc28dafc	-0.010306116
253	0xbcc0c4ea	-0.023531396
254	0xbc09f7ff	-0.008420943
255	0x3c13b6b1	0.009015725

base.6.bias f4 [32]
0	0x3ca1d599	0.019755172
1	0x3b9b2eb3	0.0047357916
2	0xbc09b5f6	-0.008405199
3	0xbc55a94f	-0.013040855
4	0x3b8cef11	0.00430096
5	0x3b980b5a	0.004640025
6	0xbc407103	-0.011745694
7	0xbba90678	-0.005158242
8	0xbcbe51aa	-0.0232323
9	0xbb4151de	-0.002949826
10	0x3b7bddfe	0.0038431878
11	0x3c190109	0.009338626
12	0x3ab5febb	0.001388512
13	0xbc72722c	-0.0147977285
14	0x3c88b7cc	0.016689204
15	0x3ac73057	0.0015196902
16	0xbc399f4e	-0.011329485
17	0x3c9cb645	0.019129882
18	0xb8b8118a	-8.7770706e-05
19	0xbcc4fb80	-0.024045706
20	0x3cba8d88	0.022772565
21	0xbc9e1ccd	-0.019300843
22	0xb8ceb7dc	-9.857092e-05
23	0xbae3a300	-0.0017367303
24	0xbb3bdf5c	-0.0028667068
25	0xbcc2d38d	-0.023782516
26	0xbc9e07ad	-0.01929077
27	0x3c92885e	0.01788729
28	0x3cbc1b91	0.022962363
29	0xbc666cb3	-0.014064002
30	0xba93877b	-0.0011255586
31	0x3cb0c1b0	0.021576732

base.7.weight f4 [32]
0	0x3f7ff8c9	0.9998899
1	0x3f800b9a	1.000354
2	0x3f800a2e	1.0003107
3	0x3f7ff379	0.99980885
4	0x3f80125c	1.0005603
5	0x3f801237	1.0005559
6	0x3f800e96	1.0004451
7	0x3f800c6e	1.0003793
8	0x3f7fe833	0.9996368
9	0x3f801269	1.0005618
10	0x3f7ffc5c	0.99994445
11	0x3f800110	1.0000324
12	0x3f7fe48d	0.99958116
13	0x3f7fef93	0.99974936
14	0x3f8001a6	1.0000503
15	0x3f800c60	1.0003777
16	0x3f7ffdcb	0.9999663
17	0x3f7fd52b	0.99934644
18	0x3f8002ee	1.0000894
19	0x3f80102b	1.0004934
20	0x3f7fe794	0.99962735
21	0x3f8011e2	1.0005457
22	0x3f800d82	1.0004122
23	0x3f80072b	1.0002187
24	0x3f7ff1ec	0.9997852
25	0x3f80122d	1.0005547
26	0x3f7ff1eb	0.9997851
27	0x3f8007a2	1.0002329
28	0x3f8012e0	1.000576
29	0x3f800472	1.0001357
30	0x3f800ff8	1.0004873
31	0x3f800283	1.0000767

base.7.bias f4 [32]
0	0xb9bc3041	-0.00035894106
1	0x3a24471b	0.0006266699
2	0x39fdf871	0.00048441024
3	0xb9c0af54	-0.00036751723
4	0x3a070511	0.0005150596
5	0x3a1e8311	0.0006046752
6	0x3a182939	0.00058044825
7	0x39c302e2	0.00037195446
8	0xb9f3d257	-0.00046505287
9	0x3a02efdb	0.00049948477
10	0x39a79766	0.00031965523
11	0x397716ec	0.00023564295
12	0x39010191	0.00012302982
13	0xb984dcad	-0.00025341418
14	0x3a0840b6	0.0005197631
15	0x38e00ee8	0.00010683929
16	0xba17688d	-0.0005775772
17	0xba10dfc7	-0.00055265095
18	0x39c6f4d1	0.00037947905
19	0x39d7bfab	0.000411508
20	0xb9c601a3	-0.00037766722
21	0x3976c9f2	0.00023535619
22	0x3a227460	0.0006197151
23	0x3a07d565	0.00051816396
24	0xb9ce74f6	-0.00039378525
25	0x3a154277	0.0005693803
26	0x39306caf	0.00016825156
27	0xb9a1ef50	-0.00030886615
28	0x3a1a465e	0.00058851193
29	0x39941363	0.00028243204
30	0x3a07726c	0.00051668915
31	0x39882ae1	0.0002597189

base.7.running_mean f4 [32]
0	0x3befdbb0	0.00731989
1	0xbe5fef13	-0.21868543
2	0x3da9400d	0.0826417
3	0x3d73a9dd	0.059488166
4	0x3dc61fbe	0.09674023
5	0x3e838dcd	0.25694123
6	0x3def7c48	0.11693627
7	0xbe8c67ed	-0.2742304
8	0xbd435035	-0.047683913
9	0x3e0196c4	0.12655169
10	0xbd2c1a15	-0.04201706
11	0x3da12edb	0.07870265
12	0xbd85b0ec	-0.06527886
13	0x3debace5	0.115075864
14	0xbc39d7d8	-0.011342965
15	0x3e91184e	0.28338856
16	0xbc292295	-0.010323186
17	0x3c8c736b	0.01714488
18	0x3c5a79bd	0.013334689
19	0x3e902a87	0.28157446
20	0xbd90c5e1	-0.070689924
21	0x3cc456f9	0.023967253
22	0x3d67f8f0	0.05663389
23	0xbc6408ad	-0.013918084
24	0x3d7d7e39	0.061887953
25	0xbd93006b	-0.07177814
26	0xbe34ad16	-0.17644152
27	0x3bdc0a71	0.006715112
28	0x3e751977	0.23935495
29	0xbc1e8c19	-0.009676957
30	0x3e1a9d2a	0.15099016
31	0xbda90470	-0.082527995

base.7.running_var f4 [32]
0	0x3d9df4c0	0.07712698
1	0x3e7dc3aa	0.24781671
2	0x3dd2aef9	0.1028728
3	0x3da3ec68	0.08004075
4	0x3e735a89	0.23765005
5	0x3d2feb34	0.042948917
6	0x3e9ff1c2	0.31239134
7	0x3e25d156	0.16193137
8	0x3dc8c4b7	0.098031454
9	0x3e1b7e03	0.15184788
10	0x3e3442de	0.17603633
11	0x3d58ed7e	0.052960865
12	0x3e989a61	0.29805282
13	0x3e90ba71	0.28267244
14	0x3dbbcf6b	0.09170421
15	0x3e655e38	0.22399223
16	0x3db92c69	0.09041674
17	0x3e0223bd	0.12708946
18	0x3d4ddb40	0.05025792
19	0x3e028a1b	0.12747996
20	0x3da2e4f6	0.07953827
21	0x3dec710a	0.11544998
22	0x3dc6b030	0.09701574
23	0x3da11dca	0.0786701
24	0x3dd265d0	0.102733254
25	0x3d6b3d28	0.05743137
26	0x3e246074	0.16052419
27	0x3e95154c	0.2911781
28	0x3e1ddc8a	0.1541616
29	0x3d96533d	0.07340095
30	0x3e08b414	0.13349944
31	0x3da63dd9	0.08117265

head.0.weight f4 [24, 1024]
0	0x3c24a292	0.010048525
1	0x3bafc99b	0.0053646094
2	0xbc61376c	-0.013746124
3	0x39e8c9a8	0.00044400734
4	0xbc1c5f62	-0.009544225
5	0xbb051f8b	-0.002031299
6	0xbcbaab68	-0.022786811
7	0xbc042652	-0.008065777
8	0xbcdce46f	-0.026964394
9	0x3cbcd63c	0.023051374
10	0xb903b67b	-0.00012561113
11	0xbc6e4911	-0.014543788
12	0x3c38c848	0.0112782195
13	0x3c1a6d70	0.009425506
14	0x3bfa8d75	0.0076462575
15	0xbcad3a04	-0.021145828
16	0x3a21ef1c	0.00061772927
17	0xbc5b92f8	-0.013401739
18	0x3cb55c8e	0.02213886
19	0xbc7f0f72	-0.015567647
20	0xb9731bb4	-0.00023184606
21	0x3a91c38b	0.0011120898
22	0x3c36fc46	0.011168545
23	0xb93a483a	-0.00017765249
24	0xbcea053d	-0.028566951
25	0xbc7be8eb	-0.015375356
26	0xbbabc803	-0.005242349
27	0xbacd99e1	-0.0015686118
28	0x3cc831e1	0.024437847
29	0x3c2a6374	0.010399688
30	0xbc7a5a21	-0.0152802775
31	0x3b7ecabd	0.0038878166
32	0xbbf208ea	-0.0073863165
33	0xbb439313	-0.0029842302
34	0x3b45e36d	0.003019537
35	0xbcfe0e3b	-0.031012645
36	0x3ceaf573	0.028681492
37	0x3cf5a427	0.0299855
38	0xbc0b2993	-0.008493799
39	0x3ce0f5f6	0.027461033
40	0xbb8965f7	-0.0041930634
41	0x3bf814a5	0.0075708204
42	0xbcf4a9a8	-0.029866055
43	0x3c8ec394	0.017427243
44	0xbce65d00	-0.028120518
45	0xbaffbc8e	-0.001951115
46	0xbcc9f932	-0.024654958
47	0xbbdb1cf2	-0.0066868
48	0xbcfdbb8c	-0.030973218
49	0xbc9156a2	-0.017741505
50	0xbcb0ca34	-0.021580793
51	0xbcfe923c	-0.03107559
52	0x3cebbd67	0.028776838
53	0x3cc643d7	0.02420227
54	0xbc5e5e5a	-0.0135723
55	0xbccc792d	-0.024960125
56	0x3cb1b8c6	0.021694552
57	0x3b428b0c	0.002968493
58	0xbcd6c854	-0.02621857
59	0xba4615e7	-0.0007556364
60	0x3bf3556e	0.0074259555
61	0x3cb29ccd	0.021803284
62	0x3bed01f8	0.0072329007
63	0xbc886f85	-0.01665474
64	0x3bb416cd	0.005495882
65	0x3c8f7105	0.017509947
66	0xbcc48d6d	-0.023993218
67	0xbc85e83c	-0.01634609
68	0x3c51ccff	0.0128052225
69	0x3ce8b092	0.028404508
70	0xbc809482	-0.015695814
71	0x3ca6a454	0.02034203
72	0xbcb90b0b	-0.022588274
73	0x3ce77367	0.02825327
74	0x3c39caec	0.011339884
75	0xbcdc8745	-0.02691997
76	0xbcc6f402	-0.024286274
77	0xbcfb171a	-0.030650664
78	0x3c777538	0.015103631
79	0x3c16b27f	0.00919783
80	0xbcc99b01	-0.024610044
81	0x3cbc56f0	0.022990674
82	0x3ced1d4f	0.02894464
83	0xbc9a4b44	-0.018834718
84	0xb9277dc0	-0.00015973207
85	0xbc03ce7a	-0.008044833
86	0x3a003ca9	0.00048918516
87	0x3bd4b3fa	0.0064911814
88	0xbcec2a1b	-0.028828671
89	0x3c01b07d	0.007915613
90	0x3c70358a	0.014661202
91	0xba9ad0d9	-0.0011811509
92	0xbc4c3af8	-0.012465231
93	0x3ca7d653	0.02048794
94	0xbcdd19d6	-0.026989859
95	0x3c0a383f	0.008436262
96	0x3b2ce75f	0.0026383025
97	0x3b3549d5	0.0027662416
98	0xbc89c25d	-0.016816312
99	0xbbed21f4	-0.0072367135
100	0xbc56972c	-0.013097566
101	0xbc7378b3	-0.01486032
102	0x3c941007	0.018074049
103	0x3c8f9667	0.017527772
104	0x3b155306	0.0022785082
105	0x3c40b6dc	0.011762347
106	0x3c27ef70	0.010249957
107	0xbca5bb3c	-0.020230882
108	0x3c0f9e7e	0.008765815
109	0xba816611	-0.0009872337
110	0x3ca39935	0.019970516
111	0x3c81c83a	0.015842546
112	0x3cfc04a5	0.030763933
113	0x3a9d3513	0.0011993967
114	0xbcc4ed84	-0.024039038
115	0xbc6dd029	-0.014514961
116	0xbb3a80cf	-0.0028458124
117	0xbb51b2a2	-0.0031997343
118	0x3b530bec	0.003220315
119	0xbc927757	-0.017879171
120	0x3cb66365	0.022264192
121	0xbb03ad41	-0.002009228
122	0x3ceb9c9a	0.028761197
123	0xbc95b746	-0.018275868
124	0x3cdbae0d	0.026816392
125	0xbc8ae216	-0.01695351
126	0xbcb7cce5	-0.022436569
127	0xbc06f68a	-0.00823749
128	0xbc98b582	-0.018641237
129	0xbcb90cd1	-0.02258912
130	0x3c32c1d1	0.010910467
131	0xbcb2a1c4	-0.021805651
132	0xba479a97	-0.0007614283
133	0x3c8e4cc6	0.017370593
134	0xbca0bbb1	-0.019620748
135	0xbc892f96	-0.016746324
136	0x3c8c4298	0.017121598
137	0xbc886d61	-0.016653718
138	0xbcedb4a4	-0.0290168
139	0x3c8e4a03	0.017369276
140	0xbc562f3b	-0.013072784
141	0xbca566aa	-0.020190556
142	0x3c8219e3	0.015881484
143	0xbc88ed59	-0.016714739
144	0x3ca1824c	0.01971545
145	0x3c1f0d83	0.009707811
146	0xbbd1f888	-0.006407801
147	0x3c2182d8	0.009857856
148	0xbbbc6bbf	-0.005750149
149	0x3c0d2cc8	0.008616634
150	0x3c3cedca	0.011531303
151	0x3c8fdcdf	0.017561374
152	0x3ce459cc	0.02787485
153	0xbc694eb2	-0.014239954
154	0xb98cf3d4	-0.00026884547
155	0x3c81c4fb	0.015840998
156	0x3c5ae024	0.013359103
157	0x3ca78fa5	0.020454237
158	0xbc4903eb	-0.0122690005
159	0xbc7a549f	-0.015278964
160	0x3c66ec7c	0.014094468
161	0xbcd13553	-0.025538122
162	0x3b5708b9	0.0032811596
163	0xbc96fde2	-0.018431608
164	0xbb94f04d	-0.0045452476
165	0xbc3aacac	-0.011393707
166	0xbc4b12b1	-0.012394593
167	0xbcd2ae76	-0.025717955
168	0xbc8bc024	-0.017059393
169	0xb8d5468a	-0.000101697704
170	0xbc99d176	-0.018776637
171	0xbba3920d	-0.004991776
172	0x3bc22831	0.0059252013
173	0x3966feb0	0.00022029388
174	0xbcede864	-0.029041477
175	0xbcd0babd	-0.025479669
176	0x3ac49aa8	0.0014999704
177	0x3c72b10d	0.01481272
178	0xbb5e5f52	-0.0033931327
179	0xbb91d20f	-0.0044500898
180	0x3caf7940	0.021420121
181	0x3cba4994	0.022740163
182	0xbc003307	-0.007824666
183	0xbc8b3134	-0.016991235
184	0x3cef18f4	0.029186703
185	0x3c7313ee	0.014836295
186	0xbcd4a642	-0.025958184
187	0xbb563d5c	-0.0032690382
188	0xbc50b081	-0.012737394
189	0x3c5a2121	0.013313563
190	0xbcfa623e	-0.030564424
191	0x3cacd782	0.021098856
192	0x3cc7011b	0.02429252
193	0x3be51a59	0.0069916663
194	0xba3f6c3a	-0.0007302199
195	0xbca3f74f	-0.020015387
196	0xbad6a2c3	-0.0016375411
197	0xbc97221b	-0.01844888
198	0xbc15ffd2	-0.009155231
199	0x3ce8fcff	0.02844095
200	0xbc6504d2	-0.0139782
201	0xbc834fa9	-0.016029196
202	0x3c987277	0.018609269
203	0x3c89f74c	0.016841553
204	0x3c550770	0.0130022615
205	0x3c1b1b67	0.009466982
206	0xbc428d2a	-0.011874476
207	0x3b274656	0.0025524101
208	0x3b94fd0d	0.0045467676
209	0x3c849a4a	0.016186852
210	0x3c8c7b2a	0.017148573
211	0xbc2aa993	-0.010416406
212	0xbcb03417	-0.021509213
213	0x3b17c76b	0.0023159634
214	0xbc6db89a	-0.0145093445
215	0x3cd40e17	0.025885625
216	0x3bb840fe	0.005622982
217	0xbc585a4a	-0.01320512
218	0xbc5381a0	-0.012909323
219	0x3c929229	0.01789196
220	0xb8ab27ab	-8.161304e-05
221	0x3a4bcded	0.0007774521
222	0x3cc37f75	0.023864487
223	0x3afd866e	0.0019342431
224	0xbc901212	-0.017586742
225	0x3c6948ac	0.014238518
226	0xbcf11658	-0.0294296
227	0xbc4dd70f	-0.012563481
228	0xbcb5057d	-0.022097344
229	0xbc0f435d	-0.008744088
230	0xbc110fcd	-0.008853865
231	0x3cc178ea	0.023617227
232	0x3c9c206b	0.019058427
233	0x3ce315af	0.0277203
234	0x3c892d3c	0.016745202
235	0x3cc775fc	0.024348252
236	0x3c949cbd	0.018141145
237	0x3bf68674	0.0075233523
238	0xbcc19c1a	-0.023634005
239	0x3cc0e334	0.023545839
240	0xbb996b0d	-0.004681951
241	0xbb80856a	-0.003922154
242	0x3ac1ebef	0.0014795045
243	0xbccda5b3	-0.025103426
244	0x3cc480db	0.023987224
245	0x3bad3194	0.005285451
246	0x3cc94476	0.024568778
247	0xbca0eb91	-0.019643577
248	0x3c0c4116	0.00856044
249	0xbaf05304	-0.0018335287
250	0x3c0a9826	0.008459127
251	0x3ab74d91	0.0013984909
252	0xbaa1e6de	-0.0012352129
253	0xbc794e05	-0.015216355
254	0xbcf14614	-0.029452361
255	0x3c9a43fb	0.018831244

head.0.bias f4 [24]
0	0x3a80e732	0.0009834527
1	0x3cadb1c9	0.021202939
2	0xbaf986fe	-0.0019037423
3	0xbc6b094b	-0.014345477
4	0xba71f810	-0.00092303846
5	0xbc6c6b42	-0.014429869
6	0xbce58986	-0.028019678
7	0xbbb8d0e8	-0.005640138
8	0x3aa448f9	0.0012533955
9	0x3ccf2c8c	0.025289796
10	0x3cbbe955	0.02293841
11	0x3b9200d4	0.004455665
12	0xbc3f0a5e	-0.011660187
13	0x3cb9a7e9	0.022663074
14	0xbbcce5d7	-0.006252985
15	0xbcce91c4	-0.02521599
16	0x3cbe47df	0.02322763
17	0xbcd8698b	-0.026417514
18	0xbcdb45f4	-0.026766755
19	0x3c3d7679	0.011563891
20	0x3c6d2258	0.01447352
21	0x3ce5f773	0.028072095
22	0xbc455eb3	-0.012046504
23	0x3bcdd7cf	0.00628183
