models/PG hidden=64 lr=1e-05 max_steps=1000 Adam fullwidth BETA=50.0.pt (torch, 945918 bytes, 22 tensors)

base.0.weight f4 [64, 2, 5, 5]
0	0xbd747037	-0.05967733
1	0x39b4c64e	0.00034480024
2	0xbdf26d5c	-0.11837265
3	0x3d834dfa	0.06411357
4	0xbde4144d	-0.111366846
5	0xbbc1505e	-0.005899473
6	0x3d16e0d7	0.036835518
7	0xbd8d337d	-0.06894586
8	0x3c64e281	0.013970018
9	0x3dc9aa4f	0.09846937
10	0xbd49dad1	-0.049280945
11	0x3db2d821	0.087326296
12	0x3ce0fb4f	0.027463583
13	0xbd4b9e62	-0.049711592
14	0x3af2e82e	0.001853233
15	0x3cefd898	0.029278085
16	0xbd677015	-0.056503374
17	0xbe01e9a4	-0.12686783
18	0x3d3c02c3	0.04590107
19	0x3dc5f2b4	0.096654326
20	0xbcaa301e	-0.020774897
21	0x3daee16b	0.08539089
22	0x3de397fe	0.111129746
23	0xbe0d9fe5	-0.13830526
24	0xbde54cd6	-0.11196296
25	0x3cb3463b	0.021884074
26	0x3d9b93c2	0.07596542
27	0x3dd11d53	0.10210671
28	0x3ccfcf89	0.025367515
29	0x3cbfb5bb	0.023402086
30	0x3e1067d3	0.14102106
31	0xbd8abbaa	-0.06774075
32	0x3dcfff88	0.101561606
33	0xbe0fded1	-0.14049841
34	0x3c9500ca	0.018188853
35	0xbcbfb367	-0.023400975
36	0x3dc10703	0.094251655
37	0x3e0c8b9f	0.13725136
38	0x3db95721	0.09049822
39	0xbd5d9b2c	-0.05410306
40	0x3dfcb6c1	0.12339545
41	0xbe0cd463	-0.13752894
42	0xbdc0ffde	-0.09423803
43	0xbd1b0a35	-0.03785153
44	0xbe0ec79d	-0.13943334
45	0xbd9afa94	-0.07567325
46	0x3dee2b75	0.116293825
47	0xbe016f09	-0.12640013
48	0x3ddf0069	0.1088875
49	0x3c9ce9a9	0.019154387
50	0x3d81fc3f	0.0634694
51	0xbdca09ae	-0.098651275
52	0xbcffa1bf	-0.031205056
53	0x3d584c8a	0.05280737
54	0xbd9a2d86	-0.07528214
55	0xbde0161c	-0.10941717
56	0x3e0154d7	0.1263002
57	0x3cc5e1f1	0.024155589
58	0xbcd5ffa7	-0.026122881
59	0x3dc8d0ae	0.098054275
60	0x3d9679ad	0.073474266
61	0x3d89b498	0.06723899
62	0x3d629bc4	0.05532433
63	0xbdc60c50	-0.09670317
64	0x3df4afc0	0.11947584
65	0xbd8659f5	-0.06560127
66	0x3d94c382	0.07263853
67	0x3e095745	0.13412197
68	0xbdb8d241	-0.09024478
69	0x3dd89e33	0.10577049
70	0xbd3f5953	-0.046716046
71	0x3d6ee7ac	0.05832641
72	0x3de4da20	0.111744165
73	0xbcce22a3	-0.025163
74	0xbdea6401	-0.114448555
75	0xbe033a8e	-0.12815306
76	0x3d862694	0.06550327
77	0xbd7ce251	-0.06173927
78	0x3dd658a9	0.10466129
79	0xbdcb48fd	-0.09926031
80	0x3d47b163	0.048753154
81	0x3e0392b2	0.12848929
82	0xbdb4cc22	-0.08827998
83	0xbd9d1f61	-0.07672001
84	0xbcde518e	-0.027138498
85	0x3daf5df5	0.08562843
86	0x3da8a5e7	0.08234768
87	0x3e0f9ad1	0.14023902
88	0xbdda1700	-0.10648918
89	0x3dd6c001	0.104858406
90	0xbdc24cdc	-0.09487316
91	0xbda86f67	-0.08224373
92	0x3d284a67	0.04108658
93	0x3deab38f	0.11460029
94	0x3dfe1482	0.12406255
95	0x3c3c9252	0.011509495
96	0x3c9f86d0	0.019473463
97	0x3ded078e	0.115737066
98	0xbdc10451	-0.094246514
99	0xbd568338	-0.052371234
100	0xbdd4c5a7	-0.10389262
101	0x3dd95940	0.10612726
102	0xbcdcd5c8	-0.026957408
103	0x3e01663e	0.12636659
104	0x3b22d591	0.0024846534
105	0x3ca91976	0.020642024
106	0x3d39bc89	0.045345817
107	0xbcdbaddf	-0.026816307
108	0x3d47d975	0.048791368
109	0xbcf6248b	-0.030046722
110	0xbb85469a	-0.0040672543
111	0x3c979202	0.01850224
112	0x3e0926ac	0.13393658
113	0xbd385fc2	-0.045013197
114	0xbbe4ffd8	-0.0069885068
115	0xbc24a4b1	-0.010049031
116	0xbdb5f7c2	-0.08885147
117	0xbd1f1955	-0.038842518
118	0xbd148c7e	-0.036266796
119	0x3da9ed0f	0.082971685
120	0x3dcf4f17	0.10122507
121	0xbd7e0f8a	-0.062026538
122	0x3e00eca1	0.12590267
123	0xbe00064e	-0.12502405
124	0x3dfd5269	0.12369234
125	0xbb191ded	-0.0023363784
126	0x3e008c85	0.12553604
127	0x3d58c9e4	0.052926913
128	0x3d091456	0.03346666
129	0xbd626a39	-0.055277083
130	0xbe087595	-0.13326104
131	0xbd4354b0	-0.047688186
132	0x3d8022cf	0.06256639
133	0xbddad133	-0.10684433
134	0xbd3a259e	-0.04544603
135	0xbda5e1ac	-0.08099684
136	0x3e0c30f9	0.13690557
137	0xbd8d16f9	-0.06889147
138	0xbc9b3d33	-0.01895008
139	0x3dbc5ca2	0.09197356
140	0xbd2583fd	-0.040409077
141	0x3d44482d	0.047920395
142	0xbd49df0b	-0.049284976
143	0x3c295239	0.010334545
144	0xbdaffb46	-0.085928485
145	0x3dd4b07a	0.10385223
146	0xbdc0d193	-0.09414973
147	0xbb505ba9	-0.0031792915
148	0x3ca748c2	0.020420436
149	0x3cedee79	0.029044377
150	0xbd061f18	-0.032744497
151	0x3bfe80e0	0.007766828
152	0x3df107aa	0.1176904
153	0x3d4b55a7	0.04964223
154	0xbdd9a647	-0.10627418
155	0xbda2dd8e	-0.079524145
156	0xbdcf8a94	-0.101338536
157	0xbe0b4f85	-0.13604553
158	0x3e0328cf	0.12808536
159	0xbdb2421a	-0.08704014
160	0xbe0deda0	-0.13860178
161	0xbcc9a932	-0.024616811
162	0xbdb9f730	-0.090803504
163	0x3d824d2c	0.063623756
164	0x3da09ac4	0.07842019
165	0xbdaa12d9	-0.08304376
166	0x3de837df	0.113387816
167	0xbc5074c2	-0.01272315
168	0xbd837ce9	-0.06420309
169	0x3dd7f400	0.10544586
170	0xbd17fd85	-0.03710701
171	0xbe0ba21c	-0.13636059
172	0x3d8fbc4e	0.07018338
173	0xbdd3c3ea	-0.10340102
174	0xbd87be54	-0.06628099
175	0x3da16bde	0.07881902
176	0xbd3c8f58	-0.04603514
177	0xbd55c8c5	-0.052193422
178	0xbd5f5170	-0.054521024
179	0xbd1b2222	-0.03787435
180	0xbd1717ee	-0.036888056
181	0x3bf14992	0.0073635066
182	0xbc879600	-0.016551018
183	0xbd1dacdc	-0.03849493
184	0x3d7f12d0	0.0622738
185	0x3cdbb04f	0.026817469
186	0xbdae4236	-0.085087225
187	0x3d578f13	0.05262668
188	0x3d9b7540	0.07590723
189	0x3ccd441e	0.025056895
190	0xbd695e13	-0.05697448
191	0x3bad1d3f	0.0052830274
192	0xbd9f4859	-0.07777471
193	0x3e10c519	0.14137687
194	0xbdbe9274	-0.093052775
195	0xbe03e215	-0.12879212
196	0x3d995a2f	0.07487904
197	0xbc5081a5	-0.012726222
198	0xbc13442a	-0.00898842
199	0xbe05ca20	-0.13065386
200	0xbdd2de97	-0.10296362
201	0xbdf73803	-0.1207123
202	0xbafd2487	-0.0019313254
203	0x3dcbccc5	0.09951166
204	0xbd25f8e2	-0.040520556
205	0x3d669450	0.056293786
206	0xbcc77ad0	-0.024350554
207	0x3d9ac8f3	0.07557859
208	0x3d5b3813	0.053520273
209	0xbdfa0a0f	-0.1220895
210	0xbde8e121	-0.11371065
211	0x3ce7823c	0.028260343
212	0xbde021ae	-0.10943924
213	0xbe07483e	-0.13211152
214	0xbde3bff2	-0.11120595
215	0xbddb41b6	-0.10705893
216	0xbe0abe9b	-0.13549273
217	0x3dcc4241	0.099735744
218	0x3e010835	0.12600787
219	0x3c2a5a3f	0.010397493
220	0xbdf7ec3c	-0.12105605
221	0x3dbb5411	0.09146894
222	0x3db23c81	0.087029465
223	0x3dc712a7	0.097203545
224	0x3e0ddd4f	0.13853954
225	0x3e04cd04	0.12968832
226	0x3d693aa6	0.056940697
227	0x3de74145	0.11291746
228	0x3ca92a49	0.020650046
229	0x3d28cb7a	0.041209675
230	0x3d04f9bc	0.032464728
231	0x3d0f667c	0.035009846
232	0xbd662b54	-0.056193665
233	0x3da0f96b	0.07860073
234	0xbdc5b63f	-0.09653901
235	0xbd8fe153	-0.07025399
236	0xbcdd36cb	-0.027003666
237	0x3cf9a7fd	0.03047561
238	0xbd0946c5	-0.033514757
239	0xbb245e67	-0.0025080682
240	0xbda6039f	-0.081061594
241	0xbd8fda69	-0.0702408
242	0x3c3a0bc2	0.011355342
243	0x3ddf9dbc	0.10918757
244	0x3de652c2	0.112462536
245	0xbd62914d	-0.05531435
246	0xbd168561	-0.036748294
247	0x3e1173f2	0.14204386
248	0xbe0f21dc	-0.1397776
249	0x3d1720d5	0.036896545
250	0x3db70a91	0.08937562
251	0xbe089d49	-0.1334125
252	0xbdb0ec53	-0.08638825
253	0x3d5071a9	0.050889645
254	0xbb367269	-0.002783919
255	0xbd858b0e	-0.06520663

base.0.bias f4 [64]
0	0xbd00f4e9	-0.031483565
1	0x3de46709	0.11152465
2	0xbe011eb3	-0.12609367
3	0x3c67bf1b	0.014144684
4	0x3c2c60c9	0.010521122
5	0x3d39367a	0.04521797
6	0xbc9591e7	-0.018258048
7	0x3df9c1ec	0.12195191
8	0x3deae0e6	0.11468677
9	0x3cd89872	0.02643988
10	0xbcd775fb	-0.026301375
11	0x3db68389	0.08911807
12	0x3c31b498	0.01084628
13	0xbd3e8500	-0.046513557
14	0xbd8982d0	-0.06714404
15	0xbe080e3a	-0.13286677
16	0xbd38e05f	-0.045135852
17	0xbe0ae0bd	-0.13562293
18	0x3d68552a	0.056721844
19	0x3c95c637	0.018282993
20	0xbd02dc88	-0.031948596
21	0x3d4f3e4e	0.050596528
22	0x3d08670f	0.03330141
23	0xbe0effbc	-0.13964742
24	0x3d95fad5	0.07323233
25	0x3dc317d2	0.09526028
26	0xbdf616f1	-0.120160945
27	0xb82092bf	-3.828364e-05
28	0xbd8b8b73	-0.06813707
29	0xbcbd477d	-0.023105377
30	0x3e0b5eb3	0.13610344
31	0xbc5112df	-0.012760847
32	0x3d6052a8	0.054766327
33	0x3dfdce17	0.12392824
34	0xbddb32bc	-0.10703036
35	0xbce001ff	-0.027344702
36	0x3ca24335	0.019807437
37	0xbc8e3de6	-0.0173635
38	0x3e0dc627	0.1384512
39	0xbd4192bc	-0.047259077
40	0xbcbfb8f8	-0.02340363
41	0xbdd37881	-0.10325719
42	0x3df840c1	0.12121726
43	0xbd384172	-0.04498429
44	0x3dca5f1b	0.09881421
45	0x3c839382	0.016061548
46	0xbc6f33a9	-0.014599719
47	0x3dc066c5	0.09394602
48	0x3e0cf909	0.13766874
49	0xbd91b0c0	-0.071137905
50	0x3dcb14ba	0.09916063
51	0x3ddbf342	0.10739757
52	0xbda4f933	-0.080553435
53	0xbda4f6d1	-0.08054889
54	0xbd7a3629	-0.061086807
55	0x3ceadfa7	0.028671099
56	0x3df63355	0.120215096
57	0x3da825e7	0.08210354
58	0x3d299ef1	0.041411344
59	0x3dd04268	0.10168916
60	0x3da79d2a	0.081842735
61	0x3ce0fa95	0.027463237
62	0x3d9651f1	0.07339848
63	0x3dbcec5d	0.0922477

base.1.weight f4 [64]
0	0x3f7fb674	0.99887776
1	0x3f80174c	1.000711
2	0x3f7fd780	0.999382
3	0x3f8022c8	1.0010614
4	0x3f7f9f9a	0.9985291
5	0x3f801ca6	1.0008743
6	0x3f7fba14	0.9989331
7	0x3f7fdcec	0.99946475
8	0x3f7ff7f3	0.99987715
9	0x3f7fe0c3	0.99952334
10	0x3f7fc484	0.99909234
11	0x3f803256	1.0015361
12	0x3f7fd9b7	0.9994158
13	0x3f7fb232	0.9988128
14	0x3f80037a	1.0001061
15	0x3f803c62	1.0018427
16	0x3f803611	1.00165
17	0x3f7ff900	0.9998932
18	0x3f7fcff2	0.99926674
19	0x3f801a5c	1.0008044
20	0x3f7fcccb	0.99921864
21	0x3f801ddd	1.0009114
22	0x3f800a0d	1.0003067
23	0x3f802a96	1.0012996
24	0x3f802e33	1.0014099
25	0x3f8036bf	1.0016707
26	0x3f7fcd92	0.9992305
27	0x3f7ff240	0.9997902
28	0x3f80065a	1.0001938
29	0x3f800fec	1.0004859
30	0x3f7fc85a	0.9991509
31	0x3f7fd312	0.9993144
32	0x3f800e32	1.0004332
33	0x3f7fb39d	0.99883443
34	0x3f7fbc4e	0.99896705
35	0x3f800f0e	1.0004594
36	0x3f7fbf89	0.99901634
37	0x3f801e83	1.0009311
38	0x3f7fe2a4	0.999552
39	0x3f7fd94c	0.99940944
40	0x3f7fa7d7	0.9986548
41	0x3f800608	1.000184
42	0x3f80086d	1.0002571
43	0x3f80297c	1.001266
44	0x3f800d30	1.0004025
45	0x3f7ffc35	0.9999421
46	0x3f7f9a4b	0.9984481
47	0x3f802bcb	1.0013365
48	0x3f802712	1.0011923
49	0x3f8012b0	1.0005703
50	0x3f801d3e	1.0008924
51	0x3f802f42	1.0014422
52	0x3f8007f1	1.0002424
53	0x3f7fbe65	0.99899894
54	0x3f804a0c	1.0022597
55	0x3f8012f8	1.0005789
56	0x3f8031c8	1.0015192
57	0x3f7ff554	0.99983716
58	0x3f801fe3	1.0009731
59	0x3f8009ad	1.0002953
60	0x3f803784	1.0016942
61	0x3f7fb635	0.998874
62	0x3f8003e5	1.0001189
63	0x3f802b86	1.0013282

base.1.bias f4 [64]
0	0x39b04802	0.00033622986
1	0x3a539713	0.0008071523
2	0xb91ee28d	-0.00015152451
3	0x39fe449a	0.00048497767
4	0xba70f532	-0.00091918104
5	0x3ac824bc	0.0015269737
6	0x39c125a5	0.00036839876
7	0xb92183bb	-0.0001540323
8	0x3a5d1595	0.0008433697
9	0x3a577af1	0.0008219919
10	0xba32b6db	-0.0006817409
11	0x3a1042d6	0.00055031234
12	0x3a6cbc68	0.000903076
13	0xbaa7e783	-0.0012810085
14	0x39a2db5d	0.00031062486
15	0x3aa334f2	0.0012451692
16	0x3a9292e0	0.0011182688
17	0x39de68b9	0.00042421164
18	0xb90aead4	-0.00013248186
19	0x39bdc64f	0.0003619664
20	0x3a6b9af4	0.00089876284
21	0xb976c2a5	-0.00023532899
22	0x3a97b1e1	0.0011573398
23	0xba11ce50	-0.0005562054
24	0xba8a6dc4	-0.0010561277
25	0x37addce0	2.072606e-05
26	0x3a39ccad	0.0007087689
27	0x3a8a615e	0.0010557582
28	0xb98b5ffa	-0.00026583654
29	0x3a4167c3	0.00073778274
30	0x3ab8b668	0.0014092447
31	0x3a85c32f	0.0010205264
32	0x3a9dd47e	0.0012041477
33	0x3a4ef03b	0.00078940735
34	0x39a961d5	0.00032307082
35	0x3a15a825	0.00057089544
36	0xba648796	-0.00087177136
37	0x3a7460fb	0.00093223125
38	0xba1dce11	-0.0006019781
39	0xba71527d	-0.0009205712
40	0xb9bf9f48	-0.00036549033
41	0x39efdd7e	0.00045750657
42	0xb96d06b8	-0.00022604584
43	0x3a28f2b7	0.0006444859
44	0x3a037cbf	0.0005015842
45	0x39b91368	0.00035300408
46	0xb9e2788a	-0.00043195888
47	0x3a480307	0.00076298456
48	0x3aea93c7	0.0017896824
49	0x39d7065c	0.00041012734
50	0x3aa49f33	0.0012559652
51	0x3a9d3ef8	0.0011996916
52	0x3a91dcb7	0.00111284
53	0xba135a44	-0.00056210556
54	0xb9d80c4d	-0.00041207895
55	0x3a84dea0	0.0010137148
56	0x3ab75b46	0.0013988994
57	0xb98df534	-0.00027076306
58	0x3aa35c27	0.0012463377
59	0xb99a6692	-0.0002944959
60	0x3ae8b96b	0.0017755454
61	0xba65f1bf	-0.000877168
62	0x3985bd43	0.00025508748
63	0x38353d56	4.3210886e-05

base.1.running_mean f4 [64]
0	0x3d46bfd2	0.048522778
1	0x3f409d67	0.75240177
2	0x3d9f5767	0.077803425
3	0xbf5a8abb	-0.85367936
4	0x3c5c3b33	0.013441849
5	0xbfa83907	-1.3142403
6	0x3f633278	0.88748884
7	0xbddd51a4	-0.10806587
8	0xbf437369	-0.76347977
9	0xbf29e892	-0.663705
10	0x3e4aa2f9	0.19788732
11	0x3ef458d1	0.47724012
12	0xbd25daa5	-0.04049172
13	0x3eb68331	0.35646966
14	0xbe167acb	-0.1469528
15	0x3f51420f	0.8174142
16	0x3ede0a95	0.43367448
17	0x3e5e6987	0.21719943
18	0xbf6d204e	-0.9262742
19	0xbf698323	-0.91215724
20	0xbe1bacb5	-0.15202601
21	0x3e908cdf	0.28232476
22	0x3f038110	0.5136881
23	0xbcd1d6b9	-0.025615083
24	0x3e9cf304	0.30654156
25	0x3f085898	0.53260183
26	0xbe82fadd	-0.25582018
27	0xbf11c8a9	-0.5694681
28	0xbf62e776	-0.8863443
29	0xbeb9238d	-0.36159936
30	0xbe665c42	-0.22496131
31	0xbf2aae72	-0.6667243
32	0xbf7ae777	-0.9800944
33	0xbf1bc806	-0.60852087
34	0xbea8729c	-0.3289994
35	0xbdd02ccd	-0.10164795
36	0xbf5ad4d9	-0.8548103
37	0x3e9b34db	0.30313763
38	0xbeb5eb08	-0.35530877
39	0xbf5db940	-0.86610794
40	0x3d622039	0.05520651
41	0xbf0d71c4	-0.5525172
42	0xbed8d46d	-0.42349568
43	0xbc5382fa	-0.012909645
44	0xbf000c6d	-0.5001896
45	0xbe948df8	-0.29014564
46	0xbd2f0d46	-0.042737268
47	0x3e631437	0.2217568
48	0x3f729ac7	0.9476742
49	0xbeef4e1c	-0.4673928
50	0x3d1f9960	0.03896463
51	0x3f1de295	0.6167386
52	0xbf4a24cf	-0.78962415
53	0xbd938b55	-0.0720431
54	0x3e129ef6	0.14318451
55	0xbe96f4fe	-0.2948379
56	0x3f919082	1.1372225
57	0xbfaf935d	-1.3716847
58	0xbe4ef14c	-0.20209235
59	0x3e133c71	0.14378525
60	0xbe890da1	-0.2676821
61	0xbf1d959d	-0.61556417
62	0xbee3fb74	-0.4452778
63	0x3f26bdbd	0.6513327

base.1.running_var f4 [64]
0	0x3a455557	0.000752767
1	0x3c0aa3ce	0.008461906
2	0x3a752c11	0.00093525747
3	0x3c29a65b	0.010354604
4	0x3b57bb41	0.0032918009
5	0x3ccc0cf9	0.02490853
6	0x3c42070c	0.0118425
7	0x3abacbb5	0.0014251383
8	0x3c298999	0.010347747
9	0x3c045e0c	0.008079063
10	0x3b7f24fe	0.0038931961
11	0x3baf72af	0.0053542475
12	0x3abee626	0.0014564439
13	0x3bdb832f	0.006698988
14	0x3b587f7e	0.0033034976
15	0x3c5e9832	0.013586091
16	0x3b82c8dd	0.00399123
17	0x3b4235f9	0.002963422
18	0x3c64bb2a	0.013960639
19	0x3c3a2ea4	0.011363659
20	0x3ae1fe16	0.0017241861
21	0x3b39c9a0	0.0028348938
22	0x3ba295ad	0.0049616904
23	0x3b316fc9	0.0027074686
24	0x3ae30f0d	0.0017323211
25	0x3b566c77	0.0032718459
26	0x3a69d043	0.0008919278
27	0x3bcc639b	0.00623746
28	0x3c176461	0.009240241
29	0x3adecf5e	0.0016999056
30	0x3b71ce91	0.0036896805
31	0x3bbd30c7	0.005773637
32	0x3c87706c	0.0165331
33	0x3c2c4dea	0.010516623
34	0x3b9c8f97	0.0047778594
35	0x3ac56f62	0.0015063102
36	0x3c382d35	0.011241247
37	0x3b96751d	0.0045915977
38	0x3b72a5e2	0.0037025143
39	0x3c100c67	0.008792019
40	0x3a29d3ae	0.0006478381
41	0x3bb2e0e1	0.0054589366
42	0x3bc6dc87	0.0060687694
43	0x3a977aa0	0.0011556931
44	0x3c057efd	0.008147952
45	0x3b548895	0.0032430042
46	0x3acdd6fa	0.0015704327
47	0x3b72cafb	0.0037047255
48	0x3c3d3f1a	0.011550689
49	0x3b86d7c4	0.0041150767
50	0x3b2aba91	0.0026051144
51	0x3b59f112	0.0033255261
52	0x3c09d3c6	0.008412307
53	0x3ad893db	0.0016523557
54	0x3aa86b36	0.0012849334
55	0x3b1c8ab9	0.0023886396
56	0x3c68cb97	0.014208696
57	0x3cfad4f9	0.030619131
58	0x3af9f533	0.0019070267
59	0x3a8f8d69	0.0010952178
60	0x3b5eda21	0.0034004527
61	0x3c0a26d6	0.008432111
62	0x3b896528	0.004192967
63	0x3bbb4933	0.005715513

base.3.weight f4 [64, 64, 5, 5]
0	0x3c99e164	0.018784232
1	0xbc29cc36	-0.010363629
2	0xbca8ccc5	-0.020605454
3	0x3ac6fd8c	0.0015181764
4	0xbc0f62af	-0.008751555
5	0xbb5f5220	-0.003407605
6	0x3c48d247	0.012257165
7	0xbbd235e6	-0.0064151166
8	0xbc3f4adf	-0.0116755655
9	0xba5bde73	-0.00083873345
10	0x3ca73402	0.020410541
11	0x3bb73b4d	0.005591786
12	0x3c9d180d	0.019176507
13	0xbb0ac4c5	-0.0021174413
14	0x3bce5fc9	0.0062980396
15	0xbcb470e2	-0.022026483
16	0xbc5c0948	-0.013429947
17	0xbbad8c75	-0.005296285
18	0x3cbc265c	0.02296751
19	0x3b8a7dbf	0.004226416
20	0xba8acbd9	-0.0010589316
21	0xbc96e77e	-0.018420931
22	0x3cb082e1	0.021546783
23	0x3b5ae9d0	0.0033403523
24	0x3cb91e92	0.022597585
25	0x3bfdcdc4	0.0077454764
26	0x3c2b29a8	0.010446943
27	0xbca75d18	-0.020430133
28	0x3c28a5c4	0.010293428
29	0x3be6849b	0.007034851
30	0xbbaa86a6	-0.0052040396
31	0x3c55ac0e	0.013041509
32	0x3c98f424	0.018671103
33	0xbc3b3672	-0.011426555
34	0x3b63433a	0.0034677521
35	0xbcba2cd3	-0.022726452
36	0xbcca6d1b	-0.024710229
37	0x3c75311c	0.014965322
38	0x3c049b3c	0.008093651
39	0xbb2223d8	-0.0024740603
40	0x3c2010bb	0.009769614
41	0x3cb3a4c8	0.02192916
42	0xbcaec7f4	-0.02133558
43	0x3a94ed66	0.0011362254
44	0xbc38abe4	-0.011271451
45	0x3c1bba5c	0.009504881
46	0x3cb37556	0.021906536
47	0xbb974ae8	-0.004617084
48	0xbbbc7ac7	-0.005751941
49	0xbcb39483	-0.021921402
50	0xbca6574d	-0.0203053
51	0xbca69e9a	-0.020339299
52	0x3a1697f9	0.00057446916
53	0x3c8cde9c	0.017195992
54	0xbc9893bf	-0.018625138
55	0xbc94a309	-0.018144147
56	0xbcb16d67	-0.021658612
57	0x3c4c3a6d	0.012465102
58	0xbb282dce	-0.0025662067
59	0xbc571c2d	-0.013129276
60	0x3c6a35cb	0.014295052
61	0xbcbeac4f	-0.023275523
62	0xbc178ddb	-0.00925013
63	0x3c8e0cd7	0.017340107
64	0x3bc6af17	0.006063353
65	0xbc5089f8	-0.012728207
66	0xbc16b72b	-0.009198944
67	0x3c808f07	0.0156932
68	0xbc54d31a	-0.012989784
69	0x3c69a5ab	0.01426069
70	0x3c691544	0.0142262615
71	0xbcbabd52	-0.022795353
72	0x3cc4d157	0.024025602
73	0xbbb6375b	-0.005560798
74	0xbc4f4c88	-0.012652524
75	0xbc434410	-0.011918083
76	0x3b41706a	0.0029516467
77	0xbc738a77	-0.014864556
78	0xbafe8548	-0.0019418383
79	0x3b2c0eb5	0.0026253883
80	0x3c79cfac	0.015247267
81	0xbb75905a	-0.0037470073
82	0xbbc44c39	-0.0059905318
83	0x3c239c03	0.009985927
84	0x3c6ed014	0.014575977
85	0x3cb5abf8	0.022176728
86	0xbc3b53a8	-0.011433519
87	0xbc1d7618	-0.009610675
88	0xbc5438af	-0.012952968
89	0xbc20f111	-0.0098231
90	0x3bfd5ddd	0.0077321366
91	0x3be2ca04	0.006921055
92	0xbc85631b	-0.016282609
93	0xbb1a1a07	-0.0023514049
94	0x3c8a9ca9	0.016920405
95	0xbcc04668	-0.023471072
96	0xbb939476	-0.004503782
97	0x3c0c113d	0.008549032
98	0xbc529c6c	-0.012854677
99	0x3ccf3cdd	0.025297577
100	0xbbc6f574	-0.0060717408
101	0xbb4da81c	-0.0031380719
102	0x3c29cba7	0.010363496
103	0xbb97ea76	-0.004636104
104	0x3cb47b00	0.022031307
105	0x3c95a73a	0.018268216
106	0xbcc80738	-0.024417505
107	0xbc213445	-0.009839122
108	0xbc543fae	-0.012954636
109	0x3cbea33c	0.023271196
110	0xbca8a16e	-0.020584788
111	0xbb6ce67c	-0.0036148122
112	0x3c56165f	0.013066857
113	0xba98167e	-0.0011603383
114	0xbc4079eb	-0.0117478175
115	0xbbc7b09e	-0.0060940525
116	0x3c3ef4d6	0.011655053
117	0x3c9e6c3e	0.019338723
118	0x3c25bd0e	0.010115875
119	0xbc0b5f40	-0.008506596
120	0x3c8bf570	0.017084807
121	0xbb0b0792	-0.002121423
122	0x3ca2feca	0.019896884
123	0x3ca277e8	0.019832566
124	0x3ca7d49a	0.020487119
125	0xbc5193a8	-0.012791552
126	0xbb526038	-0.0032100808
127	0xbc317986	-0.010832196
128	0xbcb33e00	-0.02188015
129	0x3b948ad3	0.0045331507
130	0x3c5101f4	0.012756813
131	0x3b8aa1bb	0.0042307056
132	0x3cc0124e	0.023446228
133	0xbaa35f11	-0.0012464245
134	0x3b44b87d	0.003001719
135	0xbc48ca97	-0.012255332
136	0xbafd35bc	-0.0019318382
137	0xbc10b02d	-0.008831066
138	0x3b1c7bbb	0.002387746
139	0x3c33bc13	0.010970133
140	0x3c092603	0.008370879
141	0xbc31a197	-0.010841749
142	0x3c8052dd	0.015664512
143	0xbbf44f61	-0.0074557518
144	0x3bdc9790	0.006731935
145	0x3c183ad7	0.009291372
146	0x3c1cd90f	0.009573235
147	0xbca84f62	-0.020545665
148	0x3c8cb657	0.01717679
149	0xbcb5cbaf	-0.02219185
150	0x3c81ccc8	0.015844718
151	0x3c8fd8a2	0.017559353
152	0xbcb91ae7	-0.022595836
153	0x3c79cbc7	0.015246338
154	0x3c9c006a	0.019043166
155	0x3caed7b4	0.02134309
156	0xba2ea506	-0.00066621637
157	0x3c2ccf59	0.010547482
158	0x3caf695e	0.021412548
159	0x3afedb95	0.0019444103
160	0x3b427c49	0.002967613
161	0x3cbd9b65	0.023145387
162	0xbc4d6f52	-0.012538748
163	0x3c96f384	0.018426664
164	0x3c6eb8bb	0.01457041
165	0xbcc261ad	-0.023728216
166	0x3bb502b7	0.0055240053
167	0x3c934ff5	0.017982462
168	0x3a3c3834	0.0007180006
169	0x3c98061f	0.018557606
170	0x3c8fd47e	0.017557379
171	0x3b81d1c7	0.003961775
172	0x3cab83b3	0.020936823
173	0x3bb72605	0.005589249
174	0xbbb342fd	-0.005470632
175	0x3cb9e987	0.022694362
176	0x3cb32acd	0.021870995
177	0xbc05b818	-0.008161567
178	0x3ab0e1c8	0.0013495022
179	0x3c235c7b	0.0099707795
180	0x3cc3b6da	0.023890901
181	0x3c9d1c43	0.019178515
182	0xbc485fd7	-0.012229881
183	0xbc8c1d65	-0.01710386
184	0x3c1cb854	0.009565432
185	0x3c2028f2	0.009775387
186	0x3c85c33f	0.016328452
187	0x3c9ca6e1	0.019122543
188	0xbc43e8d3	-0.011957365
189	0xbb531329	-0.0032207465
190	0x3c0c4617	0.008561633
191	0xbbb4adb0	-0.005513869
192	0x3b5b8f99	0.003350234
193	0x3c611935	0.01373892
194	0x3cbf4a09	0.023350732
195	0x3c20e0b0	0.009819195
196	0x3ca10ff4	0.019660927
197	0x3aba28cf	0.0014202836
198	0xbcc4ba68	-0.024014667
199	0x3c1d2fa7	0.009593881
200	0xbc5bf2ba	-0.01342457
201	0xbca1644b	-0.019701144
202	0x3c5c9de6	0.01346538
203	0xbb6f5f1f	-0.0036525202
204	0xbc03b174	-0.008037914
205	0xbc69c86f	-0.0142689785
206	0xbc0b72ec	-0.008511286
207	0x3bc53b47	0.0060190293
208	0xbc9f3277	-0.019433243
209	0x3ba001a4	0.004883008
210	0x3cb90134	0.022583582
211	0xbbcd6abb	-0.006268827
212	0xbc95b973	-0.018276906
213	0x3caba7a1	0.020953955
214	0x3c1136ea	0.00886319
215	0x3c3bc43b	0.011460359
216	0x3ccd2d9d	0.025046164
217	0x3cd14dcf	0.025549797
218	0xbc0e3a5b	-0.008680905
219	0xbcae539a	-0.021280099
220	0x3cc1e3c1	0.023668172
221	0x3c263242	0.010143818
222	0x3c95a0ae	0.018265095
223	0x3c122828	0.008920707
224	0x3ca42a23	0.020039624
225	0x3c3e0b70	0.011599407
226	0x3b547050	0.0032415576
227	0xb8645200	-5.4435804e-05
228	0xbc48e992	-0.012262719
229	0x3c5013cd	0.012700033
230	0x3b399d1d	0.0028322407
231	0x3c9f9089	0.0194781
232	0x3bffff1c	0.007812394
233	0x3cabf4c2	0.020990733
234	0x3ca5a6de	0.02022117
235	0xbc8c9d9d	-0.017165
236	0xbcaf6064	-0.021408267
237	0x3ca95296	0.020669263
238	0xbb552529	-0.003252337
239	0xbc1d346c	-0.009595018
240	0x3c9c6bdf	0.019094406
241	0xbaa197df	-0.0012328586
242	0xbc9910d2	-0.018684778
243	0xbca58b83	-0.020208126
244	0xbb9b77f0	-0.0047445223
245	0x3ca6cdf9	0.020361887
246	0xbc899fa5	-0.016799757
247	0x3c1db86d	0.00962649
248	0x3caff1f0	0.02147767
249	0x3c3ccf40	0.011524022
250	0x3c0ba100	0.008522272
251	0xbca5c83c	-0.02023708
252	0xbc651dcd	-0.013984156
253	0xbc71bf2f	-0.014755054
254	0x3c6ccdaf	0.014453336
255	0xbb947661	-0.0045307134

base.3.bias f4 [64]
0	0x3af72976	0.0018856961
1	0x3c0141d8	0.0078892335
2	0xbc122f36	-0.008922389
3	0x3b4cf395	0.0031273116
4	0xbc9dc646	-0.019259583
5	0xbc48c134	-0.012253094
6	0x3c760f0b	0.015018235
7	0x3cb62b68	0.022237495
8	0xbb9cf6bd	-0.0047901557
9	0x3cbb2a95	0.022847453
10	0x3b34485e	0.0027508955
11	0xbc688065	-0.014190768
12	0x3c509b0b	0.012732278
13	0xbcc76aac	-0.024342857
14	0x3c8aae51	0.016928824
15	0x3c084358	0.008316837
16	0x3ca25a28	0.01981838
17	0x3a87553b	0.0010325083
18	0x3c645671	0.013936625
19	0x3c44ad68	0.012004234
20	0xbc9ea23a	-0.019364465
21	0xbc2ab205	-0.01041842
22	0xbc6d5720	-0.014486104
23	0x3b91a09b	0.0044441945
24	0x3b4dd4af	0.0031407287
25	0x3cc05583	0.023478275
26	0x3c4e42c9	0.012589165
27	0xbca01c28	-0.019544676
28	0xbc946e1b	-0.018118909
29	0xbb61fd25	-0.0034483161
30	0x3b8e938b	0.0043510846
31	0x3cb61af6	0.022229653
32	0xbb9accbc	-0.0047241133
33	0x3bcdcd2a	0.006280561
34	0x3c2375ce	0.009976817
35	0xbc538767	-0.0129107
36	0x3c50b03b	0.012737329
37	0x3ca7a210	0.02046302
38	0xbca36a48	-0.01994814
39	0xbadc9d4c	-0.0016831546
40	0xbc25cf1a	-0.010120178
41	0x3b57b78b	0.0032915797
42	0x3bd5088f	0.0065012644
43	0xbae5fcd2	-0.001754666
44	0x3c39efb9	0.011348658
45	0xbcc9b6b5	-0.024623254
46	0x3c967d11	0.018370183
47	0xbc963308	-0.01833488
48	0x390cb9b2	0.00013420617
49	0x3c4251e7	0.011860347
50	0xbb26dd8b	-0.002546164
51	0xbb93cfb3	-0.0045108437
52	0x3b0d4f3d	0.0021562122
53	0xbc629231	-0.0138288
54	0xbc48cce5	-0.012255882
55	0x3c0c5b1f	0.008566647
56	0xbc3c394c	-0.01148827
57	0xbc46e644	-0.012139861
58	0x3c1b26f4	0.009469736
59	0xbcb7d361	-0.02243966
60	0x3b512ddc	0.0031918203
61	0x3c84b790	0.01620081
62	0x3c8dee9e	0.017325696
63	0x3c6f8d87	0.014621145

base.4.weight f4 [64]
0	0x3f80244f	1.001108
1	0x3f7ff3e6	0.99981534
2	0x3f802624	1.001164
3	0x3f7fbcb4	0.99897313
4	0x3f7fd300	0.99931335
5	0x3f800542	1.0001605
6	0x3f7fa10c	0.99855113
7	0x3f7fa4eb	0.9986102
8	0x3f803abe	1.0017927
9	0x3f801a97	1.0008115
10	0x3f800b9a	1.000354
11	0x3f800bba	1.0003579
12	0x3f800469	1.0001346
13	0x3f7ff436	0.9998201
14	0x3f803822	1.001713
15	0x3f7fef66	0.9997467
16	0x3f7feece	0.9997376
17	0x3f80064d	1.0001923
18	0x3f801e8e	1.0009325
19	0x3f800935	1.000281
20	0x3f802619	1.0011626
21	0x3f800605	1.0001837
22	0x3f8001d4	1.0000558
23	0x3f7fba2b	0.99893445
24	0x3f7fd7b5	0.9993852
25	0x3f80242c	1.0011039
26	0x3f7fcdd8	0.9992347
27	0x3f7fad16	0.99873483
28	0x3f801770	1.0007153
29	0x3f7fc36f	0.99907583
30	0x3f802f33	1.0014404
31	0x3f8004ee	1.0001504
32	0x3f803ae1	1.0017968
33	0x3f7fb584	0.99886346
34	0x3f7fb7a9	0.9988962
35	0x3f7fbe0d	0.9989937
36	0x3f7fbfa1	0.9990178
37	0x3f7fc796	0.9991392
38	0x3f803b47	1.001809
39	0x3f805cd9	1.0028335
40	0x3f800d82	1.0004122
41	0x3f801116	1.0005214
42	0x3f7fc1a7	0.99904865
43	0x3f7fc151	0.9990435
44	0x3f80198a	1.0007794
45	0x3f8021d2	1.0010321
46	0x3f7fd53f	0.9993476
47	0x3f7f9d02	0.9984895
48	0x3f7fd4f7	0.99934334
49	0x3f801ae5	1.0008208
50	0x3f801e3c	1.0009227
51	0x3f7ff445	0.999821
52	0x3f7fd520	0.9993458
53	0x3f7fba01	0.99893194
54	0x3f802590	1.0011463
55	0x3f7fbbc8	0.99895906
56	0x3f7ffb46	0.9999279
57	0x3f7fdbe4	0.999449
58	0x3f802194	1.0010247
59	0x3f802ea2	1.0014231
60	0x3f8018ed	1.0007607
61	0x3f801b3f	1.0008315
62	0x3f80236e	1.0010812
63	0x3f7fafcd	0.99877626

base.4.bias f4 [64]
0	0x3998956b	0.00029103024
1	0x3a9ef7ae	0.0012128258
2	0x3aca09a4	0.001541425
3	0xba82e528	-0.0009986507
4	0xba568cd1	-0.00081844354
5	0x3a22eec5	0.0006215389
6	0xba60c662	-0.0008574483
7	0xba9f155f	-0.0012137106
8	0x3ae1c45d	0.0017224659
9	0x38332dca	4.271957e-05
10	0x3ac242d9	0.0014820948
11	0x3a2a6556	0.00065000856
12	0x3a910588	0.001106427
13	0xba3a5901	-0.00071085995
14	0x3ac43b5a	0.0014971301
15	0x3a1ab717	0.00059019163
16	0xba22d3e6	-0.0006211385
17	0x3aec88c7	0.0018046134
18	0x3a7b289c	0.00095809414
19	0x3a33a555	0.00068529445
20	0x3b2f1b8d	0.0026719302
21	0x3a9ca2aa	0.0011950333
22	0x3a83a397	0.001004326
23	0xba152642	-0.00056896
24	0xbab5814d	-0.0013847739
25	0x3ae193a7	0.0017210142
26	0x39a6264b	0.00031690518
27	0xbad7a4f9	-0.0016452364
28	0x3a8d5c68	0.0010784985
29	0x39c494ec	0.0003749499
30	0x3a4c98b0	0.00078047346
31	0x3aa8188a	0.0012824696
32	0x3aa75ca6	0.00127687
33	0xba6d8bfe	-0.0009061693
34	0xba67e320	-0.0008845795
35	0xbaa733a4	-0.0012756479
36	0x39f654b0	0.00046983873
37	0xba2297f7	-0.0006202454
38	0x3af6c14c	0.0018825918
39	0x3ac014c3	0.0014654625
40	0x3a80fe97	0.0009841499
41	0x3ac937ab	0.0015351673
42	0x3a6f6904	0.0009132775
43	0x39f19ca6	0.00046083814
44	0x3aca1787	0.0015418389
45	0x3acce0cf	0.0015630963
46	0xba9ad89c	-0.0011813822
47	0x3a9762f9	0.0011549882
48	0x39c7a060	0.00038075726
49	0x39800067	0.00024414362
50	0x3a4e1f16	0.00078629085
51	0x3b173481	0.0023072066
52	0xba7d4e5d	-0.0009662861
53	0x3a959d2b	0.0011414638
54	0x3ae9abae	0.0017827654
55	0xba51ce1f	-0.0008003432
56	0x3aee21d7	0.0018168044
57	0xba044cd1	-0.0005046847
58	0x3ac664cc	0.0015136241
59	0x3b043b91	0.0020177106
60	0x39800888	0.0002442042
61	0x371b38a4	9.251908e-06
62	0x3a7de952	0.00096859515
63	0xbaa31e27	-0.0012444899

base.4.running_mean f4 [64]
0	0x3ed53072	0.41638523
1	0xbdcdb112	-0.10043539
2	0x3cfb3d2a	0.030668814
3	0x3db04e5a	0.086086944
4	0xbc59f594	-0.013303179
5	0xbe70fc8d	-0.2353384
6	0x3e139f5a	0.14416257
7	0x3c864ec3	0.016394978
8	0x3dcde517	0.10053461
9	0x3e39fbca	0.18162456
10	0x3c1449b0	0.009050772
11	0x3d31c9b0	0.043405235
12	0xbe33c2ed	-0.17554827
13	0x3e8bedbd	0.27329817
14	0xbe0fedd2	-0.14055565
15	0xbbab2673	-0.0052230894
16	0x3d4f2a2c	0.050577328
17	0xbdecac60	-0.115563154
18	0xbe1989d4	-0.14993984
19	0xbd84e403	-0.06488802
20	0xbe81aa87	-0.25325415
21	0xbe90c321	-0.28273872
22	0xbe80167d	-0.25017157
23	0x3e343155	0.17596944
24	0xbe71185f	-0.23544453
25	0xbd8294ef	-0.06376063
26	0x3e48dfb4	0.19616586
27	0xbe3c049d	-0.18361135
28	0x3dc45c03	0.09587862
29	0xbe06597b	-0.13120072
30	0xbdaa7094	-0.08322254
31	0xbca8e077	-0.020614846
32	0x3c2796c8	0.01022882
33	0x3df8aa07	0.12141805
34	0x3ceb732e	0.028741445
35	0x3e1f0305	0.15528496
36	0xbd1fccca	-0.03901366
37	0xbc3b5553	-0.011433917
38	0x3c7ef48a	0.015561232
39	0x3d6340d3	0.055481743
40	0xbeb17154	-0.34656775
41	0xbcdfa45b	-0.02730005
42	0x3dee00d5	0.116212524
43	0x3e2d125d	0.16901536
44	0xbd856f01	-0.06515313
45	0xbc610d33	-0.013736057
46	0x3d04b45f	0.032398578
47	0xbcf152c3	-0.02945841
48	0x3e276de6	0.16350517
49	0x3da88e02	0.08230211
50	0xbe5cee0b	-0.21575181
51	0xbdb65ed9	-0.089048095
52	0xbd0dfd78	-0.034665555
53	0x3db1ecdb	0.08687755
54	0xbe240b22	-0.16019872
55	0xbdca7300	-0.09885216
56	0xbe3ec55a	-0.18629971
57	0xbe31aa52	-0.17350128
58	0xbe3631ae	-0.17792389
59	0x3e273f99	0.16332854
60	0x3de45529	0.111490555
61	0xbd289822	-0.04116071
62	0xbd3ecd48	-0.04658249
63	0xbd951214	-0.07278839

base.4.running_var f4 [64]
0	0x3f4c7f5a	0.79881823
1	0x3e3c6838	0.18399131
2	0x3df819ae	0.12114273
3	0x3d9ad027	0.07559233
4	0x3e3ea58d	0.1861784
5	0x3eca5d39	0.39524248
6	0x3e4ffc33	0.2031105
7	0x3da97c4f	0.08275663
8	0x3e063660	0.1310668
9	0x3e110bb1	0.14164616
10	0x3defbbf8	0.11705774
11	0x3dbbf092	0.091767445
12	0x3e519905	0.20468529
13	0x3f00d0ab	0.503184
14	0x3f20d02e	0.62817657
15	0x3e3d273c	0.18471998
16	0x3dac46f4	0.08411971
17	0x3e674efe	0.22588727
18	0x3f19d0b1	0.6008406
19	0x3d5b3a57	0.053522434
20	0x3f07526f	0.5286016
21	0x3e1ffaa1	0.15622951
22	0x3f3ee7cb	0.7457244
23	0x3e34380e	0.17599508
24	0x3d845064	0.06460646
25	0x3dcc6b25	0.09981374
26	0x3ecb1c44	0.39670002
27	0x3e883479	0.26602533
28	0x3ec8980e	0.3917851
29	0x3e791de8	0.24327815
30	0x3d445dee	0.04794114
31	0x3d9691db	0.073520385
32	0x3d7a5b4d	0.061122227
33	0x3e2f3b66	0.17112502
34	0x3da30ee3	0.07961824
35	0x3e2d3ac9	0.16916956
36	0x3dc1545e	0.0943992
37	0x3ded149d	0.11576197
38	0x3d8f2fd7	0.069915466
39	0x3d601296	0.054705225
40	0x3ef821ec	0.4846338
41	0x3eade9bc	0.33967388
42	0x3e92312e	0.28553146
43	0x3ef1b758	0.47210193
44	0x3dd5a116	0.10431115
45	0x3dd0ebc8	0.10201222
46	0x3dcd3b0b	0.10021027
47	0x3e7ba153	0.24573259
48	0x3e2a496c	0.1662957
49	0x3e903155	0.28162637
50	0x3e56bb71	0.2096994
51	0x3dc1b448	0.09458214
52	0x3dcdc6e3	0.100477
53	0x3e622dfb	0.22087853
54	0x3eb4171b	0.35173878
55	0x3dff850f	0.12476551
56	0x3e0896b8	0.13338745
57	0x3eb148a7	0.34625742
58	0x3e31e89d	0.17373891
59	0x3e2c4d0a	0.16826263
60	0x3e40f43f	0.18843172
61	0x3dca8302	0.09888269
62	0x3ddb75d6	0.10715835
63	0x3eedeec0	0.46471214

base.6.weight f4 [32, 64, 5, 5]
0	0xbbca922a	-0.006181975
1	0x3bd2e042	0.006435425
2	0xbcbfbc03	-0.02340508
3	0xbc719ee8	-0.014747359
4	0x3c36ba93	0.011152881
5	0xbc1db51b	-0.009625698
6	0xbcad34c4	-0.021143325
7	0x3c778673	0.015107739
8	0x3cbb48ef	0.022861926
9	0xbc30c55c	-0.010789242
10	0x3c99f6e7	0.01879449
11	0x3ac71d1b	0.0015191169
12	0x3b8e1cf2	0.0043369466
13	0x3b919dbc	0.004443852
14	0xba7376e0	-0.0009287428
15	0xbcbee046	-0.023300301
16	0xbc1594cd	-0.009129715
17	0x3ccf7a4f	0.025326876
18	0xbcc378a6	-0.02386124
19	0xbbfc60a0	-0.0077019483
20	0xbcb724f9	-0.022356497
21	0x3c0902d6	0.008362493
22	0x3cbf8c74	0.023382403
23	0xbc94b946	-0.018154752
24	0x3c5efd6a	0.013610223
25	0xbccd69a8	-0.025074795
26	0x3c5f0416	0.013611814
27	0x3c058dfc	0.0081515275
28	0xbc3a917b	-0.011387224
29	0x3c9076a1	0.017634692
30	0x3c083843	0.008314195
31	0xbc8b0389	-0.01696946
32	0x3c80d8ef	0.015728442
33	0x3cbed0f7	0.023293002
34	0x3c5d055b	0.013490046
35	0xbc14f384	-0.009091262
36	0x3b9cbfe8	0.004783619
37	0x3c0f3293	0.008740085
38	0xbc8fed05	-0.017569074
39	0x3c0e5955	0.008688291
40	0x3ca40efb	0.020026674
41	0x3cb49176	0.022042017
42	0x3c40fef9	0.01177954
43	0x3ae4c5a7	0.0017453925
44	0x3b04985b	0.0020232412
45	0x3bcd151b	0.0062586195
46	0xbad97ddb	-0.0016593294
47	0xbc656cf9	-0.014003032
48	0xbcc05e02	-0.023482326
49	0x3cc227a9	0.023700552
50	0x3c9e19ca	0.019299407
51	0x398003a6	0.0002441678
52	0xbcb2874e	-0.021793034
53	0x3b85ad6e	0.0040795123
54	0x3cad151a	0.021128226
55	0x3b891ffa	0.00418472
56	0xbb4404be	-0.0029910053
57	0xbc9609b6	-0.018315177
58	0x3c495297	0.012287757
59	0xbc808391	-0.015687736
60	0x3c3fd224	0.011707816
61	0x38f6bfb2	0.000117659
62	0xbc95ee35	-0.018302063
63	0xbc99d18e	-0.018776681
64	0xbc13d05c	-0.009021845
65	0x3c0be475	0.008538355
66	0xbcb3c04b	-0.021942278
67	0xbbb0c0ec	-0.005394092
68	0x3a05c8ac	0.000510345
69	0xbc83c1d7	-0.016083641
70	0x3bf9de57	0.007625382
71	0x3c823be0	0.015897691
72	0xbb4eedaa	-0.0031574764
73	0x3c3e966b	0.011632542
74	0x3c33a54c	0.010964703
75	0x3ca35c68	0.019941524
76	0xbb0d9576	-0.0021603978
77	0x3bc577db	0.006026251
78	0x3caafb33	0.020871734
79	0x3c7296c0	0.014806449
80	0xbc318965	-0.01083598
81	0xbc90d59c	-0.017679982
82	0xbc3a6405	-0.011376386
83	0x3c43d540	0.011952698
84	0xbca4aa84	-0.02010084
85	0xbcaf9052	-0.021431122
86	0x3c56be78	0.013106935
87	0x3c2a740f	0.010403647
88	0x3cb016d2	0.021495257
89	0x3c70eba2	0.014704617
90	0xbae4293a	-0.0017407306
91	0x3cbc0090	0.022949487
92	0xbbe21d8f	-0.0069004963
93	0x3cae1d92	0.021254335
94	0x3c6ff22f	0.014645143
95	0xbc6c8ebe	-0.014438329
96	0x3b5267cc	0.0032105325
97	0xbbed35c7	-0.007239077
98	0xbc9dc654	-0.01925961
99	0x3cb7add0	0.022421747
100	0x3aaf5765	0.0013377486
101	0x3cb21c2a	0.021741945
102	0x3b5b5b8b	0.0033471312
103	0x3cbf497f	0.023350475
104	0xbcb043e0	-0.02151674
105	0xbac8cab7	-0.0015319203
106	0xbc13576a	-0.008993009
107	0x3b9782c4	0.004623743
108	0x3c6104e9	0.013734081
109	0xbc858d1b	-0.016302636
110	0x3b488334	0.0030595781
111	0xbcad91c3	-0.021187669
112	0x3c174b11	0.009234206
113	0x3cb8eac4	0.022572882
114	0x3b74bcb2	0.0037343916
115	0x3c4a13ad	0.012333793
116	0xbc816023	-0.015792912
117	0xbba5e216	-0.005062352
118	0xbc492ba1	-0.012278468
119	0xbca3d2af	-0.019997923
120	0xbc12cf78	-0.008960597
121	0x3a3ec629	0.0007277453
122	0x3b850ff9	0.004060742
123	0x3c927151	0.0178763
124	0x3ca858c8	0.020550147
125	0xbc9c4c53	-0.019079363
126	0xbc9c1519	-0.019053029
127	0xbc5cc1a7	-0.013473905
128	0xbcbc2fc2	-0.022971991
129	0x3c8b5790	0.017009526
130	0x3c2d86be	0.010591207
131	0xbab9daf5	-0.0014179634
132	0xbc6fd4d3	-0.014638144
133	0x3c8fb06b	0.017540177
134	0xbb879b95	-0.00413842
135	0xbc91a632	-0.017779443
136	0x3c04b764	0.008100364
137	0xbc079413	-0.00827505
138	0xbc82d48e	-0.015970495
139	0xbc86d4e7	-0.016458942
140	0xbaa2990e	-0.0012405233
141	0xbb6ee0a6	-0.003644982
142	0x3c825ecc	0.015914343
143	0x3c86cd9f	0.01645547
144	0x3cc0038e	0.023439195
145	0x3cb64f03	0.022254473
146	0xbb23aef3	-0.0024976104
147	0xbb968c85	-0.004594388
148	0x3c83dfd7	0.016097946
149	0xbc55ba5a	-0.013044918
150	0x3bc39cef	0.0059696357
151	0xbb3e2c81	-0.0029018226
152	0x3a5dc30b	0.00084595446
153	0x3b7ebd9d	0.0038870343
154	0x3cbedfa8	0.023300007
155	0x3cc1e066	0.023666572
156	0xbc372a05	-0.011179452
157	0xbcbd6590	-0.023119718
158	0xbcc5be43	-0.024138575
159	0x3bb3e841	0.0054903333
160	0xbc6583bd	-0.01400846
161	0x3ca82771	0.02052662
162	0x3a1d7340	0.00060062483
163	0xbca5de15	-0.020247499
164	0xbca3b3a1	-0.019983115
165	0x3c2779af	0.010221883
166	0x3c9d1b30	0.019178003
167	0xbc54206e	-0.012947185
168	0x3b2eda24	0.0026680315
169	0x3bdb86a9	0.0066994024
170	0xbb9f14b1	-0.0048547615
171	0xbbe561b7	-0.007000174
172	0xbbfd3174	-0.0077268425
173	0x3bfcb57b	0.007712064
174	0xbba9c915	-0.0051814415
175	0x3cbc472e	0.02298316
176	0xbb4a8641	-0.0030902775
177	0x3ad6bab0	0.0016382542
178	0xbadb296e	-0.0016720721
179	0x3c81c00d	0.015838647
180	0xb9f234b2	-0.00046197098
181	0xbc1a075e	-0.009401171
182	0xbc20e7b7	-0.00982087
183	0xbcb48bd1	-0.022039326
184	0xbc013e35	-0.0078883665
185	0x3c850d57	0.016241712
186	0x3c1a1f7b	0.00940692
187	0xbbd764f8	-0.0065733157
188	0x3c8f4aa0	0.017491639
189	0xbbaf6e4a	-0.0053537237
190	0x3c4fa072	0.0126725305
191	0x3c7e351b	0.015515591
192	0x3ba26420	0.0049557835
193	0x3ca453f9	0.020059573
194	0xbb8dc7e1	-0.004326806
195	0xbc379f9b	-0.0112074865
196	0x3c55cb70	0.013048992
197	0x3c645bad	0.013937873
198	0x3c913e64	0.017729945
199	0x3bd0b0c7	0.0063687298
200	0xbc77d596	-0.015126606
201	0x3b3e80f3	0.002906856
202	0xbc11bcc9	-0.008895108
203	0x3bb26065	0.00544362
204	0x3c78356a	0.015149454
205	0x3c8e392b	0.017361244
206	0xbb870eeb	-0.0041216514
207	0x3cc90e0f	0.024542836
208	0xbc81e879	-0.015857922
209	0xbc625643	-0.013814512
210	0xbc94e7e8	-0.018176988
211	0x3c9495be	0.018137809
212	0x3b2e3905	0.002658428
213	0xbb8a540f	-0.0042214463
214	0x3c6d33a0	0.01447764
215	0xbab395e3	-0.0013701286
216	0x3c359399	0.011082553
217	0xbc79080f	-0.015199675
218	0xbca156fb	-0.019694796
219	0x3c445efc	0.011985537
220	0x3c646f8a	0.013942609
221	0xbc14648b	-0.009057174
222	0xbb1a2194	-0.002351855
223	0x3bd0dfd5	0.006374339
224	0xbc2b6ccc	-0.010462951
225	0x3bcae1c2	0.006191463
226	0xbc8670ff	-0.016411303
227	0x3cb4224e	0.021989014
228	0x3c982093	0.01857022
229	0xbca1523e	-0.019692536
230	0xbc2b045a	-0.010438049
231	0xbcbb8fe2	-0.022895757
232	0x3b09fd6c	0.0021055592
233	0xbc158445	-0.009125774
234	0xbc980da1	-0.018561186
235	0xbc9e93bb	-0.019357553
236	0xbb1b9839	-0.0023741855
237	0xbcbef8f7	-0.023312075
238	0xbc6d222b	-0.014473478
239	0xbc91dba7	-0.017804934
240	0xbbb837da	-0.0056218924
241	0x3c882b5a	0.016622234
242	0xbcbfdf16	-0.023421805
243	0x3b4276b1	0.0029672796
244	0xba897d95	-0.0010489697
245	0x3c6918d4	0.014227111
246	0xbc924198	-0.017853543
247	0x3cc35a13	0.023846662
248	0x3cd329e6	0.025776815
249	0x3c59a06b	0.0132828755
250	0xbc1eb99f	-0.00968781
251	0x3bac2c06	0.0052542714
252	0x3c3d5e94	0.011558194
253	0xbcab14a3	-0.020883864
254	0x3c5cd435	0.0134783285
255	0x3bfd25cf	0.0077254544

base.6.bias f4 [32]
0	0xbbb23606	-0.005438569
1	0xbbb5e362	-0.005550788
2	0xbc2838d8	-0.010267459
3	0x3c8bf485	0.01708437
4	0xbc8f5067	-0.017494394
5	0xbcc0a84e	-0.023517754
6	0xbc2601ac	-0.010132235
7	0x3adfee64	0.0017084596
8	0xbc90f355	-0.017694155
9	0x3b3d0ea6	0.0028847842
10	0x3b7ee0d4	0.0038891332
11	0x3baa6ea8	0.0052011795
12	0xbc57dda8	-0.013175406
13	0xbc85054d	-0.01623788
14	0x3c84a9ef	0.016194312
15	0x3c87c6f1	0.016574355
16	0x3c7dfca2	0.015502127
17	0xbcc65669	-0.024211125
18	0x3c97b085	0.018516788
19	0xbafa1638	-0.0019080108
20	0x3c89cf17	0.016822381
21	0x3b2d7193	0.00264654
22	0xbb2f803a	-0.002677931
23	0x3c049204	0.008091453
24	0xbbad401d	-0.005287184
25	0xbb6739ec	-0.0035282327
26	0x3c7a055d	0.015260068
27	0xbbf5a6a6	-0.0074966727
28	0xbb802bc6	-0.003911468
29	0x38d1ce9e	0.00010004382
30	0xbc4039cd	-0.011732531
31	0xbb47adee	-0.003046866

base.7.weight f4 [32]
0	0x3f80564d	1.0026337
1	0x3f805979	1.0027305
2	0x3f8050be	1.002464
3	0x3f805b24	1.0027814
4	0x3f8061ed	1.0029885
5	0x3f8065d9	1.0031081
6	0x3f8051c7	1.0024956
7	0x3f804fab	1.0024313
8	0x3f80671c	1.0031466
9	0x3f805850	1.0026951
10	0x3f8062ae	1.0030115
11	0x3f806bcc	1.0032897
12	0x3f806c39	1.0033027
13	0x3f804818	1.0022001
14	0x3f80465d	1.0021473
15	0x3f805a3c	1.0027537
16	0x3f80626f	1.003004
17	0x3f8059c3	1.0027393
18	0x3f80623d	1.002998
19	0x3f805240	1.0025101
20	0x3f80447a	1.0020897
21	0x3f806d1c	1.0033298
22	0x3f806179	1.0029746
23	0x3f8063a0	1.0030403
24	0x3f80534f	1.0025424
25	0x3f805c63	1.0028194
26	0x3f80639f	1.0030402
27	0x3f803e86	1.0019081
28	0x3f806520	1.0030861
29	0x3f8027d2	1.0012152
30	0x3f806f48	1.003396
31	0x3f8061f5	1.0029894

base.7.bias f4 [32]
0	0x3b2e3ac6	0.0026585325
1	0x3b41bd47	0.002956228
2	0x3b1f9285	0.0024348807
3	0x3b27a1f0	0.00255787
4	0x3b837ffa	0.0040130587
5	0x3b550461	0.003250383
6	0x3b132a7f	0.002245575
7	0x3b68a781	0.003550023
8	0x3b4aba02	0.0030933623
9	0x3b213151	0.0024596045
10	0x3b3e2f4a	0.0029019886
11	0x3b41fad9	0.002959898
12	0x3b5a33f3	0.0033295124
13	0x3b46ce6c	0.003033544
14	0x387d9763	6.046089e-05
15	0x3b20af05	0.0024518382
16	0x3b3204f7	0.0027163604
17	0x3b354b2d	0.0027663216
18	0x3b641dbf	0.003480777
19	0x3b2b45f3	0.0026134222
20	0x3aaad77c	0.001303419
21	0x3b36b8ee	0.0027881223
22	0x3b3a5f8e	0.0028438303
23	0x3b31828d	0.002708587
24	0x3b2f728d	0.0026771158
25	0x3b26c12c	0.002544473
26	0x3b4d4070	0.0031318925
27	0x3b305b88	0.0026910026
28	0x3adc8508	0.0016824314
29	0x3b452570	0.003008213
30	0x3b6c25e8	0.0036033336
31	0x3b38a773	0.002817598

base.7.running_mean f4 [32]
0	0x3dc51651	0.09623397
1	0xbd4ba8cb	-0.04972152
2	0x3e05a318	0.13050497
3	0x3e593125	0.21210153
4	0x3d406da7	0.046979573
5	0x3e5461d0	0.20740438
6	0x3d965b40	0.07341623
7	0x3dfff53c	0.124979466
8	0x3e02d87d	0.12777896
9	0x3dffce7f	0.12490558
10	0x3dcb5816	0.099289104
11	0x3cfd4f9e	0.030921753
12	0x3e68c304	0.22730643
13	0xbdaba170	-0.08380401
14	0xbd9db7af	-0.077010505
15	0x3e826a7d	0.2547187
16	0x3c3ea83c	0.01163679
17	0xbd395e4b	-0.04525594
18	0x3e0e3c82	0.1389027
19	0xbda8ff90	-0.0825187
20	0x3df1f499	0.118142314
21	0xbe86c50d	-0.26322213
22	0xbe12fe29	-0.14354767
23	0xbe12aef8	-0.14324558
24	0x3cdcad5b	0.026938131
25	0x3e8bcd67	0.27305147
26	0x3eb7cfd5	0.3590075
27	0x3e2de619	0.16982307
28	0xbeb4ec9f	-0.35336778
29	0xbd357408	-0.04430011
30	0x3e12bbd3	0.14329462
31	0xbbe17261	-0.00688009

base.7.running_var f4 [32]
0	0x3d8ab812	0.0677339
1	0x3d8f726e	0.070042476
2	0x3d2c31c6	0.042039655
3	0x3e068334	0.13135988
4	0x3d6efc89	0.058346305
5	0x3e37aabf	0.17936228
6	0x3d3d0169	0.046143923
7	0x3d598c60	0.053112388
8	0x3d884e7d	0.066555955
9	0x3dc60a9f	0.096699946
10	0x3d4b906f	0.04969829
11	0x3d8f7168	0.070040524
12	0x3d62e680	0.055395603
13	0x3deebc45	0.11657003
14	0x3d84800f	0.06469738
15	0x3e0382a3	0.12842803
16	0x3d04fbc8	0.03246668
17	0x3e03f5d8	0.1288675
18	0x3d892659	0.06696767
19	0x3d2062bf	0.03915667
20	0x3dd84337	0.10559695
21	0x3dac6817	0.08418291
22	0x3debfa4e	0.11522351
23	0x3d75325e	0.059862487
24	0x3d42853b	0.04749034
25	0x3d892416	0.06696336
26	0x3d8f5173	0.06997957
27	0x3df1893a	0.11793752
28	0x3d66ee48	0.056379586
29	0x3d3fc9aa	0.04682318
30	0x3d77d564	0.06050624
31	0x3da25909	0.07927138

head.0.weight f4 [24, 3200]
0	0xbc2224bc	-0.0098964535
1	0xbb5d2e64	-0.0033749575
2	0xbb4a1511	-0.003083531
3	0x3b06ccd4	0.0020568864
4	0xbc3139a3	-0.010816964
5	0x3bf7b4a2	0.007559375
6	0xbc81d152	-0.015846882
7	0x3c712ce8	0.014720179
8	0xbb883a31	-0.0041573276
9	0x3c2cff28	0.010558881
10	0xbc6eccd4	-0.014575202
11	0xbc58832c	-0.013214868
12	0x3bc2c4ac	0.0059438553
13	0xbb64c10d	-0.0034905106
14	0xbbf57bd2	-0.007491567
15	0xbbebe3bc	-0.007198779
16	0xbb0051eb	-0.0019580077
17	0x3c6f8641	0.014619411
18	0xbc52360c	-0.012830269
19	0xbc488cf5	-0.012240638
20	0xbb351d07	-0.002763571
21	0xbc64d225	-0.013966118
22	0xbbd34b84	-0.006448211
23	0xbc22b683	-0.0099312095
24	0x3c453b9b	0.012038137
25	0xbc0a18e0	-0.008428782
26	0xbc296920	-0.010340005
27	0xbbbff61a	-0.005858195
28	0xba2da323	-0.00066237355
29	0xbc61cd86	-0.013781911
30	0xba8c53c9	-0.0010706122
31	0x3c2ebf2a	0.010665694
32	0xbbf25bf0	-0.0073962137
33	0x3bffe1c2	0.007808895
34	0xbbc3f23a	-0.0059798034
35	0x3c7e6271	0.0155264
36	0x3c52ca20	0.012865573
37	0xbba84b05	-0.005135896
38	0xbc05c91b	-0.008165623
39	0x3c6751ea	0.014118651
40	0x3bdeece5	0.0068031424
41	0xba50de92	-0.0007967736
42	0x3b4da6a6	0.0031379848
43	0xbc82deef	-0.015975444
44	0x3c20709a	0.009792471
45	0xbc526067	-0.012840367
46	0x3c7dfe1f	0.015502482
47	0x3c8b3dc7	0.016997231
48	0x3b8bae01	0.0042626862
49	0x3ba6bbe2	0.0050883153
50	0x3c8acaa3	0.016942328
51	0x3c69367d	0.014234182
52	0xbc4b8894	-0.0124226995
53	0x3c7e2088	0.015510686
54	0xbb15a356	-0.0022832952
55	0x3b45b374	0.0030166777
56	0x3c110b40	0.00885278
57	0x3c1413d6	0.009037932
58	0xbb6d950d	-0.0036252171
59	0x3b145665	0.0022634503
60	0xbb713b14	-0.0036808895
61	0x3acb0709	0.0015489768
62	0x3b86336a	0.0040954845
63	0xbbe02402	-0.00684023
64	0x356fb087	8.929132e-07
65	0x3c0b9fea	0.008522013
66	0xbaa8d48f	-0.001288073
67	0xbab56df5	-0.0013841974
68	0x3c8910cb	0.01673164
69	0xbb377977	-0.0027995983
70	0x3c86d2cf	0.016457943
71	0x3a58b185	0.00082661986
72	0xbc28d34e	-0.010304285
73	0x3bf0e90b	0.0073519996
74	0xbbebd8cb	-0.0071974746
75	0xbc2507f1	-0.010072694
76	0xbc406290	-0.011742249
77	0xbbf692ac	-0.007524809
78	0xbc629701	-0.013829947
79	0x3b1669c6	0.002295123
80	0xbc3d176d	-0.01154123
81	0x3a2efe85	0.00066754996
82	0xbb8f2d79	-0.0043694344
83	0xbc88ba71	-0.016690465
84	0x3b750c8a	0.0037391507
85	0x3ba257be	0.0049543073
86	0x3b480e44	0.003052608
87	0x3c305285	0.010761862
88	0xbbe28a12	-0.006913432
89	0x3ace2d09	0.0015729974
90	0xbc44918a	-0.01199759
91	0x3b1cbb5c	0.0023915386
92	0xbb8f0301	-0.0043643718
93	0x3c1735c5	0.009229128
94	0x3c223583	0.0099004535
95	0xbc2a4f23	-0.010394844
96	0xbc57eece	-0.013179494
97	0xbc06374b	-0.008191894
98	0xbc2d17cd	-0.010564757
99	0x3b1fdec5	0.0024394256
100	0xbc0aa12a	-0.008461276
101	0xb8884111	-6.497105e-05
102	0xbc2987ee	-0.01034735
103	0x3be19da5	0.006885248
104	0x3b806cc0	0.003919214
105	0x39e28be3	0.00043210303
106	0xbc211a2b	-0.009832899
107	0xbb951ee6	-0.0045508025
108	0xbb227f56	-0.0024795136
109	0xbc2abb5e	-0.010420648
110	0xbc8ec894	-0.017429627
111	0xbc3c7a35	-0.011503746
112	0x3c8730b3	0.016502714
113	0x3c3d8f1a	0.011569763
114	0xbc88ad4c	-0.016684197
115	0x3bed95ff	0.007250547
116	0x3c701a5c	0.014654722
117	0x3b05f3b0	0.0020439439
118	0x3c89b311	0.016809018
119	0xbc9291f1	-0.017891856
120	0xbb95c12a	-0.004570146
121	0x3ae073d3	0.0017124362
122	0xb8a41c37	-7.825385e-05
123	0xbbfd717a	-0.0077344747
124	0xb8d370ee	-0.00010082299
125	0x3c2492f1	0.010044799
126	0xbc937d9d	-0.018004233
127	0x3aa5a176	0.001263662
128	0xbc738027	-0.014862097
129	0x3c83c0fb	0.016083231
130	0x3c40df6d	0.011772019
131	0xbb58665a	-0.003301999
132	0x3c770711	0.015077368
133	0xbc24d280	-0.010059953
134	0xbc6519f6	-0.01398324
135	0x3c3b1d76	0.011420598
136	0xbac9450b	-0.0015355659
137	0x3af6e6da	0.001883711
138	0x3c766edc	0.015041079
139	0x3c6f65b6	0.014611652
140	0x3b89bf73	0.0042037307
141	0xbb921861	-0.0044584726
142	0xbc26ae54	-0.010173399
143	0x3c07c282	0.00828612
144	0xbaea3b8f	-0.0017870533
145	0xbb320e53	-0.0027169182
146	0x3c1e5c62	0.0096655805
147	0xbc1e6ff3	-0.009670245
148	0xbb95d5b9	-0.004572597
149	0x3c039f99	0.0080336565
150	0x3c27d02a	0.010242501
151	0xbaa7d3b5	-0.0012804182
152	0xbc17fb64	-0.009276245
153	0xbbea2c6d	-0.0071464092
154	0xbb3e4f92	-0.0029039127
155	0x3bc780b8	0.0060883425
156	0x3c7edbe2	0.015555354
157	0x3bafc78e	0.005364365
158	0x3c821e6f	0.015883652
159	0x3c0104a0	0.007874638
160	0xb9e0384d	-0.00042766557
161	0x3b27d797	0.002561068
162	0x3c6d28fa	0.014475102
163	0xbc859bc7	-0.016309632
164	0xbc01de8f	-0.007926597
165	0xbbdb9492	-0.0067010606
166	0x3a333176	0.00068356784
167	0x3c628549	0.013825723
168	0x3bbd2770	0.0057725236
169	0xbba15405	-0.004923346
170	0x3be04dce	0.0068452125
171	0x3bc0287d	0.0058642016
172	0xbc8a17a5	-0.016856978
173	0xbb9abc65	-0.0047221654
174	0x3c84d03a	0.016212571
175	0xbc05785d	-0.008146373
176	0xbb8f205e	-0.004367872
177	0x3c8efed7	0.017455501
178	0xbc190c7b	-0.0093413545
179	0xbc663371	-0.0140503505
180	0x3be5e003	0.0070152297
181	0x3c0cf238	0.008602671
182	0xbaf6ef7e	-0.0018839685
183	0x3c2a9170	0.010410652
184	0xbc680257	-0.014160714
185	0xbb20c78e	-0.0024533006
186	0x3c20852d	0.009797377
187	0x3c10e237	0.008842996
188	0xbb8ffa5f	-0.00439386
189	0x3c6a5752	0.014303045
190	0x3bb45df7	0.0055043655
191	0xbc11080a	-0.008852014
192	0xbb9d6730	-0.0048035607
193	0xbb1ffbd7	-0.0024411583
194	0xbc81fc6c	-0.015867434
195	0x3b8472e7	0.0040420177
196	0x3b930633	0.004486823
197	0x3c5aebbd	0.013361868
198	0x3bf1e31d	0.0073818103
199	0xbb57361f	-0.0032838655
200	0x3ad052fc	0.0015893872
201	0xbc8079db	-0.015683105
202	0x3c4c663b	0.0124755455
203	0xbc3db0ba	-0.011577779
204	0xbb256b9a	-0.0025241137
205	0x3bfb7d16	0.0076748235
206	0xbc8c9316	-0.01715998
207	0xbbdea5c7	-0.0067946645
208	0xbc7e9277	-0.01553785
209	0xbbe2cd30	-0.006921433
210	0x3c089915	0.008337279
211	0x3c687464	0.014187906
212	0xbc2c6ae8	-0.010523535
213	0x3c764f78	0.015033595
214	0xbc65a8ad	-0.014017266
215	0x3c3393de	0.010960547
216	0x3be012ae	0.0068381643
217	0xbc25e97a	-0.010126466
218	0x3c71b5f4	0.014752854
219	0xbc5bc623	-0.013413939
220	0x3c8da790	0.017291814
221	0xbc524f53	-0.012836295
222	0xba9e9ac8	-0.0012100572
223	0xbc8ab5d1	-0.0169324
224	0xbc8470e6	-0.016167115
225	0xbc5d4a79	-0.013506525
226	0x3b400f54	0.0029306011
227	0x3a29f150	0.0006482797
228	0x3b93f38f	0.0045151184
229	0xbc853c4a	-0.0162641
230	0xbc9031b0	-0.017601818
231	0x3b5b510f	0.0033465063
232	0x3c148d29	0.009066858
233	0xbc29c19a	-0.0103611
234	0x3ba67e57	0.005080979
235	0x3ad215b5	0.0016028198
236	0xbb4fe34b	-0.003172117
237	0x3c63f386	0.013913041
238	0x3c76a326	0.015053546
239	0xbc0d4657	-0.008622727
240	0x3b4e8aa7	0.0031515749
241	0x3c689360	0.014195293
242	0xbb90abf0	-0.004415028
243	0x3ad10f92	0.0015950075
244	0x3c545b95	0.012961288
245	0x3b3c2096	0.0028705946
246	0xbb8e5423	-0.004343526
247	0xbb8feb4a	-0.0043920623
248	0x3b038986	0.0020070984
249	0xbb8f988a	-0.0043821977
250	0xbc3dddec	-0.011588555
251	0xba15d472	-0.0005715556
252	0xbc05b3c1	-0.008160532
253	0xbc05bbbe	-0.008162437
254	0xbbe25321	-0.0069068824
255	0xbbd4383c	-0.00647643

head.0.bias f4 [24]
0	0xbc72b752	-0.014814215
1	0xbb8c04fb	-0.0042730547
2	0x3c8c4196	0.017121118
3	0x3b893167	0.0041867974
4	0x3b9c11b5	0.004762853
5	0x3c8b0396	0.016969483
6	0x3c600805	0.013673787
7	0xbb712326	-0.0036794632
8	0xbbf710ee	-0.00753986
9	0xbb94d0c5	-0.004541489
10	0x3c4ca52b	0.012490551
11	0x3bb3fe36	0.005492951
12	0x3b26a3fc	0.0025427332
13	0xbc27d8a0	-0.0102445185
14	0xbb8922ae	-0.0041850423
15	0x3c542054	0.012947161
16	0xbbfb018a	-0.0076600956
17	0x3c898737	0.016788108
18	0x3c9fce5e	0.019507583
19	0xbc363be2	-0.011122676
20	0xbbdd1e0a	-0.0067479657
21	0xbc0bc6c0	-0.008531272
22	0x3c776711	0.015100257
23	0x3c4025df	0.011727779
