models/PG hidden=64 lr=1e-06 max_steps=1000 Adam fullwidth.pt (torch, 945940 bytes, 22 tensors)

base.0.weight f4 [64, 2, 5, 5]
00000000: 630c 623d d561 773d bc9a bbbd fbb1 a43c
00000010: 2bed 9f3c b475 8d3d 0b98 c63c f9d8 383d
00000020: f73d 0ebe 3dde 0dbd d54d 52bc 7592 8dbd
00000030: 3754 913d 09b7 26bd 548c f33d ba3f 9f3c
00000040: df6d 943d 4f5c 143c e870 c9bd 9a43 7d3d
00000050: 0777 db3d 1371 0abe 4520 33bc 8d64 c13d
00000060: 62db 62bd 029a d9bd 1302 883d 23a6 b5bd
00000070: eb8f 1fbd 9064 8ebd 9c0f 873c c3ba bd39
00000080: f32f 063d 2b49 db3d cb47 393d 6144 a63c
00000090: 7666 11bd 3f2e 2c3d 53d9 6dbb 0b33 f6bd
000000a0: d5c9 8c3d 4b8c 82bc 277a 4cbd d0c5 023e
000000b0: e91f efbd b911 d23d 2ba3 0c3e cdb5 8a3d
000000c0: 94fc 1ebc f304 ef3c 1f8d 163d 3e9a 8ebd
000000d0: d685 c7bd 2517 473b 9b8f 4c3d ba12 003e
000000e0: f90b c9bb 3be0 4b3d c346 9ebc cf0c fb3d
000000f0: 426f 4b3c d218 433d 03ce 98bc 0311 f53d
00000100: 202b 4dbd 947b dd3d 80a5 0b3e 32b4 9f3d
00000110: 4b0e e4bd b6a1 2a3d c9f0 20bd 30c3 38bd
00000120: 4a35 b2bb d0b1 973a fb60 0b3e c5e4 e63d
00000130: 8086 393d b64f 8fbd cda6 893d 78c7 153d
00000140: 0c54 083e 55d6 9abb 977d d7bd 8d9b ba3d
00000150: fe14 00be b84b aebd 197a febd fa7e fa3c
00000160: b55b d83d f8b3 82bd f9d2 c9bd aafb b9bc
00000170: 56f2 afbc 37e7 0f3e 864b 1e3d 0911 e5bd
00000180: a4bc 0dbe 5e1f 5dbd c8f7 db3d 31cf 523d
00000190: 52dd bd3d d9c2 553d 087c 013d 3711 c7bd
000001a0: 30ad fb3d ae66 26bb 3dbb 91bd 4455 08be
000001b0: 0721 3e3d 38f2 c73d d820 ff3d db97 68bd
000001c0: a2b9 bb3d 9aa4 ccbd 062e bf3d 2315 f03d
000001d0: 6ab8 ddbd d4cb 433d 7606 0ebe 796c 753d
000001e0: ecca 913c ca15 9d3c 0b79 aabd e4a1 713d
000001f0: 6509 a0bd 61d3 18bd 5045 8dbb 32dd b5bc
00000200: 9a24 0a3d 3c4b 90bd 6f26 a9bd 2bf9 cabc
00000210: fec7 bb3d 84c7 09be 662e 94b9 9405 b23c
00000220: c884 75bd bb46 403d 7605 c5bd 9d53 0c3e
00000230: 026c e73d 271f 083e 38fd 90bd 78b2 0e3e
00000240: 401b 1cbb 354b 993d 5c96 1c3d d636 63bd
00000250: bcb2 b9bd d0e8 ad3d 8379 1f3d 3be8 563d
00000260: 45a3 153d 59f9 063c 43db cfbb 527d 6b3d
00000270: b94b d83d da0b fbbd 8990 f1ba 1043 cbbb
00000280: fe81 e6bd 8e15 1cbd 8c7d 86bd fde4 fbbc
00000290: c3bf d0bc 0fc0 b73d 6a01 603b 24da 073e
000002a0: 4c57 f5bd 305c 8ebd e0d4 8a3c a231 fcbd
000002b0: e41a b5bc 50bd 483d 5e63 993c 352e a43d
000002c0: 2632 ee3d 88fb 55bd 8cee 073d bb38 b33d
000002d0: c4e0 abbd ae33 0ebe d47c 243d 6407 a6bd
000002e0: 8f8d 823a 7001 42bd 90ad 803d d1ab c33d
000002f0: 29d2 0c3c a541 ae3d b1a7 bb3c 7b19 cabd
00000300: b04d b53c 0271 e93d 1610 ef3d 650e cd3d
00000310: 9455 753d b9fd 03be fa6a 2f3d a11b e9bd
00000320: 66e9 043e 7002 a4bd 63be d5bd 5db1 14bd
00000330: 1072 a83d 6e7a ed3d 95a8 0d3e 84ef fe3c
00000340: 7bf6 5c3a ad7f a53d b3da a5bd 084b a83d
00000350: 9049 ec3d 8401 763d 32b1 9cbd efb1 883d
00000360: 9038 ff3d f117 043e e309 5cbd f765 35bd
00000370: b791 f4bd 16be a93d bad2 d63d 2b46 15bc
00000380: 11ec 193d 53a5 d2bd 016e 8fbb d8b8 f5bd
00000390: f165 0bbe 9c01 2f3c f071 3a3d d970 60bd
000003a0: cb91 843d 1f79 71bd fec7 c9bd b3ec bc3d
000003b0: 6d84 9c3d 3625 3b3d 0393 523d 7a7d cdbd
000003c0: cf95 8d3d 864c ea3d 9db8 883d f667 5abd
000003d0: cbb3 0dbd 61bf 25bc ef85 92bc 98bf 5ebd
000003e0: 7157 9abc 45bb 80bc 8c34 f8bd d8f3 f3bd
000003f0: 561e 9fbd 6b73 79bd 5901 c73d aa91 9dbd
0.055187594 0.060396034 -0.091603726 0.020104399 0.01952227 0.06907216 0.024242422 0.045128796
-0.13890825 -0.03463577 -0.012835939 -0.069127 0.07096141 -0.0407019 0.11892 0.019439567
0.07247519 0.009055211 -0.09835988 0.061832048 0.10716062 -0.13519697 -0.010932987 0.09443007
-0.055385 -0.10625078 0.066410206 -0.08869579 -0.03895561 -0.069527745 0.016486935 0.00036188037
0.03276057 0.10707315 0.045234483 0.020296277 -0.035498105 0.04203629 -0.0036292865 -0.120214544
0.06874434 -0.015936038 -0.04992118 0.12770772 -0.11676008 0.102572866 0.13734119 0.06772957
-0.009703774 0.029177165 0.036755677 -0.06963013 -0.09742324 0.0030378785 0.04994164 0.12507144
-0.0061354605 0.04977439 -0.019320851 0.122583024 0.012416663 0.047631092 -0.018652922 0.11966135
-0.050089955 0.10814586 0.13637352 0.077980414 -0.11135539 0.041658126 -0.03929213 -0.04510802
-0.0054384815 0.0011573378 0.13611214 0.11274103 0.045294285 -0.069976255 0.06721268 0.03656718
0.13313311 -0.0047252574 -0.10522001 0.091117 -0.12508008 -0.08510536 -0.12425632 0.030578125
0.10564367 -0.063819826 -0.09854693 -0.02270301 -0.02147786 0.14053045 0.038646244 -0.1118489
-0.13841492 -0.053984992 0.1074062 0.051467124 0.09270729 0.052187774 0.031612426 -0.0972008
0.12288892 -0.0025390792 -0.07115791 -0.13313776 0.046418216 0.097629964 0.12457436 -0.056785446
0.09166266 -0.09992333 0.0933495 0.117227815 -0.1082619 0.047801808 -0.13869652 0.0599179
0.017796956 0.019175429 -0.08323868 0.05899228 -0.07814292 -0.03731096 -0.004311241 -0.0222002
0.033726312 -0.070456 -0.08259284 -0.024777016 0.09169005 -0.13455015 -0.0002826333 0.021731175
-0.059941083 0.046942454 -0.09620182 0.13703771 0.11299898 0.13293134 -0.07079548 0.13935268
-0.0023819953 0.07485048 0.03822933 -0.055472218 -0.09067294 0.08491671 0.038934242 0.052467566
0.03653266 0.00823816 -0.0063432767 0.05749256 0.10561318 -0.1225812 -0.0018429916 -0.006203063
-0.11255263 -0.038106494 -0.06566915 -0.030748839 -0.025482064 0.08972179 0.003418053 0.13266808
-0.11979541 -0.06951177 0.01694721 -0.12314154 -0.022107549 0.049008667 0.01872414 0.08016626
0.11630659 -0.052241832 0.03318648 0.08751055 -0.0839248 -0.13886902 0.040158108 -0.081068784
0.0009960401 -0.047364652 0.062831044 0.09554256 0.008595028 0.085086145 0.02290711 -0.09868141
0.02213177 0.11398508 0.1167299 0.10012511 0.059896067 -0.12889756 0.04282663 -0.11382223
0.1297966 -0.080082774 -0.10436704 -0.03630196 0.08224881 0.11595617 0.1383384 0.03112007
0.00084290624 0.08080993 -0.08098354 0.08217436 0.115374684 0.06006004 -0.07650985 0.06674563
0.1246196 0.12899758 -0.053720366 -0.044286694 -0.119418554 0.08288209 0.10489412 -0.009110968
0.037578646 -0.10285439 -0.004377127 -0.11998147 -0.13613106 0.010681536 0.045518816 -0.05479512
0.0647312 -0.0589534 -0.098525986 0.09224834 0.07642446 0.045689784 0.051409733 -0.100336984
0.06913339 0.11440377 0.06675837 -0.0533218 -0.034595292 -0.010116429 -0.01788613 -0.054381937
-0.018840523 -0.015714297 -0.121193975 -0.11911744 -0.07769458 -0.060901087 0.09717054 -0.07693799

base.0.bias f4 [64]
00000000: 44f2 d0bd 368d 0e3d 4822 0fbe b0a0 03be
00000010: 5b6e 4b3d 4a01 903d c952 b2bd ee5e e9bd
00000020: 4fb0 d53d c620 653d 2fe4 063e 5a09 f6bc
00000030: 8f0e 95bd 0275 023e 1d41 cabd f422 b5bc
00000040: f5d2 683d a3a2 193d 78fa ef3d 792d 22bd
00000050: 2bb8 e93b 6176 a2bd 9d3d 94bd a156 0c3e
00000060: 8798 a0bb 8b61 e83d 6b49 79bc 5843 253d
00000070: 8e09 0ebe 549c 543d eb7e 683c bf9d e1bd
00000080: 917b ad3d f137 91bd 8ec3 873d 41c7 fc3c
00000090: aab1 02be fde0 893d cad9 4e3b 24b6 093d
000000a0: 5cbc ef3d 7cd7 fc3d cc8d 0d3e 6e72 143d
000000b0: 9cac d33d 78fe 59bd 36d6 3abc fc59 943b
000000c0: 9e7d 173c ad5e 343d 4f8a a33d de03 a4bd
000000d0: e397 9ebd b91b 2ebd dc78 683d d57f 06be
000000e0: 4fc4 e0bc ffee 253d 3244 263d 0b8e cebd
000000f0: 253c ddbc acec a63c 925b c43d e857 f9bd
-0.102024585 0.034802638 -0.13977921 -0.12854266 0.04966579 0.07031496 -0.08707196 -0.113950595
0.10434019 0.05593946 0.13172983 -0.030033756 -0.072781675 0.12739947 -0.098757006 -0.022111394
0.05684181 0.037508618 0.11717695 -0.039594147 0.0071325502 -0.07932735 -0.07238314 0.13704921
-0.004900995 0.1134673 -0.015215258 0.040347427 -0.13870832 0.0519069 0.014190416 -0.11016416
0.08470834 -0.07090748 0.06629096 0.03085673 -0.12763086 0.06732366 0.0031562918 0.03362097
0.117058486 0.12345788 0.13823622 0.03624194 0.10335657 -0.053221196 -0.011403611 0.0045273285
0.009246258 0.044035602 0.07985365 -0.0800855 -0.07743814 -0.042506907 0.056755885 -0.13134702
-0.027437357 0.040511128 0.04059238 -0.10085686 -0.027006218 0.020376526 0.09587778 -0.1217497

base.1.weight f4 [64]
00000000: 3aea 7f3f 11ed 7f3f 5cf1 7f3f 17fd 7f3f
00000010: 5cff 7f3f 48f7 7f3f b7f3 7f3f 800e 803f
00000020: df01 803f 27ff 7f3f d100 803f 590b 803f
00000030: 70e3 7f3f 0701 803f 5bf7 7f3f dd01 803f
00000040: ad07 803f e902 803f 4ef5 7f3f 8bea 7f3f
00000050: edf6 7f3f 0d0b 803f 370d 803f 6307 803f
00000060: bbf8 7f3f 02fc 7f3f 8402 803f 4601 803f
00000070: 5304 803f 85f0 7f3f 590a 803f 73f6 7f3f
00000080: 1ef6 7f3f c905 803f d50c 803f ebf9 7f3f
00000090: 8ff8 7f3f 97f4 7f3f e903 803f d50b 803f
000000a0: affc 7f3f b4fb 7f3f 94f6 7f3f 7e04 803f
000000b0: 6503 803f 58fc 7f3f 8903 803f 37e9 7f3f
000000c0: b901 803f eff8 7f3f 1cfa 7f3f ca02 803f
000000d0: 7c00 803f 3606 803f d401 803f f7f2 7f3f
000000e0: 12fc 7f3f c604 803f a904 803f 91fd 7f3f
000000f0: 2101 803f 6805 803f 7701 803f 01ff 7f3f
0.99966776 0.9997111 0.9997766 0.9999556 0.9999902 0.99986696 0.99981254 1.0004425
1.0000571 0.99998707 1.0000249 1.0003463 0.9995642 1.0000314 0.9998681 1.0000569
1.0002342 1.0000888 0.9998368 0.9996726 0.99986154 1.0003372 1.0004033 1.0002254
0.9998891 0.9999391 1.0000768 1.0000389 1.000132 0.9997638 1.0003158 0.99985427
0.9998492 1.0001765 1.0003916 0.9999072 0.99988645 0.9998259 1.0001193 1.0003611
0.9999494 0.99993443 0.99985623 1.0001371 1.0001036 0.9999442 1.0001079 0.9996523
1.0000526 0.9998922 0.9999101 1.0000851 1.0000148 1.0001895 1.0000558 0.9998011
0.99994004 1.0001457 1.0001422 0.99996287 1.0000345 1.000165 1.0000447 0.9999848

base.1.bias f4 [64]
00000000: 1304 b437 b961 ecb9 80ef 30b8 e16e 02b9
00000010: 9bf4 0439 8ba3 1db9 3ced 14b9 a778 2339
00000020: 7ca6 0337 d112 b637 47b8 fcb7 43ef e839
00000030: 87b6 94b9 7f2c 2db7 05a5 43b9 9ecd 6a38
00000040: de56 6439 9113 0139 76ff a2b8 0158 8eb8
00000050: 1525 ebb6 83b3 4339 96d0 dcb8 149f dd38
00000060: c552 82b8 7d93 a338 7a09 66b8 8fd4 a338
00000070: 5d47 7439 6087 86b9 1285 a337 b3c7 2d37
00000080: 7682 beb8 976c 7038 6004 b139 4a46 88b8
00000090: 644a 02b9 a825 e3b8 5ea0 a038 133f 8739
000000a0: ceca 43b9 c5ae b537 057e 19b9 35a6 f438
000000b0: e9f5 c637 4126 3ab9 440d db38 8f86 a7b8
000000c0: 1af6 8c38 b6c7 84b9 71e2 45b8 d798 89b8
000000d0: 7a10 4438 0181 8d39 ea0b 9138 88ed 94b9
000000e0: 019a cdb6 1cb3 e838 6d07 5a39 f668 39b8
000000f0: 30c1 5d39 7097 11b9 3641 4d38 abf5 04b9
2.145957e-05 -0.00045086237 -4.218472e-05 -0.00012439072 0.00012679624 -0.00015033611 -0.00014202757 0.00015589838
7.846971e-06 2.1704853e-05 -3.0126552e-05 0.00044428752 -0.00028364753 -1.0321964e-05 -0.00018658124 5.5981443e-05
0.00021776135 0.00012309688 -7.772345e-05 -6.78748e-05 -7.0078627e-06 0.00018663522 -0.0001052927 0.00010567732
-6.2143e-05 7.7999175e-05 -5.48451e-05 7.812038e-05 0.00023296238 -0.00025659334 1.949308e-05 1.03581e-05
-9.084206e-05 5.732159e-05 0.0003376333 -6.498078e-05 -0.00012425479 -0.000108312175 7.659265e-05 0.000257962
-0.000186722 2.1658265e-05 -0.00014638163 0.00011665785 2.371795e-05 -0.00017752593 0.00010445205 -7.988244e-05
6.72156e-05 -0.00025325798 -4.717935e-05 -6.561138e-05 4.6745386e-05 0.0002698973 6.916358e-05 -0.00028405734
-6.1274045e-06 0.00011095984 0.00020792866 -4.420519e-05 0.0002114817 -0.00013884692 4.893654e-05 -0.0001268002

base.1.running_mean f4 [64]
00000000: 62c0 833e 696d 103f 5aa9 5d3e 1427 9a3d
00000010: 2243 123f 18c0 d9be 17d9 f03e f0ad 39bf
00000020: 9257 a2be 4ce5 9bbe a21a 6d3e 0635 2f3f
00000030: 9dee 0ebf 6918 01be 508d 863e d165 3dbe
00000040: 9d68 6c3f 8d0a a3bb c36b 873e afe0 5abf
00000050: 1a07 333f b977 dfbe eb3e 3d3e 2bda 4c3f
00000060: 5ee4 02bf ae44 bd3e 33ad f4be fb6a 0cbd
00000070: ca97 64bd a46d 6f3f 8aab 683e ad7d 5d3f
00000080: 341d 14bf 285c 16be 1417 8c3f ea53 e9be
00000090: 042b 0abe c741 02bf ea4c 98bf aff7 5c3f
000000a0: f06f 9b3f 7cb9 8bbe 8821 9e3f b4e5 203e
000000b0: 0cb0 513c fd0c 793e 16d0 683f 361e 183f
000000c0: 7813 233f f763 0abf 9841 fc3e 9610 0e3d
000000d0: 90c9 d63f f564 d93e 25fc 6c3e 0c2f 21bf
000000e0: 2543 04be dba8 893e e819 31bf 1f2c 42be
000000f0: 29fd 193e 7e1f a63d 4cb6 4ebf 9a72 d1be
0.25732714 0.56416947 0.21646634 0.07526985 0.57133687 -0.42529368 0.47040626 -0.7253103
-0.31707436 -0.30448377 0.23154691 0.6844028 -0.55832845 -0.12606968 0.26279688 -0.18495871
0.9234713 -0.004975623 0.26449403 -0.8549909 0.6993271 -0.4364603 0.18481033 0.800204
-0.5112971 0.3696646 -0.4778839 -0.034281712 -0.05580882 0.93526673 0.22721687 0.8651989
-0.5785706 -0.14683592 1.0944543 -0.45571834 -0.13492972 -0.5088162 -1.1898472 0.86315435
1.2143536 -0.2728995 1.2353983 0.15712625 0.0127983205 0.24321361 0.90942514 0.594211
0.6370158 -0.54058784 0.49268794 0.034683786 1.6780262 0.42459837 0.2314306 -0.6296241
-0.12916239 0.2688664 -0.69180155 -0.18962143 0.15037979 0.081114754 -0.8074691 -0.40907747

base.1.running_var f4 [64]
00000000: 5a82 4c3b 149d 933b 938c 163b e028 973a
00000010: 197c 003c 3335 cd3b 4e01 013c f954 483c
00000020: 5fb6 4d3b afe5 123b 717e b43a 2702 0e3c
00000030: bc1f 843b 8e92 663b 8c96 373b 1e6e 1b3b
00000040: 5c9e 3a3c d8a1 8c3a a6eb 9c3a 8c15 163c
00000050: 27d0 d73b 4cb5 593b d9ae ac3b 823f d93b
00000060: 089c a33b c9bb df3a 4fa8 8b3b 700d 9a3a
00000070: ba73 c13a 93ae 233c 4938 ec3a 21d3 4b3c
00000080: 0685 be3b 8636 183b 1940 7f3c f6d3 913b
00000090: 4b44 973b 6bcc af3b 0a58 a33c aa2b 253c
000000a0: bf77 7f3c 38e3 833b cccb 7d3c 7c48 b23a
000000b0: e08b 493a 1ae4 0d3b 9d4a 4e3c 3cfb 003c
000000c0: 6d1f ad3b 5221 a53b c6d7 853b 6ee6 d83a
000000d0: fbeb 283d ae3f 823b b934 883a 3972 c23b
000000e0: 92df ab3a b829 353b b1d8 f53b 64d0 493a
000000f0: 34ec 6c3b 15a4 a53a 38b3 4e3c 5b9b 693b
0.0031205625 0.004504809 0.0022971972 0.0011532567 0.007842087 0.0062624454 0.007873846 0.01222729
0.003138922 0.0022414734 0.0013770593 0.008667505 0.0040321033 0.0035182568 0.0028013317 0.0023716758
0.011390295 0.0010729386 0.0011972084 0.009160411 0.006586093 0.0033219634 0.005269867 0.006629885
0.0049929656 0.0017069514 0.0042620073 0.0011753272 0.0014759221 0.009990352 0.0018022145 0.012440474
0.0058141975 0.0023225858 0.015579247 0.0044503165 0.0046162955 0.0053649447 0.019939441 0.010081211
0.015592515 0.0040248893 0.0154904835 0.0013601924 0.00076883845 0.0021650852 0.012591031 0.007872399
0.0052832873 0.0050393725 0.00408456 0.0016548166 0.041240674 0.0039748764 0.0010391689 0.0059340266
0.0013112894 0.0027643275 0.0075026383 0.0007698594 0.003615153 0.0012637401 0.012615971 0.0035645578

base.3.weight f4 [64, 64, 5, 5]
00000000: 20c0 26bc 956c bc3c c6df 683a 02e8 bcbc
00000010: 5488 a33c 1eba 44bb 181c ccbc cc5b 573c
00000020: 7958 a8bc 1126 b1bc 79b0 aa3c 250d ad3c
00000030: 0f56 11bc c046 923a 85b7 c53c 47f7 5abc
00000040: e573 a73c 64f8 1e3c 54e0 abbc f0b0 853c
00000050: 442f e9bb e911 663c b34a adbc fc9e 61bb
00000060: 35a7 733c 985f 25bc e16b b13c 3b0d 4e3c
00000070: f22c 95bc c935 0f3b 5802 c43b 7893 8f3c
00000080: 113e 8d3b 6706 0a3c 91bd c83c cc06 50bc
00000090: d797 9abb 1841 85bc 900f ba3a 9af5 07bc
000000a0: 63f2 d3ba e4e0 95bc 5385 063c 260d 37ba
000000b0: 6c91 bc3c 771f a3bc df7a b23c 64b9 253c
000000c0: adb2 82bc db4a e93b 1db2 9e3c da0b 2fbc
000000d0: 9811 6cbc 25ad 55bc 12a6 423c a363 6a3a
000000e0: 15ad a4bc 97b7 60bc 2aca c33b 2b28 5d3c
000000f0: ec68 b43c 9cd6 633c 8bcd c8ba 17b9 a33c
00000100: d115 29bc 2663 cc3b 7f57 993c d8e3 57bc
00000110: 4551 d5bb 4b66 d8bb 9301 8e3c a78e 9bbc
00000120: d16d a63c 00e2 773b 8095 313c 85d1 843c
00000130: 4d33 c3bc c40a 60bc 0171 37bc 6515 a5bb
00000140: c030 633c 69b0 d4bb 9777 6ebc 5352 b93c
00000150: 4f13 4dbc 47a1 7bbc f879 c13b cbd1 cd3c
00000160: 4488 b33c 8034 a9bc 4090 a83c d023 dd3b
00000170: 5bef c2bb b880 6abc 0f2e 9ebc 6016 58bb
00000180: 6aff abbc 8900 9e3c 5d76 273c d367 94bb
00000190: 6ed4 d03b 60c5 913c e398 393c 2e0d 8e3c
000001a0: ba6a 9b3c 86e4 a8ba 7e6b 6b3c 310d aebc
000001b0: f394 d9bb 1901 2ebc abbb 4f3c a982 ab3c
000001c0: 8271 e03b 9f89 753c db25 5abc c876 feba
000001d0: e216 cd3b b969 953b 9c19 d43b 8746 1bbc
000001e0: daad 82bc 150f cdbc 72fc ca3c d808 3bbc
000001f0: 2a6d c83c 3938 333c e821 b5bc 3ece c6bc
00000200: 2bf8 cabc 6a4f debb ed79 a2bb 19a6 2abb
00000210: 4021 753a 8f22 013c 872d a83c 2955 ae3b
00000220: 3fe6 a5bc 8214 93bc 7bf9 aa3a 4016 b93b
00000230: c66b ec3a 0c82 91ba d90f c7bc 6ba9 3d3b
00000240: 2e18 373c 3212 81bc 0c26 c73b ef0a 84bc
00000250: b59a bdbc 7eb0 53bc d38c a73a 2c3d 6ebc
00000260: e7f5 b33c 759e 703c 8404 9bbc 6018 083c
00000270: ef46 3cbc 9a02 ac3b 50d0 083c 951f 223a
00000280: e0fb b8bc 3e9e 3a3c 7d26 4fbb bb3c c83c
00000290: 5db5 feba 0187 8d3c cb67 b13c 75dd ab3b
000002a0: fc20 a73b 1e02 123c 6091 b3bc 1518 db3b
000002b0: ada1 ab3c 11cd 033c 4e0d 91bc e6dc bbbc
000002c0: 7359 4dbb cefc 713c e993 9cbb 6306 b9bb
000002d0: a7f3 59bc b27a 2cbc de1e 0abb 2183 c23a
000002e0: a149 1ebb 1c0e 53bc 9812 b53c 01e3 b3bc
000002f0: 5437 3bbc 2e61 413c 3bd8 cdbc 20e2 c73c
00000300: 2aad 33bb 4403 b3bc 4289 c7bb 3e4a 44bc
00000310: c913 33bc 7305 0abc e325 f0bb 689a 853c
00000320: dfd1 893c 9725 503b 5532 293b 3744 21bc
00000330: 78ee 913c fa38 203c 5a41 0cbc 14a1 af3c
00000340: 41a3 693c b917 053c 46e4 26bc d78b b8bc
00000350: 0236 9cbb 2571 023c 0e5b 703c 3d46 6c3c
00000360: 59a8 e33a 77d7 733c 54fd af3c 0768 fe3b
00000370: c45a c3bc 6343 503c 336b 97bc 2eb0 c23c
00000380: 72fd 93bc cc92 ffbb 91e9 c23b 22a8 60bc
00000390: 4269 e73a f238 893c c970 8e3b b261 60bc
000003a0: 98ad 8c3c 5210 1e3b c1ab 2a3c 338b 233c
000003b0: 3b0c adbc 1d3d 0ebc 4524 45bb b8e0 4a3c
000003c0: bb78 e2bb 6bb6 c13c 2247 7abc 036f 903a
000003d0: d143 36bc c8b6 23bb 3af4 61bc 7f49 1d3b
000003e0: 452d c93c 8c65 2dbc 4bf1 86bb 6b3a 6fbb
000003f0: 002a d3bb 20d5 85bc 3cff ab3c 6754 e33b
-0.010177642 0.023000995 0.00088834425 -0.023059849 0.019962467 -0.003001816 -0.02491574 0.013144445
-0.02055 -0.021624597 0.020836102 0.021124432 -0.008870616 0.0011160001 0.02413536 -0.01336462
0.020441005 0.009702776 -0.020980991 0.016319722 -0.00711623 0.014042356 -0.021153783 -0.0034427037
0.014871408 -0.010093592 0.021657886 0.012576397 -0.018209908 0.0021852127 0.0059817247 0.017526373
0.0043103774 0.008424378 0.024504455 -0.012696933 -0.0047178078 -0.01626639 0.0014195312 -0.008298302
-0.0016170259 -0.018295713 0.008210498 -0.0006982855 0.023018561 -0.019912465 0.021787105 0.010115001
-0.01595434 0.007119519 0.01937204 -0.010683978 -0.014408492 -0.013041769 0.011880415 0.00089412386
-0.020102063 -0.013715646 0.0059750276 0.013498346 0.022022687 0.013906147 -0.0015320046 0.019985719
-0.010320143 0.0062374054 0.01871848 -0.013176881 -0.006509932 -0.006603991 0.017334735 -0.01898892
0.020316036 0.0037823915 0.010838866 0.016213188 -0.023828173 -0.013674442 -0.011196376 -0.005037951
0.013866603 -0.0064907563 -0.01455488 0.022622263 -0.012516811 -0.015358276 0.0059044324 0.025124451
0.021915562 -0.020654917 0.020576596 0.006748654 -0.0059489436 -0.0143129155 -0.019309072 -0.003297232
-0.020995814 0.019287365 0.010221091 -0.0045289784 0.00637298 0.017794311 0.011327955 0.017340269
0.01897179 -0.0012885488 0.01436889 -0.021246525 -0.0066400706 -0.010620379 0.012679021 0.020936327
0.0068494687 0.014986425 -0.0133146895 -0.0019414062 0.0062588314 0.0045597223 0.0064727794 -0.009477264
-0.01595204 -0.025031606 0.024778578 -0.011415683 0.024466116 0.0109386975 -0.022110894 -0.024268266
-0.024776539 -0.0067843692 -0.0049583823 -0.0026038943 0.0009350963 0.007881775 0.020529522 0.0053202105
-0.020251391 -0.017954115 0.0013044322 0.0056484044 0.001803749 -0.0011101379 -0.024299549 0.0028940092
0.0111751985 -0.015755747 0.0060775336 -0.016118495 -0.02314506 -0.012920497 0.0012783058 -0.014540952
0.021967841 0.014686217 -0.018923052 0.008306593 -0.011491521 0.0052493336 0.008350447 0.00061845157
-0.02258104 0.011390267 -0.0031608634 0.024443021 -0.0019432713 0.017276289 0.021655938 0.0052449056
0.0051003676 0.008911638 -0.021919906 0.0066862204 0.020951116 0.008044497 -0.01770654 -0.022932481
-0.0031333833 0.014769746 -0.0047783745 -0.0056465133 -0.01330272 -0.0105273 -0.0021075527 0.0014840105
-0.0024152773 -0.012881782 0.022103593 -0.02195883 -0.0114267655 0.011802955 -0.02512752 0.024399817
-0.0027416446 -0.021852143 -0.0060893605 -0.011980591 -0.01093001 -0.008424151 -0.007328735 0.016308978
0.016823707 0.0031760687 0.0025817354 -0.009842924 0.017813906 0.009779209 -0.008560503 0.021439113
0.014260114 0.008123332 -0.010186261 -0.022527618 -0.0047671804 0.007961546 0.014670147 0.014421043
0.0017368897 0.014882914 0.021483101 0.007763866 -0.023846991 0.012711379 -0.018483734 0.02376565
-0.018065188 -0.007799482 0.0059482534 -0.013711961 0.0017655271 0.016750786 0.004346941 -0.013695167
0.01717262 0.0024118614 0.010416926 0.009981918 -0.021123996 -0.008681563 -0.0030081433 0.012382679
-0.006911365 0.023646554 -0.015275748 0.0011019412 -0.011124567 -0.0024980772 -0.013791138 0.0024000106
0.024557719 -0.010583293 -0.00411812 -0.0036503326 -0.006444216 -0.016336977 0.020995729 0.006937552

base.3.bias f4 [64]
00000000: d8eb 77bb dea1 2abb 2a2a a33c b0f6 96bc
00000010: 4672 9abc b4e4 aabc 0693 b33c ad39 853c
00000020: 09cc 27bb 2c1f 643c d8a8 333c 8cf6 b7bc
00000030: b6bc 273c 45cc b2bc ebb7 a23c cf1b b53c
00000040: beef 833c 50c8 c4bc b9a6 7c3c c596 6cbc
00000050: d01b 1a3b 3672 a23b 388d c93c f400 b0bc
00000060: 3a32 fabb e8f8 26bc 28fc 9bbc d23a 16bc
00000070: 1475 ebbb c198 b3bc a08b 943c cadd bcbc
00000080: 4e72 5f3c 6442 843c 8710 42bc 458c 3bbb
00000090: e175 c1bc 2445 98bb 4392 23bc bad8 803c
000000a0: 1569 e7b9 d140 65bb 4552 ccbc abc8 d13a
000000b0: b27e 503c 8951 84bc 6ce7 cbbc 1cf3 9d3c
000000c0: bffe 9cbc a904 02bc c5d0 853c 9973 c73c
000000d0: 82fc da3b 9f96 dcbb 28e2 2fbc 6ed2 c23a
000000e0: 9801 8cbc 7e83 a83a 54c3 183c fa9d 52bc
000000f0: 5cff 033c 1a98 55b9 679f 9fbc 9a1b 703c
-0.0037829783 -0.0026036422 0.019917566 -0.018428177 -0.018853318 -0.020861007 0.021920692 0.016262854
-0.0025603792 0.013923448 0.010965548 -0.02245643 0.010237863 -0.021825919 0.01986309 0.022107987
0.016105529 -0.024021298 0.015420609 -0.014440243 0.0023515113 0.0049574627 0.024603471 -0.02148483
-0.007635382 -0.01019118 -0.019041136 -0.009169297 -0.0071855877 -0.021923425 0.018132985 -0.023054976
0.013638092 0.016144939 -0.011844761 -0.0028617543 -0.02361578 -0.004646914 -0.009983602 0.015728343
-0.00044138046 -0.003498126 -0.024941573 0.0016005238 0.012725519 -0.01615216 -0.024890624 0.019280963
-0.019164441 -0.007935681 0.0163349 0.024347113 0.0066829333 -0.0067318226 -0.010735072 0.0014863738
-0.017090604 0.001285657 0.009323914 -0.012855047 0.008056488 -0.00020369925 -0.019485189 0.014655018

base.4.weight f4 [64]
00000000: b9f5 7f3f be02 803f 3cf5 7f3f ab0b 803f
00000010: 7602 803f 4009 803f cb01 803f ca06 803f
00000020: 20f2 7f3f 8bf7 7f3f acf4 7f3f 49f9 7f3f
00000030: 4d02 803f 82f9 7f3f 2004 803f 6209 803f
00000040: 4df5 7f3f 7302 803f a4fb 7f3f 38ff 7f3f
00000050: 1201 803f 80fa 7f3f efff 7f3f dd02 803f
00000060: efed 7f3f 17ff 7f3f e1f9 7f3f f403 803f
00000070: a3f7 7f3f 1e00 803f c2fb 7f3f 81fd 7f3f
00000080: 4efb 7f3f c4f7 7f3f bd08 803f ddf5 7f3f
00000090: 8704 803f bcfb 7f3f e701 803f 0f00 803f
000000a0: a8f3 7f3f f6fe 7f3f ae02 803f d400 803f
000000b0: 7008 803f 99f6 7f3f 9d02 803f 760b 803f
000000c0: f7f2 7f3f e3f7 7f3f 76ff 7f3f c8ff 7f3f
000000d0: fbf4 7f3f 7a06 803f 64fb 7f3f 72fa 7f3f
000000e0: 7d00 803f 4df9 7f3f d001 803f 4101 803f
000000f0: c3ff 7f3f 7701 803f d602 803f 090c 803f
0.9998432 1.0000837 0.9998357 1.0003561 1.0000751 1.0002823 1.0000547 1.0002072
0.9997883 0.99987096 0.99982715 0.99989754 1.0000702 0.99990094 1.0001259 1.0002863
0.99983674 1.0000747 0.9999335 0.9999881 1.0000327 0.9999161 0.999999 1.0000874
0.9997243 0.9999861 0.9999066 1.0001206 0.9998724 1.0000036 0.99993527 0.9999619
0.99992836 0.99987435 1.0002667 0.9998453 1.0001382 0.9999349 1.000058 1.0000018
0.99981165 0.99998415 1.0000818 1.0000253 1.0002575 0.99985653 1.0000798 1.0003498
0.9998011 0.9998762 0.9999918 0.99999666 0.99983186 1.0001976 0.99992967 0.99991524
1.0000149 0.9998978 1.0000553 1.0000383 0.99999636 1.0000447 1.0000865 1.0003673

base.4.bias f4 [64]
00000000: 8594 00b9 f5d3 a139 c0d5 de38 0e97 f2b8
00000010: f7c2 6db7 5662 fbb7 22e3 3c38 1140 eeb8
00000020: fb71 81b7 6774 e2b9 48ae 7db9 5c20 beb9
00000030: d2df 0b39 cd47 03b9 e984 a2b9 a0a2 5538
00000040: 823e 1cb9 922a 0bb9 e8ec 9eb8 6400 c438
00000050: b7fc 5d38 18a6 36b9 841c aa39 bcb3 6139
00000060: a549 30b9 58e1 8eb8 3186 d338 21fe d138
00000070: 5968 1737 9815 eb38 8d99 6f39 21bd 1a36
00000080: 2a65 0bb9 20f6 d4b8 9259 7c38 47e6 25b2
00000090: c254 0739 d260 f1b8 12b2 ccb5 acf3 42b9
000000a0: e5e2 46b9 c14d 97b8 36bc 8ab6 0e11 24b9
000000b0: a1e7 0939 dd26 f9b8 18a8 ae38 31a1 3139
000000c0: c73a 81b9 05c9 0bb9 fc45 67b9 8f80 1fb9
000000d0: 9d94 71b8 6a0f 5639 1a5c 5eb9 7291 d838
000000e0: 7da6 9838 9023 0bb8 03bd 8237 b1a7 5eb9
000000f0: 1fdd 50b8 c9ec e238 68b8 1238 986c 9c38
-0.00012262359 0.00030866233 0.00010625599 -0.00011567595 -1.4171695e-05 -2.9967323e-05 4.5034227e-05 -0.00011360658
-1.5431075e-05 -0.00043192806 -0.00024192885 -0.00036263734 0.00013339453 -0.00012519881 -0.00030998074 5.0934614e-05
-0.00014900605 -0.00013271932 -7.578154e-05 9.346081e-05 5.2925865e-05 -0.00017418747 0.00032446173 0.00021524628
-0.00016812103 -6.813061e-05 0.00010086259 0.00010013232 9.024597e-06 0.000112096954 0.00022850018 2.3057876e-06
-0.0001329376 -0.00010154792 6.01649e-05 -9.656623e-09 0.00012906178 -0.0001150981 -1.525101e-06 -0.00018592057
-0.00018967276 -7.214724e-05 -4.134631e-06 -0.00015646612 0.00013151627 -0.00011880484 8.3282765e-05 0.00016940084
-0.0002464859 -0.00013330959 -0.00022055948 -0.00015211313 -5.7597284e-05 0.00020414373 -0.0002120588 0.00010326774
7.278936e-05 -3.3173303e-05 1.5585223e-05 -0.0002123404 -4.9797e-05 0.000108206244 3.4980854e-05 7.458887e-05

base.4.running_mean f4 [64]
00000000: 21d3 dfbd e135 44bc 080e 53be 0203 34bc
00000010: 60f9 fbbd 53b7 febd 676e 1bbd b191 afbd
00000020: 2f75 40bd da9d 85bd 0ef9 1c3e c31e aebc
00000030: 1e8c b23c 5008 fb3c 5f65 42bd 0570 2d3c
00000040: 9b76 ac3d de9e 2abe f3c4 d2bb c1d7 a4bd
00000050: 6a90 9d3d 4958 0d3e e2e8 9b3d 7960 0d3d
00000060: d2f5 153e 0b17 00bc 25e0 09be d792 273e
00000070: b5f5 29be d551 0e3c 6fb3 473e 040e d23d
00000080: a5de 8fbb cedc 0ebd 1650 913d 2efc b0bd
00000090: f79b efbd 638e 233e 1f25 523d c762 033e
000000a0: 7080 31bd db3b 4cbd 8893 883d f327 463c
000000b0: fb70 033e 39fb 713e d35c 35bd 767c d0bd
000000c0: 4e04 523c b646 b73c 3ce7 a1bd 6897 843d
000000d0: bf6e 08be 663a 25be d06f 39bc 88df 723d
000000e0: ef0c 0a3e 4a32 f2bd 98b9 45bd d0c8 833b
000000f0: 4c77 4abc ffd0 b3bc 8638 76bc 5a85 163e
-0.109289415 -0.011975736 -0.20610821 -0.010987045 -0.12303424 -0.1243731 -0.037947085 -0.0857271
-0.046986755 -0.065242484 0.15329382 -0.021254903 0.021795329 0.030643612 -0.047459956 0.01058579
0.0842106 -0.16662166 -0.0064321696 -0.08048964 0.076935604 0.1380321 0.07612778 0.03451583
0.14644554 -0.007817994 -0.1346441 0.16364609 -0.16597636 0.008686502 0.19502042 0.102565795
-0.004390555 -0.034878545 0.07095353 -0.086418495 -0.1169967 0.15972285 0.051304933 0.1283065
-0.04333538 -0.04986177 0.06668764 0.012094486 0.12836067 0.2363099 -0.044277977 -0.10179989
0.012818409 0.022372585 -0.079054326 0.06474191 -0.13323496 -0.16135558 -0.011318162 0.059295207
0.13481496 -0.11825998 -0.0482727 0.0040217414 -0.012357544 -0.021950243 -0.015028125 0.14699307

base.4.running_var f4 [64]
00000000: e85f ec3d 6eb5 2e3d ecf3 2d3e dc15 ad3d
00000010: 6b3b 533d 19e5 aa3d 4f3e 103d 6e85 933d
00000020: d042 033e 36d2 0c3d 85b9 1c3e ceb0 113d
00000030: fedf 373d eb4b 323d f627 d13d e455 083d
00000040: 17dc 8d3d 0516 623d 5d9f aa3d 9605 a33d
00000050: d664 233d 1b80 a93d ead4 af3d f5ec 3d3d
00000060: 26b8 923d d6ab 6a3d f272 bb3d c93d c73d
00000070: bbcd 303e 8c28 493d e851 0d3d 2cce 883d
00000080: 9921 6b3d 8b59 ba3d 37cb 8e3d fc9c 553d
00000090: 3479 303e d44b 2a3d c388 3a3d e252 013e
000000a0: 47ff 953d bda0 293d 39e0 3c3e 83ec 393e
000000b0: 5d1f b33c 8162 5f3d 9462 0c3d 08a5 113d
000000c0: fe0b b33d fddf 5a3d aba5 bb3d 484c f73d
000000d0: f445 823d dcea 373d c1ab 3f3d e30e 693d
000000e0: 5f07 9a3e e8ba bd3d 1bba c83d 03ee e43c
000000f0: 611c 4d3d ccb5 273e 31e1 9a3d 5dc4 6f3d
0.1154173 0.042653494 0.1698758 0.08451435 0.051570337 0.08344478 0.035215672 0.07203184
0.12818456 0.03438016 0.15305145 0.035569005 0.04489135 0.043529432 0.102127 0.033285037
0.069267444 0.05519678 0.083311774 0.0796005 0.039891087 0.08276387 0.08585532 0.046368558
0.0716403 0.05729278 0.091527835 0.097285815 0.1726598 0.049110934 0.03450194 0.06679949
0.057405088 0.0909911 0.06972354 0.052151665 0.17233735 0.04157622 0.045540582 0.12629274
0.07324081 0.041413058 0.18444909 0.18156628 0.021865541 0.0545373 0.0342737 0.035557777
0.08742522 0.053436268 0.09162458 0.12075096 0.06360999 0.044901714 0.046794657 0.056898963
0.3008375 0.09264165 0.09801122 0.027945524 0.050075892 0.16377944 0.07562483 0.058536876

base.6.weight f4 [32, 64, 5, 5]
00000000: 1331 b3bc 111f 003c 447d 98bc 9ae8 ed3b
00000010: 4f8b a7bb e34a ba3c 9499 283c 1272 acbc
00000020: 3312 023c 3115 943b 9de7 09bc 8c3b bbbc
00000030: 387e adbc c74d a73b d9e6 81bc c21c 243b
00000040: bd12 92bb 6867 ad3c be18 bfbc 72af 4cbc
00000050: 5682 a43c 1678 edbb 28a5 243c a8df ca3c
00000060: 72ef 9f3a 8c64 31bc e90b ff3b 6c58 cabc
00000070: 96d2 39bc 87de dab8 405e 303c 72a3 47bc
00000080: fb30 443c af75 273c 8cc5 73bc ef6b 87bb
00000090: deb3 f33b 974c babc a5ac 1b3b a475 bb3c
000000a0: 3a65 47bc e2b7 90bb 155d 293c 0ab1 543b
000000b0: 18c7 b73c d19c 02ba 6df4 be3b 4ed8 f338
000000c0: c3d6 5abc 7b02 ea3b f28d fa3b 72ad c8bc
000000d0: c74a 60bc 2cf7 a6bc 68a7 5a3c d76c 57bc
000000e0: 9841 aabc da67 42bc f889 07bc 6878 a83c
000000f0: 4c50 ba3b c78d 9cbc 16d7 43bc fa49 adbc
00000100: 340d b23c 5110 643c 0e02 9cbc bb9d 01bc
00000110: 7f28 8eb9 6158 c4bb d4d6 db3b d004 c93c
00000120: 76ac 55bc 63f0 a33b cf26 44bc 7727 7cbc
00000130: 6687 2e3b 00b0 52bc 6efc 11bb 6dd4 c2bb
00000140: 45b8 78ba a4a4 1ebc 454a 313c 168e 253b
00000150: 701b afbc 6305 c93c 1bf7 8c3c b6be 2bbc
00000160: 8fc7 d03b 3f3e 993c 86d0 cabc 4252 72bc
00000170: 1b0f 203c 8a49 a93c 8b28 f83b 684d 3fbc
00000180: 234a 60bb 4584 c03c 083c c4bc 14ea 10bc
00000190: fbbb 2cbc fab9 8d3c 2d0e 433c 1fa3 c83c
000001a0: b4cf 8bbc 9c62 6d3c 1e42 163b 05cb a33b
000001b0: 6c34 acbc badb bebc 4334 923c b7e1 743c
000001c0: da66 a53c 0c9c 713c ccb5 8ebc 1442 deba
000001d0: 510c ecbb d3b8 9a3c 1b50 eebb 1ab7 b83b
000001e0: e66f 73bc f3f3 87ba 7037 28bc 5bb7 4b3c
000001f0: 09e6 0cbc 9185 823c cfce 683c d919 9fba
00000200: cec9 b1bc 589d 913c 7e1a c83c 3673 c5bc
00000210: 37f0 9fbc 9a9a 88bc 564b fdbb b730 893c
00000220: b22c c63c 3c5e 303c d799 c33c 0218 c0bc
00000230: 2dc5 0a3c 489b 3f3c b69b 38bb bd93 b03c
00000240: d0db b93b be14 a3bc 0b3c 60bc 3077 b4bb
00000250: b9a3 59bc 9537 b53c 0547 193b 5712 283c
00000260: 45de c0bc 3901 88bc a159 3cbc 7838 85bc
00000270: b7f2 63bc 822e febb 0546 9fbc 2889 efbb
00000280: 71ff 083c 85c0 8dbc 4e27 adbc 7961 1a3c
00000290: 785d bcbc ff0a 803c 0779 8b3b ff1c bbba
000002a0: 81e6 9d3b e1aa 03ba 1bc4 103c dcaa e73b
000002b0: 813c bb3c df72 43bb 0f6b 5ebc 3f4c c33c
000002c0: cfe8 803c 1f83 853b 6b0b 7a3c aef2 483c
000002d0: 43ca 94bc afd2 8c3c 20f8 823c aea4 ce3b
000002e0: 4b89 123c be15 da3a c7c7 88bc a991 afbc
000002f0: 3549 8abc c81e 503b d7be 493c 0502 293b
00000300: 10ec c2bb 14e5 573c da9d a63c 9911 a2bc
00000310: b46f 003b 2819 cabc 316d 9f3c a9c3 86bc
00000320: 6764 c53c 1f33 54bb f8e1 cc3c ca92 8d3c
00000330: 6036 5b3b 7b0e ebbb 414c b8bc 25df 93bc
00000340: 8130 943c 179a a23c e4ab 3c3c 1fda 563c
00000350: 4a84 c53c d3d2 e83b 777c efba 6d03 8539
00000360: 8380 a33a 2bde 243c 9472 97bc 3053 66bc
00000370: 5a8a adbc eea6 1f3c 764b 4dbc b05f 62bc
00000380: 9076 6bbb d1b3 40ba b57b 91bc d2e5 e03a
00000390: 929e c93c 6e3b afbc 7860 a2bc 48a2 99bc
000003a0: 4c6d 013c e3fc 87bb 1d57 a0bb 9ee1 f8bb
000003b0: 0a91 b63c 8fc7 9dbc 646e c0bb 0b7f 59bb
000003c0: a466 a83b fb09 8fbc 7a88 9abb d8d9 123c
000003d0: 5679 e93a 4df8 cbbc 30ea 53b8 09aa 5bbc
000003e0: c224 44bc 48c8 dbbb f072 15bc 26e1 2dbb
000003f0: 7c7a ae3c 613d c9bb ee35 bd3b 0911 b2bb
-0.021873986 0.007819907 -0.018614419 0.0072603943 -0.0051130424 0.022740787 0.010290522 -0.021050487
0.007938909 0.004519128 -0.008417037 -0.022855543 -0.02117835 0.0051057073 -0.015857147 0.0025041555
-0.0044578 0.021167472 -0.023327228 -0.012493001 0.02008168 -0.0072469814 0.010049142 0.02476485
0.0012202098 -0.010827195 0.007783402 -0.024700366 -0.0113417115 -0.00010436499 0.010764658 -0.0121849645
0.0119745685 0.010220929 -0.014878642 -0.0041327397 0.0074372133 -0.022741599 0.0023754027 0.022883244
-0.01217013 -0.004416452 0.010337134 0.0032454156 0.022433802 -0.0004982474 0.0058274777 0.00011627433
-0.013356867 0.007141409 0.0076463157 -0.024496768 -0.013689703 -0.020381533 0.013345577 -0.013148508
-0.02078323 -0.01186558 -0.00827264 0.020565227 0.0056858417 -0.019110573 -0.011953136 -0.021153439
0.021734811 0.013919906 -0.019043949 -0.007911141 -0.00027114523 -0.005991981 0.006708959 0.024538428
-0.013041606 0.0050030216 -0.011972143 -0.0153902685 0.0026630997 -0.0128593445 -0.0022275704 -0.0059457333
-0.00094879075 -0.009682808 0.01082093 0.0025261692 -0.021375388 0.024538701 0.017207673 -0.010482481
0.0063714455 0.018706439 -0.024757635 -0.01479012 0.009769226 0.020664949 0.0075731925 -0.01167617
-0.0034223876 0.023500571 -0.023954406 -0.008844871 -0.010542865 0.017300595 0.011905235 0.024491845
-0.017066814 0.014488842 0.0022927593 0.004998567 -0.02102109 -0.023298133 0.017847186 0.014946393
0.020190645 0.014746677 -0.017420672 -0.0016956949 -0.0072036167 0.01888696 -0.007272733 0.005637062
-0.014858222 -0.0010372385 -0.010267124 0.012433852 -0.0085997665 0.01593283 0.014209463 -0.001213844
-0.021702673 0.017775223 0.024426695 -0.024102788 -0.019523723 -0.016675282 -0.007729928 0.016746862
0.024191234 0.010764655 0.023877067 -0.023448948 0.008469862 0.011694737 -0.0028168983 0.021554822
0.0056719556 -0.019907352 -0.01368619 -0.0055073723 -0.013283663 0.02212123 0.0023388278 0.010258279
-0.023543486 -0.016602146 -0.011495979 -0.016262278 -0.013912848 -0.007757009 -0.019442568 -0.0073100515
0.008361683 -0.017303715 -0.021136906 0.009422653 -0.022993788 0.015630243 0.004256371 -0.0014275609
0.004818738 -0.00050227164 0.008835818 0.0070699286 0.022855999 -0.0029823107 -0.013575329 0.023840068
0.015736012 0.0040744687 0.015261511 0.012264891 -0.018162852 0.017190306 0.015987456 0.0063062524
0.008943866 0.001663856 -0.016696824 -0.02143176 -0.016880611 0.0031756628 0.012313566 0.0025788557
-0.005948551 0.013177175 0.020338941 -0.019783782 0.001959783 -0.024670199 0.019461246 -0.01645072
0.024095727 -0.0032379103 0.025010094 0.017281909 0.0033449158 -0.007173357 -0.022497298 -0.01805074
0.018089535 0.019848866 0.011515591 0.013113528 0.024110932 0.0071052103 -0.0018271346 0.0002537029
0.0012474213 0.010062735 -0.018487252 -0.014057919 -0.021184135 0.009744389 -0.012530198 -0.013816759
-0.0035928823 -0.00073510135 -0.017759183 0.0017158336 0.024611745 -0.021390643 -0.01982139 -0.01875414
0.007899594 -0.0041500195 -0.004893197 -0.007595255 0.022285957 -0.019260196 -0.0058725346 -0.0033187296
0.005139189 -0.017460814 -0.0047159763 0.008963071 0.001781265 -0.024898672 -5.0524424e-05 -0.013407239
-0.011971654 -0.006707225 -0.0091216415 -0.0026531904 0.02129864 -0.00614135 0.005774251 -0.0054341597

base.6.bias f4 [32]
00000000: ceea bbbc d941 ba3c 50d5 9e3c b64a 253c
00000010: 4ca2 e5bb 7bbf c83b d51b 89bc 4179 75bc
00000020: b6a9 903b 4ce1 c83c f6d1 a03c 3ea5 64bc
00000030: 03ff 983c a196 de3a 6140 9abc 9c37 cabc
00000040: 522b 9dbc 65fb 973c 0184 80bc 8a1b acbb
00000050: 9f1f 0dba 0441 3cbc be99 4c3c c40f 7cbc
00000060: 31a7 e7bb fb08 a1bc 3863 ae3c 7aa0 833b
00000070: 73b0 e83b 395a 2d3c bf65 8ebc cbdd 0e3b
-0.022939112 0.022736477 0.019388825 0.010088613 -0.0070078727 0.006126342 -0.016736904 -0.014982522
0.0044147624 0.024521492 0.019631367 -0.013955412 0.018676287 0.0016982147 -0.018829526 -0.02468472
-0.019185696 0.018552491 -0.015687944 -0.0052523063 -0.0005383435 -0.01149011 0.012487827 -0.015384618
-0.0070694913 -0.019657603 0.021287546 0.004016933 0.0071011125 0.010580593 -0.0173825 0.002179968

base.7.weight f4 [32]
00000000: 1001 803f eeff 7f3f 8df8 7f3f a6ff 7f3f
00000010: 83ff 7f3f 34fe 7f3f 3b03 803f ccf6 7f3f
00000020: 4402 803f 6508 803f 1606 803f aa0e 803f
00000030: cb03 803f 47f6 7f3f d80b 803f 8700 803f
00000040: 0905 803f d409 803f 9e00 803f 7f10 803f
00000050: d0f0 7f3f 4506 803f be00 803f 0d05 803f
00000060: f2fc 7f3f 970c 803f 4804 803f d006 803f
00000070: 34f8 7f3f 420e 803f 960a 803f da09 803f
1.0000324 0.9999989 0.99988633 0.99999464 0.99999255 0.9999726 1.0000986 0.9998596
1.0000691 1.0002562 1.0001857 1.0004475 1.0001158 0.99985164 1.0003614 1.0000161
1.0001537 1.0002999 1.0000188 1.0005034 0.99976826 1.0001913 1.0000226 1.0001541
0.9999534 1.0003842 1.0001307 1.0002079 0.999881 1.0004351 1.000323 1.0003006

base.7.bias f4 [32]
00000000: d73d 9037 bb60 02b9 3787 6db8 b856 db37
00000010: d55b 39b9 bcac 16b9 355b 2739 27ba 93b9
00000020: d977 8236 6b6c 4939 0656 9f39 a2d6 8a39
00000030: 3ea8 74b8 a1a7 9c37 6303 b338 f7bb bb38
00000040: 0452 a938 b454 5b38 b06e a7b7 6a8d a1b8
00000050: 094e 3fb9 48e6 5439 412c c0b8 36bb c638
00000060: 0816 5336 7239 6239 3cdd c4b8 7919 4b39
00000070: b3fd 50b8 6529 55b7 4c2c 7a39 f91c 6f38
1.7194934e-05 -0.00012433801 -5.6631132e-05 2.6147216e-05 -0.00017677185 -0.00014369463 0.00015960338 -0.0002817672
3.888254e-06 0.00019209243 0.00030390936 0.00026481325 -5.833082e-05 1.8674707e-05 8.536016e-05 8.951866e-05
8.0738246e-05 5.2292555e-05 -1.9959494e-05 -7.703419e-05 -0.0001824425 0.00020303682 -9.1635164e-05 9.4762465e-05
3.1454274e-06 0.0002157444 -9.3872164e-05 0.00019369078 -4.982734e-05 -1.2705427e-05 0.0002385836 5.7009023e-05

base.7.running_mean f4 [32]
00000000: f5ce 4fbe f848 623e 9862 9bbd c3a9 5a3d
00000010: 524a bb3d c70e f33d a4a4 0abe 13b7 fbbc
00000020: de0f 023e 7926 9b3d 8b94 953d 14fa 203d
00000030: 53ff 0fbc 9a2b bf3c b3b8 293e f513 613d
00000040: c978 e8bc e16e 65bd 829b 073c 14fa b1bd
00000050: d7c7 eabd a3ee a23c 2f63 2fbd 6362 58bd
00000060: 84e4 503e a3b1 d6bd 2812 183d 9005 19be
00000070: 45f5 2c3e 0565 5f3e a26a 74bd a858 d0bd
-0.20293792 0.22098148 -0.07587165 0.053384554 0.09145035 0.11868053 -0.13539368 -0.030726945
0.12701365 0.075756975 0.07303723 0.039300993 -0.008788901 0.02333622 0.16574363 0.054950673
-0.028377907 -0.056013945 0.008276822 -0.08690277 -0.11463898 0.019889181 -0.0428192 -0.052828204
0.20399672 -0.104831 0.03712669 -0.14943528 0.16890438 0.2181588 -0.059672005 -0.1017316

base.7.running_var f4 [32]
00000000: d2e7 593d a212 743d bb41 2e3d f225 433d
00000010: 956d 8c3d 0361 813d 4ff2 523d a889 813d
00000020: 9935 683d 33d7 6a3d 54d4 573d 391c 0f3d
00000030: 731a 703d af91 8d3d e263 353d 6789 3c3d
00000040: da55 a13d 5a94 553d 7397 653d e4ab 023d
00000050: f8c4 b53d 6ffe 443d bc16 973d d42e 663d
00000060: 6326 b03d 9f4b 053d bd0d 2b3d 53eb 273e
00000070: d043 063e d833 b13d 519c f93c b180 193d
0.053199597 0.059588082 0.042543154 0.04764361 0.068568386 0.06317332 0.051500615 0.06325084
0.05669174 0.057334136 0.052692726 0.034939025 0.058618974 0.069125526 0.04428471 0.046029475
0.07877703 0.052143432 0.056052636 0.03190221 0.088754594 0.04809421 0.07377383 0.056197003
0.08601072 0.03254282 0.04176115 0.16398363 0.13111806 0.086524665 0.030470045 0.037476245

head.0.weight f4 [24, 3200]
00000000: c742 89bc 04b2 ec3b 3122 0f3b 93ba 44ba
00000010: 3c59 153b 9ac9 40bb d702 533c cd0e bfb8
00000020: a935 063c 3e6e 003c a0ad 49bc 32cb 71bc
00000030: 1f36 65bb 586e 903c 29b4 0abc dbe7 893c
00000040: e03a 023c 0e0e 243c 2245 87bc edd8 38bc
00000050: a952 68bc d89e 0abc e559 183c 18c0 c93a
00000060: d8c8 a63a 03a0 663c 74ac 463b 5926 7bbc
00000070: 6f74 943c 1f5b e83a d806 ba3b 1a13 283c
00000080: 2c68 483c 508d bebb 4644 8e3b dda9 d0bb
00000090: e085 353a 5b19 75bb a5b2 8dba 8f53 80bc
000000a0: 0895 223c 0920 ec3a 7206 6ebc 52f2 fab8
000000b0: 489f baba 698d 873b 8cfa cf3b 8c81 d23b
000000c0: e51b b039 27dd dcb9 32f3 693c e083 1bbc
000000d0: 2943 8fbb 47dc 20bc a061 8f3c eca1 53bc
000000e0: 5d46 5cbb a4ac 0a3c a9e1 0a3b 580f 303b
000000f0: 54f4 373c d48f 7bbc efb4 47bc 7830 67bc
00000100: b022 42bc 0e28 753c 0303 083b dd1e 81bc
00000110: ed28 babb 88d8 013c f407 953b cae1 1dbc
00000120: 7067 233c 218f 2bbc 2fd5 893c 52bd 883c
00000130: d6de cc3b 4088 893c 2bab 3dbc 03b2 4f3c
00000140: faf0 35bc d44b af38 e783 c4bb 3a5c 85bc
00000150: 7fa7 7b3c 1f05 553c bc0a d9ba ad52 8ebb
00000160: ed52 43bc cf0d d83b 1bd8 cabb a8fc 5ebc
00000170: 38f5 7e3c 9af3 053c 9bc1 5dba 13bf 28bc
00000180: 9ebf bfba d028 75bc 019f 383c cb48 753c
00000190: 2c1a a1ba 92dd 36b9 39c1 92bb ac7d b7bb
000001a0: 4d32 2e3c 9c0b 8cbc 1c63 303b bf4e 7a3c
000001b0: c2d6 523b 7f45 f43a c4be 4bbc e2e3 573c
000001c0: f7bd 823c b184 943b 4c59 f2bb 1d8f 9b3b
000001d0: 4bd9 93bb aeee 633c 2d4c e7b9 f1dd 803a
000001e0: 5bdc bbbb 72ed 5e3c 0cf9 2abc 15f9 33bc
000001f0: af4b 763c 67cd 663c bda8 06bc 6192 b33b
00000200: 91ab 293c 1523 e2bb 579c a43b da63 563c
00000210: afb3 bd3b 7e5c 5bbb 0996 ecbb 1756 85bc
00000220: 8946 31bc 1e9c 40bb ef79 8bbb 3dd4 50bc
00000230: dce6 763c f46f 873c f5fe 64bc 3e1d 00ba
00000240: ad6f 8a3c f658 e63b df26 c63b acb4 0dbb
00000250: 7977 153c 7be4 013c acf5 c73b f3e5 4bbc
00000260: 26fe bbbb a9ee a3ba 655a 8ebb e83d 9cbb
00000270: 8db9 023c b57e 4bbc 4cec 2c3b 09fd 3fbc
00000280: bd35 883b 820b 1e3c bbb1 a4ba ad39 783c
00000290: 46d1 3a3c 7cd0 833c 57dd 323c 2be2 86bc
000002a0: cec5 613c ea48 543c 8ea5 653c 47f6 303c
000002b0: 59e8 593c 5ec8 ab3b 25ce 8e3c 6483 f83a
000002c0: 3f6b 1e3c e045 3cbc c664 bf3b 5851 723b
000002d0: 618f 613c ead7 5b3c d7d3 813a b694 793a
000002e0: ee62 37b9 e0ef 2bbc c0eb abbb ced8 853c
000002f0: 8833 8dbb ef5b 2fbc 6926 0bbc 8764 36bc
00000300: 71ec ab3b 4f1c 47bc 9344 e4bb 7d6c 56bc
00000310: db0d 58bc 9191 82bc 493b 81bc 3703 8d3c
00000320: c056 80bc dc8e 28bb 1302 323c daa2 10bc
00000330: 0a50 03bc b92a 87bc d2f9 533c dc5e 633c
00000340: 9351 59bc 6c9b 36ba 0866 24ba e8f5 973b
00000350: d18a 5f3b 2dc2 5d3c a29a eabb e8d7 b9bb
00000360: b440 7a3c 74c6 633c c6bc 0abb 16a3 f8bb
00000370: c84e 88bc 8dc3 0dba 1c28 003c bf6e 37bc
00000380: 8049 cdbb eba8 8b3b a190 94bc 973c 16bc
00000390: 500a e73b aca1 42bb 8bbe 39bc db5c 95bc
000003a0: e61d ebbb 8c34 a0ba 70f8 0c3c 9d5c f7bb
000003b0: ad5a 79bc 40e1 4f3b 23ff 06bb a4fc 57bb
000003c0: eceb 5e3c 69ca 433b c981 4a3c dd2d 07bb
000003d0: 4615 1eba c569 603c b8ce 253c b835 c83a
000003e0: 8dc8 8ebc 7c08 29bc ca74 64bc bf68 b3bb
000003f0: 1d0e 243c 7396 32bc 3d61 293c 7360 a8bb
-0.016755475 0.0072233696 0.0021840448 -0.00075046084 0.0022788784 -0.002941704 0.012879095 -9.1103466e-05
0.0081915045 0.007838784 -0.012309462 -0.014757918 -0.0034974886 0.017630741 -0.008465805 0.01683419
0.007948607 0.0100131165 -0.016512457 -0.011282188 -0.014179864 -0.008460723 0.009298776 0.0015392331
0.0012724651 0.014076236 0.0030315192 -0.015328967 0.018121926 0.0017727352 0.0056770854 0.01025846
0.012231868 -0.0058151856 0.004341635 -0.0063679055 0.0006924551 -0.0037399146 -0.0010810687 -0.015664844
0.009923227 0.0018014918 -0.014527904 -0.000119660646 -0.0014238143 0.0041367305 0.006347006 0.0064241346
0.0003359012 -0.0004212644 0.014279174 -0.009491891 -0.00437202 -0.009818143 0.017502606 -0.012917023
-0.0033611276 0.008464012 0.0021191633 0.0026864614 0.011227686 -0.0153541155 -0.012189134 -0.014110677
-0.01184909 0.014963163 0.0020753748 -0.015761787 -0.0056811483 0.00792516 0.004548067 -0.009636352
0.009973392 -0.010471136 0.016825287 0.016691837 0.00625215 0.016788602 -0.011576454 0.012676719
-0.011104817 8.358774e-05 -0.0059971693 -0.016279329 0.015359758 0.013001709 -0.0016558985 -0.004343352
-0.0119216265 0.006593443 -0.0061903126 -0.013610043 0.015561394 0.008175755 -0.00084593304 -0.010299462
-0.001462925 -0.014963344 0.011268378 0.0149709685 -0.0012291125 -0.00017439414 -0.0044786003 -0.005599698
0.01063211 -0.01709538 0.0026914543 0.015277564 0.0032171463 0.0018636434 -0.012435619 0.01317689
0.015959723 0.0045324196 -0.007395899 0.004747285 -0.0045119873 0.013911886 -0.0004411651 0.0009831769
-0.0057330555 0.013606416 -0.010435354 -0.010984679 0.015032693 0.014087058 -0.008218941 0.005480096
0.010355846 -0.0069011548 0.00502352 0.01308533 0.005789242 -0.0033471878 -0.007220034 -0.016276402
-0.01082004 -0.0029389928 -0.004256479 -0.012745914 0.01506969 0.016532876 -0.013976802 -0.000488717
0.016898954 0.007029648 0.0060471143 -0.0021622581 0.009122723 0.007928009 0.0061022844 -0.012444961
-0.005737084 -0.0012507039 -0.004344272 -0.004768122 0.007978809 -0.012420346 0.002638596 -0.011718043
0.0041567967 0.009646298 -0.0012565175 0.01515047 0.011402434 0.016090624 0.010917029 -0.016465267
0.0137800705 0.012956837 0.014016522 0.010800905 0.013300025 0.0052423915 0.017432282 0.0018960056
0.009669124 -0.011491269 0.0058408706 0.0036974754 0.013767094 0.013418177 0.0009905052 0.0009520756
-0.00017489094 -0.010494202 -0.0052466094 0.016338732 -0.0043091215 -0.010703071 -0.008493044 -0.011132366
0.005246692 -0.012152745 -0.0069661825 -0.013087389 -0.013186897 -0.015938552 -0.01577534 0.017213447
-0.015666366 -0.0025719916 0.010864752 -0.008827889 -0.008014688 -0.016499864 0.01293798 0.013877597
-0.013264078 -0.00069659087 -0.00062713074 0.0046374686 0.003410984 0.013535065 -0.007159547 -0.00567149
0.0152742155 0.013902295 -0.0021169647 -0.0075878007 -0.016639128 -0.00054078625 0.007822063 -0.0111958375
-0.0062648654 0.00426208 -0.01813537 -0.009169719 0.00705079 -0.0029698415 -0.011336933 -0.018232754
-0.007175195 -0.0012222691 0.008604154 -0.007548882 -0.015219373 0.0031719953 -0.002059885 -0.0032956982
0.013606053 0.0029875285 0.012360045 -0.0020626702 -0.00060303917 0.013697092 0.010120086 0.0015274798
-0.017429614 -0.010316964 -0.01394386 -0.005475133 0.0100131305 -0.010900128 0.010338125 -0.005138451

head.0.bias f4 [24]
00000000: 6298 8fbc dc77 8a3c 9b5e e1ba 2707 333c
00000010: ff47 643c 6c72 57bc 801c 213b 24ec 65bb
00000020: 5a47 89bb f830 d6ba b985 8d3c eeb4 18bb
00000030: c76b 3abc d40e d8bb 0b30 5abb a1d0 c6ba
00000040: 1ef8 4e3c f584 45bb e87f 54bc f874 eeba
00000050: 5dec 51bb 5f0a 843c ec83 8ebc 36d2 c4bb
-0.017528716 0.016902857 -0.0017194332 0.010926998 0.013933181 -0.013149839 0.0024583638 -0.0035083378
-0.004189414 -0.0016341498 0.017275678 -0.0023301202 -0.011378235 -0.0065935645 -0.0033292796 -0.0015168377
0.012632398 -0.0030139063 -0.012969948 -0.0018192818 -0.0032031753 0.016118227 -0.01739689 -0.0060065044

head.2.weight f4 [2, 24]
00000000: 55b9 01be cbb7 3bbd 1643 333e edbf 3bbe
00000010: e38e cc3d ca21 0a3e dcda cabd a382 3cbe
00000020: a8d3 9d3d c292 ea3d 0760 1ebe f976 3ebe
00000030: 9ff2 0fbe 747e 0a3e fc1c a93d c49e bebd
00000040: b488 d3bd a629 a0bd 4a16 723d 09fc d9bd
00000050: c4db b53d 49ca 42be 9ffe 4cbe 78ec 413d
00000060: 240b 3c3e efa7 58bd 298b b53d d31c 053e
00000070: 6439 22be f690 de3c 13aa f4bd 0097 17be
00000080: 6d00 e6bd 540c 0f3e d6e5 b03d 2d0d 3cbe
00000090: 9fd5 b13d f90f b03d 39d1 48bd 59f1 d93d
000000a0: b7d3 1cbe 3987 3cbe 18b1 35be ef6c 12be
000000b0: bc9a 4bbc 433b ed3d fd72 ebbd 4ae4 f33d
-0.12668355 -0.045829576 0.1750606 -0.18334933 0.09988191 0.13489452 -0.09905025 -0.18409209
0.07706386 0.11453773 -0.15466319 -0.18600072 -0.14057396 0.135248 0.082574815 -0.09307626
-0.103288084 -0.07820444 0.059103288 -0.10643775 0.088798076 -0.19022478 -0.20019005 0.047344655
0.18363625 -0.05289453 0.08864433 0.12999277 -0.15842205 0.027168732 -0.119465016 -0.14803696
-0.1123055 0.13969547 0.08637588 -0.18364401 0.08683323 0.085967965 -0.049027655 0.106417365
-0.15315138 -0.18410958 -0.17743337 -0.14299367 -0.012427028 0.11583569 -0.11496542 0.11908777

head.2.bias f4 [2]
00000000: 3c8d d43d 266c 473c
0.10378501 0.012171781
