models/PG hidden=64 lr=1e-05 max_steps=1000 Adam fullwidth BETA=0.01.pt (torch, 737030 bytes, 22 tensors)

base.0.weight f4 [64, 2, 5, 5]
0	0x3e0388e5	0.1284519
1	0x3e01f951	0.12692763
2	0x3d840ccf	0.064477555
3	0xbcebc06d	-0.02877828
4	0xbe10b93f	-0.14133166
5	0xbc455aff	-0.012045621
6	0xbd44cb6e	-0.04804557
7	0xbdce92b8	-0.10086578
8	0xbd090c6e	-0.03345912
9	0xbd4435f8	-0.04790303
10	0xbcda3f04	-0.026641376
11	0x3d2da2de	0.04239165
12	0xbdb9042e	-0.09034
13	0x3da43d8c	0.08019552
14	0xbe132066	-0.14367828
15	0xbd42bdb7	-0.047544207
16	0xbc63bc3e	-0.013899861
17	0x3da1a90e	0.07893573
18	0x3d466b1d	0.048441995
19	0x3ce17ea9	0.027526217
20	0xbca01631	-0.019541832
21	0x3e06ea29	0.13175263
22	0x3e00aeb5	0.12566645
23	0xbe14ceff	-0.14532088
24	0xbd04120a	-0.032243766
25	0x3dfdc918	0.12391871
26	0x3d356f06	0.044295333
27	0x3dcf0068	0.10107499
28	0x3ca1d300	0.019753933
29	0xbd6411d6	-0.055681072
30	0xbda2cd63	-0.07949331
31	0xbde33cb3	-0.11095562
32	0xbde53dae	-0.11193405
33	0x3dc652c0	0.09683752
34	0x3df72bc4	0.120688945
35	0xbd058c58	-0.032604545
36	0xbd56d02c	-0.052444622
37	0xbb1c7971	-0.0023876096
38	0xbd3402b7	-0.0439479
39	0x3c4f6702	0.012658836
40	0xbd866e5a	-0.06564017
41	0xbdc0182a	-0.09379609
42	0x3d799b7f	0.06093931
43	0x3da0b64d	0.07847271
44	0x3e051a95	0.12998421
45	0xbe07979d	-0.1324143
46	0x3d908d49	0.07058198
47	0x3dd17db6	0.102290556
48	0x3c5435e6	0.0129523035
49	0xba95ce74	-0.0011429326
50	0x3da975f2	0.082744494
51	0x3db640f1	0.08899105
52	0x3d295df6	0.041349374
53	0xbc89f570	-0.016840667
54	0xbde92b7c	-0.11385247
55	0x3d25eef7	0.040511098
56	0x3d1677bd	0.036735285
57	0xbd7a19a9	-0.061059628
58	0x3cdeed39	0.027212726
59	0x3dc2087a	0.09474273
60	0xbdbb98fb	-0.09160038
61	0x3decd697	0.11564367
62	0x3cb83754	0.02248732
63	0xbd8fc804	-0.07020572
64	0x3d66c72b	0.056342285
65	0x3e06a11b	0.13147394
66	0xbd1ad745	-0.037802953
67	0xbc876697	-0.01652841
68	0x3cda38f2	0.026638482
69	0x3de40929	0.1113456
70	0xbdf38d0d	-0.11892138
71	0xbcd5b4f1	-0.026087256
72	0xbdc05051	-0.09390319
73	0xbdec84be	-0.11548756
74	0x3d48c815	0.049018938
75	0x3de9ce02	0.11416246
76	0x3e181010	0.14849877
77	0xbd87bb11	-0.06627477
78	0xbd1bc8f8	-0.038033456
79	0xbdbeee0a	-0.09322746
80	0xbd757788	-0.059928447
81	0xbd95e1e2	-0.07318474
82	0xbdd83e8b	-0.10558804
83	0x3d14e8e9	0.036354933
84	0x3d157b55	0.03649457
85	0xbad8af59	-0.001653175
86	0xbd5f318f	-0.054490622
87	0xbdaf5fd4	-0.085632
88	0x3d61cde7	0.055128004
89	0xbd30cb4e	-0.043162636
90	0xbd08d415	-0.033405382
91	0x3dcb6192	0.099307194
92	0x3bc0ac3b	0.0058799065
93	0x3dfa2ecd	0.12215958
94	0xbd821f32	-0.06353606
95	0x3e0d04e8	0.13771403
96	0x3d7a1f51	0.061065022
97	0x3cabb40b	0.020959875
98	0xbd814890	-0.06312668
99	0x3b5fcb57	0.00341483
100	0x3d647ef9	0.055785153
101	0xbdbaed23	-0.091272615
102	0x3e0d2e38	0.13787162
103	0x3c8a64c4	0.016893752
104	0xbc89cead	-0.016822184
105	0xbde0cf9b	-0.109770976
106	0xbe088bd0	-0.13334584
107	0xbe07be7d	-0.1325626
108	0x3db36318	0.08759135
109	0x3ceebbae	0.029142227
110	0xbce0cd59	-0.027441667
111	0xbd074ee4	-0.03303422
112	0xbc02d5ec	-0.007985573
113	0xbcb03115	-0.02150778
114	0x3d083f51	0.03326351
115	0xbd4f5083	-0.05061389
116	0xbdf0d88d	-0.11760054
117	0xbdfe2eea	-0.12411292
118	0xbdd26407	-0.10272985
119	0x3e0231a9	0.12714256
120	0x3dadc1e1	0.08484245
121	0xbc9feef7	-0.019523127
122	0xbddc622e	-0.10760914
123	0x3dd68410	0.10474408
124	0x3c8d5b39	0.017255412
125	0xbd9e820b	-0.077396475
126	0xbd48171e	-0.04885017
127	0x3c0fc12b	0.008774082
128	0xbd8db778	-0.069197595
129	0x3e070ed7	0.13189255
130	0x3d3675d7	0.044545975
131	0x3e0ac3d9	0.13551272
132	0xbc225b36	-0.009909442
133	0x3d5baf1f	0.053633805
134	0x3db161f8	0.08661264
135	0xbe10f7ff	-0.14157103
136	0x3e0fb8c2	0.14035323
137	0x3e08ca24	0.1335836
138	0xbe0b71ca	-0.13617626
139	0x3ca5e647	0.020251406
140	0x3dc9af33	0.0984787
141	0xbdf1afec	-0.118011326
142	0x3d79a586	0.06094887
143	0x3dc5305f	0.09628367
144	0x3ce312a4	0.02771885
145	0x3cd9655f	0.026537595
146	0x3d755d08	0.059903175
147	0x3d8f5852	0.06999268
148	0x3d36b48e	0.044605784
149	0xbd5c1ecf	-0.05374032
150	0xbd69ad38	-0.05704996
151	0xbddc8b0a	-0.10768707
152	0xbd1c83ff	-0.03821182
153	0x3de1ccaa	0.11025365
154	0xbcc8fcdd	-0.024534637
155	0x3dd6c4f5	0.10486785
156	0x3ddd8a59	0.10817403
157	0xbddbdbe2	-0.10735299
158	0x3ca743c7	0.020418061
159	0x3e0294e0	0.12752104
160	0x3cd27878	0.02569221
161	0x3da694b7	0.08133834
162	0xbddf9879	-0.10917754
163	0x3d5252e8	0.051348597
164	0xbd3e1d06	-0.046414398
165	0x3e13b8e9	0.14426006
166	0xbd6ad030	-0.05732745
167	0xbd4ba45f	-0.049717303
168	0xbe054144	-0.13013178
169	0x3d50374d	0.05083399
170	0xbd35a5c6	-0.044347547
171	0x3d17cbdf	0.03705966
172	0xbccbf4d9	-0.024897026
173	0x3dcb9660	0.09940791
174	0x3dc88132	0.09790267
175	0xbd618551	-0.05505878
176	0x3d9b0c00	0.07570648
177	0xbbd94613	-0.006630668
178	0xbca20a84	-0.019780405
179	0xbd437554	-0.047719315
180	0xbe045960	-0.12924719
181	0x3da82a84	0.08211234
182	0x3dd93de8	0.10607511
183	0x3dceb195	0.10092465
184	0xbded5a81	-0.11589528
185	0x3cb7b1f6	0.022423726
186	0xbcb1b9b8	-0.021695003
187	0xbdc98146	-0.0983911
188	0x3b924d06	0.0044647483
189	0xbe036c19	-0.12834205
190	0xbd854278	-0.065068185
191	0xbe08ac56	-0.13346991
192	0x3c480279	0.012207621
193	0xbdbb8027	-0.091553025
194	0xbe056da4	-0.13030106
195	0xbd93d9e0	-0.07219291
196	0x3dee3328	0.11630851
197	0x3d3a6a93	0.045511793
198	0xbc11a19b	-0.008888627
199	0x3d3819c9	0.044946466
200	0xbde3cd5d	-0.11123154
201	0xbde6c55d	-0.11268113
202	0xbd9581fa	-0.07300182
203	0xbd7665c2	-0.060155638
204	0x3ccd6d26	0.02507646
205	0x3d377a02	0.04479409
206	0x3d620362	0.055179007
207	0x3d79327c	0.06083916
208	0xbe0c67fa	-0.13711539
209	0x3dab28cd	0.083573915
210	0xbda9206f	-0.08258139
211	0x3d438e71	0.047743265
212	0xbdb83d9e	-0.089961275
213	0x3c2bf7b4	0.010496069
214	0xbddff6c9	-0.109357424
215	0xbdfacb6e	-0.122458324
216	0xbd6b8001	-0.05749512
217	0xbdedf623	-0.116192125
218	0x3dc52ae2	0.0962732
219	0x3dd4d253	0.10391679
220	0xbdd0e792	-0.102004185
221	0x3e05b946	0.13058957
222	0xbdf97355	-0.12180201
223	0xbac3efe3	-0.0014948811
224	0xbbcdbdde	-0.0062787374
225	0x3d12fc45	0.035885114
226	0xbd9906e7	-0.0747202
227	0x3e0b7997	0.13620602
228	0x3dc503d4	0.09619871
229	0xbe0cb1fb	-0.13739769
230	0xbda715f3	-0.08158483
231	0x3d5b6a7d	0.053568352
232	0x3e0379ea	0.12839475
233	0xbc84e903	-0.01622439
234	0xbd723eec	-0.05914204
235	0x3c014d00	0.007891893
236	0xbc7bfe14	-0.015380401
237	0x3d06597e	0.03280019
238	0x3c184b7e	0.0092953425
239	0xbc96c5dc	-0.018404894
240	0x3dd88eb5	0.10574094
241	0x3dbfe6a6	0.093701646
242	0xbe0a60e0	-0.13513517
243	0xbdf805bd	-0.121104695
244	0x3d77b6be	0.06047701
245	0x3d48ad9e	0.0489937
246	0x3d902342	0.07037975
247	0xbdf85480	-0.12125492
248	0x3d803a8e	0.062611684
249	0x3cc400f7	0.023926241
250	0x3c1ba1c2	0.009499015
251	0x3d055409	0.032550845
252	0x3d963222	0.07333781
253	0x3d7cbfa2	0.061706193
254	0x3df4cb08	0.11952788
255	0x3cd92e4e	0.026511338

base.0.bias f4 [64]
0	0x3d0bdafd	0.03414439
1	0x3dc9f8cd	0.09861908
2	0x3d998647	0.074963145
3	0xbdfcc3f1	-0.1234206
4	0xbc6f833f	-0.014618694
5	0x3df2e630	0.11860311
6	0xbe0e18f4	-0.13876706
7	0x3e03639d	0.12830968
8	0xbd87150e	-0.06595813
9	0x3e0820bf	0.13293742
10	0x3be0a772	0.0068558985
11	0x3c8e96bf	0.017405866
12	0x3d5366eb	0.051611822
13	0x3dbac9f8	0.09120554
14	0xbc2cbf70	-0.010543689
15	0xbdb085f2	-0.08619298
16	0x3d4e5a72	0.050379224
17	0x3da66501	0.08124734
18	0xbd4dade8	-0.050214678
19	0xbe0c346c	-0.13691872
20	0xbd80dcc0	-0.06292105
21	0xbd25e294	-0.040499285
22	0x3b979176	0.0046254946
23	0xbcf94229	-0.030427055
24	0x3e0d0c90	0.13774323
25	0xbcba6fbc	-0.022758357
26	0x3d18a8f0	0.037270486
27	0x3cec3047	0.028831614
28	0xbdccb727	-0.09995871
29	0x3dce1ce5	0.10064105
30	0x3e0468f3	0.1293066
31	0x3c4cbec7	0.012496657
32	0xba8528b1	-0.0010159222
33	0x3d8d1e9f	0.06890606
34	0xbdf16748	-0.117872775
35	0xbca6c3e9	-0.02035709
36	0xbcf4de8f	-0.02989128
37	0xbd243235	-0.040086944
38	0x3da29f08	0.07940489
39	0x3d75307e	0.0598607
40	0x3daffe3d	0.08593414
41	0xbc41a5fc	-0.011819359
42	0xbdc4e21b	-0.09613439
43	0x3d3c645d	0.04599415
44	0x3dd71606	0.105022475
45	0x3d8f859d	0.070079066
46	0xbe0c7eba	-0.13720217
47	0xbca36a78	-0.01994823
48	0xbd037b55	-0.03210004
49	0x3ddc6085	0.10760597
50	0xbd9f1f67	-0.077696614
51	0xbdc6a818	-0.0970003
52	0x3dbabc52	0.091179505
53	0x3df0e89a	0.11763115
54	0x3da04d77	0.07827275
55	0x3de72f89	0.112883635
56	0xbd2f9680	-0.042868137
57	0x3d38dc73	0.04513211
58	0xbd1c9a4e	-0.038233094
59	0xbd153115	-0.03642376
60	0x3c9d18ec	0.019176923
61	0xbd4f136d	-0.050555635
62	0x3da4b7ba	0.080428556
63	0x3ba12fb4	0.0049190167

base.1.weight f4 [64]
0	0x3f81fdd8	1.0155592
1	0x3f7f072e	0.9962033
2	0x3f80d919	1.0066253
3	0x3f802f70	1.0014477
4	0x3f7eddc4	0.9955714
5	0x3f7fe903	0.9996492
6	0x3f808b51	1.0042516
7	0x3f7f4919	0.99720913
8	0x3f7ff648	0.9998517
9	0x3f7f63a1	0.99761397
10	0x3f801875	1.0007464
11	0x3f838837	1.0275944
12	0x3f803fe4	1.0019498
13	0x3f806f3f	1.003395
14	0x3f7f4094	0.99707913
15	0x3f7f879d	0.99816304
16	0x3f80e8e4	1.0071073
17	0x3f7f73bd	0.9978598
18	0x3f7ebec4	0.99509835
19	0x3f8049a4	1.0022473
20	0x3f7f73b5	0.9978593
21	0x3f7e7032	0.99389946
22	0x3f7f56e0	0.99741936
23	0x3f7f7282	0.997841
24	0x3f7f2d66	0.9967865
25	0x3f7fba49	0.99893624
26	0x3f7ffe0a	0.9999701
27	0x3f7ec352	0.99516785
28	0x3f7ec571	0.9952002
29	0x3f7ed37d	0.99541456
30	0x3f7fd599	0.999353
31	0x3f815e9c	1.0106997
32	0x3f7f89ca	0.99819624
33	0x3f7fdef4	0.99949574
34	0x3f7f6bc4	0.9977381
35	0x3f7e8adc	0.9943063
36	0x3f825113	1.0180992
37	0x3f802312	1.0010703
38	0x3f7e4e62	0.9933835
39	0x3f7f5575	0.9973977
40	0x3f7e4919	0.9933029
41	0x3f7f93b5	0.9983476
42	0x3f7fb9b3	0.9989273
43	0x3f8040e9	1.0019809
44	0x3f8074a7	1.00356
45	0x3f7fa541	0.9986153
46	0x3f7f3817	0.9969496
47	0x3f81b8db	1.0134538
48	0x3f7ea319	0.9946762
49	0x3f7f3474	0.9968941
50	0x3f81698b	1.0110334
51	0x3f82566b	1.0182623
52	0x3f7ffe41	0.99997336
53	0x3f7f0ee1	0.9963208
54	0x3f818e9e	1.0121648
55	0x3f807507	1.0035714
56	0x3f7fe4be	0.9995841
57	0x3f8172a6	1.0113113
58	0x3f7eb676	0.99497163
59	0x3f8011c9	1.0005428
60	0x3f7f8df5	0.99825984
61	0x3f804e73	1.0023941
62	0x3f8140b3	1.009787
63	0x3f8069b2	1.0032256

base.1.bias f4 [64]
0	0x3c14188f	0.009039058
1	0xbb14d58c	-0.0022710292
2	0xba2f4885	-0.00066865265
3	0x39f60760	0.0004692627
4	0xbabff021	-0.0014643708
5	0x3b11b280	0.0022231638
6	0x3bc46e0f	0.0059945653
7	0xbadce505	-0.0016852921
8	0x3ba0601f	0.004894271
9	0xba99160e	-0.0011679546
10	0xba515eb1	-0.00079868274
11	0x3c62d872	0.01384555
12	0x3a762342	0.0009389409
13	0x393d2587	0.00018038425
14	0xba346bb3	-0.00068825035
15	0xba3386c2	-0.00068483886
16	0x3b2a8268	0.002601767
17	0xbab4bc38	-0.0013789004
18	0xbba873eb	-0.0051407716
19	0x3c09764c	0.008390021
20	0x3b54a3c0	0.0032446235
21	0xbb799944	-0.0038085738
22	0xbb24b777	-0.0025133768
23	0xbb469212	-0.0030299467
24	0x399f178d	0.0003034439
25	0x383ea017	4.5448625e-05
26	0x3754ec3d	1.2691188e-05
27	0x3a17e2a6	0.0005793966
28	0x3b1f540b	0.0024311568
29	0xba753958	-0.0009354553
30	0x3b10ebfe	0.0022113319
31	0x3b14a37e	0.0022680457
32	0x3a25b74c	0.0006321564
33	0xbaa9cc47	-0.0012954556
34	0xbb812aaf	-0.003941856
35	0xbaa5fcce	-0.0012663843
36	0x3b9d1224	0.0047934223
37	0x3a5a9bd1	0.00083392585
38	0x399cdd0a	0.00029919326
39	0xbb6717e5	-0.0035262045
40	0xbb99aa1c	-0.004689468
41	0xbabf5ee3	-0.0014600422
42	0x3c139cbb	0.009009535
43	0x3af80cd2	0.0018924719
44	0x3ad61a55	0.0016334752
45	0xbac4e2a1	-0.0015021154
46	0x3abecd62	0.0014557058
47	0x3c595e45	0.0132671045
48	0xbb128dbb	-0.002236231
49	0x3bbbd6cb	0.0057323924
50	0x3bc02069	0.0058632386
51	0x3bb18405	0.0054173493
52	0xba6bccd1	-0.00089950586
53	0x3b1e95de	0.0024198215
54	0x3bd0abc9	0.0063681346
55	0xba035de5	-0.0005011245
56	0x39ce325a	0.00039328897
57	0x3878ae90	5.929038e-05
58	0xbaee3670	-0.0018174183
59	0xba50bc3d	-0.000796262
60	0xbb2f0d20	-0.0026710704
61	0x398cb877	0.00026840318
62	0x3bc3ac41	0.005971462
63	0x3a300d05	0.0006715807

base.1.running_mean f4 [64]
0	0x3e16f12d	0.14740439
1	0x3ea129ef	0.31477305
2	0x3e822e1f	0.25425813
3	0xbebc95cd	-0.3683304
4	0xbeedc274	-0.46437418
5	0x3e7443f4	0.23854047
6	0xbf165a9d	-0.58732015
7	0x3ec13fe7	0.37744066
8	0x3c855839	0.01627742
9	0xbf7e97c0	-0.994503
10	0xbe8439ca	-0.2582534
11	0xbc6b141f	-0.014348059
12	0x3f10cfdf	0.56567186
13	0xbe9619ac	-0.2931646
14	0xbe656a84	-0.22403914
15	0xbeb23117	-0.34803078
16	0x3e860081	0.2617226
17	0xbf5ed71a	-0.8704697
18	0xbf06f7f4	-0.52722096
19	0x3e579a19	0.21054877
20	0xbe876a92	-0.26448494
21	0xbf455c9e	-0.7709445
22	0x3ef456ee	0.47722572
23	0x3f619b4e	0.881276
24	0xbf3a8516	-0.72859323
25	0xbec9cc6d	-0.39413777
26	0xbe716710	-0.23574471
27	0x3e11cef4	0.14239103
28	0xbd45df7c	-0.048308834
29	0x3e669ca3	0.2252069
30	0x3e36143d	0.17781158
31	0x3d7cbc99	0.0617033
32	0x3f4d75a2	0.8025762
33	0xbd8d73df	-0.06906866
34	0xbd973662	-0.073834196
35	0x3eb5d0f4	0.3551098
36	0x3e8aa052	0.2707544
37	0x3e0b1429	0.13581909
38	0xbe24e088	-0.16101277
39	0xbf76ce91	-0.96408945
40	0xbf5796a2	-0.8421422
41	0xbf1e7071	-0.6189032
42	0x3873a95e	5.809345e-05
43	0x3f1aacb1	0.60419756
44	0x3fb8b183	1.4429172
45	0x3f9b42d2	1.2129767
46	0xbeafeed6	-0.34361905
47	0xbb11b918	-0.0022235569
48	0xbf58e347	-0.847218
49	0x3ac22842	0.0014813023
50	0x3e2a3e34	0.16625291
51	0xbdbcce89	-0.09219081
52	0xbf0f5b77	-0.5599894
53	0xbe485605	-0.19564064
54	0x3d9aa785	0.07551483
55	0x3e120e50	0.14263272
56	0xbe753162	-0.2394462
57	0xbe76856b	-0.24074332
58	0xbeedd1d7	-0.46449158
59	0x3f9d96ec	1.2311683
60	0xbf9860e1	-1.1904565
61	0x3ee04fee	0.43810982
62	0x3e0ba8a4	0.1363855
63	0x3e9fe401	0.3122864

base.1.running_var f4 [64]
0	0x3a9a4c5f	0.0011772028
1	0x3aa32e1f	0.0012449658
2	0x3ac9be0a	0.0015391719
3	0x3ace3a54	0.0015733936
4	0x3b0d7e18	0.002159005
5	0x3a27766c	0.00063881907
6	0x3b021322	0.001984783
7	0x3ae97ab7	0.0017813061
8	0x3a7fea3d	0.0009762382
9	0x3c47d1e4	0.012196038
10	0x3aebf6f5	0.0018002676
11	0x3a6b5a91	0.0008978034
12	0x3baacf56	0.0052127047
13	0x3b3bc106	0.0028648986
14	0x3b329a07	0.0027252452
15	0x3b3f90e9	0.002923066
16	0x3aa84979	0.0012839279
17	0x3c270f30	0.010196492
18	0x3b663835	0.0035128717
19	0x3b036f55	0.0020055373
20	0x3ab8d986	0.0014102913
21	0x3bafbb89	0.005362932
22	0x3b6f7226	0.0036536544
23	0x3c34afde	0.011028258
24	0x3c04f6d5	0.00811549
25	0x3b0b2683	0.0021232672
26	0x3a8dcdf5	0.0010818826
27	0x3a7ebf3c	0.0009717827
28	0x3b01ff0d	0.001983586
29	0x3a8f0774	0.0010912255
30	0x3a3d37fd	0.0007218121
31	0x3a9f8aab	0.0012172064
32	0x3bf93079	0.0076046553
33	0x3b478b3f	0.0030447987
34	0x3a83236c	0.0010005063
35	0x3b39061a	0.0028232397
36	0x3acecc62	0.0015777464
37	0x3b1d1b16	0.0023972443
38	0x3b2b6a77	0.0026155987
39	0x3c416305	0.011803393
40	0x3c2e94d7	0.010655603
41	0x3b854eb3	0.0040682196
42	0x3a3a9e76	0.00071189494
43	0x3bbc7393	0.005751082
44	0x3cc27303	0.023736482
45	0x3c53a211	0.012917058
46	0x3acd223a	0.0015650459
47	0x3a26b426	0.00063592417
48	0x3c232f3f	0.009959995
49	0x3aa7a0b1	0.0012788979
50	0x3ae584db	0.0017510907
51	0x39b7c563	0.00035051545
52	0x3bf6a088	0.007526461
53	0x3b8bdac5	0.0042680227
54	0x3a405a94	0.0007337716
55	0x3a39994e	0.0007080034
56	0x3b26007d	0.002532988
57	0x3aa36c9c	0.0012468281
58	0x3b46c603	0.0030330427
59	0x3c8eb0c5	0.017418275
60	0x3c86b96b	0.016445836
61	0x3b8dab47	0.0043233964
62	0x3ab7c5b9	0.0014020718
63	0x3b02585f	0.00198891

base.3.weight f4 [64, 64, 5, 5]
0	0xbbaca859	-0.005269092
1	0x3b6e91b5	0.0036402766
2	0xbc0a9787	-0.0084589785
3	0x39abf0ac	0.00032794976
4	0x3b320589	0.0027163944
5	0xbba570e4	-0.005048858
6	0xba88bb9f	-0.0010431892
7	0xbc91bfee	-0.017791715
8	0xbc2e0e9b	-0.010623599
9	0x3c9139dc	0.017727785
10	0xbb884ac3	-0.004159303
11	0x3c4ab39a	0.012371922
12	0x3cf6df8c	0.030135892
13	0x3c9545ef	0.018221823
14	0x3cc04fcb	0.023475548
15	0xbc370a87	-0.0111719435
16	0xbbaf911a	-0.0053578736
17	0xbc8c53fe	-0.017129894
18	0x3a16370c	0.00057302485
19	0x3cc651d3	0.024208939
20	0x3cb1cbc7	0.021703614
21	0x3bb782c1	0.005600304
22	0x3b6d26c5	0.0036186439
23	0x3c986583	0.018603092
24	0xbcc179f0	-0.023617715
25	0xbc744dd0	-0.01491113
26	0x3ba6f37a	0.0050949426
27	0xbc54125f	-0.012943833
28	0xbba7bd09	-0.0051189703
29	0xbc96ba1d	-0.018399293
30	0x3c111186	0.008854276
31	0x3b0008b2	0.0019536433
32	0x3bcf96cf	0.0063351165
33	0x3c90ea37	0.017689807
34	0x3c985f1b	0.018600037
35	0x3b988841	0.0046549146
36	0x3bc0efc4	0.0058879573
37	0x3cb3f703	0.02196837
38	0xbbb2b62f	-0.005453847
39	0xbcd51383	-0.02601028
40	0x3a03f647	0.00050339516
41	0xbcbf63f7	-0.023363097
42	0xbb515f28	-0.0031947587
43	0xbaf600b3	-0.0018768519
44	0xbcacf7a4	-0.021114178
45	0x3d0556a7	0.03255334
46	0x3c40f43f	0.011776983
47	0xbc034b79	-0.0080136
48	0x3c8db675	0.017298916
49	0x3a986593	0.0011626951
50	0xbc984b55	-0.018590609
51	0xbc963368	-0.01833506
52	0x3cab204c	0.020889424
53	0xbc9487a5	-0.018131087
54	0x3b986dbb	0.0046517528
55	0x39aa3ade	0.00032468786
56	0xbcc4f936	-0.024044614
57	0x3cbf3f32	0.023345564
58	0x3c894000	0.01675415
59	0xbbadb97e	-0.0053016534
60	0x3c1fadb1	0.009746001
61	0x3bb4308c	0.0054989513
62	0xbc1b41e8	-0.0094761625
63	0xbcc3bf97	-0.023895068
64	0xbc17b161	-0.009258599
65	0xbc0833ff	-0.008313178
66	0xbb5c05b5	-0.0033572738
67	0xbb991e8a	-0.00467283
68	0x3c714e20	0.014728099
69	0x3c338fe3	0.010959598
70	0xbc753c9d	-0.014968065
71	0xbbf3a2de	-0.0074351868
72	0xbc8099c3	-0.01569832
73	0xbcace9b8	-0.02110754
74	0xbc118084	-0.008880738
75	0xbbea1108	-0.0071431436
76	0xbc89bee5	-0.016814658
77	0xbbfed331	-0.007776641
78	0x3ca25c09	0.019819276
79	0xbcaf0a72	-0.021367285
80	0x3c4cdf64	0.012504432
81	0xbbfe02b0	-0.007751785
82	0x3bf15f07	0.0073660645
83	0x3b86e5f5	0.0041167685
84	0x3be6de89	0.007045571
85	0xbc761873	-0.015020478
86	0x3cb75b90	0.022382528
87	0xbcc885da	-0.024477888
88	0xbaae7443	-0.0013309795
89	0x3b817f55	0.0039519467
90	0xbc3e961a	-0.011632467
91	0xbbb4f19d	-0.0055219666
92	0x3c321c28	0.010870971
93	0x3c0a0ce3	0.008425924
94	0x3c471729	0.012151518
95	0xbc5973b4	-0.013272215
96	0x3cc48c4d	0.023992682
97	0x3c916f73	0.017753338
98	0x3cca90a0	0.024727166
99	0xbc3714ef	-0.011174425
100	0x3ca9a0c6	0.020706546
101	0xbca7fa98	-0.020505235
102	0x3c967ce2	0.018370096
103	0x3bedb6c5	0.007254454
104	0x3c8d4927	0.017246796
105	0xbbede024	-0.0072593857
106	0x3b9daa24	0.004811542
107	0xbb86604d	-0.0041008354
108	0x3bbb0b5d	0.0057081417
109	0xba81c903	-0.0009901825
110	0xbca6425b	-0.020295313
111	0xbc464fc4	-0.012103979
112	0x3c47555b	0.012166346
113	0x3cbf9fb1	0.023391576
114	0x3bae43a3	0.0053181215
115	0x3c7f77e4	0.015592549
116	0x3c07f49f	0.008298068
117	0x3c6cc2f2	0.014450775
118	0xbc89ac03	-0.016805654
119	0x3c3fae81	0.01169932
120	0xbb282658	-0.002565762
121	0x3af98248	0.0019036019
122	0x3ccc131f	0.024911461
123	0xbcb4724e	-0.022027161
124	0x3c342e8f	0.010997429
125	0xbc0520fe	-0.008125542
126	0x3c817b8f	0.015805988
127	0xbcd80afe	-0.026372429
128	0x3c29a6f4	0.010354746
129	0x3c91a8d1	0.017780693
130	0x3bfe0458	0.0077519827
131	0xbba6750a	-0.00507987
132	0xbc9c917c	-0.019112341
133	0x3b8b4151	0.0042497297
134	0xbc6a5c6c	-0.014304262
135	0xbc5e6457	-0.013573728
136	0xbc7a2114	-0.0152666755
137	0x3b78a788	0.0037941653
138	0x3c8adecf	0.016951947
139	0xbc9af11f	-0.018913804
140	0x3c62b659	0.01383742
141	0xbc057049	-0.008144447
142	0xbc4b698d	-0.012415302
143	0x3c12e6da	0.008966172
144	0x3cb28f32	0.021796796
145	0x3c827d1d	0.0159288
146	0xbcb94d03	-0.02261973
147	0xbb52e228	-0.0032178257
148	0x3c534255	0.012894233
149	0xbbd36914	-0.0064517353
150	0x3cbe702a	0.023246843
151	0x3cc332b2	0.023827884
152	0x3a2ff2ef	0.000671192
153	0xbc43f448	-0.011960097
154	0x3c9ad1aa	0.018898804
155	0x3b1ea54d	0.0024207414
156	0x3c211632	0.009831952
157	0x3c4bd778	0.0124415085
158	0x3b32283c	0.0027184626
159	0x3b36671c	0.0027832454
160	0xbc1c3b85	-0.009535675
161	0x3a7c2dec	0.000961988
162	0xbaf13914	-0.0018403851
163	0x3bedbddb	0.0072552986
164	0xbcb179cc	-0.021664523
165	0x3c2e9bd4	0.0106572695
166	0x3b130cac	0.0022437973
167	0x3c89f291	0.016839297
168	0x3cac9aa3	0.02106983
169	0xbabbe106	-0.001433403
170	0x3cbf8cb8	0.02338253
171	0x3be66d8e	0.007032103
172	0xbc68c7b7	-0.014207772
173	0x3c8bd1e8	0.017067865
174	0xbc460533	-0.0120862005
175	0x38bb0eb0	8.9195906e-05
176	0xbc67294d	-0.014108968
177	0x3b9261ab	0.0044672093
178	0xbc5c0f88	-0.013431437
179	0x3c671d57	0.014106116
180	0xbb6b2ac8	-0.0035883654
181	0x3cc4d3d4	0.024026789
182	0xbbf99129	-0.0076161814
183	0xbaa9defd	-0.0012960132
184	0x3c8e49c7	0.017369164
185	0xbb87a412	-0.0041394318
186	0xbb006bdd	-0.0019595542
187	0xbc953d9b	-0.018217852
188	0x3c2bd774	0.01048838
189	0xbb0d3802	-0.0021548276
190	0xbc4de171	-0.012565956
191	0x3bfbfa65	0.0076897615
192	0xbc87c0a7	-0.016571356
193	0xbc66e041	-0.014091552
194	0x3c62288a	0.013803611
195	0xbc60114e	-0.013676001
196	0xbc982fbb	-0.018577447
197	0x3cbf23c0	0.023332477
198	0x3b32317a	0.0027190135
199	0xbc66e169	-0.014091828
200	0x3ca8c982	0.020603899
201	0xbb5ff11e	-0.0034170817
202	0xbcaf4c7c	-0.021398775
203	0x3bff33fb	0.007788179
204	0x3c9aa7ef	0.018878905
205	0x3b133588	0.0022462327
206	0xbc4522cc	-0.012032222
207	0x3c089f06	0.008338695
208	0x3bbe8551	0.0058142324
209	0x3c59c739	0.013292127
210	0xbc872cd4	-0.016500868
211	0xbbedcffb	-0.007257459
212	0xbc40742e	-0.011746449
213	0x3bbf0128	0.0058289953
214	0xbc9f51e2	-0.019448224
215	0x3ca5ee55	0.020255247
216	0xbc830aa3	-0.015996283
217	0x3ba16c47	0.0049262377
218	0x3ac55291	0.0015054514
219	0x3c1f63cb	0.009728382
220	0x3bddec1b	0.0067725307
221	0x3cbd237c	0.02308821
222	0x3c74017a	0.01489293
223	0xbb4064ae	-0.0029356885
224	0x3c35ddfb	0.011100288
225	0xbcd44ec9	-0.025916474
226	0x3ccf864e	0.025332596
227	0x3c3f94f7	0.011693231
228	0xbcbc91c3	-0.023018723
229	0xbc88f702	-0.016719345
230	0xbbccb3d7	-0.0062470245
231	0x3c9ae1a8	0.01890643
232	0x3b65b404	0.0035049925
233	0x3c7e6f3e	0.015529452
234	0x3ca74654	0.020419277
235	0xbcab3697	-0.020900054
236	0xbc85691a	-0.016285468
237	0x3ac72f41	0.0015196578
238	0x3c0e1f6c	0.008674484
239	0x3c8a68d7	0.016895695
240	0xbc3307b1	-0.010927127
241	0x3ccd4bd3	0.02506057
242	0x3c5e37d4	0.013563115
243	0xbb08a212	-0.0020848555
244	0xbca13afb	-0.019681444
245	0xbbc15f1d	-0.005901231
246	0xbc8d867a	-0.017276037
247	0xbcaba819	-0.020954179
248	0x3b18236f	0.002321448
249	0xbccf8381	-0.02533126
250	0xbc8396a6	-0.016063046
251	0xbc927235	-0.017876724
252	0xbc16cb2f	-0.009203716
253	0x3c7ccd1a	0.015429759
254	0x3cbd354d	0.023096705
255	0xbc60fd20	-0.013732225

base.3.bias f4 [64]
0	0x3bb6dca8	0.0055805035
1	0xbc06f02b	-0.008235971
2	0xbc51a1c9	-0.01279492
3	0xbc5a94e4	-0.013341162
4	0xbc070944	-0.008241955
5	0x3b38daa5	0.0028206494
6	0x3c88bdfd	0.016692156
7	0x3c1230d1	0.008922772
8	0xbba956ca	-0.0051678168
9	0xbb3d90d9	-0.0028925447
10	0x3cc0f9cb	0.02355661
11	0x3b2ed010	0.0026674308
12	0x3c335d0c	0.010947477
13	0x3c5d1999	0.0134948725
14	0x39234c13	0.00015573231
15	0x3b42c2eb	0.002971823
16	0x3bdbe999	0.0067111966
17	0x3ad36d73	0.0016130641
18	0x3ca4ba83	0.020108467
19	0xbc40ad17	-0.011760018
20	0xbcb38eb9	-0.021918641
21	0xbad5111b	-0.0016255708
22	0xbc809a18	-0.015698478
23	0xbcb13f90	-0.021636754
24	0x3b2ba6e6	0.0026192009
25	0x3c318f89	0.010837444
26	0x3c3ea8f6	0.011636963
27	0x3b984ef6	0.0046480848
28	0x3b8ebd56	0.0043560667
29	0xbcccf882	-0.025020842
30	0x3bf46fc4	0.0074596126
31	0xbcb4c4b2	-0.022066448
32	0xbcac6b0f	-0.021047143
33	0xbc9ceea5	-0.019156763
34	0x3cba23c0	0.022722125
35	0x3c940ea0	0.01807338
36	0x3cc3a505	0.023882398
37	0xbbd2b5e0	-0.0064303726
38	0x3c7c27ab	0.015390317
39	0x39b01f97	0.00033592872
40	0xbc936968	-0.017994598
41	0x3c85f497	0.016351981
42	0x3c7b641f	0.015343695
43	0xbb4a13d1	-0.0030834565
44	0x3ca034ca	0.019556422
45	0x3c0f862d	0.008760017
46	0x3b1458bf	0.0022635905
47	0x3c50b66c	0.012738805
48	0x3c88edfb	0.01671504
49	0x3b52c793	0.0032162413
50	0x3c72d005	0.0148201035
51	0xbcb90d83	-0.02258945
52	0xbb97c51c	-0.0046316516
53	0x3c61f8f7	0.013792268
54	0xbcac82c5	-0.02105845
55	0xba8db601	-0.0010811688
56	0xbc0c2063	-0.0085526435
57	0x3c08500c	0.008319866
58	0x394e4f9d	0.00019675349
59	0x3bcc257a	0.0062300535
60	0x3c2cfa6a	0.01055775
61	0x3cadccc8	0.021215811
62	0x3ccc5190	0.024941236
63	0xbbba26f5	-0.0056809136

base.4.weight f4 [64]
0	0x3f80b835	1.0056216
1	0x3f811792	1.0085318
2	0x3f7f5637	0.9974093
3	0x3f7f6dc3	0.9977686
4	0x3f80aec2	1.0053332
5	0x3f811ffc	1.0087886
6	0x3f7f812b	0.9980647
7	0x3f80a79e	1.0051153
8	0x3f801a5f	1.0008048
9	0x3f804aa9	1.0022784
10	0x3f7e2ba9	0.9928537
11	0x3f807c63	1.003796
12	0x3f7e599a	0.9935547
13	0x3f806407	1.0030526
14	0x3f80edfb	1.0072626
15	0x3f80ec84	1.0072179
16	0x3f80bd32	1.0057738
17	0x3f7ee11a	0.9956223
18	0x3f804691	1.0021535
19	0x3f7fd9bc	0.9994161
20	0x3f7f2c91	0.9967738
21	0x3f803bd4	1.0018258
22	0x3f7f3b30	0.9969969
23	0x3f7fab5f	0.99870867
24	0x3f7f4ca5	0.99726325
25	0x3f7e8d07	0.9943394
26	0x3f80105c	1.0004992
27	0x3f7f7904	0.9979403
28	0x3f7f9676	0.9983896
29	0x3f803343	1.0015644
30	0x3f80955f	1.0045584
31	0x3f805cd5	1.002833
32	0x3f806da6	1.0033462
33	0x3f80ae8f	1.0053271
34	0x3f80269d	1.0011784
35	0x3f8046dd	1.0021626
36	0x3f7e69b8	0.99380064
37	0x3f7ff74d	0.99986726
38	0x3f7f4ca3	0.99726313
39	0x3f8145d3	1.0099434
40	0x3f7e7be9	0.9940782
41	0x3f7f56c1	0.9974175
42	0x3f8048e9	1.002225
43	0x3f802b22	1.0013163
44	0x3f8006ab	1.0002035
45	0x3f802c1e	1.0013463
46	0x3f7f422a	0.99710333
47	0x3f802ab5	1.0013033
48	0x3f800dc6	1.0004203
49	0x3f7f0504	0.9961703
50	0x3f7fdc25	0.9994529
51	0x3f80e028	1.0068407
52	0x3f8088e6	1.0041778
53	0x3f7e3548	0.9930005
54	0x3f809ffa	1.0048821
55	0x3f803ecb	1.0019163
56	0x3f805ab2	1.0027678
57	0x3f7e8a05	0.9942935
58	0x3f7edd30	0.99556255
59	0x3f7f98d6	0.99842584
60	0x3f7e925f	0.99442095
61	0x3f801865	1.0007445
62	0x3f7f0280	0.9961319
63	0x3f80871b	1.0041231

base.4.bias f4 [64]
0	0x391566e6	0.0001424808
1	0xbab3ca39	-0.0013716883
2	0xbb193ccc	-0.0023382185
3	0xba0b8973	-0.0005322911
4	0x3a79bed6	0.0009527033
5	0x3b97ea8c	0.0046361145
6	0xbac43bb8	-0.0014971411
7	0x38becea3	9.098395e-05
8	0xbb412f28	-0.002947757
9	0xbab74d60	-0.0013984852
10	0xbbb8236a	-0.005619456
11	0x3b595ce1	0.0033166932
12	0xbadbae0e	-0.0016760246
13	0xbb17e468	-0.0023176912
14	0x39624157	0.0002157738
15	0xbbc9ec2b	-0.0061621866
16	0xbbc3e370	-0.0059780404
17	0xbaa8ae35	-0.00128693
18	0xbb12c20d	-0.0022393495
19	0x3964ce66	0.00021820664
20	0xbb6f5dbb	-0.0036524374
21	0x3aa42e71	0.0012526048
22	0x38ab40a9	8.165959e-05
23	0xbace658c	-0.0015746816
24	0xbb8f5b98	-0.0043749325
25	0xbba0c67d	-0.004906474
26	0x3a414ee5	0.0007374122
27	0x3ad0531e	0.0015893911
28	0x3aad393d	0.0013215911
29	0xbae1bc4d	-0.0017222256
30	0xbabbe49f	-0.0014335102
31	0x3ac8fb68	0.0015333714
32	0x3b97490d	0.0046168626
33	0xb94b045f	-0.00019361217
34	0xb9c1e5f4	-0.00036983157
35	0x398719a8	0.00025768322
36	0x39785601	0.00023683162
37	0xbbe54043	-0.006996186
38	0xbb773f6f	-0.0037727018
39	0xbab5389a	-0.0013826073
40	0xbb912980	-0.004429996
41	0xbb3dd816	-0.0028967909
42	0x3b52007e	0.003204375
43	0xbb355bae	-0.0027673054
44	0xbaa45326	-0.0012536987
45	0xbab8e70e	-0.0014106946
46	0xbaef695e	-0.0018265655
47	0xb93edc56	-0.00018201894
48	0x3b2e7297	0.0026618594
49	0xb9e4cfa4	-0.00043642253
50	0x368f46c0	4.2699685e-06
51	0xba683435	-0.0008857877
52	0xbbdc7f90	-0.006729074
53	0x3b079e57	0.0020693743
54	0x3b9654c8	0.0045877434
55	0xbad36cd6	-0.0016130458
56	0xbb25f1fd	-0.0025321238
57	0xbb41b632	-0.002955806
58	0xbb92cc18	-0.0044798963
59	0x39aeff22	0.00033377955
60	0xbbca2c7f	-0.006169855
61	0x3b4bec14	0.0031116055
62	0xba780227	-0.000946077
63	0xb9dabff4	-0.00041723216

base.4.running_mean f4 [64]
0	0x3c3f40a5	0.011673127
1	0x3cbae039	0.022811996
2	0x3e2382c4	0.15967852
3	0x3df30bfd	0.11867521
4	0xbdc138af	-0.0943464
5	0xbdfd0e9a	-0.12356301
6	0x3e2b27b3	0.16714363
7	0x3b6c704f	0.0036077683
8	0xbd8cdc37	-0.0687794
9	0xbd8244bf	-0.063607685
10	0x3e6005cd	0.21877213
11	0x3dc179c0	0.0944705
12	0x3d23a384	0.039950863
13	0xbd3543cf	-0.04425412
14	0x3c5f04c5	0.013611977
15	0x3c37d5f3	0.011220443
16	0x3d9db268	0.07700044
17	0xbd02b557	-0.03191122
18	0x3dcb7992	0.09935297
19	0xbdebd308	-0.115148604
20	0xbe2c5d96	-0.16832575
21	0xbe005096	-0.12530741
22	0x3e54978a	0.20760933
23	0x3e47f7d7	0.19528137
24	0x3d1d7e2d	0.03845041
25	0x3d894821	0.067032106
26	0x3d295bc6	0.041347288
27	0x3da0917a	0.078402475
28	0xbda6b617	-0.081402
29	0xbd570d1a	-0.05250273
30	0xbdb78a52	-0.089619294
31	0x3d009141	0.031388525
32	0xbe7c2b66	-0.2462593
33	0x3d325e5c	0.04354702
34	0x3da3aaa4	0.079915315
35	0xbe24a805	-0.1607972
36	0x3ebb958f	0.36637542
37	0x3e11f460	0.14253378
38	0x3d1eae69	0.03874055
39	0x3dfa107c	0.122101754
40	0x3de1ee82	0.1103182
41	0xbe36178f	-0.17782424
42	0xbd8875e3	-0.0666311
43	0xbe07d08b	-0.13263147
44	0xbd5cad95	-0.05387648
45	0xbe18dfc5	-0.14929111
46	0xbe0ad194	-0.1355651
47	0xbd3a5e3d	-0.04550003
48	0xbd41c9e1	-0.047311667
49	0xbd4900d6	-0.049073063
50	0xbc8f783e	-0.01751339
51	0xbd3418ae	-0.04396885
52	0x3d8f5749	0.0699907
53	0x3dccce5f	0.100003
54	0xbd3b6927	-0.045754578
55	0xbdb06712	-0.08613409
56	0x3c6d9600	0.014501095
57	0x3e006660	0.12539053
58	0xbd7a6ed3	-0.061140846
59	0x3c3ccbab	0.011523168
60	0x3da8534b	0.08219012
61	0xbde38e0d	-0.111110784
62	0xbd7e6c31	-0.062114898
63	0xbe4f4b2c	-0.2024352

base.4.running_var f4 [64]
0	0x3d5ba03b	0.053619605
1	0x3d0bdcbe	0.034146063
2	0x3e4dbc44	0.20091349
3	0x3ebad53d	0.36490813
4	0x3d8365b3	0.06415882
5	0x3d307dca	0.04308871
6	0x3d890606	0.06690602
7	0x3d6c7bb8	0.057735175
8	0x3d503545	0.05083205
9	0x3dedb939	0.11607594
10	0x3eb3c2c3	0.3510953
11	0x3d8f459f	0.06995701
12	0x3dd8b694	0.10581699
13	0x3de83c72	0.11339654
14	0x3cd16864	0.025562473
15	0x3d6007aa	0.05469481
16	0x3d3a7c9f	0.045529004
17	0x3e0fd70c	0.14046878
18	0x3d623fed	0.055236746
19	0x3d6c600a	0.057708777
20	0x3e43799b	0.19089358
21	0x3e2ec360	0.17066717
22	0x3ead18d6	0.3380801
23	0x3ec49aab	0.38399252
24	0x3dbbb587	0.09165483
25	0x3ebfba02	0.374466
26	0x3e8fa4c8	0.28055406
27	0x3ddf5ae0	0.10906005
28	0x3de95eb5	0.11395017
29	0x3d6bc31b	0.057559114
30	0x3d263338	0.04057619
31	0x3d276bce	0.040874295
32	0x3eb72c7c	0.35776126
33	0x3d8983e6	0.06714611
34	0x3e0d7848	0.13815415
35	0x3e692519	0.22768058
36	0x3ecf787a	0.40521604
37	0x3d9016d1	0.07035602
38	0x3dba8e38	0.09109157
39	0x3cc09d15	0.023512403
40	0x3e0d420d	0.13794728
41	0x3e3be6db	0.18349783
42	0x3db50679	0.08839125
43	0x3df94397	0.12171095
44	0x3d87bf9c	0.066283435
45	0x3e2b1d0d	0.167103
46	0x3e566b9a	0.20939484
47	0x3db32080	0.08746433
48	0x3d8be029	0.068298645
49	0x3defcc1a	0.11708851
50	0x3dbaeff3	0.09127798
51	0x3d5efe48	0.05444172
52	0x3d013244	0.031542078
53	0x3dff5977	0.12468236
54	0x3dad7ba4	0.08470848
55	0x3e1aee02	0.15129855
56	0x3d7a2918	0.061074346
57	0x3e9094e6	0.282386
58	0x3dbd3149	0.09237916
59	0x3e351a10	0.17685723
60	0x3ecd0ea6	0.40050238
61	0x3e07dfed	0.13269015
62	0x3dbc35a2	0.09189917
63	0x3df42726	0.119215295

base.6.weight f4 [32, 64, 5, 5]
0	0xba13f481	-0.0005644039
1	0x3c0aa72c	0.008462708
2	0xbcaab575	-0.020838479
3	0x3c4febbd	0.012690482
4	0x3cb849e6	0.022496175
5	0xbc00e4d4	-0.007867057
6	0x3af3ee50	0.0018610451
7	0x3c64a38f	0.013955011
8	0xbc3bc70d	-0.011461032
9	0x3ca877d3	0.02056495
10	0x3cd004d5	0.02539293
11	0xbc9c2beb	-0.01906391
12	0x3c0d4198	0.008621596
13	0x3c3338db	0.010938848
14	0x3c9ca661	0.019122304
15	0xbc838a82	-0.016057257
16	0x3cc1945a	0.02363031
17	0xbc91f0a4	-0.017814942
18	0x3c72abe1	0.014811487
19	0xbcd7c3d0	-0.026338488
20	0x3cb1469d	0.021640116
21	0xbc6fa790	-0.014627352
22	0x3cb32942	0.02187026
23	0x3cda2811	0.026630433
24	0x3caf590f	0.021404771
25	0x3c3303ce	0.0109262
26	0x3c9f4294	0.019440927
27	0x3b9a9068	0.0047169216
28	0x3c6f1ade	0.014593808
29	0xbcb189d5	-0.021672169
30	0x3c557b08	0.013029821
31	0xbc36a8ef	-0.011148675
32	0x3b567893	0.0032725676
33	0x3ccde2f6	0.025132637
34	0x3c200152	0.00976594
35	0xbc91fe01	-0.017821314
36	0x3c17070a	0.009217987
37	0xbb02403a	-0.0019874708
38	0xbc5f1127	-0.013614929
39	0xbc372324	-0.011177812
40	0x3c9b7852	0.018978272
41	0x3b0747b6	0.0020642108
42	0xbc271647	-0.010198182
43	0x3c4555de	0.012044398
44	0x3aa21a30	0.0012367424
45	0x3c840a58	0.016118214
46	0xbce74b06	-0.028234016
47	0x3c873d97	0.01650886
48	0xbbd55f40	-0.006511599
49	0x3bfda1b6	0.0077402247
50	0xbcd99f7b	-0.026565304
51	0x3c2693bf	0.010167061
52	0x3c54a9b0	0.01297991
53	0xbc93691f	-0.017994462
54	0xbca0ebe3	-0.01964373
55	0x3a81f5de	0.0009915193
56	0xbcbb8fa0	-0.022895634
57	0x3c85aa5d	0.016316587
58	0xbbc401bd	-0.0059816525
59	0xbcb50d13	-0.02210096
60	0x3b416f0a	0.0029515647
61	0xbcd99e87	-0.02656485
62	0x3b93864c	0.0045020934
63	0xbc39c97c	-0.0113395415
64	0xbcd4bcfe	-0.025969025
65	0xbbb96fbe	-0.0056590727
66	0x3bc9444d	0.0061421753
67	0x3c910be8	0.017705873
68	0xbbecb8f8	-0.0072241984
69	0xba4eaed6	-0.0007884329
70	0xbb9fdfc3	-0.0048789694
71	0x3c2fb15c	0.010723438
72	0xbba832e7	-0.005133021
73	0x3c22a4f3	0.009927022
74	0x3bec421f	0.0072100307
75	0xbcb61c64	-0.022230335
76	0x3c97c558	0.018526718
77	0xbb59fa91	-0.0033260921
78	0xbbb9fd7a	-0.0056759687
79	0x3cbb3e88	0.022856966
80	0x3c5f433b	0.013626869
81	0xbca62dd5	-0.020285526
82	0x3aaccaea	0.0013183032
83	0x3c74a81c	0.0149326585
84	0xbccaf88c	-0.02477672
85	0xbca951d7	-0.020668907
86	0xbc110167	-0.008850432
87	0xbbd0137a	-0.006349978
88	0xbcc1f7bc	-0.0236777
89	0xbbd7d47f	-0.006586611
90	0x3cbf4f65	0.023353288
91	0xbc981f54	-0.018569626
92	0xbb35f930	-0.0027766936
93	0xbcb3f428	-0.021967009
94	0x3b4dda4a	0.0031410628
95	0x3ca2e9db	0.019886902
96	0xbc61ed7e	-0.013789533
97	0x3c1b133b	0.009465034
98	0x3c27ed02	0.010249378
99	0xbcc3ff04	-0.023925312
100	0xbbd1edba	-0.006406513
101	0x3c82ae9d	0.015952403
102	0xbc00f7ff	-0.007871627
103	0x3a7af519	0.00095732656
104	0x3bdf3424	0.0068116356
105	0x3c8d6aa4	0.017262764
106	0x397003dc	0.00022889621
107	0x3c8187ce	0.015811827
108	0xbbc7bcde	-0.006095513
109	0x3b2dae39	0.002650155
110	0xbcd55a57	-0.026044054
111	0xbb305f7f	-0.002691239
112	0xbc44cc85	-0.012011652
113	0x3c3f5b12	0.011679428
114	0xbc619e2c	-0.013770621
115	0xbcb5e613	-0.022204434
116	0xbbb0812b	-0.005386492
117	0xbccb27e0	-0.024799287
118	0x3c9e617a	0.01933359
119	0x3cb373df	0.021905838
120	0x3ba36bfc	0.004987238
121	0xbc2da2bf	-0.010597884
122	0xbbe7b757	-0.0070714164
123	0x3c651a23	0.013983282
124	0xbc9a5afa	-0.01884221
125	0x3cc19c19	0.023634003
126	0xbb38acac	-0.0028179092
127	0x3c0cd6fb	0.008596177
128	0xbbd93aec	-0.0066293385
129	0x3c984a6e	0.018590178
130	0x3c5ea02f	0.013587995
131	0xbbc79cb6	-0.0060916794
132	0xbc489a92	-0.012243884
133	0x3b57e0f5	0.0032940481
134	0xbbb9f7f4	-0.0056753103
135	0xbaf01c87	-0.0018319049
136	0xbb169ffb	-0.002298354
137	0xba8fa4ed	-0.0010959186
138	0xbcc19a12	-0.023633037
139	0x3c8e1f71	0.017348977
140	0x3c0c2628	0.008554019
141	0x3c646926	0.013941085
142	0xbc91bc96	-0.01779012
143	0xbc1a142f	-0.009404226
144	0x3bbf221c	0.0058329236
145	0xbc7344b7	-0.014847926
146	0xbb9859a2	-0.004649357
147	0x3b7fe3bf	0.003904566
148	0xbb036358	-0.0020048227
149	0xbcb468df	-0.022022663
150	0xbc72ecd2	-0.01482697
151	0x3c144143	0.009048763
152	0xbb68dda9	-0.003553251
153	0x3ca43f34	0.020049669
154	0xbcb1b28e	-0.021691587
155	0xba73f5dc	-0.000930635
156	0xbc8e00f3	-0.017334437
157	0xbcbcf31b	-0.02306514
158	0xbbfb8e84	-0.0076769013
159	0xbcc94743	-0.024570113
160	0xbc9e71c7	-0.019341363
161	0xbc2fa48e	-0.010720385
162	0xbcb4488d	-0.022007251
163	0xbc14935f	-0.009068339
164	0x3c9807d8	0.018558428
165	0x3aca17ba	0.0015418448
166	0xbcb1ee38	-0.021720037
167	0x3c2bee2b	0.010493795
168	0x3c97ab82	0.018514398
169	0x3c9cacc3	0.019125348
170	0x3cb1ef13	0.021720445
171	0x3b4b6497	0.0031035298
172	0xbc824b3d	-0.015905017
173	0x3cd41163	0.025887197
174	0x3c2aaca4	0.010417137
175	0xbcbcc197	-0.02304153
176	0x3be6b7fb	0.007040975
177	0x3c0d0190	0.00860633
178	0xbc3b3f55	-0.011428674
179	0xbbdeecf9	-0.0068031517
180	0xbc4ace9d	-0.012378362
181	0x3a719056	0.0009214928
182	0x3c5447cd	0.012956572
183	0x3aca60ba	0.0015440204
184	0xbc701d1c	-0.014655378
185	0xbb975bc9	-0.004619096
186	0x3b016fa2	0.0019750376
187	0xba757b52	-0.00093643845
188	0xbcb98bae	-0.022649612
189	0x3ca81151	0.02051607
190	0x3c8848de	0.016636308
191	0x3ba36d92	0.004987427
192	0xbcbab496	-0.022791188
193	0xbb9f82e4	-0.0048678983
194	0x3c1d2146	0.009590453
195	0xbc90c33f	-0.017671226
196	0x3c7c5b00	0.0154025555
197	0xbcb4377c	-0.021999113
198	0xbc44d069	-0.0120125795
199	0xbc36182e	-0.011114163
200	0xbc24482a	-0.010026971
201	0xbc33e6ac	-0.010980289
202	0xbca75b18	-0.02042918
203	0xbca7da93	-0.020489966
204	0x3c0e0e6a	0.008670429
205	0x3c8a72b3	0.016900396
206	0xbc4465b8	-0.011987142
207	0xba8c075c	-0.0010683346
208	0xbc17f7b9	-0.00927537
209	0xbb230781	-0.00248763
210	0xbc704999	-0.014665985
211	0xba293508	-0.00064547407
212	0x3ca45532	0.020060156
213	0xbb1b2aa2	-0.0023676534
214	0xbcc6ceb1	-0.02426848
215	0x3c59aed5	0.013286312
216	0x3c28d8f1	0.010305629
217	0xbc011b74	-0.0078800805
218	0xbcc96831	-0.024585815
219	0x3cb0f774	0.02160237
220	0xbb0ea7c6	-0.0021767481
221	0x3cdb1541	0.026743533
222	0xbc4f8223	-0.012665304
223	0x3c900924	0.017582484
224	0x3a649f2c	0.0008721228
225	0xbc717750	-0.014737919
226	0x3c20d590	0.009816542
227	0xbc987193	-0.018608844
228	0x3ce6983a	0.02814876
229	0xbc1b715a	-0.009487474
230	0xbcae7b6a	-0.021299083
231	0xbc991814	-0.01868824
232	0x3cab2e27	0.02089603
233	0x3ccf37f3	0.025295233
234	0x3cdbafb6	0.026817184
235	0xbc75f5f4	-0.015012253
236	0x3cbe6161	0.023239793
237	0xbcb268e6	-0.021778535
238	0xb75ae0a4	-1.3046116e-05
239	0x3bed11bb	0.0072347797
240	0x3c74d121	0.014942438
241	0xbc042ab4	-0.008066822
242	0xbaaba205	-0.001309455
243	0xbbbc3698	-0.005743813
244	0x3c67c595	0.014146228
245	0x3c05f4f5	0.008176078
246	0x3ba467d9	0.0050172624
247	0xbc73c41c	-0.014878299
248	0xbb58f1bf	-0.0033103076
249	0xbbb460fa	-0.0055047246
250	0x3c9fb354	0.01949469
251	0x3c8c2b2b	0.017110428
252	0xbca22e82	-0.019797567
253	0xbb2121ae	-0.0024586725
254	0xbbceaf34	-0.006307507
255	0xbbb92e2d	-0.0056512565

base.6.bias f4 [32]
0	0x3ba7ec2a	0.0051245885
1	0xbc24eb27	-0.01006583
2	0x3bcc34ba	0.0062318714
3	0x3c95ea99	0.018300341
4	0x3c4b84a1	0.012421758
5	0x3cc93b0c	0.024564289
6	0xbc1f7791	-0.009733097
7	0x3b542113	0.0032368347
8	0x3c4d99e0	0.012548894
9	0x3cb3a0b4	0.021927215
10	0xbbf9a632	-0.007618689
11	0x3cbaf41b	0.022821477
12	0x3c6bdb83	0.014395597
13	0x3ca2a5ed	0.01985451
14	0xba31e898	-0.00067866733
15	0xbb9283a4	-0.004471259
16	0xbc536065	-0.0129014
17	0x3afae5d6	0.0019141983
18	0x3c8756c7	0.01652087
19	0x3cbfe083	0.023422485
20	0xbb817c97	-0.00395162
21	0x3ca504dd	0.02014392
22	0xb9a9ee83	-0.00032411897
23	0x3cadb2e5	0.021203468
24	0x3c1821d0	0.009285405
25	0xbb3575f1	-0.0027688707
26	0x3cc125b0	0.023577541
27	0xbba1f4b5	-0.0049425014
28	0x3ccf9095	0.025337497
29	0xba98c61f	-0.0011655724
30	0xbb94fd09	-0.0045467657
31	0xbcc53ce8	-0.024076894

base.7.weight f4 [32]
0	0x3f827f24	1.019505
1	0x3f838d95	1.0277582
2	0x3f838a30	1.0276546
3	0x3f8290d0	1.0200443
4	0x3f82481c	1.0178256
5	0x3f86aea0	1.0522041
6	0x3f82eca3	1.0228466
7	0x3f83b4d4	1.0289559
8	0x3f836002	1.0263674
9	0x3f82299f	1.0168952
10	0x3f83ad0d	1.0287186
11	0x3f816bbb	1.0111002
12	0x3f8427de	1.0324667
13	0x3f82a6dd	1.0207173
14	0x3f83866b	1.0275396
15	0x3f8266c3	1.018761
16	0x3f833592	1.0250723
17	0x3f87480a	1.056886
18	0x3f81f124	1.0151715
19	0x3f84e867	1.0383424
20	0x3f844f48	1.0336695
21	0x3f827d32	1.0194457
22	0x3f81c1a2	1.0137217
23	0x3f82bca9	1.0213825
24	0x3f847977	1.0349568
25	0x3f830ccc	1.023828
26	0x3f82fe6b	1.0233892
27	0x3f84691c	1.0344577
28	0x3f8324b9	1.0245582
29	0x3f841b48	1.0320826
30	0x3f8236f2	1.0173018
31	0x3f82e7d4	1.0226998

base.7.bias f4 [32]
0	0x3c1b907d	0.009494898
1	0x3c7233d9	0.014782869
2	0x3c5b1fea	0.013374308
3	0x3c14f72e	0.009092135
4	0x3c31b355	0.010845979
5	0x3ce91792	0.028453622
6	0x3c488287	0.012238151
7	0x3c0d2346	0.008614367
8	0x3be14014	0.006874094
9	0x3bcfb91e	0.0063392064
10	0x3cd5a103	0.026077753
11	0x3c41f442	0.011838021
12	0x3c3fabd5	0.011698683
13	0x3a51fb17	0.00080101326
14	0x3a413cb9	0.0007371414
15	0x3c157ff9	0.009124749
16	0x3b81f1f8	0.0039656125
17	0x3cab763d	0.020930404
18	0x3c2deb07	0.010615117
19	0x3ca68849	0.020328658
20	0x3ca646d8	0.020297453
21	0x3c8f678d	0.017505432
22	0x3c1ffa51	0.00976427
23	0x3b1e1bfe	0.0024125571
24	0x3bc1a19e	0.005909159
25	0x3c3bacf6	0.011454811
26	0x3cbb20a0	0.022842705
27	0x3bc1fc7a	0.00591999
28	0x3c1d71e4	0.009609673
29	0x3bc688ee	0.0060588038
30	0x3c773f7d	0.01509082
31	0x3bcdd87a	0.0062819095

base.7.running_mean f4 [32]
0	0x3e02f66e	0.12789318
1	0xbf02b196	-0.51052225
2	0x3ced2e38	0.028952703
3	0x3c9b6844	0.018970616
4	0xbd64147b	-0.055683594
5	0x3e003da3	0.12523513
6	0xbe921e89	-0.2853892
7	0x3e426fc9	0.18987955
8	0x3cfd711f	0.03093773
9	0x3e110785	0.14163025
10	0x3e882fbe	0.26598924
11	0x3da27553	0.07932534
12	0x3dfac33e	0.12244271
13	0x3e11a905	0.14224632
14	0x3e330064	0.17480618
15	0xbe2b3140	-0.16718006
16	0x3d7864d9	0.06064305
17	0x3e73a856	0.23794684
18	0xbd1cbd54	-0.038266495
19	0xbd0088e5	-0.031380553
20	0x3d3f61a8	0.04672399
21	0xbc98aa07	-0.018635763
22	0xbdcc4646	-0.09974341
23	0x3ea0abc2	0.3138104
24	0x3da14b09	0.0787564
25	0xbd25a5e3	-0.040441405
26	0xbdbb2f59	-0.0913989
27	0xbd6eadc0	-0.05827117
28	0x3c0eac27	0.0087080365
29	0x3dad0492	0.08448137
30	0x3e19ff09	0.15038694
31	0x3dcc47b4	0.09974614

base.7.running_var f4 [32]
0	0x3e4b077c	0.19827074
1	0x3e7b6d0e	0.2455332
2	0x3dad3d8e	0.08459006
3	0x3e064907	0.13113795
4	0x3e077b80	0.13230705
5	0x3dceeacf	0.1010338
6	0x3dd0ed33	0.10201492
7	0x3d8c7942	0.068590656
8	0x3e0149ae	0.12625763
9	0x3e4eb45c	0.20185989
10	0x3e0041d6	0.12525114
11	0x3e0b1c86	0.135851
12	0x3dcd987d	0.100388505
13	0x3db119f5	0.08647529
14	0x3dac19cb	0.08403357
15	0x3dfe3221	0.12411905
16	0x3d42d8e8	0.04757014
17	0x3de5ac1e	0.112144694
18	0x3e0bfd3d	0.13670821
19	0x3d8f7391	0.070044644
20	0x3e58df31	0.21178891
21	0x3e39488e	0.18094084
22	0x3e07f223	0.13275962
23	0x3e03f0ec	0.12884873
24	0x3dc75420	0.097328424
25	0x3dc389f3	0.09547796
26	0x3de682f8	0.11255449
27	0x3d6054a0	0.054768205
28	0x3dbdfc65	0.09276656
29	0x3d8fa228	0.07013351
30	0x3e07982a	0.1324164
31	0x3d993320	0.074804544

head.0.weight f4 [24, 1024]
0	0xbb9ea655	-0.0048416057
1	0xbbd900e2	-0.0066224197
2	0x3cca44b2	0.02469096
3	0x3cc65624	0.024210997
4	0x3c97e709	0.018542783
5	0xbc4757a4	-0.012166891
6	0x3c8af703	0.016963487
7	0xbc2ec514	-0.010667104
8	0x3ba36dd6	0.0049874587
9	0x3c901d0e	0.01759198
10	0x3cf5b27e	0.029992338
11	0x3ce2e42c	0.027696691
12	0xbc8e89e0	-0.017399728
13	0xbc7b9315	-0.015354891
14	0xbc871baf	-0.016492693
15	0x3cbc45ae	0.022982445
16	0x3c70f9cc	0.014707994
17	0xbbc011f1	-0.005861514
18	0x3c2d8586	0.0105909165
19	0x3c8d1057	0.017219706
20	0x3b421b64	0.0029618377
21	0xbc3957d3	-0.011312443
22	0xbbbd494b	-0.0057765595
23	0x3bb17fba	0.0054168375
24	0x3c58f2e6	0.013241505
25	0x3c8ca841	0.017170073
26	0xba227e50	-0.00061986316
27	0x3cc187f9	0.023624407
28	0x3d13e42b	0.03610627
29	0xbbba1cf4	-0.005679721
30	0x3d38cc18	0.045116514
31	0xbc20fde8	-0.009826161
32	0xbc5d5c3e	-0.013510762
33	0x3c19a72e	0.009378238
34	0x3d324dfd	0.043531407
35	0x3c7d3e28	0.015456714
36	0xbbc39aad	-0.0059693665
37	0x3cbc85c2	0.023013
38	0xbc0a80c5	-0.008453553
39	0xbc84a735	-0.016193012
40	0x3d1de6c4	0.038550153
41	0x3d0bd6d5	0.034140427
42	0x3cac6632	0.021044824
43	0xbb9b06ad	-0.0047310204
44	0x3d1a5568	0.037679106
45	0x3cb81f1a	0.022475768
46	0x3ca1b709	0.019740598
47	0x3ca3f9f4	0.020016648
48	0xbcf4e955	-0.029896418
49	0xbcb84ff3	-0.02249906
50	0xbcfe0142	-0.03100646
51	0x3cd50856	0.026004951
52	0x3ca73bac	0.020414196
53	0x3c8e3ade	0.017362054
54	0x3cf62457	0.030046625
55	0xbb6550be	-0.0034990753
56	0x3ca3f4a2	0.020014111
57	0x3c16def5	0.009208431
58	0xbb9434b1	-0.004522883
59	0x3cb52323	0.022111481
60	0xbd0d39de	-0.034479015
61	0x3c99b0ad	0.018761003
62	0xbbd346e3	-0.0064476593
63	0x3c9d19a8	0.019177273
64	0xbba90a71	-0.0051587154
65	0x3be81d3e	0.007083564
66	0xbbbcf8b4	-0.0057669524
67	0x3c153e55	0.009109099
68	0x3d2489cf	0.040170487
69	0x3d2ee333	0.042697143
70	0xba03315e	-0.00050046097
71	0x3c15e721	0.009149344
72	0xbb7299d5	-0.003701796
73	0xbac63fcd	-0.0015125215
74	0x3d05e22b	0.032686394
75	0x3c9217db	0.01783364
76	0xbc226e63	-0.009914014
77	0xbba8cb28	-0.0051511712
78	0x3c45518d	0.012043369
79	0x3d02359c	0.031789407
80	0x3ca5fc6d	0.020261968
81	0x3b492c5a	0.0030696602
82	0x37c4f139	2.3477349e-05
83	0xb9fe3d82	-0.00048492482
84	0x3cc25bb4	0.023725368
85	0xbcb98614	-0.022646941
86	0x3c7340d0	0.0148469955
87	0x3c0e9a9b	0.008703853
88	0xbcd81b21	-0.026380124
89	0xbb596990	-0.0033174492
90	0xbbfc705d	-0.0077038244
91	0x3bdc5059	0.0067234454
92	0x3c161c90	0.009162083
93	0xbc61a360	-0.013771862
94	0x3d056f5d	0.032576907
95	0xbca13e87	-0.019683136
96	0xbc861b4d	-0.01637044
97	0xbccda1ef	-0.02510163
98	0xbc7c9b40	-0.015417874
99	0xbcb9523d	-0.022622222
100	0x3cd82708	0.026385799
101	0x3d154eb6	0.036452018
102	0x3d004732	0.031317897
103	0x3c945c45	0.018110404
104	0x3caa2e64	0.020774074
105	0xbcb2fe07	-0.021849645
106	0xbcb57176	-0.022148829
107	0x3bb829fb	0.005620239
108	0x3cfe0f95	0.03101329
109	0xbcfa1881	-0.030529262
110	0xbc920da3	-0.017828768
111	0xbcf62a9d	-0.030049616
112	0x3ca2ad22	0.019857947
113	0x3ce0b34b	0.027429244
114	0x3ce27500	0.02764368
115	0x3a007532	0.0004900276
116	0x3c45c3bf	0.012070595
117	0xbcbd9735	-0.02314339
118	0x3cbc9579	0.023020493
119	0x3b929c70	0.004474215
120	0x3c8f419a	0.017487336
121	0x3ceab35f	0.028649984
122	0xbc4ffe51	-0.012694911
123	0xbb882eb4	-0.004155958
124	0xbb8b26b4	-0.004246557
125	0x390dc020	0.0001351838
126	0x3bc6934f	0.006060041
127	0xb9fbbeb3	-0.00048016533
128	0x3be7512d	0.0070592375
129	0x3c87aab2	0.016560886
130	0xbc859f04	-0.016311176
131	0xbc8941b4	-0.016754963
132	0xbc17375f	-0.00922951
133	0xbaaea48e	-0.0013324188
134	0xbc2f9d38	-0.010718636
135	0xbca689a2	-0.0203293
136	0x3bf90119	0.007599008
137	0x3cef82c0	0.029237151
138	0xbc132af0	-0.008982405
139	0x3ce03006	0.02736665
140	0xba12291e	-0.0005575585
141	0x3cc46297	0.023972793
142	0x3a7a3370	0.0009544408
143	0x3d068071	0.032837335
144	0xba28938b	-0.0006430677
145	0xbcb68f05	-0.022284994
146	0x3d132661	0.035925273
147	0x3d1470df	0.036240455
148	0x3cbac338	0.022798166
149	0x3d1152eb	0.035479467
150	0xbcd1926d	-0.025582517
151	0xbc285be4	-0.010275815
152	0xbcbd9d5a	-0.02314632
153	0x3c18bef0	0.009322867
154	0x3c2be075	0.010490526
155	0x3c357f31	0.011077688
156	0x3bb4b5d6	0.0055148406
157	0xbc2f54e5	-0.010701393
158	0x3c9019b6	0.017590385
159	0x3bedad63	0.0072533353
160	0x3c09cb4c	0.008410286
161	0x3c9315ee	0.017954793
162	0x3b0bb9a2	0.0021320363
163	0x3d202e30	0.039106548
164	0xbc70e770	-0.0147036165
165	0x3cb92983	0.022602802
166	0x3ca9f89a	0.020748425
167	0xbada2242	-0.001664229
168	0x3cab5ef3	0.020919299
169	0x3d2f0b84	0.04273559
170	0x3d153765	0.03642978
171	0xbc64d59a	-0.013966942
172	0x3c276947	0.010217971
173	0x3d004a9b	0.03132115
174	0xbc2ff398	-0.01073923
175	0xbc824582	-0.015902285
176	0x3c655a19	0.013998532
177	0x3ce4db9e	0.027936753
178	0x3bd6f12d	0.006559512
179	0xbc910c49	-0.017706053
180	0xbc5cfbca	-0.013487766
181	0xbc0f4aec	-0.00874589
182	0xbcf99302	-0.030465607
183	0xbca5c370	-0.020234793
184	0x3b9b3bd4	0.0047373567
185	0xbab9c592	-0.001417326
186	0x3c6e4a0a	0.0145440195
187	0xbd0d5a2e	-0.03450983
188	0xbd0f9daa	-0.03506247
189	0xbb556772	-0.003256288
190	0x3ca0d6b0	0.019633621
191	0x3ba277f6	0.004958148
192	0x3c2393a9	0.009983935
193	0xbbdbf313	-0.0067123263
194	0xbc1a1caa	-0.009406248
195	0x3adb333a	0.0016723641
196	0x3c56d397	0.01311197
197	0xbcb5c6f2	-0.022189591
198	0x3b208f27	0.0024499388
199	0x3be1a68b	0.0068863085
200	0x3d06a32f	0.032870468
201	0xbc1ab6b1	-0.009442971
202	0x3cc65c8e	0.024214055
203	0x3d0d4a41	0.034494642
204	0x3c42a216	0.011879465
205	0xbc0e887f	-0.008699535
206	0xbc189f6b	-0.009315352
207	0xbb503c97	-0.0031774396
208	0xba03867f	-0.0005017295
209	0xbc8d42da	-0.017243791
210	0xbc35816e	-0.011078222
211	0x3b372425	0.0027945128
212	0xbcb3ce44	-0.021948941
213	0xbb949a53	-0.0045349984
214	0xbcb2ef73	-0.021842694
215	0x3ca67146	0.020317685
216	0x3b104a3f	0.002201691
217	0x3c99abe8	0.01875873
218	0x3ce0dd3e	0.027449246
219	0x3d3e8d92	0.04652173
220	0xbbfff7d0	-0.007811524
221	0x3d0bdda6	0.034146927
222	0x3c89d331	0.016824337
223	0x3d04ccea	0.032421984
224	0x3cbe2462	0.023210708
225	0xbc43ef8d	-0.011958969
226	0x3c12f62e	0.008969827
227	0xbc041891	-0.008062498
228	0xbb94b042	-0.004537613
229	0xbc2f0fb2	-0.010684894
230	0xbbbacdcf	-0.005700804
231	0xbcd6624b	-0.026169917
232	0xbcdac5d8	-0.026705667
233	0xbcb0412d	-0.021515453
234	0xbcd7e0ef	-0.026352374
235	0xbb60e0c6	-0.0034313663
236	0xbcd97881	-0.026546719
237	0xbd15d09f	-0.03657591
238	0xbd0113fb	-0.031513195
239	0xbc73f7a7	-0.014890588
240	0xbd011c16	-0.031520925
241	0x3bc668ab	0.006054958
242	0xbd163bab	-0.036677998
243	0x3c2f8be1	0.010714502
244	0x3b43dbe9	0.0029885715
245	0x3c8cfa4d	0.017209196
246	0x3a60db91	0.000857764
247	0xbb26161d	-0.002534277
248	0xbcc54b4f	-0.024083761
249	0x3c840782	0.016116861
250	0xbc40caed	-0.011767131
251	0xbc2cb8f1	-0.01054214
252	0xbae9587e	-0.0017802862
253	0x3ca4203f	0.020034907
254	0x3b8f94bf	0.0043817456
255	0xbb96b843	-0.0045996024

head.0.bias f4 [24]
0	0xbc4222b8	-0.011849098
1	0x3cb1c312	0.021699462
2	0x3c24dae6	0.010061955
3	0x3cc41712	0.023936782
4	0xbc47ca1b	-0.012194182
5	0x3cff9ad5	0.03120176
6	0xbc759521	-0.014989168
7	0x3caf3e06	0.02139188
8	0x3d006a95	0.031351645
9	0x3c8de469	0.017320829
10	0xbc6fee1d	-0.014644173
11	0x3d1d523e	0.03840851
12	0xbc4cecdb	-0.012507643
13	0x3c5f77c1	0.013639391
14	0xbbac9358	-0.005266588
15	0x3c5ea701	0.0135896215
16	0xbc78ed53	-0.015193301
17	0x3cf992aa	0.030465443
18	0x3c5546e2	0.013017388
19	0x3d006134	0.0313427
20	0xb921dbf8	-0.00015436101
21	0x3be220cc	0.0069008823
22	0x3d13022f	0.035890754
23	0x3bf0dc5f	0.007350489

head.2.weight f4 [2, 24]
0	0x3d162572	0.036656804
1	0xbd2c83e5	-0.042117972
2	0x3d52a2bc	0.051424727
3	0xbe5f8d54	-0.21831256
4	0xbd64e1cf	-0.05587941
5	0xbe40eddf	-0.1884074
6	0x3d34501e	0.04402172
7	0xbe6c46ef	-0.23073934
8	0x3e0a98c7	0.13534842
9	0x3e09e095	0.13464577
10	0x3c5d7e3c	0.013518866
11	0x3e182a23	0.14859824
12	0xbd362c64	-0.044475928
13	0x3e68c5a9	0.22731651
14	0x3dbc533e	0.09195565
15	0x3de698af	0.11259591
16	0x3e07627a	0.1322116
17	0x3d6a609a	0.057221033
18	0x3e070fc0	0.13189602
19	0xbe256215	-0.16150697
20	0xbe56e23e	-0.20984742
21	0xbddc2f63	-0.10751226
22	0xbe16d2f2	-0.14728907
23	0x3d92e912	0.07173361
24	0xbd59c061	-0.053161982
25	0x3e13d6d9	0.14437427
26	0xbcae7263	-0.021294778
27	0x3d88f8c2	0.06688072
28	0x3bde8053	0.0067902
29	0x3d8dcb2a	0.06923516
30	0xbd9e2162	-0.07721211
31	0xbd08f45d	-0.033436168
32	0xbe40337e	-0.18769643
33	0xbe43ff9e	-0.19140479
34	0x3e573307	0.21015559
35	0x3d760b8e	0.060069613
36	0x3e4cdbb2	0.20005682
37	0x3daa6d14	0.08321586
38	0xbdef97be	-0.116988644
39	0x3d6b9738	0.05751726
40	0x3d9d36c9	0.07676465
41	0xbe49e44d	-0.19715996
42	0x3c72038c	0.014771353
43	0x3dc98937	0.09840625
44	0xbde3798c	-0.111071676
45	0x3df72ffb	0.120696984
46	0x3d48e82f	0.049049553
47	0x3e395a82	0.18100932
